graph_vae_model.pt (torch, 656396 bytes, 29 tensors)

encoder.input_net.0.weight f4 [64, 7]
00000000: 6258 923e c300 9f3e ae06 bcbd 1f0d a53e
00000010: 84f5 49bd 8423 9f3d e639 19be 9f4c 633e
00000020: fafa a83e 59f8 8dbe 001f a23e e8df 903d
00000030: 01f9 8e3e 73aa 513d 41d7 3d3e 7395 5abd
00000040: 5def 963e 597d 503d 05af 34be 7e4e b73d
00000050: 4d52 32be 1a8e 35bd 9f32 1dbe c55f 803e
00000060: d7c1 98be 6b6d 32be 0294 dabd bfb6 68be
00000070: 571e 123d 2d22 bfbe 9815 ad3e 2163 a4be
00000080: ab66 953e fed1 803d 2d58 fbbd 59d3 6a3e
00000090: adfa 7d3d 60a3 9a3e cda8 923d 0e1f f4bd
000000a0: 126a b83d 86e9 d1bd 2e9f 1f3e a35c ad3e
000000b0: ab89 5c3e 8b33 29be d331 403e 0a61 823d
000000c0: ed75 373e 71e6 6bbe 9e90 bfbe 0889 15be
000000d0: be6e 94be 5d82 963e efbf d03d 080c c83d
000000e0: 1b3a fb3d 9973 d7bb dbbb 953e 3d7f 89be
000000f0: 21f4 c23c 6c15 84be 5674 0a3e 7874 08be
00000100: 7df0 e63d 9c82 9abd 1062 8f3e be7f 58be
00000110: 3f14 5bbe 62ac 82be f384 ac3e 411f fc3d
00000120: 43e3 bb3e a6b4 9fbe 19f2 bfbe bd66 97be
00000130: 652d 82be d4c3 1c3e 8e96 0a3e 7f1e 9f3e
00000140: 01e0 47be 62ec 83be 465a 4d3e 0871 1cbe
00000150: e9b5 673e 06b0 b7bd 540e 5a3e 6e5b 96be
00000160: 4351 43be c310 d93d 3bb8 4d3d 325b c5bd
00000170: a2f2 693e 4e3f 853e 7e55 8cbe 42a0 4ebe
00000180: 1de1 ae3e 3099 02be 3afc 12be 2e3f bbbe
00000190: cea4 5dbe 810f ba3d 4a4a 6abd cc78 8cbe
000001a0: 07d9 51bc 3d30 84be 0b2e a4be 4520 55be
000001b0: 7f5e a9be b870 76be bb93 b93e e233 923d
000001c0: dafa f43d b47d b4be e231 7ebe ee55 eebd
000001d0: 117a 683d cb47 aabe 62c3 26be c0b4 67be
000001e0: 294a 893a 6704 10be 378f d6bc 2822 83be
000001f0: 66d4 84be 1acc 61be 367b 04be 6bbd 98be
00000200: dc98 a03e 14a0 99bd 04b4 ae3e ce2f f13d
00000210: ccde a3be e04f 843e 50fb d4bd 605c 14be
00000220: 28a2 a0be 4663 c0be 5378 dd3d 5317 a9bd
00000230: 6d76 133e cc77 a0be 0902 8e3e 4db5 94be
00000240: 38b8 90bd 6127 8c3d cf0e 303e c636 9d3e
00000250: 9e15 b23e 51ca 97be 19dd 9b3d 2939 49be
00000260: 6809 09bd c291 67be 3ddd b13e 5095 8fbe
00000270: 3557 523e b0fb 183e eb90 663d 0068 4bbe
00000280: c976 af3e 9a84 b03d 7c63 543d db89 aabe
00000290: 82ba 163e b506 6cbd 63c3 25be 603e a93e
000002a0: aa12 b33d 75db 52be 707f 40be 1a8d c4bc
000002b0: 6903 523e fa8a c0bd 6707 11be 9f89 04be
000002c0: 8192 90be 1040 0d3e 0bd1 843e 7b2f b6be
000002d0: 423b aa3d 5d55 353e a25c 8c3d 3ad5 09be
000002e0: 9c02 4a3e 6f64 4b3e 21b9 103e 5905 88bd
000002f0: 9cf9 ccbd c3e2 183d 1633 8fbd 4c56 edbd
00000300: 4182 7a3e 055c 9f3e ed7f 45bd 7324 a4bd
00000310: 41ba b43b acdf b8bc 7018 ba3d b8eb d83d
00000320: 8cc3 afbe acd4 0ebe 87d7 963e 8bc5 163e
00000330: 6f00 9abc 9358 69be 55ca 6cbe ca58 adbe
00000340: 7151 fcbd 1cb4 023e e792 733e 176b 2f3e
00000350: 150f abbe aabf 68be 9952 74bd 2e5f b93e
00000360: 4ef3 5f3d 3876 c8bd 3d51 233e 2b6a 13be
00000370: d082 7abe 1fd2 633e 5cfc 2fbe 6193 82bd
00000380: 2983 c0be fa1f 803e b0e8 903e ba06 d43d
00000390: 5bef 86be 8efd bebe cd2b 9dbe beb2 8e3e
000003a0: b492 363e f22f a13e 800f 443e 4fe9 c33d
000003b0: 4b91 72bb e52b 93be f9cc a5be b201 b5be
000003c0: 0a70 1e3e a805 3ebe a9c8 9bbd b4bd 5ebe
000003d0: d40d 8dbd 6034 88be 28e5 7cbe 16b9 033e
000003e0: 1a0d e6bd 379c 653e 2f54 f8bd 55f5 8dbe
000003f0: 8893 88bd 519d 3bbe 11d2 ecbd 653a b8be
0.28583056 0.3105527 -0.091809615 0.32236573 -0.049306408 0.07770446 -0.14963493 0.22197197
0.3300398 -0.27728537 0.31664276 0.07073957 0.2792435 0.051187944 0.18539144 -0.053365182
0.29479495 0.05090079 -0.1764489 0.08950518 -0.17414208 -0.04432497 -0.15351342 0.25073066
-0.29835388 -0.17424552 -0.106727615 -0.22725962 0.035673466 -0.37330762 0.33805537 -0.3210688
0.29179892 0.06290053 -0.122726776 0.22932185 0.06200664 0.3020277 0.071611024 -0.11919986
0.09004606 -0.10249619 0.15588066 0.3385974 0.21536891 -0.16523568 0.18769006 0.06366165
0.17916079 -0.23037125 -0.37415022 -0.14603055 -0.2899074 0.29396334 0.101928584 0.0976792
0.12266942 -0.0065750596 0.29244885 -0.26854888 0.02379805 -0.25797594 0.13520941 -0.1332568
0.11276338 -0.07544443 0.28004503 -0.2114248 -0.21394442 -0.25522143 0.33695182 0.12310649
0.36696824 -0.3119251 -0.37489393 -0.2957057 -0.25425258 0.15309078 0.13533995 0.31077954
-0.19519044 -0.25766283 0.20053968 -0.15277493 0.22627987 -0.08969121 0.21294528 -0.2936663
-0.19073968 0.105989 0.050224524 -0.09636535 0.22846463 0.2602486 -0.27408975 -0.20178321
0.34156123 -0.12753749 -0.1435403 -0.3657164 -0.21644899 0.090849884 -0.057199754 -0.2743591
-0.012808091 -0.25818053 -0.32066378 -0.20813091 -0.33079907 -0.24066436 0.36245522 0.07138802
0.11961909 -0.35252154 -0.24823716 -0.116374835 0.056757037 -0.332579 -0.1628547 -0.22627544
0.0010474372 -0.1406418 -0.026191337 -0.25611997 -0.25943297 -0.22050515 -0.12937626 -0.29832014
0.31366622 -0.075012356 0.34121716 0.11776696 -0.32005918 0.2584219 -0.103994966 -0.14488363
-0.31373715 -0.3757574 0.10813966 -0.08256402 0.14400645 -0.31341398 0.27735928 -0.29044572
-0.07066387 0.068434484 0.17193149 0.3070585 0.34782118 -0.29646543 0.076105304 -0.19650711
-0.033456236 -0.22614196 0.34739104 -0.28043604 0.2054108 0.14939761 0.05629055 -0.19863892
0.34270313 0.08619042 0.05185269 -0.333083 0.14719585 -0.057623584 -0.16187815 0.330554
0.08743794 -0.20591529 -0.18798614 -0.023993064 0.20509113 -0.09401508 -0.1416298 -0.12943123
-0.28236774 0.13793969 0.25940737 -0.355831 0.08312084 0.17708345 0.06853606 -0.13460246
0.19727558 0.19862531 0.14133121 -0.06641645 -0.10008547 0.03732563 -0.06992166 -0.115887254
0.2446375 0.31124893 -0.048217703 -0.08014765 0.0055153673 -0.022567593 0.09086692 0.10591835
-0.34328878 -0.13948315 0.2946131 0.14723794 -0.018799035 -0.22787695 -0.23124059 -0.33856803
-0.12320221 0.12764019 0.23786508 0.17130695 -0.33409944 -0.22729364 -0.059649084 0.3620543
0.054675393 -0.097881734 0.15948959 -0.14395969 -0.24463964 0.22248124 -0.17186111 -0.063757665
-0.37600067 0.25024396 0.28302526 0.103528455 -0.2635449 -0.37302822 -0.3069748 0.27870744
0.178294 0.31481892 0.19146538 0.095659845 -0.003701287 -0.28744426 -0.32382944 -0.35352856
0.15472427 -0.18556845 -0.07606632 -0.21752053 -0.06887403 -0.2660246 -0.24696791 0.12863573
-0.11232968 0.22422872 -0.12125432 -0.27726236 -0.06668764 -0.1832173 -0.115635045 -0.35982051

encoder.input_net.0.bias f4 [64]
00000000: 2008 963e e85f 95be 4690 d5bc 3fd5 bebe
00000010: ca18 a0be 9f0b 8e3d c063 c73d 00d6 933d
00000020: ef44 ccbd fcf4 b03e 6531 513d 54be 67be
00000030: a9ef c8bc c37b c03d 8973 ff3d a2b2 90be
00000040: 2847 143e baba 45be a876 a2be 529f 56be
00000050: 3b03 b93e c885 a73e 20e6 ae3e a667 663e
00000060: d7d2 933e 3a6e 42bd 31f5 54be 4030 3e3e
00000070: 3ece 60be 3b99 82be 909c fdbd 06d6 a83d
00000080: abe5 433e 188e 19be cfcb 63be 4b31 5e3d
00000090: b321 64be a4b2 78be 7b0a 4d3e af81 88bd
000000a0: 4b71 b23e 5da1 ba3e 6415 e13d b7fd 013e
000000b0: 5ebd b83d 10ab 103c 5f02 fbbc 1756 033b
000000c0: 2b4f 0d3e aa56 b23e 2300 cfbd 89d5 26be
000000d0: a7e6 c1bd 362c 3ebe 1449 7a3d 28dc 8e3e
000000e0: 52ba 953e b423 353e 86b1 86be 7a7b 4cbe
000000f0: ecc5 aebd 51ee 87bd 2456 e43c c53c b3be
0.29303074 -0.29174733 -0.026069771 -0.3727207 -0.31268913 0.0693581 0.09735823 0.07218552
-0.099740855 0.34561908 0.051072497 -0.22631198 -0.024528341 0.09398606 0.124732085 -0.28261286
0.14480269 -0.19309512 -0.31731153 -0.20959213 0.36135277 0.32719254 0.34159946 0.22500476
0.28871796 -0.0474684 -0.20796658 0.18573093 -0.21953675 -0.2550753 -0.123833776 0.08243947
0.1913058 -0.1499561 -0.22245716 0.05424623 -0.2227848 -0.24286896 0.20023529 -0.0666536
0.3485206 0.36451235 0.10990408 0.12694441 0.09020494 0.008829847 -0.030640779 0.0020040327
0.13799731 0.34831744 -0.10107448 -0.16292395 -0.094678216 -0.18571553 0.06110485 0.2790234
0.29243714 0.17689401 -0.26307315 -0.19968978 -0.08533844 -0.06637252 0.027873106 -0.350073

encoder.message_layers.0.message_net.0.weight f4 [64, 64]
00000000: 6c80 123d 3ccc c9bd da68 a8bd 7cd5 d4bd
00000010: ce0e df3d 89d7 f8bd 1db0 ba3d 9bb9 403d
00000020: dcdd 90bc f1b0 993d 43b1 70bc 2c8d a03d
00000030: 36ab b23d eac6 e4bd 9a25 153d 484f c13c
00000040: 7a78 c23c c87e 953c 1ab4 de3d 5b92 81bd
00000050: f5b4 9cbc 3ccd ec3d 5c91 a53d 125f 00bc
00000060: d433 f7bd 3246 d1bb 4854 aebd 6ac0 c93d
00000070: ac7f 62bd 70de 13bc 12f6 fcbc 3029 9c3c
00000080: e163 ea3d 2338 0f3c 1844 943d 43d0 133e
00000090: f2ab ce3d 6be4 3dbd 87c0 febc 67e5 693d
000000a0: 2890 18bd 49e5 623d d566 f9bc f10c b4bd
000000b0: fb5d 433d 5840 833c 586c 573d 1ed2 f73d
000000c0: 8858 a83d 0e44 ec3d 748f 683b e436 dcbd
000000d0: e102 babd 966f a5bd fd05 e8bd 58be 86bd
000000e0: cc17 f2bd 74b7 f2bd 19f4 42bd 9b72 01be
000000f0: 7765 b1bd 19c8 0f3d 7601 cf3d b785 60bd
00000100: 10ee 14bd 2ab1 883d 1c9b 7cbd 1c17 72bd
00000110: aaba 9d3d a00d dfbd 306b 7a3c 5225 e23d
00000120: 289a af3c 383c 0b3d 9617 95bd 000b e2ba
00000130: 6037 e13b 2053 fb3c 80ef 463d 0e72 de3d
00000140: 9867 c3bd c08e 753b 54d0 7fbd 2a83 cabd
00000150: c0ff 23bc 3457 e1bd 86a9 b23d 5030 6d3c
00000160: 28f9 89bd bec7 853d 1a49 f2bd 8c0a 46bd
00000170: 907e c7bc 3c89 d9bd 94c9 a2bd c822 a7bc
00000180: 663e c23d 1e35 f73d 18e2 a23d 1edd 98bd
00000190: 0a7b a7bd d268 df3d 741a 353d 80a4 593b
000001a0: 8094 8a3c 12bf cdbd 08f3 2abd 246e f63d
000001b0: 288d fcbc e078 cdbb 9490 d4bd 4e35 8fbd
000001c0: 0047 27bb 4e04 9fbd c0f8 7dbc f45c 503d
000001d0: d469 fabd f811 183d f044 a9bd d4e1 79bd
000001e0: d08f 443d 008d cb3d 1cef 0bbd 1c36 52bd
000001f0: 007c e7bd 2402 84bd be29 e0bd 085d eabc
00000200: 12a4 ec3c 9820 e9bd ff76 e63d b09c a03d
00000210: 2dc9 f3bd b2af 66bd 4acc 343d c0e1 05bd
00000220: 34bf 27bc 3363 59bd 638e d43d 4643 88bd
00000230: fa3c db3d 225f 3a3c b7d6 9a3c 6973 be3d
00000240: ffe1 8cbc 7cc0 91bd 0358 8bbc bb91 d63d
00000250: 2c02 b7bd 9110 023d b4a5 f4bd 5427 8d3d
00000260: 0d11 4b3d 6ea6 0d3c 34bf 5b3d b90d 673b
00000270: 88a8 8d3d a4a7 cabd 9148 75bc 4798 703d
00000280: 18da 023e df55 893d 1a28 babd 49be cb3d
00000290: a859 e4bc 889d bfbc b5c2 e1bd 8a88 85bc
000002a0: 2803 bc3d 6f7b aa3c fe27 8ebd 9c79 2b3d
000002b0: 758a 16bd 8b9e f03d a243 d7bd eb3e 14bd
000002c0: 5350 f0bd a1f6 3bbd 26fc 2e3d 6846 fd3d
000002d0: bfc0 c73c 7af3 003e d921 e43c 12cd 9a3d
000002e0: 4326 d43d 8cd2 dc3d 0e4a 8fbd 591a f23d
000002f0: acdd 8d3d 95a7 61bd 2ce0 66bd 8bf8 e2bd
00000300: 1095 003d 2880 cfbd 0c48 583d 3cb0 213d
00000310: d269 debd 3c85 0b3d a090 26bc 04e4 693d
00000320: e0e3 923d 4a80 febd fec6 ea3d 3eb1 d63d
00000330: 68b7 4b3d 5af9 e9bd a4e5 36bd d461 14bd
00000340: 3c95 03bd 445d 903d ec25 3a3d 40cc ca3d
00000350: 80c1 3fbd f04e 2c3d c82a 363d ac24 d5bd
00000360: 3853 f8bd ead5 84bd 843e af3d 8003 f1bd
00000370: c0d4 debd 4e69 8f3d 921e 8a3d 5488 d23d
00000380: aa43 c1bd c85d bbbd 1853 833d 16a0 de3d
00000390: bc2c 993d 6869 a03c 04be 283d f8f9 f23d
000003a0: 1c2c a5bd 3c74 68bd 4410 b33d 542a afbd
000003b0: 6029 8dbd b2e0 ba3d 1c8c 213d 7069 253d
000003c0: 9c01 59bd 801b e2ba b24c ea3d 06a8 99bd
000003d0: 80d0 803a c881 733d 30bb b0bd 0c9f f83d
000003e0: f4cc 7fbd 38e6 f5bc 3088 0abd 1ed3 a6bd
000003f0: 2834 fbbd 9458 903d 7006 083d 12c5 efbd
0.035767004 -0.09853408 -0.08223124 -0.103922814 0.10891496 -0.12150485 0.09115622 0.047052007
-0.017683916 0.07504452 -0.0146907 0.078394264 0.08724062 -0.11170752 0.036412813 0.023597375
0.023739088 0.01824893 0.108741954 -0.06326743 -0.019129256 0.11562583 0.08084366 -0.0078351665
-0.12070432 -0.0063865418 -0.08512169 0.09851153 -0.05529754 -0.009025201 -0.030879054 0.019062608
0.11444832 0.008741411 0.0723955 0.14434914 0.1009139 -0.046360414 -0.031097664 0.05710354
-0.037246853 0.055394445 -0.030444542 -0.08791531 0.04769705 0.016021892 0.05259356 0.121006235
0.08220011 0.11536418 0.0035485895 -0.10752657 -0.0908258 -0.08077924 -0.11329267 -0.06579274
-0.11820945 -0.11851397 -0.04759607 -0.12641375 -0.08661931 0.035102937 0.101077005 -0.05481502
-0.036359847 0.06674416 -0.06167136 -0.05910407 0.07701619 -0.10891271 0.015284345 0.110422745
0.021435812 0.033992976 -0.07279889 -0.001724571 0.0068730563 0.030679286 0.04856825 0.10861598
-0.09541243 0.0037469119 -0.062454537 -0.09888299 -0.010009706 -0.11002961 0.0872374 0.014476851
-0.06736976 0.065322384 -0.11830349 -0.048349902 -0.024352342 -0.106218785 -0.07948604 -0.020402327
0.09484558 0.12070678 0.0795328 -0.0746405 -0.08177765 0.10908665 0.04421468 0.0033209622
0.016916513 -0.100462094 -0.04173568 0.120327264 -0.030829027 -0.006270513 -0.103791386 -0.06992589
-0.0025524497 -0.07764493 -0.015501201 0.050869897 -0.12227216 0.03712651 -0.08265102 -0.061006382
0.047988713 0.09939003 -0.03416358 -0.051321134 -0.11302948 -0.06445721 -0.10945462 -0.028608814
0.028886829 -0.1138317 0.112531655 0.07842386 -0.119036056 -0.0563199 0.044140138 -0.032685995
-0.0102384575 -0.05307312 0.103787206 -0.066534564 0.1070499 0.0113752205 0.018901212 0.092993565
-0.017197607 -0.071167916 -0.01700974 0.10477015 -0.08935961 0.03175408 -0.11945668 0.06892267
0.049576808 0.008645637 0.053649142 0.0035255982 0.069169104 -0.09895256 -0.014970914 0.058738973
0.12778509 0.06705832 -0.0908968 0.099484034 -0.027874783 -0.023390546 -0.110234655 -0.016300458
0.091802895 0.02081081 -0.06941222 0.041864023 -0.036753137 0.1174899 -0.10510947 -0.036192816
-0.11734071 -0.0458895 0.042720936 0.123669446 0.0243839 0.12592879 0.027848171 0.07558645
0.1035886 0.10782346 -0.06996547 0.11821432 0.06927046 -0.05509146 -0.05636613 -0.11082562
0.031392157 -0.10131866 0.052803084 0.03947471 -0.108600274 0.03406261 -0.010166317 0.05710222
0.0717237 -0.12426813 0.11463736 0.10483025 0.049735457 -0.11424513 -0.044652596 -0.03622611
-0.032124743 0.07049039 0.04544632 0.09902239 -0.046815395 0.04206747 0.044474393 -0.10407385
-0.12125248 -0.06486113 0.08556846 -0.11768246 -0.108804226 0.07002507 0.06744112 0.10279909
-0.09436734 -0.09148747 0.06412333 0.10870378 0.074792355 0.019581512 0.041196838 0.11864084
-0.08065054 -0.056751475 0.08743337 -0.08552995 -0.06892657 0.091248885 0.03944026 0.040383756
-0.05298005 -0.0017250627 0.1144041 -0.07502751 0.0009827763 0.05944994 -0.08629453 0.12139711
-0.062451318 -0.030017003 -0.033821285 -0.08145736 -0.122658074 0.07048145 0.033209264 -0.1170751

encoder.message_layers.0.message_net.0.bias f4 [64]
00000000: c855 863b 304e c1bd b7f3 183d 52d5 dbbd
00000010: e6e8 42bd f4c6 ab3d 8b07 ea3d 4dc4 30bb
00000020: c05e bdbd d831 d2bd cec6 e1bc 278c 78bd
00000030: cbe4 c43d 947e b6bd 6d4b 933d 6840 a83c
00000040: d0b9 1bbd 273d ca3d 203b 883d 6ddb c0ba
00000050: a813 a7bd 116a 09bd 9f21 323d 4173 d73d
00000060: 35e2 33bd 56cb 47bd 0020 fabd b569 833d
00000070: 953e f33d 7d36 a93d d2d0 87bd 7441 be3d
00000080: d316 0dbd 2c1a 6b3d 9f89 8e3d adfb d9bd
00000090: 8ee0 e33c 819e 3f3d 22e6 99bd 974b e63d
000000a0: 0f86 c13d 9f9d cf3d f518 043b 4af8 88bd
000000b0: 992c 92bd f8ad 163d c86f cbbc 0df3 c43d
000000c0: baa3 dc3d 9eb5 d53b 5495 d1bd 5054 3e3d
000000d0: 818d eb3d 0aa6 e7bc 54fa 85bd 1aa2 d5bc
000000e0: e174 923c 9eeb b6bd 3d3a 823d 99ff 4d3d
000000f0: fcc0 43bd f4aa 3dbd 9d53 16bd fd99 ce3d
0.0040995814 -0.09438741 0.0373418 -0.10734047 -0.04758539 0.08387557 0.1142722 -0.0026972473
-0.09246588 -0.10263413 -0.027560618 -0.060680535 0.09613951 -0.089108616 0.07192121 0.020538524
-0.038019 0.09874945 0.06651902 -0.0014713831 -0.08158046 -0.03354842 0.043489095 0.1052003
-0.0439169 -0.0487779 -0.12213135 0.064166464 0.11877171 0.08262346 -0.06631626 0.09289828
-0.034445595 0.057398006 0.06959843 -0.106437065 0.027817037 0.04678202 -0.075145975 0.11244886
0.09449398 0.10137486 0.0020156477 -0.066879824 -0.071374126 0.036787003 -0.024833575 0.09616671
0.10773416 0.0065218946 -0.1023356 0.046467125 0.11501599 -0.028277416 -0.06541887 -0.026078273
0.017877998 -0.08931659 0.06358764 0.050292585 -0.047791466 -0.04630561 -0.036700834 0.10087965

encoder.message_layers.0.update_net.0.weight f4 [64, 64]
00000000: fe61 913d 8c86 113d 8ad0 0fbc 20cf ff3c
00000010: 7fed ef3d 9672 153d db1a 86bd 4c65 ab3d
00000020: 1506 58bd 0072 91bb cb61 abbd 728f dfbb
00000030: 07f3 5c3b 1c42 9bbd d112 9e3d 0eeb e53d
00000040: b420 d6bd 4a77 073d bd49 b7bd 0a6d e5bc
00000050: bc32 683d 5d0b b1bb dd74 0d3d 96c2 32bd
00000060: 277c f53d ff8a 7dbd 48a8 bf3c 0256 933b
00000070: 9cec a73d e8e6 1b3c e56e 933d aeed ed3c
00000080: bb8e 9c3d c7e8 ecba a8ef 1d3d e653 ff3d
00000090: 97b4 33bd 023a 5dbd 34d5 b93d f6e0 363d
000000a0: 671a f8bd 5234 293d c7ca 00be fcfc 8abd
000000b0: 967f 3b3d 7d11 833d c836 e7bc 8d41 d23d
000000c0: 2eee f73d 7540 c13d 0620 ebbd 0429 47bd
000000d0: bfd2 903b 038d c93d 00c6 abbc 01af bb3c
000000e0: 196f 8b3d 906a 8cbd 7c7d a1bd ddb4 f63d
000000f0: 00cb 36bb 7a24 b53d 7961 38be 5a61 50bd
00000100: 903e ad3d 8046 46bc 20a5 1f3d d274 d6bd
00000110: 5d76 f23d 1a1b 86bd 519c 1abc d8ad a7bd
00000120: 28cc 6fbd 2c77 dbbd dbfa eabd 23db eabc
00000130: 2b9a 6ebd 581b bd3d 5a6c 6cbb acaf c03d
00000140: 6082 abbc dfc1 bf3c 0d7b ef3d 6f7f ccbd
00000150: 0dee 72bd cc71 d43d f2f4 08bd 78a4 16bd
00000160: 205c 243c f0d7 8fbd b049 133c 54cd 54bd
00000170: bda8 153d c05e d9bc 08cf 2bbd 4aab 4dbd
00000180: bba6 ef3c 9478 803d 0368 f0bd c28a b2bd
00000190: 0f0a fcbd 933a 623d 70fe bf3d 4055 fcbd
000001a0: aea7 f03c b039 b63c 5fd4 8fbd b83c dd3c
000001b0: 4c65 c53d 5e10 d43d dc66 5d3d 5589 e4bc
000001c0: 4f0f 98bd e8ff 42bd 8061 863a dc68 49bc
000001d0: 6ecc ba3d 029f 03be 00cc 363c fda4 2fbd
000001e0: 30c9 2a3c a4c2 ef3d 1325 113a 4a1c cbbc
000001f0: 1489 2dbd de78 ffbd ab84 dbbd 0148 523d
00000200: a7f8 95bd dc57 913d f776 04bd 68b7 383d
00000210: 548d c13d 7cd3 ae3c f376 3c3d 2e20 943d
00000220: 43f1 13bd 7e44 bc3d 50f6 d0bd 7fc3 f03d
00000230: 2948 1bbd 202a 9abb 9018 953d f0b1 4a3c
00000240: 96d9 df3d 5760 54bd d8c5 86bd 4be0 ea3d
00000250: bc25 94bd 3ebb b63d 9afb ee3d de9c b33d
00000260: ecbf 4dbd 7982 a73a 12b5 e6bd 9d13 a1bd
00000270: 659e babc 13dd afbd 865d 8b3d e27b 8c3d
00000280: 5bba 05bd 5a68 f7bc da98 fd3d b45a 37bc
00000290: f2c2 df3d 5a79 f33d 0499 33bd fd2c eebd
000002a0: 5e1f f53d 6e50 83bd 0028 fb3d f66d a3bd
000002b0: cafd d23c f8b9 27bd 90e3 f1bc 0af5 cd3d
000002c0: aac4 e1bd 6934 48bd e030 a1bc 2365 ca3d
000002d0: e9d6 793d 7306 ab3d a462 5c3d f5ce ec3d
000002e0: bffc 1dbd cb61 11bd 499b 66bc 5010 563d
000002f0: f424 16bd 440c 3c3d 3024 48bb 3c10 053d
00000300: e092 d03d e018 a33c 98e0 a93d 18bf 0ebd
00000310: a40c e6bd fa74 9c3d cc57 543d 200f d73d
00000320: b0a1 433d c0b7 233b 22c8 b8bd d6b5 f2bd
00000330: 1882 cd3c 88d8 d03d c035 1fbc 6008 27bd
00000340: 6012 803d d0e1 77bd 84aa 343d 28bd cfbd
00000350: 5601 e8bd 9859 95bd 3054 afbc 58a5 2c3d
00000360: 6487 813d fc08 a2bd b84e d2bc 8495 283d
00000370: 08d3 e1bc 0036 f63a 64bc a53d 1cb4 13bd
00000380: e0fb 833d a802 d03d b4ae 2a3d 10f4 b5bc
00000390: 2a18 a2bd d833 a9bd a8f6 c6bc 2802 203d
000003a0: cc02 8c3d a097 c5bb e44b ce3d 00ca 4abd
000003b0: d832 cc3c 8410 83bd 5c94 093d f87c da3d
000003c0: 8867 333d c038 093c 486e 3cbd 3e09 d2bd
000003d0: ec2e afbd 3a98 dbbd 64f3 b53d 1098 55bd
000003e0: 8037 99bc 3c67 e5bd 14c4 0ebd a2be d93d
000003f0: 3843 bc3c 58d9 b6bc f06d 853d 2e5d c53d
0.07098769 0.035528705 -0.008777747 0.031226695 0.11715221 0.03648623 -0.06548091 0.0836893
-0.052740175 -0.0044386387 -0.08368262 -0.00682252 0.0033714192 -0.07580969 0.07718433 0.11226474
-0.104554564 0.033072747 -0.08949611 -0.028006095 0.05668901 -0.005402966 0.034535278 -0.043642603
0.11986571 -0.061900135 0.023395672 0.004496337 0.081994265 0.009515502 0.07198886 0.029043999
0.07644411 -0.0018074744 0.038558632 0.12467174 -0.043873396 -0.0540104 0.090738684 0.044648133
-0.12114411 0.041309662 -0.12577353 -0.06786534 0.045775972 0.0639982 -0.028224364 0.10266409
0.12105976 0.09436122 -0.11480717 -0.0486231 0.004419654 0.09841349 -0.020968437 0.022910597
0.068082996 -0.06856263 -0.07885262 0.12046216 -0.0027891994 0.08844848 -0.18005933 -0.05087409
0.084591985 -0.012101769 0.038975835 -0.104715005 0.11838982 -0.06548138 -0.009436683 -0.08187455
-0.058544308 -0.107160896 -0.11473628 -0.028668946 -0.058252495 0.09233731 -0.0036075325 0.09408507
-0.020936191 0.023407875 0.11693392 -0.099852435 -0.059309054 0.103732675 -0.033436723 -0.036777943
0.01003173 -0.07023609 0.008989736 -0.05195363 0.036537874 -0.026534438 -0.041945487 -0.050212182
0.029254308 0.062729985 -0.11738589 -0.08717872 -0.12306606 0.055231642 0.09374702 -0.12320948
0.02937683 0.022244304 -0.070229284 0.027006492 0.096384615 0.10354684 0.054053172 -0.027897516
-0.07424795 -0.047607332 0.0010252446 -0.012293067 0.09121023 -0.12853625 0.011157036 -0.042881954
0.010423943 0.11707047 0.00055368355 -0.024793763 -0.042367056 -0.124742255 -0.10718664 0.0513382
-0.07322817 0.07096836 -0.032340016 0.045096785 0.09450784 0.021341078 0.046011876 0.072327
-0.036118757 0.09192751 -0.102032304 0.11756038 -0.037910614 -0.0047047287 0.072800756 0.012371525
0.10930173 -0.05184969 -0.065807045 0.11468562 -0.0723376 0.08922432 0.11669083 0.087701544
-0.05023186 0.0012779973 -0.11265005 -0.07865069 -0.022780607 -0.085870884 0.068049476 0.06859566
-0.032648426 -0.030201126 0.1238267 -0.011191059 0.10925855 0.1188838 -0.0438471 -0.116296746
0.119688734 -0.06411825 0.12263489 -0.07979958 0.025755782 -0.040948838 -0.029527456 0.10056503
-0.11023839 -0.048878107 -0.019676626 0.098825715 0.06099597 0.083508395 0.05380501 0.115629114
-0.038571116 -0.035493653 -0.014075109 0.05226165 -0.036656335 0.045910135 -0.0030539148 0.032486185
0.10184264 0.019909322 0.08294791 -0.03485021 -0.1123288 0.07639499 0.051841542 0.10500932
0.04776162 0.002498135 -0.09022547 -0.11851089 0.025086448 0.1019755 -0.009717405 -0.04077947
0.06253505 -0.060518086 0.04410793 -0.101435006 -0.1132838 -0.07292479 -0.021402448 0.04214987
0.06324652 -0.0791187 -0.025672302 0.041158214 -0.027566448 0.0018784404 0.08092573 -0.036060438
0.06444526 0.10156757 0.041670516 -0.022211105 -0.07914765 -0.082618415 -0.024287537 0.039064556
0.06836471 -0.006030038 0.10073069 -0.04950905 0.024926588 -0.063996345 0.033588752 0.10668367
0.043799907 0.008375347 -0.04600361 -0.10255669 -0.085538715 -0.10722394 0.08884314 -0.05214697
-0.018703222 -0.11201331 -0.034854963 0.106320634 0.022981271 -0.022320434 0.065151095 0.09636913

encoder.message_layers.0.update_net.0.bias f4 [64]
00000000: eb20 873d 30d6 223d 05fe a73d 66cd d9bd
00000010: ca89 463d 1f67 e4bd cfc5 b0bb f59d c13d
00000020: 955b cbbd 12d0 c8bd fe72 78bd 201c 9a3b
00000030: d220 a7bc 8c4b cfbd 8408 643c 409e 00bd
00000040: 7020 6fbd 944d 923b c0b2 203d 4848 a43c
00000050: 2cb4 a9bd a238 a73d 6833 c13c 5f84 62bd
00000060: 6537 e43d dc17 b73c 07a0 8b3d 4293 ae3d
00000070: d7a2 04ba 6272 cc3d b265 71bb 4cdd d23d
00000080: 8567 463c 95a7 5e3d 072c 873d 1367 87bd
00000090: 56fe e53d 113e 633b 4c42 493d d4e1 bcbd
000000a0: b04f 32bd 85a9 a03d 2490 a1bd 141d 683c
000000b0: 8141 e73d d027 f3bd 14af 94bb 57cd 8d3c
000000c0: 4d89 a23d 1973 1ebd 6631 fabd 89c4 a3bd
000000d0: 44aa 193d 8c85 bcbd 8a24 dbbd e084 ccbb
000000e0: 9f02 f33c 4a87 a0bd aec7 39bd 7e79 923d
000000f0: cc16 adbd c292 d2bd d06c 28bd a589 d43d
0.065980755 0.039755046 0.08202747 -0.1063488 0.04847125 -0.11152481 -0.0053946744 0.09453956
-0.09929577 -0.09805311 -0.06065654 0.00470306 -0.020401392 -0.10121831 0.013918046 -0.03140092
-0.058380544 0.0044648144 0.03923297 0.020053998 -0.08286318 0.08165099 0.023584083 -0.05530202
0.11143378 0.022350244 0.06817632 0.08524181 -0.00050596654 0.09982754 -0.0036834297 0.10296115
0.012109642 0.054359037 0.066001944 -0.06611457 0.11230151 0.0034674446 0.04913549 -0.09222761
-0.043533027 0.07844833 -0.07888821 0.014167089 0.11291791 -0.11872828 -0.0045374725 0.017309828
0.07936344 -0.038683984 -0.12216453 -0.079964705 0.037515894 -0.092051595 -0.10700329 -0.006241426
0.029664336 -0.07838304 -0.045356445 0.07152079 -0.08451614 -0.10281898 -0.041119397 0.10377816

encoder.message_layers.1.message_net.0.weight f4 [64, 64]
00000000: e2fc 22bd 1713 b4bd d00f bcbd 28a9 f0bc
00000010: 0067 af3d 628c 333d 2ed9 37bd f681 e4bd
00000020: 36d5 a1bd 6572 be3c 7cd0 d03d 9b55 7a3d
00000030: 9c9c 9cbc a045 813d 583b dc3b 8755 813c
00000040: 35d8 613d d3e3 0abd ba53 083d 7f2f 033c
00000050: da4f 0f3d acc4 f4bc ea0a 9f3d 440f edbd
00000060: b398 a33d a5a7 d9bd b5c3 b2bd bed8 a3bd
00000070: 581a 79bc 7c5c 7ebc f757 ffbd 8762 813d
00000080: 3b88 e13c 5bb4 f33d da39 bdbd 8b57 d4bd
00000090: 3f3f dc3c ec95 be3d 746c a43d 13d1 423d
000000a0: 5663 923c a354 723d ffa1 58bd 93e1 02be
000000b0: bdc7 dbbd 9f32 aabd e8f2 ca3c da94 de3d
000000c0: 9bc3 9e3d 6ea2 adbd 06a8 013d e7c4 db3d
000000d0: 2a1d 8ab8 3a7b d8bc 151f 91bd 274b 48bc
000000e0: 0735 ba3d 91eb 1dbd fe79 b5bc 6475 6b3d
000000f0: a845 44bd b8f1 79bd 4f92 923c cbd3 b23d
00000100: 43d2 873c 24e1 efba 18ac c4bd b6dd 983d
00000110: a390 123c d70e 54bd 478e dabd 60a0 65bd
00000120: da33 adbd 824a ec3c d946 c23d afa6 afbc
00000130: 927d a23d 98ed bebc 8c68 64bd b847 eabd
00000140: 97a1 44bd 5ed2 c63d 3e14 b33d 6ee2 1f3e
00000150: 4d07 19bc d355 3a3d 1fb2 45bc 0c04 023e
00000160: ba6e c5bd ce64 fbbc 0fb8 eebd 5189 7f3c
00000170: bdb5 c0bd 04e6 acbd 577e 033d 84af 023e
00000180: f209 dc3d 458e b63d 8773 e1bc 986b 03ba
00000190: fd66 dfbd 84be b23d bf47 193d 03ee df3d
000001a0: ce2f f2bd 641a dfbc ad2c 3cbd 054d bdbd
000001b0: 7683 91bd 821b 2f3d 05ca b03d 927f 743d
000001c0: aa1c 22bd 2c40 6f3d 9c68 013e 0eb7 193c
000001d0: fec8 16bc 038d 81bd e7ac bb3d 5b49 cfbc
000001e0: 1e32 c2bd 3bbc 9a3d 5e62 e73c 473f 41bd
000001f0: 2099 d4bd 3e5e 9b3c e869 0abd 8035 96bc
00000200: 8c01 1ebd 4c1c d93d 824a 8e3d ccf4 ca3d
00000210: c412 4e3d 72ec 1e3d 0587 013e 4e17 2f3b
00000220: 6a9c 993d 6b04 5d3d 469a eebd 938e b43d
00000230: 73bc 15bc 2c58 a6bd 512d ac3d f456 cfbd
00000240: 0cd7 7c3d c131 ccbd 681a 06bd 0bcc e9bd
00000250: ca7b bd3d 205d 0b3d a14a d73d e70d 293d
00000260: 6f15 71bd 498a b33c b1b7 b33d cb87 bfbd
00000270: 8a64 a4bd 88f4 eabc 0491 99bd 7563 a0bc
00000280: 3f02 f93d 8fbb 943d 5915 c9bd 00b3 83bd
00000290: eed8 d33d 1b0f d0bb 80b4 4abd acc8 e13c
000002a0: 8fec 88bc d84c 393d bb9e b13b 2ef1 973d
000002b0: d98c 933d 6da3 403d e35c 2b3d c281 ecbc
000002c0: 0f86 e6bd 7814 11bc 87e3 bbbd 1321 c6bd
000002d0: 0e0a dbbd c060 e6bc 73eb b6bd 0eaf c63c
000002e0: e4e3 693d a1bb 9e3d 916b f0bd 07d5 dd3d
000002f0: 5b2e c33c 0169 d63d 99a2 823d 1007 d43c
00000300: 8625 ddbc 9705 d03d 50c5 acbd 7eaf c73d
00000310: 7323 d93d cea1 8e3c 13df 67bd d8f3 d4bd
00000320: fa6f 3bbc bc61 d33d 8bdc 353b 00e0 00bd
00000330: 9576 85bd 9da9 cf3b 5893 8d3d 807d c73c
00000340: d88f b03c 6f4d b7bd a87a 6b3d 10de 543c
00000350: efe1 00be 91c8 ce3d 34a7 9c3d cd9b 04bb
00000360: c4dd e2bc c4c8 df3d 36ff f73d b846 8e3c
00000370: c07d e73d a125 4c3d ca0a 683d d17f 2abc
00000380: a7cc 46bc cb91 9d3d 1639 6ebd 9902 bdbd
00000390: 2bb0 993d f42f 07bd 6397 ae3d 16bf c2bc
000003a0: 061b a2bd 73b7 a7bb f01d 6cbc 1771 d23c
000003b0: 84a7 cbbd 36e6 debd 9bcf 623b 9be9 e03d
000003c0: 9bf9 a7bd e8ed 86bd 4941 123c 86e0 c53d
000003d0: 5e30 c43d b0d0 d5bc 40bb d6bb 23b4 cfbd
000003e0: 4ae1 f33d 8461 953d 9d43 ed3c 7cd6 febd
000003f0: e6b5 903d de3d 90bd aa1c 103b d459 693d
-0.03979195 -0.087927036 -0.091827035 -0.029377535 0.085645676 0.04383505 -0.044884853 -0.111576006
-0.07901995 0.023247907 0.10196015 0.061116796 -0.019117646 0.06312108 0.0067209415 0.015787853
0.05513783 -0.033908676 0.033282973 0.008006929 0.03498826 -0.029878937 0.077657536 -0.11575177
0.079881094 -0.10627679 -0.087287344 -0.08000325 -0.015204035 -0.01552498 -0.1246795 0.06317621
0.02753078 0.118996345 -0.0923955 -0.1036826 0.026885627 0.09305939 0.08028498 0.04756267
0.017869633 0.059162747 -0.052888867 -0.12781362 -0.107314564 -0.083104365 0.02477403 0.10868235
0.077521525 -0.08478247 0.03165438 0.107309155 -6.585785e-05 -0.026425947 -0.070860066 -0.012224949
0.090921454 -0.03855473 -0.022152897 0.057485 -0.047917992 -0.061021537 0.017892031 0.087318026
0.016579753 -0.001830135 -0.09603137 0.07464163 0.008945617 -0.051771965 -0.106716685 -0.05606115
-0.084571555 0.028844122 0.09486169 -0.021441786 0.07934107 -0.023306653 -0.055763766 -0.114394605
-0.048005667 0.09708093 0.08744095 0.1561372 -0.00934012 0.045492005 -0.012066393 0.12696856
-0.0964026 -0.030687716 -0.116562 0.015596704 -0.09409664 -0.084423095 0.03210291 0.12762266
0.107440844 0.089138545 -0.027520908 -0.0005013286 -0.10908315 0.08727744 0.037421938 0.10934069
-0.11825524 -0.027234264 -0.045941044 -0.09243206 -0.07105152 0.042750843 0.08632282 0.059691973
-0.039578117 0.05841081 0.12637562 0.009382023 -0.009203194 -0.06325724 0.09163838 -0.025303533
-0.09482215 0.07555433 0.028245147 -0.047179487 -0.10380769 0.018965837 -0.033792406 -0.018336058
-0.038575694 0.106011 0.06947805 0.099099725 0.050310865 0.03879971 0.12649162 0.0026716772
0.07500537 0.05395929 -0.11650519 0.088162564 -0.009139168 -0.08122286 0.08407081 -0.10124007
0.061728522 -0.09970427 -0.032740027 -0.11415871 0.092521265 0.034024358 0.10512281 0.041273024
-0.05885833 0.021916525 0.08775271 -0.09352072 -0.08026989 -0.028681055 -0.07498363 -0.019578675
0.121586315 0.072623365 -0.09818525 -0.06430626 0.103441104 -0.006349457 -0.049488544 0.027561508
-0.016714362 0.0452393 0.0054205335 0.07419048 0.07204599 0.047030855 0.04183663 -0.028870467
-0.112560384 -0.008854978 -0.09174257 -0.09674277 -0.10695277 -0.028122306 -0.08931627 0.024253394
0.0571021 0.07750631 -0.11739267 0.10831647 0.023825815 0.10469247 0.06378669 0.025882274
-0.026995432 0.10157316 -0.08436072 0.09750269 0.106024645 0.017411139 -0.056609225 -0.10398072
-0.0114402715 0.10321376 0.0027749862 -0.031463623 -0.06516758 0.006337358 0.06912869 0.024351835
0.021552965 -0.08950316 0.05749002 0.012992397 -0.12586187 0.10096849 0.07649079 -0.0020234466
-0.027693637 0.10926965 0.121092245 0.017367706 0.11303282 0.049840573 0.056650914 -0.01040645
-0.012133754 0.076938234 -0.05815991 -0.09229011 0.075043045 -0.033004716 0.085249685 -0.023772758
-0.079153106 -0.0051183044 -0.0144114345 0.025688691 -0.099440604 -0.10883753 0.0034608606 0.10982057
-0.08201905 -0.06588346 0.008926698 0.09661965 0.09579538 -0.026100487 -0.0065530837 -0.1014178
0.11908205 0.0729399 0.028962905 -0.124432534 0.070659444 -0.0704305 0.0021989741 0.056970432

encoder.message_layers.1.message_net.0.bias f4 [64]
00000000: ae07 643d 5ad0 9d3d fd78 a1bd 36d6 d0bd
00000010: 15fb 8a3d 2df9 61bd 6750 dabd 9580 cf3d
00000020: 267f ccbd 40dd 2ebd 5a8b a7bd a5a2 d73d
00000030: 5ce4 9ebc c2d2 85bd a762 c93d e2d5 e73d
00000040: 914b 813d 97f6 c13d 5fb0 ecbd 305c e7bd
00000050: 9c7d 853d 073e 0abd df31 da3d 377d f33d
00000060: e0f4 e9bc 357a 81bd c660 e93d 6472 75bd
00000070: 0669 89bd 04e6 d33d 8065 a8bb 887f 89bd
00000080: c9a6 443d 0cd8 87bd b7f9 0f3c 98ae c9bd
00000090: 11d9 08bd a037 c03d 1493 713c e42b a3bc
000000a0: 16cb bb3d 9239 913d f315 963d 9316 803d
000000b0: bc31 2fbd 9d54 ddbd a298 97bd afec 9fbd
000000c0: 9894 0e3d 8dd0 c63d f44a e63d d98c c63d
000000d0: 5940 2a3d 66aa a93d 255d 5b3c fff2 603d
000000e0: 7ad0 afbd a321 fd3d 0dc9 613d 6cba 613b
000000f0: 849e 58bd e271 cc3c c0ed 6bbc 3e09 acbd
0.055671386 0.077057555 -0.07884405 -0.101971075 0.06786171 -0.055169273 -0.10659867 0.10131947
-0.09985189 -0.04269147 -0.08180876 0.10529069 -0.019396 -0.065343395 0.098332696 0.11320092
0.06313241 0.094708614 -0.115570776 -0.1129688 0.06518099 -0.03375056 0.106540434 0.11889117
-0.028559148 -0.06322137 0.11395411 -0.059923545 -0.06709485 0.103466064 -0.005139053 -0.06713778
0.04801062 -0.066330045 0.008787564 -0.09847754 -0.033410136 0.093856096 0.014744539 -0.01991839
0.09169595 0.07091059 0.07328405 0.06254306 -0.04277204 -0.10807154 -0.07402159 -0.07808816
0.03480968 0.09707747 0.11244765 0.09694833 0.041565273 0.08284454 0.013388907 0.05491924
-0.085846856 0.12359931 0.055123378 0.0034443391 -0.052885547 0.024956647 -0.014399946 -0.084002

encoder.message_layers.1.update_net.0.weight f4 [64, 64]
00000000: 3544 a5bd 0760 59bd 673c d03c 3f37 abbd
00000010: a458 843d eea8 93bd 8949 ab3d e5ad 3c38
00000020: 94ac 36bb 304a 8a3c 2144 bd3b f0c8 6f3d
00000030: 52e2 59bc a4c3 34bd 282b 7c3c 8b93 9cbd
00000040: 5e66 3f3d 2c4b 1a3c 8275 713d e891 b3bc
00000050: 6ea1 7fbb cd52 6bbd 0f38 7dbd cfb0 09ba
00000060: 2c0c 833d 4820 4fbd 6b82 c23d 70dc 2cbd
00000070: 6906 c9bc 9e58 c63d 88dd b9bc c03a 8b3d
00000080: f3d2 8abc bf84 913d 78d5 6e3c d842 71bd
00000090: ca2d afbd 1f3f 8f3d 21f4 d83c 99d4 c1bc
000000a0: bdd5 ddbc 58fb 61bd 5b16 b8bd 3844 b23c
000000b0: e4ab d9bd 6846 c2bb 94f0 b63d 8498 693d
000000c0: cc4e 8a3d e2b9 a23c 2de3 95bd efd7 763d
000000d0: cc18 d63d 142f 683d 1e50 b23d a467 d5bd
000000e0: b77d e7bd 1e14 08bd 19e4 ed3c 33a0 9d3d
000000f0: 3b59 01bd 8a53 71bd 241c a53d 5e66 e4bb
00000100: 50e6 0a3c f240 f4bd 403b 3ebc 9063 783d
00000110: 8237 f73d 80d2 3e3c fa9b a23d 5056 8e3c
00000120: 5208 cabd 6007 8abb 10f7 2ebd 380f 8bbc
00000130: e826 47bd f05f bf3d 34fb d0bd 5ce0 99bd
00000140: ecfa 1ebd d47a d63d 208b d1bc a8ed 503d
00000150: 9805 7b3d 821d db3d 7047 ebbc 184a bf3c
00000160: 1ce5 79bd b0ab 1bbc 2063 dbbd 90e1 d0bd
00000170: 9042 0b3d 8833 c4bd b6cc 853d 3a36 bd3d
00000180: 18a7 333d 20ff 433d d096 e8bd 80c4 6cbd
00000190: 04d7 b8bd 80be f2bd c8a9 593d 2878 ea3c
000001a0: 2294 f33d dc0f 0dbd 4a7f a9bd ec5e dcbd
000001b0: 003c fc3b 804c 8cbd 60aa b53c c856 a93d
000001c0: a6e2 da3d 0002 a7bc 9a77 a6bd 7c02 8bbd
000001d0: a293 a23d a07f 043d d0ac 013c c4b9 f8bd
000001e0: b4e3 893d 20f3 a13d 605b 533c 9884 b8bc
000001f0: 90f6 72bd 80d1 853a 807c cb3b 646e 103d
00000200: a9a9 09bc 325c ec3d d79d 9e3d 1192 ce3c
00000210: 85a8 e9bd 2d97 80bd cbf9 363d fbd1 abbd
00000220: 4dd0 0d3d 1878 fb3c c48a a9bd d5c9 b13c
00000230: f9d1 9dbc 28ad be3d 5f41 01bd a40d d93d
00000240: a212 d83d 8135 36bd 0920 933c 9cf5 0bbd
00000250: 89b9 c63d 84be 5a3d 841d 7ebc 8872 943d
00000260: e68d cdbd 85c8 0fbd 129d b73c 6089 f2bd
00000270: 1001 d93d 1fbb ea3b 1e29 e23d 85d5 0fbd
00000280: ee59 523b 1ce3 19bd a05d 61bd 90b9 3dbd
00000290: 7ac3 aa3d 33ad df3d 82a9 063d 91a3 883d
000002a0: 14f6 513d dd83 41bb e3ea c4bd 9055 e13c
000002b0: c8ee 2fbd 6651 373d 0a93 a6bd b6ce bebb
000002c0: bc40 49bd 2e2d f3bd 6a06 f3bd 81d6 e53d
000002d0: 2ffe 92bd 373d e5bd 054d d63c 6165 33bc
000002e0: 098e cc3d b9de ea3d a14c 10bd 09f8 9fbd
000002f0: ab2e 9bbd 99dd 14bd d286 8cbd 5e81 e03d
00000300: a8d7 36bd 1f82 8a3d ebb2 743d 5e02 043d
00000310: ff42 833d d437 df3d d96d 673d 8d27 6e3d
00000320: 2da6 d0bd 507f 35bc 2fc4 c63b a3e0 ce3d
00000330: 319b 673d 5417 c73d 1d75 a13d daf1 61bd
00000340: e1f8 aa3c 6389 fa3d c66c 413d acbe 903d
00000350: 4ddd 5c3d c6e6 23bd 4e36 a63d 486f aabd
00000360: f02c ec3d ec58 2a3c 92cf cc3d 6ef5 b3bd
00000370: 239f d2bd 3f65 943c d831 83bc 00d9 4ebd
00000380: d0cc 8c3d 4e1a a0bd e86b e73d 14e9 f9bd
00000390: aadd eb3c 0849 8fbd 99ab f73c 6c97 013e
000003a0: 81d1 41bc eef5 033d b797 3cbd 2e7d 79bd
000003b0: f6ac dabd 6a31 9a3d 80f5 b5ba fb16 283d
000003c0: 52e3 c4bd 5db1 cebd 2a58 e2bd 471c 8dbd
000003d0: 0564 2c3d 4e8a 80bc 50a1 623d dc24 69bd
000003e0: 18d8 ff3d ff56 5cbd 6155 eabd 5116 c83d
000003f0: 820e 9ebd eeb2 763c 70b9 45bc d970 bcbc
-0.0806965 -0.053070094 0.025419427 -0.08360147 0.06462219 -0.07209955 0.08363635 4.4984645e-05
-0.002787386 0.016881078 0.005775944 0.05854124 -0.013298588 -0.04413189 0.015391149 -0.07645329
0.046728484 0.009417336 0.058949955 -0.02192016 -0.0039006132 -0.05745201 -0.06182104 -0.0005252482
0.06398806 -0.050567895 0.094975315 -0.042202413 -0.02453919 0.09684871 -0.022688642 0.06798315
-0.016946292 0.071053974 0.014577262 -0.058901638 -0.085536554 0.06994461 0.026483597 -0.023660945
-0.027079457 -0.05517134 -0.08988639 0.021761045 -0.10628489 -0.0059288032 0.089326054 0.057030216
0.067533106 0.019864026 -0.07318721 0.060264524 0.104539484 0.056685522 0.087066874 -0.104201585
-0.11303275 -0.03322231 0.02903943 0.07696571 -0.031579237 -0.05891756 0.08062008 -0.006970211
0.008477762 -0.1192645 -0.011610806 0.060641825 0.12071134 0.011646867 0.079399064 0.017375141
-0.09864868 -0.004212305 -0.042716086 -0.01697503 -0.04862109 0.093444705 -0.10204163 -0.07513496
-0.038813516 0.10472646 -0.025579035 0.051007897 0.06128463 0.106989875 -0.028720587 0.02335076
-0.06100951 -0.009501383 -0.10712266 -0.10199273 0.033999026 -0.09580141 0.06533186 0.092388585
0.043860525 0.047850728 -0.1135689 -0.057804585 -0.09025386 -0.11852741 0.05314043 0.028621748
0.118934885 -0.034438953 -0.082762316 -0.107602924 0.0076975822 -0.06850529 0.022175968 0.08268505
0.10687761 -0.020386696 -0.08128281 -0.06787583 0.07938315 0.032348275 0.007914737 -0.12144807
0.06732884 0.079077005 0.0129002035 -0.022524163 -0.05931717 0.0010209531 0.00620991 0.035261527
-0.008402267 0.11541022 0.07744949 0.025216134 -0.11409096 -0.062788345 0.044671815 -0.0838966
0.03462248 0.030696914 -0.082784206 0.021702686 -0.019265162 0.09310371 -0.031556483 0.10598305
0.10550429 -0.04448462 0.017959611 -0.03416978 0.09703357 0.053404346 -0.015509967 0.072484076
-0.100368306 -0.03510334 0.022413764 -0.118426085 0.10595906 0.00716342 0.11042999 -0.035115737
0.003209706 -0.037570104 -0.05502093 -0.046319544 0.083380654 0.10921707 0.0328765 0.06671823
0.05126007 -0.002952806 -0.096151136 0.02750662 -0.04295233 0.044755362 -0.08133514 -0.0058229817
-0.049134 -0.11873852 -0.11866458 0.11222554 -0.07177388 -0.111933164 0.026159773 -0.010949464
0.099880286 0.11468262 -0.03522933 -0.07810981 -0.075772606 -0.036344144 -0.068616524 0.10962175
-0.04463926 0.067631 0.059740942 0.03222882 0.06409263 0.1089932 0.056501243 0.058143187
-0.101879455 -0.011077717 0.0060658674 0.1010144 0.056544486 0.09721246 0.07883666 -0.05516229
0.020870628 0.12233236 0.047222875 0.07067618 0.053921986 -0.040015005 0.081158265 -0.083220065
0.11532009 0.010397177 0.100005284 -0.087870464 -0.10284259 0.018114684 -0.016014978 -0.050499916
0.068750024 -0.07817517 0.11299878 -0.12202659 0.028792221 -0.069963515 0.030233191 0.12655419
-0.011829735 0.03221696 -0.046043124 -0.060910396 -0.10677521 0.07528956 -0.0013882369 0.04103754
-0.096136704 -0.10092423 -0.11051972 -0.06890159 0.042087574 -0.015690949 0.05532962 -0.056919917
0.124923885 -0.053793903 -0.11442066 0.097698815 -0.07717611 0.015057309 -0.0120681375 -0.023003029

encoder.message_layers.1.update_net.0.bias f4 [64]
00000000: 8e25 c73d 463e b03d 4568 b6bb 953e be3d
00000010: 7653 5e3c 2ed7 65bc 4d23 113d f49b 3abb
00000020: d449 10bd f68e ae3c d762 7fbb 22e2 afbd
00000030: e496 bbbd a609 353d 333e 54bd 3fde f3b8
00000040: e532 e93d 8154 c33d fbad 873d 12e0 813d
00000050: 25e3 a63d aead abbd d5d5 f43d 62c4 bcbd
00000060: e4e3 a5bd 5cbc 51bd 235a 003e 11d9 883d
00000070: 6880 0f3d e705 8e3d 6097 f2bd 5d90 f9bd
00000080: af91 123d dee9 18bd f804 753d 2f3f afbd
00000090: beed eb3d 2904 d9bd 72f6 883d 3a5d 803d
000000a0: 7908 85bd 0dbc db3d b166 7d3d 30c2 69bd
000000b0: c835 5bbd 6457 bd3d 86b8 10bd 0853 153c
000000c0: 6dbf 5d3d a0da 7b3d 3030 80bd b156 ba3d
000000d0: c25b 0e3d 0e02 183d 38e8 7abd 2f4a 5a3d
000000e0: d047 7ebc 3805 bc3d 7196 cc3d ccae bf3d
000000f0: d7ed a3bc 0be0 ac3d b886 cb3d c308 cd3c
0.0972396 0.08605628 -0.005566629 0.0928928 0.013569703 -0.014028354 0.035434056 -0.0028474303
-0.035226658 0.021308403 -0.0038968825 -0.08588053 -0.091596395 0.044198655 -0.05181713 -0.000116285395
0.113866605 0.09537602 0.06624981 0.06341566 0.08148793 -0.08382736 0.11954848 -0.092171445
-0.08100107 -0.051205024 0.12534384 0.06682027 0.035034567 0.069347195 -0.11845279 -0.12185738
0.035783466 -0.037332408 0.05981919 -0.08556973 0.11519955 -0.105964966 0.06687631 0.062677816
-0.06495757 0.10729227 0.061865512 -0.057069957 -0.053518087 0.09245184 -0.035332225 0.0091140345
0.054137636 0.061487794 -0.06259191 0.09098566 0.034755476 0.037111335 -0.061256617 0.053293403
-0.015520051 0.09180683 0.09989632 0.09359512 -0.020010872 0.0844117 0.09937805 0.025028592

encoder.message_layers.2.message_net.0.weight f4 [64, 64]
00000000: ae6c 35bc 93cf adbd bcae 8abd 5cd4 8c3d
00000010: 306e a3bd e75f 84bd b510 783d 759c 88bd
00000020: 9529 0abe 1b73 c93c b3f0 4f3d fc0e e8bd
00000030: 44e3 513c eef7 cbbd 4917 4b3d aa8e 853d
00000040: 5e2c 1f3d 6c75 f33d 05c0 e0bc 8899 58bd
00000050: c0fb fa3c 2c9f 0c3d 50f2 71bd 9f0d afbd
00000060: 8405 29bd 8258 473d a93c 4b3d e2c3 6fbd
00000070: 5102 d23d 49bc c4bd 49b7 90bc 99e8 df3c
00000080: d4ed bebd 908f e23d cec0 9bbd d7f5 903d
00000090: b853 f23a 4d47 96bd c0bc e83d 6e0c 8cbc
000000a0: 64fd 9b3c e23f ea3d 0700 06be e778 c73d
000000b0: b5e8 84bd a54e d6bd 13df 873d f4b7 29bd
000000c0: 74d4 d2bd 4d0f 84bd 23f4 9e3d cfbc 6b3d
000000d0: db3a 18bc 79e0 793d c982 b13c f634 c6bd
000000e0: be96 aa3c b5a2 af3d 0c65 a4bc 1844 8fbc
000000f0: 8b0f f53d 6283 1fbd 6718 e83d 874b d93d
00000100: 3ff3 f93d 1088 5f3d 651a 823d 435e 6f3d
00000110: 29c9 bcbd 0438 bebc 9f20 40bd 0f6f e53b
00000120: be68 26bd 9ee5 75bc 7323 6fbd 0194 80bd
00000130: a3bd 963d c314 123e 73f2 0ebd 3af1 6ebd
00000140: 74ed 46bc 8637 d0bc a3be d5bd 6e58 003e
00000150: b9c1 ec3d 95ef e53d c86b f9bc 86bc 7abd
00000160: f24c 1d3e f503 4abd 5aed 98bd c01d a8bd
00000170: 3169 753d a099 32bb e87c 78bd a482 023e
00000180: 0352 3dbd 2e15 d43c 26c9 c73d 0447 c03d
00000190: 91d1 ff3d f2f0 b63b 23e5 bb3d 8cac 303c
000001a0: ebf7 463d 7d5c 55bd 0714 e33d a10f 553d
000001b0: 40a5 6b3d 96b8 4d3c 8bec 8f3d 2731 cebd
000001c0: c795 f43d 290f ff3d e354 c03d 4f2c c03c
000001d0: efc6 c3bd 03d4 20bc 9c66 85bd 46e5 e1bc
000001e0: cd67 f63d 623d 833c 01f9 293e 1a40 f9bc
000001f0: 95ca 9cbc 1c54 91bd 3769 883d eef7 9e3d
00000200: 06e5 753d 77ee d63d e498 933d 2127 f1bd
00000210: 25c2 033a 4600 d93d bc54 ac3d 5082 393d
00000220: 9e15 7dbd 7e56 debd e86e f03d bffa 33bd
00000230: 4061 223d 680a 17bd a277 39bd d9b6 293d
00000240: 8281 e63d 4c40 06bd da29 513d a785 413d
00000250: 77de bcbc 9375 b23c 1e77 1d3d 5c39 de3d
00000260: 6fed 4dbd f396 be3d e9f9 36bc a350 3d3d
00000270: 56df d5bd 88c1 a53d 2273 d13d ee2d d53c
00000280: c2d7 433a 7a07 f23c 2390 d0bd b10a e3bd
00000290: 9a5c b83d 223c ecbd adc0 febc 381c a3bd
000002a0: 194d f5bd 4df0 65bd 1f40 86bb 28bf d3bd
000002b0: fa96 cabd 01cb d4bd 5828 f9bb b903 15bd
000002c0: 4ed1 b53d 6465 fbbd 2ef4 e5bd f98d 2cbd
000002d0: 00ac f93d 64d9 e23d 9caa 9dbc f834 18bd
000002e0: 288d 683c 5b2a 0d3b 4fec 0b3c 3101 6abd
000002f0: 1102 15bc 1fa9 ab3c b583 923d 3fd6 a7bd
00000300: e19e 91bc 93db 513d cc19 b73d d5b6 983d
00000310: 1216 a6bc 90cc 103d a032 11bd 07ed ec3d
00000320: b7b1 973d 7092 dcbd d0f7 813d 104f e13d
00000330: a019 2c3d a0fa bebd 6130 85bb 357d 843c
00000340: 5e18 c4bc 21f6 803d 5416 da3d 226e 863d
00000350: 2a15 bbbd 383c 783d a9e1 8dbd 51be dfbd
00000360: 6423 59bd f871 943d d6f8 d23d 7f36 3a3d
00000370: 4020 a53d 86dc e2bd 8887 56bd 959f 82bd
00000380: 760f d5bd 7260 90bd 89ed a6bd 0dbb c5bd
00000390: 42eb cb3c a0f0 98bd 7c58 4e3c dfb6 31bc
000003a0: 2b26 803c b539 dabd a4ff bebd e317 d4bd
000003b0: 075b bb3d 782a ab3b 0582 c7bd 3c3f 24bd
000003c0: fcaf 6e3b 3963 9bbd 7edc b53d 1817 9d3d
000003d0: 146c 073d 1c81 3bbc 9938 a63d abea 2d3d
000003e0: 2bd1 8f3c ef87 b63c 4023 e7bd 42a2 363d
000003f0: 980c 10bd b2c5 ae3d 0809 5f3d 7cb3 e83d
-0.011073275 -0.08486857 -0.06771609 0.06876442 -0.07980001 -0.064636044 0.060562808 -0.06670467
-0.13492425 0.02459102 0.050766658 -0.11330983 0.012810532 -0.09959398 0.049582753 0.06521352
0.03886067 0.11887631 -0.027435312 -0.052880794 0.030637622 0.034331486 -0.059068978 -0.0854752
-0.041265026 0.048668392 0.049618397 -0.058536418 0.10254348 -0.09606225 -0.017665522 0.02733259
-0.09322706 0.110625386 -0.07605134 0.0707814 0.0018488085 -0.07337818 0.11364126 -0.01709577
0.019041725 0.11437966 -0.13085948 0.09739857 -0.06489698 -0.10464219 0.06634345 -0.041435197
-0.102944285 -0.06448231 0.07761409 0.05755311 -0.009291376 0.06100509 0.021668809 -0.0967807
0.020823833 0.08575956 -0.020067714 -0.017488524 0.11965855 -0.038943656 0.113327794 0.10610109
0.12204599 0.05457312 0.063526906 0.058439504 -0.09218056 -0.02322007 -0.04690611 0.0070017646
-0.040627234 -0.015008358 -0.058383416 -0.062782295 0.07360389 0.14265732 -0.034899186 -0.05833552
-0.012141574 -0.0254171 -0.10436752 0.12533733 0.11560387 0.11227337 -0.030446902 -0.061214946
0.15361384 -0.04932018 -0.07467146 -0.08208799 0.05991477 -0.0027252212 -0.060665995 0.12745148
-0.04622079 0.025889006 0.09755163 0.09388545 0.124911435 0.005582922 0.09174564 0.010783326
0.048576277 -0.052090157 0.11087804 0.052016858 0.05753064 0.012556216 0.07027539 -0.10067969
0.1194263 0.124540634 0.09391191 0.023458628 -0.09559428 -0.0098161725 -0.06513712 -0.027575146
0.12031517 0.01602048 0.16598894 -0.030426074 -0.019139567 -0.07096121 0.06660693 0.077621326
0.060032867 0.10494702 0.07206896 -0.11775041 0.0005026183 0.10595755 0.08414599 0.04529029
-0.061788194 -0.10856341 0.11739904 -0.043940302 0.039643526 -0.03687516 -0.045280106 0.041434143
0.112551704 -0.032776162 0.051065303 0.0472466 -0.023055298 0.02178458 0.038443677 0.10850784
-0.050275262 0.09306135 -0.011167982 0.04621948 -0.104429886 0.08093554 0.10227038 0.026022878
0.000747081 0.02954458 -0.10183742 -0.110860236 0.09002037 -0.11534907 -0.031097734 -0.07964367
-0.11977596 -0.05613737 -0.0040969993 -0.103391945 -0.09892078 -0.103902824 -0.0076036863 -0.036380503
0.08877812 -0.12275198 -0.11228214 -0.042127583 0.121910095 0.1107662 -0.019246392 -0.03715989
0.0141938105 0.0021540138 0.008540227 -0.057130042 -0.009094731 0.020954667 0.071540274 -0.08195161
-0.017775955 0.051234793 0.08940467 0.074567474 -0.020274196 0.035351336 -0.03544867 0.11568647
0.07406943 -0.10770118 0.063460946 0.11001408 0.042016625 -0.09325147 -0.004064605 0.016172985
-0.0239374 0.06296945 0.1064879 0.06563975 -0.09134896 0.060604304 -0.06927807 -0.10924972
-0.053012267 0.072483 0.10301368 0.045462128 0.08062792 -0.11077218 -0.052375346 -0.06378094
-0.104033396 -0.070496455 -0.08150775 -0.09654818 0.024892453 -0.074677706 0.0125943385 -0.0108468225
0.0156432 -0.10655538 -0.09326103 -0.103561185 0.091482215 0.0052235685 -0.09741596 -0.040099367
0.0036420813 -0.075872846 0.08879946 0.076704204 0.033062056 -0.011444356 0.08116264 0.042460125
0.017555794 0.022281615 -0.1128602 0.044588335 -0.03516826 0.08533801 0.054451972 0.11362359

encoder.message_layers.2.message_net.0.bias f4 [64]
00000000: 721f 2abd 37e2 533d 5490 42bd 6b09 423d
00000010: f8cf 8c3c 1286 bb3d d2f3 11bc 8a88 91bd
00000020: 6133 1fbd f974 bebd 4ca1 2abd 0ac1 8bbd
00000030: d715 c7bd 7600 f7bd 4b54 dfbd a361 6e3d
00000040: ee22 64bd a3a9 cf3d 2294 66bd 2217 453d
00000050: fb2e 9fbd e691 f43d 35ae 043d c067 873c
00000060: 6340 0d3d a815 f23c 98a5 48bd f8e4 dd3c
00000070: 4325 9cbd 2b2b 833d edf7 fb3d 5468 f73d
00000080: 5d18 b5bc 3457 e2bc f9d5 e83d 00d4 a6bd
00000090: 92ef 0c3d 47e5 fc3c c555 de3d 4a9b bdb9
000000a0: 78db d63d b08a 6abc b1c0 f13d 490f 03be
000000b0: 3096 99bd f211 c0bc dcba fcbd 3767 6cbc
000000c0: bfa6 d1bd 1ca2 993d 0405 d43d aba8 3ebc
000000d0: 8617 8f3d 8f72 703d e8b9 4b3d 9c74 a23c
000000e0: 93c1 adbd 106e e3bd a11a 403d 7252 a3bd
000000f0: b9d2 be3d fdea ba3c 3540 84bd 1485 57bd
-0.041533895 0.051729407 -0.047500923 0.047372263 0.017189011 0.09156431 -0.008908229 -0.07106121
-0.038867358 -0.092996545 -0.04165773 -0.06823929 -0.097209625 -0.12060635 -0.109047495 0.058198582
-0.055697374 0.101397775 -0.056293614 0.048117764 -0.07772633 0.119418904 0.0323927 0.016528964
0.034485232 0.029551342 -0.048986048 0.02708672 -0.076242946 0.06404718 0.123031475 0.12080446
-0.022106344 -0.027629472 0.11368937 -0.081459045 0.03440816 0.030871047 0.10856203 -0.00036164589
0.10491079 -0.014315292 0.11804331 -0.127988 -0.07499349 -0.023446057 -0.12340328 -0.014428905
-0.102368824 0.07501623 0.10352519 -0.011636893 0.069869086 0.058703 0.04973784 0.019830994
-0.08484187 -0.11104977 0.046900395 -0.079747096 0.09317536 0.02281713 -0.06457559 -0.052617148
