graph_vae_model.pt (torch, 656396 bytes, 29 tensors)

encoder.input_net.0.weight f4 [64, 7]
00000000: 55bf 223e 5b57 a83e 05b0 893e a328 38bd
00000010: 8ecd 5fbe 096f c63e 3cdd 00be d344 babd
00000020: 6956 b4be 6a48 1bbc b2a6 af3e 5ad8 f6bc
00000030: 2e7c 9f3e e51a b5be b9bf 49be 0e58 f5bc
00000040: 97f5 0d3e 7fdd 14be 65f1 953e 8ba9 ca3e
00000050: 2a01 0e3e 76e1 9dbe 1e6f 81bc 844a 17be
00000060: b6cf f6bc 630d fdbd dd82 febc e8cf 1c3d
00000070: 1544 203e 3b51 983d b1ab 6c3e 51ad 8bbe
00000080: c932 45be aa15 9d3c fef5 90be c941 083e
00000090: 6eb8 9a3e a53b b3be 01ce 51be 9992 0bbe
000000a0: 7743 4bbe 5216 2abe 467c afbe c186 a63e
000000b0: e244 ae3d 9e07 4bbe 9802 b73d e14e b1be
000000c0: 086a d1bd 7e44 4c3e b1b8 863c 99b0 a13d
000000d0: b9a1 013e 9fd9 813d 0a78 abbe 09bc b7be
000000e0: 05af 96be 5962 febd 5c52 053e 6870 3f3e
000000f0: 0530 26be fb68 b83e fada 9fbe 87f2 9abe
00000100: e0cc 653d e3af 5f3e e9dd 0fbe a253 a9be
00000110: a104 32be e75f bebe 378b aabe 5818 70be
00000120: c85d babe 1c29 be3d 0e0a 67be 5c7a 933d
00000130: 3dec a0be cd9e 10be 4e6b 153e 89d8 1fbe
00000140: eee1 a63e a249 843e 357d 303e 2560 d83d
00000150: 2ac6 453e 4e08 d93c b47b 58bd 0692 cbbd
00000160: 06cd 563e 1d1a 49bd 44a9 23bd 8187 7abe
00000170: 8c36 3a3e 1994 7a3d 590b ac3b 753e 5e3e
00000180: 088d 10be d327 a8bd ab52 d8bd 8c96 39be
00000190: 2e88 80bd 0c7e 963e 5c7e 343e ae3d 7f3e
000001a0: d0f2 b23e 98b3 56bb 0d0d 3ebe 9488 f1bd
000001b0: c623 183e a99e 22bd 73c5 8dbe a247 90be
000001c0: b93d 99be feef 97be be76 70bd e1e2 433e
000001d0: a315 a9be f5e5 82be 859e ab3e 2fd2 ba3e
000001e0: c5a7 38bc 1e62 59bd 4e32 c1bd d0b0 8dbe
000001f0: 61d9 983d 69d3 c7bc 0b7d 83bd 6a4a 473e
00000200: 37b8 94be f11d 353d ce1c 19bc 9725 463e
00000210: 6774 d93d f99c 3bbe e5fc debd 3bfb 583e
00000220: 0856 83be b4a1 b8be 308f a7bd a5af 0d3d
00000230: cccc a73e a712 c23e 7725 b9be e6e6 24be
00000240: fe0c 9d3e 190f 2b3e 97bf 2abc f365 bcbe
00000250: bd3e ec3d 5257 ad3e 4e6e 1bbe 21f0 cd3d
00000260: 2b65 ad3e f609 803e 742b 06be daee 173e
00000270: 82c3 323e 6eca a7be 55bc 08be 9691 b6be
00000280: ef3f 4abe 7491 a1bd 249e 22be bb6b a9bd
00000290: 0a0c 6f3e 39e5 b7be 35f3 983e 098a 9bbd
000002a0: e0ee ad3c 8417 2a3e cbbc 033e c3c9 e43d
000002b0: 285b 8bbd 133d 8a3e 7e63 8c3e df1a b13d
000002c0: ec8f 48be ffde 9cbe 621f 9a3e ea9f 2abe
000002d0: b4ea 943e 9421 833e 2dc1 363e 4a76 bbbd
000002e0: 39e2 28bc 4974 e63c 9ecc 0bbe dbca 0fbe
000002f0: 3f11 8a3e bd58 38be 8875 8e3e de54 afbe
00000300: 31da 323e 5342 89bd 45c7 5ebe cdb5 293e
00000310: 8290 bf3e e93b 1a3e ad49 a53e 72cf 94be
00000320: fdcc dc3d 9a3f 90bc 8e41 63be eaf1 553d
00000330: 6b2a af3d 7c0c 68bd 00ea 583e f3b7 d13d
00000340: ecb9 8f3e 6a6e 40be 864d b7be 62c3 44be
00000350: a9f7 1ebe eb96 b5be 49ed 77bd 6432 8fbd
00000360: bbc3 983e eb85 84be 5d22 d23d f6c7 e6bd
00000370: b27e 313d 0826 50be 8152 44be 5a9c 3e3e
00000380: b133 42be 60c2 993e 479b b6be 304a 5bbe
00000390: 2ef7 32be 8033 b8bd 65f9 52be 5e54 a3be
000003a0: bb56 aa3e c43f 1ebe 956d 523e e31d 98be
000003b0: 9aed 443e d78e 53bd fd32 af3e 178d 99be
000003c0: b7cd 88bc 0189 c0be 32a6 82bd ed4b 82be
000003d0: aa1c 9ebd d039 863e 8f3c 77be fb39 973e
000003e0: c6bb 13be e80d a13e 01e3 40be 3a24 f8bb
000003f0: 54f7 96bd bc4a b33e 0d45 2c3e 278d 893e
0.158933 0.32879147 0.26892105 -0.04496063 -0.21855757 0.38756588 -0.12584394 -0.090951584
-0.35222176 -0.009477714 0.34306866 -0.030132461 0.3114943 -0.3537208 -0.19702043 -0.029949214
0.13863216 -0.14537619 0.29285732 0.39582476 0.13867632 -0.30836076 -0.015800055 -0.14774519
-0.030128341 -0.12356069 -0.03106826 0.038284212 0.15650971 0.074373685 0.2311237 -0.27280667
-0.19257654 0.01917537 -0.28312677 0.13306345 0.30218834 -0.35006443 -0.2048874 -0.13630141
-0.19849955 -0.16610077 -0.342745 0.32524684 0.08509232 -0.19827124 0.089360416 -0.34630492
-0.10225302 0.19948003 0.01644549 0.078950115 0.12659349 0.06340336 -0.3349002 -0.35885647
-0.29430404 -0.12421102 0.13019699 0.18695223 -0.16229255 0.36017594 -0.31221753 -0.3026316
0.056103587 0.21844439 -0.14049496 -0.3307162 -0.17384578 -0.37182543 -0.33309337 -0.23446786
-0.36399674 0.09285185 -0.2256243 0.072010726 -0.31430236 -0.14123078 0.14591715 -0.15609945
0.32594246 0.25837427 0.17235263 0.10565213 0.19313875 0.026493218 -0.052852347 -0.09939961
0.20976648 -0.04909717 -0.039956346 -0.24465753 0.1818487 0.061176393 0.005250376 0.21703513
-0.14116299 -0.08210721 -0.10562643 -0.18123835 -0.06275974 0.2939304 0.17626327 0.24925873
0.34950876 -0.0032760855 -0.18559666 -0.11793628 0.14857396 -0.03970209 -0.27689704 -0.28179651
-0.29929903 -0.29675287 -0.05870699 0.19129516 -0.3302432 -0.25566068 0.33519378 0.36488482
-0.011270468 -0.053072087 -0.09433423 -0.2767396 0.07463337 -0.0243928 -0.064203344 0.1946198
-0.29046795 0.044218007 -0.0093452465 0.19350277 0.10617905 -0.18321599 -0.108880796 0.21189587
-0.25651574 -0.3606087 -0.08181608 0.034591336 0.32773435 0.37904856 -0.36161396 -0.16103706
0.30673975 0.16704978 -0.010421655 -0.3679653 0.11535404 0.33855683 -0.15178797 0.100555666
0.33866248 0.250076 -0.13102514 0.14837208 0.17457393 -0.3277163 -0.13353093 -0.35657948
-0.19750951 -0.07889071 -0.15880638 -0.08272501 0.23344436 -0.3591707 0.29873052 -0.075946875
0.021232069 0.16610533 0.12864988 0.111712955 -0.06804496 0.2699972 0.27419657 0.086477034
-0.19586152 -0.30638883 0.30102068 -0.16662565 0.29085314 0.25611556 0.17847128 -0.09153421
-0.010307842 0.028131621 -0.13652274 -0.14042227 0.26966283 -0.18002601 0.27824044 -0.34244436
0.17466046 -0.067021035 -0.21755703 0.16573258 0.37414938 0.15061916 0.32282773 -0.29064518
0.10781286 -0.017608453 -0.22192976 0.05223266 0.085530125 -0.05665253 0.21183014 0.10240164
0.28071535 -0.1879212 -0.35801333 -0.19215158 -0.15524162 -0.35466704 -0.060529027 -0.06992033
0.2983683 -0.2588342 0.102604605 -0.11268608 0.043333717 -0.20327008 -0.19172098 0.18614331
-0.18965031 0.3003111 -0.35665342 -0.21415019 -0.17477104 -0.08994198 -0.20602949 -0.31900305
0.33269295 -0.15454012 0.20549615 -0.29710302 0.19231263 -0.051649895 0.34218588 -0.29990456
-0.016699655 -0.37604526 -0.063793555 -0.25448552 -0.07720311 0.26215982 -0.24144195 0.29536423
-0.14427099 0.31455922 -0.18836595 -0.007572678 -0.07371393 0.35017955 0.16823216 0.26865503

encoder.input_net.0.bias f4 [64]
00000000: 8862 1f3e 46b0 87be 3890 10be b937 ec3c
00000010: 4567 5e3e 2723 f4bd eb99 8bbd d56b 8cbd
00000020: baaf 683e 2493 c43d ea40 303d 8bbb d23d
00000030: de3e d7bd 05e2 5c3e b548 c33d b81a 70be
00000040: 6bdb 94bd 482e c03b ec39 1cbe 192b 37be
00000050: 26c9 ae3b e890 4e3e 0b45 b33e 65de 063d
00000060: 1e90 823e 0f2e 7bbe dfca 0bbe 49b1 993e
00000070: d49f e5bd 21ef 2f3d cae1 a13e a4d6 183e
00000080: 63a6 513e a688 8a3d 8619 a9be f4f0 0a3e
00000090: 4412 6e3e 53b2 ac3e 007e bc3e 2cec 1d3e
000000a0: 65b8 f1bc 34fc a33e 2f09 0b3e bcb5 bb3e
000000b0: e135 993d f054 57bd 85ff 11bd 2ef4 9bbe
000000c0: 2716 213e a72d 64be 7696 29bd 8855 8d3c
000000d0: c7ca 283e 794b a83e 8300 0c3e e9ce 24bd
000000e0: 0fdd 293d 4857 fcbd 2690 823d cbdc b0be
000000f0: 8580 873e d048 62be 96ca 8dbe c624 243d
0.1556493 -0.26501673 -0.14117515 0.028835164 0.21719082 -0.11920767 -0.06816467 -0.06856505
0.22723284 0.09598377 0.043030657 0.10289677 -0.10510038 0.21570595 0.09535352 -0.23447692
-0.07268413 0.005864892 -0.1525647 -0.17887534 0.0053340374 0.20172465 0.35013613 0.032926936
0.25500578 -0.24529289 -0.13651608 0.3001807 -0.112121254 0.04295266 0.31617576 0.14925629
0.20473628 0.06764345 -0.33027285 0.13568479 0.23249155 0.337298 0.3681488 0.15422124
-0.029506871 0.32028353 0.13577722 0.3666209 0.0748098 -0.052571237 -0.035644073 -0.30459732
0.15731107 -0.2228304 -0.041403256 0.017252699 0.16483603 0.3287008 0.1367207 -0.040236387
0.041470584 -0.12321335 0.063751504 -0.34543452 0.2646524 -0.22098088 -0.27693623 0.040074132

encoder.message_layers.0.message_net.0.weight f4 [64, 64]
00000000: fd81 83bd ac95 ecbd ca23 d73d 9225 84bd
00000010: f994 aa3d cf3d a33c c10a 2b3d 79ca c9bd
00000020: e7db 5dbd 60c3 80bd 6831 d33c e873 cabd
00000030: 830c 0abd 15d1 2c3d 1b26 d7bd 06e2 9ebd
00000040: 22b5 efbd e3a4 853d a8cd 943c 1971 b43d
00000050: 1284 5dbd 07df a1bd dfd4 f1bd 0879 893d
00000060: 763e 7bbd 745c dbbd 26c5 bfbd 7e6b bcbd
00000070: 83e8 bd3d 6c80 ee3b 65e3 4b3d 8ddf ed3d
00000080: e459 e23c 1e37 8cbd cce4 ecbd 309a 7cbc
00000090: 2b99 61bc 4839 de3d 8cd3 323d 95c7 5cbd
000000a0: 41c5 cbbd 4954 92bd fc4c bfbd 7cd6 483d
000000b0: 8239 053d b54e a63c 69f7 89bd 1492 f7bd
000000c0: d721 fc3c 4368 c03d 4341 f5bc ae3a b5bd
000000d0: 2f68 c6bd 419a e4bd 80b6 203c a558 0c3d
000000e0: c1d6 dc3d 4ec0 00be b95c 7b3d 887e 823c
000000f0: c49a 9b3d d522 e4bd 883e a23c 4e63 ae3d
00000100: 9ef6 e6bd b041 f13c debd 193e 2a13 f83d
00000110: c53f 503d 0f07 c13d 5075 733d 3a02 e73b
00000120: 620e e23c 9ddc 8cbd d663 bc3d ff04 f1bd
00000130: bdb8 87bd 3994 283d d018 d9bd 1c93 443d
00000140: 5a03 e3bd 3653 80bc fd1c 84bd a084 243d
00000150: e77d ad3d e548 d53b ed41 9d3d 0cc0 48bd
00000160: 8a17 8c3d 41b3 b23d 2b15 8e3c d119 bb3d
00000170: 713c 02bd f6c9 a93d d61d 4abb 597e e23d
00000180: 0fcc c4bd a1fa 1b3d e5d6 a0bd 7740 fa3d
00000190: 5c3c 55bd 8aa6 d3bc d284 e03d 318f 2ebd
000001a0: d190 9fbd d566 60bd 37d9 f43d aed2 f03d
000001b0: d45e eebd 8026 42bd bd0e b2bd 325f aebd
000001c0: 387f 94bd c369 f83d 4aff 4dbd 3393 84bd
000001d0: bb1a f53d b58a 2fbd 98f0 b8bd 364b 84bc
000001e0: 5705 babd a945 53bd 8072 b5bc 9ef4 aebd
000001f0: dadc b0bd 8601 873d 3c2a 4f3d bd13 79bd
00000200: 0065 77ba 4c48 27bd 58b7 21bd 888d a73c
00000210: 7019 0cbc 4c51 afbd 9054 f8bc f82d ac3c
00000220: 78a2 02bd 9458 733d 1ee6 bcbd b8fc 8abd
00000230: 2849 db3c ac78 4dbd e897 a03c 4e81 d9bd
00000240: 540b c33d e0ef cebc 6af9 cdbd 1252 82bd
00000250: e2e6 843d 4ec1 d0bd 10d4 ddbc e42e 133d
00000260: 32a6 b23d e8e3 07bd b04e 9bbd d8da 0c3d
00000270: 20f1 48bd e224 82bd 46f2 e0bd e0e4 febc
00000280: 10ea 503d 28ff 773d a0e7 6e3d 967f a53d
00000290: 7083 06bd a0d0 343c 004a f4bc 7a91 933d
000002a0: a429 5b3d 701e 87bc 0e1e 85bd cc90 3a3d
000002b0: fccb 0f3d 9653 bf3d 0083 2d3c 02fa ff3d
000002c0: 98ee 0f3d 221a dd3d 18e2 c9bd 46e6 dc3d
000002d0: 06da 9f3d 36be e4bd 1c42 02bd b85b 33bd
000002e0: 76c9 fabd 38b2 42bd 0048 d238 cea9 f73d
000002f0: 50c8 093d 9891 cd3c 90fe f3bc 6889 a93d
00000300: faae 433d e95d d33c 7327 3e3c 5e9c 8d3d
00000310: 85da dd3d 13e6 93bd a0c1 733d 1122 233d
00000320: d25b adbd f7b5 cdbd 854f c13d 41ef 563d
00000330: 62dd 5d3d 0501 02be 03a4 643d d4e0 7f3d
00000340: 736b adbc a666 01be c3bf cbbd 5609 fcbc
00000350: 8d62 e23c 59d7 7c3d 33e5 ec3d 98c6 91bd
00000360: 7556 a7bc 6c36 dcbd 1e31 923d 2336 77bc
00000370: d9f4 1ebd b37a b4bd 4c36 b9bd c30d df3d
00000380: 935d 1dbc 0be8 a4bd a30f 423d 5595 e6bd
00000390: d17d 823b 4213 cebd 9e48 a63d 5e63 c23d
000003a0: a449 923d bb21 9cbc 1c7f 7c3d b499 8fbc
000003b0: dce7 ddbd abe0 73bd f763 183d 84d0 b6bd
000003c0: 4697 3abc d882 fbbd 282b 363d 2491 963d
000003d0: 0f2d 81bd c38b c43d f2d2 a83d 3fab c83d
000003e0: 278d 613d 5e0b 9fbd 292b e53c fe5a a9bd
000003f0: c97e dd3d baf1 24bd 4020 2fbc ab4d 403d
-0.06421278 -0.11551985 0.10504873 -0.064524785 0.083291955 0.019926934 0.041758303 -0.09853072
-0.054164793 -0.06287265 0.025780395 -0.098853886 -0.03370334 0.042191584 -0.10505315 -0.07757954
-0.1170447 0.0652559 0.01816447 0.08810634 -0.05408103 -0.07903867 -0.1180818 0.06712538
-0.061338864 -0.107109934 -0.09363775 -0.0920019 0.09272864 0.0072784927 0.049777407 0.116149046
0.027630754 -0.0684645 -0.11567077 -0.015417621 -0.013769428 0.10850769 0.043658778 -0.053901274
-0.099497326 -0.07144982 -0.093408555 0.049032673 0.032525547 0.020301202 -0.06736643 -0.12088409
0.030777855 0.09394886 -0.029938346 -0.08849083 -0.0968784 -0.11162234 0.009809136 0.034264226
0.107831486 -0.12573358 0.061367724 0.015929475 0.075978786 -0.11139456 0.019805208 0.085150346
-0.11277507 0.029450268 0.15013835 0.1211303 0.050842065 0.094251744 0.05943805 0.007049826
0.027594749 -0.06878016 0.0919873 -0.11768531 -0.06627033 0.04115698 -0.10600436 0.047991857
-0.11084624 -0.015664678 -0.064508416 0.040165544 0.084712796 0.006508934 0.0767859 -0.049011275
0.06840427 0.08725596 0.017344078 0.091357835 -0.031795923 0.08290474 -0.0030840538 0.11059255
-0.096092336 0.038080815 -0.07853488 0.12219327 -0.052059516 -0.025836248 0.109628335 -0.042617027
-0.077912934 -0.05478557 0.11955493 0.11758934 -0.11639181 -0.047399998 -0.08694217 -0.08514251
-0.072508276 0.121295474 -0.05029229 -0.064733885 0.11967989 -0.04285689 -0.090302646 -0.016149145
-0.0908305 -0.051580105 -0.022149324 -0.08542751 -0.08635874 0.065920874 0.050577387 -0.06080984
-0.00094373524 -0.040840432 -0.03948149 0.02045323 -0.008550987 -0.08560428 -0.03031376 0.021018013
-0.031893224 0.059410647 -0.09223579 -0.067864835 0.026768282 -0.05016391 0.019603685 -0.10620366
0.09523645 -0.025260866 -0.100573376 -0.0636331 0.0648935 -0.1019312 -0.027078658 0.03593339
0.087231055 -0.033176333 -0.07583368 0.034388393 -0.04905808 -0.06354691 -0.1098371 -0.031114995
0.05100447 0.06054607 0.058326364 0.08080976 -0.032840192 0.011036068 -0.029820442 0.07205482
0.05350651 -0.016494006 -0.06499873 0.045548245 0.035106644 0.093421146 0.010590315 0.12498857
0.03513965 0.10796 -0.09857577 0.10786109 0.078052565 -0.11169092 -0.031801328 -0.04378864
-0.12245457 -0.047533244 0.000100269914 0.120929345 0.0336383 0.025093839 -0.02978447 0.08278161
0.047774293 0.025801616 0.011606085 0.0691459 0.10832695 -0.072216175 0.059510827 0.03982741
-0.08464779 -0.10044473 0.09438995 0.052474264 0.054166205 -0.12695701 0.055820476 0.062470272
-0.0211694 -0.12636814 -0.09948685 -0.03076617 0.027634883 0.06172881 0.11567154 -0.07117957
-0.020426968 -0.10752568 0.071382746 -0.015088591 -0.038807724 -0.088124655 -0.090435594 0.10891297
-0.009604829 -0.08052071 0.047378194 -0.112589516 0.0039822836 -0.10062267 0.081193194 0.09491609
0.07142952 -0.019059053 0.06164466 -0.017529346 -0.10835239 -0.059540432 0.03720471 -0.0892649
-0.011388605 -0.12280816 0.04447475 0.07351902 -0.06307422 0.0959697 0.082433596 0.097982876
0.055066254 -0.0776584 0.027974682 -0.082693085 0.10815198 -0.04026959 -0.010688841 0.04694907

encoder.message_layers.0.message_net.0.bias f4 [64]
00000000: 59d2 8d3d 4a30 e13c 0c0f 3dbd 484c d53c
00000010: 8a27 d33d b91d 8e3b a999 dc3d 3071 76bd
00000020: 747a d23d 40cf a2bc ef50 78bd 0c68 f13d
00000030: 76b0 95bc 1060 b93d 414b a03d e40a cbba
00000040: f1a1 12bd b0ad 583d f74b 213b 6460 ddbd
00000050: 2c9a bebd ce5a f53d af34 ad3c fb3f a03d
00000060: d61f 9cbc c46a aebd f13c 863d 6d4f 363d
00000070: cc46 de3d 5a33 45bd 2746 823d 2b36 d43c
00000080: bc34 b23d d16b d73d 1576 48bd 6051 083d
00000090: c52d 30bd 9e8c 3abd 1b9f 393d 80d2 1b3b
000000a0: 19f2 23bc 1739 223d c091 c2bc e806 043d
000000b0: 94a7 95bd 91e9 fa3c e4a8 f33d 2862 92bc
000000c0: 881d a9bc b2fd 9bbd d998 9abd 2245 f2bd
000000d0: 7bc1 00be bc87 8d3c edf1 3dbd 970d 4bbd
000000e0: bbb7 d0bd 9293 893d 7258 ecbd 689e 5fbd
000000f0: 706a 283c 4d37 7cbd 12af a63d 1c9a e8bd
0.06924886 0.027488846 -0.046156928 0.02603735 0.10310276 0.0043370393 0.10771496 -0.060166538
0.10277262 -0.019874215 -0.06062406 0.117874235 -0.01827262 0.090515256 0.078268535 -0.0015490917
-0.03579897 0.052900016 0.002461193 -0.10809401 -0.0930675 0.1198021 0.021143286 0.07824703
-0.01905815 -0.08516458 0.065545924 0.04450934 0.10853347 -0.048144676 0.06361037 0.025904736
0.087014645 0.10518611 -0.048940737 0.03328073 -0.0430124 -0.04554426 0.04531775 0.002377659
-0.010006451 0.039605226 -0.02375114 0.03223315 -0.073073536 0.030628951 0.11897448 -0.01786907
-0.020643964 -0.07616748 -0.075486846 -0.11829592 -0.12573807 0.017276637 -0.046373297 -0.049573507
-0.10191294 0.067176 -0.11540307 -0.054594427 0.010279283 -0.061576176 0.08138861 -0.11357519

encoder.message_layers.0.update_net.0.weight f4 [64, 64]
00000000: 11d1 c83d 74be af3c 8c34 583d b749 b53c
00000010: 9269 3c3d 04da 89bd f75c e5bc 3034 b93c
00000020: d838 663d 346c 3f3d 40a6 cb3d 50ff f83d
00000030: df07 e83b 2a78 ef3c 0898 c83c b5a8 83bd
00000040: 77d7 1c3e bc31 763d 536d c9bd 2a20 ce3d
00000050: 1256 a2bd 2203 d0bd dcaf 503d bf40 2cbb
00000060: 1fff 533c fc98 92bd 47a3 f33d e06d 05bc
00000070: 37fd 9a3c 7115 c63d 5bf2 44bd 3ed0 9c3d
00000080: 822b 06bc d411 a4bd df0f c6bd 22e7 f8bc
00000090: fac5 de3c 4f73 6e3c a866 803d 98ef 99bd
000000a0: 29ac 423d 2259 80bd f2e2 afbd 58ef 92bd
000000b0: 40d2 2fbb e690 a738 aa55 ad3d a057 23bc
000000c0: 40b4 09bb 6e5d 963d a5d3 263c 2588 cabd
000000d0: 446b a1bc 9b5e c5bd 632a 18bb 527d 063e
000000e0: daa6 033c 62d0 fc3c da4b b33d 6286 d03d
000000f0: f015 4a3c 65e6 d83d 51c1 79bb 0640 ad3d
00000100: f82b a6bd 8245 f23d 245b 453d 93d1 053d
00000110: 7a63 e0bd bc3f 8c3d b60f 0e3d 4644 d0bd
00000120: 4507 d1bd e289 c7bd 996d e3bd 2179 92bd
00000130: 55ad 9abd a98d cbbd 5a46 6a3d e6af e53d
00000140: bb19 c43d 6f61 13bd 0c69 c7bd 9be3 f5bd
00000150: 382f 883d d7be e53d 1606 ebbd a677 4e3d
00000160: 4653 603c 5f99 863d 2b12 bd3d 33e5 be3b
00000170: 5b9b 863d 472a 363d c180 e43d 80f7 27bd
00000180: ad79 3b3b 8665 28bd 69af 99bb ffbb e5bd
00000190: e694 933d ad4b aabd b4e3 49bd 4030 8a3b
000001a0: 2d92 9dbd cbd2 8cbd e084 203c 25c1 d13d
000001b0: a824 6c3d c221 e5bd 0bbd e23d 8a72 db3d
000001c0: 0814 4b3d 08e4 93bc 1c5c cb3d fe6b ecbd
000001d0: ef75 88bc a768 c53d 2b7f 49bd fad0 bdbb
000001e0: 4a2a 1dbd 01c0 a6bc 78a9 06bd f4ef 1d3d
000001f0: 9c29 26bd 3a58 4ebd bb73 aa3d 705c 97bc
00000200: 2278 6e3d ce84 b7bd 18d3 4ebd 5f3e 803a
00000210: 034f 8f3d 6a59 8ebd 6cd9 443d 8c24 e7bd
00000220: 7693 403d 9c40 2cbc bff7 6dbd 18a9 1abd
00000230: ded2 143d 821c 62bd 1eb0 483d 2141 9e3d
00000240: 8161 403d 1014 64bd 7672 ba3d 9d99 60bd
00000250: 4b6e 853d d565 8cbd 7897 d53c 4fe9 c63c
00000260: 0713 953d 5331 fdbd 939b 003e 860b 0f3d
00000270: c238 163d 4639 893d fc66 7cbb 4991 80bc
00000280: 6928 01be d153 d33c 43b9 f8bd 97ca 633d
00000290: 8daf 93bd 951e 9f3d 90e0 893d f043 863c
000002a0: 7798 d1bd 0720 2dbc c2d5 e73d 6b83 733d
000002b0: 04e6 6fbd 2774 903c 10e1 ed3d f2bb d23d
000002c0: d033 6d3c 04bf 593d f9fc 06bd 4a50 ebbd
000002d0: efb0 c53d 70f1 ebbd 9328 ec3d 4dd9 16bd
000002e0: bc2b ab3d 25cb ab3d 1fd7 17bd fccc b9bd
000002f0: 00df b23a 517e d0bd 3eff ecbc 20cb 1d3d
00000300: c636 e9bd 7e43 e3bd 9086 f83d 34f9 563d
00000310: 2e0a c8bd ac7c 6abd 00cb f7ba 64b5 a2bd
00000320: 08c3 b43c 4855 a03c 727d ddbd e880 34bd
00000330: 80aa aabd 6e91 b9bd c6ef 89bd 9c6e 1e3d
00000340: 7e67 97bd 5a7d c7bd 48b8 d6bc 6069 89bb
00000350: 8459 993d 7caa bb3d d8a8 6bbd ee68 ac3d
00000360: 88b5 4f3d d2d6 b1bd fc73 2b3d 9ed0 803d
00000370: a09e f63b 4ecc a1bd 7021 75bd 0090 803c
00000380: b8e3 e63d 606b 71bd ac3d 36bd b6f4 de3d
00000390: d0da e73d 60ff a6bd 5088 dbbd 861b e3bd
000003a0: f8d3 573d 4008 da3d ace6 b73d 72c4 a03d
000003b0: 744b dbbd c030 e8bd e0b7 adbd 0063 083a
000003c0: 882a ddbd b879 eb3c 7066 893c 3457 a63d
000003d0: da2a 89bd f4e8 173d 005a d3bc 5a2e a6bd
000003e0: 4a8c e5bd b2ce d3bd f493 d4bd 882e 8a3c
000003f0: ac95 513d d87e cbbd eaae debd d8e1 96bc
0.09805501 0.02145312 0.052784488 0.022129877 0.045999117 -0.06731036 -0.02799843 0.022607893
0.056206554 0.04673405 0.09943819 0.12158072 0.0070810164 0.029232103 0.024486557 -0.06428663
0.15316568 0.060106024 -0.09835305 0.100647286 -0.07926573 -0.101568475 0.050948963 -0.002628371
0.012939244 -0.07158086 0.11896377 -0.008143872 0.01891957 0.096720584 -0.04808269 0.076569065
-0.008189084 -0.08011213 -0.09670996 -0.03038365 0.027194012 0.014553859 0.0626958 -0.07516402
0.047527466 -0.06267001 -0.08588208 -0.071745574 -0.00268282 7.99017e-05 0.08463605 -0.009969622
-0.0021011978 0.07342039 0.010182296 -0.09889249 -0.019704469 -0.09637185 -0.0023218624 0.13133743
0.008035386 0.030861083 0.08754702 0.101818815 0.012334332 0.10590819 -0.003810961 0.08459477
-0.08113855 0.11829664 0.04818262 0.03267057 -0.10956474 0.06848094 0.034682952 -0.10169272
-0.10206465 -0.09743096 -0.111048885 -0.0715201 -0.07552592 -0.09939129 0.057196 0.112151906
0.0957522 -0.03598159 -0.09736833 -0.12006303 0.06649631 0.112180404 -0.1147577 0.050407074
0.013691729 0.06572222 0.09231981 0.0058256625 0.065726005 0.044473913 0.1115737 -0.04100752
0.002860646 -0.041112445 -0.0046901 -0.11217498 0.072061345 -0.08315215 -0.04928942 0.0042171776
-0.076938964 -0.06876143 0.009797305 0.102419175 0.057652146 -0.111880794 0.11071213 0.10715206
0.04957965 -0.01805307 0.09929678 -0.115440354 -0.016657798 0.096391015 -0.049193542 -0.005792734
-0.038370408 -0.020355226 -0.03287646 0.038558915 -0.040567026 -0.05037711 0.08322855 -0.018476695
0.058220036 -0.08960877 -0.050494283 0.0009784213 0.06997492 -0.06950648 0.048058912 -0.11286268
0.04701563 -0.010513451 -0.058097597 -0.037758917 0.03633391 -0.05520297 0.048996083 0.07727266
0.046967987 -0.055683196 0.09103863 -0.054833997 0.06515177 -0.068553604 0.026073202 0.024281172
0.0727902 -0.123629235 0.12559347 0.0349231 0.036675222 0.06700377 -0.0038513532 -0.015694277
-0.12613072 0.025796803 -0.12144711 0.055613127 -0.07211218 0.07769505 0.06732285 0.016389817
-0.102341585 -0.010566718 0.11320068 0.0594515 -0.05856897 0.01763351 0.11615193 0.10289754
0.014477685 0.053160682 -0.032956097 -0.11489923 0.09652888 -0.1152066 0.115311764 -0.036828328
0.08357951 0.08388356 -0.03707039 -0.09072301 0.0013646781 -0.10180343 -0.028930303 0.038523793
-0.113874 -0.110968575 0.12135041 0.052483752 -0.097675666 -0.057247803 -0.0018905103 -0.07944754
0.022065654 0.019571915 -0.108149424 -0.044068247 -0.083333015 -0.09060942 -0.06735186 0.038679704
-0.073927864 -0.09740706 -0.026210919 -0.00419347 0.07487777 0.09163377 -0.05753407 0.08418451
0.05071023 -0.08683552 0.04185866 0.062897906 0.007526234 -0.07900296 -0.05984634 0.015693665
0.11273903 -0.05894029 -0.04449241 0.10886519 0.11321032 -0.08154178 -0.10719359 -0.11089234
0.052692384 0.10646105 0.08979544 0.07849969 -0.10707751 -0.11337423 -0.08482337 0.00052027404
-0.10799128 0.028744563 0.016772479 0.081221014 -0.066976264 0.037087396 -0.025799751 -0.081143096
-0.11208399 -0.103421584 -0.10379782 0.016867891 0.05116813 -0.09936303 -0.10873206 -0.018418238

encoder.message_layers.0.update_net.0.bias f4 [64]
00000000: 2429 77bd 25d0 f63d 59a9 1ebd fc8d edbd
00000010: 76b1 9abd 3d15 4dbb b275 e0bd 154f 503b
00000020: e955 a8bc 4ce6 643b 0f95 d33d 6ac3 893d
00000030: 940d a5bd 3e21 90bd a852 2f3d 49ab a43d
00000040: bf7f 33bc f477 d8bd 1958 d9bc 1363 293b
00000050: 30a3 bbbd e746 9bbd b090 5a3d 0aeb 90bd
00000060: c782 51bd 1579 e23c c7cb c43d ab4d 8f3c
00000070: 4614 93bd d8d4 6fbd d2d5 b83d 68dc f6bd
00000080: 5f0d bfbd 3b8a 3f3d 856c 513d 3a34 ef3d
00000090: 2d30 653c 7c20 1abb da2f cebd 00e3 303d
000000a0: 20e4 d43d 3713 4e3d a5e5 92bd 8cfc c0bd
000000b0: c747 eb3d 95ab 22bd 2150 c43c 7f35 cb3d
000000c0: 1340 c63d 5986 79bd 8a47 8e3d 82cc c5bd
000000d0: 1ca4 2a3d 7e22 c23d f007 693c 34d8 e1bd
000000e0: 9023 c73b 68d6 febd f3c8 f53b facc 013d
000000f0: b688 cdbd 8214 b93d bbb5 d0bc 1935 9ebd
-0.06034197 0.12051419 -0.03873572 -0.11599347 -0.07553379 -0.0031293177 -0.109599486 0.0031785418
-0.020548778 0.0034927307 0.10331165 0.067267254 -0.080592304 -0.070375904 0.042803437 0.080404826
-0.01095575 -0.10569754 -0.026531266 0.0025846406 -0.09161985 -0.07581883 0.05336064 -0.0707608
-0.05115011 0.027645627 0.0960918 0.01749309 -0.07181601 -0.058552593 0.09025158 -0.12053758
-0.09328722 0.046762686 0.051128883 0.11679883 0.013988537 -0.0023517897 -0.10067721 0.043185234
0.10395074 0.050311293 -0.071727075 -0.094231695 0.114883 -0.039714415 0.02396399 0.09922313
0.0968019 -0.06091914 0.06947239 -0.096581474 0.041660413 0.09479235 0.014223084 -0.110275656
0.0060772374 -0.124432385 0.0075007617 0.03168962 -0.10035841 0.09037115 -0.02547728 -0.07724971

encoder.message_layers.1.message_net.0.weight f4 [64, 64]
00000000: 1456 e03d 8174 743d cdd2 ff3b e76e d03d
00000010: c836 f8bd e693 ef3d e69e cc3b 7f2e d83d
00000020: d675 0b3e 629d 013e 7f51 d9bd 2591 463b
00000030: b950 523d 901f 773d 337f 7abd 1d01 063e
00000040: 56d9 96bd 6d52 3a3d 93e9 eb3c adbd 07be
00000050: 85b5 4ebc c8b9 5b3d ceab 2dbd 909f c73d
00000060: 1db1 d1bd a291 bd3d 472a c0bd 3594 86bd
00000070: da4d c8bd 8435 ea3d 16c6 3ebc 37f0 87bc
00000080: 10f0 edbc 0e62 e13d 3cac e6bd e302 a93d
00000090: 6f4d d6bc 932a 28bc a91c 80bd 3b0c 7c3c
000000a0: 2201 b13d b3b1 7a3c f74e d33d c5b6 62bc
000000b0: 0aaf b6bd 7d3d a23d 9449 db3d 2365 443c
000000c0: 14b0 dfbd bd24 823c 032b b8bd 9046 57bd
000000d0: fbe7 7dbd 3db5 8d3d c26f bc3d bf6b 01be
000000e0: 8914 383b e6ed 9d3d 2e46 de3d 5f89 4f3d
000000f0: 5988 1cbd 1432 643b ca01 adbd 1ec9 0b3e
00000100: 4058 d1bd 4c0f 6abd 90db 19bd 3a3e 41bc
00000110: 5b97 503d 1fa7 30bc cd79 34bd 3437 f2bd
00000120: f9bf a3bd d10a b1bd 95e0 783d 1359 32bd
00000130: 968a 05be 62c6 8fbd 0a5f 5f3d 5b15 5ebd
00000140: 0eca 153d 0088 48bd 4a96 75bb 647e c3bc
00000150: 42db 83bc e586 c43d 76c4 29bb b7b1 b4bc
00000160: 8d43 f0bd 4e65 ebba 2808 afbd cdc3 e43d
00000170: d61d 04bc bddb 943c 8023 a6bc 758e 8f3d
00000180: b71e 00be bbf5 77bd a895 98bd f885 c03d
00000190: b99b 023c b21e a53c ed4e a6bd e32d 01be
000001a0: 4d84 da3d 3a5b cd3d 096f 3b3d 40a2 cebc
000001b0: 8ee9 c1bd b495 9cbd ba96 c5bd 6d9e 60bc
000001c0: 5f92 38b9 9e47 b5bd 8114 58bc 8016 13bd
000001d0: 9359 083d d9a7 763d 9e71 be3d e99e dbbd
000001e0: 96b2 efbd a2b9 f5bd e3e3 fb3c 9d7d 8ebd
000001f0: ce71 1f3c c7f0 b5bd b79a 47bd d473 dfbd
00000200: 7baa 903d bbc9 923d fa12 793b 930f d13d
00000210: 0ef4 6ebd c692 833d c832 9c3d fa9b 7f3c
00000220: 0c4d d03d 8d0a b13b dd8c 6b3c 2239 0dbd
00000230: 8422 4bbd ce1f cebc b0fe 853d ad5d f8bd
00000240: 3c92 b6bd 433d 25bc 5104 273b 83ab 9dbd
00000250: aaa4 b33c 4294 98bd 99ef b93c 1dee 8b3d
00000260: 95c2 903d d33c d63d 448b 58bd 4d8d ddbd
00000270: 2702 49bc 7593 35bc 845d a03d c24e da3d
00000280: e8ca 8abd a3b4 5d3d c2af 8fbd 3680 9a3d
00000290: 0a1a cabc a8d5 ff3d 27ff 05bc 7e79 32bd
000002a0: b4aa ea3d 3e9c 56bc 843c 54bd 6b44 bb3d
000002b0: ac57 2fbd 75fa 47bc 32e0 e83d 4b0e e7bd
000002c0: 8e2b a0bd 3152 053d e15e 4d3d a634 82bd
000002d0: bd6e ff3d fcc5 cfbd 40a5 923b e253 debc
000002e0: a72f 943d e92c 40bc 1755 a8bd 9f20 503b
000002f0: 6a5c ce3d 15bf c83d cf5f 913b 569d 67bd
00000300: be92 90bd 4c53 5e3d 6a62 d53d 6838 373d
00000310: 12ae e93d ac5e 5dbd 8008 6e3c e2e0 dfbd
00000320: 8480 d13d c030 b03c 96d5 c3bd c43e 13bd
00000330: 18b0 ba3d b24f febd e807 543d 9a5f 923d
00000340: 944e 053d 8e2a c9bd 1817 4a3d 1064 34bc
00000350: ea78 b8bd 6843 6dbd 00c8 163b d0f0 a8bd
00000360: ecee 023d a275 86bd e0a7 dd3b b06d 5e3d
00000370: 5079 043d 1699 dcbd eca4 01bd c0c0 78bb
00000380: b8ac e7bc 9a96 803d 887f 81bc c827 343d
00000390: 8494 e0bd ec04 f3bd 8022 cfbb 9841 b73d
000003a0: 8a40 9e3d e2fd ce3d 9827 053d e8eb 393d
000003b0: 1865 973c 6612 e03d 086a dc3c 0016 3c3c
000003c0: b4f5 8cbd 2068 443d 84ca 27bd 52a5 e9bd
000003d0: c00a c03c 20dc ef3b 329b ea3d 38a6 d0bd
000003e0: 8812 923c 84c6 bbbd 185e 0ebd e0b4 eb3b
000003f0: b4b1 09bd 8068 c4bd b005 a23d fa53 bdbd
0.10953918 0.05968142 0.007807112 0.10177403 -0.12119824 0.11698131 0.006244528 0.105557434
0.1361917 0.12657693 -0.10611247 0.0030298915 0.051346514 0.060332835 -0.061156463 0.13086362
-0.07365672 0.045488764 0.0287979 -0.1325595 -0.01261652 0.05364397 -0.042400174 0.09747231
-0.1023886 0.09256293 -0.09383064 -0.06571237 -0.09780474 0.114359885 -0.011643907 -0.016594036
-0.029045135 0.110050306 -0.1126332 0.08252504 -0.02615997 -0.010264057 -0.062554665 0.015383775
0.08642794 0.015301156 0.10317796 -0.013837521 -0.08920105 0.07921884 0.10707393 0.0119870035
-0.10922256 0.015886659 -0.08992579 -0.052557528 -0.061988812 0.06919334 0.092010036 -0.12638758
0.0028088412 0.07711391 0.108532295 0.050668117 -0.03821597 0.0034819888 -0.08447607 0.13650939
-0.102219105 -0.057143494 -0.037562907 -0.011794621 0.050925594 -0.010782032 -0.04406147 -0.118269354
-0.079956 -0.08644641 0.060761053 -0.04354198 -0.13041148 -0.070202604 0.054533996 -0.054219585
0.036569647 -0.048957825 -0.0037473612 -0.023863979 -0.016095761 0.095960416 -0.0025904453 -0.022057397
-0.11731634 -0.0017959268 -0.085464776 0.111701585 -0.008063754 0.018171186 -0.0202806 0.070095934
-0.12511717 -0.06053708 -0.0745042 0.094005525 0.0079716975 0.020156238 -0.08120523 -0.1261516
0.106697656 0.10027166 0.04576019 -0.025223851 -0.09468375 -0.07645741 -0.096478894 -0.013709647
-0.00017602135 -0.088515505 -0.013188482 -0.03591013 0.03328855 0.060218666 0.092990145 -0.10723669
-0.117039844 -0.11998297 0.030748313 -0.069575526 0.009731723 -0.08883815 -0.048731532 -0.10910764
0.070637666 0.07167383 0.0038005696 0.10208049 -0.058338217 0.06424479 0.07626873 0.015601153
0.101709455 0.005402869 0.014376846 -0.034478314 -0.049593464 -0.02516165 0.065427184 -0.12127242
-0.08914611 -0.010085407 0.002548475 -0.07698729 0.021929104 -0.07450153 0.022697257 0.06832526
0.070683636 0.1046082 -0.05286719 -0.108179666 -0.01226858 -0.01108252 0.07830337 0.10659553
-0.067769825 0.054127347 -0.07015945 0.075439855 -0.02467062 0.124919236 -0.008178509 -0.043572895
0.1145834 -0.0130987745 -0.051815525 0.09143909 -0.04280822 -0.01220571 0.11370887 -0.11282023
-0.078208074 0.032549087 0.05013931 -0.06357698 0.124722935 -0.101451844 0.0044752657 -0.027139608
0.072356515 -0.011729457 -0.082193546 0.0031757725 0.1007622 0.09802071 0.00443647 -0.05654653
-0.07059239 0.054278657 0.104191616 0.044731528 0.114101544 -0.054045364 0.014528394 -0.10931565
0.102295905 0.02150762 -0.09562223 -0.03594853 0.091156185 -0.124175444 0.051765352 0.07147141
0.03254564 -0.0982257 0.04933843 -0.011010185 -0.090074375 -0.05792561 0.0023007393 -0.08249056
0.031966135 -0.065654054 0.006764397 0.054303825 0.032342255 -0.10771386 -0.031651422 -0.0037956685
-0.0282806 0.06278725 -0.015807882 0.04398325 -0.10965827 -0.11866173 -0.0063212514 0.08948058
0.077271536 0.10107018 0.032508463 0.045390993 0.018480822 0.10941009 0.026906028 0.011479855
-0.06882802 0.047950864 -0.04096462 -0.114084855 0.023442626 0.007319942 0.114553824 -0.10187954
0.017831102 -0.09168723 -0.034757704 0.007193193 -0.033616737 -0.09590244 0.07911241 -0.09244533

encoder.message_layers.1.message_net.0.bias f4 [64]
00000000: 9e4e 0ebd a98f d63c c12f 1a3d 3af3 bdbd
00000010: fe14 47bd 5ab8 a7bd e613 49bd d279 a9bc
00000020: 8c27 32bd 6896 653d 40d4 cbbb 4ada a0bd
00000030: a103 4f3d 0ee0 423c 7e5c d9bd 7f0a e93d
00000040: 3043 283d 70d6 6a3d 6ad3 5bbd fc7a c3bd
00000050: a052 b2bd 438d 9ebd 1c4d 9f3d 6ce6 a8bc
00000060: e25b 5bbd aa59 c23d 3d28 63bc 00f8 99bd
00000070: ba22 123d ccef 6e3d 0e39 ddbd 074f ea3d
00000080: 0036 e93d 6456 eabd 6f0d bf3d 8c10 60bd
00000090: 41f1 b63d 573f 553d 2f27 d13d 1ef4 e63d
000000a0: a0b5 c63b 7f39 c2bd 45e4 99bc 69e1 dfbb
000000b0: 92b6 d1bc 0e1b d8bd 0849 9ebd 1d26 2e3d
000000c0: e2d1 933d 3400 36bd 2321 fb3d d5a5 9a3d
000000d0: 084d 8f3d e31e e63d ae9b fe3a 0020 1839
000000e0: 3d1b 973d 1a8a 043d d2b0 a33d c822 efbd
000000f0: 351b ee3d 50a6 48bc 607f 343c 7cde ebbd
-0.034742944 0.02619155 0.037643198 -0.092749074 -0.048604004 -0.08189459 -0.049091242 -0.020687971
-0.043494746 0.05605164 -0.0062203705 -0.07854135 0.05054057 0.011894239 -0.106133446 0.11378955
0.0410797 0.05733341 -0.053668417 -0.09544942 -0.08707166 -0.07741787 0.07778379 -0.020617686
-0.053554423 0.09489758 -0.013864574 -0.07518005 0.03567765 0.058334157 -0.10801898 0.114408545
0.11387253 -0.11442259 0.09328734 -0.05470328 0.08932734 0.05206236 0.10212552 0.112770304
0.006064132 -0.09483623 -0.018785605 -0.006832291 -0.025599752 -0.10552035 -0.07728773 0.042516816
0.07217766 -0.044433787 0.1226218 0.07551161 0.069971144 0.1123636 0.0019425058 0.0001450777
0.07378242 0.032358266 0.0799271 -0.11676556 0.11626283 -0.012246683 0.011016697 -0.11517045

encoder.message_layers.1.update_net.0.weight f4 [64, 64]
00000000: 699e 143d f110 543d e3dd 4a3d 44e1 e53d
00000010: 802e edbc f4ab 7c3d 547b 8c3c 8bd1 e2bd
00000020: e82d cf3c e0ec 86bd 7449 55bd 00b4 aabd
00000030: ffc5 ffbc c1b7 df3d e0eb a2bd b308 edbc
00000040: 55a6 093d 426e ca3d b433 8b3d a015 abbb
00000050: a4e7 e03d ced8 5cbd 8e08 773d 5279 fa3d
00000060: e6e7 86bd 9eda abbd b56e 833d a417 debd
00000070: f840 3abd c59b 023d 3cb3 583d d5cc ce3d
00000080: 9738 9bbd 60fa 5ebd 456d 27bd 702b e73d
00000090: 9efd f93d 8473 353d 55f6 0c3c 6315 ddbc
000000a0: 4448 d33d 122a db3d 3367 833c 2541 173d
000000b0: 71f6 16bd ac8b f93d 7e37 ab3d af9a f93d
000000c0: f0fa b8bc a470 843d 4a57 e03d 84a5 bfbc
000000d0: 5394 6cbd 181a 3a3d ff06 b63d cc2d 7c3d
000000e0: 3e2f d1bd 8dcb a6ba 76af 84bd 30b5 d23d
000000f0: b2f3 203d e6ec 91bd 4012 8c3d f039 dd3d
00000100: 1cc5 fd3d 43d4 533d e336 bd3d 24ee 3dbd
00000110: fd77 b83d e2aa e63d e492 0fbd e899 ea3d
00000120: 5cba 313d beb5 a9bd ca09 ad3d bfe2 d03d
00000130: 2d9a dcbd d093 33bd a06a a2bd 857a db3c
00000140: a2c3 943d ea8b e73d 5fe6 aa3d f803 7c3d
00000150: 677b 893d 7ce2 653d 4ca5 dabd ce57 7b3d
00000160: 63b1 95bc 75a7 4abc 5577 a2bd 2081 fbbb
00000170: c734 3cbd 8720 613d 40ce 4fbd 79c5 29bd
00000180: 1a65 fabd 40da 96bc 447e 80bd 7477 7d3c
00000190: dd86 37bc fc4f e1bd bb8f fbbd bc70 db3d
000001a0: 54ab 5ebd e369 18bd 3c50 27bd b405 01bc
000001b0: 7c2e c5bd ca6a d73b 0027 89bd b630 bfbd
000001c0: d0b8 a1bd 00b7 1cba 36c0 2bbd 53e5 79bd
000001d0: ea3e e23d 59b0 0fbb 9588 723c ec6f 90bd
000001e0: 821d bfbd 9fbf 08bc d48c 3c3d 52b6 99bd
000001f0: ea95 c1bd 004c 9339 0058 143a e0bd c2bb
00000200: 0438 9abd 0f21 fa3d 60be dbbd e46c c83d
00000210: 6108 3a3d 9409 2bbd 3433 9d3d dbea d63c
00000220: d276 e53d 7097 babc 6e7e 963d 2c95 d3bd
00000230: 3871 b73c d67d d33d ace3 77bd fc46 b8bd
00000240: b969 793d 8318 97bd 7268 f53d 687f 813d
00000250: a593 f23d c00e 89bb f231 203d d084 90bc
00000260: e9db ee3c b74d c7bd 4d9e 0d3d 006c e1ba
00000270: d539 03be 2bea abbd d6bb 9c3d 0506 343e
00000280: 7619 933d 68bb 9ebc e4ee bf3d 4c09 673d
00000290: 2b61 b33d c566 01be 1121 75bd f4b3 8f3d
000002a0: 40ce fb3b 4b0e 62bd ad0e 5fbd 2ce5 313d
000002b0: eb6b 483d 33f2 f9bd 209d f43b 69dd e8bd
000002c0: 2c63 e53d 0eb8 ec3d 19b5 88bc fbc7 553d
000002d0: 9f9e 02be 191f 0bbc ce6c d73d f0a3 a5bc
000002e0: 483b 9dbd 9445 423c 8477 15bd bc7c fb3d
000002f0: 13f4 09bd 92ec 953d 30b7 883d a098 93bb
00000300: e263 a43d a821 653d 10d6 18bd ec4f 8d3d
00000310: ae6a 953d 10d6 183d a092 d0bc 44cd 593d
00000320: 2013 f2bb 8a6d 88bd 50d8 75bd 48d0 6f3d
00000330: e04a 1c3d e05e ecbc 3e2f ab3d f858 be3c
00000340: 4a4f c53d 886d d5bc a629 ddbd 3cfc afbd
00000350: dab5 ce3d cc81 053d b8c6 88bc 08bc 643d
00000360: a076 9abb 1c53 e1bd 5297 debd 309f 9a3c
00000370: f846 aebd f0b1 433d 5221 bc3d c4e9 57bd
00000380: 1090 bcbc 5295 fdbd f608 c2bd fc13 9f3d
00000390: b2f5 d8bd f683 f83d 5c62 fe3d 9009 0c3d
000003a0: eee8 a8bd 1cf0 f9bd 88d9 eb3c 741b cebd
000003b0: 1849 c2bd a622 83bd c21a c23d da87 d6bd
000003c0: 30a0 d7bc 6862 cabd a6b7 b83d 7c35 63bd
000003d0: 70c5 f1bd 8cbf f1bd 62bc ccbd f035 0a3d
000003e0: 743d 9b3d 0052 a9bb e481 813d 56aa ab3d
000003f0: bca7 e5bd e096 96bb 50ad b73d 1c7e b03d
0.036283884 0.05177397 0.049528014 0.11224607 -0.028952837 0.061687425 0.017148651 -0.110751234
0.025290444 -0.06588149 -0.052072003 -0.083351135 -0.031222342 0.1092372 -0.07955146 -0.028934812
0.033605892 0.09884311 0.06796971 -0.0052210838 0.10981682 -0.0539177 0.060310893 0.12230171
-0.065872 -0.08391307 0.064176 -0.10844353 -0.045472115 0.031886835 0.052905306 0.10097662
-0.07579153 -0.054437995 -0.040875692 0.11287582 0.12206577 0.044299617 0.008603652 -0.026987737
0.10316518 0.10701384 0.01604042 0.03692736 -0.03685612 0.121848434 0.08360194 0.12187707
-0.022580594 0.06466797 0.10954149 -0.023394354 -0.05775864 0.04543504 0.08888053 0.061567113
-0.10214089 -0.0012725458 -0.06478779 0.10288465 0.039294906 -0.07125263 0.068394184 0.10802066
0.12391111 0.0517161 0.092389844 -0.046369687 0.09007261 0.11263062 -0.035052195 0.114551365
0.043390617 -0.08286618 0.08449133 0.101994984 -0.10771594 -0.043842137 -0.07930493 0.02679182
0.072638765 0.11305983 0.08344721 0.061527222 0.0671299 0.056124195 -0.10676059 0.061363034
-0.018273061 -0.012369026 -0.07932917 -0.007675305 -0.04594877 0.05496266 -0.050733805 -0.04144809
-0.12226315 -0.018414617 -0.06274083 0.015470374 -0.0112015875 -0.11001584 -0.12283274 0.10714862
-0.05436261 -0.037210356 -0.040848 -0.007874895 -0.09628007 0.0065740095 -0.06696892 -0.09335463
-0.07896578 -0.0005978197 -0.041931354 -0.061009716 0.11047156 -0.002192518 0.0148030715 -0.070525974
-0.093318 -0.008346467 0.04603274 -0.07505478 -0.09452422 0.0002809465 0.0005658865 -0.005943045
-0.075302154 0.12213337 -0.107296705 0.09786394 0.045418147 -0.04175718 0.07675782 0.026235035
0.11204304 -0.02277729 0.07348333 -0.10331187 0.022392854 0.10326736 -0.06051986 -0.08997914
0.06089184 -0.07377722 0.11982812 0.06323129 0.11844567 -0.0041826665 0.03911013 -0.017641455
0.029157596 -0.0973162 0.034574796 -0.0017198324 -0.1281503 -0.08394273 0.07653014 0.17580421
0.07182591 -0.019376472 0.09371737 0.05640535 0.08758768 -0.1263686 -0.059845988 0.07016745
0.007684499 -0.055189412 -0.054457355 0.043431446 0.048931044 -0.12204399 0.00746502 -0.11370356
0.11200556 0.11558543 -0.016687917 0.05219267 -0.12755822 -0.008491301 0.105188 -0.020219773
-0.076773226 0.011857409 -0.036490932 0.122796506 -0.033680033 0.07320513 0.06675565 -0.0045042783
0.08026864 0.0559403 -0.03731352 0.069000095 0.07295738 0.03731352 -0.025460541 0.053174272
-0.007387534 -0.06661518 -0.060020745 0.05854824 0.038157344 -0.028853834 0.0835862 0.023235783
0.09634264 -0.026053205 -0.107989594 -0.08593032 0.10093279 0.032594487 -0.016696319 0.055843383
-0.0047138482 -0.1100218 -0.10868706 0.018874735 -0.0850963 0.047777116 0.09186043 -0.05271317
-0.023017913 -0.12381996 -0.094743654 0.077674836 -0.10593738 0.121345446 0.12421104 0.034188807
-0.08247553 -0.12204 0.02879025 -0.1006383 -0.09486598 -0.06403093 0.0947776 -0.104751304
-0.0263215 -0.09882051 0.09019403 -0.05547093 -0.11805236 -0.11804113 -0.09996869 0.033742845
0.07580081 -0.005167246 0.06323603 0.083820984 -0.112136334 -0.0045956224 0.089686036 0.086178035

encoder.message_layers.1.update_net.0.bias f4 [64]
00000000: 2dfb e1bd 73f8 92bd c693 853d a0bc f7bc
00000010: 25ac 473d 543a e1bd 303c 8dbc fe26 7ebc
00000020: 8080 01bb e40a d93d 3881 84bd 151f 463d
00000030: ffa9 3f3d 73e8 87bd fc40 acbd 0bd6 18bd
00000040: 1cf9 c7bd 3f82 80bc 46a7 0cbd 726b c43d
00000050: caa9 d43d 1e88 8f3d 4bbc d4bd 303a 9ebd
00000060: a0d3 7dbd e26f 943d 34c2 a9bd 99af 8a3d
00000070: adfc ecbd f426 bbbd 0724 833d e174 cc3d
00000080: a083 c2bd 8126 eebd 6880 77bd 1d46 a43d
00000090: 150f 623d bef4 0ebd 2842 c9bd 610a e03d
000000a0: 14d2 a7bd 17f8 8d3d aaf4 863d 0223 e63c
000000b0: 007d 73bc 6007 90bc b54d 603d 2753 cf3d
000000c0: 717e aebd ffe8 5abd ccdc d23d 75eb 01be
000000d0: 16c8 513d e780 553d 1c4b 6f3d 17a6 3e3c
000000e0: 9a0c 9e3d fc23 11bd ae62 b4bd 60df c6bd
000000f0: 44ac 6abd be97 ce3d 395d 9cbc 903e 893d
-0.11034236 -0.07176294 0.06522326 -0.03024131 0.048748154 -0.10997453 -0.017240614 -0.015512226
-0.001976043 0.1059778 -0.06469959 0.048369486 0.04679298 -0.06636133 -0.08410832 -0.037313502
-0.09764311 -0.015687106 -0.034339212 0.09590806 0.10383947 0.07008384 -0.103874765 -0.07725942
-0.0619694 0.072479025 -0.082889944 0.06771774 -0.115716316 -0.09138289 0.06403356 0.099832304
-0.09497762 -0.11628438 -0.060425192 0.080211855 0.055190165 -0.034901373 -0.098270714 0.109394796
-0.08194366 0.06932085 0.06589635 0.028092865 -0.014861345 -0.017581642 0.054761607 0.10123282
-0.085202105 -0.05344486 0.1029602 -0.12687476 0.051216207 0.052124884 0.05842124 0.011636279
0.07717247 -0.035434708 -0.08807884 -0.09710574 -0.05729319 0.10087536 -0.01908742 0.06701386

encoder.message_layers.2.message_net.0.weight f4 [64, 64]
00000000: 59ed 20bd 27ae b7bd 7aef aabc c6b5 4bbb
00000010: d995 b93d 456b 4c3d 65a9 3c3d 4dd9 26bd
00000020: df27 9f3c e1bd a23d 6b4e 1bbb f015 a93d
00000030: f531 7dbd dce0 88bd f1ad dc3d 3470 bf3b
00000040: b596 b53d 0fd6 3ebd ce5f 76bd 50e2 883d
00000050: 3309 f9bd 7cca cabd 8f8f 77bd 51aa 01be
00000060: e288 9ebd 6092 d53d 8e7e 93bd cdaa 33bd
00000070: d147 f4bd ffed c83d 3077 40bd 2454 f3bd
00000080: 0267 153c a71f 013e c06e 8a3d 617f e03d
00000090: e345 b9bd 64b8 ecbd 6930 d33d ad5b 9cbd
000000a0: 5adb 553c 0827 01bd c818 56bd f8e3 29bd
000000b0: f507 febc b69e c9bd 5f17 f63d 6fa2 f63d
000000c0: e7da 893d 464a 5bbd b2df d93c 9525 1cbd
000000d0: 08e3 c53d 281d fc3d 20d9 c0bd ce6b a6bc
000000e0: 7360 fd3c 2047 883d ea4f 8a3c 65ef e63d
000000f0: edcd abbd 1804 f63d 761a e9bd d651 143d
00000100: 5de8 9e3d 672e b3bd 16ef b43d 76f5 76bd
00000110: b942 9c3d 4747 983d 115f 0fbd 1739 f83d
00000120: ebea f93c 799b 2dbb 8f7c d6bd 810a 9c3d
00000130: 7444 abbd 67de e03d 9472 2e3d 6c9d a0bd
00000140: b7b1 0ebc 0b62 d6bd 2420 153d 1d65 d7bd
00000150: 3398 dabc 7cc6 2a3d 886b 7d3d d9ae 6d3d
00000160: 2e88 57bd c0f0 0d3d c974 cb3c bcb7 c4bd
00000170: 5c0b 5bbd 6b7b 433d f4e5 ba3d cf0b 24bd
00000180: 2031 9d3d 583d c7bd 48f6 d3bc fb6d 093d
00000190: b7e5 c2bc c4f9 8a3d 3ab3 553d 7f27 d4bd
000001a0: 3ef0 c5bd 11c8 0ebd 5e10 c7bd a288 d03d
000001b0: 636c 85bb 5bff 9abd 35b8 e13d f09e c9bd
000001c0: 8d04 b7bd 62fc f4bc 6bd5 023d 3728 2abd
000001d0: 49ce 193b 7b1b c8bd 4f44 cabd 9b72 bf3b
000001e0: 835d 803d 67dc dbbd da8b f1bc f3cb 863d
000001f0: fc7b b43c c25a 91bc 108d 8a3d 38bb 973c
00000200: 4714 5e3d 3cbd a0bd 7c56 d83b 2fb8 40bd
00000210: 052c e4bd eac4 053e 512b 42bd fd2e 6cbd
00000220: 7376 9bbd cac8 0e3c 4afc a8bd b47a 5a3d
00000230: c11f e5bd 2552 83bd cff1 c23d 05d8 e5bd
00000240: f0aa 6d3d ebf7 d2bd 91ea 01be 4511 dd3d
00000250: a321 b73d febd 8fbc a2f9 7fbd cb2b 163e
00000260: 9455 843d b554 a1bd 7d33 fdbc 07ea 0fbd
00000270: 20f9 f4bd 0c28 87bd 81f4 90bd 3108 d8bd
00000280: f210 d53d 6e55 3f3b 3e82 efbd 84e3 313c
00000290: 020e 97bb b811 7b3d 830c c9bd e5b3 47bd
000002a0: ab81 37bc b60f 743d c4c0 a03d f01c cabd
000002b0: 6fe9 bcbd 3ef5 9dbd 468f d93c a886 983c
000002c0: 2b1a f63d 9d94 4dbb a2af ffbd 0a7b f3bd
000002d0: f07b a43d 81ef c93d 7f32 1cbd a39e c4bd
000002e0: 2e77 40bb 162a a639 84a8 6dbc 0949 8e3d
000002f0: 7435 d23d 3e99 d0bc 6800 30bd 46ee e83c
00000300: e4ad 7f3c 97e1 54bd 983a bdbd ec6e 9b3d
00000310: 07cb cb3d 05fd d43d 1303 c23d f16a c8bc
00000320: 1894 5d3d 6f78 4c3d 2195 ad3d 642d 90bd
00000330: 4abb 423d 30a3 a93d ef4c f83b 0384 b93c
00000340: c4db d43d f630 e1bd c1a0 173d fc67 303d
00000350: 99d3 d3bc a2bd e4bd 5abb 15bc 8549 b7bd
00000360: a934 babd de51 f53c f883 c4bd f0a2 d83d
00000370: ad92 ccbc 1bc3 ec3d cf20 533d b5f7 a23d
00000380: db09 1ebd 056f 293a dba5 b5bc 8c5d de3d
00000390: 2bec 83bd 25f0 f1bd 952c 5f3d bf27 f23c
000003a0: 096f a7bd 67ad db3d 160d 913d 0d95 19bc
000003b0: 9e5b 1dbd ae92 44bc 46d0 983d ffbb 86bd
000003c0: 3896 69bd d346 8b3d 518a abbd 2b8b 603d
000003d0: 0459 5dbd 28b9 993b 5d58 383d 1f6e cb3c
000003e0: c442 bc3b d0a2 c6bd caf9 8abd 691e 773b
000003f0: d117 7fbd c0bd eabc 5eec 8e3d b5e9 033d
-0.039288852 -0.08968764 -0.020866144 -0.0031083687 0.09061784 0.049906988 0.046059985 -0.040734578
0.019428192 0.07946373 -0.0023697864 0.08256137 -0.06181522 -0.066835135 0.10775364 0.005842233
0.08866636 -0.04659086 -0.06014996 0.06683791 -0.12159958 -0.09901902 -0.060439643 -0.12662627
-0.07740952 0.104283094 -0.07201873 -0.04386406 -0.119277604 0.09811019 -0.046988666 -0.11881283
0.009118797 0.1260973 0.06759405 0.109617956 -0.09046533 -0.11558607 0.10311968 -0.07634673
0.013052786 -0.031531364 -0.052269727 -0.041477174 -0.031009654 -0.09844725 0.120161764 0.120427005
0.067312054 -0.05353763 0.026595924 -0.03812178 0.096624434 0.123102486 -0.09416413 -0.020315077
0.03092978 0.06654191 0.01688381 0.1127613 -0.083888866 0.120124996 -0.11382 0.036210857
0.077591635 -0.08749085 0.088346645 -0.060292684 0.07629914 0.0743547 -0.03500277 0.12120264
0.030507525 -0.0026490374 -0.104729764 0.07619191 -0.08362666 0.1097992 0.04258974 -0.07842526
-0.008709363 -0.10467919 0.036407605 -0.10517333 -0.026683902 0.041693196 0.061870128 0.058028076
-0.052620105 0.034653425 0.024835961 -0.09605357 -0.05347763 0.047725122 0.09125891 -0.040050324
0.076753855 -0.09728497 -0.025874272 0.03355215 -0.023791177 0.0678592 0.052172877 -0.10359096
-0.09664963 -0.034858767 -0.09719919 0.10182311 -0.0040717586 -0.075682364 0.11021463 -0.09844768
-0.08936415 -0.029905502 0.031941812 -0.041542258 0.0023468903 -0.097708665 -0.0987631 0.0058425195
0.06267836 -0.10735398 -0.029485632 0.06581869 0.022031777 -0.017743472 0.06765187 0.01852189
0.054218557 -0.078485936 0.0066021066 -0.04705065 -0.111412086 0.13063398 -0.04740459 -0.057662
-0.07590952 0.008714864 -0.08251245 0.053339675 -0.11187697 -0.06412152 0.095187776 -0.11222843
0.058024347 -0.10301193 -0.12687136 0.107943095 0.089419626 -0.01754665 -0.062493928 0.14665143
0.06461635 -0.07877485 -0.03090834 -0.035135295 -0.11961579 -0.06599435 -0.070778854 -0.105484374
0.10403623 0.0029195207 -0.116947636 0.010857467 -0.004609824 0.061296195 -0.098168395 -0.048755545
-0.011200349 0.059585296 0.07849267 -0.09868801 -0.092242114 -0.07712792 0.026557576 0.018618897
0.1201671 -0.0031369098 -0.12484671 -0.11888702 0.08031452 0.09860135 -0.038134094 -0.0960057
-0.0029367912 0.00031693344 -0.014505509 0.06947524 0.102641016 -0.025463697 -0.042969137 0.02843393
0.015605424 -0.05197295 -0.092396915 0.07589516 0.09950834 0.10399822 0.094732426 -0.024465056
0.05409631 0.049919542 0.0847571 -0.070399076 0.047541894 0.08283079 0.0075775306 0.022645956
0.103934795 -0.10995667 0.03701854 0.043067917 -0.025857734 -0.11168982 -0.009138906 -0.089495696
-0.090920754 0.029946264 -0.095954835 0.10577953 -0.024972284 0.11560651 0.05154496 0.079574026
-0.038583618 0.00064633816 -0.022173813 0.108576864 -0.0644153 -0.11813382 0.054485876 0.029559968
-0.08175475 0.10726433 0.07082574 -0.009373915 -0.03841745 -0.011997862 0.074616 -0.06578826
-0.057028025 0.06800618 -0.08375991 0.05482022 -0.05403997 0.004691262 0.045006145 0.024832783
0.005745264 -0.09699023 -0.06785925 0.0037707335 -0.062278572 -0.028654933 0.06978677 0.032205302

encoder.message_layers.2.message_net.0.bias f4 [64]
00000000: 783b f33c 45a7 9f3d 24a5 e93d 25c8 713d
00000010: ec9b 4f3c 14bf 01bd 0d4f c13d fa58 63bd
00000020: e0ba c5bd 387e e43c 7941 023e 24f6 503d
00000030: dad8 91bd 4030 d73d 12c0 653d 7a72 fb3d
00000040: aa1c 8c3d b343 c9bd 14d0 9f3d 9660 a63d
00000050: aebe db3d 7d5e d1bd 0c2e 243d 4758 603d
00000060: 983f f83d f4a2 6fbd 2574 52bc d009 e1bd
00000070: 6b58 7f3d 9814 d0bd 01cb 3f3d f160 afbd
00000080: b675 f3bd b7d2 d3bc 9889 ec3d b340 a13d
00000090: 0e08 e93d d6e0 403d 5595 c3bd 8f7d 6a3d
000000a0: 28fe e03d ab51 0f3d e73a 99bd 3adb a53d
000000b0: e7ba 15bd a8cd 053d 5580 983d f091 ef3c
000000c0: c2cc 99bd 2b5d d33d a6f5 31bd a76c 46bc
000000d0: dece e93d 3e3a 983d 7c57 74bd 5f9c c2bd
000000e0: 751f c53c acb6 18bd 57a9 953c fdf0 f8bc
000000f0: 760f 1e3d f565 f23d c6ed 203e 6e67 213d
0.029691443 0.07795576 0.11408451 0.059028763 0.012671452 -0.031676367 0.09438906 -0.055504777
-0.09654784 0.027892217 0.12720288 0.051015988 -0.07121439 0.1050725 0.056091376 0.12277694
0.06841405 -0.09827366 0.0780336 0.08123891 0.10729729 -0.102231 0.040082976 0.054771688
0.121215045 -0.058505014 -0.012845074 -0.109882 0.06234018 -0.10160178 0.04682446 -0.08563412
-0.11887686 -0.025857313 0.115496814 0.078736685 0.113784894 0.04708942 -0.09549967 0.05724865
0.109859765 0.034989994 -0.07481938 0.08098455 -0.036555197 0.032666832 0.074463524 0.029244393
-0.075097576 0.10320505 -0.04344716 -0.012110866 0.1141641 0.07432984 -0.059653744 -0.09502482
0.024062851 -0.037283584 0.018269224 -0.03038835 0.038588963 0.11835853 0.15715703 0.03940528
