graph_vae_model.pt (torch, 381047 bytes, 20 tensors)

encoder.input_net.0.weight f4 [64, 7]
0	0x3e89310e	0.26795238
1	0x3e92b2db	0.2865208
2	0xbde8e73e	-0.11372231
3	0x3ea6e8e2	0.3259955
4	0xbdafe7eb	-0.08589157
5	0x3da43b59	0.08019132
6	0xbe3fb675	-0.18721946
7	0x3e634c9f	0.22197197
8	0x3ea85fd4	0.3288561
9	0xbe8df859	-0.27728537
10	0x3eb644cd	0.35599366
11	0x3d90dfe8	0.07073957
12	0x3e8ef901	0.2792435
13	0x3d51aa73	0.051187944
14	0x3e3f3a06	0.18674478
15	0xbd5a9573	-0.053365182
16	0x3e95e65b	0.2927731
17	0x3d13419e	0.03595125
18	0xbe34af05	-0.1764489
19	0x3d1bda92	0.03805024
20	0xbe32524d	-0.17414208
21	0xbd358e1a	-0.04432497
22	0xbe1d329f	-0.15351342
23	0x3e805fc5	0.25073066
24	0xbe98c1d7	-0.29835388
25	0xbe326d6b	-0.17424552
26	0xbdda9402	-0.106727615
27	0xbe68b6bf	-0.22725962
28	0x3d121e57	0.035673466
29	0xbebf222d	-0.37330762
30	0x3eb5ca4a	0.35505897
31	0xbea46321	-0.3210688
32	0x3e9566ab	0.29179892
33	0x3d80d1fe	0.06290053
34	0xbdfb582d	-0.122726776
35	0x3e682d7a	0.22673598
36	0x3d974b30	0.07387388
37	0x3ea1ea7a	0.31624204
38	0x3d7ddac4	0.06197621
39	0xbdf41f0e	-0.11919986
40	0x3db35e60	0.08758235
41	0xbdd1e986	-0.10249619
42	0x3e14b136	0.14520726
43	0x3ea52dad	0.3226141
44	0x3e5089eb	0.20365112
45	0xbe29338b	-0.16523568
46	0x3e3d7388	0.18501103
47	0x3d874ac3	0.066060565
48	0x3e1db965	0.15402754
49	0xbe6be671	-0.23037125
50	0xbebf909e	-0.37415022
51	0xbe158908	-0.14603055
52	0xbe946ebe	-0.2899074
53	0x3e9e1fc0	0.30883598
54	0x3e089835	0.13339312
55	0x3e1b5e11	0.15172602
56	0x3dfde307	0.12396818
57	0xbbd77399	-0.0065750596
58	0x3e957986	0.29194278
59	0xbe897f3d	-0.26854888
60	0x3cc2f421	0.02379805
61	0xbe84156c	-0.25797594
62	0x3dc60d66	0.09670524
63	0xbe0fcc5f	-0.14042805
64	0x3dc1c95f	0.094622366
65	0xbda8a5d3	-0.082347535
66	0x3ea21d1d	0.31662837
67	0xbe4e8684	-0.20168501
68	0xbe707cc8	-0.234851
69	0xbe38a8f9	-0.18033208
70	0x3ead2bc6	0.3382246
71	0x3e08bc45	0.13353069
72	0x3ebde7e0	0.3709097
73	0xbe9fb4a6	-0.3119251
74	0xbebff219	-0.37489393
75	0xbe9766bd	-0.2957057
76	0xbe822d65	-0.25425258
77	0x3e1cc3d4	0.15309078
78	0x3e0a968e	0.13533995
79	0x3e9dc634	0.3081528
80	0xbe47e001	-0.19519044
81	0xbe83ec62	-0.25766283
82	0x3e4d5a46	0.20053968
83	0xbe1c7108	-0.15277493
84	0x3e6b19d5	0.22959073
85	0xbdb7b006	-0.08969121
86	0x3e464821	0.19363452
87	0xbe965b6e	-0.2936663
88	0xbe435143	-0.19073968
89	0x3e07f9ed	0.13278933
90	0x3dab694b	0.083696924
91	0xbdc55b32	-0.09636535
92	0x3e5c9c78	0.21544063
93	0x3e7d0cb5	0.24711879
94	0xbe8c557e	-0.27408975
95	0xbe4ea042	-0.20178321
96	0x3ea80282	0.32814413
97	0xbe029930	-0.12753749
98	0xbde8b0df	-0.113618605
99	0xbebb3f2e	-0.3657164
100	0xbe5da4ce	-0.21644899
101	0x3de6218f	0.112368695
102	0xbd362a11	-0.04447371
103	0xbe8c78cc	-0.2743591
104	0x3c7e0b9c	0.015505698
105	0xbe84303d	-0.25818053
106	0xbea42e0b	-0.32066378
107	0xbe552045	-0.20813091
108	0xbea95e7f	-0.33079907
109	0xbe7670b8	-0.24066436
110	0x3ebefc9d	0.37302104
111	0x3d9233e2	0.07138802
112	0x3de04766	0.10951118
113	0xbeb47db4	-0.35252154
114	0xbe7e31e2	-0.24823716
115	0xbe0c40ba	-0.13696566
116	0x3d5e4dea	0.054273523
117	0xbeaa47cb	-0.332579
118	0xbe26c362	-0.1628547
119	0xbe67b4c0	-0.22627544
120	0x3a894a29	0.0010474372
121	0xbe100467	-0.1406418
122	0xbcd68f37	-0.026191337
123	0xbe832228	-0.25611997
124	0xbe84d466	-0.25943297
125	0xbe61cc1a	-0.22050515
126	0xbe047b36	-0.12937626
127	0xbe98bd6b	-0.29832014
128	0x3ea4dbb5	0.32198873
129	0xbd99a014	-0.075012356
130	0x3ea275fb	0.31730637
131	0x3df12fce	0.11776696
132	0xbea3decc	-0.32005918
133	0x3e8754ad	0.2643179
134	0xbdd4fb50	-0.103994966
135	0xbe145c60	-0.14488363
136	0xbea0a228	-0.31373715
137	0xbec06346	-0.3757574
138	0x3ddd7853	0.10813966
139	0xbda91753	-0.08256402
140	0x3e16ce69	0.14727177
141	0xbea0758e	-0.31339687
142	0x3e8bce16	0.2730567
143	0xbe95af8f	-0.29235503
144	0xbda2bf93	-0.07946696
145	0x3da0821a	0.07837315
146	0x3e28552b	0.16438739
147	0x3e983287	0.2972605
148	0x3eac107c	0.33606327
149	0xbe9c4d41	-0.3052769
150	0x3df35cfd	0.118829705
151	0xbe149006	-0.14508066
152	0xbcdcd535	-0.026957134
153	0xbe84f0d6	-0.25964993
154	0x3eb0a621	0.34501746
155	0xbe931afe	-0.2873153
156	0x3e43d2ea	0.19123426
157	0x3debdfa1	0.11517263
158	0x3e04efd1	0.12982108
159	0xbe38575c	-0.18002075
160	0x3e96a4bc	0.29422557
161	0x3daae6d4	0.08344808
162	0x3d29a78b	0.041419547
163	0xbeaa89db	-0.333083
164	0x3e241f67	0.16027604
165	0xbd23622a	-0.03988854
166	0xbe3d8841	-0.18509008
167	0x3ea1694e	0.31525654
168	0x3dbc5ea9	0.091977425
169	0xbe3bb6fb	-0.1833152
170	0xbe349397	-0.17634426
171	0x3c61f874	0.013792146
172	0x3e58e3a0	0.21180582
173	0xbdc2b057	-0.095062904
174	0xbe61d011	-0.22052027
175	0xbe04899f	-0.12943123
176	0xbe909281	-0.28236774
177	0x3df16dba	0.11788507
178	0x3e86f05d	0.26355258
179	0xbeb62f7b	-0.355831
180	0x3da81d1b	0.082086764
181	0x3e19a3a0	0.15003824
182	0x3d8c5ca2	0.06853606
183	0xbe09d53a	-0.13460246
184	0x3e4a029c	0.19727558
185	0x3e4b646f	0.19862531
186	0x3e10b921	0.14133121
187	0xbd880559	-0.06641645
188	0xbdccf99c	-0.10008547
189	0x3d16ecc0	0.036846876
190	0xbda0f6ca	-0.07859571
191	0xbdf6f538	-0.120584905
192	0x3e5508cb	0.20804136
193	0x3e9edb8b	0.31026873
194	0xbd3bc1fc	-0.045839295
195	0xbdd3f8e0	-0.103502035
196	0x3bb4ba41	0.0055153673
197	0xbcb8dfac	-0.022567593
198	0x3dba1870	0.09086692
199	0x3dd8ebb8	0.10591835
200	0xbeafc38c	-0.34328878
201	0xbe0ed4ac	-0.13948315
202	0x3eabf312	0.33583885
203	0x3e16c58b	0.14723794
204	0xbc9a006f	-0.018799035
205	0xbe695893	-0.22787695
206	0xbe6cca55	-0.23124059
207	0xbead58ca	-0.33856803
208	0xbdfc5171	-0.12320221
209	0x3e02b41c	0.12764019
210	0x3e6b879b	0.23000948
211	0x3e1b5a3c	0.1517114
212	0xbeab0f15	-0.33409944
213	0xbe68bfaa	-0.22729364
214	0xbd745299	-0.059649084
215	0x3ea39c6d	0.3195528
216	0x3d5ff34e	0.054675393
217	0xbdc87638	-0.097881734
218	0x3e14740a	0.1449739
219	0xbe136a2b	-0.14395969
220	0xbe7a82d0	-0.24463964
221	0x3e62a1be	0.22132012
222	0xbe2ffc5c	-0.17186111
223	0xbda24836	-0.079239294
224	0xbec08329	-0.37600067
225	0x3e702d10	0.2345469
226	0x3e8bfff9	0.2734373
227	0x3dd6371d	0.10459731
228	0xbe86ef5b	-0.2635449
229	0xbebefd8e	-0.37302822
230	0xbe9d2bcd	-0.3069748
231	0x3e8459af	0.25849673
232	0x3e2683c1	0.16261198
233	0x3e988a24	0.29792893
234	0x3e2cfc82	0.16893199
235	0x3dc3e94f	0.095659845
236	0xbb72914b	-0.003701287
237	0xbe932be5	-0.28744426
238	0xbea5ccf9	-0.32382944
239	0xbeb501b2	-0.35352856
240	0x3e1e700a	0.15472427
241	0xbe3e05a8	-0.18556845
242	0xbd9bc8a9	-0.07606632
243	0xbe5ebdb4	-0.21752053
244	0xbd8d0dd4	-0.06887403
245	0xbe883460	-0.2660246
246	0xbe7ce528	-0.24696791
247	0x3dedc3e0	0.11609626
248	0xbde60d1a	-0.11232968
249	0x3e8a5ef9	0.27025583
250	0xbdf8542f	-0.12125432
251	0xbe8df555	-0.27726236
252	0xbd889388	-0.06668764
253	0xbe3b9d51	-0.1832173
254	0xbdecd211	-0.115635045
255	0xbeb83a65	-0.35982051

encoder.input_net.0.bias f4 [64]
0	0x3e8bf9f1	0.27339128
1	0xbe94ac91	-0.29037908
2	0xbcd3f259	-0.025872396
3	0xbebed53f	-0.3727207
4	0xbe976418	-0.29568553
5	0x3d8c3246	0.068455264
6	0x3db0f67a	0.08640762
7	0x3dd5915c	0.10428116
8	0xbdca8e4d	-0.09890423
9	0x3ead431b	0.3384026
10	0x3d5df8c9	0.05419234
11	0xbe6a6ed8	-0.22893846
12	0xbcb666f9	-0.022265898
13	0x3da41539	0.080118604
14	0x3e1e8add	0.1548266
15	0xbe8b49c0	-0.27204704
16	0x3e09e138	0.1346482
17	0xbe45baba	-0.19309512
18	0xbe9e4038	-0.3090837
19	0xbe50951e	-0.20369384
20	0x3eba2783	0.3635827
21	0x3ea1aab6	0.31575555
22	0x3eacc4d3	0.33743915
23	0x3e611b36	0.21983036
24	0x3e9b41d8	0.30323672
25	0xbd8e2141	-0.069399364
26	0xbe54f531	-0.20796658
27	0x3e3b8c06	0.18315133
28	0xbe36972b	-0.17831104
29	0xbe82993b	-0.2550753
30	0xbe0939f4	-0.13401014
31	0x3d881ecd	0.066465
32	0x3e3730e9	0.17889751
33	0xbe2dccca	-0.16972652
34	0xbe63cbcf	-0.22245716
35	0x3d30b2cf	0.043139275
36	0xbe6421b3	-0.2227848
37	0xbe76b4af	-0.24092363
38	0x3e3caf49	0.18426241
39	0xbd6fbadf	-0.058527824
40	0x3eac1930	0.33612967
41	0x3eb87c95	0.3603255
42	0x3dd654bd	0.10465381
43	0x3e11e8d7	0.14248978
44	0x3db2511f	0.08706879
45	0x3c578224	0.013153587
46	0xbd31e56b	-0.04343168
47	0x3c371973	0.011175501
48	0x3e1a4667	0.15065919
49	0x3eaf3bcb	0.34225306
50	0xbdd87786	-0.10569672
51	0xbe2ad54a	-0.16682926
52	0xbda783ad	-0.08179412
53	0xbe490422	-0.19630483
54	0x3d73c72a	0.05951611
55	0x3e881a28	0.26582456
56	0x3e913bab	0.28365836
57	0x3e170003	0.14746098
58	0xbe7b70f2	-0.24554804
59	0xbe4aef55	-0.1981786
60	0xbd88459b	-0.06653901
61	0xbd2fe87d	-0.042946327
62	0x3d4b2f0f	0.049605425
63	0xbe9aca55	-0.30232492

encoder.conv_layers.0.weight f4 [64, 64]
0	0x3d8a01e9	0.067386456
1	0xbe292172	-0.16516665
2	0xbe166205	-0.14685829
3	0xbe40a1d9	-0.1881174
4	0x3e37ec2e	0.17961189
5	0xbe4bf492	-0.19917515
6	0x3e13bd04	0.14427572
7	0xbc617a6c	-0.013762098
8	0xbd0c1771	-0.034202043
9	0x3e03b532	0.1286209
10	0xbca3ee74	-0.020011164
11	0x3e0b0aa9	0.13578285
12	0x3e278364	0.16358715
13	0xbe4a7f56	-0.19775137
14	0x3da56d5d	0.080775
15	0x3cfaa3c7	0.030595673
16	0x3d268778	0.040656537
17	0x3ccd447e	0.025057074
18	0x3d531574	0.05153413
19	0xbdd0bd8c	-0.10192403
20	0xbce2eb40	-0.027700067
21	0x3e4be9c6	0.19913396
22	0x3e0f81fb	0.14014427
23	0xba8af8de	-0.0010602733
24	0xbe56a429	-0.2096106
25	0x3c88b0a1	0.016685786
26	0xbe16f939	-0.14743508
27	0x3e2f5778	0.1712321
28	0xbe0f23ca	-0.13978496
29	0xbcb150ac	-0.021644913
30	0xbd44d22b	-0.048051994
31	0x3d1a396d	0.03765242
32	0x3e46427c	0.193613
33	0x3ca8872a	0.020572264
34	0x3df2e41b	0.11859914
35	0x3e27c4d9	0.16383685
36	0x3e36326d	0.17792673
37	0xbda4b08b	-0.080414854
38	0xbcff50e0	-0.031166494
39	0x3dc7b210	0.097507596
40	0xbd3e3813	-0.046440195
41	0x3dcfa16e	0.10138212
42	0xbd4e760f	-0.05040556
43	0xbe165ec8	-0.14684594
44	0x3db47c2c	0.088127464
45	0x3d07f6c7	0.03319433
46	0x3dd2cce4	0.10292986
47	0x3e59694a	0.21231571
48	0x3e1127c3	0.14175324
49	0x3e6133c3	0.21992402
50	0x3b3396ec	0.002740319
51	0xbe3eb616	-0.18624148
52	0xbe1b87c4	-0.15188509
53	0xbde4e394	-0.111762196
54	0xbe435ffe	-0.19079587
55	0xbdd60db3	-0.10451832
56	0xbe4d5723	-0.20052771
57	0xbe4c8bce	-0.19975206
58	0xbe00b8c5	-0.12570484
59	0xbe5a8fd4	-0.21343929
60	0xbe0c10cc	-0.13678282
61	0x3da912fd	0.08255575
62	0x3e2c450c	0.16823214
63	0xbda37740	-0.079817295
64	0xbd80fa23	-0.0629771
65	0x3decc1f0	0.11560428
66	0xbdef5233	-0.116856
67	0xbdd1981b	-0.1023409
68	0x3e04e3c2	0.12977508
69	0xbe442dff	-0.19158171
70	0x3babb724	0.005240338
71	0x3e3e6f97	0.18597256
72	0x3ceb4dcf	0.028723625
73	0x3dcb62a1	0.09930921
74	0xbe011e19	-0.12609138
75	0xbb43c24b	-0.0029870446
76	0x3ccf9d52	0.02534357
77	0x3d31a31f	0.043368455
78	0x3dbdd797	0.09269636
79	0x3e31277d	0.1730022
80	0xbe2939b4	-0.16525918
81	0x391a62aa	0.0001472334
82	0xbdfc7b4f	-0.12328207
83	0xbe30179e	-0.17196509
84	0xbc8e06fe	-0.017337319
85	0xbe4b307d	-0.19842716
86	0x3e1794b5	0.14802821
87	0x3d4ebd75	0.05047365
88	0xbdfb1ff7	-0.12261956
89	0x3de6dd78	0.112727106
90	0xbe51d350	-0.20490766
91	0xbdb7dc3b	-0.089775525
92	0xbd7138e0	-0.05889213
93	0xbe52983a	-0.20565882
94	0xbe0cfa60	-0.13767385
95	0xbd1d9c45	-0.03847911
96	0x3e14dceb	0.14537399
97	0x3e561685	0.20907028
98	0x3e06785d	0.13131852
99	0xbe1d8b9e	-0.15385291
100	0xbe098daa	-0.13432947
101	0x3e417a6f	0.18894361
102	0x3da7c46f	0.081917636
103	0xb9eede41	-0.0004556049
104	0x3d69bd76	0.05706545
105	0xbe322e7c	-0.17400545
106	0xbd95727c	-0.07297227
107	0x3e556a33	0.20841293
108	0xbd5ab746	-0.05339744
109	0xbc31f1b1	-0.010860846
110	0xbe23b570	-0.15987182
111	0xbdf8a0c2	-0.12140037
112	0xbac691f4	-0.0015149699
113	0xbe0f6605	-0.14003761
114	0xbd309596	-0.043111406
115	0x3db4729f	0.08810925
116	0xbe58dd46	-0.21178159
117	0x3dd6570c	0.104658216
118	0xbe12976d	-0.14315577
119	0xbdbdcff2	-0.09268178
120	0x3da7f9fe	0.08201979
121	0x3e3047b8	0.17214859
122	0xbd5ffde9	-0.054685507
123	0xbdb60c63	-0.08889081
124	0xbe58a814	-0.21157867
125	0xbde4a52b	-0.11164316
126	0xbe3cf03a	-0.18451014
127	0xbd82cf84	-0.06387237
128	0x3d34f559	0.044179294
129	0xbe4fb52b	-0.20283954
130	0x3e378927	0.17923413
131	0x3e0360b2	0.12829855
132	0xbe62734c	-0.22114295
133	0xbdc8dc0d	-0.09807596
134	0x3d4a24f1	0.049351636
135	0xbd504ff3	-0.050857496
136	0xbd08613c	-0.033295855
137	0xbddb6fd9	-0.107146926
138	0x3e321367	0.17390214
139	0xbdf7dcd4	-0.121026665
140	0x3e3e8f0c	0.18609256
141	0x3be6e0a7	0.0070458236
142	0x3d206cb4	0.039166167
143	0x3e234e5d	0.15947862
144	0xbd2a5f22	-0.041594632
145	0xbe04d92f	-0.12973474
146	0xbd338c42	-0.043834932
147	0x3e355285	0.1770726
148	0xbe24801d	-0.16064496
149	0x3d352551	0.04422504
150	0xbe62c8f4	-0.2214697
151	0x3df4d93a	0.11955495
152	0x3d976e3a	0.07394071
153	0x3c89c1c2	0.016816024
154	0x3dbe4e6f	0.09292304
155	0xbb86376e	-0.004095963
156	0x3de4e7fd	0.11177061
157	0xbe34821f	-0.17627762
158	0xbd023af2	-0.031794496
159	0x3dc4e0b3	0.096131705
160	0x3e5258eb	0.20541732
161	0x3de1dde0	0.110286474
162	0xbe2976a8	-0.1654917
163	0x3e28a1f0	0.16468024
164	0xbd57b640	-0.05266404
165	0xbd56189b	-0.05226956
166	0xbe376991	-0.17911364
167	0xbd25e263	-0.040499102
168	0x3e27a622	0.16371968
169	0x3cf75277	0.03019069
170	0xbe0121aa	-0.12610498
171	0x3d887c45	0.066643275
172	0xbd8e2ce2	-0.069421545
173	0x3e4a69be	0.197669
174	0xbe3b2f3e	-0.1827974
175	0xbd9583e7	-0.07300549
176	0xbe5c965f	-0.21541737
177	0xbd8c396c	-0.0684689
178	0x3d746bf5	0.05967327
179	0x3e556a01	0.20841219
180	0x3d14efbe	0.03636145
181	0x3e6e334d	0.23261757
182	0x3d2d819a	0.042359926
183	0x3e0514d4	0.12996227
184	0x3e308d53	0.17241411
185	0x3e395388	0.18098271
186	0xbdf0c508	-0.11756331
187	0x3e4bd4c0	0.19905376
188	0x3e02cab4	0.12772638
189	0xbdcf53ae	-0.101233825
190	0xbdf1b001	-0.11801148
191	0xbe48696d	-0.19571467
192	0x3d5eb606	0.05437281
193	0xbe33b367	-0.17548905
194	0x3dbb4e22	0.09145762
195	0x3d8c06ba	0.068372205
196	0xbe409d99	-0.18810119
197	0x3d71a810	0.058998168
198	0xbc903fdd	-0.017608577
199	0x3dca8e26	0.09890394
200	0x3dfe6bd2	0.12422909
201	0xbe5c6789	-0.2152387
202	0x3e4b52b8	0.19855773
203	0x3e39edd5	0.18157132
204	0x3db06c71	0.086144336
205	0xbe4aa0a1	-0.19787838
206	0xbd9e64bb	-0.077340566
207	0xbd8080b1	-0.06274546
208	0xbd63e889	-0.055641685
209	0x3dfa0bdc	0.12209293
210	0x3da13582	0.07871534
211	0x3e2fa0ca	0.1715118
212	0xbda610c1	-0.08108664
213	0x3d953931	0.07286299
214	0x3d9dc2e8	0.07703191
215	0xbe389664	-0.1802612
216	0xbe570e4a	-0.21001545
217	0xbde613f8	-0.112342775
218	0x3e17c414	0.14820892
219	0xbe50b955	-0.20383199
220	0xbe40fa34	-0.18845445
221	0x3df8654f	0.12128698
222	0x3def3ad7	0.11681145
223	0x3e365397	0.17805324
224	0xbe275f2e	-0.16344902
225	0xbe224396	-0.15846094
226	0x3de375fa	0.111064866
227	0x3e40cc98	0.18828046
228	0x3e04a739	0.12954415
229	0x3d0aebaf	0.03391617
230	0x3d922294	0.071355015
231	0x3e526c7c	0.20549196
232	0xbe0f0b1d	-0.13969083
233	0xbdc94fa4	-0.09829643
234	0x3e1b12d5	0.15143903
235	0xbe17b298	-0.14814222
236	0xbdf47fc5	-0.119384326
237	0x3e21d742	0.1580477
238	0x3d8be771	0.06831253
239	0x3d8f4039	0.069946714
240	0xbdbbeed6	-0.09176414
241	0xbb43d095	-0.0029878963
242	0x3e4ae8ce	0.1981537
243	0xbe0511ff	-0.12995146
244	0x3adf1cf9	0.0017022184
245	0x3dd2e21a	0.10297032
246	0xbe190dc0	-0.14946651
247	0x3e574ff5	0.21026595
248	0xbddd87a2	-0.108168855
249	0xbd54f47d	-0.051990975
250	0xbd6ff1c6	-0.058580182
251	0xbe107973	-0.14108829
252	0xbe598c7f	-0.21245001
253	0x3dfa03be	0.12207745
254	0x3d6b9a3b	0.057520133
255	0xbe4fa591	-0.20278002

encoder.conv_layers.0.bias f4 [64]
0	0x00000000	0.0
1	0x00000000	0.0
2	0xbc29480a	-0.010332117
3	0xbc003b26	-0.007826602
4	0xbc175ded	-0.009238702
5	0x3bcd031a	0.0062564733
6	0xbca898b3	-0.020580625
7	0xbbd2b873	-0.0064306795
8	0xbc19fe81	-0.009399057
9	0xbbcaa0d4	-0.006183723
10	0x00000000	0.0
11	0x00000000	0.0
12	0x3be314fe	0.0069299927
13	0xbc09e25a	-0.008415783
14	0xbb3cfd33	-0.0028837442
15	0xbc274143	-0.010208431
16	0xbbc152a4	-0.005899744
17	0xbbd70d66	-0.0065628765
18	0xbc0d6e28	-0.00863222
19	0x3acc753f	0.0015598907
20	0x00000000	0.0
21	0xbbcc8730	-0.0062417015
22	0xbbd68bae	-0.006547413
23	0x3bea0da1	0.007142738
24	0xbbc689a3	-0.006058888
25	0x3bdce04d	0.006740606
26	0x00000000	0.0
27	0xbba00559	-0.00488345
28	0xbc0ef47e	-0.008725284
29	0xbbc866c3	-0.006115766
30	0x00000000	0.0
31	0x39a3f24c	0.00031270308
32	0xbc341541	-0.010991395
33	0x00000000	0.0
34	0xbbf26ecd	-0.0073984624
35	0xbb833880	-0.004004538
36	0x3b1a8599	0.0023578166
37	0xbb269a2f	-0.002542149
38	0x3c897aa9	0.016782122
39	0xbbe04445	-0.006844076
40	0x3c58ea3e	0.013239441
41	0x00000000	0.0
42	0xbb63b934	-0.003474784
43	0x00000000	0.0
44	0x00000000	0.0
45	0x00000000	0.0
46	0x3bddeeb9	0.0067728427
47	0xbb646f77	-0.0034856477
48	0xbbc26ba2	-0.005933241
49	0x3c76bde0	0.015059918
50	0xbc18840a	-0.009308824
51	0x00000000	0.0
52	0x00000000	0.0
53	0x3cbd5358	0.02311103
54	0x00000000	0.0
55	0x3b9d1d8b	0.0047947816
56	0xbaad6ce1	-0.0013231301
57	0x00000000	0.0
58	0x3b6dfc02	0.0036313538
59	0x00000000	0.0
60	0xbb762acd	-0.0037562132
61	0x00000000	0.0
62	0xbc4cee55	-0.012507995
63	0xbc74e493	-0.014947074

encoder.conv_layers.1.weight f4 [64, 64]
0	0x3c4d68bd	0.012537179
1	0xbe27684b	-0.16348378
2	0x3d70f202	0.058824547
3	0xbe3e6197	-0.18591915
4	0xbdb521fa	-0.08844371
5	0x3e1a4847	0.15066634
6	0x3e4ff80c	0.20309466
7	0xbc8aab3f	-0.01692736
8	0xbe1e75c6	-0.15474615
9	0xbe3608b1	-0.17776753
10	0xbd59ef77	-0.053206887
11	0xbde245ec	-0.11048493
12	0x3e303bda	0.17210332
13	0xbe1e0b7a	-0.15434065
14	0x3e05733d	0.13032241
15	0x3d289bbc	0.041164145
16	0xbd86dcce	-0.06585084
17	0x3e34b85e	0.17648456
18	0x3df6c007	0.12048345
19	0xbbf821e1	-0.007572398
20	0xbe1643dc	-0.14674324
21	0xbd828164	-0.063723356
22	0x3d8ef743	0.06980755
23	0x3e40193d	0.18759628
24	0xbd95a16d	-0.0730618
25	0xbdb8458a	-0.089976385
26	0xbe589d56	-0.21153769
27	0x3e0844a2	0.13307431
28	0x3e58632c	0.21131581
29	0x3e18a330	0.14906001
30	0xbdf71204	-0.12063983
31	0x3e1ed2a4	0.1551004
32	0xbd866d28	-0.06563789
33	0x3de7d211	0.11319364
34	0x3e01a203	0.12659459
35	0xbe34c0bd	-0.17651649
36	0x3d5b7519	0.05357847
37	0x3db10475	0.08643428
38	0xbe0547c9	-0.13015665
39	0x3e4cf990	0.20017076
40	0x3e2d13e3	0.16902117
41	0x3e394a8b	0.18094842
42	0xbaffff9b	-0.0019531132
43	0xbded3d21	-0.11583925
44	0xbdf24fc3	-0.118316196
45	0x3d9cb86a	0.07652362
46	0xbd302e6a	-0.043013014
47	0x3e30368f	0.17208312
48	0x3e39ad47	0.18132506
49	0x3c88de5c	0.016707592
50	0xbe358125	-0.17725046
51	0x3db0003b	0.08593794
52	0x3e466686	0.19375047
53	0xbd5ebd55	-0.05437978
54	0xbde80e72	-0.1133088
55	0xbd4f72d8	-0.050646633
56	0x3cfe1b64	0.03101892
57	0xbe247eca	-0.16063991
58	0x3deccb69	0.11562235
59	0x3dbd882b	0.092544876
60	0xbda9871e	-0.08277725
61	0xbda441d2	-0.08020367
62	0xbdd26453	-0.102730416
63	0x3e2d4dd5	0.16924222
64	0x3e037d87	0.12840854
65	0x3d7c0ec4	0.06153752
66	0xbc1f1911	-0.009710566
67	0x3d5d8983	0.05408622
68	0x3e55e60b	0.20888536
69	0x3d8c63cf	0.068549745
70	0xbddd23b7	-0.10797828
71	0x3dab85bf	0.083751194
72	0xbdaff60e	-0.08591853
73	0xbbfbeb2e	-0.0076879477
74	0xbe0ecb26	-0.13944682
75	0xbbcf90f0	-0.0063344166
76	0x3c390e4c	0.011294913
77	0xbe067524	-0.13130623
78	0x3e0e8858	0.13919199
79	0x3e4cc30e	0.19996282
80	0xbe3970a8	-0.18109381
81	0x3d807ba8	0.062735856
82	0xbe192726	-0.1495634
83	0xbd3042a1	-0.043032292
84	0x3dd465f2	0.10371007
85	0xbb791349	-0.003800588
86	0x3d865dad	0.06560836
87	0xbd8fa9b1	-0.07014788
88	0x3e539376	0.2066172
89	0xbdd02c71	-0.101647265
90	0x3d25faea	0.040522493
91	0x3cb60eba	0.022223819
92	0x3e1704ca	0.1474792
93	0x3cb51e3e	0.022109147
94	0x3e05ab30	0.13053584
95	0x3d647d4e	0.055783562
96	0x3e0d5c8c	0.13804835
97	0x3b3354df	0.002736382
98	0x3d93f4da	0.07224436
99	0x3e5ab117	0.21356617
100	0xbd9075a0	-0.07053685
101	0xbdb46f21	-0.08810259
102	0x3e20ef9a	0.157164
103	0x3da98ec3	0.08279183
104	0xbe514453	-0.2043622
105	0x3d9db3e2	0.077003255
106	0xbe596f88	-0.21233952
107	0xbdf0bc12	-0.117546216
108	0x3dad861c	0.08472845
109	0x3de9931e	0.114050135
110	0xbd483cb8	-0.04888603
111	0x3e3ba9e6	0.1832653
112	0x3e5c530b	0.21516053
113	0x3e2ce0c4	0.16882616
114	0xbe4b9fd2	-0.19885185
115	0xbda1487a	-0.07875152
116	0x3c57d12c	0.013172429
117	0x3e34318f	0.1759703
118	0xbd14c29a	-0.0363184
119	0x3d394103	0.045228016
120	0x3de961f4	0.11395636
121	0xbde7fd3c	-0.113275975
122	0xbe064314	-0.13111526
123	0x3e5b3fc8	0.2141105
124	0xbb9e4da8	-0.0048310347
125	0x3e1cdfbe	0.15319726
126	0xbe582e29	-0.21111359
127	0xbda93f47	-0.08264022
128	0x3e1aa168	0.15100634
129	0xbcfc807e	-0.030822989
130	0x3d852342	0.065008655
131	0xbe39ae95	-0.18133004
132	0x3e57c9f9	0.2107314
133	0xbde8e9e2	-0.113727346
134	0xbc335d35	-0.010947515
135	0xbe1a6e8f	-0.15081237
136	0xbdbeeef9	-0.09322924
137	0xbe43bc96	-0.19114909
138	0xbe420db3	-0.18950538
139	0xbd352be9	-0.04423133
140	0xbdcf6aa0	-0.10127759
141	0x3e23c574	0.15993291
142	0xbc2339f4	-0.009962548
143	0x3e216715	0.15761979
144	0xbd315343	-0.043292295
145	0x3d1de7a8	0.038551003
146	0x3e4f7cb8	0.2026242
147	0xbe2b8daf	-0.16753267
148	0xbdcb8f8c	-0.09939489
149	0x3e3d88aa	0.18509164
150	0xbd584d1b	-0.05280791
151	0xbd6ed48e	-0.058308177
152	0x3c34b522	0.011029514
153	0xbdee09d9	-0.11622972
154	0x3cb489b2	0.022038314
155	0xbdb84ac0	-0.089986324
156	0x3d772a0f	0.060342845
157	0xbd3c3f80	-0.045958996
158	0xbd92cf4b	-0.07168444
159	0xbd98fe98	-0.07470435
160	0x3d4ec721	0.050482873
161	0x3de191a4	0.11014107
162	0xbe4ab076	-0.19793877
163	0xbe21ca72	-0.15799883
164	0xbe54c595	-0.20778497
165	0x3ddc0ba7	0.1074441
166	0x3e1f7635	0.15572436
167	0xbe550318	-0.20801961
168	0x3d66891d	0.056283105
169	0x3d1d144f	0.038349446
170	0xbdedf210	-0.116184354
171	0x3d2723be	0.04080557
172	0x3e26b3e7	0.16279565
173	0x3e526c36	0.20549092
174	0x3dd1aaea	0.102376774
175	0xbd2fd745	-0.042929906
176	0xbdfc49f4	-0.12318793
177	0xbdb9dccc	-0.09075317
178	0xbbc8c30d	-0.0061267675
179	0xbcca091a	-0.024662543
180	0x3e21c5b5	0.15798075
181	0xbe485ac9	-0.19565882
182	0x3c134d1b	0.008990551
183	0xbd886628	-0.0666011
184	0x3c39cfec	0.011341076
185	0x3e5532c6	0.2082015
186	0x3aa8b6ce	0.0012871863
187	0xbd027e58	-0.031858772
188	0xbd9f85b2	-0.07789172
189	0xbe5d3ed0	-0.21605992
190	0xbe4b8a56	-0.1987699
191	0x3db3c938	0.08778614
192	0xbe04f190	-0.12982774
193	0x3dedccc3	0.11611321
194	0xbd8dae55	-0.06918017
195	0x3d909d89	0.070612974
196	0x3e192bf2	0.1495817
197	0x3cd9f2af	0.026604978
198	0x3d983f42	0.074339405
199	0x3e2e4031	0.17016675
200	0xbd87fb16	-0.06639688
201	0x3e1b0a54	0.15140659
202	0xbe3a7521	-0.18208744
203	0x3e45ec73	0.1932848
204	0xbd9c2ce9	-0.076257534
205	0xbc0582ab	-0.008148829
206	0x3deaa462	0.11457135
207	0x3c016428	0.007897414
208	0x3e3beb0d	0.18351384
209	0xbdc3744a	-0.09543665
210	0xbe0183ad	-0.12647887
211	0x3e45ea27	0.19327603
212	0xbe07cb94	-0.13261253
213	0x3e189281	0.14899637
214	0x3e4d2a8c	0.20035762
215	0x3e1613d1	0.14655997
216	0xbdbb980e	-0.091598615
217	0xbb51bee0	-0.003200464
218	0xbe40874f	-0.18801616
219	0xbdd8a0ef	-0.10577571
220	0xbd5e5052	-0.05427582
221	0xbe127a74	-0.14304525
222	0x3dffd0a8	0.1249097
223	0x3de26ea2	0.11056258
224	0xbd8bb49d	-0.068215586
225	0xbcf2e89c	-0.029651932
226	0x3e5627ea	0.20913664
227	0xbca12272	-0.019669745
228	0x3e38191e	0.17978331
229	0x3e4d4990	0.20047593
230	0xbdaa819e	-0.08325504
231	0xbe561591	-0.20906664
232	0x3e4c1630	0.19930339
233	0xbdfd7cfe	-0.12377356
234	0x3e5b0d46	0.21391782
235	0xbe1bbcb5	-0.15208705
236	0x3d07c333	0.03314514
237	0x3d6c2b7c	0.057658657
238	0xbd26bc34	-0.04070683
239	0x3e2ce303	0.16883473
240	0xbe490308	-0.19630063
241	0xbdcd40d2	-0.10022129
242	0xbd2d44e8	-0.042302042
243	0x3e21dc1c	0.15806621
244	0x3dcd5ce2	0.100274816
245	0x3e0e9c69	0.13926853
246	0x3da089a3	0.07838752
247	0x3e40bd6c	0.18822259
248	0xbd847b85	-0.06468872
249	0xbd88e264	-0.066838056
250	0xbd017692	-0.031607218
251	0x3db62c04	0.08895114
252	0xbd8d267e	-0.068921074
253	0x3da2dab1	0.07951868
254	0x3d556338	0.052096575
255	0x3d350525	0.04419436

encoder.conv_layers.1.bias f4 [64]
0	0xbb863a2f	-0.0040962915
1	0xbc37c402	-0.0112161655
2	0xbc603075	-0.013683428
3	0xbb62d49b	-0.0034611586
4	0xbc07f6df	-0.008298605
5	0xbba00738	-0.004883673
6	0x00000000	0.0
7	0xbc6adfef	-0.0143356165
8	0x394ec9f8	0.0001972093
9	0xbc1d2557	-0.009591422
10	0x00000000	0.0
11	0xbba4c773	-0.005028659
12	0xbbcb45e2	-0.006203399
13	0x00000000	0.0
14	0xbc37903a	-0.01120382
15	0xbc3c3a63	-0.01148853
16	0xbba237b3	-0.0049504875
17	0xbaed0d5a	-0.0018085644
18	0xbc4b9924	-0.012426648
19	0x00000000	0.0
20	0xbb17d0f9	-0.002316533
21	0x00000000	0.0
22	0xbc138b21	-0.009005339
23	0x00000000	0.0
24	0xbc654f7d	-0.013996002
25	0x00000000	0.0
26	0x3bd9a2bf	0.0066417153
27	0x3c17a8f0	0.009256586
28	0xbc5d1853	-0.013494569
29	0x00000000	0.0
30	0x3a8c1da7	0.001068999
31	0x38d00151	9.918458e-05
32	0xbbd0e8ed	-0.006375423
33	0x3a97ee72	0.0011591448
34	0x00000000	0.0
35	0xbbcfa44e	-0.0063367253
36	0xbb85a59b	-0.0040785796
37	0xba3caeac	-0.0007197659
38	0xbbf5b19d	-0.00749798
39	0xbb24ee03	-0.002516628
40	0xbb2f2d04	-0.0026729712
41	0xbc0b1464	-0.008488748
42	0x3b7bf491	0.0038445333
43	0xbc7b4c89	-0.015338072
44	0xbbcc4380	-0.0062336326
45	0xbbffc8f3	-0.0078059374
46	0x3bdce8bf	0.0067416127
47	0x00000000	0.0
48	0x00000000	0.0
49	0xbc51fc4b	-0.012816499
50	0xbc84ed05	-0.016226301
51	0xbc1790f5	-0.009250869
52	0x00000000	0.0
53	0x00000000	0.0
54	0xbc941ab7	-0.018079145
55	0xbb0a031e	-0.0021058987
56	0xbc75ff56	-0.01501449
57	0x00000000	0.0
58	0xbb25bb23	-0.0025288544
59	0x3b870f15	0.004121671
60	0xbc09a30b	-0.008400689
61	0x00000000	0.0
62	0xbc1a3d23	-0.00941399
63	0xbbdecf4d	-0.0067996145

encoder.conv_layers.2.weight f4 [64, 64]
0	0xbe5a7534	-0.21333772
1	0xbda01ad6	-0.078176185
2	0xbdebc492	-0.11512102
3	0x3df0348a	0.11728771
4	0x3b9983e5	0.0046849125
5	0xbe1d76a0	-0.15377283
6	0x3e2b4e0a	0.16728988
7	0xbdca3484	-0.09873298
8	0xbcc3ace9	-0.02388616
9	0x3d959d84	0.07305434
10	0xbe13d483	-0.14436536
11	0xbceba129	-0.02876337
12	0xbda8d608	-0.08243948
13	0xbd5257eb	-0.051353376
14	0xbd94fb64	-0.072745115
15	0x3e0b7f9c	0.13622898
16	0xbddd6c0b	-0.10811623
17	0xbe21aa14	-0.15787536
18	0x3dbf89ca	0.09352453
19	0x3d519b3d	0.051173437
20	0xbba33a1e	-0.0049812933
21	0x3c92271d	0.017840916
22	0x3e4f0a7f	0.20218848
23	0xbdb64792	-0.0890037
24	0xbe4e3ad2	-0.20139626
25	0xbe60a410	-0.21937585
26	0x3d65e81d	0.056129564
27	0x3d9946eb	0.0748423
28	0xbbcbefa0	-0.006223634
29	0xbe383f99	-0.1799301
30	0xbe309e01	-0.17247774
31	0xbe169e82	-0.14708903
32	0x3e09b635	0.13448413
33	0x3d23438e	0.039859347
34	0xbdf6f635	-0.12058679
35	0xbe51aa76	-0.20475182
36	0x3df9dc26	0.12200193
37	0xbbfd9aec	-0.0077394154
38	0x3e5ae0ad	0.2137477
39	0xbe46c65e	-0.19411609
40	0xbe3e96ad	-0.18612166
41	0x3cf8fa10	0.030392677
42	0x3e0d4327	0.13795148
43	0x3e0c0044	0.13671976
44	0x3e5ebd55	0.21751912
45	0x3e00c187	0.12573825
46	0x3db670eb	0.08908256
47	0xbe0850ea	-0.13312116
48	0x3e5cdcf3	0.2156866
49	0xbdc43c4e	-0.09581815
50	0x3e10154d	0.14070626
51	0x3da34511	0.07972158
52	0xbe0a85b1	-0.13527562
53	0xbc9e7224	-0.019341536
54	0xbc8e1d54	-0.01734797
55	0x3e2bb129	0.167668
56	0x3e228059	0.15869273
57	0x3d2a2d3b	0.04154704
58	0xbe057924	-0.13034493
59	0x3d49adb8	0.049237937
60	0x3e2da960	0.16959143
61	0xbe00935f	-0.12556218
62	0x3e2d7633	0.1693962
63	0x3d2a39ee	0.041559152
64	0x3de9b3db	0.11411258
65	0x3d8c2216	0.06842439
66	0x3e0bf755	0.13668568
67	0xbe3c9f53	-0.18420152
68	0x3dad1c48	0.0845266
69	0xbe404209	-0.1877519
70	0xbca304ed	-0.01989981
71	0x3e2d6046	0.16931257
72	0xbe35cf93	-0.17754965
73	0xbe28a2e4	-0.16468388
74	0xbdce14c7	-0.10062557
75	0x3c0d4594	0.008622546
76	0xbd1d7b38	-0.03844759
77	0xbe2e05f0	-0.16994452
78	0x3d1443fb	0.036197644
79	0xbd51bc3e	-0.051204912
80	0xbdd89792	-0.10575785
81	0xbb7b99ef	-0.0038391312
82	0x3d969486	0.07352547
83	0x3cd33630	0.025782675
84	0xbe16d440	-0.14729404
85	0x3e1649b6	0.14676556
86	0x3d03b544	0.03215529
87	0xbd68eb8c	-0.05686526
88	0x3e38d6cb	0.18050687
89	0x3d18f9f3	0.037347745
90	0x3de693c0	0.1125865
91	0x3e121105	0.14264305
92	0xbc2956d6	-0.010335645
93	0x3e36b6a0	0.17843103
94	0xb98e1ce2	-0.0002710587
95	0x3e26ba65	0.16282041
96	0x3cdb3a98	0.026761338
97	0x3dcb32f0	0.09921825
98	0x3ddf4aa4	0.109029084
99	0xbdf5be82	-0.11999227
100	0x3e3c19ba	0.18369189
101	0xbb442853	-0.0029931262
102	0x3db18b33	0.08669128
103	0xbe2f6cae	-0.17131302
104	0xbdbac64f	-0.091198556
105	0x3e05f081	0.13080026
106	0xbe16d08c	-0.14727992
107	0x3cbf46d0	0.023349196
108	0x3e470270	0.19434524
109	0xbe5d843d	-0.21632476
110	0xbb9789e1	-0.0046245907
111	0x3d101ade	0.035181873
112	0x3e125bdd	0.14292856
113	0xbd94fb31	-0.072744735
114	0xbe5e0c4b	-0.21684377
115	0xbe0f7c91	-0.14012362
116	0x3d6e987d	0.058250893
117	0xbe2343ba	-0.15943804
118	0xbe414689	-0.18874563
119	0xbb51f3ba	-0.0032036141
120	0x3d5a5299	0.053301428
121	0xbe0f5889	-0.13998617
122	0xbdac38ad	-0.084092475
123	0x3ddcfc3e	0.10790299
124	0xbe1db5d4	-0.15401393
125	0xbe251f48	-0.16125214
126	0xbd8ac0ad	-0.06775031
127	0x3e2a1d2e	0.16612694
128	0xbd81fff6	-0.06347649
129	0xbe1c965f	-0.15291737
130	0xbe1d478f	-0.15359329
131	0xbd506b18	-0.050883383
132	0x3e1754df	0.1477847
133	0x3da6a8c8	0.08137661
134	0xbda2586f	-0.079270236
135	0xbe405510	-0.18782449
136	0xbe06884f	-0.13137935
137	0x3d3b46b5	0.04572173
138	0x3e3a6ba4	0.18205124
139	0x3dd883dd	0.10572026
140	0xbd10c6cb	-0.035345834
141	0x3deb3515	0.11484734
142	0x3cd53d6a	0.026030261
143	0x3cf031b9	0.029320585
144	0x3dcbc88b	0.0995036
145	0xbd8832fc	-0.066503495
146	0x3d812d92	0.0630752
147	0x3b9971a1	0.004682735
148	0x3d7f03a9	0.06225935
149	0xbd3db166	-0.04631176
150	0x3e07a3ce	0.1324608
151	0xbe6014f0	-0.21882987
152	0x3e0c6fa8	0.13714468
153	0xbe3b0d29	-0.18266739
154	0xbe1529c7	-0.14566718
155	0xbe101d10	-0.14073586
156	0xbce404b9	-0.027834283
157	0xbcafd096	-0.021461766
158	0xbe587fbd	-0.21142478
159	0x3df3f30d	0.11911593
160	0x3d5b3d66	0.05352535
161	0x3e590d1a	0.21196404
162	0xbe1e3797	-0.15450893
163	0xbe324708	-0.17409909
164	0x3d6442a8	0.05572763
165	0x3e2217b8	0.1582936
166	0x3e14dc4d	0.14537163
167	0x3d977591	0.07395471
168	0x3d15251c	0.036412343
169	0x3dd1c0b3	0.102418326
170	0xbdbc5c86	-0.09197335
171	0xbe630cac	-0.22172803
172	0xbe34a33d	-0.17640395
173	0xbe149cbe	-0.14512917
174	0x3d1fcd5a	0.039014198
175	0x3e467f13	0.19384412
176	0x3e14c449	0.14528002
177	0xbe10b504	-0.14131552
178	0x3d71b271	0.059008066
179	0x3e3aac15	0.18229707
180	0xba4ae0af	-0.0007739169
181	0xbd2539ca	-0.040338315
182	0xbde75cd9	-0.11297006
183	0xbc86383f	-0.016384242
184	0x3e20b6ed	0.1569478
185	0xbd8707de	-0.065932974
186	0xbd05ec7c	-0.032696232
187	0x3dc89668	0.09794313
188	0xbdb667ab	-0.08906492
189	0xbdf74b78	-0.120749414
190	0x3d19e373	0.037570428
191	0x3e19979e	0.14999244
192	0x3c8ecd65	0.017431924
193	0xbc789e9f	-0.015174537
194	0xbe301dc8	-0.1719886
195	0x3e0462ca	0.1292831
196	0x3b6f6c05	0.003653289
197	0xbdc32f22	-0.09530474
198	0xbe4ae706	-0.19814691
199	0xbdd25ff4	-0.10272208
200	0xbe1bce69	-0.15215458
201	0x3d3598f9	0.04433534
202	0x3e1bbb54	0.15208179
203	0xbd3fae29	-0.04679695
204	0x3df95563	0.12174489
205	0xbd3c74a0	-0.04600966
206	0xbdb69dad	-0.08916793
207	0xbe3fb744	-0.18722254
208	0xbe16fe98	-0.14745557
209	0x3e18004d	0.14843865
210	0x3e155304	0.14582449
211	0x3e4d8333	0.2006958
212	0xbcefa33d	-0.029252643
213	0x3d95e2a6	0.073186204
214	0xbd1d485e	-0.038399093
215	0x3e6d9762	0.23202279
216	0xbe387804	-0.18014532
217	0xbd8d5d6d	-0.06902585
218	0xbe5492b9	-0.20759095
219	0x3c1d6388	0.00960625
220	0xbe32efe9	-0.17474331
221	0xbe1b7cfc	-0.15184397
222	0x3d3fb09a	0.04679928
223	0x3e588388	0.21143925
224	0x3e3a9f4a	0.18224826
225	0x3e166de2	0.14690354
226	0xbd5b7d98	-0.053586572
227	0xbbd63221	-0.0065367376
228	0xbe488889	-0.19583334
229	0x3e076d99	0.13225402
230	0x3d97d5d4	0.07413831
231	0x3e2b774c	0.16744727
232	0xbe623c46	-0.22093305
233	0xbd6ea65b	-0.058264118
234	0xbe10a4d1	-0.14125372
235	0xbe30181a	-0.17196694
236	0xbe017b09	-0.1264459
237	0x3d5c0994	0.053720072
238	0x3e0c7f00	0.13720322
239	0x3dc83d73	0.097773455
240	0xbd90ca6d	-0.0706986
241	0x3dc397ec	0.09550461
242	0x3e50eaed	0.20402117
243	0x3b73a1bc	0.0037175259
244	0xbdb0df2c	-0.08636317
245	0xbe2f103b	-0.17096035
246	0x3e1a7a5a	0.15085736
247	0xbd1d311e	-0.03837692
248	0xbe359a15	-0.17734559
249	0x3df6a1a5	0.1204255
250	0x3d12bc4a	0.035824098
251	0xbdbc8a53	-0.09206071
252	0xbe614e63	-0.22002558
253	0x3d4b45a9	0.04962698
254	0xbd8b2f53	-0.06796136
255	0xbd377dc3	-0.04479767

encoder.conv_layers.2.bias f4 [64]
0	0xbbb939b1	-0.0056526293
1	0xbbcd2969	-0.00626104
2	0x00000000	0.0
3	0x00000000	0.0
4	0xbbc5784e	-0.0060263043
5	0x00000000	0.0
6	0xbc23e7b2	-0.010003971
7	0x00000000	0.0
8	0x00000000	0.0
9	0x00000000	0.0
10	0xbbd8c04f	-0.006614722
11	0xbc377031	-0.011196182
12	0xbc4f1398	-0.012638949
13	0x00000000	0.0
14	0x3c0113ee	0.007878287
15	0x3bb523ae	0.005527935
16	0xbc07e05b	-0.008293237
17	0xbc270712	-0.010194557
18	0x00000000	0.0
19	0xbc7d1c36	-0.015448621
20	0xbc032f4b	-0.008006881
21	0x00000000	0.0
22	0xbc8bb6ee	-0.017055001
23	0xb9a145d4	-0.0003076034
24	0xbc4d509c	-0.012531426
25	0xbc4e449b	-0.012589599
26	0x00000000	0.0
27	0xbc821af8	-0.015882
28	0xbc262231	-0.010139988
29	0x00000000	0.0
30	0xbb87380e	-0.0041265553
31	0xbc4159a1	-0.011801154
32	0xbbaa285a	-0.0051927986
33	0xbb6ee38f	-0.0036451553
34	0x00000000	0.0
35	0x00000000	0.0
36	0xbbc65f08	-0.006053809
37	0xbc4c2ac3	-0.012461367
38	0x3ba377d0	0.004988648
39	0xbca90b9b	-0.020635417
40	0xbc2b6530	-0.010461137
41	0xbc3e40f9	-0.01161217
42	0xbb85d911	-0.004084714
43	0xbbc976b7	-0.006148185
44	0xba5961e5	-0.00082924805
45	0xbc9f0788	-0.01941277
46	0xbb8fc9a5	-0.0043880516
47	0x00000000	0.0
48	0xba471d93	-0.00075956545
49	0x00000000	0.0
50	0x3ad10b8b	0.0015948875
51	0xbc1c4948	-0.009538956
52	0xbc2bbc5d	-0.010481921
53	0x00000000	0.0
54	0xbc1ff5f7	-0.009763232
55	0x3c3c8146	0.011505431
56	0xbc042e15	-0.008067627
57	0xbb98b61d	-0.0046603815
58	0xbbf12ff4	-0.007360453
59	0xbc575dbc	-0.013144907
60	0xbc1836e2	-0.009290429
61	0x3b070cc1	0.0020606967
62	0xbbaec397	-0.0053333747
63	0xbbefba33	-0.007315898

encoder.mean_net.weight f4 [32, 64]
0	0xbd99cc3f	-0.0750966
1	0x3b2fd59c	0.0026830202
2	0x3dcf54f4	0.101236254
3	0x3db2c1fa	0.08728404
4	0xbdc23c9f	-0.09484219
5	0xbd704e3c	-0.05866836
6	0x3c46910a	0.012119541
7	0x3da1b41e	0.07895683
8	0xbd4dadc0	-0.05021453
9	0xbde87662	-0.11350705
10	0xbc029ea6	-0.007972395
11	0x3d9cd8e7	0.07658558
12	0xbd66c13a	-0.05633662
13	0xbdebc0f2	-0.11511411
14	0x3d5cd279	0.05391166
15	0x3de21f00	0.11041069
16	0xbdc420ff	-0.09576606
17	0x3d0f607e	0.03500413
18	0x3da224d0	0.07917178
19	0x3c2a2963	0.010385844
20	0xbd5535ac	-0.05205314
21	0xbd394188	-0.04522851
22	0xbd9a4bbd	-0.07533977
23	0x3d4407ab	0.047858875
24	0xbd43c375	-0.047793824
25	0x3d0af992	0.033929415
26	0xbce16380	-0.027513266
27	0xbda04cae	-0.078271255
28	0x3e030081	0.12793161
29	0x3cf13d30	0.029448122
30	0x3d8a2197	0.06744688
31	0x3db8c1be	0.090213284
32	0x3d75033e	0.059817545
33	0xbce281db	-0.02764981
34	0xbd1d22a0	-0.0383631
35	0xbd8d2734	-0.06892243
36	0xbdde5469	-0.10855944
37	0xbdb7ecbf	-0.089807026
38	0xbd318f6f	-0.04334968
39	0x3dffab5b	0.12483855
40	0xbddf46b8	-0.109021604
41	0xbd93c998	-0.07216185
42	0xbda5754d	-0.08079014
43	0xbda83bf7	-0.082145624
44	0x3dde7e06	0.10863881
45	0xbdc13c77	-0.09435361
46	0xbda459bd	-0.08024929
47	0xbd95c012	-0.07312025
48	0x3d04287b	0.032265168
49	0xbd200c20	-0.039074063
50	0xbd94dfa6	-0.0726922
51	0x3ddf6ced	0.10909448
52	0x3cd55f8f	0.026046542
53	0xbdbae2e2	-0.09125306
54	0xbd295b77	-0.041346993
55	0x3e04bf13	0.12963514
56	0x3d50e84b	0.05100278
57	0xbd9aaaa1	-0.07552076
58	0xbd6eab94	-0.0582691
59	0xbd310d9b	-0.043225866
60	0x3d5075bf	0.05089354
61	0xbd6f49e7	-0.05842009
62	0x3df919e2	0.1216314
63	0x3c93c282	0.018037084
64	0x3d1be401	0.03805924
65	0x3d00a9a6	0.03141179
66	0x3dc74696	0.0973026
67	0xbd276830	-0.040870845
68	0xbd589f10	-0.05288607
69	0xbda6fb76	-0.08153431
70	0x3dd8f917	0.10594385
71	0xbc2586d0	-0.010102943
72	0xbaffbe00	-0.001951158
73	0x3de1962c	0.11014971
74	0xbd066a2f	-0.03281611
75	0xbd61cc08	-0.05512622
76	0xbd7eff84	-0.062255397
77	0x3d9311b8	0.07181114
78	0x3c2054c6	0.009785837
79	0xbd9f4481	-0.07776738
80	0x3d9303cb	0.07178458
81	0x3d173964	0.036919966
82	0xbcea9a08	-0.028637901
83	0x3c915911	0.017742665
84	0xbdf69719	-0.12040538
85	0xbdb5e9da	-0.08882494
86	0xbd6ecc8f	-0.05830055
87	0xbc9407cd	-0.018070126
88	0xbd05292a	-0.03250996
89	0x3d3990bc	0.045304045
90	0xbdeeca9e	-0.1165974
91	0x3dac5c77	0.08416074
92	0xbe027a6c	-0.12742013
93	0xbd2fe22c	-0.042940304
94	0x3dcc3a4b	0.09972056
95	0xbd8cd28d	-0.06876097
96	0xbd95a0c8	-0.07306057
97	0x3d711411	0.058857027
98	0xbd892796	-0.066970035
99	0x3cd43d58	0.025908157
100	0xbd6763d5	-0.05649169
101	0x3d258ab2	0.040415473
102	0xbdb4586c	-0.08805928
103	0xbd998348	-0.07495743
104	0xbdb3e233	-0.087833785
105	0xbcfe6f9d	-0.03105908
106	0x3ddea08e	0.10870467
107	0x3d898968	0.06715661
108	0xbdd93f5c	-0.10607788
109	0x3d626649	0.055273328
110	0x3dc7db68	0.09758645
111	0x3dfd58ea	0.12370475
112	0x3b029c96	0.0019929758
113	0x3d08aaf0	0.033366144
114	0x3da0765a	0.07835074
115	0x3de79c9a	0.11309166
116	0x3b400d2f	0.0029304733
117	0xbcb51968	-0.022106841
118	0x3d9e7bd5	0.07738463
119	0xbd9a5279	-0.07535262
120	0x3dbe21cd	0.09283791
121	0x3dcf8370	0.101324916
122	0x3d090173	0.033448648
123	0xbde77036	-0.113006994
124	0x3db3e9fc	0.08784863
125	0x3b966634	0.0045898203
126	0x3cabe133	0.020981407
127	0x3cb23c4a	0.021757264
128	0x3d62da77	0.055384126
129	0x3d8a51c3	0.06753876
130	0xbda7e0de	-0.08197187
131	0xbdcaafa8	-0.09896785
132	0x3d7293df	0.059223052
133	0xbd551c98	-0.052029222
134	0xbde7b783	-0.11314299
135	0x3dd5de7a	0.10442825
136	0xbdc66d8c	-0.09688863
137	0xbd2edd40	-0.04269147
138	0xbd98df7c	-0.07464501
139	0x3daa7b08	0.083242476
140	0xbcacdfde	-0.021102842
141	0xbd85d2c2	-0.065343395
142	0x3da4563b	0.0802426
143	0x3dbe8c2b	0.09304079
144	0x3d5a8a1d	0.05335437
145	0x3dada4a6	0.0847867
146	0xbde6850c	-0.112558454
147	0xbe00c08d	-0.12573452
148	0x3d8eaa08	0.06966025
149	0xbce5ea90	-0.02806595
150	0x3d0dee2f	0.034650978
151	0x3e0dd781	0.1385174
152	0xbd146a83	-0.03623439
153	0xbd686750	-0.05673915
154	0x3defddce	0.11712228
155	0xbd88f752	-0.066877976
156	0xbd9e8a3d	-0.077412106
157	0x3dcd7196	0.100314304
158	0xbcb00bcb	-0.021489998
159	0xbd738e64	-0.059461966
160	0x3cdfd499	0.027323054
161	0xbd9b01bf	-0.075686924
162	0x3b954a20	0.0045559555
163	0xbdc9ae98	-0.09847754
164	0xbd49ade7	-0.04923811
165	0x3dab65fc	0.08369061
166	0x3a46f975	0.00075902726
167	0xbd09b254	-0.033617333
168	0x3db94797	0.09046858
169	0x3d506c31	0.05088443
170	0x3daf0e56	0.08547656
171	0x3d57fa7e	0.052729122
172	0xbd422802	-0.047401436
173	0xbdf973ec	-0.121803135
174	0xbdad0f76	-0.084502146
175	0xbd982aac	-0.07430014
176	0x3be4a18e	0.0069772666
177	0x3dcd4bfe	0.1002426
178	0x3dcfcff8	0.10147089
179	0x3db25b95	0.08708874
180	0x3bd28411	0.006424435
181	0x3db04dd8	0.086085975
182	0xbc5e4aad	-0.013567609
183	0x3d486014	0.048919752
184	0xbdb4e23a	-0.08832212
185	0x3deddfca	0.1161495
186	0x3d5a581e	0.05330669
187	0xbc598571	-0.013276444
188	0xbd7e904b	-0.062149327
189	0x3cee33b8	0.029077396
190	0xbce4c57c	-0.0279262
191	0xbdb34b20	-0.08754563
192	0xbda1d736	-0.07902376
193	0xbd63b19e	-0.05558931
194	0x3ceb10c0	0.02869451
195	0xbda510f4	-0.08059874
196	0x3d81ba8a	0.06334408
197	0xbd8cfe2e	-0.068844184
198	0x3d847a1d	0.06468604
199	0x3b8d4b80	0.004311979
200	0x39617400	0.00021500885
201	0x3c8a4a30	0.016881078
202	0x3b67aaee	0.0035349685
203	0x3d14ff5f	0.036376353
204	0xbc7beb66	-0.015375948
205	0xbd34c3a4	-0.04413189
206	0xbc1b38d5	-0.009473999
207	0xbdc186d2	-0.09449543
208	0x3d175db5	0.0369546
209	0x3a1bb09c	0.00059390976
210	0x3d81237c	0.06305596
211	0xbd1bcb38	-0.0380356
212	0x3c666cc1	0.014064015
213	0xbd73cc94	-0.059521273
214	0xbd9cbe5c	-0.07653496
215	0x3c6f19e4	0.014593575
216	0x3d693318	0.056933492
217	0xbd87950b	-0.066202246
218	0x3dc92fd2	0.09823574
219	0xbd4bbd28	-0.04974094
220	0xbd083a45	-0.033258695
221	0x3dcd22ae	0.1001638
222	0xbd25efc5	-0.040511865
223	0x3d7db6cf	0.061941918
224	0xbd18884c	-0.037239358
225	0x3d6a14cd	0.057148743
226	0x3c852e30	0.016257375
227	0xbd7142d8	-0.058901638
228	0xbde02c0f	-0.109459035
229	0x3d7cef11	0.06175143
230	0x3c42ebe5	0.011897062
231	0xbd1387fd	-0.03601836
232	0xbce3644a	-0.027757782
233	0xbd878337	-0.06616824
234	0xbda74609	-0.08167655
235	0x3cba1714	0.022716083
236	0xbde8d5ad	-0.113688804
237	0xbc5445b6	-0.0129560735
238	0x3d9223ff	0.07135772
239	0x3d699884	0.057030216
240	0x3d26722c	0.040636227
241	0x3cbd4618	0.023104712
242	0xbda204ad	-0.07911048
243	0x3d53cdaf	0.051709827
244	0x3dba693d	0.09102104
245	0x3d518ff0	0.05116266
246	0x3d6a4a65	0.057199854
247	0xbd95b6f7	-0.073102884
248	0xbde894bb	-0.11356493
249	0xbd05287f	-0.032509323
250	0x3cf91c09	0.030408876
251	0x3d8010b8	0.06253189
252	0xbd4a847d	-0.049442757
253	0xbd98cbd6	-0.074607536
254	0x3d8588ae	0.0652021
255	0xbc1f0a63	-0.009707066

encoder.mean_net.bias f4 [32]
0	0xbd771020	-0.060318112
1	0x3d5032bc	0.050829634
2	0xbdc69232	-0.09695853
3	0x3dad4281	0.0845995
4	0x3d8df525	0.06931523
5	0x3d81f766	0.06346016
6	0xbd6d9e8c	-0.05801253
7	0xbd86e04a	-0.065857485
8	0x3d7ff53d	0.062489737
9	0xbc728e2c	-0.014804404
10	0xbd2fab02	-0.042887695
11	0x3db8aa2b	0.09016832
12	0xbd18d4c6	-0.03731229
13	0xbc8de0b4	-0.01731906
14	0x3d542178	0.05178973
15	0x3d9713e7	0.07376843
16	0xbc0a64f1	-0.008446918
17	0x3bebc699	0.0071953055
18	0x3d08b9d4	0.033380345
19	0xbd3a8949	-0.04554108
20	0x3cfc6c50	0.030813366
21	0x3d5bcc68	0.053661734
22	0x3b8d4455	0.0043111243
23	0xbce9e437	-0.028551204
24	0x3deffa4e	0.11717664
25	0xbc983f23	-0.018584793
26	0xbc951ec0	-0.01820314
27	0xbc1e9488	-0.009678967
28	0x3bef052b	0.0072943172
29	0xbd9caa35	-0.07649652
30	0x3b2a9137	0.0026026496
31	0xb8caab1e	-9.663984e-05

encoder.logvar_net.weight f4 [32, 64]
0	0x3d331524	0.043721333
1	0xbc1567e6	-0.00911901
2	0xbd86dcfa	-0.06585117
3	0xbcf43880	-0.029812098
4	0xbd29b879	-0.041435692
5	0x3dd92fe2	0.10604836
6	0xbdfc3b2e	-0.12315975
7	0x3d132680	0.03592539
8	0x3de7ff2a	0.113279656
9	0x3d1ea2bc	0.038729414
10	0xbd8439e4	-0.06456354
11	0x3d05cf34	0.032668307
12	0x3d126ee0	0.03575027
13	0x3d5c73a0	0.053821206
14	0x3d9850d5	0.074372925
15	0xbdcf7ae6	-0.10130863
16	0x3ca1264e	0.019671585
17	0xbcece236	-0.02891646
18	0x3d883954	0.066515595
19	0x3ddd35dc	0.108012885
20	0xbd4bccc6	-0.049755834
21	0x3b0b4640	0.002125159
22	0x3dcf1e96	0.10113256
23	0xbdab3c0d	-0.08361063
24	0x3c838d30	0.016058534
25	0xbdac03b0	-0.08399141
26	0x3d00495c	0.03131996
27	0xbd724aa5	-0.059153218
28	0xbdf14fa4	-0.11782768
29	0xbde06bc8	-0.10958058
30	0x3d42e79d	0.047584165
31	0xbd1aa6dc	-0.037756786
32	0x3c605966	0.013693189
33	0x3d98b419	0.07456226
34	0x3cd66e00	0.026175499
35	0x3de2cde6	0.11074428
36	0x3d0ed5b0	0.034871757
37	0xbdf1d896	-0.118088886
38	0x3d93191c	0.071825236
39	0xbde1063d	-0.10987518
40	0x3d7cfdff	0.061765667
41	0xbc3aeadc	-0.011408534
42	0xbe0bdcef	-0.13658498
43	0xbcf1d67c	-0.02952122
44	0x3dc9544e	0.09830533
45	0xbd8a595e	-0.06755327
46	0xbd6a9871	-0.057274286
47	0x3d8a7056	0.06759708
48	0x3cee6a93	0.029103553
49	0x3d4ebd80	0.05047369
50	0xbda27dd4	-0.07934156
51	0xbd34c69c	-0.04413472
52	0xbd96a8e0	-0.07356429
53	0x3ce92c58	0.028463528
54	0x3ca27ed4	0.019835867
55	0xbdbb0b3e	-0.09133004
56	0xbd99b5df	-0.07505392
57	0x3d536a6f	0.051615175
58	0x3be86fbb	0.0070933974
59	0x3c9b655e	0.018969234
60	0xbd1738ed	-0.036919523
61	0xbdb93b2d	-0.0904449
62	0x3d9b0980	0.07570171
63	0x3de456a5	0.11149339
64	0x3dec0f94	0.11526409
65	0xbdc81669	-0.097698994
66	0xbd71b0a0	-0.059006333
67	0xbdb98722	-0.09058978
68	0x3ddc50b1	0.10757578
69	0x3dcd86c0	0.10035467
70	0xbd194096	-0.03741511
71	0x3cb7b198	0.02242355
72	0x3db77d12	0.08959402
73	0x3dc3c3ae	0.09558807
74	0xbd772f12	-0.060347624
75	0xbce928ae	-0.02846178
76	0xbdd1ff4a	-0.10253771
77	0xbde65b68	-0.11247903
78	0x3c27c21e	0.010239152
79	0xbc6f134f	-0.014592006
80	0x3da0fba7	0.07860499
81	0x3dca109b	0.098664485
82	0xbcdf82f8	-0.02728413
83	0x3d8642f1	0.06555737
84	0xbb3c009d	-0.002868689
85	0x3d80a3a4	0.06281212
86	0xbdbbd748	-0.09171921
87	0x3b0d487c	0.0021558097
88	0xbd3ad682	-0.045614727
89	0x3de918ba	0.11381669
90	0x3d72ab80	0.059245586
91	0x3d37d0d7	0.0448769
92	0x3d6e17ed	0.058128286
93	0xbdaace12	-0.08340086
94	0xbda2d5f3	-0.07950964
95	0xbd974778	-0.073866785
96	0x3b510791	0.003189538
97	0xbd70e3e7	-0.058811095
98	0x3d5b7eec	0.05358784
99	0x3ddd5a8c	0.10808286
100	0x3e14f990	0.14548326
101	0x3db415f8	0.08793253
102	0x3d80abe2	0.06282784
103	0x3c518020	0.012786895
104	0xbd88e68a	-0.06684597
105	0x3d0131d5	0.031541664
106	0x3db15626	0.0865901
107	0x3c155005	0.009113316
108	0xbc89e804	-0.016834266
109	0xbc2cef0d	-0.010555041
110	0xbdcb133a	-0.099157766
111	0x3b932680	0.0044906735
112	0x3d3fd44f	0.046833333
113	0x3dda78c0	0.106675625
114	0x3d5b52d6	0.053545795
115	0x3df6a116	0.120424435
116	0xbb392ba0	-0.0028254762
117	0x3dc4bcf8	0.096063554
118	0xbd48c29f	-0.04901373
119	0x3d0650d2	0.03279192
120	0x3de81633	0.11332359
121	0x3ce0cfb9	0.0274428
122	0xbd95fca5	-0.07323579
123	0x3d7c22c8	0.061556607
124	0xbdeee1c0	-0.11664152
125	0x3da60331	0.081060775
126	0xbd78d711	-0.06075198
127	0x3da8e483	0.0824671
128	0x3b639986	0.0034728958
129	0x3d16bd1f	0.036801454
130	0xbd68839c	-0.056766137
131	0xbc3d4800	-0.011552811
132	0xbd8a6827	-0.06758147
133	0x3dd9e84c	0.1064001
134	0x3d8c1315	0.06839577
135	0xbd874c02	-0.06606294
136	0xbd40089c	-0.04688321
137	0x3d741280	0.059587955
138	0xbd9feae5	-0.078084745
139	0x3d4d1074	0.05006452
140	0xbdb3d54b	-0.08780917
141	0xbc7bdf10	-0.015373006
142	0x3d8b0d5d	0.06789658
143	0x3b5b15db	0.0033429775
144	0x3db69d3c	0.08916709
145	0xbd8eaa84	-0.06966117
146	0x3dc88afc	0.09792134
147	0xbdcbdc95	-0.09954182
148	0xbe0b3d16	-0.13597521
149	0xbdfc475e	-0.123183
150	0xbda98306	-0.08276944
151	0xbdb0fb37	-0.086416654
152	0xbdfd359f	-0.12363743
153	0x3b98c7da	0.004662496
154	0xbd861fea	-0.06549056
155	0x3ca52dc9	0.020163434
156	0xbbf47745	-0.007460507
157	0x3d3e2d20	0.046429753
158	0x3b0bd540	0.0021336824
159	0xbe0ef7bc	-0.1396169
160	0x3cd18326	0.025575232
161	0x3d357eb4	0.044310287
162	0xbb525e00	-0.0032099485
163	0xbcd93cb8	-0.02651821
164	0x3c1fd552	0.009755449
165	0x3cddbdbb	0.02706801
166	0x3cbb8ef1	0.022895308
167	0xbbf573ad	-0.0074905963
168	0x3d9f399b	0.07774659
169	0xbda8131f	-0.08206772
170	0x3dbbfed6	0.091794655
171	0xbda50675	-0.08057872
172	0x3d8efae3	0.069814466
173	0xbd91fd96	-0.07128446
174	0xbd7bda31	-0.06148738
175	0x3c896e40	0.016776204
176	0x3e1126e2	0.14174989
177	0xbc6fc7f0	-0.014635071
178	0xbc9e57dc	-0.019329004
179	0x3d8ff121	0.070284136
180	0x3d6baba8	0.05753675
181	0xbd1e8fb0	-0.03871125
182	0x3cf59a00	0.02998066
183	0x3d532be8	0.051555544
184	0xbcf348f2	-0.029697869
185	0xbded5169	-0.115877934
186	0xbde1128a	-0.10989864
187	0x3da17956	0.07884471
188	0xbd8acbe8	-0.06777173
189	0xbe09314f	-0.13397716
190	0x3ccb817f	0.024842022
191	0xbd013ac0	-0.03155017
192	0x3e00b1d6	0.12567839
193	0xbdd21a6d	-0.102589466
194	0x3db313a6	0.08743982
195	0x3d15911c	0.03651534
196	0x3c906136	0.017624479
197	0x3d34af90	0.044112742
198	0x3d852680	0.06501484
199	0x3db76e30	0.089565635
200	0xbdc2cc50	-0.09511626
201	0x3df287c0	0.118422985
202	0x3d2ea630	0.042638958
203	0x3c9037aa	0.017604668
204	0xbd8f3f75	-0.06994525
205	0x3df7f826	0.121078774
206	0xbd622761	-0.055213336
207	0x3cb79688	0.022410646
208	0x3d312337	0.043246474
209	0xbde02bdf	-0.10945868
210	0x3de7128a	0.11282833
211	0xbbb27b66	-0.005446839
212	0xbb5a401d	-0.0033302375
213	0xbdecdf50	-0.11566031
214	0x3d0f7d83	0.035031807
215	0xbe2ff73e	-0.17184159
216	0xbd038b3b	-0.032115202
217	0xbce5138e	-0.027963426
218	0xbd959cfc	-0.07305333
219	0x3dd4c7ca	0.10389669
220	0xbde1893f	-0.11012506
221	0x3cdaba88	0.026700273
222	0x3d1b97c4	0.03798653
223	0xbdf11110	-0.117708325
224	0xbcc798ec	-0.024364911
225	0xbdf5026e	-0.11963354
226	0xbdfe8df2	-0.12429418
227	0x3db747a0	0.08949208
228	0xbc95dc02	-0.018293384
229	0xbd367a45	-0.0445502
230	0xbdda7beb	-0.10668167
231	0x3de7253f	0.11286401
232	0xbd57b673	-0.05266423
233	0x3dbe772b	0.09300073
234	0xbe028333	-0.12745361
235	0x3d0fc736	0.03510209
236	0xbd5bea15	-0.053690035
237	0x3da46c9c	0.08028528
238	0xbbbe22d8	-0.0058024935
239	0xbd3f6084	-0.046722904
240	0xbd41c279	-0.047304604
241	0xbd3e4e4c	-0.04646139
242	0x3dbcb889	0.09214885
243	0xbb4959db	-0.0030723724
244	0xbdf099c3	-0.11748078
245	0xbacadd00	-0.001547724
246	0xbc559ebc	-0.0130383335
247	0x3cea161a	0.028574992
248	0xbde78c26	-0.11306028
249	0xbb8a2436	-0.0042157425
250	0x3dcfe133	0.10150375
251	0x3be09976	0.0068542315
252	0xbc0946a1	-0.008378656
253	0xbddcb992	-0.10777582
254	0xbdc7df0b	-0.09759339
255	0xbd305cd9	-0.043057296

encoder.logvar_net.bias f4 [32]
0	0x3d4f1558	0.050557464
1	0xbda4e5a7	-0.08051615
2	0x3c7756a3	0.015096339
3	0x3d240bda	0.040050365
4	0x3d272279	0.04080436
5	0xbd9d2947	-0.07673889
6	0xbda6b84a	-0.08140619
7	0xbbf819a2	-0.007571415
8	0xbca5f4f4	-0.020258404
9	0x3d0b6009	0.034027133
10	0x3d499e21	0.04922307
11	0xbd297556	-0.041371666
12	0xbcb05da1	-0.02152902
13	0x3c8b1bbb	0.016980996
14	0xbd548847	-0.051887777
15	0xbd3f4029	-0.046692047
16	0xbd149e7a	-0.036283948
17	0xbd24f3f3	-0.04027171
18	0x3cc37c62	0.023863021
19	0xbcaa6d2b	-0.020804008
20	0xbc43e83b	-0.0119572235
21	0x3c82ce99	0.015967654
22	0xbd16737f	-0.03673124
23	0xbd62612e	-0.05526846
24	0x3d222fd4	0.039596394
25	0x3d3a50d6	0.045487247
26	0xbd012848	-0.031532556
27	0xbda04143	-0.07824948
28	0xbca6530c	-0.020303272
29	0x3d85fcfc	0.065423936
30	0x3d1ad3f4	0.03779979
31	0xbd090bd5	-0.03345855
