vgae_mutag.pt (torch, 219298 bytes, 23 tensors)

encoder.input_net.0.weight f4 [64, 7]
0	0x3e258d42	0.16167167
1	0xbd5d901d	-0.054092515
2	0x3e9a71f4	0.30165064
3	0x3e461be1	0.19346572
4	0x3c471fb2	0.012153553
5	0x3ddff57a	0.10935493
6	0x3db48982	0.0881529
7	0xbe63fd1c	-0.22264522
8	0x3e89e36f	0.2693133
9	0xbe4fe493	-0.20302038
10	0xbe4f6478	-0.2025317
11	0x3dbdc6ea	0.092664555
12	0xbea463fe	-0.32107538
13	0x3dbda6b1	0.092603095
14	0x3de15142	0.11001827
15	0xbe11fcd2	-0.142566
16	0xbe0d46ed	-0.13796587
17	0xbeb00e8d	-0.343861
18	0xbeb128f3	-0.34601554
19	0xbe06f29c	-0.13178486
20	0x3deb6817	0.11494463
21	0x3d63d116	0.05561932
22	0xbceddf5e	-0.029037174
23	0x3f088153	0.53322333
24	0xbb90250d	-0.004398948
25	0xbe9f7e8a	-0.3115123
26	0x3ee4cdc3	0.44688234
27	0xbe5e4b16	-0.2170833
28	0xbdcde831	-0.100540526
29	0x3e660013	0.22460966
30	0xbe3740e2	-0.17895845
31	0x3e171264	0.14753109
32	0xbe234d79	-0.15947522
33	0xbd825ec5	-0.06365732
34	0xbe9c40cb	-0.30518183
35	0xbe074307	-0.13209163
36	0x3f19d34f	0.60088056
37	0xbd3ca89c	-0.046059236
38	0x3f03f03e	0.51538455
39	0x3e9f94c0	0.31168175
40	0xbdc0f1ff	-0.09421157
41	0xbea7b34d	-0.32753983
42	0xbe9093f5	-0.28237882
43	0x3d5ffd3d	0.054684866
44	0xbeb02fca	-0.3441146
45	0x3f003f91	0.50096995
46	0xbeb970c0	-0.36218834
47	0x3ea7cc6e	0.32773155
48	0x3d4b6248	0.049654275
49	0x3e16211d	0.14661069
50	0xbe52ab4d	-0.20573159
51	0x3e304209	0.1721269
52	0x3ef6a184	0.48170102
53	0x3e1cc023	0.1530767
54	0xbe193c5d	-0.14964433
55	0x3ecb6deb	0.39732298
56	0xbccafe72	-0.024779532
57	0xbc979cdc	-0.018507414
58	0xbe9f7616	-0.3114478
59	0x3f016b9c	0.50554824
60	0xbcda8af4	-0.026677586
61	0xbd51eed7	-0.051253166
62	0xbc7aad55	-0.015300115
63	0xbc03ab40	-0.008036435
64	0x3e3fbad2	0.1872361
65	0x3e2519ad	0.16123076
66	0xbe2ae575	-0.16689093
67	0x3cc8c917	0.02450995
68	0x3e7c63db	0.24647467
69	0xbea8daa8	-0.3297932
70	0x3de41f32	0.111387625
71	0xbe45cb6a	-0.19315878
72	0xbeb1dab6	-0.34737176
73	0xbce98a9c	-0.028508477
74	0xbe3affde	-0.18261668
75	0xbd61c109	-0.055115733
76	0x3d83d4af	0.064370506
77	0x3ea1bad2	0.31587845
78	0x3d2b1bdd	0.04177462
79	0x3d440fa0	0.047866464
80	0x3cf9dbf9	0.030500399
81	0xbdd4e392	-0.10394968
82	0x3e18fe2f	0.14940713
83	0xbe228fc1	-0.1587515
84	0xbe51cc6f	-0.20488141
85	0x3eb373ec	0.3504938
86	0x3d46181b	0.048362833
87	0xbe1a9b3f	-0.15098284
88	0x3e8a28aa	0.2698415
89	0xbe384c0f	-0.17997764
90	0xbe3e3cbc	-0.18577856
91	0xbe634158	-0.22192895
92	0x3d80a098	0.06280631
93	0xbe672808	-0.22573864
94	0x3dcff8c9	0.10154874
95	0x3d932586	0.071848914
96	0x3c3d207e	0.011543391
97	0x3ea79fac	0.32739007
98	0xbe9c6f3d	-0.30553618
99	0x3c89f683	0.016841179
100	0x3eb7869e	0.35844892
101	0x3d97ea2d	0.07417712
102	0x3e66eaaf	0.22550462
103	0xbe3b0e54	-0.18267184
104	0xbd3cc20c	-0.046083495
105	0x3dd421e9	0.1035803
106	0xbea78977	-0.32722065
107	0x3f08bb6e	0.53410995
108	0xbe5a131a	-0.21296349
109	0xbe3bac26	-0.18327388
110	0x3dcf3994	0.10118404
111	0x3dd3d0a7	0.10342532
112	0xbebfca18	-0.37458873
113	0xbe94aa1c	-0.29036033
114	0x3edea446	0.43484706
115	0xbe66c034	-0.22534257
116	0x3dab94e9	0.08378012
117	0xbe8c9353	-0.2745615
118	0x3d554456	0.052067123
119	0x3ddc1dad	0.10747848
120	0xbba22cd9	-0.004949194
121	0xbe571fc0	-0.21008205
122	0xbea08221	-0.3134928
123	0x3d9fd874	0.07804957
124	0x3e440bbf	0.19145106
125	0xbd38d9f4	-0.04512973
126	0xbe11f9ba	-0.1425542
127	0x3f1307e9	0.57433945
128	0xbe02ca7d	-0.12772556
129	0xbe0375c1	-0.12837888
130	0xbe936442	-0.28787428
131	0x3e2893ff	0.16462706
132	0x3e28e41c	0.16493267
133	0xbe931e28	-0.28733945
134	0x3eb090ee	0.34485573
135	0xbd003131	-0.031296913
136	0x3e65fb56	0.22459158
137	0xbe06a54f	-0.13148998
138	0x3ebaf805	0.3651735
139	0xbe347ba1	-0.17625286
140	0xbe41b726	-0.18917522
141	0xbabeb973	-0.0014551118
142	0xbc9889a6	-0.018620323
143	0xbdf0f5ab	-0.117656074
144	0x3dd799c4	0.10527375
145	0xbeb145ee	-0.34623665
146	0x3e16f8eb	0.14743392
147	0xbe8cde7d	-0.27513495
148	0x3e2d994a	0.16953006
149	0xbe28dd74	-0.16490728
150	0xbe95493f	-0.29157445
151	0x3e781402	0.24226382
152	0x3e0d68fd	0.13809581
153	0xbe251c00	-0.16123962
154	0x3a828ea4	0.0009960723
155	0xbd030106	-0.031983398
156	0xbe3034e4	-0.17207676
157	0xbe225d40	-0.15855885
158	0xbe548bf4	-0.20756513
159	0x3e086122	0.13318303
160	0x3dc958e7	0.0983141
161	0x3ed2b515	0.4115378
162	0xbe11a5be	-0.14223382
163	0xbea599b6	-0.32343835
164	0x3ee6d4e8	0.4508431
165	0xbe3df717	-0.18551289
166	0xbb3ea8ed	-0.0029092387
167	0xbe16e673	-0.14736347
168	0x3e917792	0.28411537
169	0xbebe53db	-0.37173352
170	0xbe22f42f	-0.15913461
171	0x3e82e75d	0.2556714
172	0xbe0fa1ac	-0.14026517
173	0xbe65dba3	-0.22447066
174	0xbebebb72	-0.37252384
175	0xbe49ab0c	-0.19694155
176	0x3e651c98	0.22374189
177	0xbe8eda0d	-0.27900735
178	0xbebd0399	-0.36916807
179	0x3c92ea41	0.017933967
180	0x3e089370	0.13337493
181	0xbeb07039	-0.3446062
182	0xbe83e6be	-0.2576198
183	0xbe1a118d	-0.15045758
184	0x3e0233e0	0.12715101
185	0x3e05ff45	0.13085659
186	0x3d3b2dfc	0.04569815
187	0xbe23ca7a	-0.15995207
188	0xbe6da2ab	-0.23206584
189	0x3e4f1306	0.202221
190	0x3e002d27	0.12517224
191	0xbd287620	-0.041128278
192	0xbc3ab777	-0.0113962805
193	0xbbabd1fe	-0.005243539
194	0xbe2e2a1e	-0.17008254
195	0x3e274ca4	0.1633783
196	0x3e98e94d	0.29865494
197	0x3e33817a	0.1752986
198	0xbec01cb2	-0.37521893
199	0x3e1d53cd	0.15363999
200	0x3e90c694	0.28276503
201	0x3d260e6b	0.040541094
202	0xbe239b09	-0.1597711
203	0xbe0be8a6	-0.13662967
204	0xbe8677b0	-0.2626319
205	0xbe40d70f	-0.18832038
206	0xbd494b49	-0.049144063
207	0xbe759b2d	-0.23984976
208	0x3e5ab921	0.21359684
209	0xbe0436ca	-0.12911525
210	0xbea18fc0	-0.31554985
211	0xbe82a8e0	-0.25519466
212	0xbea54ceb	-0.32285246
213	0xbe8d612d	-0.27613202
214	0xbbc0c7ff	-0.0058832164
215	0x3e3d613b	0.18494122
216	0x3d5e87cd	0.05432873
217	0xbe4f5149	-0.20245852
218	0xbe7232be	-0.23652169
219	0x3ebfd9f9	0.37470987
220	0xbec00fe6	-0.3751213
221	0x3e63e9ec	0.22257203
222	0xbe8fad7a	-0.2806204
223	0xbe122ae7	-0.14274178
224	0xbe94e35c	-0.2907971
225	0xbe8a1008	-0.26965356
226	0xbeb6ea12	-0.35725456
227	0x3cf2a6ef	0.029620616
228	0x3ea0047d	0.31253424
229	0xbeb9593c	-0.36200893
230	0xbe3e1dba	-0.18566027
231	0xbedff2a8	-0.4373982
232	0x3dc593e2	0.09647347
233	0xbedd0183	-0.43165216
234	0x3ea5f60a	0.32414275
235	0x3e3a692a	0.1820418
236	0x3d8982d4	0.067144066
237	0x3c7e9f2c	0.015540879
238	0xbe16c882	-0.14724925
239	0xbdc36d44	-0.09542325
240	0x3d90409e	0.07043575
241	0x3e5762a6	0.21033725
242	0xbe229f0a	-0.15880981
243	0x3e62fdd1	0.22167136
244	0x3e2a0531	0.16603543
245	0x3eaf255e	0.34208196
246	0x3cda8b27	0.026677681
247	0x3e7d2526	0.24721202
248	0x3eb613c8	0.35561967
249	0xbdc64c93	-0.09682574
250	0xbda1eb3f	-0.07906198
251	0xbe9d8922	-0.30768687
252	0xbe7438a4	-0.23849732
253	0x3f23d9da	0.6400429
254	0xbeb14351	-0.3462167
255	0x3da09266	0.07840423

encoder.input_net.0.bias f4 [64]
0	0x3d56ae72	0.052412458
1	0xbe8cb8b2	-0.2748466
2	0x3d839a4a	0.06425913
3	0xbd832ffb	-0.06405636
4	0x3d63e631	0.05563945
5	0x3caf4334	0.02139435
6	0xbde5a7ba	-0.11213632
7	0xbe3ecd66	-0.18633041
8	0xbbce1f5e	-0.0062903604
9	0xbe81fde0	-0.25389004
10	0xbe913fb7	-0.28368923
11	0xbdc1b58b	-0.09458455
12	0x3da8a6ac	0.08234915
13	0xbebbb376	-0.36660355
14	0xbdf4d137	-0.11953967
15	0xbe0e7119	-0.13910331
16	0x3e440c10	0.19145226
17	0xbe4a8698	-0.19777906
18	0x3de37266	0.11105804
19	0xbebf9ba2	-0.37423426
20	0xbe1fcfac	-0.15606564
21	0x3e2d2f97	0.16912685
22	0xbeb52ee5	-0.3538734
23	0x3e82e722	0.25566965
24	0x3e642021	0.22277881
25	0x3e3ba413	0.18324308
26	0x3de30fcc	0.110869974
27	0xbe5cfc6b	-0.21580665
28	0xbe9ff786	-0.31243533
29	0x3e02a732	0.12759092
30	0x3e8b79e9	0.27241448
31	0x3df94ca0	0.12172818
32	0xbea4b570	-0.32169676
33	0x3eda455b	0.4263104
34	0xbe844c5a	-0.25839502
35	0xbebba20a	-0.36647063
36	0x3e5c1ad9	0.21494617
37	0xbea10885	-0.31451812
38	0x3b7f9787	0.003900023
39	0xbeaf7b45	-0.34273735
40	0xbe29ee36	-0.16594777
41	0xbe40357f	-0.18770407
42	0xbebc9321	-0.36831
43	0xbe7dd985	-0.24790008
44	0x3e59cb75	0.21269019
45	0xbbd9dc0e	-0.006648547
46	0x3eb01dec	0.3439783
47	0x3ed6f8d1	0.41986707
48	0xbea4f9fe	-0.3222198
49	0x3e15ac0b	0.1461641
50	0x3e4b2d41	0.19841482
51	0xbe6c28e5	-0.23062475
52	0xbda19390	-0.078894734
53	0x3d0d6247	0.034517553
54	0xbe053295	-0.13007577
55	0x3e361c9d	0.17784353
56	0xbe9e188b	-0.308781
57	0xbe84e2a8	-0.25954175
58	0x3e16d828	0.14730895
59	0xbe5f9e5b	-0.21837752
60	0xbe7c76b9	-0.24654664
61	0xbeb3c7aa	-0.3511327
62	0xbeb82c29	-0.35971192
63	0x3d2bc837	0.041938987

encoder.message_net.0.0.weight f4 [64, 64]
0	0xba1a75a6	-0.0005892165
1	0xbd9b8bb3	-0.07595005
2	0x3e227915	0.15866502
3	0xbe4d85c4	-0.20070559
4	0xbc9db050	-0.019249111
5	0xbda51265	-0.08060149
6	0xbdc77943	-0.09739926
7	0xbd8026bf	-0.0625739
8	0xbcdc0e2c	-0.026862226
9	0x3b6e0640	0.0036319643
10	0xbdde1a6c	-0.10844883
11	0xbcc9bbff	-0.024625776
12	0xbe350e6d	-0.17681284
13	0xbd7f7e48	-0.06237629
14	0xbcf80b8e	-0.030278947
15	0xbe063e55	-0.13109715
16	0xbe0e8df4	-0.13921338
17	0xbc9de99e	-0.019276436
18	0xbe6895fd	-0.22713466
19	0xbdc56064	-0.09637526
20	0xbd6a5a78	-0.057215184
21	0xbd24fb5c	-0.040278777
22	0x3dddd062	0.108307615
23	0x3c99194c	0.01868882
24	0x3e091051	0.1338513
25	0x3d861fe1	0.06549049
26	0xbd91021d	-0.07080481
27	0x3c496530	0.012292191
28	0x3e43f3ce	0.19135973
29	0x3dd27e38	0.102779806
30	0xbd625d82	-0.055264957
31	0xbdaf91a9	-0.08572704
32	0xbd1efb3d	-0.03881382
33	0xbd638ec5	-0.055556078
34	0x3de8b26c	0.11362156
35	0xbe11f417	-0.14253269
36	0x3ca53da9	0.020171003
37	0x3d93ab32	0.07210387
38	0x3e3305aa	0.1748263
39	0x3d956d4a	0.07296236
40	0xba376122	-0.000699537
41	0xbd1455a8	-0.0362145
42	0xbdee7ec6	-0.11645274
43	0xbdc7ef22	-0.09762408
44	0xbe5c56d1	-0.21517493
45	0x3d9d7298	0.07687873
46	0xbeb58dcd	-0.35459748
47	0xbdb1385a	-0.08653326
48	0xbd0838b0	-0.033257186
49	0xbe5f4e3a	-0.21807185
50	0xbdf34cfe	-0.118799195
51	0xbe7f414e	-0.24927256
52	0xbd99dfb5	-0.07513372
53	0xbe2c7e3f	-0.16845034
54	0x3e251899	0.16122665
55	0xbd8a969e	-0.06767009
56	0xbd7597d4	-0.059959248
57	0xbdaa1ee4	-0.08306673
58	0xbcd16164	-0.025559135
59	0x3e3987b9	0.1811818
60	0xbdfae6c2	-0.12251045
61	0xbdfe93a2	-0.124305025
62	0xbdbd8a04	-0.0925484
63	0xbe9959fd	-0.29951468
64	0xbdff9eb6	-0.124814436
65	0xbd81bfd8	-0.063354194
66	0x3defb778	0.11704916
67	0xbd7e86bc	-0.06214021
68	0xbc0d06f0	-0.008607611
69	0xbddbbafe	-0.10729025
70	0xbdcad654	-0.09904161
71	0x3d19f664	0.037588492
72	0xbd03a700	-0.032141685
73	0xbdb7e8d2	-0.08979954
74	0x3dfb65ae	0.12275253
75	0xbddc9358	-0.10770291
76	0xbd9f8358	-0.07788724
77	0xbdf6cc44	-0.12050679
78	0x3db1caf2	0.08681287
79	0xbd9a9f90	-0.075499654
80	0xbdbef2f8	-0.09323686
81	0x3dbe5630	0.09293783
82	0xbc70fca0	-0.014708668
83	0xbcaf5758	-0.021403953
84	0x3de5232c	0.11188349
85	0xbc072060	-0.008247465
86	0x3b99c360	0.00469248
87	0xbdac59a0	-0.08415532
88	0x3d10b1e4	0.0353259
89	0xbd739fc8	-0.05947855
90	0x3dd79626	0.105266854
91	0x3da7a8fe	0.081865296
92	0x3d19299c	0.037393197
93	0xbdaed5c4	-0.08536866
94	0x3dac188a	0.08403118
95	0x3dbcf548	0.09226471
96	0x3da4d3a0	0.08048177
97	0xbdf48bc0	-0.11940718
98	0xbd30ad60	-0.043134093
99	0xbd7eebec	-0.06223671
100	0xbb5d46c0	-0.0033764094
101	0x3dcf0a5c	0.10109398
102	0xbdc2dbde	-0.095145926
103	0x3d352890	0.044228137
104	0xbd490654	-0.0490783
105	0xbdb5ec00	-0.08882904
106	0xbde18008	-0.11010748
107	0xbcf624d0	-0.03004685
108	0x3d90a11e	0.07061981
109	0x3d49a820	0.049232602
110	0xbdd16674	-0.102246195
111	0x3d8b9d6a	0.06817134
112	0xbddeea64	-0.1088455
113	0x3d4df99c	0.050286874
114	0xbd2175ac	-0.03941886
115	0xbd789528	-0.06068912
116	0x3d806c94	0.0627071
117	0xbd3f0830	-0.046638668
118	0xbdca191a	-0.09868069
119	0x3dc9b7ec	0.098495334
120	0xbd349064	-0.044083014
121	0xbdf39068	-0.11892778
122	0x3d8606a2	0.06544234
123	0x3d0c3b48	0.034236223
124	0xbce77980	-0.028256178
125	0x3d6c6ab4	0.057718948
126	0xbddaa9be	-0.10676907
127	0x3d14d79c	0.036338434
128	0x3d0f9ec7	0.03506353
129	0xbdb06f35	-0.08614961
130	0xbe836d87	-0.256695
131	0x3e1d1a42	0.15342048
132	0xbd4eb7b2	-0.050468154
133	0xbc3480da	-0.011017049
134	0x3cbb82e6	0.022889566
135	0xbdba9a76	-0.09111492
136	0x3db13076	0.08651821
137	0xbbe87013	-0.0070934384
138	0x3dafbd90	0.08581078
139	0xbd88e8fa	-0.06685062
140	0x3d884ba3	0.066550516
141	0xbd944286	-0.07239251
142	0x3e1c1990	0.15244126
143	0x3e08d040	0.13360691
144	0x3e2e653b	0.17030804
145	0xbe094819	-0.1340641
146	0xbda0d28c	-0.07852659
147	0xbcf6c800	-0.030124664
148	0xbd2b13ce	-0.041766934
149	0xbcc728f3	-0.024311518
150	0xbdc000f2	-0.0937518
151	0xbdb500f2	-0.08838071
152	0x3e35b923	0.17746405
153	0xbca97e17	-0.020690007
154	0x3e38a56c	0.18031853
155	0x3de2dcc6	0.110772654
156	0x3d8131b5	0.06308309
157	0xbbfb737b	-0.0076736785
158	0xbdb08a4d	-0.08620129
159	0x3e28fb54	0.16502124
160	0xbe02aa2f	-0.12760232
161	0x3d78247b	0.060581665
162	0x3d590f8d	0.052993346
163	0x3e1998ff	0.1499977
164	0xbcb1952b	-0.021677574
165	0xbdbf1cb0	-0.093316436
166	0xbd45b0b4	-0.04826422
167	0xbddaf4db	-0.10691234
168	0x3d3adc11	0.045620028
169	0xbe36883f	-0.17825411
170	0xbb8aab20	-0.0042318255
171	0xbd2641c8	-0.040590078
172	0x3e21b1aa	0.1579043
173	0xbe9459d8	-0.28974795
174	0x3e20e697	0.15712963
175	0x3e33d53b	0.1756181
176	0xbdfa1f7a	-0.12213035
177	0x3e304163	0.17212443
178	0x3e162442	0.14662269
179	0x3d90482c	0.07045016
180	0x3dd7609d	0.105164744
181	0xbe25602e	-0.16149971
182	0xbe37b461	-0.17939903
183	0x3e536a0f	0.20645927
184	0x3dbdd0eb	0.092683636
185	0xbcdaa7ac	-0.02669128
186	0x3dbe4645	0.092907466
187	0xbe314c55	-0.17314275
188	0x3dd25648	0.10270363
189	0xbcf1d390	-0.029519826
190	0x3dc2bada	0.09508295
191	0xbd6e1d8f	-0.058133658
192	0x3d4f087b	0.050545197
193	0xbd9afeda	-0.0756814
194	0xbe1b042e	-0.15138313
195	0x3c58650f	0.013207688
196	0x3d1c0da5	0.03809895
197	0xbc88b7c2	-0.016689185
198	0xbd72b9b4	-0.05925913
199	0x3ce9c69e	0.02853709
200	0xbb1fea39	-0.0024401082
201	0xbdd5ef1b	-0.104459964
202	0xbc9d41d8	-0.019196436
203	0xbdbf3797	-0.09336775
204	0xbe070e05	-0.13188942
205	0xbde1054e	-0.1098734
206	0x3d647148	0.055772096
207	0xbe004b13	-0.12528639
208	0x3a2cd5fa	0.0006593164
209	0xbdf57c75	-0.11986629
210	0xbe0a537c	-0.1350841
211	0xbd712928	-0.05887714
212	0x3de7e479	0.113228746
213	0x3cac0d8e	0.021002557
214	0xbd722958	-0.05912146
215	0x3d77d58d	0.060506392
216	0xbcebbebc	-0.028777473
217	0x3d84dd7a	0.06487556
218	0x3c06a54e	0.008218123
219	0xbdeea7ae	-0.11653076
220	0x3ca5ac02	0.020223621
221	0xbcd664c4	-0.026171096
222	0xbd740baf	-0.059581455
223	0x3d3ba638	0.045812815
224	0xbc930ed7	-0.017951412
225	0xbd780374	-0.06055017
226	0xbcac1ac6	-0.02100886
227	0xbd430ee8	-0.047621638
228	0xbca7224c	-0.020402096
229	0xbdbf793c	-0.093492955
230	0xbe0ae3a6	-0.13563403
231	0x3cbc9580	0.023020506
232	0xbcf96028	-0.030441359
233	0x3c2770b5	0.010219743
234	0x3d9e3654	0.07725206
235	0xbdd1d480	-0.10245609
236	0xbd7ddee2	-0.061980136
237	0x3dd6cb4c	0.104879946
238	0x3d6d0a80	0.05787134
239	0x3d934de3	0.0719259
240	0xbd2d4100	-0.042298317
241	0xbdb5396e	-0.088488445
242	0x3c0dd090	0.008655682
243	0xbdc26777	-0.094923906
244	0xbc3d298d	-0.011545551
245	0xbdb777d6	-0.08958404
246	0x3daccfd8	0.084380805
247	0xbd130b38	-0.03589937
248	0x3de5948a	0.11209972
249	0xbdbb9dd8	-0.09160966
250	0xbd75f602	-0.060049064
251	0xbd172ab4	-0.03690596
252	0x3c4b13e0	0.012394875
253	0xbd925122	-0.07144381
254	0x3de332be	0.11093663
255	0x3d22ecd0	0.039776623

encoder.message_net.0.0.bias f4 [64]
0	0x3e479e07	0.19493876
1	0xbd29000c	-0.04125981
2	0xbc321731	-0.010869787
3	0xbe15fcf4	-0.14647275
4	0xbdc79e8f	-0.097470395
5	0x3e1187ee	0.1421201
6	0xbc440643	-0.011964384
7	0x3cd0dd04	0.025496013
8	0x3d3037f1	0.0430221
9	0xbddb156e	-0.10697447
10	0x3c867338	0.016412362
11	0xbdfcd099	-0.12344474
12	0xbd3f6a8e	-0.046732478
13	0xbdf4a132	-0.11944808
14	0x3db9a3b7	0.09064429
15	0x3d657dd5	0.056028206
16	0x3e6f8f25	0.23394449
17	0xbe1c699e	-0.15274665
18	0x3e3a3563	0.18184428
19	0x3de80efb	0.11330982
20	0xbba4751a	-0.0050188424
21	0x3db2d116	0.08731286
22	0xbd848e15	-0.064724125
23	0x3e30c060	0.17260885
24	0x3d3ba329	0.0458099
25	0xbbc653cb	-0.0060524694
26	0xbdcbd04c	-0.09951839
27	0xbda297e4	-0.07939127
28	0x3d2fdf3e	0.04293751
29	0xbe105900	-0.14096451
30	0xbdd71338	-0.105017126
31	0x3db0d178	0.08633703
32	0x3d80f04d	0.06295834
33	0xbdd97bda	-0.10619326
34	0x3e53faaf	0.20701097
35	0xbda56b12	-0.08077063
36	0xbe04b7a8	-0.12960684
37	0x3b75ef20	0.0037526563
38	0xbdb017d8	-0.08598298
39	0x3d2135b0	0.03935784
40	0x3d64f7c6	0.055900358
41	0xbbfcbb7c	-0.0077127796
42	0xbd77921c	-0.060442075
43	0xbc8fc6c9	-0.017550843
44	0x3dd2d17f	0.102938645
45	0xbc7c71e5	-0.015408014
46	0xbd9c455c	-0.07630417
47	0xbd3d0d9e	-0.046155564
48	0xbd89a5db	-0.067210875
49	0x3dce5468	0.10074693
50	0xbe204587	-0.15651523
51	0x3d2ed3cb	0.04268245
52	0xb8f19d46	-0.0001152107
53	0x3e20a923	0.1568952
54	0xbdcbd4ac	-0.09952673
55	0xbcad511b	-0.021156838
56	0xbb730db9	-0.0037087037
57	0x3e50b37b	0.20380966
58	0x3e664bbc	0.22489828
59	0xbded3d3c	-0.11583945
60	0xbc13322e	-0.008984132
61	0xbde4999f	-0.111621134
62	0xbd68eaf8	-0.05686471
63	0x3e37ff25	0.17968424

encoder.message_net.1.0.weight f4 [64, 64]
0	0xbd894978	-0.06703466
1	0xbda931b2	-0.08261432
2	0xba97df43	-0.0011586923
3	0x3d18ef88	0.03733781
4	0x3d9f4538	0.07776874
5	0xbd21baac	-0.039484665
6	0x3dd76102	0.1051655
7	0x3d1b541b	0.037922006
8	0xbc6976e3	-0.014249536
9	0xbdb6674a	-0.089064196
10	0x3df89557	0.12137859
11	0x3df754e4	0.120767385
12	0xbdf26feb	-0.11837753
13	0x3cfae113	0.030624902
14	0xbdfb4508	-0.12269026
15	0xbdc89dd3	-0.097957276
16	0x3dcb5794	0.099288136
17	0x3dd1b0f1	0.10238827
18	0x3dc0fa50	0.09422743
19	0x3d0a268b	0.033728164
20	0xbe18f911	-0.14938761
21	0x3bd24436	0.006416823
22	0xbcaf46b7	-0.021396024
23	0xbdb66b8c	-0.08907232
24	0xbd618df8	-0.055067033
25	0xbe12310e	-0.14276525
26	0x3e0ff1d6	0.14057097
27	0x3bd8519d	0.006601526
28	0x3d3ed60f	0.04659086
29	0x3ca77a4a	0.020444054
30	0x3c42fa8a	0.0119005535
31	0x3c3d7584	0.011563662
32	0x3dd9dd2c	0.10637888
33	0xbdefbb91	-0.11705697
34	0xbdbe59d0	-0.09294474
35	0x3dbb316a	0.09140284
36	0x3df2de02	0.11858751
37	0xbd493a82	-0.049128063
38	0xbd7e8a55	-0.062143642
39	0x3e14fa44	0.14548594
40	0xbd371088	-0.0446935
41	0x3cd68d52	0.026190434
42	0x3e01b35a	0.12666073
43	0xbcdfab01	-0.02730322
44	0x3ce08b14	0.027410068
45	0x3d3ea022	0.046539433
46	0xbd38e682	-0.045141704
47	0x3c982dcf	0.01857653
48	0x3d85c441	0.06531573
49	0xbd0c100a	-0.034194984
50	0x3c81e2db	0.015855243
51	0x3d869934	0.0657219
52	0x3cdca4dc	0.02693408
53	0xbc58d662	-0.013234707
54	0x3cfb14ba	0.030649532
55	0xbde14a20	-0.11000466
56	0x3d08fa5e	0.033441894
57	0x3d9b09f8	0.07570261
58	0xbdb5cb10	-0.08876622
59	0xbda1c3ff	-0.078987114
60	0xbdee4916	-0.11635034
61	0xbdccfab4	-0.10008755
62	0xbdc8856e	-0.09791075
63	0x3d0bcec7	0.034132745
64	0xbdf2b455	-0.11850802
65	0xbd392b44	-0.045207277
66	0xbce0b2c8	-0.027429
67	0x3ce08569	0.027407365
68	0x3b5d9798	0.003381228
69	0xbd32addc	-0.043622836
70	0xbd16b376	-0.03679224
71	0xbe1bc984	-0.15213591
72	0xbdfec43e	-0.12439774
73	0xbdde8e9c	-0.10867044
74	0x3c4ac728	0.012376584
75	0x3c93853e	0.01800787
76	0xbd873d69	-0.0660351
77	0x3d2f4f97	0.042800512
78	0xbe2af61a	-0.16695443
79	0x3dcd8273	0.10034647
80	0x3d51dd8b	0.05123667
81	0xbd97a482	-0.07404424
82	0xbdb8596c	-0.09001431
83	0x3c010404	0.007874493
84	0xbdf7fe75	-0.12109081
85	0x3c9c79d1	0.019101055
86	0x3e0f15ae	0.13973114
87	0x3cfb041e	0.030641612
88	0xbd65041b	-0.05591212
89	0xbd311c9f	-0.043240186
90	0xbdc79267	-0.09744721
91	0x3c245f8d	0.010032547
92	0xbdcad60f	-0.0990411
93	0xbe395dab	-0.18102138
94	0xbdc58557	-0.09644573
95	0xbd94417b	-0.07239052
96	0x3cf4a1c1	0.029862287
97	0xbdd19857	-0.10234135
98	0xbc26b727	-0.010175503
99	0xbd1df422	-0.0385629
100	0xbd64228e	-0.055697016
101	0xbd8e17fd	-0.06938169
102	0xbd106c89	-0.035259757
103	0xbd92b758	-0.07163876
104	0x3c732c99	0.014842176
105	0xbbd902ce	-0.006622649
106	0x3d0dce7f	0.03462076
107	0xbd1cd4fc	-0.038289055
108	0xbe2ce411	-0.16883875
109	0x3e3f5850	0.18686032
110	0xbd96ec4e	-0.0736929
111	0xbb81d599	-0.0039622304
112	0x3d7c3319	0.061572168
113	0x3dee2980	0.11629009
114	0x3d4bf2c2	0.04979206
115	0x3dbfd036	0.09365885
116	0xbd68f91b	-0.05687819
117	0x3c826ae7	0.015920116
118	0xbd956d9f	-0.07296299
119	0xbe6d8a82	-0.23197368
120	0xbdaf7c94	-0.08568683
121	0x3dc18d68	0.09450799
122	0xbd60965b	-0.05483089
123	0xbe509d82	-0.20372584
124	0xbb97f930	-0.0046378598
125	0xbe1e4682	-0.15456584
126	0xbd571f82	-0.052520283
127	0x3c030c09	0.007998475
128	0x3b523e0c	0.003208044
129	0xbe52831c	-0.20557827
130	0x3e602b3c	0.21891493
131	0x3e2602aa	0.16211954
132	0xbd0c25c9	-0.034215722
133	0xbdd11f64	-0.102110654
134	0x3d266482	0.040623195
135	0xbe95ec42	-0.29281813
136	0xbce0b31d	-0.027429158
137	0xbd8ebd89	-0.06969745
138	0xbe64243e	-0.2227945
139	0xbcee3b3c	-0.02908098
140	0xbe14dc54	-0.14537174
141	0xbe0679e6	-0.13132438
142	0xbd0a71cf	-0.033799943
143	0x3d506df2	0.050886102
144	0x3dca83ba	0.09888406
145	0x3d234a78	0.03986594
146	0x3e7a1ed6	0.24425825
147	0x3dacf75e	0.08445619
148	0xbed1834a	-0.40920478
149	0x3e097df3	0.13426952
150	0x3e0423a3	0.1290422
151	0xbe7c966b	-0.24666755
152	0x3d212dbb	0.039350253
153	0xbdad64c2	-0.08466484
154	0xbd4bf0fa	-0.04979036
155	0xbd48e6c9	-0.04904822
156	0x3bde5aac	0.0067857113
157	0xbefadb29	-0.4899533
158	0x3d13962d	0.03603189
159	0xbcbfec0c	-0.023427986
160	0xbdee6e95	-0.116421856
161	0xbebdc1fb	-0.37062058
162	0xbe0eb28a	-0.13935295
163	0xbe2522e9	-0.16126598
164	0x3e20f908	0.15719998
165	0xbee417c8	-0.44549394
166	0xbd1bd174	-0.038041547
167	0xbd98025a	-0.074223235
168	0xbe469573	-0.19392948
169	0xbef358de	-0.47528738
170	0x3e0df760	0.13863897
171	0xbe4e50a7	-0.20147954
172	0xbe94c1df	-0.29054162
173	0x3e2ce656	0.16884741
174	0x3d8c8b92	0.068625584
175	0xbd067288	-0.03282407
176	0x3d6f2c28	0.05839172
177	0x3cd16b7f	0.025563953
178	0x3d08f22c	0.033434078
179	0xbe3590f5	-0.17731078
180	0x3ec9af07	0.39391348
181	0x3e9d60ac	0.30737817
182	0xbe0cd973	-0.13754825
183	0x3d59ad5d	0.053143848
184	0xbe499f1f	-0.19689606
185	0x3efd1221	0.49427894
186	0xbdeea4f2	-0.116525546
187	0xbe84a4fc	-0.25907123
188	0xbe28ad29	-0.16472305
189	0xbbc5ab19	-0.0060323593
190	0xbddf676a	-0.109083965
191	0xbd966db1	-0.07345141
192	0xbe7f5ece	-0.24938509
193	0xbe761bea	-0.24034086
194	0xbda47290	-0.080296636
195	0x3de15593	0.1100265
196	0xbe5b0815	-0.21389802
197	0x3f06ca61	0.52652556
198	0x3e9ace32	0.3023544
199	0xbce26fba	-0.027641166
200	0xbc903db5	-0.01760755
201	0x3de54f7c	0.11196801
202	0xbd53bc65	-0.05169334
203	0x3d57bbc6	0.05266931
204	0x3ebefb0c	0.3730091
205	0x3e168d41	0.14702322
206	0x3dfcc31b	0.12341901
207	0x3e092ffe	0.13397214
208	0xbc61452d	-0.013749403
209	0x3d0caa86	0.03434231
210	0x3e692f5a	0.2277197
211	0xbccb7eb0	-0.024840683
212	0x39fcb889	0.00048202675
213	0xbdd6bbcf	-0.104850404
214	0xbd0fc473	-0.035099458
215	0xbe8a7f40	-0.2705021
216	0xbe024bfb	-0.12724297
217	0x3d6d02e9	0.057864103
218	0xbd9cf641	-0.07664157
219	0xbe462922	-0.19351628
220	0xbe39fd58	-0.18163049
221	0xbe73df1d	-0.2381558
222	0xbbcad087	-0.006189409
223	0xbd8a3ab8	-0.06749481
224	0xbe886b3d	-0.26644316
225	0x3e52a744	0.2057162
226	0xbe7155f4	-0.23567945
227	0xbd4fb335	-0.050708015
228	0x3f022c24	0.50848603
229	0xbecc0469	-0.39847115
230	0xbd14a7ae	-0.036292724
231	0xbe7502c6	-0.23926839
232	0xbda1034e	-0.078619584
233	0xbe0e7d53	-0.13914995
234	0x3d9d58a6	0.07682924
235	0xbdf0a62c	-0.11750445
236	0xbe3dc858	-0.18533456
237	0xbdfa6488	-0.12226206
238	0x3eaa6aa5	0.33284488
239	0x3cd163a8	0.025560215
240	0x3c2d6ea6	0.010585463
241	0x3eb4f571	0.35343507
242	0x3e0aebe8	0.13566554
243	0x3e33a079	0.17541684
244	0x3e5d7141	0.21625234
245	0x3e57aa1e	0.21060988
246	0xbe55b79f	-0.20870827
247	0x3e3245e5	0.17409475
248	0xbd3c0388	-0.045901805
249	0x3e34ab8d	0.17643566
250	0x3b5d2504	0.0033743987
251	0xbe6e0c5b	-0.232469
252	0xbe403fff	-0.18774413
253	0xbe96e9dd	-0.294753
254	0xbe229872	-0.15878466
255	0x3e6a92c0	0.22907543

encoder.message_net.1.0.bias f4 [64]
0	0xbe18ce7a	-0.14922515
1	0xbe1795a2	-0.14803174
2	0xbe5f5cdc	-0.21812767
3	0xbe394146	-0.18091306
4	0xbd921d36	-0.07134478
5	0x3d8261f9	0.06366343
6	0xbe560137	-0.20898901
7	0xbd72d308	-0.059283286
8	0xbde2c97b	-0.110735856
9	0xbde9555f	-0.11393236
10	0xbe33bf00	-0.1755333
11	0xbd1dda4f	-0.038538273
12	0xbe2723ee	-0.163223
13	0xbe59b4ff	-0.21260451
14	0xbe41157e	-0.18855855
15	0xbda23709	-0.079206534
16	0xbdb73b4e	-0.08946858
17	0x3dfc82c4	0.12329629
18	0xbdec3cf1	-0.11535061
19	0xbe392d95	-0.18083794
20	0xbdf3572b	-0.1188186
21	0x3e322a16	0.17398867
22	0x3b82146c	0.0039697196
23	0x3d846b5b	0.06465789
24	0xbe00de1c	-0.12584728
25	0xbe403509	-0.18770231
26	0xbd99150f	-0.0747472
27	0xbcb46d96	-0.02202491
28	0xbe772bd3	-0.24137811
29	0xbd8b3a5f	-0.06798243
30	0xbdc33c0c	-0.095329374
31	0x3c5601dd	0.013061968
32	0xbd869015	-0.0657045
33	0xbe2de67c	-0.16982454
34	0xbcdbc8ad	-0.026829088
35	0xbe2a2702	-0.16616443
36	0xbdc2d4e0	-0.09513259
37	0x3e26a1e1	0.1627269
38	0x3cc9a909	0.024616735
39	0xbd87a35b	-0.066229545
40	0xbe24f5f2	-0.16109446
41	0x3d33b0c3	0.043869745
42	0xbd27c56d	-0.040959764
43	0xbd8437e7	-0.06455975
44	0x3dd0a503	0.101877235
45	0xbd8a6605	-0.0675774
46	0xbe18f0e5	-0.14935644
47	0xbe279914	-0.16366988
48	0xbd85686f	-0.0651406
49	0xbe24ec5e	-0.16105792
50	0xbda201a0	-0.07910466
51	0xbe357c68	-0.17723238
52	0xbe1eefda	-0.15521184
53	0xbb817133	-0.003950262
54	0xbda26eeb	-0.07931312
55	0x3d08c6ec	0.03339283
56	0xbe074717	-0.13210712
57	0xbd6c0ef7	-0.05763146
58	0xbd9394ca	-0.07206114
59	0xbdd899e0	-0.10576224
60	0xbe56ca60	-0.20975637
61	0x3daa8a28	0.083271325
62	0x3e07f5a3	0.13277297
63	0xbde5d508	-0.11222273

encoder.message_net.2.0.weight f4 [64, 64]
0	0xbde956e4	-0.11393526
1	0xbecba2ff	-0.39772794
2	0xbe333294	-0.17499763
3	0xbe2feb56	-0.17179617
4	0xbd93a51b	-0.07209226
5	0x3e03a867	0.12857209
6	0xbd201aac	-0.039087936
7	0x3db0ee02	0.086391464
8	0x3e3e1855	0.1856397
9	0xbc11b223	-0.008892569
10	0xbe21266b	-0.15737312
11	0xbe1014c0	-0.14070415
12	0x3d657389	0.056018386
13	0x3cb759ac	0.022381626
14	0x3c8065c8	0.015673533
15	0x3d5243b6	0.051334105
16	0xbcd8920b	-0.026436826
17	0xbd71703e	-0.058944933
18	0xbda1230f	-0.07868015
19	0xbe02a39d	-0.12757726
20	0xbe072cbb	-0.13200657
21	0xbd719d8c	-0.05898814
22	0x3e5efddf	0.21776532
23	0x3d736ff2	0.05943293
24	0x3acf311c	0.0015807482
25	0x3dc5a930	0.096514106
26	0xbe8ff3be	-0.28115648
27	0xbdb37aea	-0.08763678
28	0xbdc3ab68	-0.095541775
29	0xbca86ffc	-0.02056121
30	0xbe0cec14	-0.13761932
31	0xbdcc39da	-0.09971972
32	0x3d4a0327	0.049319413
33	0xbdcbfa11	-0.09959806
34	0xbe2348b1	-0.15945698
35	0xbd9bfa6a	-0.07616122
36	0x3e523d4a	0.20531192
37	0xbcfa04f4	-0.03051994
38	0xbd4af7fb	-0.0495529
39	0xba5709f3	-0.00082030817
40	0x3d520ec1	0.0512836
41	0x3d0193bb	0.031635027
42	0x3e3ebaad	0.18625899
43	0xbd33a666	-0.04385986
44	0x3bab7ff6	0.00523376
45	0x3e108642	0.14113715
46	0xbe0b91f5	-0.13629897
47	0x3d09772f	0.033560928
48	0xbcf487a4	-0.029849835
49	0xbcca55f4	-0.024699189
50	0x3d8697f2	0.0657195
51	0x3deab8bf	0.11461019
52	0xbd919a19	-0.0710947
53	0xbd837f75	-0.06420795
54	0xbd8d16c0	-0.06889105
55	0xbd4cd18b	-0.050004523
56	0xbe611887	-0.21982013
57	0x3dd0487d	0.10170076
58	0x3d012b1d	0.031535257
59	0x3df34d68	0.118799984
60	0xbd84590c	-0.06462297
61	0xbe03e5d1	-0.12880637
62	0x3d86b54d	0.06577549
63	0xbd3afd4e	-0.045651726
64	0x3e1be5df	0.15224408
65	0x3dae6f00	0.08517265
66	0x3e8c8c1d	0.27450648
67	0x3e51d66a	0.20491949
68	0xbd8bc290	-0.06824219
69	0xbdd31f78	-0.103087366
70	0x3d300fe3	0.0429839
71	0x3d074831	0.03302783
72	0xbd0db1f5	-0.03459354
73	0x3dac8c80	0.08425236
74	0x3deec95b	0.11659499
75	0x3ebe9c00	0.37228394
76	0x3d03fd0d	0.03222375
77	0x3c693610	0.014234081
78	0xbde36443	-0.11103108
79	0xbe8bd308	-0.27309442
80	0xbd1d312d	-0.038376976
81	0x3dd97f77	0.10620015
82	0xbcbc3dd8	-0.022978708
83	0x3e14ec33	0.14543228
84	0x3e27ce83	0.16387372
85	0x3da845b7	0.08216422
86	0x3d8809d5	0.066425
87	0x3e01d433	0.12678604
88	0xbe00f289	-0.1259252
89	0x3e267c5f	0.16258381
90	0x3daff881	0.0859232
91	0x3d8fc9ec	0.070209354
92	0xbcd1b90c	-0.025600933
93	0x3d04836b	0.032351892
94	0x3e4975a8	0.19673789
95	0x3e50fd30	0.20409083
96	0xbdf284e5	-0.11841754
97	0xbdac7196	-0.08420102
98	0x3b61e2a7	0.003446737
99	0xbe9c4e09	-0.30528286
100	0xbe2bf4a1	-0.16792537
101	0x3c2e8ceb	0.010653715
102	0x3e063075	0.13104422
103	0x3e2828f4	0.16421872
104	0x3e2ea618	0.17055547
105	0xbe29270e	-0.16518804
106	0x3c1e0956	0.009645781
107	0x3d97b829	0.07408173
108	0x3e856885	0.26056305
109	0x3df167c1	0.117873676
110	0xbced65fa	-0.02897929
111	0xbd1d0bd5	-0.038341362
112	0x3e0f8096	0.14013895
113	0xbe41a383	-0.18910031
114	0x3e69d673	0.22835712
115	0xbe8a1d02	-0.26975256
116	0xbc9f88a9	-0.019474344
117	0xbdc63796	-0.09678571
118	0x3e0aee9e	0.13567588
119	0xbe0c2861	-0.13687278
120	0xbe5a6061	-0.21325828
121	0xbe6ae726	-0.22939739
122	0x3dd06b2f	0.10176694
123	0x3df049a5	0.117327966
124	0xbdaf671a	-0.08564587
125	0x3dc3154e	0.09525548
126	0xbe8ed614	-0.27897704
127	0x3cea2a76	0.0285847
128	0xbdadb76f	-0.08482253
129	0xbcc0c44c	-0.023531102
130	0x3eb3a79a	0.35088807
131	0xbe4df694	-0.20113593
132	0x3e9aa9fd	0.30207816
133	0x3e7939a5	0.24338396
134	0xbd393e86	-0.045225643
135	0xbe97ad26	-0.2962429
136	0x3e427011	0.18988062
137	0xbe5808c5	-0.21097095
138	0xbea32dca	-0.31870872
139	0xbd82d9dd	-0.063892104
140	0xbeb87d07	-0.36032888
141	0xbd76435e	-0.06012284
142	0xbe317122	-0.17328313
143	0xbe9c9991	-0.30585912
144	0xbe3afe8a	-0.18261161
145	0xbebe4bdf	-0.3716726
146	0x3ee18a35	0.44050756
147	0x3e60915c	0.2193045
148	0xbeb43390	-0.3519559
149	0xbc192b2f	-0.009348675
150	0x3e9fe94f	0.31232688
151	0x3eaf12ce	0.34194034
152	0x3e0ab42f	0.13545297
153	0x3e425274	0.18976766
154	0x3cfd92c7	0.030953778
155	0x3e4e4ca9	0.20146431
156	0x3ebd718f	0.370007
157	0xbcf3edff	-0.029776571
158	0xbe1e8136	-0.15478978
159	0x3e850795	0.25982347
160	0x3e2a5610	0.16634393
161	0xbdbd8b3f	-0.09255075
162	0xbd77d0e1	-0.060501937
163	0xbe54fbc2	-0.20799163
164	0x3bbfb003	0.0058498397
165	0xbed8e9e3	-0.4236594
166	0x3e7865cf	0.24257587
167	0x3daa9a7d	0.083302476
168	0xbd0ddf27	-0.034636643
169	0xbd637835	-0.05553456
170	0x3e5c9dcb	0.21544568
171	0xbe1a97ce	-0.15096971
172	0x3e0ef8d3	0.13962106
173	0x3e9fd752	0.31218964
174	0xbeb40b8b	-0.35165057
175	0xbe2338cb	-0.15939634
176	0x3ebb90a3	0.36633787
177	0x3cbf4104	0.023346432
178	0xbdee90c0	-0.116487026
179	0x3dc25cad	0.09490333
180	0x3d50c250	0.05096656
181	0x3e279220	0.16364336
182	0x3e0e19ec	0.13877076
183	0xbec2a4bb	-0.38016304
184	0x3d077e31	0.03307933
185	0x3eac9349	0.3370612
186	0xbe6fc0e9	-0.23413433
187	0xbe67a4ab	-0.2262141
188	0x3cc94864	0.024570651
189	0x3bea365e	0.0071475944
190	0xbdd028d9	-0.10164041
191	0xbd360ab9	-0.04444382
192	0xbda10391	-0.07862008
193	0xbe2168c6	-0.15762624
194	0xbdad7616	-0.08469789
195	0x3c8883ad	0.01666435
196	0x3d85e2ee	0.06537424
197	0x3de8323f	0.11337709
198	0xbcb0bf0b	-0.021575471
199	0xbe1caf9b	-0.15301363
200	0x3d22b012	0.039718695
201	0x3cb4002e	0.021972742
202	0xba97e5c2	-0.0011588859
203	0x3d2a79fa	0.041620232
204	0x3d9abc1c	0.0755541
205	0x3d9b9140	0.075960636
206	0x3e28698b	0.16446511
207	0xbd65d5e0	-0.05611217
208	0xbd9ee9dd	-0.0775945
209	0x3b276398	0.002554154
210	0xbd2e900d	-0.042617846
211	0x3c5c4f68	0.013446666
212	0xbdcb39b6	-0.09923117
213	0xbd0cf924	-0.034417287
214	0x3dc81b00	0.09770775
215	0xbde81719	-0.113325305
216	0xbdc2ed3d	-0.09517906
217	0x3dbd181a	0.09233113
218	0xbdac839d	-0.08423541
219	0x3d0a4b11	0.033762995
220	0xbd879591	-0.066203244
221	0xbd7506d1	-0.059820954
222	0xbd2c794b	-0.04210786
223	0xbc935df1	-0.01798913
224	0x3d321774	0.043479398
225	0xbde02dc2	-0.109462276
226	0xbd68a1a3	-0.056794774
227	0xbe04c72f	-0.12966608
228	0xbdc395ed	-0.095500804
229	0xbd255fab	-0.04037444
230	0xbd226d48	-0.039655
231	0x3e09929a	0.1343483
232	0xbe00ed39	-0.12590493
233	0xbe12176e	-0.1426675
234	0x3d377bca	0.04479579
235	0xbd9cf0c7	-0.07663112
236	0xbc2b32ac	-0.010449093
237	0xbd7d9bb3	-0.061916064
238	0xbe026dfe	-0.12737271
239	0x3c958012	0.018249545
240	0xbd060a4e	-0.03272467
241	0x3cb7de1f	0.022444783
242	0xbdcdfc19	-0.100578494
243	0x3e2951e4	0.16535145
244	0xbd53e0b9	-0.051727984
245	0x3dc82f3b	0.097746335
246	0x3d20521d	0.03914081
247	0xbe00a1b9	-0.12561692
248	0x3dd4c9c9	0.1039005
249	0x3e0e4abf	0.13895701
250	0xbd78afe7	-0.06071463
251	0xbe1965b8	-0.14980209
252	0xbda4996c	-0.080370754
253	0x3c45df8d	0.012077224
254	0xbd10c866	-0.035347365
255	0x3cc0e60d	0.023547197

encoder.message_net.2.0.bias f4 [64]
0	0xbe4c8862	-0.19973901
1	0x3dfd815f	0.12378191
2	0xbdb5a4cc	-0.08869323
3	0xbdb3780a	-0.0876313
4	0xbe4cca14	-0.19998962
5	0xbe1ad613	-0.15120725
6	0xbcdcd87a	-0.026958693
7	0x3d14ca89	0.036325965
8	0xbdf97fc1	-0.1218257
9	0xbda51e83	-0.0806246
10	0xbe11993c	-0.1421861
11	0xbdd6c658	-0.1048705
12	0xbdd17cbd	-0.1022887
13	0xbd60893d	-0.05481838
14	0xbdcc6968	-0.09981042
15	0xbd0a889a	-0.03382168
16	0xbe0b69e9	-0.1361462
17	0x3db342ac	0.08752951
18	0xbe70894c	-0.23489875
19	0xbe0089c2	-0.1255255
20	0xbe109387	-0.14118777
21	0xbe0ce8da	-0.13760701
22	0xbdf7e9d9	-0.1210515
23	0x3ded2ad2	0.11580433
24	0xbddac7f0	-0.10682666
25	0xbdbba34b	-0.09162005
26	0xbe38286c	-0.1798417
27	0xbe3a4854	-0.18191653
28	0xbe2ea01d	-0.17053266
29	0xbe1d2a5d	-0.15348192
30	0xbe7011f5	-0.2344435
31	0xbe59e0cd	-0.21277161
32	0xbe15828c	-0.14600581
33	0xbde096e4	-0.1096628
34	0x3e17e888	0.14834797
35	0xbe1960a7	-0.14978276
36	0xbd34d66c	-0.0441498
37	0xbe4e62ed	-0.20154925
38	0xbe324d55	-0.17412312
39	0xbdb219eb	-0.0869635
40	0xbcf5a620	-0.029986441
41	0xbdf4e6e7	-0.119581036
42	0x3dcbbeaa	0.09948476
43	0xbdd2758c	-0.102763265
44	0x3d12b5a4	0.035817757
45	0xbdd5bbf3	-0.10436239
46	0xbd813a69	-0.06309969
47	0xbe243874	-0.1603716
48	0xbe41192e	-0.18857262
49	0xbe4ac55f	-0.19801854
50	0xbdcb9ca7	-0.099419884
51	0x3b207f6f	0.002449002
52	0xbded4b0d	-0.115865804
53	0xbe2af1b9	-0.16693772
54	0xbd21d2b6	-0.03950759
55	0xbda0eefa	-0.07858081
56	0x3d77e88a	0.0605245
57	0xbe1818a8	-0.14853156
58	0xbe7ed11c	-0.24884456
59	0x3b5202eb	0.0032045196
60	0xbd7db720	-0.06194222
61	0x3cf21c44	0.029554494
62	0xbe45894e	-0.19290659
63	0xbdec1f36	-0.115293905

encoder.message_net.3.0.weight f4 [64, 64]
0	0xbd575b04	-0.052577034
1	0xbe6605f8	-0.22463214
2	0xbe595604	-0.21224219
3	0xbebc769e	-0.36809248
4	0xbdf26981	-0.118365295
5	0x3e82b3b8	0.2552774
6	0x3df796d0	0.12089312
7	0x3dab6fac	0.08370909
8	0xbe641a54	-0.22275668
9	0x3de17988	0.11009508
10	0xbca8145b	-0.020517519
11	0x3e0a8912	0.1352885
12	0x3e94aa4c	0.29036176
13	0xbe3ae0c9	-0.18249811
14	0x3e389b7a	0.1802806
15	0x3e34dd8d	0.1766264
16	0x3d907594	0.07053676
17	0x3e6d09e4	0.23148304
18	0xbe506f67	-0.20354997
19	0x3dd5248d	0.10407362
20	0x3e91f4e4	0.2850715
21	0xbd96eaca	-0.07369001
22	0xbe9da6ec	-0.30791414
23	0xbe191283	-0.14948468
24	0xbe5b76d9	-0.21432056
25	0xbe349acf	-0.1763718
26	0x3d88742d	0.06662784
27	0x3c90a66e	0.017657485
28	0xbe1c168c	-0.15242976
29	0x3e6becf9	0.23039617
30	0xbe2f541b	-0.17121927
31	0xbe17d4be	-0.14827248
32	0xbe23e446	-0.16005048
33	0x3e2d46f9	0.16921605
34	0xbd8c1453	-0.06839814
35	0x3ec6405e	0.38720983
36	0x3ee3c0dc	0.44483078
37	0x3cf2f1fc	0.029656403
38	0xbe0d4762	-0.13796762
39	0xbf0d6064	-0.55225205
40	0xbd7b9dd7	-0.061429825
41	0x3ebc2945	0.36750236
42	0xbdd32d2d	-0.10311351
43	0xbe8c5fbe	-0.27416795
44	0xbe9631c3	-0.2933484
45	0xbe16ff4e	-0.14745829
46	0x3ebc161f	0.36735627
47	0x3ecd9113	0.40149745
48	0xbc05f978	-0.008177154
49	0x3e47e037	0.19519125
50	0x3e800504	0.25003827
51	0x3efcd02f	0.4937758
52	0x3e6ecbcf	0.23319934
53	0xbe1d3ce0	-0.15355253
54	0xbda65e86	-0.08123498
55	0x3ef84c3b	0.4849566
56	0x3d945a31	0.07243765
57	0x3e0c6d97	0.1371368
58	0x3c5ef358	0.013607822
59	0x3e9929a9	0.29914597
60	0xbc96b0ac	-0.01839479
61	0xbef997de	-0.48748678
62	0x3e63267d	0.22182651
63	0x3e6d179e	0.2315354
64	0x3d729d56	0.05923208
65	0xbe40af3c	-0.18816847
66	0x3d9ff399	0.078101344
67	0xbcda1281	-0.026620151
68	0x3da7d349	0.08194596
69	0xbba393ca	-0.004991983
70	0x3d145a10	0.036218703
71	0x3c5604a4	0.01306263
72	0xbd3303d7	-0.043704834
73	0xbc1d35fd	-0.009595391
74	0xbbcaf96e	-0.006194285
75	0x3c351180	0.011051536
76	0xbe076813	-0.13223295
77	0xbcb8af70	-0.022544593
78	0xbcfab0ba	-0.030601848
79	0x3d849dc2	0.064754024
80	0x3c54cb8f	0.012987985
81	0xbcca0b70	-0.024663657
82	0xbd872456	-0.065987274
83	0x3da42fce	0.080169305
84	0x3ca81dd3	0.020522034
85	0x3d2f4d81	0.042798523
86	0xbd684244	-0.05670382
87	0xbd09963f	-0.03359055
88	0x3de4157d	0.11136911
89	0xba3da293	-0.0007234003
90	0xbd9cd908	-0.07658583
91	0x3de037fa	0.10948177
92	0x3cd2fb84	0.025754698
93	0x3daeb512	0.0853063
94	0xbd4a2b37	-0.04935762
95	0x3b990bd0	0.0046705976
96	0x3dc1b3ef	0.09458148
97	0xbd490cfc	-0.04908465
98	0xbe725117	-0.23663746
99	0x3e26896e	0.16263363
100	0xbd64325a	-0.05571208
101	0xbdbd9184	-0.092562705
102	0xbc789550	-0.015172318
103	0x3e198750	0.14993024
104	0xbe313b43	-0.17307763
105	0x3e01c17a	0.12671462
106	0x3e5d5eb9	0.21618165
107	0xbceca4a2	-0.028887097
108	0x3df49539	0.119425245
109	0xbe009c73	-0.1255968
110	0xbd9a2ef3	-0.07528486
111	0xbd1875e6	-0.03722181
112	0x3dee6212	0.11639799
113	0x3daa8bac	0.083274215
114	0x3d80fdef	0.06298434
115	0x3de34ba9	0.110984154
116	0xbd78c015	-0.06073006
117	0x3baf3266	0.005346584
118	0xbe1f909e	-0.15582511
119	0xbe1ce4a3	-0.15321593
120	0x3d524a37	0.051340308
121	0x3e3807f7	0.17971788
122	0xbc9c8b3f	-0.019109366
123	0x3cb8f91f	0.022579728
124	0xbcde6d40	-0.027151704
125	0xbd690f0c	-0.056899115
126	0xbdd6a412	-0.10480513
127	0xbd1171c6	-0.035508893
128	0xbd41a507	-0.047276523
129	0xbe8655a4	-0.26237214
130	0x3d01f3f3	0.03172679
131	0xbba64440	-0.005074054
132	0x3d831901	0.064012535
133	0x3dad0436	0.08448069
134	0x3dce674d	0.10078297
135	0x3e2c9640	0.16854191
136	0x3da639aa	0.08116467
137	0x3cf2b46a	0.029627044
138	0x3d227970	0.039666593
139	0x3dfa1644	0.12211278
140	0xbe13a812	-0.14419582
141	0x3da308f5	0.07960693
142	0xbe031084	-0.12799269
143	0x3e03b05f	0.12860249
144	0x3dcba606	0.09943776
145	0xbe1b1832	-0.15145949
146	0x3d088a5d	0.03333508
147	0x3da765d7	0.08173721
148	0xbd8efa68	-0.06981355
149	0xbe264179	-0.16235913
150	0x3de476c5	0.11155466
151	0x3d882f64	0.06649664
152	0x3c0753a7	0.00825969
153	0x3d06f88a	0.03295187
154	0x3dd4cebd	0.10390995
155	0x3cf95967	0.030438138
156	0x3dce5dde	0.100764975
157	0x3dd66fe3	0.104705594
158	0x3def8c8c	0.11696729
159	0xbdba7401	-0.09104157
160	0x3dbb244d	0.09137783
161	0x3c8e4ec9	0.017371552
162	0xbe30a95e	-0.17252108
163	0xbe20fbd5	-0.15721066
164	0x3dbe5878	0.09294218
165	0xbcd99c86	-0.026563894
166	0xbd9b6be2	-0.075889364
167	0x3c2bdb23	0.010489258
168	0xbccb50fe	-0.024818894
169	0xbbe74252	-0.0070574665
170	0x3cf8d22d	0.030373657
171	0xbd8002cc	-0.062505335
172	0xbe38847c	-0.18019289
173	0xbb43206f	-0.002977397
174	0x3b043dcb	0.0020178433
175	0x3db3b5a0	0.087748766
176	0x3ce9e093	0.028549468
177	0x3d8fd0e4	0.070222646
178	0xbcf84322	-0.030305449
179	0x3b906fde	0.004407867
180	0x3c8d3d73	0.017241215
181	0x3d774c52	0.06037552
182	0xbe35185e	-0.17685077
183	0xbde7623c	-0.112980336
184	0xbe20d824	-0.15707451
185	0x3e110d2c	0.14165181
186	0xbc557cbd	-0.013030228
187	0x3d148a04	0.036264434
188	0xbd2704e2	-0.04077614
189	0xbe1a62ea	-0.15076795
190	0xbe0a8e33	-0.13530807
191	0xbd4fa40d	-0.05069356
192	0x3d8ff40c	0.0702897
193	0xbd98d226	-0.07461958
194	0x3e1708a7	0.14749394
195	0xbe935bec	-0.28781068
196	0x3e032f34	0.12810975
197	0xbdac111d	-0.084017016
198	0x3e86aba3	0.26302823
199	0xbda556e1	-0.080732115
200	0x3d4a3eed	0.049376417
201	0x3e8c593a	0.27411824
202	0x3c398070	0.011322126
203	0x3e11b3ad	0.14228697
204	0xbdf04bac	-0.11733183
205	0xbd0752d4	-0.033037975
206	0x3e20f4aa	0.15718332
207	0x3e11c53b	0.14235394
208	0xbd9ca879	-0.07649321
209	0x3da7e9b9	0.08198876
210	0xbe83b653	-0.2572504
211	0xbe5d64ac	-0.21620435
212	0x3d5ec777	0.054389443
213	0x3d684ffa	0.056716897
214	0xbe6215f9	-0.22078694
215	0x3c04832c	0.008087914
216	0xbe7fd60c	-0.24983996
217	0xbbf4048b	-0.0074468306
218	0xbe91983f	-0.28436467
219	0xbd503b3f	-0.05083775
220	0xbd2a5495	-0.04158457
221	0x3e5d414c	0.2160694
222	0xbe50c48c	-0.20387477
223	0xbe0025f4	-0.12514478
224	0xbe8abeac	-0.27098596
225	0xbd81fbe7	-0.06346875
226	0xbc228477	-0.009919277
227	0x3e365887	0.17807208
228	0xbd1fc1c8	-0.039003164
229	0x3c816aa1	0.015797915
230	0x3d8663b2	0.06561984
231	0xbd2ec8f5	-0.042672116
232	0x3e319f2d	0.17345877
233	0xbe23e31e	-0.16004607
234	0xbdb39ced	-0.087701656
235	0xbe523b87	-0.2053052
236	0xbe51a94e	-0.20474741
237	0x3b78b11f	0.003794737
238	0x3b88926f	0.004167847
239	0xbe40d82f	-0.18832467
240	0xbec69fd1	-0.38793805
241	0x3b37f334	0.0028068544
242	0x3d12a38f	0.035800513
243	0xbd089f5f	-0.033355113
244	0xbe503a6c	-0.20334786
245	0xbe82ca1a	-0.25544816
246	0xbe0373d5	-0.12837155
247	0x3d992b11	0.074789174
248	0x3ebefcdc	0.3730229
249	0x3e120299	0.14258803
250	0x3c793011	0.015209214
251	0xbdc943db	-0.098273955
252	0x3e86388f	0.26215026
253	0xbd6b2cca	-0.05741576
254	0x3e7796a5	0.2417856
255	0x3ea5145f	0.32242104

encoder.message_net.3.0.bias f4 [64]
0	0xbe273359	-0.16328181
1	0xbe35af4f	-0.17742656
2	0xbe85b631	-0.26115564
3	0xbe5b75bd	-0.21431632
4	0xbde39ecb	-0.11114272
5	0xbe17ab11	-0.1481135
6	0x3bee742c	0.0072770324
7	0xbdd7c6c0	-0.105359554
8	0xbe0f1324	-0.13972145
9	0xbc8923f5	-0.016740778
10	0xbe10a0e5	-0.14123876
11	0xbe928440	-0.28616524
12	0xbe3d1a28	-0.18467009
13	0xbe30d2f3	-0.1726797
14	0x3e059387	0.13044558
15	0x3dfe7115	0.124239124
16	0x3ca38986	0.019963037
17	0xbe2d48be	-0.1692228
18	0xbc2f355e	-0.010693876
19	0xbcc13309	-0.023583906
20	0xbe5b3621	-0.21407367
21	0xbe10e5cc	-0.1415016
22	0xbd486d5e	-0.048932426
23	0xbb2ef198	-0.0026694294
24	0x3e0d4a57	0.1379789
25	0xbd09147e	-0.03346681
26	0x3e0f62ab	0.14002483
27	0xbe1088ba	-0.14114657
28	0x3e2855c0	0.16438961
29	0xbe094266	-0.13404235
30	0x3deca6ed	0.11555276
31	0xbe9f180e	-0.3107304
32	0xbe5f2197	-0.21790157
33	0xbe491b77	-0.19639383
34	0xbe5c22b9	-0.2149762
35	0xbdbfc142	-0.09363033
36	0xbe3e37d1	-0.1857598
37	0xbe137eae	-0.14403793
38	0xbead8a23	-0.33894452
39	0x3c2bd23a	0.010487134
40	0xbde68d60	-0.11257434
41	0xbdc83d52	-0.09777321
42	0x3cf214fd	0.029551024
43	0xbe08a966	-0.1334587
44	0xbbbf355c	-0.0058352184
45	0xbdd5362d	-0.10410724
46	0x3e100549	0.14064516
47	0xbcf83a39	-0.0303012
48	0x3c8bcf53	0.017066633
49	0xbe7e07e2	-0.24807695
50	0xbe0efebd	-0.13964362
51	0xbe1243f9	-0.14283742
52	0x3b0d913c	0.002160146
53	0x3caeb547	0.021326674
54	0xbe96fcdb	-0.29489788
55	0xbd09c490	-0.033634722
56	0x3e1b5b0d	0.15171452
57	0x3e7719c1	0.24130918
58	0x3e21fd43	0.15819268
59	0xbc7fe887	-0.015619404
60	0xbe195def	-0.14977239
61	0xbd889d5b	-0.06670638
62	0xbdf0c0dd	-0.11755536
63	0x3cadc1af	0.02121052

encoder.message_net.4.0.weight f4 [64, 64]
0	0xbd8400be	-0.06445454
1	0xbd0be475	-0.03415342
2	0x3d7bd5bf	0.06148314
3	0xbe8d5684	-0.2760507
4	0x3d9f191b	0.0776846
5	0x3dcacaf4	0.099019915
6	0xbdc80c0c	-0.09767923
7	0x3d9a75a8	0.075419724
8	0x3e5afdf0	0.21385932
9	0xbdc72447	-0.09723716
10	0xbd85a8ea	-0.065263584
11	0x3da563ba	0.08075662
12	0x3e035075	0.1282366
13	0x3c8963fe	0.016771313
14	0xbe46beff	-0.19408797
15	0xbe18d453	-0.14924745
16	0xbe0ecfb7	-0.13946424
17	0x3de0b02d	0.10971103
18	0x3ca4353b	0.020044914
19	0xbca0194e	-0.019543316
20	0x3e5dcc3e	0.21659943
21	0xbe66746d	-0.2250535
22	0x3e067c5a	0.13133374
23	0x3d07731f	0.033068772
24	0x3e019978	0.126562
25	0xbbd46c81	-0.0064826612
26	0x3d3d2bd3	0.046184372
27	0x3cd7a6b0	0.0263246
28	0xbe1b7851	-0.15182616
29	0xbddf0932	-0.10890426
30	0xbdcd87d6	-0.10035674
31	0x3de94136	0.11389391
32	0x3e3ba556	0.1832479
33	0xbd9e03d6	-0.077155754
34	0xbd8ba579	-0.06818671
35	0x3e2c3554	0.16817218
36	0x3e16ac82	0.14714244
37	0xbda75005	-0.081695594
38	0x3e8a8f53	0.27062473
39	0xbe659640	-0.22420597
40	0xbe1527fa	-0.14566031
41	0x3e2ecd12	0.17070416
42	0x3e12dbdf	0.14341687
43	0x3ca42960	0.02003926
44	0xbd967a13	-0.073475026
45	0x3d9829ea	0.074298695
46	0xbc27eafb	-0.010248895
47	0xbeb63dc3	-0.35593995
48	0x3e79f522	0.24409917
49	0x3e6c6fc8	0.23089516
50	0x3dd71397	0.10501783
51	0x3e26ab0f	0.16276191
52	0x3ce54029	0.027984696
53	0x3d4f5c8d	0.050625373
54	0x3c8b90ea	0.017036874
55	0x3c301238	0.010746531
56	0xbe16ba6e	-0.14719555
57	0xbcba8c93	-0.02277211
58	0xbd90103b	-0.07034346
59	0x3de9c9c6	0.11415438
60	0x3a8cbc71	0.0010737312
61	0xbe854290	-0.26027346
62	0x3e05f9bc	0.13083547
63	0x3bc3bc9b	0.0059734113
64	0x3e596134	0.21228486
65	0xbdfe8a8f	-0.12428772
66	0x3e4d3788	0.20040715
67	0x3e11bfa7	0.14233266
68	0x3d901d59	0.070368476
69	0xbc9ce255	-0.019150892
70	0x3cca3c75	0.024687031
71	0x3de7d3e2	0.1131971
72	0xbe7bacfa	-0.24577704
73	0xbe6d404d	-0.2316906
74	0xbbb8f63c	-0.005644588
75	0xbdc7188c	-0.09721479
76	0xbe701cdc	-0.23448509
77	0x3dabb9fe	0.083850846
78	0x3e19db49	0.15025057
79	0x3e98b23e	0.29823488
80	0x3e785fed	0.24255343
81	0xbc3a000a	-0.011352548
82	0x3e640477	0.22267328
83	0x3e581fd3	0.2110589
84	0xbe290c0a	-0.16508499
85	0xbd619cce	-0.05508118
86	0x3dd87748	0.10569626
87	0x3e031205	0.12799843
88	0x3e6adcd7	0.22935806
89	0x3ea48d8f	0.3213925
90	0xbda9440e	-0.082649335
91	0xbd6b15e2	-0.057393916
92	0x3e0af94d	0.13571663
93	0xbe4d9f35	-0.20080264
94	0xbc31a87b	-0.0108433915
95	0xbd81f96b	-0.06346401
96	0x3e487d25	0.19578989
97	0xbe8ee622	-0.27909952
98	0xbd64e063	-0.055878054
99	0xbcffb921	-0.031216206
100	0xbc8a7f95	-0.016906539
101	0xbe181958	-0.14853418
102	0xbdbe3456	-0.09287326
103	0xbe0464ac	-0.12929028
104	0x3cdb8136	0.026795011
105	0xbe907a79	-0.2821844
106	0xbdf93f12	-0.12170233
107	0x3ef3ccaa	0.47617084
108	0xbd543ce5	-0.051815886
109	0xbc8d69bd	-0.017262334
110	0xbdce4549	-0.10071809
111	0x3d8dd754	0.06925836
112	0x3e9e3a64	0.30903924
113	0x3c5a464a	0.013322422
114	0xbca39bca	-0.019971747
115	0xbe1cd46d	-0.15315409
116	0x3e5517e5	0.20809896
117	0xbd0218b8	-0.031761855
118	0x3decc1c5	0.11560396
119	0x3e65d11d	0.22443052
120	0x3d7732ed	0.0603513
121	0x3daf24cc	0.0855194
122	0x3dcb702c	0.099335045
123	0xbe56fa7c	-0.2099399
124	0x3d90a2f2	0.07062329
125	0x3ea17a9b	0.31538853
126	0xbe2edf80	-0.17077446
127	0xbe768042	-0.24072364
128	0x3c06c245	0.008225028
129	0x3dbe9028	0.093048394
130	0xbea3fc0e	-0.3202824
131	0x3eef32b0	0.4671836
132	0x3d995fd4	0.07488981
133	0xbdb8eabb	-0.09029146
134	0xbc29da73	-0.010367024
135	0xbe348acf	-0.17631076
136	0xbcff788a	-0.031185407
137	0xbd43c9dd	-0.047799934
138	0xbbc1e859	-0.0059175906
139	0x3d53b67f	0.051687714
140	0x3d91d129	0.07119972
141	0xbc58a50c	-0.013222944
142	0xbda2b9ae	-0.07945572
143	0x3d20bcbf	0.039242502
144	0x3e3e90b1	0.18609883
145	0x3d55b30e	0.052172713
146	0x3d3e6124	0.04647936
147	0xbd5f6bb8	-0.054546088
148	0xbe8ee607	-0.27909872
149	0xbd4601d7	-0.0483416
150	0x3e8d7782	0.2763024
151	0x3daf9bee	0.08574663
152	0xbcdc0aa6	-0.026860546
153	0x3cd2539d	0.025674636
154	0xbd2c0dd1	-0.042005364
155	0xbc70d070	-0.014698133
156	0xbe40b055	-0.18817265
157	0xbc5a28ac	-0.013315361
158	0xbe0fe2a1	-0.14051296
159	0x3e6b6cfa	0.2299079
160	0x3cde9d94	0.027174748
161	0x3c275629	0.010213413
162	0x3e1b2efa	0.15154639
163	0x3cc2884b	0.02374663
164	0xbe2f2ccb	-0.17106931
165	0x3d9c01c7	0.076175265
166	0x3b3cf4c2	0.002883241
167	0x3e1921af	0.14954256
168	0x3dd6892e	0.10475384
169	0xbbbf1f28	-0.0058325715
170	0x3e0cad22	0.1373792
171	0x3da54563	0.08069875
172	0x3bbbeb29	0.0057348204
173	0x3cbb118a	0.022835512
174	0x3d5fb931	0.05461997
175	0x3ca923b6	0.020646911
176	0xbe146920	-0.14493227
177	0x3df1e0af	0.11810433
178	0x3bed2544	0.0072371084
179	0x3acb1343	0.0015493411
180	0xbe0e4904	-0.13895041
181	0xbd92a5f6	-0.07160561
182	0xbdc1c9eb	-0.09462341
183	0xbd6b045e	-0.05737721
184	0x3da24b5d	0.07924531
185	0xbe30eb93	-0.17277364
186	0xbdccfbf9	-0.100089975
187	0xbcf1b667	-0.029505922
188	0xbcc5246a	-0.024065215
189	0x3d9a86ab	0.07545217
190	0x3d811c0f	0.0630418
191	0xbe57b16d	-0.21063776
192	0x3dd26ce2	0.10274674
193	0xbd9471e5	-0.07248286
194	0x3e073ac8	0.13206017
195	0xbe7509ac	-0.23929471
196	0x3e37c85a	0.17947522
197	0x3e32ac4a	0.17448536
198	0xbd885a23	-0.06657817
199	0xbb00dd2a	-0.0019663074
200	0x3df92c38	0.12166637
201	0xbddfcdab	-0.109279
202	0x3d89e007	0.06732183
203	0x3daeada1	0.08529211
204	0xbd4496a1	-0.047995213
205	0x3df1d929	0.11808998
206	0xbe3e6997	-0.18594967
207	0x3d1e9c2b	0.038723152
208	0xbc494c05	-0.012286191
209	0x3def239f	0.11676716
210	0xbc54c2c6	-0.012985891
211	0x3daab279	0.08334822
212	0x3e5761d5	0.21033414
213	0xbdb6b51a	-0.08921261
214	0xbd4a84a7	-0.049442913
215	0x3d46601c	0.0484315
216	0x3de0ebe3	0.10982492
217	0x3cfaed63	0.030630773
218	0xbda82fc8	-0.082122386
219	0x3e50aa5f	0.20377491
220	0x3bc8565b	0.00611381
221	0xbc4564a5	-0.012047921
222	0xbe059fbf	-0.1304922
223	0x3e013d12	0.12620953
224	0xbd925a29	-0.07146103
225	0xbe55b2a0	-0.20868921
226	0xbe090c15	-0.13383515
227	0xbe81272a	-0.25225192
228	0x3e2299bd	0.15878959
229	0xbcd80853	-0.026371157
230	0xbc25d8da	-0.010122502
231	0x3d41d51c	0.047322378
232	0xbd831505	-0.064004935
233	0x3d4b003b	0.049560767
234	0xbdef97e5	-0.116988935
235	0xbac9b074	-0.001538767
236	0x3df03f00	0.11730766
237	0x3e1c61bd	0.15271659
238	0x3d13b8e4	0.036064997
239	0xbd94a75d	-0.072584845
240	0x3b9bbf57	0.004753034
241	0x3d92cb1c	0.07167646
242	0xbc7d04ff	-0.015443086
243	0x3e11895b	0.14212553
244	0x3ebf8bfe	0.37411493
245	0xbc94eee1	-0.018180313
246	0x3c5b886f	0.0133992275
247	0xbca92628	-0.020648077
248	0xbddca014	-0.1077272
249	0x3e17c1a3	0.1481996
250	0x3e2ed8cb	0.17074887
251	0x3d0d74dd	0.034535278
252	0xbe0f3915	-0.13986619
253	0xbe884bc3	-0.26620302
254	0xbd6d502b	-0.057937782
255	0x3de0e8f1	0.1098193
