experiments/gnn_hd64_ld32_nr5_ep500_b1.0_nf1.0/model.pt (torch, 218065 bytes, 24 tensors)

encoder.input_net.0.weight f4 [64, 7]
0.34005752 -0.07075125 -0.4143786 -0.34389785 -0.35066685 0.07584884 0.330024 0.1749759
0.18329719 -0.370951 -0.22792138 0.121384636 0.0870508 -0.044025164 0.18173641 -0.2896146
0.32738537 0.23410593 0.11644832 0.22896948 -0.32067883 -0.36798534 -0.36786154 -0.36623114
0.24982537 0.109729335 0.45477417 0.15294772 0.02637134 -0.21220256 -0.1402305 0.267981
-0.24821576 -0.3133053 -0.14449519 0.074701875 -0.30419204 -0.27027914 0.05822082 -0.18990752
0.080390796 -0.37644628 0.21315664 -0.21415718 -0.21914998 -0.2916085 -0.28486818 -0.2782723
-0.048986796 -0.3567154 0.27274814 0.15370417 0.027044246 0.29472092 -0.06677086 -0.1562476
-0.01990302 0.2654148 -0.07679133 0.10853052 1.6355645e-05 -0.19543415 -0.070068985 0.05998579
-0.11216577 0.33988297 -0.2804393 -0.2817081 0.087836236 -0.06795146 0.18669236 0.23496719
0.13572037 0.15106705 -0.20113872 -0.29270902 0.27814925 -0.34235904 -0.05152821 0.26928324
0.024468686 -0.18023989 0.022123039 -0.09632048 0.2565671 -0.095603704 0.010407118 -0.14540814
-0.043842997 0.2769325 0.12075725 0.23613234 0.24222204 0.0927897 -0.2509819 0.4093862
0.15638193 -0.2732638 -0.14049567 -0.13281725 0.29206425 0.12435017 -0.04753667 -0.22204961
0.144099 0.0063543357 0.038657732 0.1723868 0.5773933 -0.059295163 0.1780934 -0.21859573
-0.1298299 0.11991261 -0.110103235 -0.096871875 -0.20207058 -0.054753657 -0.04883805 -0.029841045
0.041372027 -0.08642454 0.04955433 0.25263909 0.12787148 0.15897234 0.19225585 -0.36692104
-0.18069866 0.08849898 -0.33582848 -0.23447855 0.12540358 0.35616374 0.25583997 -0.13035057
-0.22760066 0.13090456 -0.31110245 -0.11532884 -0.28589812 0.094665945 -0.2228396 0.093304545
0.19179958 0.09032842 0.1016238 -0.33602345 -0.06199424 0.14075351 0.15143171 0.085678935
-0.12378674 -0.34910846 -0.23925364 0.24938022 0.27677962 -0.018818138 0.34471035 0.15447314
0.23288143 -0.34877887 0.26550335 -0.23662749 0.09921243 0.16530374 0.31249297 0.5639214
-0.34084356 0.1350631 -0.26638225 -0.08134381 0.33169362 -0.28737646 0.09209759 -0.30804375
0.15014668 -0.331196 0.36709613 -0.14412703 0.06979832 0.32712403 -0.016297156 -0.10030487
-0.30417392 -0.124513924 0.33086923 -0.3630745 -0.010679124 -0.28038797 -0.31101483 0.16498062
-0.31892055 0.21732101 0.13613729 0.31973055 -0.0734306 0.29577947 0.29948232 -0.3660208
-0.07456931 -0.060434088 0.44987285 0.16643019 0.04743061 -0.13231713 -0.17653722 0.011547221
0.10969376 -0.29929605 -0.34823528 -0.105376355 0.15183051 0.15388297 0.11806016 0.4931348
-0.30243674 -0.18417537 -0.37196752 0.4891896 -0.36440063 -0.040081635 0.29897806 -0.18224555
0.3332089 0.1342183 0.24020956 -0.09908976 -0.35155603 0.06872827 -0.25422055 0.4122382
-0.32475913 -0.316804 -0.36692026 0.0444661 0.39784807 0.12865153 -0.10493764 -0.255932
-0.3335701 -0.25421908 0.011656673 0.05736174 0.14744332 0.24408445 -0.23565264 -0.101931766
0.09192274 0.16593646 0.23869812 -0.26724946 -0.24206775 0.1845351 0.02648024 -0.04809312
00000000: 051c ae3e 08e6 90bd 6f29 d4be 6113 b0be
00000010: 9b8a b3be a356 9b3d e8f8 a83e e22c 333e
00000020: 42b2 3b3e 4aed bdbe 3964 69be 8298 f83d
00000030: b147 b23d bb53 34bd 1c19 3a3e 5d48 94be
00000040: 0e9f a73e 77b9 6f3e 757c ee3d fa76 6a3e
00000050: 0430 a4be 9368 bcbe 5958 bcbe a682 bbbe
00000060: 39d2 7f3e c6b9 e03d 29d8 e83e 549e 1c3e
00000070: b508 d83c a14b 59be 9698 0fbe ce34 893e
00000080: 462c 7ebe 8d69 a0be 8cf6 13be 4cfd 983d
00000090: 0fbf 9bbe 0762 8abe f478 6e3d 1e77 42be
000000a0: eea3 a43d 91bd c0be bc45 5a3e 054c 5bbe
000000b0: da68 60be b64d 95be 3eda 91be b579 8ebe
000000c0: 61a6 48bd 67a3 b6be a5a5 8b3e a064 1d3e
000000d0: e58b dd3c a9e5 963e 29bf 88bd 5fff 1fbe
000000e0: a80b a3bc 73e4 873e c644 9dbd 4045 de3d
000000f0: 7b33 8937 e41f 48be 5480 8fbd a9b3 753d
00000100: 2bb7 e5bd 2405 ae3e bd95 8fbe 0b3c 90be
00000110: 7ce3 b33d 232a 8bbd 482c 3f3e 3d9b 703e
00000120: 48fa 0a3e 52b1 1a3e 4ff7 4dbe f5dd 95be
00000130: 9469 8e3e af49 afbe 3f0f 53bd 7edf 893e
00000140: 8e72 c83c ce90 38be 603b b53c ac43 c5bd
00000150: c35c 833e e0cb c3bd 9e82 2a3c dfe5 14be
00000160: b794 33bd 19ca 8d3e 944f f73d adcc 713e
00000170: 0e09 783e 8708 be3d b380 80be 119b d13e
00000180: 9622 203e 3ce9 8bbe 19de 0fbe 3f01 08be
00000190: 7289 953e 4dab fe3d d0b5 42bd f960 63be
000001a0: b08e 133e 0838 d03b 9257 1e3d 2a86 303e
000001b0: 0cd0 133f 7cdf 72bd 1e5e 363e 8fd7 5fbe
000001c0: 21f2 04be be94 f53d ce7d e1bd c364 c6bd
000001d0: 97eb 4ebe 5f45 60bd 680a 48bd 3575 f4bc
000001e0: b775 293d 59ff b0bd 7bf9 4a3d e959 813e
000001f0: bef0 023e a5c9 223e b8de 443e 13dd bbbe
00000200: 1209 39be f43e b53d b6f1 abbe 251b 70be
00000210: cc69 003e 185b b63e 75fd 823e 9f7a 05be
00000220: 2610 69be d80b 063e d248 9fbe 8731 ecbd
00000230: 3d61 92be 38e0 c13d 1030 64be 7416 bf3d
00000240: 1c67 443e 1bfe b83d 2420 d03d 440b acbe
00000250: aced 7dbd b021 103e ea10 1b3e 7078 af3d
00000260: e783 fdbd 58be b2be e8fe 74be 875d 7f3e
00000270: 0fb6 8d3e 7f28 9abc e07d b03e 352e 1e3e
00000280: 7878 6e3e 2593 b2be 0ef0 873e 7a4e 72be
00000290: e32f cb3d 6245 293e 14ff 9f3e 275d 103f
000002a0: 0c83 aebe fb4d 0a3e 4163 88be 9597 a6bd
000002b0: bfd3 a93e 0223 93be a99d bc3d e9b7 9dbe
000002c0: 0dc0 193e 8692 a9be 06f4 bb3e 0996 13be
000002d0: 6cf2 8e3d cd7c a73e 9d81 85bc a46c cdbd
000002e0: afbc 9bbe 2801 ffbd b167 a93e e7e4 b9be
000002f0: 7ef7 2ebc 038f 8fbe 563d 9fbe aef0 283e
00000300: 8e49 a3be 6689 5e3e 9367 0b3e b9b3 a33e
00000310: c862 96bd 6870 973e bf55 993e 1467 bbbe
00000320: cbb7 98bd bc89 77bd bc55 e63e ad6c 2a3e
00000330: 9946 423d 247e 07be 2cc6 34be 8e30 3d3c
00000340: 1fa7 e03d 553d 99be e54b b2be 8fcf d7bd
00000350: 7579 1b3e 7f93 1d3e 86c9 f13d 2a7c fc3e
00000360: fdd8 9abe 7898 3cbe 8772 bebe 0f77 fa3e
00000370: b892 babe a42c 24bd a713 993e 949e 3abe
00000380: 5b9a aa3e 8670 093e 7ff9 753e 92ef cabd
00000390: 27ff b3be 68c1 8c3d 3229 82be e310 d33e
000003a0: d446 a6be 2234 a2be f9dc bbbe 1622 363d
000003b0: beb2 cb3e 3abd 033e 8ce9 d6bd 8509 83be
000003c0: b3c9 aabe 0129 82be a1fb 3e3c 25f4 6a3d
000003d0: 62fb 163e 46f1 793e ed4e 71be 9ac1 d0bd
000003e0: fd41 bc3d 3feb 293e 486d 743e ecd4 88be
000003f0: 9ce0 77be c5f6 3c3e 17ed d83c 4bfd 44bd

encoder.input_net.0.bias f4 [64]
0.498772 -0.19516172 -0.33278257 0.36470518 -0.28001034 0.18957247 0.18829182 0.28749758
-0.26972032 0.033442825 -0.3462477 -0.030394642 -0.03611586 -0.009165019 0.05146453 -0.05736097
-0.15159895 -0.25264198 0.15562782 -0.3603816 -0.19646345 0.32066765 0.2152677 0.23324004
0.2847058 0.30431738 0.00030961604 0.2723316 0.056791745 -0.17950283 0.1314165 0.38186795
-0.33771214 0.30969796 0.14083613 -0.33891538 -0.19112767 -0.005893501 0.14024168 -0.069231786
0.22476067 -0.28256527 -0.18537566 -0.1063248 -0.23395896 -0.34480274 -0.08237003 0.047627322
-0.23366271 -0.25395602 -0.10125388 0.19293296 -0.26177832 0.32671735 -0.33811423 -0.019905211
-0.14973657 0.1336027 0.047041465 0.16804871 -0.10124863 0.018006558 0.2926536 -0.05136869
00000000: 0b5f ff3e 79d8 47be 7a62 aabe a3ba ba3e
00000010: 845d 8fbe 491f 423e 92cf 403e e232 933e
00000020: c818 8abe 58fb 083d 6147 b1be 2ffe f8bc
00000030: 39ee 13bd e028 16bc 79cc 523d 56f3 6abd
00000040: c13c 1bbe 4a5a 81be e65c 1f3e f083 b8be
00000050: b72d 49be 8d2e a43e 236f 5c3e 7ad6 6e3e
00000060: f5c4 913e 7dcf 9b3e f653 a239 0c6f 8b3e
00000070: 769e 683d 97cf 37be 0c92 063e 3284 c33e
00000080: 9be8 acbe bb90 9e3e 5937 103e 5186 adbe
00000090: f9b6 43be 451e c1bb 849b 0f3e 65c9 8dbd
000000a0: a927 663e 65ac 90be 1ed3 3dbe d1c0 d9bd
000000b0: f092 6fbe fc89 b0be 9eb1 a8bd de14 433d
000000c0: 4745 6fbe 8606 82be 325e cfbd 3890 453e
000000d0: cf07 86be 7f47 a73e 4f1d adbe 4110 a3bc
000000e0: 8b54 19be 25cf 083e 8dae 403d f614 2c3e
000000f0: 715b cfbd 7d82 933c b1d6 953e fa67 52bd

encoder.message_net.0.0.weight f4 [64, 64]
-0.03799463 -0.007924182 0.07329755 0.047296125 -0.092568494 -0.06244035 0.011456169 0.04209142
-0.04131636 -0.12602098 0.01849167 -0.119892634 -0.10038654 -0.096422255 0.01212121 0.029903926
-0.09963362 -0.07453179 0.080468446 0.095688686 -0.138457 -0.03136204 -0.15007345 -0.011029153
-0.013538626 0.095477745 0.0072881836 0.080808476 0.101458326 0.11879116 0.062164363 -0.02452044
-0.010876831 -0.035211544 -0.009182767 0.011605769 -0.009158656 0.06787209 -0.041100554 -0.0027270396
-0.10185435 0.08629442 -0.03092424 -0.051216148 -0.122358486 0.08077228 0.009557121 -0.094884396
0.049617067 -0.06606008 -0.043735072 0.08305325 0.023595344 -0.09265156 -0.07148115 0.010371909
0.011231336 -0.10481817 -0.034562107 -0.07775761 -0.0044196886 -0.0351049 0.0008735724 0.07528938
0.050018188 -0.028788818 0.018227618 -0.1619763 -0.019193765 0.0018622683 -0.08454064 0.074577786
0.1009369 -0.1542236 0.061741143 -0.028048132 -0.029436793 -0.15301505 -0.046713013 0.0043398906
-0.07165396 0.07170908 -0.04597422 -0.06307195 0.032533444 0.03959068 -0.05678342 -0.053704876
0.04864548 -0.058661006 0.08206074 -0.0069755022 -0.053544633 0.019120906 0.025906533 -0.053860534
-0.045139182 0.05317376 -0.08205931 -0.011723772 -0.097662315 -0.12529409 -0.08604728 -0.043583672
-0.005056542 -0.09139505 -0.033632465 -0.069015406 0.0037188232 0.047356457 -0.041632626 0.015101762
-0.006784388 0.027647842 -0.019783394 -0.055428345 -0.09286656 -0.10363268 -0.09531993 0.013946889
-0.1592074 0.063375495 0.10319199 -0.19845769 -0.19141628 -0.18622318 -0.055570923 0.022036772
-0.094240665 -0.09543204 -0.056385785 -0.039654344 -0.06416823 0.07716647 0.04854037 0.087509476
0.12420224 -0.08597189 0.04624501 0.04574205 0.054017812 -0.123031 -0.119430155 0.026796527
0.019317627 0.007605925 -0.10745938 -0.12252121 -0.04396139 -0.14322457 0.06127858 -0.13348047
0.0053487155 0.013034731 -0.12458973 -0.15433814 -0.13154592 0.00064603984 0.017876301 0.013097187
0.11924532 -0.017053902 0.040039778 0.092421785 -0.0035051256 -0.06088607 0.056026034 -0.058704764
-0.100066185 -0.08134034 0.094441175 0.013936639 -0.10766059 -0.0043611526 -0.12295307 -0.081185564
-0.092884526 0.0018002689 -0.058292743 -0.06382507 0.050836697 0.06747818 -0.006771907 -0.045788094
-0.082057 -0.06175207 0.08763471 0.0917272 -0.10755307 -0.07849383 -0.034632087 0.056479145
0.062490065 -0.027293986 -0.060183562 -0.0427129 0.06751439 -0.085383944 0.028338885 -0.068100415
0.0019265414 0.027681226 -0.07639168 -0.106925696 -0.053961318 -0.0996979 -0.11184661 0.040701766
-0.0676308 0.018493311 -0.015579427 -0.12110848 0.027090494 -0.09617301 0.094494514 -0.07364174
-0.13361265 0.035024744 -0.012450597 -0.011539464 -0.13799974 0.005452921 -0.12752926 0.056438275
-0.03328977 -0.050189324 -0.13052972 -0.036884084 -0.12862214 -0.015736938 0.006930452 -0.09247209
-0.01567586 0.04294222 -0.11663366 -0.10916387 0.056120843 0.016160233 0.03047219 -0.043111917
-0.13483758 -0.034745757 0.06825018 -0.08146456 -0.090355515 -0.14601687 -0.007916927 -0.13548918
-0.11288034 0.0600951 -0.07371877 0.08592098 0.01305453 -0.12387988 -0.032036543 -0.047261998
00000000: 42a0 1bbd 6ed4 01bc 071d 963d 95b9 413d
00000010: 8d94 bdbd 74c1 7fbd a8b2 3b3c 0e68 2c3d
00000020: 583b 29bd a50b 01be d87b 973c 458a f5bd
00000030: 7597 cdbd 0879 c5bd 0a98 463c 14f9 f43c
00000040: b60c ccbd 20a4 98bd a4cc a43d 6ef8 c33d
00000050: acc7 0dbe 7c75 00bd dbac 19be 9fb3 34bc
00000060: 1dd1 5dbc d689 c33d b7d1 ee3b ea7e a53d
00000070: 62c9 cf3d c848 f33d 0fa0 7e3d 17df c8bc
00000080: bc34 32bc fb39 10bd 5173 16bc 2026 3e3c
00000090: 300e 16bc 8600 8b3d 0e59 28bd 22b8 32bb
000000a0: 0399 d0bd 21bb b03d d554 fdbc 06c8 51bd
000000b0: 1697 fabd f06b a53d 7995 1c3c c052 c2bd
000000c0: 443b 4b3d 824a 87bd 8c23 33bd d317 aa3d
000000d0: 064b c13c 1ac0 bdbd b664 92bd f0ee 293c
000000e0: a303 383c e9aa d6bd ff90 0dbd 623f 9fbd
000000f0: 09d3 90bb 28ca 0fbd 7400 653a 5231 9a3d
00000100: dfdf 4c3d 87d6 ebbc 1652 953c 1ddd 25be
00000110: 3e3c 9dbc 5b17 f43a a523 adbd 3dbc 983d
00000120: 01b8 ce3d cbec 1dbe 48e4 7c3d 32c5 e5bc
00000130: 6e25 f1bc faaf 1cbe 2556 3fbd a435 8e3b
00000140: 50bf 92bd 36dc 923d 774f 3cbd de2b 81bd
00000150: ca41 053d d629 223d bb95 68bd a5f9 5bbd
00000160: 7c40 473d 8646 70bd 760f a83d c192 e4bb
00000170: 9e51 5bbd 72a3 9c3c f039 d43c dd9c 5cbd
00000180: dde3 38bd bbcc 593d b60e a8bd 1015 40bc
00000190: 2e03 c8bd 184d 00be 8e39 b0bd cb84 32bd
000001a0: 59b1 a5bb 542d bbbd 32c2 09bd f357 8dbd
000001b0: 80b7 733b d8f8 413d f986 2abd 616d 773c
000001c0: 924f debb ba7d e23c c910 a2bc d508 63bd
000001d0: d330 bebd 5f3d d4bd 1837 c3bd 7e81 643c
000001e0: 4407 23be 03cb 813d 5256 d33d 7e38 4bbe
000001f0: a102 44be 4ab1 3ebe 569e 63bd 7686 b43c
00000200: 4001 c1bd e071 c3bd c8f4 66bd 986c 22bd
00000210: a26a 83bd 7409 9e3d 44d2 463d 2b38 b33d
00000220: be5d fe3d 0812 b0bd 686b 3d3d 045c 3b3d
00000230: c841 5d3d adf7 fbbd cc97 f4bd 6484 db3c
00000240: 0040 9e3c 203b f93b aa13 dcbd 66ec fabd
00000250: dc10 34bd 76a9 12be 40ff 7a3d 1baf 08be
00000260: 4744 af3b a08f 553c e628 ffbd d10a 1ebe
00000270: f9b3 06be 005b 293a 5271 923c 9595 563c
00000280: e436 f43d a0b4 8bbc c000 243d a247 bd3d
00000290: 40b6 65bb ac63 79bd 8e7b 653d 6874 70bd
000002a0: 80ef ccbd c495 a6bd 606a c13d 8056 643c
000002b0: 287d dcbd 00e8 8ebb d2ce fbbd 9e44 a6bd
000002c0: 3e3a bebd 00f7 eb3a 5fc4 6ebd b8b6 82bd
000002d0: 243a 503d 0032 8a3d e0e6 ddbb 4c8c 3bbd
000002e0: 800d a8bd bdef 7cbd d479 b33d 78db bb3d
000002f0: c944 dcbd 60c1 a0bd 60da 0dbd ad56 673d
00000300: 95f5 7f3d a397 dfbc 0a83 76bd b9f3 2ebd
00000310: fc44 8a3d c7dd aebd f326 e83c 3b78 8bbd
00000320: 0184 fc3a bdc3 e23c 3e73 9cbd dcfb dabd
00000330: 8b06 5dbd 6a2e ccbd d60f e5bd e5b6 263d
00000340: 0482 8abd 497f 973c da40 7fbc b907 f8bd
00000350: e2ec dd3c 5bf6 c4bd 5786 c13d 7bd1 96bd
00000360: c1d1 08be 1b76 0f3d 97fd 4bbc 0510 3dbc
00000370: ce4f 0dbe 6bae b23b 0897 02be d22b 673d
00000380: db5a 08bd 5293 4dbd 95a9 05be c413 17bd
00000390: 86b5 03be c0ea 80bc d818 e33b 0262 bdbd
000003a0: a96a 80bc 2ee4 2f3d a1dd eebd 4f91 dfbd
000003b0: f8de 653d 7762 843c d0a0 f93c 1f96 30bd
000003c0: dd12 0abe 9151 0ebd c0c6 8b3d e4d6 a6bd
000003d0: 500c b9bd 7285 15be 00b6 01bc adbd 0abe
000003e0: cf2d e7bd 4826 763d def9 96bd 57f7 af3d
000003f0: abe2 553c bcb4 fdbd c038 03bd cc95 41bd

encoder.message_net.0.0.bias f4 [64]
-0.037709888 0.0022039956 -0.09125237 0.055217236 -0.14130555 0.05554249 -0.12501138 0.015998766
0.0038634795 -0.06602763 -0.071527034 -0.04880885 -0.08950122 0.1043285 0.14892966 -0.12299591
0.068621024 0.092060015 0.0748707 -0.07918446 -0.06209289 0.033387933 -0.0004920903 0.067442566
0.03549216 0.06094858 -0.001895185 -0.06946042 -0.0684616 -0.12819555 -0.04276732 -0.02960119
0.12588595 0.036708128 0.09740717 -0.09745113 -0.027293824 -0.0089033535 -0.021389445 0.013791105
0.047855157 -0.11393297 0.014203305 -0.05123323 0.023460476 0.0062457304 -0.027787399 -0.017604643
-0.03851569 -0.07839238 -0.06114386 -0.023119692 -0.07772395 0.026049046 -0.009253979 -0.14224012
0.009290332 0.044440955 0.014178579 0.10223646 0.16518605 0.03974189 -0.030809177 -0.098560974
00000000: af75 1abd e970 103b 86e2 babd 782b 623d
00000010: 67b2 10be 8680 633d fc02 00be d80f 833c
00000020: 6e32 7d3b 7e39 87bd c47c 92bd caeb 47bd
00000030: 6a4c b7bd 2eaa d53d 0481 183e 48e5 fbbd
00000040: 2e89 8c3d f689 bc3d cf55 993d 762b a2bd
00000050: 1d55 7ebd c9c1 083d 9fff 00ba 541f 8a3d
00000060: 3a60 113d 38a5 793d db67 f8ba 4441 8ebd
00000070: 9835 8cbd b245 03be c92c 2fbd 327e f2bc
00000080: 3fe8 003e 435b 163d 697d c73d 7594 c7bd
00000090: 4c97 dfbc 5fdf 11bc eb38 afbc 16f4 613c
000000a0: c503 443d b055 e9bd fbb4 683c efd9 51bd
000000b0: 2f30 c03c fca8 cc3b 66a2 e3bc 9d37 90bc
000000c0: a1c2 1dbd 2f8c a0bd fc71 7abd 8265 bdbc
000000d0: bc2d 9fbd cf64 d53c 009e 17bc 65a7 11be
000000e0: 7a36 183c b807 363d 454d 683c 5961 d13d
000000f0: 8826 293e 64c8 223d 8763 fcbc 56da c9bd

encoder.message_net.1.0.weight f4 [64, 64]
-0.09189049 0.102434464 -0.04708334 0.018050628 -0.009907979 -0.07624269 -0.045857593 -0.20063221
-0.14194903 -0.09080428 -0.023290413 -0.07148373 -0.02052201 0.11113733 0.05748945 0.09536056
-0.08399661 0.16375042 -0.00026978325 -0.13961545 0.015936997 0.010575877 -0.0082076825 -0.040698357
-0.10288361 0.07417558 0.049074776 0.012389346 -0.07459865 -0.072199225 -0.15960789 -0.044459134
-0.15736099 -0.031257592 0.0776477 -0.08720871 -0.056691904 0.044931952 0.08387436 -0.041623753
-0.009893441 -0.013538542 0.025740972 -0.05589151 0.048232198 -0.089720316 -0.05467052 0.08479424
0.0893118 0.13034387 -0.016105376 -0.072808735 0.045841888 0.07458478 -0.045653343 0.15132697
0.06880377 0.10847743 0.021907851 -0.07327636 -0.07678633 -0.027625803 0.13311042 0.0024696907
-0.07328935 -0.09142495 -0.053617593 0.0359851 -0.089552276 0.02185568 0.010511184 -0.1684266
-0.0228648 0.04530885 -0.03901789 -0.12762983 -0.063918 0.02911291 -0.05487166 -0.0043489365
0.20979117 -0.008056678 -0.1706705 -0.047410686 -0.14356181 -0.027018048 -0.114934705 -0.063980244
-0.09823745 -0.0008212204 0.053079974 0.07782073 -0.004430542 -0.027085455 -0.18639857 0.09774881
-0.011871364 -0.14897943 -0.06266111 -0.012467722 0.0679281 -0.06941241 0.04499169 -0.008296927
-0.06565842 -0.048525322 -0.15582718 0.07142665 -0.016474618 -0.18798834 0.08633282 0.0998437
0.15168484 0.15480141 0.026642086 -0.030955907 -0.08226424 0.04581325 -0.020679498 0.107986696
-0.112171374 0.02693121 0.058521226 0.006433188 0.0071126875 -0.067778856 0.032386776 -0.08999116
-0.072633706 -0.19278061 -0.22045594 0.07213477 -0.23563719 -0.25567585 -0.2837318 -0.07659445
-0.15577833 -0.13318282 -0.28782678 -0.24406685 0.06196478 0.19558741 0.0098803975 -0.12061152
0.32755518 -0.0060685645 -0.14321719 -0.26110527 0.21735036 0.012181399 0.11805519 0.13995618
0.48713976 0.13253097 -0.1370132 0.058336 0.29363573 -0.17763963 -0.14992042 0.30963966
-0.31348994 -0.14653626 -0.15275282 -0.21478544 0.1050515 -0.1391972 0.17480348 0.00021802606
0.1239613 -0.2523292 -0.24220662 0.15316299 0.23394062 0.030253433 0.18198895 -0.28798148
0.07517116 -0.15874922 -0.02225705 0.2836787 0.015450387 -0.08307836 0.18613566 -0.091557294
-0.29099047 -0.09704694 0.26443204 0.08513792 -0.31165898 -0.2631384 0.082265176 0.08058219
0.10797021 0.12427746 0.015630433 -0.14354156 0.053851068 0.26966822 -0.0012922388 -0.20723526
-0.17240758 -0.0114901215 -0.1479039 0.08547636 -0.028386792 0.092398025 -0.18998682 -0.042698823
-0.1075249 0.07186333 -0.011740908 -0.14640538 -0.22676231 -0.15162648 -0.10059421 -0.1427044
-0.2159175 -0.19245288 0.022643846 0.07300053 0.02034386 0.12166651 -0.44762406 -0.014734744
0.015813477 -0.1612983 -0.050620228 -0.025772654 -0.11119319 -0.074920386 0.032525323 -0.103464715
-0.23225263 -0.2905933 -0.13969229 0.1891891 -0.10464534 -0.13421325 0.018643506 0.11745781
0.035041384 0.15227771 -0.21148087 -0.09127815 -0.083401434 0.029386258 -0.058843523 0.23151985
0.046772428 -0.1199167 0.2702375 -0.031948872 -0.050585773 -0.17319976 -0.10444547 -0.06604267
00000000: 1531 bcbd 29c9 d13d 76da 40bd e9de 933c
00000010: 1355 22bc 2125 9cbd 2cd5 3bbd 8872 4dbe
00000020: 165b 11be 98f7 b9bd 89cb bebc 1066 92bd
00000030: c61d a8bc f89b e33d 0f7a 6b3d 664c c33d
00000040: 6a06 acbd 31ae 273e b271 8db9 5af7 0ebe
00000050: 4e8e 823c 7146 2d3c 8479 06bc 52b3 26bd
00000060: a4b4 d2bd 5ee9 973d a202 493d affc 4a3c
00000070: 2dc7 98bd 30dd 93bd 4070 23be c81a 36bd
00000080: 3d23 21be f607 00bd c205 9f3d 7b9a b2bd
00000090: c535 68bd 910a 383d 52c6 ab3d ab7d 2abd
000000a0: 1918 22bc c3d0 5dbc bbde d23c 7fee 64bd
000000b0: 208f 453d 49bf b7bd 32ee 5fbd 9aa8 ad3d
000000c0: 1be9 b63d dd78 053e 6cef 83bc bf1c 95bd
000000d0: b4c4 3b3d e8bf 983d 00ff 3abd 75f5 1a3e
000000e0: fee8 8c3d 6a29 de3d 1878 b33c eb11 96bd
000000f0: 2742 9dbd 824f e2bc 194e 083e 89da 213b
00000100: ba18 96bd 013d bbbd 1f9e 5bbd 1d65 133d
00000110: 2f67 b7bd af0a b33c 1a37 2c3c 0678 2cbe
00000120: f64e bbbc c695 393d 39d1 1fbd 65b1 02be
00000130: 71e7 82bd 337e ee3c 1bc1 60bd 8681 8ebb
00000140: 7fd3 563e 2800 04bc 3fc4 2ebe b531 42bd
00000150: de01 13be f454 ddbc e362 ebbd 1308 83bd
00000160: b730 c9bd 2b47 57ba 636a 593d 7a60 9f3d
00000170: 142e 91bb 51e2 ddbc 44df 3ebe 8730 c83d
00000180: 1c80 42bc 108e 18be 7854 80bd 6b45 4cbc
00000190: e31d 8b3d 1828 8ebd 3549 383d d6ef 07bc
000001a0: ec77 86bd 7dc2 46bd 2991 1fbe 2348 923d
000001b0: c7f5 86bc 0480 40be 43cf b03d db7a cc3d
000001c0: 4553 1b3e 4384 1e3e 8140 da3c 3e97 fdbc
000001d0: 277a a8bd ada6 3b3d 0d68 a9bc 2128 dd3d
000001e0: 1bba e5bd d79e dc3c f4b3 6f3d 7ecd d23b
000001f0: 8c11 e93b a4cf 8abd ffa7 043d 494d b8bd
00000200: fbc0 94bd 4868 45be 34bf 61be 65bb 933d
00000210: e04a 71be f2e7 82be 4b45 91be 8ddd 9cbd
00000220: 5b84 1fbe 1461 08be 085e 93be a9ec 79be
00000230: c8ce 7d3d 1148 483e 64e1 213c 2c03 f7bd
00000240: 50b5 a73e cfda c6bb 87a7 12be 97af 85be
00000250: 1891 5e3e 7e94 473c ebc6 f13d ac50 0f3e
00000260: 626a f93e 33b6 073e 304d 0cbe bbf1 6e3d
00000270: 6c57 963e 2ae7 35be bd84 19be 1789 9e3e
00000280: c181 a0be 9a0d 16be 3c6b 1cbe b7f0 5bbe
00000290: 3e25 d73d b689 0ebe afff 323e ed9d 6439
000002a0: 6cdf fd3d 4b31 81be 0305 78be c2d6 1c3e
000002b0: 218e 6f3e 0cd6 f73c 505b 3a3e 4f72 93be
000002c0: 56f3 993d 288f 22be 6b54 b6bc 563e 913e
000002d0: 9f23 7d3c fd24 aabd 599a 3e3e 6482 bbbd
000002e0: b4fc 94be 8cc0 c6bd a363 873e ca5c ae3d
000002f0: c491 9fbe 14ba 86be a57a a83d 4608 a53d
00000300: 7c1f dd3d 2e85 fe3d 650b 803c 8ffc 12be
00000310: f092 5c3d f411 8a3e 5760 a9ba 7b35 54be
00000320: 9d8b 30be 1041 3cbc 1f74 17be 3b0e af3d
00000330: 6b8b e8bc 2d3b bd3d e88b 42be f6e4 2ebd
00000340: 0436 dcbd 152d 933d f05c 40bc 4beb 15be
00000350: 6134 68be f943 1bbe 5604 cebd 1a21 12be
00000360: 7a19 5dbe 5e12 45be 967f b93c 4d81 953d
00000370: 2ba8 a63c 4b2c f93d fb2e e5be ff69 71bc
00000380: 448b 813c 622b 25be 2857 4fbd 2c21 d3bc
00000390: 41b9 e3bd dc6f 99bd 4639 053d 4fe5 d3bd
000003a0: a2d3 6dbe a5c8 94be 7f0b 0fbe caba 413e
000003b0: 4c50 d6bd 336f 09be 44ba 983c b88d f03d
000003c0: 8e87 0f3d b0ee 1b3e 718e 58be 0af0 babd
000003d0: 5fce aabd 73bb f03c e805 71bd 8a13 6d3e
000003e0: 7294 3f3d e396 f5bd 925c 8a3e d2dc 02bd
000003f0: 0733 4fbd 475b 31be 82e7 d5bd 6141 87bd

encoder.message_net.1.0.bias f4 [64]
-0.091675624 -0.035885025 -0.0459711 -0.021244733 -0.0020529388 -0.045057718 -0.15470515 -0.12768
-0.090305075 -0.116173625 -0.113834664 -0.101314686 -0.051722005 0.05629803 -0.13240309 -0.05236623
-0.089052446 -0.14645645 -0.033944413 -0.080573715 -0.1501499 0.12471442 0.013258101 -0.08617288
-0.037165977 -0.020478558 0.08742767 -0.044879742 -0.14200337 0.11096208 -0.07366668 -0.09292591
0.1352161 -0.030946314 -0.12194284 -0.13798766 -0.13110949 -0.023764277 -0.14581664 -0.03129336
-0.06768176 -0.11603582 -0.08739968 -0.113785915 -0.06116069 -0.10107848 -0.010465172 -0.09264292
-0.04872826 -0.08715009 -0.19640744 -0.027613005 -0.1108577 -0.10744078 -0.0844934 -0.020954927
-0.16166174 -0.13686225 -0.13319884 0.14322187 -0.11895759 -0.17078786 0.13557057 0.00836791
00000000: 6ec0 bbbd 2dfc 12bd 314c 3cbd 6f09 aebc
00000010: 998a 06bb 718e 38bd 076b 1ebe 8cbe 02be
00000020: def1 b8bd 70ec edbd 2622 e9bd 137e cfbd
00000030: 74da 53bd c398 663d ad94 07be f97d 56bd
00000040: 2161 b6bd aef8 15be 4c09 0bbd d503 a5bd
00000050: e5c0 19be 466a ff3d 8238 593c 687b b0bd
00000060: 5a3b 18bd a6c2 a7bc 470d b33d d2d3 37bd
00000070: 5569 11be 1640 e33d 8ede 96bd f14f bebd
00000080: 1776 0a3e 2083 fdbc 2bbd f9bd a34c 0dbe
00000090: 9141 06be 4dad c2bc f550 15be 772d 00bd
000000a0: bc9c 8abd 30a4 edbd 9afe b2bd 9708 e9bd
000000b0: a283 7abd 3c02 cfbd 1d76 2bbc 92bb bdbd
000000c0: 4997 47bd bf7b b2bd 081f 49be ab34 e2bc
000000d0: 5d09 e3bd e909 dcbd e00a adbd aba9 abbc
000000e0: a88a 25be 9e25 0cbe 4765 08be c1a8 123e
000000f0: 09a0 f3bd 03e3 2ebe 03d3 0a3e 8f19 093c

encoder.message_net.2.0.weight f4 [64, 64]
0.029402807 -0.0006697674 0.021406474 -0.052908577 -0.11047681 -0.041432098 0.055916414 -0.07420015
0.018567622 -0.043314114 -0.061349113 0.10608882 0.12671281 0.045383044 0.035186686 -0.111454956
-0.07970653 0.009738329 -0.03468327 0.05791081 -0.07763071 -0.0524265 -0.10141485 -0.082320884
0.09543222 0.037546974 0.1365988 0.037663426 0.06941123 0.021645723 0.061184477 -0.1291132
-0.032457348 0.01215078 -0.16439968 0.0037395603 -0.092890814 -0.011497252 0.09145758 0.00013635651
-0.055860523 -0.19277173 0.009694828 0.0891177 0.057794243 0.032832395 -0.10195786 0.13602254
0.079640955 -0.0010522275 0.029989962 0.07001849 -0.06642857 0.030998185 -0.12038509 0.20729226
-0.057458226 -0.11853717 0.0035519698 0.11825627 -0.09929128 -0.09405782 0.04784191 -0.1387022
0.022725137 -0.06529901 -0.04860491 -0.026764046 -0.08072288 -0.0034511052 -0.14634658 -0.05671169
0.1739721 -0.04936994 -0.12670337 -0.08932005 0.046540935 0.029116254 -0.060074635 0.057077028
0.039831996 0.06166942 -0.08125098 -0.13991359 -0.18946266 0.18264395 0.036872286 0.085314274
0.028858347 -0.19925296 0.13928267 0.08386921 0.074404016 -0.080022 -0.11212401 0.054326165
0.01528369 -0.09525885 -0.07011316 0.02925569 0.03259433 -0.07416718 0.08657833 0.014371516
-0.01795363 -0.0134053035 -0.22006314 0.023632545 -0.049904365 -0.014062652 -0.13377629 0.07259406
-0.105092205 0.055796474 0.012920673 -0.0008650489 0.16287965 0.07700067 0.05186586 0.049593817
0.088607095 0.056075253 0.28563634 -0.11735049 -0.01390459 -0.13207611 0.163468 -0.064410694
-0.023354463 -0.009834145 -0.2149978 -0.10413596 0.21494159 0.056026824 -0.048590142 -0.06928118
0.120347485 0.090679385 -0.10780043 0.017509142 0.12864244 0.044060566 -0.12966152 -0.09530191
0.06801559 -0.03914549 -0.14476667 -0.015466254 -0.10181253 0.12386758 0.021629022 -0.09843684
-0.13225737 -0.10242113 0.00571686 0.010969595 0.18427815 0.010352151 0.008285289 0.0051027993
0.07786567 0.017663002 -0.22758897 -0.16757245 -0.017214233 -0.09962316 0.13853422 0.013000716
-0.15928863 -0.1227952 0.0009563101 -0.035251565 -0.04196216 0.08269093 -0.11692121 0.057475746
-0.008166882 -0.023877382 -0.059682645 -0.034881525 0.11900548 -0.18028829 0.051056936 0.16348986
-0.030443374 -0.032358266 0.21600664 -0.012022729 -0.22267224 -0.02015839 0.0066125295 0.07860159
-0.0330339 0.15846384 -0.115255095 0.008866115 -0.0513217 0.024310267 0.086465396 0.11622517
-0.07548398 0.080995835 -0.01535223 0.069900595 0.069841415 0.041918688 -0.04371517 0.008776198
-0.15013629 -0.119146064 -0.12177281 -0.05422198 0.054621134 0.1013821 -0.106436215 -0.04553019
-0.06986143 0.040538058 -0.0033916847 0.058057897 0.04323573 0.00817582 -0.028965825 0.017493837
-0.047375146 0.104552284 -0.10688265 -0.13304603 -0.009596521 -0.12614621 -0.068021305 0.08707014
-0.14651255 -0.00052630005 0.073540114 -0.043772522 -0.08080922 0.08604296 -0.0892096 0.002851453
0.105232686 -0.072275706 -0.10557271 -0.07766986 -0.06514021 0.0037796646 0.079729974 0.11941416
0.09436421 0.029818166 0.05437532 -0.1436395 0.034318916 -0.047279034 0.015443293 0.019890733
00000000: 28de f03c 5493 2fba a15c af3c aab6 58bd
00000010: aa41 e2bd b4b4 29bd 9c08 653d 40f6 97bd
00000020: 201b 983c 246a 31bd 3549 7bbd 1845 d93d
00000030: 01c1 013e 92e3 393d ea1f 103d 7f42 e4bd
00000040: 2d3d a3bd 838d 1f3c 0b10 0ebd e333 6d3d
00000050: dafc 9ebd 2bbd 56bd 97b2 cfbd da97 a8bd
00000060: f871 c33d dbca 193d 8ee0 0b3e f744 1a3d
00000070: 7a27 8e3d 5f52 b13c 939c 7a3d 4036 04be
00000080: fff1 04bd 1114 473c 6458 28be 6913 753b
00000090: 8a3d bebd f85e 3cbc 1d4e bb3d ecfa 0e39
000000a0: 01ce 64bd f465 45be 0ed7 1e3c 5783 b63d
000000b0: a8b9 6c3d 437b 063d 48cf d0bd 7e49 0b3e
000000c0: cc1a a33d e5ea 89ba 82ad f53c db65 8f3d
000000d0: b40b 88bd e8ef fd3c 758c f6bd 6c44 543e
000000e0: 5159 6bbd 9ec3 f2bd 2ac8 683b 5830 f23d
000000f0: 3a59 cbbd 63a1 c0bd e1f5 433d f307 0ebe
00000100: 112a ba3c 7dbb 85bd f115 47bd 4640 dbbc
00000110: 0a52 a5bd f02b 62bb e1db 15be 844a 68bd
00000120: be25 323e 2238 4abd 87be 01be 6eed b6bd
00000130: b5a1 3e3d 3685 ee3c d210 76bd 9ac9 693d
00000140: e026 233d 1399 7c3d ea66 a6bd 8245 0fbe
00000150: 8002 42be 0407 3b3e 6507 173d 40b9 ae3d
00000160: 5768 ec3c f808 4cbe 1ea0 0e3e 9fc3 ab3d
00000170: 2261 983d 93e2 a3bd 46a1 e5bd 1d85 5e3d
00000180: 7168 7a3c 1217 c3bd 7d97 8fbd a1a9 ef3c
00000190: a281 053d f6e4 97bd fb4f b13d 8276 6b3c
000001a0: 7e13 93bc eba1 5bbc 3b58 61be 0a99 c13c
000001b0: 8568 4cbd 0a67 66bc a7fc 08be 32ac 943d
000001c0: 953a d7bd d88a 643d 3bb1 533c 73c4 62ba
000001d0: ecc9 263e 87b2 9d3d 4c71 543d e322 4b3d
000001e0: a377 b53d 2aaf 653d ed3e 923e 7455 f0bd
000001f0: 14d0 63bc f63e 07be 2864 273e c1e9 83bd
00000200: dc51 bfbc 651f 21bc 6228 5cbe 3c45 d5bd
00000210: a619 5c3e 627c 653d 7506 47bd 4be3 8dbd
00000220: be78 f63d 1db6 b93d 79c6 dcbd 556f 8f3c
00000230: d8ba 033e da78 343d fdc5 04be a62d c3bd
00000240: c24b 8b3d 0557 20bd b73d 14be 2c66 7dbc
00000250: 1683 d0bd 49ae fd3d 592f b13c 4199 c9bd
00000260: 7a6e 07be 2bc2 d1bd 7f54 bb3b d1b9 333c
00000270: 69b3 3c3e 119c 293c 05bf 073c 6235 a73b
00000280: 0978 9f3d 00b2 903c 150d 69be 1d98 2bbe
00000290: dd04 8dbc 3a07 ccbd eadb 0d3e f500 553c
000002a0: 8f1c 23be 0d7c fbbd e2b0 7a3a f263 10bd
000002b0: 84e0 2bbd dd59 a93d 6374 efbd b06b 6b3d
000002c0: 63ce 05bc 809a c3bc ca75 74bd eedf 0ebd
000002d0: 25b9 f33d 7e9d 38be 1421 513d e369 273e
000002e0: 6264 f9bc 1a8a 04bd d830 5d3e fbfa 44bc
000002f0: 3104 64be 3523 a5bc ebad d83b dff9 a03d
00000300: 8e4e 07bd 5844 223e dd0a ecbd 2e43 113c
00000310: b436 52bd 5326 c73c c514 b13d 7607 ee3d
00000320: 5897 9abd 25e1 a53d eb87 7bbc 0b28 8f3d
00000330: 0409 8f3d eeb2 2b3d ae0e 33bd 0bca 0f3c
00000340: 54bd 19be da02 f4bd 0664 f9bd de17 5ebd
00000350: 69ba 5f3d 6ba1 cf3d 3bfb d9bd dd7d 3abd
00000360: 8213 8fbd 3c0b 263d 0747 5ebb 1ece 6d3d
00000370: f317 313d e0f3 053c bd49 edbc 3c4f 8f3c
00000380: 710c 42bd 821f d63d 4ae5 dabd 383d 08be
00000390: ba3a 1dbc 792c 01be c14e 8bbd d451 b23d
000003a0: 6307 16be 66f7 09ba 339c 963d d14a 33bd
000003b0: 4e7f a5bd 4b37 b03d 86b3 b6bd 71df 3a3b
000003c0: 3c84 d73d 4905 94bd 8136 d8bd 6011 9fbd
000003d0: 3b68 85bd 40b4 773b 7849 a33d 698f f43d
000003e0: 0642 c13d 3a45 f43c a8b8 5e3d 3c16 13be
000003f0: fe91 0c3d a9a7 41bd de05 7d3c e4f1 a23c

encoder.message_net.2.0.bias f4 [64]
-0.23565233 -0.055105418 -0.12767646 -0.1841632 -0.10273632 -0.14641285 -0.067210265 0.11053703
-0.11977596 -0.11650744 0.12921399 -0.09527156 -0.031293526 -0.19429253 -0.14650407 -0.1325197
-0.13371244 -0.09768965 -0.15371923 0.0436305 -0.06844989 0.015672337 -0.13035241 -0.20110817
-0.012207382 -0.050449964 -0.0017939078 -0.17497163 -0.114886634 -0.072604224 -0.013353591 -0.16747786
-0.10991187 -0.07630074 -0.15157168 -0.074909925 -0.13585518 -0.00090829836 -0.17274056 -0.11360864
-0.12412729 0.13753884 -0.0773278 0.053860184 0.02665253 -0.058558606 -0.1321303 -0.15145467
-0.20640807 0.068097994 -0.14205286 -0.10646266 -0.022735784 -0.12341106 -0.12960166 -0.05428026
-0.18679434 -0.029878978 -0.16603626 -0.12275399 0.020438867 -0.10829879 -0.15572341 0.0852063
00000000: d84e 71be 38b6 61bd 9ebd 02be 4795 3cbe
00000010: 6b67 d2bd 40ed 15be 89a5 89bd 3d61 e23d
00000020: 194d f5bd 749b eebd ac50 043e bc1d c3bd
00000030: a42d 00bd 9ff4 46be 2a05 16be 3fb3 07be
00000040: eaeb 08be 8311 c8bd 9368 1dbe e5b5 323d
00000050: 752f 8cbd 4663 803c 1a7b 05be 4def 4dbe
00000060: 7901 48bc 9fa4 4ebd 8f21 ebba c32b 33be
00000070: af49 ebbd 86b1 94bd 05c9 5abc 517f 2bbe
00000080: 7919 e1bd 9043 9cbd 9b35 1bbe 606a 99bd
00000090: 9f1d 0bbe df1a 6eba e7e2 30be a6ab e8bd
000000a0: 7336 febd fbd6 0c3e 0a5e 9ebd 7f9c 5c3d
000000b0: 6856 da3c 26db 6fbd 2a4d 07be ef16 1bbe
000000c0: a35c 53be f676 8b3d 4e76 11be 1809 dabd
000000d0: 6540 babc f0be fcbd 4cb6 04be fa54 5ebd
000000e0: 0447 3fbe c2c4 f4bc 6905 2abe 7266 fbbd
000000f0: 696f a73c c2cb ddbd f575 1fbe a480 ae3d

encoder.message_net.3.0.weight f4 [64, 64]
0.09197848 0.09641711 0.05962423 -0.050133865 0.11111224 -0.06234574 -0.08486194 -0.053766854
-0.102224745 -0.017661039 0.0457835 0.07298852 -0.002040618 -0.0036946107 -0.017656254 -0.03093218
-0.10560125 0.053803902 0.032790337 -0.08727652 -0.16149703 0.04355346 -0.034028433 -0.03924312
0.050348245 -0.011774466 0.04581542 -0.052293543 0.09011162 -0.13624834 -0.13747756 0.09744103
-0.05492015 0.08246795 0.08358885 -0.034622606 -0.13056634 -0.042260613 -0.06894684 -0.071635365
-0.011187983 -0.14963503 -0.07298589 0.060072396 0.0007083149 0.16806237 -0.09558847 0.06882071
-0.12082229 0.12565263 -0.019687975 -0.09420957 -0.00447057 -0.00057709747 -0.11873694 0.057733092
0.11607724 -0.030931119 0.07465052 -0.0866562 0.075130075 -0.0073108813 -0.026125161 0.102515645
-0.053709 0.21292654 -0.21758695 -0.06912414 -0.19496447 -0.15553036 0.08175195 0.13000673
0.245342 -0.16254668 -0.53617567 -0.0061430424 -0.19341953 0.23635885 -0.35347974 0.23304276
0.17042685 0.19378936 -0.0075385836 -0.18787256 -0.016480856 -0.23125741 0.07795353 0.2876198
-0.2073894 -0.030254489 -0.20975097 -0.32087258 0.12679914 -0.14346172 0.11410041 0.08658108
-0.062264394 -0.19199827 -0.07605984 -0.2963567 0.17644721 -0.05636991 -0.036253564 0.024826536
-0.11467772 0.14963254 -0.124355696 0.012328292 0.19227499 -0.16158377 0.050982192 0.25812468
0.06672544 -0.07244111 0.23239636 -0.02997579 -0.09699306 0.11922182 0.42236626 -0.1503252
0.17102714 0.29030275 0.15356386 -0.24099404 -0.1267257 0.2881583 0.19618136 0.25921398
0.107710585 0.13309956 -0.14080474 -0.14935106 -0.006842985 -0.25688192 -0.030295458 -0.12704855
0.038108215 -0.18554366 -0.34049052 0.45556176 -0.09703556 0.04981663 -0.21760285 0.17381144
-0.06928666 0.104706824 -0.03678756 0.07418763 -0.1784657 -0.21582574 -0.20503405 -0.031841055
-0.02424059 -0.005162498 -0.075803414 -0.16739829 0.10851688 0.053507447 0.1847156 -0.05119268
-0.005017202 -0.22139585 0.037058994 -0.19985305 -0.086180225 -0.07483592 0.23378687 0.035346672
-0.22257988 -0.13571545 0.08123276 -0.18119428 0.0360565 -0.081534006 0.14947309 0.16779655
0.026614493 0.041479312 0.13650037 -0.13819146 0.059398618 0.019162893 0.16132236 -0.19685756
0.02011008 0.2596942 0.00896215 -0.21739309 -0.1451097 0.16531815 0.1397522 -0.08526782
0.072453626 -0.04879687 0.056605253 0.03571631 -0.08645871 -0.01133786 0.00079898274 -0.025594804
0.10298367 -0.04501452 0.047746904 -0.050433505 0.06108269 -0.037414778 -0.05177836 -0.04976779
0.17714064 0.032579057 -0.08971569 0.019757237 -0.040204436 -0.09277602 0.039835602 -0.03932482
0.07387439 0.06843739 -0.07655431 -0.067937456 0.03219866 0.07285312 0.0842956 -0.007328608
0.0071446216 0.051353857 0.0044781147 0.13133974 0.014288079 -0.06408024 0.031481136 0.087151974
-0.08405689 -0.11375536 -0.07224705 0.05619204 -0.06984266 0.14431328 0.045391306 0.12968573
-0.065161556 -0.07724888 0.0063256444 0.10578775 -0.0570762 0.04251152 -0.08751359 -0.03091014
0.07009378 0.10480869 0.024225766 -0.09150921 -0.1359918 0.00027958115 -0.07018306 -0.0038795404
00000000: 375f bc3d 5576 c53d 8938 743d 2b59 4dbd
00000010: d08e e33d 3f5e 7fbd 19cc adbd a23a 5cbd
00000020: 355b d1bd e2ad 90bc 7b87 3b3d 017b 953d
00000030: e4bb 05bb 4821 72bb d9a3 90bc 7c65 fdbc
00000040: 7845 d8bd 7b61 5c3d 294f 063d 08be b2bd
00000050: 7a5f 25be 1d65 323d 6661 0bbd 65bd 20bd
00000060: f639 4e3d b1e9 40bc f3a8 3b3d c131 56bd
00000070: 718c b83d af84 0bbe ebc6 0cbe 2a8f c73d
00000080: f4f3 60bd f5e4 a83d a230 ab3d 6fd0 0dbd
00000090: 2fb3 05be 7719 2dbd 0034 8dbd 90b5 92bd
000000a0: cd4d 37bc ed39 19be a079 95bd 790e 763d
000000b0: 35ae 393a 8b18 2c3e e3c3 c3bd dff1 8c3d
000000c0: ad71 f7bd 15ab 003e ad48 a1bc f2f0 c0bd
000000d0: dc7d 92bb 5b48 17ba 5a2c f3bd 8979 6c3d
000000e0: e7b9 ed3d 4263 fdbc 5fe2 983d ce78 b1bd
000000f0: ccdd 993d 1e90 efbb 6f04 d6bc b9f3 d13d
00000100: f8fd 5bbd 6a09 5a3e 1dcf 5ebe f590 8dbd
00000110: c4a4 47be 5a43 1fbe 916d a73d 7c20 053e
00000120: ef3a 7b3e a372 26be cf42 09bf 934b c9bb
00000130: c50f 46be 0e08 723e 4cfb b4be c3a2 6e3e
00000140: 6084 2e3e b870 463e 3906 f7bb aa61 40be
00000150: dc02 87bc bece 6cbe 1aa6 9f3d e742 933e
00000160: e35d 54be 43d8 f7bc f5c8 56be 6949 a4be
00000170: a2d7 013e a1e7 12be 7aad e93d 6c51 b13d
00000180: f308 7fbd 329b 44be 43c5 9bbd 11bc 97be
00000190: 94ae 343e 22e4 66bd 9e7e 14bd 0561 cb3c
000001a0: 27dc eabd 4639 193e 33ae febd 9bfc 493c
000001b0: bce3 443e 3776 25be b4d2 503d eb28 843e
000001c0: 59a7 883d 015c 94bd 50f9 6d3e ca8f f5bc
000001d0: 4ca4 c6bd 922a f43d 6440 d83e d9ee 19be
000001e0: bd21 2f3e 90a2 943e d83f 1d3e 24c7 76be
000001f0: 62c4 01be 7c89 933e c4e3 483e b2b7 843e
00000200: 5e97 dc3d 404b 083e 1e2f 10be 7cef 18be
00000210: 1e3b e0bb 0786 83be 2e2e f8bc 0419 02be
00000220: 5c17 1c3d 28ff 3dbe c654 aebe 643f e93e
00000230: 94ba c6bd 860c 4c3d 48d3 5ebe a0fb 313e
00000240: 2ae6 8dbd 8870 d63d 8dae 16bd afef 973d
00000250: b6bf 36be 6c01 5dbe 72f4 51be c46b 02bd
00000260: 3494 c6bc 2c2a a9bb d23e 9bbd 756a 2bbe
00000270: 193e de3d a02a 5b3d 1626 3d3e 6aaf 51bd
00000280: 5767 a4bb 98b5 62be 2ccb 173d 47a6 4cbe
00000290: 427f b0bd 9343 99bd d365 6f3e acc7 103d
000002a0: fbeb 63be fef8 0abe 5c5d a63d fe8a 39be
000002b0: fbaf 133d 4dfb a6bd 790f 193e dcd2 2b3e
000002c0: a306 da3c 36e6 293d c1c6 0b3e 1082 0dbe
000002d0: f74b 733d 80fb 9c3c b031 253e 0795 49be
000002e0: e5bd a43c a3f6 843e fbd5 123c 4b9c 5ebe
000002f0: a397 14be 2949 293e 331b 0f3e e5a0 aebd
00000300: 9162 943d 3adf 47bd e9da 673d 444b 123d
00000310: 4411 b1bd 6ec2 39bc d372 513a 32ac d1bc
00000320: 1ae9 d23d 2561 38bd 4292 433d 5d93 4ebd
00000330: d831 7a3d 3d40 19bd 8c15 54bd 4fd9 4bbd
00000340: 5b64 353e 9e71 053d dcbc b7bd eed9 a13c
00000350: 68ad 24bd 5b01 bebd a82a 233d 1013 21bd
00000360: 754b 973d e728 8c3d 82c8 9cbd cb22 8bbd
00000370: bee2 033d 0434 953d 2ca3 ac3d d224 f0bb
00000380: 6e1d ea3b 6c58 523d 26bd 923b ed7d 063e
00000390: 8c18 6a3c 803c 83bd 5df2 003d bc7c b23d
000003a0: 0526 acbd 92f8 e8bd 43f6 93bd a029 663d
000003b0: ab09 8fbd dcc6 133e 3cec 393d 56cc 043e
000003c0: 6c73 85bd a934 9ebd 5a47 cf3b 3fa7 d83d
000003d0: bcc8 69bd 8f20 2e3d 533a b3bd 4337 fdbc
000003e0: 548d 8f3d f0a5 d63d 1d75 c63c 2e69 bbbd
000003f0: 6f41 0bbe bf94 9239 23bc 8fbd e33f 7ebb

encoder.message_net.3.0.bias f4 [64]
-0.21004796 0.11079314 0.04504758 -0.21226397 -0.20823303 0.0005622509 -0.1941359 -0.14129739
-0.05513945 -0.05896796 -0.1549137 -0.069582865 -0.12963675 -0.115655325 -0.00017469662 0.107996926
-0.09033369 -0.089458674 -0.20711412 -0.14819069 -0.19943592 -0.11814135 -0.086947955 -0.2041956
-0.11964677 -0.08911072 -0.1804499 -0.087195724 -0.1424006 -0.14007746 -0.2097402 -0.05226333
-0.12424367 -0.12385153 -0.13992992 -0.119408466 -0.09642556 -0.10121751 -0.10441782 0.17466961
-0.21645766 -0.1139421 -0.12906808 -0.0030763522 -0.036220036 0.11085597 -0.11250638 -0.22193097
-0.1540549 0.23429868 -0.1328524 -0.17006369 0.0950826 -0.17149632 -0.11817506 -0.2252158
-0.03649022 0.043796185 0.0041852463 0.03644333 0.021899348 -0.09561663 -0.11108391 0.08740703
00000000: d016 57be 84e7 e23d d083 383d ba5b 59be
00000010: 0a3b 55be 0564 133a 90cb 46be 43b0 10be
00000020: e7d9 61bd 6388 71bd b2a1 1ebe 7681 8ebd
00000030: 7fbf 04be b3dc ecbd c42e 37b9 7e2d dd3d
00000040: df00 b9bd 1c36 b7bd b915 54be 4dbf 17be
00000050: ee38 4cbe 18f4 f1bd c511 b2bd a718 51be
00000060: 5e09 f5bd ae7f b6bd dcc7 38be ac93 b2bd
00000070: 76d1 11be 7770 0fbe 23c6 56be 1312 56bd
00000080: 7773 febd dfa5 fdbd ca49 0fbe 6d8c f4bd
00000090: c47a c5bd 204b cfbd 03d9 d5bd 97dc 323e
000000a0: 14a7 5dbe 7a5a e9bd 6c2a 04be a09c 49bb
000000b0: 765b 14bd 7408 e33d bf69 e6bd df41 63be
000000c0: 91c0 1dbe feeb 6f3e 760a 08be 2d25 2ebe
000000d0: abba c23d bb9c 2fbe c405 f2bd f89e 66be
000000e0: c576 15bd a163 333d 6424 893b 9a45 153d
000000f0: 4366 b33c a7d2 c3bd f67f e3bd 7502 b33d

encoder.message_net.4.0.weight f4 [64, 64]
-0.123374864 -0.07932702 0.071748935 0.08321182 -0.07595726 -0.081938885 0.14768757 -0.017135607
-0.049298543 -0.06276191 0.05061742 0.036562618 0.061533332 0.07323665 0.061086833 0.0010816932
0.007714073 -0.0016460357 -0.030385071 0.032970387 0.020617684 -0.16477558 -0.094679385 0.062394947
-0.009470361 -0.066023946 0.061210163 -0.10519068 0.031904474 -0.034369707 -0.027197124 -0.026824195
0.077211104 -0.099081606 -0.045174934 -0.07353638 0.16962124 0.10601912 0.015906226 -0.02749566
0.019058688 -0.12573276 0.0075814733 0.0306409 -0.102711804 0.15294796 0.031494588 0.06427484
-0.02658847 -0.047819458 0.05808606 0.09158437 -0.05842668 0.08841588 0.03307546 0.11783463
0.013360812 0.028169107 -0.0008519066 -0.05069479 -0.011316323 0.040703814 0.108729266 0.017127914
0.008522103 -0.0953161 0.0032573594 -0.10438929 -0.034530967 0.107070945 0.12410366 -0.05570908
-0.023709297 0.008618368 -0.10701859 0.05786963 -0.15777001 0.046475753 -0.070159204 -0.079872236
0.058645554 0.12706877 -0.13114785 -0.16668065 -0.038761884 0.098928005 -0.015716853 -0.07679736
0.22782898 0.084261216 -0.043588355 -0.069788136 0.009501336 -0.047069676 0.051422197 0.024673525
-0.10080521 0.03158207 -0.17366292 -0.14101432 -0.088004515 -0.18265712 0.05830402 -0.16922174
0.05269191 -0.18448862 0.03136496 -0.02876039 -0.15626581 0.12753774 0.08195216 -0.06947358
-0.078518294 0.12023744 -0.093514234 0.111688375 0.10275035 -0.022433305 0.03491331 -0.03961579
0.10720768 -0.015205606 -0.1099604 0.027223451 0.018251846 -0.17535292 -0.012803693 -0.0770843
-0.05466856 0.0057528825 -0.058167405 -0.113631405 0.100078255 -0.028997015 -0.1286019 -0.14903566
-0.054835703 0.085574396 -0.063342504 -0.016128456 0.08011091 -0.059011806 0.11640066 -0.022420688
-0.004459452 -0.0965327 -0.07057953 -0.18361104 -0.12608759 -0.0898957 -0.109439254 0.001940493
0.048133627 -0.040266305 -0.043153267 0.021105323 0.1598831 0.038422745 0.0027655594 0.018086337
0.0385162 -0.013874984 -0.20156495 -0.061547883 -0.13364524 -0.0190263 -0.083896674 0.123021066
0.033499435 0.0132228425 0.038215164 -0.07355928 0.009942033 0.18243217 0.1397242 -0.009293139
0.20692676 -0.025463376 -0.0128535135 0.09623326 -0.03773138 -0.041502047 0.032894682 0.10952291
-0.029240603 0.059988443 -0.07092538 -0.013150826 0.22958668 -0.14139572 -0.022051804 0.0158286
-0.45844087 -0.0496359 -0.018250946 -0.27145925 -0.2486533 -0.12382061 -0.047847245 -0.059005205
0.39667472 -0.24036555 -0.03818207 0.020899149 -0.26782382 0.00027002214 -0.21482345 0.07383865
-0.03824584 0.007581223 0.085678004 0.018961826 0.034079317 -0.2392143 -0.1277047 0.12515405
0.087420285 0.0011080639 -0.07666894 -0.4047083 -0.123201616 -0.047202755 0.19096617 -0.0889786
-0.2095005 -0.26361066 0.18555921 -0.15914416 0.22165382 -0.24927714 0.2530213 -0.05918931
-0.29973882 0.2145694 -0.04069794 -0.04071544 0.13269301 0.04948292 -0.20522569 0.12823418
-0.0624388 -0.2789354 -0.2508145 -0.35572216 -0.016427053 0.06535283 0.07848754 -0.30446178
0.119366966 -0.056641012 0.21063241 0.11596443 -0.12404349 0.26573375 -0.10761559 0.09709328
00000000: f6ab fcbd 3476 a2bd 1bf1 923d f56a aa3d
00000010: 7b8f 9bbd 93cf a7bd 693b 173e f95f 8cbc
00000020: 45ed 49bd 5189 80bd 3654 4f3d afc2 153d
00000030: 600a 7c3d 19fd 953d 3036 7a3d 9ac7 8d3a
00000040: 56c6 fc3b cbbf d7ba 1dea f8bc f50b 073d
00000050: 6be6 a83c eeba 28be 44e7 c1bd d891 7f3d
00000060: 9329 1bbc 9037 87bd 82b7 7a3d 366e d7bd
00000070: 44ae 023d 40c7 0cbd 81cc debc 6abe dbbc
00000080: db20 9e3d 4ceb cabd 5a09 39bd 3e9a 96bd
00000090: 31b1 2d3e 8d20 d93d c64d 823c 943e e1bc
000000a0: f720 9c3c 17c0 00be 026e f83b a002 fb3c
000000b0: 915a d2bd 649e 1c3e 7800 013d 87a2 833d
000000c0: 10d0 d9bc 56de 43bd a6eb 6d3d 9690 bb3d
000000d0: d050 6fbd 6313 b53d 227a 073d 4853 f13d
000000e0: 4fe7 5a3c e6c2 e63c 7c52 5fba 57a5 4fbd
000000f0: 1968 39bc 0bb9 263d 73ad de3d d74f 8c3c
00000100: 4aa0 0b3c 1635 c3bd 6c79 553b 0dca d5bd
00000110: 5870 0dbd 0348 db3d 0f2a fe3d 342f 64bd
00000120: 003a c2bc 0e34 0d3c 902c dbbd b508 6d3d
00000130: 768e 21be 5c5d 3e3d a1af 8fbd 0e94 a3bd
00000140: 5236 703d 511e 023e 9f4b 06be 55ae 2abe
00000150: c8c4 1ebd c49a ca3d a1c0 80bc ef47 9dbd
00000160: 004c 693e 2591 ac3d b489 32bd 15ed 8ebd
00000170: 7eab 1b3c 22cc 40bd 15a0 523d 2220 ca3c
00000180: f672 cebd 335c 013d b1d4 31be 0f66 10be
00000190: b63b b4bd 780a 3bbe 32d0 6e3d 7748 2dbe
000001a0: 79d3 573d 96ea 3cbe 8b78 003d e99a ebbc
000001b0: 2504 20be 4199 023e 89d6 a73d 2a48 8ebd
000001c0: 33ce a0bd 0c3f f63d 6484 bfbd e0bc e43d
000001d0: c76e d23d 0dc6 b7bc 4201 0f3d 2b44 22bd
000001e0: b38f db3d ef20 79bc eb32 e1bd b703 df3c
000001f0: e584 953c b78f 33be 95c6 51bc 60de 9dbd
00000200: 24ec 5fbd ad82 bc3b f240 6ebd 95b7 e8bd
00000210: d4f5 cc3d 268b edbc 37b0 03be ce9c 18be
00000220: 679b 60bd a141 af3d b7b9 81bd d31f 84bc
00000230: 3011 a43d 5db6 71bd 7863 ee3d 97ab b7bc
00000240: 9820 92bb f0b2 c5bd 008c 90bd 8804 3cbe
00000250: 1b1d 01be 3d1b b8bd b021 e0bd 2458 fe3a
00000260: c427 453d 48ee 24bd 7bc1 30bd 12e5 ac3c
00000270: 65b8 233e 2b61 1d3d 633e 353b cc29 943c
00000280: 2ac3 1d3d e753 63bc 0b67 4ebe a219 7cbd
00000290: 4cda 08be 0bdd 9bbc 05d2 abbd 78f2 fb3d
000002a0: b436 093d 9fa4 583c 8187 1c3d 3fa6 96bd
000002b0: e9e3 223c 80cf 3a3e dc13 0f3e 4042 18bc
000002c0: 9ce4 533e 9298 d0bc 8b97 52bc f215 c53d
000002d0: 388c 1abd 0dfe 29bd 93bc 063d 8c4d e03d
000002e0: fd89 efbc 71b6 753d 5341 91bd 9076 57bc
000002f0: c518 6b3e 0aca 10be fca5 b4bc fbaa 813c
00000300: c3b8 eabe 034f 4bbd 0283 95bc b5fc 8abe
00000310: f89e 7ebe a995 fdbd 79fb 43bd 71af 71bd
00000320: f318 cb3e 6322 76be cd64 1cbd b134 ab3c
00000330: 3420 89be c291 8d39 aefa 5bbe b838 973d
00000340: aca7 1cbd e86b f83b f377 af3d d555 9b3c
00000350: c196 0b3d 98f4 74be 05c5 02be 6228 003e
00000360: 6809 b33d 743c 913a 9b04 9dbd ed35 cfbe
00000370: 2151 fcbd ad57 41bd a38c 433e 6a3a b6bd
00000380: 4d87 56be faf7 86be 3c03 3e3e b0f6 22be
00000390: 38f9 623e 8242 7fbe 028c 813e 7d70 72bd
000003a0: 5e77 99be 15b8 5b3e e2b2 26bd 3cc5 26bd
000003b0: ade0 073e 9aae 4a3d af26 52be d24f 033e
000003c0: d4bf 7fbd 9fd0 8ebe c26a 80be 3721 b6be
000003d0: 0792 86bc b4d7 853d 13be a03d 6ae2 9bbe
000003e0: ab76 f43d 6800 68bd 06b0 573e c27e ed3d
000003f0: 830a febd 410e 883e 9065 dcbd d7d8 c63d

encoder.message_net.4.0.bias f4 [64]
-0.12884462 -0.10295145 -0.16337246 0.0599643 -0.050698057 -0.15067123 -0.036719434 0.08764743
0.1118547 -0.15268767 -0.14148068 -0.050688908 -0.05088089 -0.18947214 -0.16039269 -0.038346317
0.17993364 0.20113914 -0.06862609 -0.000115448005 0.008731765 -0.1663043 -0.17559512 -0.11188702
-0.020415317 -0.17360322 0.01455384 -0.10694421 0.11209213 -0.018179897 -0.15987971 -0.17371233
0.14221062 -0.035631556 -0.10205678 -0.08950405 -0.11669943 -0.090479374 -0.20236216 -0.17869432
-0.052886877 -0.18663226 -0.1215017 0.01449169 -0.070331596 -0.16232851 -0.14207439 -0.121434405
-0.021994492 -0.0022465705 0.12044266 -0.022080643 -0.12824385 -0.13979332 0.06949538 -0.13945633
-0.1434549 -0.15865852 0.13602637 0.15050995 -0.13850632 -0.13925408 -0.057609603 -0.03062514
00000000: d8ef 03be 36d8 d2bd 1c4b 27be 209d 753d
00000010: c4a8 4fbd 8f49 1abe 1e67 16bd 7f80 b33d
00000020: 1414 e53d 285a 1cbe 50e0 10be 2c9f 4fbd
00000030: 7b68 50bd fc04 42be fb3d 24be 0711 1dbd
00000040: 8640 383e 6bf7 4d3e d68b 8cbd ad1c f2b8
00000050: ad0f 0f3c ad4b 2abe 35cf 33be 0625 e5bd
00000060: 063e a7bc 0bc5 31be 3b73 6e3c 9105 dbbd
00000070: 8f90 e53d 02ee 94bc 82b7 23be a5e1 31be
00000080: a99f 113e 65f2 11bd 2503 d1bd e64d b7bd
00000090: 1c00 efbd 404d b9bd 0738 4fbe a5fb 36be
000000a0: e99f 58bd 871c 3fbe e2d5 f8bd 8e6e 6d3c
000000b0: 030a 90bd 7239 26be f37b 11be 9ab2 f8bd
000000c0: cb2d b4bc 333b 13bb a4aa f63d 77e2 b4bc
000000d0: 5b52 03be fb25 0fbe 9853 8e3d a4cd 0ebe
000000e0: d7e5 12be 6177 22be 7f4a 0b3e 481f 1a3e
000000f0: 9ad4 0dbe 9f98 0ebe 0cf8 6bbd 93e1 fabc
