experiments/gat_hd64_ld32_nr3_ep500_nf3.0_dl1/model.pt (torch, 179365 bytes, 20 tensors)

encoder.input_net.0.weight f4 [64, 7]
-0.05027712 -0.062332835 0.34481335 0.42122933 -0.34440318 -0.089963354 0.44394746 0.0934164
0.38114238 0.3974546 -0.061820574 0.13573407 -0.19043316 -0.21475106 0.03627199 -0.19858615
0.27207762 0.013796168 -0.30364963 -0.18309543 0.12804091 -0.34580603 0.36776534 -0.21053107
-0.014670821 -0.21050982 -0.21190803 0.04763487 -0.08313773 -0.036123045 -0.30092996 -0.2594448
0.13462962 -0.123823866 0.26586986 0.09395631 -0.31802052 0.34721655 -0.24202688 0.3769257
0.17774166 -0.048242487 -0.0727897 -0.015810296 -0.081851 0.25504273 0.60494334 -0.19274628
-0.025879724 -0.1303772 0.13678533 -0.14481884 0.36548153 -0.32702982 -0.15733811 0.524981
-0.2158596 0.5669859 -0.021997567 -0.36382446 -0.22449657 0.14671142 0.25647697 -0.3078899
0.15656665 -0.08817946 0.10620216 0.23878634 -0.069001496 0.29460812 -0.31468615 -0.24253084
-0.21947052 -0.23862103 -0.061726116 0.016549526 0.23824643 -0.2417131 -0.3645571 0.30816102
0.034778498 -0.25740615 -0.33773074 0.40699947 -0.2548266 -0.030065183 -0.23456296 -0.14252357
0.16594689 -0.34722283 0.18906564 -0.024405079 0.4776196 0.37709305 -0.37231097 -0.26796392
-0.29861084 -0.1303958 -0.4269271 0.6046248 0.25112855 0.07219087 0.02084971 -0.3231228
-0.3859985 0.24097972 0.21577595 0.3947905 -0.099627994 -0.13312206 -0.09975775 0.12452459
-0.150785 0.17145155 0.22323214 -0.030699518 0.1579213 0.025448272 0.21854027 0.24439244
0.3841463 -0.33177567 -0.30930138 -0.29594496 -0.20567653 0.11624603 0.3691877 -0.14509828
-0.16022004 -0.15729563 -0.23793522 0.13523813 -0.37323102 0.20480865 0.46070626 -0.10376153
0.08375652 -0.033473667 0.23598346 -0.27731267 -0.22713663 0.111455284 0.43752939 -0.3510671
-0.30584326 -0.30794898 -0.08056278 -0.21946041 -0.1484373 -0.20740941 -0.087742 0.12748383
-0.20827436 -0.23532426 0.28655702 -0.2318626 0.3545332 0.31704456 0.20347127 -0.2313042
0.31191534 -0.0011272089 -0.049164798 -0.18378073 0.25639525 0.0071112206 -0.25888598 0.11621284
0.37226135 -0.38343287 0.1463954 0.08715754 -0.14854819 -0.05006096 -0.31769383 -0.27438205
0.22332291 -0.11403074 0.22574833 0.17764339 -0.052904878 0.42739707 0.22145157 0.42661956
-0.29974914 -0.1770558 -0.2997914 -0.30114728 -0.31238648 0.07494624 -0.35478365 0.055158
-0.29952955 0.14018902 -0.1674158 0.2069584 -0.28563958 -0.0060168365 0.42818698 0.29255074
0.18774839 -0.0830393 -0.07889297 0.000704811 0.089359745 0.12923959 -0.16483007 -0.18133223
-0.30381414 -0.3061336 0.31277114 0.37442002 -0.3735281 0.11929813 -0.19862299 0.09616705
0.08978202 0.24498108 -0.18769163 0.34102452 0.098358646 -0.17843816 -0.31424606 0.1486633
-0.40018705 0.2845778 0.2605304 -0.028592575 0.020220786 0.33118793 0.31548753 0.30020738
0.030221673 -0.15347615 -0.3200421 -0.33500877 0.02529592 0.029929178 -0.20374566 -0.24614395
0.2674239 -0.021644557 0.07119716 -0.015080221 -0.037925452 0.2635148 -0.08651185 0.3999308
0.44072035 0.5452113 0.11803768 -0.14551018 0.3757663 0.04685262 -0.19833964 0.34182012
00000000: 62ef 4dbd b750 7fbd 608b b03e 5fab d73e
00000010: 9d55 b0be b53e b8bd 154d e33e 1951 bf3d
00000020: 1825 c33e 2b7f cb3e 9237 7dbd dffd 0a3e
00000030: e900 43be b4e7 5bbe f091 143d 2b5a 4bbe
00000040: c24d 8b3e 5309 623c f777 9bbe 5e7d 3bbe
00000050: 281d 033e 7d0d b1be bd4b bc3e 7595 57be
00000060: e25d 70bc e38f 57be 6bfe 58be c81c 433d
00000070: 1d44 aabd c2f5 13bd 7e13 9abe f3d5 84be
00000080: 59dc 093e 5e97 fdbd 1820 883e 2a6c c03d
00000090: 96d3 a2be 5ec6 b13e e5d5 77be 68fc c03e
000000a0: e901 363e ea99 45bd c412 95bd 9884 81bc
000000b0: 7fa1 a7bd f694 823e 91dd 1a3f 485f 45be
000000c0: b701 d4bc 9a81 05be 7411 0c3e 644b 14be
000000d0: 6520 bb3e 7470 a7be 3e1d 21be 2865 063f
000000e0: 4d0a 5dbe fd25 113f 3e34 b4bc 3347 babe
000000f0: 6ee2 65be 853b 163e f350 833e bfa3 9dbe
00000100: 0253 203e 6f97 b4bd 8580 d93d 6884 743e
00000110: a850 8dbd e0d6 963e 8b1e a1be 015a 78be
00000120: e1bc 60be 1259 74be 86d4 7cbd df92 873c
00000130: dff6 733e a483 77be 3aa7 babe 48c7 9d3e
00000140: e673 0e3d bdca 83be 0beb acbe 3c62 d03e
00000150: a278 82be 424b f6bc 4631 70be b3f1 11be
00000160: fbed 293e 31c7 b1be 6c9a 413e 29ed c7bc
00000170: 8e8a f43e 5712 c13e 8b9f bebe 9132 89be
00000180: 85e3 98be 7a86 05be 3096 dabe b1c8 1a3f
00000190: ec93 803e cfd8 933d 03cd aa3c 5a70 a5be
000001a0: 98a1 c5be 63c3 763e 5ff4 5c3e fb21 ca3e
000001b0: c309 ccbd 2651 08be cb4d ccbd c006 ff3d
000001c0: 6267 1abe ff90 2f3e f796 643e 8e7d fbbc
000001d0: 1fb6 213e e578 d03c 05c9 5f3e 0342 7a3e
000001e0: d3ae c43e 80de a9be c05c 9ebe 1986 97be
000001f0: de9c 52be 6612 ee3d 2c06 bd3e a594 14be
00000200: b910 24be 1b12 21be 4aa5 73be dd7b 0a3e
00000210: 2318 bfbe 5cb9 513e b1e1 eb3e ed80 d4bd
00000220: 8a88 ab3d af1b 09bd a6a5 713e edfb 8dbe
00000230: 8196 68be ab42 e43d da03 e03e 11bf b3be
00000240: 7d97 9cbe 7dab 9dbe 19fe a4bd 3bba 60be
00000250: f3ff 17be 2263 54be 14b2 b3bd 1f8b 023e
00000260: e045 55be d8f8 70be 9ab7 923e 646d 6dbe
00000270: 6085 b53e aa53 a23e c65a 503e 02db 6cbe
00000280: 5eb3 9f3e dbbe 93ba 0761 49bd 0431 3cbe
00000290: 3d46 833e 3e05 e93b b48c 84be ff00 ee3d
000002a0: 0a99 be3e 5051 c4be ade8 153e a77f b23d
000002b0: 041d 18be b90c 4dbd c4a8 a2be ce7b 8cbe
000002c0: c3ae 643e f388 e9bd 922a 673e 26e8 353e
000002d0: c9b2 58bd cad3 da3e 33c4 623e e16d da3e
000002e0: b878 99be 1e4e 35be 427e 99be fa2f 9abe
000002f0: 1ff1 9fbe 6a7d 993d 34a6 b5be 5bed 613d
00000300: f05b 99be b68d 0f3e 0c6f 2bbe e7ec 533e
00000310: 5a3f 92be e228 c5bb 533b db3e 36c9 953e
00000320: 1d41 403e 8210 aabd a392 a1bd 11c3 383a
00000330: 3e02 b73d 6257 043e 37c9 28be 28af 39be
00000340: 878d 9bbe 8bbd 9cbe 8a23 a03e fbb3 bf3e
00000350: 133f bfbe 9452 f43d d363 4bbe 3bf3 c43d
00000360: a3df b73d 52dc 7a3e 3c32 40be c49a ae3e
00000370: 4270 c93d 7eb8 36be dce4 a0be 313b 183e
00000380: 51e5 ccbe 2eb4 913e 3e64 853e fa3a eabc
00000390: 10a6 a53c 7791 a93e 9587 a13e c8b4 993e
000003a0: 7193 f73c da28 1dbe 8fdc a3be 4586 abbe
000003b0: 6439 cf3c 092e f53c b4a2 50be 290d 7cbe
000003c0: c9eb 883e ed4f b1bc d1cf 913d 0813 77bc
000003d0: b857 1bbd 69eb 863e 202d b1bd bbc3 cc3e
000003e0: 19a6 e13e f892 0b3f bdbd f13d 9f00 15be
000003f0: 7164 c03e 88e8 3f3d 8c19 4bbe 0c03 af3e

encoder.input_net.0.bias f4 [64]
0.059528742 0.13403037 0.16982958 0.21007508 -0.27495778 -0.1320773 -0.029798461 -0.08392931
0.21430759 -0.3359146 -0.28428367 0.23717801 0.26495722 0.083479084 0.4304426 0.09907786
0.24519704 0.3137123 -0.0030617462 0.10697161 -0.039018475 -0.2788912 0.2302894 -0.003544889
0.3826788 0.28949758 0.29676214 0.4354009 0.092750534 0.2777415 0.2900819 0.06947805
0.39863217 -0.02677308 -0.31886756 0.08445122 -0.14886527 -0.1366537 -0.17240478 0.031416606
0.22818674 0.3494774 0.27853012 0.20513082 0.029551957 0.1878177 0.13395384 0.077171154
0.15772311 0.073269 0.16610125 0.27481383 -0.3769233 0.2965507 0.26960486 -0.108704224
0.0046277214 0.38429514 -0.15322526 0.34781864 0.17330103 0.24123748 0.42036784 0.36822227
00000000: 69d4 733d 423f 093e cee7 2d3e ec1d 573e
00000010: 44c7 8cbe 463f 07be e71b f4bc 21e3 abbd
00000020: 7373 5b3e 00fd abbe a18d 91be cbde 723e
00000030: 79a8 873e 15f7 aa3d f962 dc3e 55e9 ca3d
00000040: ef14 7b3e e69e a03e 94a7 48bb ee13 db3d
00000050: d6d1 1fbd d4ca 8ebe fcd0 6b3e 5e51 68bb
00000060: 7aee c33e 0739 943e 35f1 973e deec de3e
00000070: fef3 bd3d 2234 8e3e 9d85 943e 824a 8e3d
00000080: 8419 cc3e 3853 dbbc 9c42 a3be c3f4 ac3d
00000090: 2370 18be f3ee 0bbe e18a 30be b3ae 003d
000000a0: c9a9 693e b4ee b23e 809b 8e3e d00d 523e
000000b0: f216 f23c 4853 403e 322b 093e e90b 9e3d
000000c0: 2b82 213e 0f0e 963d 7216 2a3e 66b4 8c3e
000000d0: 17fc c0be 7ed5 973e a609 8a3e 52a0 debd
000000e0: 24a4 973b 55c2 c43e 15e7 1cbe 4915 b23e
000000f0: d375 313e f506 773e 743a d73e a187 bc3e

encoder.message_net.0.0.weight f4 [64, 64]
-0.047366004 -0.015440638 -0.15597883 0.01984575 0.0022515804 -0.020079318 -0.18315996 -0.06571012
0.02966568 0.08992025 0.107379764 -0.023793858 0.10367218 0.12425399 0.06614454 -0.044410244
0.09630547 -0.016668202 -0.12474263 0.014102846 -0.09249714 0.02576363 -0.024945207 0.09037633
0.07075428 -0.015531762 0.029510971 0.038240395 -0.01237855 0.05849101 0.12254116 -0.02222578
0.06743858 -0.090811245 -0.016841203 0.00037872375 -0.07005079 -0.123093724 -0.108226575 0.042322066
-0.08934947 0.06320741 0.09068601 0.09392584 -0.08276524 -0.030997228 -0.010194256 0.0046068733
0.0029456585 0.1381623 -0.099757336 0.062761344 -0.045858905 0.040452097 0.094165325 -0.1611384
0.03381403 -0.0015497203 0.0037714527 -0.09636149 0.05525465 -0.04315905 -0.3168248 -0.07800517
0.035111595 -0.091218434 -0.07824161 0.016074963 0.0011073649 -0.27953172 0.04364531 -0.101916276
-0.05734517 -0.10619393 0.013883561 -0.107160956 0.058605444 -0.024758287 0.016293641 -0.006663698
-0.05573508 -0.037255235 -0.0018029233 -0.0024051182 -0.16126189 -0.006369278 0.06901693 0.075840555
0.076311775 -0.08321149 -0.08536277 -0.0758845 -0.12233026 0.10295876 0.092221685 0.09838707
-0.23865087 0.0741593 -0.0076247156 0.12402749 0.16731077 0.03955879 -0.17128137 0.058332834
-0.09184851 -0.10827368 -0.029533261 0.014549122 -0.18426147 0.057173397 0.086285554 -0.10890906
0.104873925 0.020491626 0.048459 0.023142846 -0.06562485 0.036989186 -0.043643497 0.013414745
0.03527424 -0.12283785 0.15419741 0.14631689 0.14965549 0.0779389 -0.005229623 0.017343197
-0.020931065 -0.09960081 -0.020737313 -0.14678118 -0.043620825 -0.09440173 -0.07077055 -0.033086523
-0.04692609 -0.041989878 -0.031947866 -0.1605737 -0.020419566 -0.013594394 0.042795308 -0.1540979
0.0480321 -0.13081385 -0.11138377 -0.04319984 -0.14542404 0.026155666 -0.048458666 0.017427739
-0.029936496 -0.061696477 -0.047205597 -0.065603346 0.037992008 0.029806236 0.029753314 -0.12522312
-0.054127537 0.05744521 -0.11862913 0.01331022 0.016910458 -0.03876755 0.010405999 0.064787574
-0.09277778 0.14974275 0.095911324 -0.12741515 -0.0114203375 0.07372368 0.06228428 -0.031385172
-0.043118007 -0.010405125 0.062950306 -0.12595281 -0.021688625 0.045895573 -0.005973782 -0.1033832
0.08418484 -0.048657503 -0.010762797 0.051983442 0.06713041 -0.13899162 0.10430522 -0.032283545
0.050743807 -0.003277582 0.050376993 -0.1405281 -0.050809756 -0.20140383 -0.10434259 -0.021253116
-0.12050619 0.061434194 -0.061487734 -0.09832675 0.09664529 0.078372486 -0.062486414 -0.043832567
0.0023972276 0.08495546 0.0018953866 -0.06937406 -0.083787926 -0.085295424 0.09890558 0.15955831
0.15734601 -0.12632868 0.053620547 0.021366699 -0.03927503 -0.004884003 0.15391517 0.08360881
-0.14575776 0.113348655 -0.0026600063 0.02793379 -0.045371115 -0.07571286 -0.17128769 0.023168169
-0.13118486 -0.045867715 0.020065168 0.12305543 -0.034495756 0.09935785 -0.08095132 -0.11387484
-0.006659011 -0.16046488 0.041781757 -0.104163095 0.03411925 0.061794534 -0.060786974 -0.16883427
0.10698478 -0.14044407 -0.051584102 0.057531886 0.022084989 0.054541577 0.09495856 0.12982494
00000000: db02 42bd bbfa 7cbc eab8 1fbe 8e93 a23c
00000010: 408f 133b 627d a4bc 498e 3bbe 0793 86bd
00000020: 7105 f33c 1c28 b83d ece9 db3d 56eb c2bc
00000030: 1452 d43d e078 fe3d ca76 873d 84e7 35bd
00000040: cd3b c53d c18b 88bc 1079 ffbd a00f 673c
00000050: 246f bdbd 400e d33c e459 ccbc 3a17 b93d
00000060: 9fe7 903d ee78 7ebc fec0 f13c f6a1 1c3d
00000070: 67cf 4abc 4594 6f3d dcf6 fa3d d712 b6bc
00000080: 3d1d 8a3d 3ffb b9bd 90f6 89bc 718f c639
00000090: ca76 8fbd 9018 fcbd e5a5 ddbd e759 2d3d
000000a0: dbfc b6bd e372 813d 96b9 b93d 315c c03d
000000b0: d280 a9bd e6ed fdbc cf05 27bc 41f5 963b
000000c0: f30b 413b 6b7a 0d3e 934d ccbd 0589 803d
000000d0: 8cd6 3bbd 19b1 253d c0d9 c03d 7701 25be
000000e0: 9580 0a3d fc1f cbba 7a2a 773b 2c59 c5bd
000000f0: b352 623d 8bc7 30bd dc36 a2be 2dc1 9fbd
00000100: 2dd1 0f3d bbd0 babd 233d a0bd a4af 833c
00000110: 0025 913a c81e 8fbe 6dc5 323d 7bb9 d0bd
00000120: c5e2 6abd 347c d9bd e077 633c 3477 dbbd
00000130: 430c 703d e4d1 cabc 3e7a 853c 265b dabb
00000140: 784a 64bd f298 18bd 1150 ecba 309f 1dbb
00000150: d621 25be 60b5 d0bb c058 8d3d 4b52 9b3d
00000160: 5949 9c3d c96a aabd add2 aebd 5569 9bbd
00000170: 4a88 fabd 0bdc d23d b9de bc3d 297f c93d
00000180: e560 74be d5e0 973d c0d8 f9bb 2002 fe3d
00000190: 8453 2b3e 6608 223d 6264 2fbe 69ee 6e3d
000001a0: 121b bcbd 97be ddbd bdef f1bc 715f 6e3c
000001b0: 0aaf 3cbe a72e 6a3d 7bb6 b03d b70b dfbd
000001c0: 24c8 d63d 0ede a73c f27c 463d 1196 bd3c
000001d0: 5266 86bd f981 173d 86c3 32bd 85c9 5b3c
000001e0: b97b 103d 6992 fbbd ede5 1d3e 18d4 153e
000001f0: 4a3f 193e 6e9e 9f3d 425d abbb 5213 8e3c
00000200: a077 abbc 82fb cbbd 4ce1 a9bc ce4d 16be
00000210: c0ab 32bd b255 c1bd 26f0 90bd bc85 07bd
00000220: 9235 40bd 94fd 2bbd c4db 02bd 6f6d 24be
00000230: ef46 a7bc 05bb 5ebc 224a 2f3d d7cb 1dbe
00000240: 4fbd 443d 11f4 05be 2d1d e4bd 51f2 30bd
00000250: 0aea 14be 6844 d63c 987c 46bd 9ec4 8e3c
00000260: 623d f5bc 72b5 7cbd a85a 41bd 0c5b 86bd
00000270: 829d 1b3d 352c f43c 39bd f33c 7d3a 00be
00000280: d6b4 5dbd ab4b 6b3d d4f3 f2bd 1c13 5a3c
00000290: cd87 8a3c b9ca 1ebd ec7d 2a3c 59af 843d
000002a0: 4702 bebd 2a56 193e 286d c43d 1e79 02be
000002b0: 5e1c 3bbc 71fc 963d cd1d 7f3d bd8d 00bd
000002c0: 829c 30bd 427a 2abc 17ec 803d c6f9 00be
000002d0: 58ac b1bc fffc 3b3d b7bf c3bb 92ba d3bd
000002e0: 1a69 ac3d 174d 47bd 7156 30bc 97ec 543d
000002f0: ab7b 893d d253 0ebe fa9d d53d c03b 04bd
00000300: bdd8 4f3d b3cc 56bb 1b58 4e3d 99e6 0fbe
00000310: e41d 50bd ce3c 4ebe 91b1 d5bd 041b aebc
00000320: f3cb f6bd 6ca2 7b3d 90da 7bbd 895f c9bd
00000330: f7ed c53d c181 a03d c1f1 7fbd c789 33bd
00000340: ce1a 1d3b 21fd ad3d 9f6e f83a fd13 8ebd
00000350: 0199 abbd 5eaf aebd 028f ca3d 4163 233e
00000360: 501f 213e 4e5c 01be 38a1 5b3d 3709 af3c
00000370: dbde 20bd fd09 a0bb f09b 1d3e 193b ab3d
00000380: 8641 15be 5723 e83d 8053 2ebb 67d5 e43c
00000390: 10d7 39bd 580f 9bbd 0a66 2fbe 2ccb bd3c
000003a0: 5355 06be c9df 3bbd b55f a43c 7c04 fc3d
000003b0: 6c4b 0dbd 217c cb3d cec9 a5bd 3637 e9bd
000003c0: d533 dabb e850 24be 5923 2b3d 7653 d5bd
000003d0: a0c0 0b3d 441c 7d3d c3fb 78bd e4e2 2cbe
000003e0: d61a db3d 92d0 0fbe da49 53bd 8ea6 6b3d
000003f0: 94eb b43c fd66 5f3d a279 c23d d4f0 043e

encoder.message_net.0.0.bias f4 [64]
-0.08840635 0.047004905 -0.12317777 -0.007633832 -0.084100746 -0.050369117 0.12584552 0.051923644
-0.0055199214 0.034830134 -0.01062008 -0.03435956 -0.10774459 -0.004792849 -0.06803915 0.04857978
-0.08229249 0.0055948575 -0.12393101 -0.0827909 0.07105605 0.14930542 0.14339659 0.006440362
0.06858686 -0.05062197 -0.08468735 0.009699084 0.13664828 0.08347784 -0.11594311 -0.06877231
0.0915726 0.101358466 0.0522072 0.096782684 0.033780064 0.028152179 0.017345827 -0.05027357
-0.02813153 -0.012718202 -0.0076627363 -0.05964164 -0.09884117 -0.11128501 0.072422996 0.064996585
-0.04683762 -0.1224621 -0.12979805 0.04072219 -0.06483482 -0.075949 0.077461116 0.11692364
-0.047244996 -0.011342159 0.06866317 -0.015917143 0.0066902065 0.09241766 -0.124155596 -0.08292532
00000000: 630e b5bd 3788 403d a044 fcbd 3925 fabb
00000010: 033d acbd d94f 4ebd a6dd 003e e3ad 543d
00000020: 75e0 b4bb 0baa 0e3d d8ff 2dbc 9cbc 0cbd
00000030: 32a9 dcbd 550d 9dbb 1c58 8bbd 97fb 463d
00000040: f788 a8bd 1155 b73b 8bcf fdbd 468e a9bd
00000050: d685 913d 85e3 183e 8ed6 123e ac09 d33b
00000060: 4577 8c3d fc58 4fbd 9070 adbd e8e8 1e3c
00000070: 87ed 0b3e 6ef6 aa3d 9573 edbd 7fd8 8cbd
00000080: 6a8a bb3d 0795 cf3d 38d7 553d 0036 c63d
00000090: f75c 0a3d 669f e63c d618 8e3c a9eb 4dbd
000000a0: 1874 e6bc 0160 50bc b117 fbbb cb4a 74bd
000000b0: 3d6d cabd 65e9 e3bd 8252 943d ee1c 853d
000000c0: ced8 3fbd 69cd fabd c8e9 04be 50cc 263d
000000d0: 1ec8 84bd 268b 9bbd efa3 9e3d a975 ef3d
000000e0: f883 41bd 76d4 39bc 479f 8c3d ab64 82bc
000000f0: 8539 db3b 7845 bd3d 4a45 febd c0d4 a9bd

encoder.message_net.1.0.weight f4 [64, 64]
0.0858312 0.083925605 -0.10579659 -0.008192191 0.04334126 -0.03023947 -0.07719589 -0.21640487
0.26512948 -0.056939296 0.06855568 -0.1047974 -0.0036981662 0.07327143 0.07963048 -0.1382432
-0.032563664 0.013982338 -0.16019478 -0.021994175 0.048036333 0.016794398 -0.25367728 0.013124255
-0.23770612 0.1917265 -0.13562268 -0.22992872 -0.20540856 -0.073263325 0.09839105 -0.024846494
0.13111624 -0.1411207 0.06608901 0.27859867 0.110338405 -0.2513168 -0.0291407 0.19518366
0.017582221 0.18381566 0.0012274967 -0.07726461 0.10102485 -0.059956063 -0.08116505 0.17985435
0.077071756 0.03656918 0.08660966 0.005974771 -0.16175176 0.18725955 0.22902335 0.11045393
-0.17862804 -0.0859729 -0.052576534 -0.12761876 0.08454707 0.14321068 -0.18998063 -0.06472963
0.22767857 0.3205952 -0.086598955 -0.11723378 -0.2229003 0.15855317 0.19974639 0.056631215
-0.14524426 -0.10401147 -0.08698864 0.21300206 0.04118908 0.09731753 0.036253504 -0.06718297
0.0086269565 -0.13367972 -0.16342413 -0.049634676 0.025924116 -0.052221697 0.12713358 0.16285299
-0.1575655 0.001872201 -0.026755644 0.014929542 0.25061426 0.20134781 -0.2128301 -0.14778061
-0.032775085 0.12600495 -0.05340588 0.40487683 -0.010869125 0.012576351 -0.23212747 0.10506108
0.11202275 0.12272202 0.021998072 -0.25919577 0.20997223 -0.053140853 0.12112453 0.13038178
-0.033431828 0.16876638 0.04152285 -0.37210843 -0.021766633 0.010853813 0.12119371 -0.12590046
-0.18194994 0.31658757 -0.12050014 0.059394248 -0.039594136 0.09074018 0.14320965 0.09813827
0.15264858 0.61487216 0.00031153212 -0.045977097 -0.20542789 0.10954564 0.08127478 -0.004050344
0.079926506 -0.029273557 0.09185475 0.011332258 0.03892588 -0.046990667 -0.087957144 0.08755194
0.06589855 -0.13168235 -0.15215617 -0.115979366 -0.018284177 -0.19556567 -0.05551594 0.24400406
-0.057788562 -0.12767136 0.028315956 -0.19352135 0.06548248 0.2315211 -0.17179847 -0.06879705
-0.045572348 -6.6872184e-05 0.15032545 0.47057733 -0.08248497 -0.24897644 -0.11005339 0.13223995
-0.00612227 0.046813652 -0.24597776 -0.08490033 0.24652192 -0.006963583 0.091071256 -0.1039511
-0.00948613 0.06461025 -0.19025694 -0.2133255 0.182719 0.16074796 0.121450946 0.038711973
-0.13553403 0.2705471 -0.08058884 0.18465155 0.10384193 -0.045976195 -0.2294289 -0.004591624
-0.12862188 -0.03109875 -0.036135107 0.044180032 0.0055511952 -0.14596078 0.035586257 -0.01320241
-0.13803408 0.10979206 -0.15598603 0.06351553 0.120235465 0.039816115 -0.05864911 0.13642502
0.12581013 0.081986375 0.13384461 0.04060419 0.040460207 -0.008971253 0.13372901 -0.1838339
0.0045598596 0.04413829 0.18970364 0.0013019661 -0.073398866 -0.07514468 0.050708983 -0.08675911
-0.1699916 0.056403644 -0.046861954 -0.02621934 0.05775691 0.100116596 0.086213365 -0.022194417
0.094856195 -0.14707015 0.10492901 -0.07972644 -0.01069042 0.05496385 0.1465872 0.08352896
-0.0037603173 -0.12839448 0.102684796 0.034414444 -0.062545285 0.032203533 -0.08349513 -0.08216546
0.29738295 -0.16802533 0.2743329 -0.05474155 0.11689862 0.023172075 0.07316443 0.1396698
00000000: 45c8 af3d 30e1 ab3d e2ab d8bd 8a38 06bc
00000010: 9b86 313d c4b8 f7bc e118 9ebd 3d99 5dbe
00000020: 0dbf 873e 2e39 69bd ec66 8c3d 05a0 d6bd
00000030: ef5c 72bb 550f 963d 4e15 a33d a08f 0dbe
00000040: 7a61 05bd 2d16 653c 1a0a 24be 212d b4bc
00000050: bfc1 443d 6894 893c fde1 81be 1e07 573c
00000060: 3c69 73be f453 443e ace0 0abe 6f72 6bbe
00000070: 9f56 52be 150b 96bd 3f81 c93d e08a cbbc
00000080: 5643 063e f281 10be ad59 873d 7ca4 8e3e
00000090: 1af9 e13d 98ac 80be 7ab8 eebc 3ade 473e
000000a0: 9708 903c 2c3a 3c3e f4e3 a03a e83c 9ebd
000000b0: 1ee6 ce3d 7d94 75bd dd39 a6bd bd2b 383e
000000c0: ccd7 9d3d 91c9 153d 6860 b13d 03c8 c33b
000000d0: 41a2 25be f8c0 3f3e 1985 6a3e ac35 e23d
000000e0: 45ea 36be 8f12 b0bd 7e5a 57bd 7eae 02be
000000f0: 0427 ad3d d2a5 123e 488a 42be f890 84bd
00000100: 9224 693e 0e25 a43e cb5a b1bd 4418 f0bd
00000110: fa3f 64be c35b 223e 518a 4c3e 22f6 673d
00000120: e9ba 14be f703 d5bd 1a27 b2bd 361d 5a3e
00000130: e1b5 283d 6a4e c73d 8e7e 143d 3a97 89bd
00000140: 1458 0d3c 56e3 08be a858 27be bb4d 4bbd
00000150: d05e d43c 6be6 55bd 4e2f 023e efc2 263e
00000160: da58 21be a464 f53a a72e dbbc 0a9b 743c
00000170: 8350 803e 1f2e 4e3e 22f0 59be cd53 17be
00000180: 2b3f 06bd 7107 013e 20c0 5abd 044c cf3e
00000190: 6a14 32bc 0a0d 4e3c d3b2 6dbe 432a d73d
000001a0: 2f6c e53d af55 fb3d 4d35 b43c 4fb5 84be
000001b0: f602 573e 39aa 59bd 2310 f83d cd82 053e
000001c0: d0ef 08bd 18d1 2c3e dd13 2a3d ff84 bebe
000001d0: f04f b2bc 31d4 313c 6834 f83d 0dec 00be
000001e0: 1651 3abe c417 a23e c7c8 f6bd 6247 733d
000001f0: 762d 22bd fdd5 b93d 8da5 123e b8fc c83d
00000200: e94f 1c3e 4368 1d3f 2255 a339 7b52 3cbd
00000210: b05b 52be 7759 e03d 6473 a63d c0b8 84bb
00000220: 82b0 a33d 19cf efbc 581e bc3d efaa 393c
00000230: be70 1f3d 4979 40bd e022 b4bd 6e4e b33d
00000240: d2f5 863d bdd7 06be d4ce 1bbe 9786 edbd
00000250: b3c8 95bc 5e42 48be af64 63bd 33dc 793e
00000260: b3b3 6cbd 48bc 02be ddf6 e73c 762a 46be
00000270: ae1b 863d de13 6d3e f0eb 2fbe 78e5 8cbd
00000280: 12aa 3abd bb3d 8cb8 eaee 193e 83ef f03e
00000290: e1ed a8bd aef3 7ebe ac63 e1bd e969 073e
000002a0: 539d c8bb acbf 3f3d 98e1 7bbe 39e0 adbd
000002b0: 3e70 7c3e c52e e4bb 9183 ba3d 50e4 d4bd
000002c0: b76b 1bbc 6152 843d b7d2 42be 0072 5abe
000002d0: b11a 3b3e 1d9b 243e 46bb f83d 7290 1e3d
000002e0: 6fc9 0abe 2685 8a3e c30b a5bd 4c15 3d3e
000002f0: 14ab d43d 8951 3cbd 69ef 6abe 5575 96bb
00000300: 74b5 03be cec2 febc 6802 14bd 1ff6 343d
00000310: cde6 b53b be76 15be e5c2 113d ec4e 58bc
00000320: ce58 0dbe a9da e03d cdba 1fbe 6e14 823d
00000330: 033e f63d 3916 233d 0d3a 70bd 00b3 0b3e
00000340: 5fd4 003e 79e8 a73d 900e 093e 9450 263d
00000350: 9ab9 253d 2afc 12bc 42f0 083e f43e 3cbe
00000360: e06a 953b 5aca 343d ac41 423e bca6 aa3a
00000370: 2552 96bd 74e5 99bd 39b4 4f3d c3ae b1bd
00000380: 4712 2ebe 8207 673d 52f2 3fbd f1c9 d6bc
00000390: 8292 6c3d ee09 cd3d a290 b03d 11d1 b5bc
000003a0: f743 c23d 8f99 16be 05e5 d63d 9e47 a3bd
000003b0: df26 2fbc c621 613d f41a 163e 3b11 ab3d
000003c0: a86f 76bb d879 03be 684c d23d 29f6 0c3d
000003d0: be17 80bd dae7 033d 7fff aabd 5d46 a8bd
000003e0: 9442 983e d50e 2cbe 5d75 8c3e ad38 60bd
000003f0: 8b68 ef3d 5dd3 bd3c 3cd7 953d 9a05 0f3e

encoder.message_net.1.0.bias f4 [64]
-0.12541337 0.03571966 -0.10211925 0.09811544 -0.1204589 0.15660867 -0.08385822 -0.08487522
-0.11055067 -0.025459198 -0.13347581 -0.118377574 0.08026276 0.0035150126 -0.16840228 -0.08075252
-0.099913225 -0.038763728 -0.045461565 -0.027389709 -0.13386178 -0.034559753 0.0015577044 -0.030348087
0.15549879 0.05283229 0.0055694683 0.070019126 -0.10824976 -0.02764823 0.07325053 0.024250628
-0.032437585 -0.037484773 0.147195 -0.014214447 -0.09330537 0.0020876036 -0.12787083 -0.012900905
-0.11912415 -0.054813366 -0.040202484 -0.15684317 -0.046172418 0.025306799 -0.020186394 0.0060343435
0.091864675 -0.1503589 0.0800279 -0.015559565 -0.11251446 0.033308007 -0.061285153 -0.08647302
0.03454964 -0.09168936 -0.1193551 0.030958815 0.0024195213 -0.06286956 -0.04783809 -0.08131563
00000000: 5d6c 00be c74e 123d e623 d1bd bff0 c83d
00000010: 28b3 f6bd 065e 203e dcbd abbd 0fd3 adbd
00000020: 6468 e2bd cf8f d0bc e2ad 08be f16f f2bd
00000030: cd60 a43d 205c 663b a671 2cbe 9461 a5bd
00000040: 4e9f ccbd b7c6 1ebd e835 3abd 6260 e0bc
00000050: 1013 09be 878e 0dbd e32b cc3a 8d9c f8bc
00000060: 133b 1f3e ac66 583d 1680 b63b 3066 8f3d
00000070: 0db2 ddbd 8a7e e2bc 6004 963d 41a9 c63c
00000080: 46dd 04bd a289 19bd 49ba 163e b6e3 68bc
00000090: e316 bfbd 2dd0 083b 92f0 02be 515e 53bc
000000a0: 5df7 f3bd fb83 60bd 5cab 24bd 7f9b 20be
000000b0: 4a1f 3dbd 3450 cf3c f05d a5bc bebb c53b
000000c0: 8c23 bc3d aff7 19be abe5 a33d 8ced 7ebc
000000d0: fb6d e6bd fa6d 083d 2406 7bbd c418 b1bd
000000e0: ec83 0d3d a2c7 bbbd 7270 f4bd 579d fd3c
000000f0: d590 1e3b c2c1 80bd e0f1 43bd cf88 a6bd

encoder.message_net.2.0.weight f4 [64, 64]
-0.062012922 -0.08623207 -0.061106786 0.04934632 0.032819156 -0.018122867 0.0077487943 0.09881884
0.06020926 -0.08144063 0.039299477 -0.1313423 -0.11460537 -0.13305537 -0.09074051 0.08504679
-0.056355745 -0.0014564205 -0.09152808 -0.06394784 -0.04972389 -0.05600506 0.124765255 0.08349975
-0.10946799 0.0020451765 -0.042929135 0.07760121 0.02251747 0.14667116 -0.04068317 0.0027772607
0.056069866 -0.05592821 0.11071171 0.0785193 -0.077285476 0.11589119 0.053317554 0.07252262
0.097217105 0.03181972 0.0014231754 -0.12378111 -0.07371509 -0.12736309 0.13435684 -0.08766281
-0.059281815 -0.015028572 -0.12143121 0.035771348 -0.105075896 -0.07821743 -0.09791777 0.06862741
0.08224561 -0.092861354 0.03466932 -0.037984885 0.07864503 -0.1081967 -0.10393707 -0.11591499
-0.047866926 -0.0678612 -0.13209103 0.13893008 -0.091732204 0.0075498368 -0.11512385 -0.09644533
0.042752866 0.03880201 -0.004404869 0.08047847 -0.16092183 -0.18359262 -0.14339235 0.02122703
-0.05085097 -0.059352085 -0.03908587 0.05146738 0.016084017 0.115050584 -0.105598025 0.02219055
-0.08234021 -0.017472409 -0.106435575 0.09051348 0.14772166 0.04507359 -0.11076004 0.1067186
0.1391378 0.06776068 -0.07860103 0.10515194 -0.0868941 -0.0010275234 0.15245791 -0.08412606
0.064938016 -0.09300859 -0.06345034 -0.065336674 -0.0049774316 0.047346346 0.07172225 -0.04386169
0.118218265 -0.10343579 0.050342027 0.0035316614 -0.16744968 0.09450107 -0.08422798 -0.0046141795
0.14287731 -0.10492161 -0.121413454 0.052646693 0.042439394 -0.08298251 0.0877549 -0.1493983
0.011619913 -0.023902932 0.309098 -0.096035644 -0.03570442 -0.09396928 -0.08189996 0.09792603
-0.08285154 0.22964948 0.040311266 0.08013987 -0.14775142 -0.05140077 -0.053464077 -0.044772387
-0.015115139 -0.102244385 -0.019730296 0.011109573 0.03594039 -0.08927708 0.14033712 -0.049868412
0.013518328 -0.043060187 0.14420593 -0.016298488 0.08761449 0.04765204 0.026698384 0.08380959
-0.055195134 -0.11928186 0.06996076 -0.05206469 0.106244065 -0.040243044 -0.30544347 -0.012617608
-0.108245954 -0.13463971 -0.19802646 -0.0011833169 0.09018554 0.08240082 -0.06359233 0.17158465
0.1727704 -0.21039778 0.032900643 0.18767032 0.013821475 -0.035736743 -0.11327084 0.0931783
0.07794663 -0.038675185 0.010865303 0.07028959 0.013886911 0.07154762 -0.053231314 0.13383858
-0.06845914 0.07032938 -0.02090874 -0.08242932 0.038047977 0.09201169 0.0035593247 -0.0024760074
0.0009200172 0.01077669 -0.06632696 -0.055236027 -0.06726112 -0.1675029 -0.14540388 0.03366294
-0.08293983 0.031262808 -0.120737515 -0.07171301 -0.026707066 0.095863864 0.028972177 -0.09013313
0.046369795 -0.016069662 0.066825286 0.06499373 -0.082498655 0.0069480455 -0.027201483 -0.022924442
0.052404072 -0.014410505 -0.029481715 -0.017629819 -0.05383197 0.016042775 -0.078267016 -0.15236153
0.03095867 -0.050219495 0.043373827 0.08741972 -0.121425174 -0.08721713 0.14506246 0.1187247
0.075075716 -0.015640223 -0.10137471 0.021540156 -0.09301429 -0.011266491 -0.12675196 0.06806303
0.0035599987 0.07543259 -0.04904103 -0.0031624972 -0.058064256 -0.030717526 -0.028548233 0.06928573
00000000: 4301 7ebd 719a b0bd 1c4b 7abd 5e1f 4a3d
00000010: 616d 063d 6876 94bc 99e9 fd3b 8861 ca3d
00000020: fc9d 763d 58ca a6bd 7df8 203d 997e 06be
00000030: 38b6 eabd ab3f 08be 29d6 b9bd 032d ae3d
00000040: 48d5 66bd 5de5 beba 1373 bbbd 16f7 82bd
00000050: 47ab 4bbd 9065 65bd ed84 ff3d eb01 ab3d
00000060: c130 e0bd 5e08 063b 76d6 2fbd 62ed 9e3d
00000070: 8f76 b83c f730 163e 65a3 26bd b402 363b
00000080: 84a9 653d fb14 65bd d2bc e23d bace a03d
00000090: d947 9ebd 5c58 ed3d 8263 5a3d bd86 943d
000000a0: c319 c73d 6555 023d d889 ba3a f380 fdbd
000000b0: f0f7 96bd 786b 02be d794 093e 8f88 b3bd
000000c0: 7dd1 72bd 663a 76bc edb0 f8bd fa84 123d
000000d0: 0832 d7bd 7630 a0bd 1d89 c8bd 878c 8c3d
000000e0: 6370 a83d 182e bebd 6b01 0e3d 0a96 1bbd
000000f0: a510 a13d 3b96 ddbd f5dc d4bd d764 edbd
00000100: 1c10 44bd d0fa 8abd df42 07be b043 0e3e
00000110: 18de bbbd 9f64 f73b 0ec6 ebbd 2185 c5bd
00000120: a11d 2f3d dbee 1e3d b856 90bb e5d1 a43d
00000130: b1c8 24be b4ff 3bbe 72d5 12be 4fe4 ad3c
00000140: 1b49 50bd 2c1b 73bd 8118 20bd 76cf 523d
00000150: a1c2 833c a49f eb3d c743 d8bd f5c8 b53c
00000160: fca1 a8bd 4c22 8fbc e5fa d9bd 225f b93d
00000170: 5944 173e 169f 383d 29d6 e2bd 488f da3d
00000180: 247a 0e3e 1dc6 8a3d 94f9 a0bd e659 d73d
00000190: 89f5 b1bd f7ad 86ba ed1d 1c3e 494a acbd
000001a0: 39fe 843d 4a7b bebd 40f2 81bd 3ccf 85bd
000001b0: b919 a3bb 3eee 413d 1de3 923d 51a8 33bd
000001c0: 6b1c f23d 25d6 d3bd 7133 4e3d 7273 673b
000001d0: ee77 2bbe c789 c13d b87f acbd 8b32 97bb
000001e0: 6e4e 123e 24e1 d6bd 9ea7 f8bd 0fa4 573d
000001f0: eed4 2d3d bcf2 a9bd d7b8 b33d defb 18be
00000200: 7361 3e3c 15d0 c3bc 1842 9e3e 56ae c4bd
00000210: cc3e 12bd f772 c0bd 2bbb a7bd 718d c83d
00000220: 11ae a9bd 3c29 6b3e 6d1d 253d 5f20 a43d
00000230: 264c 17be 9d89 52bd 26fd 5abd 4063 37bd
00000240: 7da5 77bc 8165 d1bd 6ea1 a1bc ed04 363c
00000250: 3b36 133d e7d6 b6bd 89b4 0f3e d242 4cbd
00000260: fa7b 5d3c e15f 30bd b8aa 133e 6884 85bc
00000270: 3a6f b33d c92e 433d 92b6 da3c 5da4 ab3d
00000280: 4b14 62bd 0c4a f4bd 9647 8f3d c941 55bd
00000290: 7d96 d93d e4d5 24bd 1663 9cbe 15ba 4ebc
000002a0: 0eb0 ddbd fede 09be 73c7 4abe 8719 9bba
000002b0: 32b3 b83d c3c1 a83d b23c 82bd e3b3 2f3e
000002c0: b9ea 303e 8472 57be d3c2 063d a62c 403e
000002d0: 7873 623c b160 12bd 8bfa e7bd 44d4 be3d
000002e0: 7ca2 9f3d df69 1ebd 6204 323c fdf3 8f3d
000002f0: ed85 633c 8f87 923d 1409 5abd fb0c 093e
00000300: 4e34 8cbd da08 903d ce48 abbc b4d0 a8bd
00000310: 32d8 1b3d a070 bc3d 8f43 693b 8344 22bb
00000320: 4f2d 713a b790 303c 6ed6 87bd 2c3f 62bd
00000330: 33c0 89bd e185 2bbe c1e4 14be 27e2 093d
00000340: 5cdc a9bd 6e0d 003d 3b45 f7bd 45de 92bd
00000350: c7c8 dabc 4654 c43d 0f57 ed3c b897 b8bd
00000360: 41ee 3d3d 86a4 83bc b2db 883d 6f1b 853d
00000370: 0ef5 a8bd 6eac e33b a5d5 debc 0acc bbbc
00000380: a7a5 563d 0a1a 6cbc a383 f1bc 696c 90bc
00000390: e97e 5cbd 236c 833c 754a a0bd a904 1cbe
000003a0: 099d fd3c f5b2 4dbd c1a8 313d 1c09 b33d
000003b0: c3ad f8bd e59e b2bd 418b 143e ef25 f33d
000003c0: 4cc1 993d ed1f 80bc 8b9d cfbd fb74 b03c
000003d0: 477e bebd 1797 38bc 44cb 01be a164 8b3d
000003e0: de4e 693b 677c 9a3d 3fdf 48bd e641 4fbb
000003f0: c9d4 6dbd 52a3 fbbc fcdd e9bc ade5 8d3d

encoder.message_net.2.0.bias f4 [64]
-0.06860939 0.07638941 -0.073788494 -0.06670881 -0.1538623 -0.10027741 0.07101992 0.023394473
0.10811281 0.10612353 -0.1016374 0.034020603 -0.121328466 0.00062340556 -0.13223568 0.049751304
0.12403999 0.09524646 -0.13663495 0.12011775 -0.000991668 0.006043993 0.12870069 -0.016628588
0.079212785 0.1185782 0.0052395654 -0.11537435 -0.096810095 0.10086709 -0.15560393 -0.0035555696
0.061400484 -0.004774256 -0.022408271 0.06537673 -0.10093886 -0.07392229 0.08049337 -0.07393714
0.11737978 0.083080664 -0.020818023 -0.105311535 0.074230485 0.02857917 0.05739384 -0.08385468
-0.026284346 0.026962046 0.1035367 -0.095262475 0.07856965 -0.084863976 0.080874994 -0.050844807
0.008438397 0.028896123 0.069967866 -0.0106593715 -0.081217065 0.0785294 -0.15228069 -0.032540854
00000000: 1483 8cbd 0d72 9c3d 6c1e 97bd a19e 88bd
00000010: 148e 1dbe 3e5e cdbd e472 913d c4a5 bf3c
00000020: 406a dd3d 4b57 d93d 4527 d0bd 3059 0b3d
00000030: 0f7b f8bd 0a6c 233a ca68 07be 06c8 4b3d
00000040: ae08 fe3d 9310 c33d 08ea 0bbe 4b00 f63d
00000050: dbfa 81ba b00c c63b 1dca 033e ad38 88bc
00000060: 503a a23d 21d9 f23d a9b0 ab3b 6349 ecbd
00000070: 5f44 c6bd 6893 ce3d a356 1fbe 8f04 69bb
00000080: 137f 7b3d 5d71 9cbb 8d91 b7bc 3ce4 853d
00000090: 08b9 cebd 9264 97bd b5d9 a43d 5b6c 97bd
000000a0: cf64 f03d 3226 aa3d 8f8a aabc 93ad d7bd
000000b0: 2706 983d dd1e ea3c ce15 6b3d 01bc abbd
000000c0: 4552 d7bc 82df dc3c 0d0b d43d f918 c3bd
000000d0: 20e9 a03d 2acd adbd caa1 a53d a542 50bd
000000e0: 3441 0a3c 90b7 ec3c 504b 8f3d a5a4 2ebc
000000f0: 2255 a6bd 06d4 a03d 78ef 1bbe 8f49 05bd

encoder.gru.weight_ih f4 [192, 64]
0.18169743 -0.2414355 -0.09011105 0.021959642 -0.058805607 0.15232483 -0.14739646 0.028307525
0.0934327 -0.07001297 -0.1907732 0.078152955 0.25015804 -0.1141003 0.10543127 -0.11886602
-0.17037319 0.010960672 0.094800666 0.05018676 -0.007970441 -0.14894466 -0.00010927362 0.08152535
-0.025564712 0.031886443 -0.14570539 0.19964704 0.00134093 -0.0030619244 0.18521374 0.061531145
-0.11035567 0.19122821 -0.010373798 -0.011167998 -0.07107807 0.171484 0.020370819 -0.09013001
0.051728655 -0.09093984 0.048308536 0.11885341 -0.08234257 0.19490136 -0.054220248 0.0058952016
0.105789155 0.011830119 -0.034762483 -0.01540287 0.042659275 -0.018604321 0.056818254 -0.053549755
-0.051655076 -0.0061121522 0.14307645 -0.21031043 -0.13266608 -0.16840962 0.023754431 0.06716226
0.024007622 -0.0066713267 0.26047823 -0.075313225 -0.077123374 -0.07014285 -0.031168612 -0.15312162
0.026684664 -0.1588472 -0.06870719 0.0688006 -0.1530262 0.07832767 0.011875626 -0.028064797
0.20259723 0.044559214 -0.08000136 -0.054202296 -0.026714368 -0.067951106 0.20015737 0.096555814
0.07942494 -0.08861727 0.15147719 -0.108575255 -0.0667166 -0.10478559 -0.054817405 0.08599442
-0.043729547 0.05607717 0.0540829 0.21378058 0.411334 0.51130354 -0.10708181 0.08387489
-0.12953283 0.24583371 0.49185482 0.00777006 -0.015389877 -0.17018978 0.13373037 0.031078687
0.10854925 0.13222015 -0.039899237 0.06578393 0.10405809 0.013019471 0.0001043379 0.033999
-0.11095415 -0.020725759 -0.08428169 0.12938839 -0.13957945 -0.052500702 -0.1406225 -0.18754396
0.08429162 0.3086963 0.30706432 0.19316739 0.23461828 0.07057163 -0.06689381 -0.1856535
0.15658684 0.060242523 0.2941924 0.18262435 0.043448545 -0.09023696 0.3500975 -0.23475426
0.5226577 -0.17044719 0.30558518 0.15504807 -0.08210527 0.21158285 0.051084172 0.038077008
0.08658768 -0.078048795 0.0061602783 -0.020721834 -0.29875347 -0.09784973 0.03627603 0.40581352
0.118458934 0.042169116 -0.018636761 0.09851852 0.3299437 0.57853526 -0.18096775 0.0036302584
-0.1062973 0.13856113 0.032424584 0.21486866 -0.26642442 0.099291004 0.20801836 0.3835791
0.005706808 -0.081017196 0.23652597 -0.26363942 0.29613665 0.04133049 0.08904656 0.39472705
0.0683505 -0.024317574 -0.09599141 0.47757024 -0.17673297 -0.08578222 0.08353576 0.11093553
-0.06353867 -0.13797414 0.085686214 0.14462218 -0.107381806 0.09243387 0.09187752 0.10073417
-0.14448616 -0.04626383 0.16678348 0.095378004 0.32905906 0.0729174 -0.039290313 -0.09542813
0.16030198 -0.05657069 -0.13963994 0.18415062 0.005598083 -0.0314202 0.060314763 0.10066609
0.19555405 0.13208458 -0.111878134 0.104623616 0.067335956 0.019550784 -0.09857015 0.07003033
-0.03657615 0.18455069 -0.1636972 0.0001267989 0.036798693 -0.17293637 -0.14959036 0.1756593
-0.020708945 0.13911901 -0.11214802 0.04813921 0.02693336 0.13291724 0.015733268 0.16676506
0.13466863 -0.0018214525 0.0312286 -0.06697355 0.18977743 0.20385729 0.119918816 0.10174581
-0.031064082 0.056091137 -0.043961987 0.06086148 -0.18649295 -0.037904084 0.021462822 -0.12507859
00000000: e40e 3a3e de3a 77be 248c b8bd b5e4 b33c
00000010: 26de 70bd 0afb 1b3e 19ef 16be 2fe5 e73c
00000020: a559 bf3d f662 8fbd 0d5a 43be a80e a03d
00000030: b714 803e 6bad e9bd 5aec d73d 0770 f3bd
00000040: 4f76 2ebe 6494 333c da26 c23d a290 4d3d
00000050: 7496 02bc f384 18be d429 e5b8 c3f6 a63d
00000060: 166d d1bc 5c9b 023d cb33 15be 4670 4c3e
00000070: 25c2 af3a 91aa 48bb aca8 3d3e 1508 7c3d
00000080: 2702 e2bd 54d1 433e ddf6 29bc fbf9 36bc
00000090: 6191 91bd 8099 2f3e b4e0 a63c 1596 b8bd
000000a0: 6de1 533d ab3e babd 2cdf 453d 6b69 f33d
000000b0: 39a3 a8bd 3994 473e 0d16 5ebd 892c c13b
000000c0: fca7 d83d 1ed3 413c 1b63 0ebd 525c 7cbc
000000d0: 7ebb 2e3d 1768 98bc 42ba 683d fd56 5bbd
000000e0: 4694 53bd 7348 c8bb a282 123e 9e5b 57be
000000f0: 9ed9 07be 9273 2cbe a798 c23c 5e8c 893d
00000100: a2ab c43c 259b dabb 675d 853e d23d 9abd
00000110: dcf2 9dbd 0ea7 8fbd 5155 ffbc eacb 1cbe
00000120: cc99 da3c d7a8 22be 5bb6 8cbd 54e7 8c3d
00000130: e6b2 1cbe 426a a03d fc91 423c 25e8 e5bc
00000140: a675 4f3e b983 363d c1d7 a3bd 3a03 5ebd
00000150: 17d8 dabc f329 8bbd 0ef6 4c3e 0ebf c53d
00000160: 8ba9 a23d f97c b5bd d61c 1b3e b45c debd
00000170: b6a2 88bd d499 d6bd 3788 60bd d81d b03d
00000180: c11d 33bd 2db1 653d 0886 5d3d 4ce9 5a3e
00000190: 5f9a d23e cae4 023f b54d dbbd 99c6 ab3d
000001a0: 41a4 04be d5bb 7b3e 65d4 fb3e fd9b fe3b
000001b0: d325 7cbc 3b46 2ebe 9df0 083e bb98 fe3c
000001c0: 124f de3d b864 073e 626d 23bd bab9 863d
000001d0: 681c d53d 9f4f 553c fccf da38 8942 0b3d
000001e0: ee3b e3bd 11c9 a9bc e19b acbd 647e 043e
000001f0: eaed 0ebe fa0a 57bd 58ff 0fbe 860b 40be
00000200: 16a1 ac3d 710d 9e3e 8937 9d3e accd 453e
00000210: c63f 703e dc87 903d 9fff 88bd f31b 3ebe
00000220: 4d58 203e ddc0 763d 63a0 963e e101 3b3e
00000230: 1af7 313d 28ce b8bd fb3f b33e 6c63 70be
00000240: e5cc 053f b589 2ebe a975 9c3e ecc4 1e3e
00000250: cf26 a8bd 2da9 583e a33d 513d a3f6 1b3d
00000260: e254 b13d 0cd8 9fbd 29dc c93b d6c0 a9bc
00000270: 37f6 98be 7065 c8bd 2d96 143d cac6 cf3e
00000280: 999a f23d 86b9 2c3d 1fac 98bc 14c4 c93d
00000290: 61ee a83e e31a 143f 9c4f 39be a1e9 6d3b
000002a0: 66b2 d9bd f8e2 0d3e a4cf 043d 8806 5c3e
000002b0: c868 88be 1559 cb3d c402 553e 7b64 c43e
000002c0: 2d00 bb3b 58ec a5bd dd33 723e bffb 86be
000002d0: 399f 973e 294a 293d 0b5e b63d aa19 ca3e
000002e0: 59fb 8b3d a635 c7bc 2597 c4bd 1684 f43e
000002f0: 7df9 34be 97ae afbd cc14 ab3d 2b32 e33d
00000300: 9020 82bd 1849 0dbe 417c af3d d617 143e
00000310: feea dbbd f84d bd3d 482a bc3d b74d ce3d
00000320: 2ef4 13be 247f 3dbd 4ac9 2a3e 8b55 c33d
00000330: 6e7a a83e b855 953d e1ee 20bd d36f c3bd
00000340: 3426 243e abb6 67bd c6fd 0ebe fb91 3c3e
00000350: 2070 b73b 78b2 00bd 9d0c 773d 062a ce3d
00000360: 523f 483e 2e41 073e 5d20 e5bd e844 d63d
00000370: 6fe7 893d f728 a03c 26df c9bd 106c 8f3d
00000380: e0d0 15bd dbfa 3c3e 3da0 27be 52f5 0439
00000390: 3aba 163d 3b16 31be 372e 19be 08e0 333e
000003a0: cea5 a9bc 3775 0e3e dcad e5bd 9f2d 453d
000003b0: 5aa3 dc3c 751b 083e 0ee3 803c 76c4 2a3e
000003c0: 93e6 093e cebd eeba 1fd3 ff3c 6e29 89bd
000003d0: 0455 423e f7bf 503e ff97 f53d 1b60 d03d
000003e0: 1a7a febc d2bf 653d 7c11 34bd e349 793d
000003f0: 02f8 3ebe 5041 1bbd cdd2 af3c 9a14 00be

encoder.gru.weight_hh f4 [192, 64]
0.01078799 -0.116833664 0.15102054 0.058018073 0.24014914 -0.094493315 -0.30610517 -0.117886454
-0.09307421 -0.08909538 -0.031752527 -0.07002944 0.024578858 -0.0030249695 0.08186799 -0.051338255
0.08321116 0.17799267 0.12948996 0.052551664 -0.07780589 0.2608888 0.14275654 -0.0109631345
0.008394215 0.11849689 -0.082798876 -0.15796685 -0.03525594 -0.23437756 -0.00108342 0.16049604
-0.12637725 -0.17022517 0.050564162 -0.11476672 0.0010576334 -0.06422954 0.24926057 -0.05071374
-0.13520657 -0.045523334 0.01208463 -0.055792592 -0.12326693 -0.006744916 -0.08412041 0.13214037
0.109142914 -0.13398345 0.04136966 0.11883114 -0.08941125 -0.1091802 0.0774397 0.011062306
0.14888078 -0.066388376 0.17810039 -0.12174667 0.14210235 -0.06480601 -0.07948906 0.07571352
-0.063195266 0.17684208 -0.051732272 -0.023977103 -0.13938643 -0.02203296 -0.1495509 -0.15229718
-0.02520536 0.08992789 -0.07614051 -0.031029804 -0.19080554 -0.035106428 -0.08071973 0.14077604
-0.057068724 -0.16455567 -0.04378381 -0.08075293 0.041424245 -0.22311749 -0.2675581 0.008708681
-0.053672053 -0.13386711 -0.03022936 0.17106275 -0.093137845 0.093571775 -0.045371026 -0.08873367
-0.09748482 -0.037032537 0.07779537 0.15243426 0.06663731 -0.10960364 -0.08945936 0.05477816
0.033956505 0.049577087 -0.077535965 0.15961964 0.22402683 0.17683999 -0.039607897 0.09560909
0.27477747 0.0543027 -0.068420604 0.16189152 0.066253945 0.20072493 -0.16198678 0.2683092
-0.020160628 0.11555792 0.026352568 0.1461883 0.19391796 0.0024462664 -0.07504536 -0.044236805
-0.14920597 -0.119583346 0.2218207 -0.139293 -0.09827295 -0.076647595 -0.06737448 0.2367533
-0.24158633 -0.08100507 0.021757646 -0.030654907 -0.06729052 -0.0058096084 -0.082094945 0.13175544
0.099536985 0.057695124 -0.11101772 0.34666488 -0.04908877 -0.17981647 0.23505433 0.058393124
0.20700385 -0.011374778 0.16739835 0.19567084 0.014512639 0.21195851 0.14897208 -0.0248961
-0.2706745 -0.002372193 -0.021393105 -0.2036997 0.092292875 0.109198235 0.07082687 -0.11807607
-0.021511888 -0.12814125 -0.00081900775 0.18601313 0.0864415 0.120228864 0.17457625 0.011484605
0.1472765 0.015223338 -0.04396073 0.05473035 0.067597255 0.122394904 0.01886745 -0.2839153
0.18334548 0.03490242 0.2448728 0.33034885 0.17180857 0.115622744 0.20256343 0.16842794
0.102860436 -0.036291312 0.087684125 -0.01626535 0.06360271 -0.11721108 -0.12767065 -0.15790644
0.06978422 0.11824996 -0.047438662 0.0037734173 0.15688512 0.009499083 0.094035394 -0.06284657
-0.04964112 0.0091480315 0.03715222 -0.032936573 -0.09688953 0.16578363 0.11619237 0.105008386
-0.118318014 0.1965478 0.017732557 -0.050425828 0.0016923976 -0.08716624 0.0003582722 -0.008396512
-0.15695687 0.07690847 0.08748275 -0.06057185 0.1634669 -0.024606047 0.054246206 0.09232619
-0.18584234 0.06908472 0.096877456 -0.018589338 -0.00082381704 0.015751084 -0.015364814 0.07377867
0.005979851 0.063957945 0.099862 -0.026521467 0.06298904 0.023758495 0.047950998 -0.08648914
-0.07547109 -0.0942109 0.03265591 -0.1596798 0.04221652 0.11035418 -0.0909909 0.051607847
00000000: 1cc0 303c 7d46 efbd 21a5 1a3e 5ca4 6d3d
00000010: a8e9 753e b685 c1bd d1b9 9cbe 746e f1bd
00000020: b19d bebd a377 b6bd f00e 02bd 986b 8fbd
00000030: 9a59 c93c 913e 46bb 68aa a73d 1048 52bd
00000040: 9d6a aa3d b643 363e 0499 043e 6a40 573d
00000050: b258 9fbd 3793 853e c52e 123e b89e 33bc
00000060: e487 093c 7fae f23d 7592 a9bd 10c2 21be
00000070: 8868 10bd ac00 70be 8b01 8eba 1359 243e
00000080: 0a69 01be 824f 2ebe 5e1c 4f3d d00a ebbd
00000090: 4aa0 8a3a c78a 83bd 2a3e 7f3e 36b9 4fbd
000000a0: 9773 0abe ad76 3abd 9dfe 453c c686 64bd
000000b0: 5f73 fcbd 7504 ddbb 5247 acbd ce4f 073e
000000c0: 5286 df3d f532 09be 3c73 293d be5d f33d
000000d0: 3f1d b7bd de99 dfbd b598 9e3d ad3e 353c
000000e0: 3474 183e a1f6 87bd f35f 363e 5156 f9bd
000000f0: 4783 113e 03b9 84bd 29cb a2bd b10f 9b3d
00000100: 856c 81bd 1716 353e 38e5 53bd a16b c4bc
00000110: 51bb 0ebe 777e b4bc df23 19be cbf3 1bbe
00000120: 797b cebc 1d2c b83d 8eef 9bbd 3732 febc
00000130: 8762 43be c2cb 0fbd 6350 a5bd 9827 103e
00000140: e5c0 69bd 4881 28be a756 33bd cb61 a5bd
00000150: 78ac 293d e978 64be 60fd 88be dbae 0e3c
00000160: 3ad7 5bbd 7614 09be 90a3 f7bc 132b 2f3e
00000170: 0ebf bebd 8fa2 bf3d f8d6 39bd 00ba b5bd
00000180: 1fa6 c7bd 6eaf 17bd 2e53 9f3d ba17 1c3e
00000190: 2479 883d e077 e0bd 7836 b7bd 105f 603d
000001a0: fa15 0b3d 5811 4b3d 2dcb 9ebd 5573 233e
000001b0: 4a67 653e 8b15 353e e43b 22bd b3ce c33d
000001c0: a2af 8c3e 826c 5e3d 1a20 8cbd e4c6 253e
000001d0: 26b0 873d d68a 4d3e dddf 25be d35f 893e
000001e0: e727 a5bc a1a9 ec3d 57e1 d73c 63b2 153e
000001f0: 6e92 463e 8a51 203b 62b1 99bd a731 35bd
00000200: 73c9 18be 1de8 f4bd f724 633e d3a2 0ebe
00000210: 5443 c9bd 6af9 9cbd a2fb 89bd 756f 723e
00000220: 6862 77be fce5 a5bd 173d b23c 0020 fbbc
00000230: 9dcf 89bd 875e bebb 6521 a8bd e6ea 063e
00000240: 0cda cb3d b951 6c3d 425d e3bd 0f7e b13e
00000250: 4e11 49bd cf21 38be 15b2 703e a12d 6f3d
00000260: d1f8 533e 475d 3abc 796a 2b3e f05d 483e
00000270: 6bc6 6d3c a70b 593e 238c 183e e8f2 cbbc
00000280: d995 8abe cb76 1bbb 9840 afbc a796 50be
00000290: 0c04 bd3d 53a3 df3d ae0d 913d ded1 f1bd
000002a0: b339 b0bc 7637 03be aeb2 56ba 3a7a 3e3e
000002b0: 3e08 b13d 8d3a f63d 1ec4 323e ed29 3c3c
000002c0: a7cf 163e 4f6b 793c 2b10 34bd ee2c 603d
000002d0: 6e70 8a3d 2eaa fa3d e98f 9a3c 595d 91be
000002e0: ebbe 3b3e d7f5 0e3d efbf 7a3e 7c23 a93e
000002f0: 96ee 2f3e 9ecb ec3d ca6c 4f3e 6078 2c3e
00000300: 7ea8 d23d 33a6 14bd bc93 b33d e93e 85bc
00000310: 2342 823d 5d0c f0bd 18bc 02be 3ab2 21be
00000320: 07eb 8e3d 092d f23d 0b4f 42bd 704b 773b
00000330: 7ea6 203e 0ba2 1b3c a195 c03d b4b5 80bd
00000340: 7d54 4bbd a0e1 153c ed2c 183d 80e8 06bd
00000350: 056e c6bd 2fc3 293e 44f6 ed3d a30e d73d
00000360: b750 f2bd d443 493e de43 913c 508b 4ebd
00000370: 71d3 dd3a 3784 b2bd 7bd6 bb39 8691 09bc
00000380: 4db9 20be 3082 9d3d 282a b33d 301a 78bd
00000390: de63 273e 9f92 c9bc 4531 5e3d 8315 bd3d
000003a0: 744d 3ebe 4a7c 8d3d b067 c63d ab48 98bc
000003b0: 6df5 57ba 6b08 813c b3bc 7bbc 4519 973d
000003c0: a0f2 c33b 62fc 823d 7384 cc3d 8c43 d9bc
000003d0: 6600 813d 2da1 c23c 4468 443d 3821 b1bd
000003e0: 9690 9abd a5f1 c0bd 34c2 053d 1a83 23be
000003f0: 3beb 2c3d 5f01 e23d 7059 babd c062 533d

encoder.gru.bias_ih f4 [192]
0.056568593 0.12942614 -0.0033668173 -0.11144878 -0.056722317 -0.08356537 -0.07911228 0.074030764
0.02958046 0.07590898 0.0415444 0.12144856 -0.093248375 0.018294783 0.0100666145 0.0784978
0.014220973 0.14340359 -0.005489845 0.1480352 -0.12993857 -0.09125566 0.11252633 0.16811074
-0.021437038 -0.033870608 0.048643067 -0.021788951 -0.12901624 -0.05525567 -0.010195217 0.1349242
-0.045400325 0.06154924 0.08571668 0.13378079 0.09891759 -0.007938796 0.04334208 0.12740697
-0.03163897 0.12062629 -0.017026586 -0.061482307 -0.12125059 -0.12794158 0.11339577 -0.104678094
0.105581455 -0.07008636 0.016400367 0.037494436 -0.045140672 0.015814876 -0.009634139 0.076628685
-0.054770194 0.1701078 0.1445118 0.058845818 0.009659325 -0.081631206 -0.0692273 0.16504665
0.1822112 -0.12721793 0.03003922 0.115340315 0.06313048 0.15405907 -0.19514658 -0.049209125
0.033101927 0.13329461 0.07784468 0.011722422 0.11230528 0.0710983 0.0059783906 0.037500888
0.12560517 0.030557651 0.044119913 0.066314764 0.10694464 -0.19344991 0.07599812 0.12502514
-0.08584136 0.07311366 -0.14472297 0.065642 -0.029670563 -0.08938636 0.14341651 -0.010592995
0.07516661 0.043362916 -0.12289553 0.026797332 0.23570089 -0.011219338 -0.23737265 0.15409021
0.031633597 0.051407784 0.09711088 0.15123239 -0.0011802044 0.106442876 0.10408501 0.13948712
-0.109845646 0.06506602 -0.044539355 -0.04626843 -0.09091256 0.12697817 0.17087032 -0.07027249
0.14473124 0.053197537 -0.029038193 -0.07421634 0.080428615 0.1038464 -0.03889984 0.1465649
-0.03253317 0.021937592 0.022670586 -0.076312706 -0.042233754 0.058354996 0.04314083 -0.0063141314
-0.018761303 0.044658102 -0.100719355 0.0330114 -0.009006493 -0.057195537 0.045604568 0.044061173
0.038061455 -0.07395267 -0.009430634 0.12018724 -0.09059146 0.1469049 0.053995132 0.03502223
-0.004933864 0.11312927 0.20996715 -0.03783866 0.14195463 0.053060535 0.13157578 0.034348294
-0.05584914 -0.07243779 0.03891039 -0.0081964005 0.05752418 -0.09307778 0.21196325 -0.00024987283
0.0062713735 0.09593357 -0.00051804614 -0.1350693 -0.10550249 0.017735602 -0.022735445 -0.121315606
-0.17663293 0.00080438965 0.19014706 -0.10498147 -0.015890865 -0.10182809 -0.023146894 -0.10014203
0.08092234 -0.043240044 0.096352935 0.12079166 0.07662017 0.069141574 -0.07635226 -0.16080946
00000000: 78b4 673d 4988 043e d2a5 5cbb 423f e4bd
00000010: a955 68bd 5224 abbd 9e05 a2bd 719d 973d
00000020: b952 f23c 2b76 9b3d 762a 2a3d 06ba f83d
00000030: 01f9 bebd f1de 953c 71ee 243c 74c3 a03d
00000040: 15ff 683c 64d8 123e 28e4 b3bb 8a96 173e
00000050: 9e0e 05be 3fe4 babd 3474 e63d 3925 2c3e
00000060: ba9c afbc e8bb 0abd f43d 473d be7e b2bc
00000070: d51c 04be c553 62bd d709 27bc 9229 0a3e
00000080: b1f5 39bd 0e1b 7c3d 3a8c af3d d5fd 083e
00000090: 4e95 ca3d b911 02bc 7787 313d f976 023e
000000a0: dd97 01bd eb0a f73d 577b 8bbc dfd4 7bbd
000000b0: 3b52 f8bd 1e03 03be 0b3c e83d 7861 d6bd
000000c0: 173b d83d 7089 8fbd 105a 863c c493 193d
000000d0: 6de5 38bd 338e 813c 82d8 1dbc 80ef 9c3d
000000e0: b656 60bd bd30 2e3e e7fa 133e 5008 713d
000000f0: 2542 1e3c 432e a7bd 0bc7 8dbd fd01 293e
00000100: 9395 3a3e 6b45 02be cf14 f63c 8b37 ec3d
00000110: 8e4a 813d a9c1 1d3e 81d4 47be 828f 49bd
00000120: e395 073d 627e 083e 086d 9f3d 670f 403c
00000130: 5000 e63d fc9b 913d 60e6 c33b 889a 193d
00000140: a49e 003e 0a54 fa3c 15b7 343d 09d0 873d
00000150: cb05 db3d bc17 46be e7a4 9b3d 9706 003e
00000160: 98cd afbd 9dbc 953d 4232 14be 506f 863d
00000170: ae0f f3bc 3210 b7bd c7db 123e 3e8e 2dbc
00000180: f4f0 993d 509d 313d a7b0 fbbd 1486 db3c
00000190: 935b 713e 50d1 37bc d111 73be d3c9 1d3e
000001a0: 3b92 013d f890 523d 12e2 c63d aadc 1a3e
000001b0: 17b1 9aba b9fe d93d 862a d53d b6d5 0e3e
000001c0: c1f6 e0bd 5541 853d e66e 36bd f783 3dbd
000001d0: 5d30 babd 9106 023e a1f8 2e3e 06eb 8fbd
000001e0: 6d34 143e a9e5 593d 81e1 edbc bdfe 97bd
000001f0: c2b7 a43d 6cad d43d 7055 1fbd 1c15 163e
00000200: 8041 05bd 77b6 b33c aab7 b93c d649 9cbd
00000210: 4dfd 2cbd a605 6f3d 70b4 303d c6e6 cebb
00000220: 4eb1 99bc 6aeb 363d f345 cebd f636 073d
00000230: f88f 13bc de45 6abd dbcb 3a3d 7d79 343d
00000240: 54e6 1b3d 7f74 97bd f282 1abc ba24 f63d
00000250: 0488 b9bd 3d6e 163e 002a 5d3d 7873 0f3d
00000260: 40ac a1bb 52b0 e73d a101 573e b6fc 1abd
00000270: 8e5c 113e 0156 593d cdbb 063e ccb0 0c3d
00000280: 11c2 64bd 445a 94bd 8060 1f3d 324a 06bc
00000290: 799e 6b3d 909f bebd e50c 593e 5d01 83b9
000002a0: 1880 cd3b d278 c43d 7dcd 07ba 9b4f 0abe
000002b0: b111 d8bd 414a 913c af3f babc 5174 f8bd
000002c0: 43df 34be addd 523a e9b5 423e 8600 d7bd
000002d0: 8f2d 82bc 3f8b d0bd 8e9e bdbc 4417 cdbd
000002e0: 9dba a53d 791c 31bd b054 c53d 9e61 f73d
000002f0: 09eb 9c3d 199a 8d3d 935e 9cbd 3cab 24be
