experiments/gat_hd64_ld32_nr3_ep500_nf3.0_dl1/model.pt (torch, 179365 bytes, 20 tensors)

encoder.input_net.0.weight f4 [64, 7]
00000000: 6b84 ef3a 03a2 12bd 0881 113e 40c9 373f
00000010: 9d55 b0be b53e b8bd e2b9 893d f1a7 8b3b
00000020: 18d8 2c3f 1e05 d03e f87f 5dbd 9167 e1bd
00000030: e900 43be b4e7 5bbe 4544 b6bc 2b5a 4bbe
00000040: 3f63 903e 8543 e63e f777 9bbe 301a 29be
00000050: 47f5 173e 7d0d b1be 2402 b53d ca57 8abe
00000060: cdd6 a03e e068 80be 752f a53e acaa dcbc
00000070: 1d44 aabd c2f5 13bd 7e13 9abe f3d5 84be
00000080: 59dc 093e 5e97 fdbd 1820 883e bb8c 993d
00000090: 96d3 a2be bb01 983e e5d5 77be afd8 e53e
000000a0: 1919 da3e ea99 45bd 4211 ffbd 1d4b 46bd
000000b0: 6f62 0bbe a0a7 913e a181 823f 485f 45be
000000c0: 5257 85bd 9a81 05be 5cb6 d53d 644b 14be
000000d0: d0fa b63e 7470 a7be 3e1d 21be ebda 5e3f
000000e0: d82f 50be 0bab a83e f15d 01bc 3347 babe
000000f0: 4138 193e f9e2 2cbe 55d1 6d3f bfa3 9dbe
00000100: 0253 203e 6f97 b4bd 8580 d93d 6884 743e
00000110: a850 8dbd e0d6 963e 8b1e a1be 015a 78be
00000120: e1bc 60be 1259 74be 86d4 7cbd df92 873c
00000130: dff6 733e 2d8b a8be 3aa7 babe 2ad1 e53e
00000140: 23b8 f33d 4cab 10be d7b6 95be 786d 4e3e
00000150: ce54 9abe dbb5 743d 9ff5 65be 93c1 96be
00000160: a2c9 ff3e 31c7 b1be 54ee 7abe c376 2f3d
00000170: 2ebc 813e 0fbb 883e 8b9f bebe 9132 89be
00000180: 85e3 98be e447 19be 671e d9be a8d8 ef3e
00000190: 6934 873e a276 433e eed9 403e 8a76 ddbe
000001a0: a82c afbe 7e92 163f 9121 f13d 5367 0f3e
000001b0: 01d5 96be ba2a 1dbd 6bb9 6ebe f2aa 773e
000001c0: a9d0 ecbd 9465 9bbd f3e7 3a3d 8302 143d
000001d0: accd 213e 4e06 ab3e d375 0dbd ae05 9f3e
000001e0: ecbc 1f3f 19f5 dfbe 72b9 afbe edeb 06be
000001f0: aac3 94be e256 1f3c 51b0 863e a594 14be
00000200: b910 24be 1b12 21be 4aa5 73be 162f 033f
00000210: 2318 bfbe 931b 463e d7a3 9a3e 7aed 6cbd
00000220: 48b1 ef3d ecdc 873e 0024 4fbd edfb 8dbe
00000230: 8196 68be 2fa8 3f3d 0883 d53e 11bf b3be
00000240: 7d97 9cbe 7dab 9dbe 19fe a4bd 3bba 60be
00000250: f3ff 17be 2263 54be 14b2 b3bd 1f8b 023e
00000260: e045 55be d8f8 70be 45db 253f 2933 6ebe
00000270: b27d c83d ac93 873d 7fa2 d03e a515 24be
00000280: d970 bb3e 217f fabd d60d f3bd 0431 3cbe
00000290: e118 9fbd 8e5c bc3d b48c 84be bbc5 813f
000002a0: ad3f 903e 7c78 b2be 93fc fe3d 1b50 e0bd
000002b0: eb4c febd 0870 563c 8829 b7be 67d5 98be
000002c0: cadd fabd 28f0 c5bc c57f bc3e aa36 c03e
000002d0: fdd8 623e 62ab 043f ab34 6d3e a02a ab3e
000002e0: b375 b2be ac6b 58bd 3ed4 b7be 1619 b2be
000002f0: 6eac b5be 6d2e 2a3f b6ff 14bf d31f 923d
00000300: e0f8 42be 5f72 e53d 5072 74be 09a9 86bd
00000310: 5a3f 92be e425 19be d0dd f23e 0e08 ba3e
00000320: af2c 3d3e 2d5d a03b b16c 1dbe ad10 a7bd
00000330: 8a12 e73d 5838 e9bc 355e 2e3c 4436 543d
00000340: 878d 9bbe 134b 98bd 30c9 843e 5531 153e
00000350: 2ce7 a4be 027f babd 6c13 84be 56d6 69be
00000360: 1086 53be 9c98 183e 3c32 40be 4851 ae3e
00000370: 1da1 7b3e 7eb8 36be dce4 a0be c20d d23c
00000380: 5c6d acbe 4c3f 083e af09 8d3e 156c 7c3d
00000390: ffb0 893e ff36 813e d013 c93e 92e6 253e
000003a0: 653c f03c da28 1dbe 8fdc a3be 4586 abbe
000003b0: 6439 cf3c 204f db3c b4a2 50be 290d 7cbe
000003c0: c9eb 883e ed4f b1bc d1cf 913d 0813 77bc
000003d0: b857 1bbd c088 393e 491c adbd e04e a63e
000003e0: b033 f93e 9610 093e cc57 8d3e 9f00 15be
000003f0: f045 883e 88e8 3f3d 8c19 4bbe 4397 363e
0.0018273717 -0.035799038 0.14209378 0.7179146 -0.34440318 -0.089963354 0.067249075 0.0042619635
0.6751723 0.40628904 -0.05407712 -0.11006082 -0.19043316 -0.21475106 -0.02224935 -0.19858615
0.2820072 0.44973388 -0.30364963 -0.16513896 0.1483966 -0.34580603 0.08838299 -0.27020103
0.3141388 -0.25080013 0.3226277 -0.026936851 -0.08313773 -0.036123045 -0.30092996 -0.2594448
0.13462962 -0.123823866 0.26586986 0.07497545 -0.31802052 0.2968882 -0.24202688 0.4489188
0.42597273 -0.048242487 -0.124544635 -0.048411477 -0.13611768 0.284482 1.019581 -0.19274628
-0.06510796 -0.1303772 0.10435173 -0.14481884 0.3573823 -0.32702982 -0.15733811 0.8705279
-0.20330751 0.32942995 -0.0078959325 -0.36382446 0.14962865 -0.16883458 0.9289754 -0.3078899
0.15656665 -0.08817946 0.10620216 0.23878634 -0.069001496 0.29460812 -0.31468615 -0.24253084
-0.21947052 -0.23862103 -0.061726116 0.016549526 0.23824643 -0.32918683 -0.3645571 0.44886142
0.11900356 -0.14127845 -0.29241058 0.20158947 -0.30142826 0.059743743 -0.22456978 -0.2944456
0.4995852 -0.34722283 -0.24504977 0.04283787 0.25338882 0.26705214 -0.37231097 -0.26796392
-0.29861084 -0.1496883 -0.42406008 0.46844983 0.26407173 0.19088224 0.18833134 -0.432545
-0.34213758 0.5881728 0.117739804 0.14004259 -0.29459384 -0.038370825 -0.23312919 0.24186304
-0.11563236 -0.07587734 0.04563136 0.036135208 0.15801114 0.33403248 -0.034536194 0.3105902
0.62397647 -0.43741682 -0.3432117 -0.13175936 -0.2905553 0.009725304 0.26306394 -0.14509828
-0.16022004 -0.15729563 -0.23793522 0.5124372 -0.37323102 0.19346456 0.30203125 -0.057843663
0.117037356 0.26535738 -0.05057144 -0.27731267 -0.22713663 0.04679125 0.4170153 -0.3510671
-0.30584326 -0.30794898 -0.08056278 -0.21946041 -0.1484373 -0.20740941 -0.087742 0.12748383
-0.20827436 -0.23532426 0.64787704 -0.23261704 0.097895995 0.06619963 0.40748975 -0.16023882
0.36609533 -0.12231279 -0.11867873 -0.18378073 -0.07768417 0.09197341 -0.25888598 1.0138468
0.2817358 -0.34857547 0.124505185 -0.10952779 -0.12417015 0.013088234 -0.35773873 -0.29850313
-0.12249334 -0.024162367 0.3681623 0.37541705 0.22153087 0.5182401 0.23164622 0.33430958
-0.34855422 -0.05283706 -0.35904115 -0.34784764 -0.35483116 0.6647709 -0.58202684 0.07134976
-0.19040251 0.11203455 -0.23871732 -0.0657521 -0.28563958 -0.1495586 0.47434855 0.3633427
0.18474077 0.00489392 -0.15373494 -0.081574775 0.11282833 -0.02846925 0.010642578 0.051809564
-0.30381414 -0.07436194 0.25934744 0.145696 -0.3220762 -0.09106256 -0.25796068 -0.22835669
-0.2065661 0.14901966 -0.18769163 0.34046388 0.24573179 -0.17843816 -0.31424606 0.025641326
-0.33677185 0.13305396 0.2754645 0.061626513 0.2689285 0.2523727 0.39272928 0.16201237
0.029325673 -0.15347615 -0.3200421 -0.33500877 0.02529592 0.026771128 -0.20374566 -0.24614395
0.2674239 -0.021644557 0.07119716 -0.015080221 -0.037925452 0.18118572 -0.084526606 0.32482052
0.48672247 0.13385233 0.27606046 -0.14551018 0.26615858 0.04685262 -0.19833964 0.1783114

encoder.input_net.0.bias f4 [64]
00000000: 4ce2 babd d37e d33d b3b9 1b3e a78a 673e
00000010: 44c7 8cbe 772b a3bd 4943 c83d ac43 37bd
00000020: f2eb e43d 00fd abbe a18d 91be c9b2 af3e
00000030: 2406 923e 0aba 583d 4578 cf3e ad2e a13e
00000040: 9b83 133e da6f db3e 565c 98bd 3add df3c
00000050: 4e78 8ebd d4ca 8ebe 833b af3e f0bc eb3d
00000060: 3f90 8b3e a177 6f3e 4880 8e3e 1d35 353f
00000070: f8c9 ea3d c4d6 1f3e 50bc 263e bcbf 10bd
00000080: bfe2 903e 65f0 28be 9c42 a3be 5161 04bd
00000090: 703f 5fbe 71c8 4bbe 7a16 b1be 7f6f 4e3d
000000a0: 9bf4 7e3e c555 9b3e 19b2 ef3e ffce 163e
000000b0: dbe5 24bc 1afe 253e 1dd1 1a3e 43f0 a03d
000000c0: fa43 163d 88d3 8b3d 8584 cb3c 67a9 5b3e
000000d0: 17fc c0be dd73 633e 24cf 853e d4b7 663d
000000e0: b5cc b73c 673a cc3e a9ad 90be c3bf c13e
000000f0: 1b26 0e3d 3320 4c3e 4d3c d23e 79ac 793e
-0.09125194 0.10326924 0.15207557 0.22611485 -0.27495778 -0.07967275 0.097784586 -0.04474227
0.111778155 -0.3359146 -0.28428367 0.3431609 0.2852031 0.052911796 0.40521446 0.31480923
0.14405672 0.42858773 -0.07439487 0.027327169 -0.0695654 -0.2788912 0.3422509 0.11510646
0.2725849 0.23385479 0.27832246 0.7078417 0.11464304 0.1560927 0.16282773 -0.035339102
0.28297994 -0.16497953 -0.31886756 -0.03231937 -0.21801543 -0.19900681 -0.3458746 0.0503993
0.24897997 0.30338874 0.46815565 0.147274 -0.010064567 0.16210213 0.15118833 0.07858326
0.03668592 0.06827456 0.024843464 0.2145134 -0.3769233 0.22212167 0.26134598 0.056327656
0.02243648 0.39888307 -0.28257492 0.37841615 0.03470431 0.19934158 0.4106163 0.243822

encoder.message_net.0.0.weight f4 [64, 64]
00000000: be2d a23d 5749 053e d63b 9cbd e35f 18be
00000010: 408f 133b 2909 913e 8d78 8dbe 50b0 02be
00000020: b9de bd3d 1c28 b83d ece9 db3d 9c1c 643e
00000030: 4266 ef3d c394 863e d88a 153e 254e 6c3d
00000040: 0ded f63d bb80 a5bd 62b9 4cbe db47 70bd
00000050: bfa9 1c3e 400e d33c 9251 953c 2b1b d2bc
00000060: 7e8e fb3d 9206 143c df77 51bb 7a6a d93d
00000070: a109 3b3e 57d1 123e 0546 993d 2a62 683d
00000080: cf76 3c3e 80bf e0bd 90f6 89bc 050e 0e3d
00000090: f543 57be 5cb2 4cbe 6c8b 22bd 7ace d0bd
000000a0: 614c 9f3d c6e0 8c3d 55e0 5b3c d3ec 143d
000000b0: 754d 2b3e af73 e03c 9d34 f73d ae89 2ebc
000000c0: 0278 943c 5c5e 523e b59d 55be c637 acba
000000d0: 8cd6 3bbd 66e0 a03c 7f03 673e 037b dc3d
000000e0: 9f35 1cbd 3d2b 493d a2a9 063c 4a1d 74bd
000000f0: 0161 043e 75fb f7bc b117 35bc 7c3a 333b
00000100: d695 0d3f 1e97 00be aa1a d43d a335 753d
00000110: 0025 913a 9990 9e3c f9c7 bb3e 194f 38be
00000120: 0d18 afbe 347c d9bd e077 633c c9a3 983e
00000130: 938b 34be a118 53bc 198c 5a3e 54c6 22bd
00000140: 4b10 f13c 8f5c 46be 828b 3d3c f162 66bd
00000150: 8424 4f3e 60b5 d0bb c024 023e dbfc 9abe
00000160: 20ac 233e 7748 aabb 8526 4cbe 30d0 133d
00000170: bcc3 c03e 8cb1 513d d072 4a3d 9685 4b3e
00000180: 5d8c f2bd 10b4 f3bc c0d8 f9bb 3380 973e
00000190: 1616 a03d ee5c 9b3d 28b4 9bbd a307 d6bd
000001a0: 0b02 d13e 2f41 193d 6661 a03c 37eb 50bd
000001b0: a2e9 8f3e cb86 a63d b1f9 393c 72a5 b53e
000001c0: a8f3 193e 9a49 1e3d 555f 9d3d 51de 0abd
000001d0: 5266 86bd e2bb 913e 5495 853d 7f28 d63e
000001e0: 6bb4 883d aad1 fe3d be88 6a3d 8e4e 673e
000001f0: ec2d 473e c579 8f3d 00a5 3d3d 457b 9b3d
00000200: 606d ef3b 4b92 a4bd 6069 81b9 a8f3 dcbd
00000210: c0ab 32bd 8900 e6bd ee23 a6bd 30df 8dbd
00000220: be60 4cbd 94fd 2bbd c4db 02bd cc6e 03be
00000230: 12ff 8ebc 9138 623c b952 273d 7850 11be
00000240: ccff 293d 84bd f4bd d94d d1bd e251 2cbd
00000250: 9742 e0bd 6844 d63c 0cc4 2dbd 3536 ac3c
00000260: 60ff 9ebc 3756 86bd 412e 0bbd 137e 84bd
00000270: a3d9 463d a2d2 603d 15ae 123d 008d d3bd
00000280: eb12 aebd 9b51 953d d4f3 f2bd 22fa d83c
00000290: 2cdc d53c 3daf b5bc 0342 603d e867 1b3d
000002a0: 2795 05be 4928 e73d c9cf b03d 0c06 dabd
000002b0: 2938 80bc a45f b23d 0e86 b83d 1dd8 5cbd
000002c0: e2d7 43bd 5fe3 203c f0ba 903d 5154 e3bd
000002d0: 58ac b1bc 29c1 373d 2af6 b0bc d901 e0bd
000002e0: 8e27 ac3d a411 81bd 4579 503c db1c 793d
000002f0: 87f8 a63d 1d11 0dbe fcb5 9d3d 1763 9ebc
00000300: 1646 76bd 0ffe 81bd dd4e b73c f478 66bd
00000310: e41d 50bd bb02 7b3d d3a6 99be 5ffb 58be
00000320: 312e 6ebe 6ca2 7b3d 90da 7bbd 031d 4abe
00000330: 94f1 d13c f790 333d c350 c1bd 034d b0bc
00000340: 8fee 183d a977 aa3d 5b6c d43c 3db5 3cbd
00000350: 8d3f dbbd 5eaf aebd 128a ec3d a853 413e
00000360: 10d8 243e e51b 0dbe 5d38 603d 1470 543d
00000370: addd c5bd 2d59 bbbc 146b 1c3e 371c 973d
00000380: 9bee 3c3d 1fed 8c3d 8053 2ebb 56ed be3c
00000390: a40b 82bc 38ce a9bd 161c 83bd 95f4 c93d
000003a0: 6a16 7bbe 97e4 6d3d c547 063d 459c e53d
000003b0: 6610 8d3d f2c7 e83d f702 50be 7015 6fbe
000003c0: e8df 083d d393 15be 5370 4d3d b673 06be
000003d0: a0c0 0b3d 2ad9 b93d fe81 423d f7a7 f7bc
000003e0: 3f0e 0b3e dfba a9be f405 f2bd 2448 9f3d
000003f0: 3ac0 0c3d ab23 ef3c e4ad 493e 9337 133e
0.07918881 0.13016258 -0.076286 -0.14880328 0.0022515804 0.283273 -0.27631035 -0.1276257
0.092709966 0.08992025 0.107379764 0.22276539 0.11689426 0.2628537 0.14603746 0.057691712
0.120569326 -0.08081194 -0.19992593 -0.058662277 0.15299128 0.02576363 0.018227372 -0.02564772
0.122830376 0.00903477 -0.0031962318 0.10616012 0.18265392 0.1433767 0.07484058 0.05673424
0.18404697 -0.10974026 -0.016841203 0.03468134 -0.21022017 -0.19989914 -0.039683744 -0.10195632
0.0777824 0.0687881 0.013420184 0.036358666 0.16728766 0.027398912 0.12070582 -0.010652943
0.01812363 0.20543808 -0.20860942 -0.001313918 -0.045858905 0.019638252 0.22559927 0.1076565
-0.038137075 0.0491135 0.008219155 -0.059598245 0.12927629 -0.030271271 -0.011053012 0.0027348092
0.55306756 -0.12557647 0.10356648 0.059865605 0.0011073649 0.019356059 0.36676005 -0.17998923
-0.34198037 -0.10619393 0.013883561 0.29812458 -0.17631368 -0.01288429 0.21342506 -0.03973992
0.029426714 -0.19371246 0.011568906 -0.0562467 0.20228773 -0.006369278 0.12709332 -0.30271038
0.15983629 -0.0051966268 -0.19936569 0.036087215 0.37649333 0.051194713 0.0494259 0.19875178
-0.118431784 -0.029748946 -0.0076247156 0.29589996 0.078167126 0.07586084 -0.076027215 -0.10450675
0.4082187 0.03741568 0.019577693 -0.05100557 0.28107935 0.081311785 0.011351035 0.35477787
0.15034354 0.03864441 0.07684199 -0.033903424 -0.06562485 0.28463656 0.06522623 0.4182777
0.06675037 0.12442334 0.057259314 0.2258856 0.19451112 0.070056476 0.046299934 0.07591871
0.0073067397 -0.08035716 -0.00024683308 -0.10788661 -0.043620825 -0.11230571 -0.08112322 -0.06927335
-0.049896948 -0.041989878 -0.031947866 -0.12835234 -0.017455611 0.013807432 0.040850375 -0.14190853
0.041503713 -0.1195021 -0.102199264 -0.042070277 -0.10950201 0.026155666 -0.042423293 0.021021942
-0.019408882 -0.06559413 -0.033979658 -0.06469359 0.0485474 0.054888375 0.03581055 -0.10329628
-0.08499702 0.07290956 -0.11862913 0.02648646 0.026105963 -0.022178287 0.054750454 0.03794089
-0.13045178 0.11286981 0.08633382 -0.106456846 -0.01565178 0.08709648 0.09009944 -0.05391704
-0.047813304 0.0098198345 0.070669055 -0.111000665 -0.021688625 0.044861946 -0.021601755 -0.109378524
0.08405982 -0.06302193 0.012724225 0.060818534 0.081528716 -0.1377606 0.077007264 -0.01933436
-0.060125433 -0.06347286 0.022376472 -0.056267694 -0.050809756 0.0612819 -0.3001009 -0.2118964
-0.23259808 0.061434194 -0.061487734 -0.1973763 0.025627889 0.04383942 -0.09439232 -0.021521097
0.037336882 0.083236046 0.025930574 -0.04607128 -0.10705481 -0.085295424 0.11549772 0.18879569
0.16098046 -0.13780172 0.054741252 0.0518647 -0.09661422 -0.02286967 0.15275222 0.073784284
0.04612599 0.06881165 -0.0026600063 0.02330653 -0.015874691 -0.08291286 -0.06401841 0.098611034
-0.24520269 0.05807933 0.03278329 0.11211447 0.068878934 0.113662615 -0.20313631 -0.23348022
0.03341666 -0.14607172 0.05015595 -0.13130078 0.03411925 0.09074624 0.04748725 -0.030231459
0.13579653 -0.33150384 -0.11817542 0.077774316 0.03436301 0.029191813 0.1969524 0.14376669

encoder.message_net.0.0.bias f4 [64]
00000000: be18 a9bc 4a5b 0a3e aa6a f7bd 6f92 863c
00000010: c532 e7bd 8c23 58bd 0841 fa3d f745 b63d
00000020: 8e5b 183c 1721 e23c 22cb a0bd 9cbc 0cbd
00000030: 6230 fdbd ccf2 60bb 1033 76bd 143d 163e
00000040: 8fde 1abe 04ac d03b a2a5 e3bd 6d8f dabd
00000050: 8731 623d d092 593d b55d 9e3d 1a48 4d3e
00000060: e7e2 b4bc fc58 4fbd 9070 adbd 9214 133d
00000070: ce7a 483e 8763 a73d a0f7 e1bd 2c2c 93bc
00000080: d0e1 253e ba17 083e 56a0 b73c 6ac8 f93d
00000090: 68ce 443e 4bf7 6dbc 2bb3 b43d 797a c3bd
000000a0: bf47 34bd 9b97 5c3d dc72 55bd fb56 5dbd
000000b0: b6e7 febd fba4 d8bd 6ef5 bd3d 75fb 423d
000000c0: 52b3 083c 3f91 05be 6376 08bd de7e b6bb
000000d0: 91eb d0bd 304f 223d 0137 0a3e 8904 1a3e
000000e0: ec6f 1a3d 9988 46bc efa4 8c3d c484 a43d
000000f0: 0779 f0bc c97b 6f3d 4a45 febd 3a62 07bd
-0.02064168 0.13511387 -0.120808914 0.016427247 -0.112889804 -0.052768275 0.12219435 0.089000635
0.009299172 0.02760367 -0.078512445 -0.03435956 -0.12362744 -0.0034324406 -0.06010729 0.14671737
-0.15123962 0.006368162 -0.11115576 -0.106718875 0.055223014 0.053118527 0.07732717 0.20047036
-0.022080852 -0.05062197 -0.08468735 0.03590829 0.19578096 0.0817328 -0.11033559 -0.017965399
0.16199422 0.13290301 0.022415321 0.12196429 0.19219363 -0.014524291 0.08823236 -0.09544844
-0.044013735 0.05385552 -0.05211149 -0.05403803 -0.12446539 -0.105783425 0.092753276 0.04760309
0.008343535 -0.13043688 -0.033316027 -0.005569323 -0.10201181 0.0396263 0.13497545 0.15040793
0.037704393 -0.012117528 0.06867396 0.080331355 -0.029354585 0.05846766 -0.124155596 -0.03305266

encoder.message_net.1.0.weight f4 [64, 64]
00000000: 4733 c43e fc86 c13d 7e5d 4a3d 5424 013e
00000010: 77cd 07be 6a64 f4bd 9c99 e4be 6fe7 cbbe
00000020: 07cd 523e c517 333e c6db 6a3d 90d4 06be
00000030: 15ba 99bd 420e 14be e599 02bf ed0a 68be
00000040: 62bc 06be 8c09 99bd ef2f 0bbe 1adf 05be
00000050: 7b08 233e df69 efbe c3a5 dcbe e6ec c73c
00000060: 033c 8ebd 0c8e b7bd bffe 3dbc afd8 28be
00000070: fd52 efbd 6672 07be 51cc f3bc acba 29be
00000080: 907f d8bd cc40 d6bc 70b5 fd3d 8e0d 4a3e
00000090: ff10 b03d 3785 ba3e 2719 e5bd 59e6 233e
000000a0: 3c42 1cbc b341 08be 3cd4 dabc 1262 36bd
000000b0: 7687 8b3d abe5 eebd db6e b53d 17b0 3d3f
000000c0: 327b b5bd f655 c0be 0d6c 083d 10bd 89bd
000000d0: b77f 2ebf 507d 4f3e 01f8 593d de86 e2bd
000000e0: 1720 79be 038e 04be 4521 61bd e0ae 6a3e
000000f0: 506c 0e3d 6f49 823d 6fd2 90be 8507 5cbd
00000100: 7602 743e e22e 9e3d 53db 51bc 158f 83be
00000110: 91cb c5be d54a 673d d882 07be 9252 5dbe
00000120: cf26 d0bd 209e 8b3e 4b42 52be 2c24 89bd
00000130: a0b0 003d ffdb 9b3d 3d7e 99bd d6b4 223e
00000140: 6364 45bd 33bc 80be 179c 74be 2daa 16be
00000150: 7f5a 0d3e 7b54 3ebe 551a 003e 6a4e 773d
00000160: 2a0a 6bbe 34b6 c53d aa66 80be 144d 9a3e
00000170: f1f1 2cbe e6a8 e03b b93e cebe eecd 23bf
00000180: c08e 453d b9af 36be 32b0 263e b1cb 8f3e
00000190: 5fd4 06be 5bc3 443e 79f5 67be 7e0c 3d3e
000001a0: f059 993d 4ba1 1f3d 4076 71bd c9f0 aebd
000001b0: cc04 b63d c220 42bd b2a2 583e 483f b83e
000001c0: 5218 763d 03e8 123e 52ba 28bc f689 36bd
000001d0: 32d0 033e 6411 94be 733c 6bbd 985e 26bd
000001e0: 2736 79bd ee40 073e 49af 60be 3b9e 2b3e
000001f0: 3479 013c 2108 a0be 3c73 a13d ba85 03bf
00000200: 8bfa 723e 1bdd 043e cae6 a5be 8299 313e
00000210: 98c5 a8be d4ab b73d df0b fc3d 3644 3ebe
00000220: 9894 693e f7dd 2b3e 6658 273e 203c 86be
00000230: 7ff7 1b3d 7bf5 e3bd 364b 85bd fdfe 603d
00000240: caa4 acbd e298 a5be c0ed e3be ac08 bcbd
00000250: 03a1 833a 62ab 91be 3d64 90bd f7ff 9a3d
00000260: 02f8 63be 5d01 bd3c cecc 3fbe 6c27 59bd
00000270: 8beb c33c 9711 183d a169 9cbe bbe5 e9be
00000280: d1f7 1f3e 44bc 503d d149 42be bea8 213e
00000290: dd23 91be 54f4 a5be 23af d6bd 4be3 c33d
000002a0: d438 e63d 7e6d 283e 681c 71be 4bdd 21be
000002b0: e4b9 6d3e f0a9 85be 48d8 be3e a9ae 34bc
000002c0: 2b77 a9bd 1925 603d 3f72 eabe 6c11 e73d
000002d0: 100e 893e 575b ce3d 2055 343e 1312 b53e
000002e0: b124 82be e14e 193e 7ebb 023a d42d 9a3e
000002f0: 9f7e 1cbe 9bf8 00bd 86f4 a4bd d2b9 83be
00000300: b92a 23be 44c0 cfbd e87b 37be 8170 57bd
00000310: cf71 f63d bb4e 79be cc90 ee3d 5074 25be
00000320: a709 57be 1c02 4a3f 945d 903c cb78 70be
00000330: 1a8f 633e b892 85bd 0979 21be a030 903e
00000340: fb72 853e 0079 c4bc 339c cc3d c6dd 4c3c
00000350: 256d 673d de22 6dbe 172e 5bbe d798 36be
00000360: 87b1 fabd 0831 bbbe 3f77 6a3c 1bb6 61ba
00000370: 2639 6bbe 5e79 2dbe 544d aebc 6e08 c3bd
00000380: 63b1 03be 9ff0 dfbb aacc ec3d 38ed b13e
00000390: edf6 ac3c 5f5b b73d 477f 993e 7582 3a3d
000003a0: 11ee e6bd a687 93be 7485 c5bd 7ae2 753d
000003b0: b43a 3d3e 3763 143b 1856 a33d eb91 8d3e
000003c0: dc87 2c3d b60c 4cbe 7c0a 0dbb 4f96 4c3c
000003d0: b806 94be fe27 b9bd ae37 68be ce1e 6abe
000003e0: 3f97 eb3b 95e8 83be e019 86bc ad4e 983e
000003f0: 51cb 4c3d 9414 cebc 9b9b a2bd 2cf8 f13d
0.38320372 0.09449574 0.049405567 0.12611514 -0.13261972 -0.11933215 -0.44648445 -0.39825007
0.20586024 0.17489536 0.0573385 -0.13167024 -0.075061955 -0.14458564 -0.51016074 -0.22660418
-0.131578 -0.07472524 -0.13592504 -0.13073388 0.15921204 -0.4676046 -0.43095216 0.024404954
-0.0694504 -0.0896264 -0.011596381 -0.16488908 -0.11685751 -0.13227233 -0.029760512 -0.16575116
-0.105712056 -0.026153944 0.12388122 0.19731733 0.08596992 0.3642976 -0.11186438 0.1600584
-0.009537276 -0.13306312 -0.02671253 -0.04452712 0.068129465 -0.116648994 0.08859035 0.74096817
-0.08861388 -0.37565583 0.03330617 -0.06725514 -0.6816363 0.20262647 0.05321503 -0.1106088
-0.24328648 -0.12944798 -0.05496337 0.22918272 0.034771264 0.063616626 -0.28285548 -0.05371811
0.23829064 0.07723786 -0.012808639 -0.256951 -0.3863187 0.05646785 -0.13233507 -0.2161353
-0.10163652 0.27269077 -0.20533101 -0.06696352 0.031418443 0.0761032 -0.07494781 0.15889296
-0.04819144 -0.25143585 -0.23887669 -0.14713354 0.13804053 -0.18586914 0.12510045 0.060377516
-0.22953096 0.09653893 -0.25078326 0.3013693 -0.16889168 0.0068560718 -0.4028223 -0.639861
0.04823184 -0.1784047 0.1627815 0.28085092 -0.1316695 0.19215147 -0.22652234 0.18461797
0.07487857 0.03897218 -0.058950663 -0.0854202 0.08887634 -0.04739452 0.21155813 0.3598578
0.060081787 0.14346318 -0.0102983285 -0.044565164 0.12872389 -0.28919518 -0.057430696 -0.040617555
-0.06084266 0.13208362 -0.21941866 0.16759579 0.007902432 -0.31256202 0.07883307 -0.51375926
0.23728387 0.1297497 -0.3240264 0.17343715 -0.32963252 0.089683205 0.12306952 -0.18580708
0.2281059 0.16783892 0.16342315 -0.26217747 0.038077828 -0.11130806 -0.06508486 0.054930676
-0.084298685 -0.32343203 -0.44517326 -0.091813415 0.0010042492 -0.28451067 -0.07050369 0.07568353
-0.22262576 0.02307194 -0.1873047 -0.05301611 0.023916027 0.03712615 -0.30549338 -0.45683083
0.15621878 0.050960794 -0.18973471 0.15787026 -0.28347674 -0.3241297 -0.104826234 0.09564837
0.11241308 0.16448018 -0.23545992 -0.15807073 0.23215443 -0.26106215 0.37274384 -0.01102797
-0.082746826 0.05472288 -0.45790288 0.1128262 0.2676854 0.100760154 0.17610598 0.35365352
-0.25418618 0.14971496 0.0004987045 0.3011309 -0.15282677 -0.03148709 -0.08054452 -0.25727707
-0.15934266 -0.10144094 -0.1791836 -0.052597526 0.12033426 -0.2434644 0.116487116 -0.16157651
-0.20999776 0.7890947 0.017622747 -0.23483579 0.22222558 -0.06522125 -0.15768827 0.28162098
0.26064286 -0.023983479 0.0999073 0.012504047 0.056500573 -0.23157832 -0.214043 -0.17831741
-0.12240892 -0.36560845 0.014310657 -0.00086102047 -0.22971019 -0.16940829 -0.021277107 -0.09523092
-0.12860636 -0.006834104 0.11562474 0.34751296 0.021113837 0.089529745 0.29979917 0.04553457
-0.11275876 -0.2881443 -0.09644595 0.060030438 0.18479425 0.0022642144 0.079754055 0.2765039
0.042121753 -0.19926724 -0.0021521142 0.012487008 -0.28911376 -0.09040831 -0.2267749 -0.22863314
0.007189661 -0.25763384 -0.01636976 0.29747525 0.049998585 -0.025156297 -0.07939836 0.11814913

encoder.message_net.1.0.bias f4 [64]
00000000: 53bf 86be 282f 38bd c50c 84be c2f4 323b
00000010: 8f26 3cbe 60d0 1f3d 16c7 59be 4d32 fbbd
00000020: 13fb 1ebe fefb a7bd 9103 83be 59dd ffbd
00000030: ad83 d9bd c31c 26bc d5e7 0fbe 9562 efbd
00000040: cd60 1abe 3b07 f53c 0d0c 25be a340 f93d
00000050: ca9c 3ebe 0cfe 9f3d b7f0 57bd 480a 22be
00000060: 1d80 be3d 1aa2 09bb be52 8e3d 08aa 863d
00000070: c1a0 92bd 1cf3 ecbd 1c0b af3d a151 393d
00000080: 8bcf c0bd 69c9 2fbd 0f20 6dbd 9498 47be
00000090: 946d 81bd 062b c13c f530 2dbe 735d 1c3d
000000a0: c4ba 31be d536 9bbd 5fcc e8bd f783 99be
000000b0: 8655 eabd 4550 a53d 1a88 c8bd b938 3d3d
000000c0: 768d 933d 64d8 76be d18c 5d3b 8eb2 a7bc
000000d0: c991 79be 7789 2c3d 5acd 01be e6f7 13be
000000e0: 0974 923d 02f1 45be 9fff 40be 0325 82bd
000000f0: 62ef f8bd 2596 e9bd 13d4 35be c2d1 74bd
-0.26317844 -0.044966847 -0.25790992 0.0027306532 -0.18374084 0.03901708 -0.21267352 -0.122654535
-0.15525465 -0.082023606 -0.25588658 -0.124933906 -0.10620818 -0.010138693 -0.1405328 -0.11688725
-0.15075989 0.029910674 -0.16117878 0.121705316 -0.18614498 0.078121275 -0.052719798 -0.15824234
0.093017794 -0.002100116 0.069493756 0.065754 -0.071595676 -0.11569807 0.08547041 0.045243863
-0.09414586 -0.04291669 -0.0578919 -0.19491798 -0.063197285 0.023580085 -0.16913207 0.038175058
-0.17356402 -0.07578818 -0.11367106 -0.29983494 -0.114420936 0.08071951 -0.09791584 0.046196673
0.07204716 -0.24105984 0.0033805857 -0.020470884 -0.24372019 0.042123284 -0.12675992 -0.14450034
0.07151038 -0.19330218 -0.18847512 -0.06354716 -0.12155034 -0.11405591 -0.17756681 -0.059770353

encoder.message_net.2.0.weight f4 [64, 64]
00000000: 59f3 1a3e 4e0f 05be 368e 35be 914e 313e
00000010: 9325 3c3e ef96 323d 26d7 103e 7263 463d
00000020: c327 973d 1077 3dbe 1a36 2d3e 35a6 0abe
00000030: 1b2e 89bd c02b febd 071c c4bd b317 3b3e
00000040: e506 98bc a17f 14bd a7fb aebc e1ca abbd
00000050: d8b5 3fbd 3beb abbd 3089 833e ceba 2cbe
00000060: 3cab 17bd 954b 76be 3b5f b2bd d5aa 7cbb
00000070: 02c2 e73d b3d4 94bc 0806 a9bc 4b50 a03d
00000080: 8fa7 8a3d b2e7 2bbc 6eb9 913c 551f df3d
00000090: d874 a93d 8b65 1bbe 5290 87bc 50e1 d63d
000000a0: d6d9 463d 2c24 ca3c f4d2 e1bd 7574 1fbe
000000b0: d392 6f3d 0165 24be 0d87 383e f059 1abe
000000c0: 3c29 823e 6423 b83d a4ed 10be 2fce eabd
000000d0: b19c afbe 152a 34bd 080f dfbe 82c5 6ebd
000000e0: 96b4 a33d 8adc 99be 5fcb 173b e11d 8dbd
000000f0: 6db3 db3d 535e 07bd aa7a 69be 717e cebd
00000100: 0b59 afbd 7007 d9bc d037 e3bd 8ecb a93e
00000110: f28c 093e 1cb6 ce3d 861e be3c 90ca d1bd
00000120: e345 d8bd ca81 9b3c 21c2 493d 44cb 6abe
00000130: d3ec c9bd 3d78 6abe c461 fabe 5ded 693b
00000140: cb08 6d3d f29e 01bd fef6 8c3d 7109 b13d
00000150: 742d b53d 7aa2 9dbc 5cc7 a1bd eb74 babe
00000160: b7f6 723b ec2f 38bd 5b26 1cbe 7c34 4e3d
00000170: 229a 963e c4b7 2cbe 2719 fbbd d94e 383d
00000180: b906 6e3d d8c7 453c db9f 19be 8bfb 8bbd
00000190: 2f28 04be 9f72 433e 7c02 3c3d f254 c53d
000001a0: c8b0 ae3e 0bf8 55be c1f0 3bbe ded2 57bd
000001b0: e72a 0f3e 2e53 753d 9d74 543b f5ba d1bd
000001c0: 43ba 5fbc 0656 c73d 7059 97bc aa94 18be
000001d0: 23a2 c8bd 23f4 5a3d f226 703d 2794 a03e
000001e0: d50d 243d 0a88 5fbe b741 583e 98f0 993c
000001f0: 789b 6f3d 0f65 6cbe 3267 a3be 9b53 d33c
00000200: 9676 283d a864 613e a3ee 84bc 28c0 bc3e
00000210: 21cc 113e b59b 03be 95ac 3d3e 9f60 7abd
00000220: 1840 28be 0290 613e 2bca 413d d62c 71be
00000230: f358 ef3d f994 a9bd f174 89be 82ab 503d
00000240: 2356 c1bc 35b1 803d a5da 05be e615 9bbb
00000250: 5542 b33d e287 b7bd 5ac5 c1bc deec 87be
00000260: 7b92 cbbd 63e3 6fbd e0c7 a03d 01c8 9fbd
00000270: b436 003e 5216 90bd 8e0c b93d 5cdd a33c
00000280: f64a b63c 9e72 efbd 2b43 153c d61d 343e
00000290: 1af0 bdbd cb8c fb3d 1000 94bd 54f2 42bd
000002a0: 1d93 41bd 8d8e bebc 9376 00be 6631 92bd
000002b0: 0689 903d 6e20 bf3d 421e 01bd 1ddc 9f3d
000002c0: c8d8 113d 5e88 d7bd 5804 d1bb a234 1a3d
000002d0: d38d d3bd a08e 70bc cf61 f13c a58d 883e
000002e0: c6f5 463e eeb9 37be 3949 303e 24ae 523d
000002f0: 9148 33bd 7520 5ebd 23fc 01bf 0fef f03d
00000300: 6430 d0bc b91b c43d 37ae e7bd 9304 40bd
00000310: 16ef af3c 95c0 b03d a5bd e13c 6f05 75bc
00000320: e8b9 183c 0198 0d3d b67e 0b3c f7e8 d9bc
00000330: ddd8 7ebc dd49 52be 367f 43be 552e be3d
00000340: 2946 25be c488 4f3d d34f 1abe de31 aabc
00000350: 7c9e 4d3c b1ed 6e3d 21aa ae3d 185b a6bd
00000360: 8942 8e3d 6587 67bc c0eb 7e3d fe88 783d
00000370: 8725 4abd fac5 4bbd 6d21 78bd 5126 99bd
00000380: ea36 d63d 3af6 3a3d 6d3b 983b 2b41 4dbd
00000390: a9ea 9dbd c621 d1bc 708a 8cbd 2b7b 46be
000003a0: ca56 a23d 4d96 83ba 1f44 80bc 2d6f 8d3d
000003b0: f963 95bd 6f57 f1bd 96d9 133e 4b65 6f3d
000003c0: d9f1 ca3d f5ed 0fbd d3dc 10be dcdc 393b
000003d0: 9193 d4bd 9345 c23d 2760 ebbd 4f42 a43d
000003e0: fae4 b63c 7e43 d63d 72bb d5bd b158 113c
000003f0: d9f8 febd 0633 b2bd 1719 44bd 46c7 1c3d
0.15131892 -0.1299412 -0.1773003 0.17315127 0.18373708 0.043600973 0.14144573 0.048434682
0.07380631 -0.1850245 0.1691517 -0.13539965 -0.06698247 -0.124106884 -0.09575658 0.1827076
-0.018557975 -0.03625453 -0.021360232 -0.083883055 -0.04680428 -0.08394476 0.25690603 -0.16868135
-0.037028536 -0.2405227 -0.0870957 -0.0038553972 0.11316301 -0.01816783 -0.020632759 0.07827815
0.067702405 -0.010492252 0.017788615 0.10894648 0.08274239 -0.15175454 -0.01654831 0.10492194
0.04854759 0.024675451 -0.11026564 -0.15571769 0.05848963 -0.16054155 0.18020268 -0.15073371
0.25422084 0.08991125 -0.14153153 -0.11465108 -0.34299234 -0.043985445 -0.43566155 -0.058293827
0.079934284 -0.3005107 0.002316199 -0.068904646 0.10727582 -0.03304894 -0.22800699 -0.100827105
-0.085619055 -0.026492804 -0.1109463 0.33163112 0.13432673 0.10093328 0.023207914 -0.10243714
-0.10560205 0.018982787 0.0492574 -0.22929102 -0.09859624 -0.2289743 -0.48902714 0.0035694458
0.057869714 -0.031645723 0.068830475 0.08644379 0.0884656 -0.019242514 -0.07899353 -0.36417326
0.0037073323 -0.044967577 -0.15249006 0.05034302 0.2941447 -0.16866976 -0.12260657 0.04499707
0.05811188 0.012071572 -0.15002386 -0.068350874 -0.12905954 0.19086693 0.045900807 0.09635343
0.34119248 -0.20895402 -0.18353559 -0.052691333 0.1398121 0.05989378 0.003241814 -0.10240737
-0.013655248 0.097332045 -0.018475264 -0.14900461 -0.0979655 0.053455483 0.05863089 0.3136303
0.040052254 -0.21829239 0.21118818 0.018791482 0.058497876 -0.23085426 -0.3191467 0.025796702
0.041128717 0.22011054 -0.016227072 0.36865354 0.14238025 -0.12852366 0.18522866 -0.0611273
-0.164307 0.22027591 0.047311943 -0.2355226 0.116868876 -0.082803674 -0.26847032 0.050944813
-0.023600644 0.062837996 -0.13071688 -0.004732835 0.08752886 -0.089614645 -0.023653675 -0.26547903
-0.09940048 -0.058566462 0.07850623 -0.078018196 0.12520868 -0.07035507 0.09035598 0.020003013
0.022252541 -0.11691783 0.009110252 0.17589507 -0.09274311 0.122827135 -0.072265744 -0.047594383
-0.04725944 -0.023261333 -0.12545232 -0.07138328 0.07057385 0.09332357 -0.031522997 0.07805655
0.03560713 -0.10524057 -0.0063786916 0.03764785 -0.10329785 -0.014682442 0.029465584 0.26670566
0.19429693 -0.1794202 0.17215432 0.051435605 -0.043770377 -0.054230172 -0.50775355 0.11764347
-0.0254137 0.095756 -0.11312526 -0.046879362 0.02147631 0.08630482 0.02755625 -0.014954909
0.009321667 0.03456879 0.008514097 -0.026600344 -0.015554634 -0.20535989 -0.19091496 0.09286181
-0.16140045 0.05066754 -0.15069513 -0.020775732 0.012549993 0.05833215 0.08528543 -0.081228435
0.06946284 -0.014131402 0.062236547 0.06067752 -0.049352195 -0.049749352 -0.060578752 -0.074780114
0.10459693 0.045644976 0.004645756 -0.050110977 -0.077107735 -0.0255288 -0.06862342 -0.19382922
0.0792671 -0.00100393 -0.015657483 0.06905971 -0.07294459 -0.11784255 0.14438471 0.05844621
0.0990941 -0.035139043 -0.14146738 0.0028360402 -0.103797086 0.094859265 -0.11492949 0.0802046
0.022325981 0.10462092 -0.10436143 0.008871243 -0.12449808 -0.08701138 -0.04787549 0.03827598

encoder.message_net.2.0.bias f4 [64]
00000000: e1a4 bdbd 9ed5 6f3b 1f7c 9ebd 9b7d d3bd
00000010: 9ac9 84be a6c5 53be 0008 72bd 090f 8f3c
00000020: 7f65 aa3d 6502 6e3d e36d fcbd 4ba1 0fbc
00000030: ddcd 3dbe ee2a 913c c6de 1bbe d03d b13c
00000040: 8d77 a53d b392 ef3d 2dc7 ebbd 75c9 f2bb
00000050: 407d 993d 7f8b 87bd 9096 563d bb87 1abe
00000060: 4109 12bd 6876 c83d ae49 143d 71f3 38be
00000070: f410 03be 2488 c63d f54c 87be f916 b2bc
00000080: 37c7 77bd 2133 0e3d b8f4 3cbe 34a4 59bd
00000090: 28a2 40be 32f9 57bd 6374 7b3c 9345 9dbd
000000a0: a32f b43d 7e14 ffbc 22e1 98bd 90ec 2ebe
000000b0: 9e2b 3abd 817d cdbd c7ae bbbd b7bc 1cbe
000000c0: da5a 26be 3b0e 3fbd a471 e6bc 2e81 01be
000000d0: f781 6a3c ba8e 22be 31da 893d 89ea bdbd
000000e0: b369 a63b a5fb 03bd e455 023d 7af9 bfbd
000000f0: 4610 0ebe 0138 0c3c 9cf7 38be 5f8d 2dbd
-0.09259964 0.0036595832 -0.07738518 -0.10326692 -0.2593506 -0.20680866 -0.05908966 0.017463224
0.0832014 0.058107752 -0.12325647 -0.008766483 -0.18535562 0.017720666 -0.152217 0.02163592
0.08079443 0.116979025 -0.11512599 -0.0074092695 0.07494593 -0.06618404 0.05238968 -0.1509084
-0.035653356 0.09788209 0.03620308 -0.18061616 -0.12799436 0.096939355 -0.264259 -0.02173947
-0.06049272 0.03471673 -0.18452728 -0.053135112 -0.18811858 -0.052727886 0.015347573 -0.07679286
0.087981485 -0.031137701 -0.07464816 -0.17082429 -0.045451753 -0.100337036 -0.091641955 -0.15306364
-0.16245595 -0.04664443 -0.02813036 -0.12646934 0.014313213 -0.15874758 0.0673107 -0.0927325
0.0050785183 -0.03222241 0.031820193 -0.09373756 -0.13873395 0.008558274 -0.18063205 -0.04237115

encoder.gru.weight_ih f4 [192, 64]
00000000: 833e 2ebe a102 983e 0f8d 2bbe 0330 8a3e
00000010: cd0a a9be 8df0 3d3e d94b 2ebe fd41 203e
00000020: 1a7b 96be 3947 58bd 590b 92be c725 c63e
00000030: 8787 ba3d 223f ad3d c9e7 483e b25b b3be
00000040: 3379 1fbe 6eca cd3d 37ff e7bb 4250 ff3e
00000050: e724 24bd 365e f93e 53dd d8bd 039a 043e
00000060: 58e4 aeb8 2ece ebbe ed4c c8bc 6abf 903e
00000070: 1636 2d3e 00e4 f43d 4b1b 12be 2628 e03d
00000080: d6fe 703d be2b 1f3e 487b ba3d 7e9c 64be
00000090: 49a3 b5bc 89c9 1d3d 370c 703e ed77 b5be
000000a0: 64e0 0b3d c9ff 993e 9066 553e fe7c 5fbc
000000b0: 7aff 6abe 3e9b 22be 1db2 323e 14f5 f93c
000000c0: 4309 17be 18e6 58be 08d0 3e3e 125a 10bd
000000d0: e360 963e 72e7 34bc a1c3 ba3d 087d fa3e
000000e0: 7497 5cbe be68 1a3e 8717 a3bd ef13 dabe
000000f0: a6b0 9a3e e8d8 643c 4d6e 633c 4d63 573c
00000100: e607 2dbb 4aad aa3e 8fb8 273f a7ae 57be
00000110: 309d 2cbe 2d90 2cbe ee84 2b3d 57bc d6bd
00000120: b9e7 a63e f27f 2ebc 6512 ed3d 6549 943e
00000130: e70c 68be 5db1 43be c8ca 31be 0016 953e
00000140: a7c4 0a3f 401c 993c 22a5 003d 4132 b0bd
00000150: 116e b63d ce04 89be 6169 b83e 8f4e f4bd
00000160: 9696 a5bc 6fa9 8dbd 2e78 05be da02 a8be
00000170: 78bb 70bd 900c 4dbe e64a 80be 83ff 50be
00000180: 313a 043e 391a 5cbd 62fd 82bd 34fc c5bd
00000190: 6cfc d73e 1773 4f3d f89c b73c af5f 0c3e
000001a0: fccb 3ebd 5257 833d b4bd fc3d 7cc3 b3be
000001b0: c614 373f 09bd 6fbe 74e5 d13e 653c b93d
000001c0: fad3 55be e163 ae3e a0d7 55bd cb5c 763d
000001d0: 2830 3d3e 0f97 87be c034 dfbd 426e 513e
000001e0: 6b1c 63be 5854 2d3e 5486 623e 3527 0b3f
000001f0: f925 573e d754 f53b 7bfc 60be 96b2 8abe
00000200: 282c 31be e3c1 17bd bca4 2bbc 5de3 c6bc
00000210: 99c5 873d 64c2 fabd d3a1 14be 3257 303e
00000220: 492c 17bd 28f3 1bbe 2ace a2bd 5cff 0bbe
00000230: 5db9 c8bd 4c15 983d 8655 a1be ff56 16bd
00000240: 90e3 14bd 20bd 88be 78f2 863d 17db 96bd
00000250: 94ab 3fbe ed86 7abd 220c 2d3e 2f48 0a3d
00000260: b1f1 523e ff23 28be 513c 07bd 8e93 af3c
00000270: 7e15 3dbd 9c35 ac3e 6a1b b53d 2ca4 6c3f
00000280: ac9b 7fbe 53a9 39be 0fda d6bc 14a1 a5be
00000290: 2eef 07bf 471a e3bc 1448 93bd 2bc9 2bbd
000002a0: 5a83 e1be 42c6 34bd 8d7f 73bc 6f36 60be
000002b0: dae5 bcbd 749e 573c 7a8a 9dbd 1214 96bd
000002c0: d9db 77bd b053 06be 3261 353e fb00 73be
000002d0: d802 2abe 1931 543e a690 033f 9c3f 8abd
000002e0: 55ab 0fbe af65 20be 466e 49be 1dda 7ebd
000002f0: 0fe5 d2bd 8ad2 e7bc 254a 8abe 2728 de3e
00000300: 5992 63be 58e4 10be 15d4 e43c 3456 bfbd
00000310: 228a ba3d d12f 2dbd 1335 6cbc 11a8 f73e
00000320: ba04 8abe 4baf 1d3e e4cb a1be ed5a 8bbc
00000330: 77ad dbbd 3c18 403e 10ce cc3e 030e e63c
00000340: ea86 9d3d 3815 68be df38 0bbe 71df 3dbe
00000350: 9cb7 343e b4aa 513e 2a26 453e 4478 c73e
00000360: d178 0d3f 46ad 8cbd 678d 703f 1cf9 cabd
00000370: a15f 44be 39fa 2b3f 7f3f 15be a53a 163f
00000380: 7d12 00bd be6d 87bd 36d8 8c3d 7bf4 64be
00000390: 33b1 173f d5ae a83d 1315 40be c807 453e
000003a0: bc90 5e3d 5f84 d7be 1950 3cbe 4a45 01be
000003b0: 3755 dcbd e2e1 543d a3ff 99be 5e62 af3e
000003c0: 43dc 40be 2999 2bbe 92fd fe3c 4f90 2abe
000003d0: f5b5 253e 548c 853f a59e 353f fb72 fc3d
000003e0: 813d 1f3f 7ad6 dbbd 2849 ccbd 2e3c 39be
000003f0: 1a5b 223e a0fd ba3d 3af3 2e3e 19ec 823f
-0.17016034 0.29689506 -0.16753028 0.26989755 -0.33016053 0.18548794 -0.17021121 0.15650173
-0.29390794 -0.0528023 -0.28524283 0.38700697 0.09107881 0.08459307 0.19619669 -0.35030895
-0.15573578 0.10048376 -0.0070799845 0.4986592 -0.040074255 0.4870469 -0.10589089 0.12949376
-8.339499e-05 -0.4605574 -0.024450744 0.28271037 0.16915163 0.1195755 -0.14268224 0.10945158
0.05883678 0.1554403 0.09105545 -0.22325322 -0.022172587 0.038522277 0.2344216 -0.3544306
0.034149542 0.3007796 0.20839906 -0.01364064 -0.22949019 -0.15879533 0.17450757 0.03051237
-0.14749627 -0.21181524 0.18634045 -0.035242148 0.29370794 -0.011041509 0.091193445 0.48923516
-0.2154215 0.15079018 -0.07963472 -0.42593333 0.30212897 0.01396773 0.013881278 0.013146234
-0.0026402413 0.33335334 0.6551599 -0.21062718 -0.16856837 -0.16851874 0.04187482 -0.10485142
0.32598665 -0.010650622 0.11575774 0.28962246 -0.22661172 -0.19110627 -0.17362511 0.29118347
0.5420632 0.018690228 0.031407483 -0.08603335 0.08907712 -0.26761478 0.36017898 -0.11929046
-0.020213407 -0.069170825 -0.13034126 -0.32814676 -0.058772534 -0.20024323 -0.25057143 -0.2040997
0.12912823 -0.053735945 -0.06395985 -0.096672446 0.4218477 0.050646868 0.022413716 0.13708375
-0.046581253 0.064131394 0.123408705 -0.3511008 0.7151607 -0.23411955 0.4099537 0.090447225
-0.20881644 0.34060577 -0.05220759 0.060147088 0.18475401 -0.26482436 -0.10898733 0.20452216
-0.2217881 0.16926706 0.22121555 0.543567 0.21010579 0.0074869203 -0.21971314 -0.27089375
-0.17302 -0.03705014 -0.010476287 -0.024278337 0.06629486 -0.12244108 -0.14514856 0.17220762
-0.036907468 -0.15229475 -0.07949479 -0.1367163 -0.0980098 0.07425937 -0.31510562 -0.03670406
-0.036349833 -0.2670679 0.06589216 -0.07366007 -0.18717796 -0.06116383 0.1689916 0.033760246
0.2060001 -0.16419981 -0.033016507 0.021432664 -0.046163075 0.3363465 0.088431194 0.92438006
-0.24961728 -0.18130998 -0.026227025 -0.32349455 -0.53099334 -0.027722491 -0.07191482 -0.041939896
-0.44045526 -0.044134386 -0.014861953 -0.21895765 -0.09223528 0.013160337 -0.07692428 -0.07328047
-0.060512397 -0.13117862 0.17712858 -0.23730843 -0.16602647 0.20721854 0.5139259 -0.06750414
-0.14030202 -0.15663789 -0.19670972 -0.062219728 -0.10297596 -0.028298635 -0.27009693 0.4339001
-0.22223796 -0.14149606 0.02793316 -0.09342614 0.09108378 -0.04228193 -0.014416951 0.48370412
-0.2695673 0.153989 -0.3160087 -0.01701113 -0.10726445 0.18759245 0.40000963 0.028082853
0.076917484 -0.22664344 -0.13595913 -0.18542267 0.17648166 0.20475274 0.1925284 0.38958943
0.55262476 -0.06868987 0.9396576 -0.09910795 -0.19177105 0.67178684 -0.14575003 0.58683234
-0.03126763 -0.066127285 0.068771765 -0.22358887 0.5925476 0.082364716 -0.18758039 0.1924125
0.05433725 -0.4209318 -0.1838993 -0.12624088 -0.10758441 0.05197323 -0.30077848 0.34254736
-0.18834023 -0.16757645 0.031126771 -0.16656612 0.16182692 1.043345 0.709452 0.12326618
0.6220322 -0.107342675 -0.09974891 -0.18089363 0.15855065 0.091304064 0.17084971 1.0228301

encoder.gru.weight_hh f4 [192, 64]
00000000: 159d 37be 6402 b93b 4190 d53e dfec adba
00000010: 3fa1 ce3d a62a dabe 8028 abbe f087 c83d
00000020: 3f2b 923e b340 9bbe bb17 66be 2e21 44be
00000030: 5d42 d1be 8898 763e 8bb3 19be 294a 38be
00000040: c4dc d7be c559 243e f65d 853e da3d 9abe
00000050: 2f8f a4bc 38cc 9d3e 7711 78be 79c5 4bbe
00000060: a1ae 763e 4d6e b73e b806 07bd 332e 0cbf
00000070: cdf3 b1be 8234 41be 9854 9b3e 05be 313d
00000080: 5fc4 0bbf bb07 f23d fcd0 47be 8bd6 0cbd
00000090: db9b ccbe ae1a a83e dfa7 4c3f 794d 03be
000000a0: 5edd b8be 6322 c9be c7f3 e03c 8eb9 773e
000000b0: 322c 21be 8196 233e b994 bb3d a57d 143d
000000c0: 9bc6 10be 2737 28be 3abf c33d c9bc ae3e
000000d0: ac8c bdbe a0c8 2b3e c976 c13d ea18 563e
000000e0: a26e 60be c12c c7bd 2c00 fe3e 1b39 82bd
000000f0: 658e d33e 51a3 133e 220e a0be cfc3 d03e
00000100: ff71 b2be ea3f c03e bf46 95be f522 e2bd
00000110: 1bda 78be 2f89 35bd 1662 83be 9955 e0be
00000120: eb11 5cbe 9ed3 6f3e f11e cebd 63b0 31be
00000130: 94b1 de3e 2cf5 89bd eef1 363c f830 e83e
00000140: 5aaa ad3e 0c9d 17bf bdaa fbbd 6488 4b3e
00000150: 7bf9 babe ab9d 05bf f87f 38bd 5edf da3e
00000160: 23bd 46be 4b47 b1be 6a78 e0bd 4eda 043e
00000170: f36e f2be 22ea 763e 771d a5bd 8977 8cbe
00000180: c68b bd3d 1822 b7bd 3174 e5bd 7344 b43e
00000190: e12a debc 0828 ebbe a719 65be b786 523e
000001a0: f17d bfbd 1f55 9e3d a72b 95be 82f7 f1be
000001b0: f2f7 1b3f c567 a43d b938 6e3d c41f 9ebe
000001c0: c229 953e 5872 a7bc 53e2 e4bd 63e7 173d
000001d0: f88c 793e b3b2 1d3e dfd4 4ebe 52b7 a03e
000001e0: e47c fc3d 3fc1 883d 6df0 32bf 356c 02bd
000001f0: 9a25 1a3d 8d86 babd 3925 11bf af32 08be
00000200: 2a91 083e 60f3 dbbc d510 153f 6fe9 9fbe
00000210: 09a6 46be 5b01 9fbe 67d2 b33c 992c 2d3f
00000220: 472a 0b3e 9267 10bf a726 f9be 31f2 823d
00000230: 06d6 f4bd c7a4 c4bd 405f de3d f143 823d
00000240: fc9e 2c3e b698 ac3e 9ad3 24be bf97 873d
00000250: 52f3 d8bd d8bd 8f3e 1ccb 883e ad0c 90be
00000260: 6ca5 193e f6b7 2d3e 7e08 903d c1fc b93d
00000270: 61ff e73d a0f2 263d 850f b43d 86f8 e73e
00000280: 5305 56be b4ee e2bc 7378 7abf 59a4 74be
00000290: 8107 c73b ce2c ebbc a361 a63e a9d2 1abe
000002a0: 6136 43be 0322 a5bd cb9f b03e b6e5 b13d
000002b0: 0527 07be a4d5 b53d 4c0d cf3e 8aad 263b
000002c0: 6172 1d3e 3386 203e f960 0d3e b2f8 2abb
000002d0: 21f6 733c dedd 90be 93d8 e33c 266a 5ebe
000002e0: fbb4 8b3e 0793 d4bd 73ba a03e 2227 a6be
000002f0: 3602 253e b441 393e 0119 39bd a0a1 843d
00000300: 2aa0 a8bc 3062 97be b7da de3e 63aa 0bbf
00000310: 905e f8bd 1be9 b9be 44e4 743e 27d5 123f
00000320: ebd9 923e 0bf5 72be 4644 2dbf 198f a33d
00000330: 2b7d 1e3d 041a 79bd d37d bdbc ef4e ba3d
00000340: b75b db39 11ec 613e c38d 1e3e 212f f33d
00000350: f749 f8bd 05b6 853e 651a be3e 355d e23d
00000360: ed63 173d 3fd8 a6bd 8693 413d 940e 44bc
00000370: 7b5b cabd ca6e 5bbe 4775 d93d cb81 803d
00000380: 4479 4dbe 1a82 03bd 7c68 2dbf b346 72be
00000390: d6c2 a43d 0a90 343d a0b0 f33e bb66 543e
000003a0: 3a14 a4be fd17 b9be 51bb df3e 0ee9 373d
000003b0: 50bd 0e3e 9f2f 4e3e 6fdb c73e 3d30 113e
000003c0: 7446 acbd eddb f5bd e088 693e 5c48 f8bd
000003d0: bf71 f1bd f8ba c1be 0dc8 0abf 0cf8 12bd
000003e0: a93a 503d 834e c6be 457b db3d 3ad2 8abe
000003f0: 7fbf 7b3e 224f afbe ed72 f7be 031b 7d3e
-0.17931016 0.005646037 0.4171162 -0.0013269446 0.10089349 -0.42610663 -0.33429337 0.09791553
0.2854862 -0.303228 -0.2246999 -0.19153282 -0.40870944 0.24081624 -0.15009896 -0.1799704
-0.42160618 0.1604987 0.2604825 -0.30125314 -0.020087807 0.3081987 -0.24225412 -0.19899549
0.24090053 0.3582634 -0.032965392 -0.54757994 -0.34756318 -0.18867686 0.30337977 0.043394107
-0.54596514 0.11817881 -0.19513315 -0.03438429 -0.39962658 0.32832855 0.7994365 -0.12822522
-0.3610639 -0.39284047 0.027459992 0.24191877 -0.15739515 0.15975381 0.09159226 0.036252636
-0.14138262 -0.16427289 0.09557958 0.34128407 -0.37021387 0.16775751 0.094464846 0.20907941
-0.21917203 -0.09725333 0.49609506 -0.06358548 0.41319576 0.14417769 -0.31260782 0.4077439
-0.34852597 0.37548763 -0.29155537 -0.11041824 -0.2430195 -0.04432028 -0.2566077 -0.43815306
-0.2149121 0.2342057 -0.10064495 -0.17352442 0.43494856 -0.06736216 0.011166079 0.4534986
0.3391903 -0.5922401 -0.12288425 0.19876248 -0.36518463 -0.5219371 -0.045043916 0.4274854
-0.19408087 -0.34624705 -0.10960467 0.12973902 -0.47350273 0.24112752 -0.080622606 -0.27434948
0.09255175 -0.0894205 -0.112038024 0.35208473 -0.027120056 -0.4592898 -0.22373067 0.20559202
-0.09350193 0.07731079 -0.29134867 -0.47259146 0.6092521 0.08027605 0.058159564 -0.3088361
0.2913342 -0.020440266 -0.111759804 0.037085902 0.24370182 0.154002 -0.20198391 0.31389862
0.123285085 0.06677484 -0.6989811 -0.031841476 0.037633516 -0.09107695 -0.5669742 -0.13300584
0.13336626 -0.026849449 0.5822881 -0.31232783 -0.19399275 -0.31055722 0.021950914 0.67646176
0.13590346 -0.56408036 -0.48662302 0.063938506 -0.11954884 -0.09601741 0.10858011 0.06360615
0.16857523 0.3371026 -0.16096345 0.0662074 -0.10593285 0.28074527 0.2671746 -0.2813467
0.1500451 0.16964707 0.0703287 0.09081412 0.113280065 0.04075873 0.087920226 0.45306796
-0.20900469 -0.027701713 -0.9784004 -0.23890819 0.0060738926 -0.028707888 0.32496366 -0.15119423
-0.19063713 -0.08063128 0.34496912 0.08686392 -0.13198479 0.08878639 0.40439832 0.0025433027
0.15375663 0.15676193 0.13806523 -0.0026088175 0.014890225 -0.2829427 0.027813232 -0.2172018
0.27286515 -0.10379606 0.3139225 -0.3245173 0.16114125 0.1809147 -0.04518986 0.0647614
-0.020584185 -0.295671 0.4352624 -0.54556865 -0.12127411 -0.36310658 0.23915201 0.57356495
0.28681883 -0.23726289 -0.676823 0.07986278 0.03869359 -0.060815826 -0.023131287 0.09097087
0.00041839268 0.22062708 0.15483765 0.118742235 -0.12123483 0.26115432 0.37129512 0.11052934
0.03696053 -0.081467144 0.04725983 -0.011966366 -0.0988073 -0.21428981 0.10618072 0.06274756
-0.2006579 -0.032106496 -0.67737556 -0.23659782 0.080449745 0.04408268 0.47595692 0.20742314
-0.32046682 -0.36151114 0.436976 0.044899993 0.13939404 0.20135354 0.39034602 0.14178558
-0.08411875 -0.12004838 0.2280612 -0.121231765 -0.117892735 -0.37837958 -0.54211503 -0.035881087
0.050837193 -0.38731775 0.10716871 -0.27113515 0.24584769 -0.3424006 -0.4832987 0.24717335

encoder.gru.bias_ih f4 [192]
00000000: b15c 8b3d ec24 9f3d 9ea4 95bd 03f2 91bd
00000010: 601b 923c 4f85 ecbb 8288 903e e33f a33e
00000020: e0a6 80bd 6b31 613e 1bc3 803d 1d97 133e
00000030: 30d1 013d 969d 03bd a107 923d 6f95 103e
00000040: 3acc 273e fa5c b5bc 4f66 9d3c a134 1dbd
00000050: 75cb 45be 19ff abbd 0036 763e 5a3f 463c
00000060: 6aab ee3c aead 103d 1699 b4bd 5acf bb3d
00000070: f822 063e 9169 acbd 5140 18be d10f c63d
00000080: 1c1c 74ba 11fc 073e d455 423e ef31 663e
00000090: a0e5 74bb b139 503e 829c 143e b32b 1b3e
000000a0: ae46 d9bd 4de5 353e 793f 9ebd f3c1 45bc
000000b0: a826 e0bd bbef 21be 85aa 633e cb33 1c3e
000000c0: 2cff 003e 3b05 213e e7e8 84bd 313a 723e
000000d0: fa72 3b3d d273 56bd 74c1 22bd cf95 cd3d
000000e0: 162c 413c c6a5 3e3d cb56 2f3e 07c1 1a3e
000000f0: 277f 773d 44e0 18be 18c4 84bd 6240 a93c
00000100: 42bc 923e 025f cdbd 030d 733d f604 3d3e
00000110: f6b3 553e df18 043e 0983 82be c364 9bbd
00000120: 0f98 953d 96ee bd3d 1167 783a ff6b 823d
00000130: 2084 05be cfaa 533e e23a 8c3c 9247 343d
00000140: 6624 9d3d 003e f63d 48fd 293e 72ee ec3d
00000150: 8908 203e 31e7 183d f670 bd3d fc62 8d3e
00000160: 0487 b4bd 71a3 803b e1d9 753d 1f53 153d
00000170: 14ee b6bd a012 d03d febf b13e 8dfb 243d
00000180: 2406 8c3e 58ff dd3d 50e2 c0bd e47d 103c
00000190: 5fa7 933e 0922 01be 9d55 7abd b636 643e
000001a0: 4414 1d3e 2aaa 643e 89f3 f63c 6f9f 0b3e
000001b0: 2acf d43d ce8e 893e e7f5 1b3e b199 983d
000001c0: a286 f23d ac38 ee3c a955 d63d d2d2 60bd
000001d0: f737 0abe 54f1 473e 7711 803e 0bac 67bd
000001e0: 8890 2a3e 45c9 e33d 14db 49bd b38b 0abe
000001f0: 72b2 733e 207f 8a3e fd09 c83d ca67 a53e
00000200: 3d6d 32be 8ea8 21bd 7893 dc3d 9053 e5bd
00000210: 46f8 b4bd 17ee 133e 3c2a 8c3e bbb7 f73d
00000220: b746 d83d 1057 f1bd d88c 66be 2332 c83d
00000230: 8a6b 123d f3fe 8ebd 3638 583e 4b4a 093e
00000240: 9048 a13d 20ed 01be 932b 57bc d5d0 b53c
00000250: 2b00 3abe 1bf6 6e3e 28b2 263e 46fc 393d
00000260: 7464 bcbc b354 aa3d ada4 803e 2be9 e53d
00000270: e3b8 0e3e 4bdd 4d3e 2d16 633e c82f b23c
00000280: 4c63 fa3a acd2 a5bd d4b6 f8bd ea5e 27be
00000290: 9618 003e fea9 52be fa09 093e bf33 8fbc
000002a0: 5af8 90bd 2e98 0d3e 04be eebd e19e a4bd
000002b0: 95b1 2ebe 4316 8d3d a5b5 d8bd 7727 e8bd
000002c0: 6fee 2cbe d30d f23c 369d 713e 1d85 a5be
000002d0: 1df8 e03d b1c8 3fbe 9b7a 36be 26db 74be
000002e0: ce1d 16bd e7f4 cabd 2a9e f6bd 38fa cbbc
000002f0: a045 453e 20d0 cc3d bd1e 6ebd 0382 25bd
0.06804789 0.07770714 -0.07306789 -0.07126238 0.017835319 -0.00721804 0.28229147 0.3188468
-0.06281829 0.21991508 0.062872134 0.14413114 0.031693637 -0.032132708 0.07130361 0.14119504
0.163865 -0.022139061 0.019213824 -0.03838027 -0.19315894 -0.083982654 0.24044037 0.012100065
0.029134471 0.035321884 -0.08818261 0.091704085 0.13099277 -0.08418573 -0.14868285 0.096709855
-0.000931205 0.1327975 0.18978053 0.22479986 -0.0037368312 0.20334508 0.14512828 0.15153389
-0.10609184 0.17763253 -0.0772695 -0.012070167 -0.10944873 -0.15814106 0.22233017 0.15254132
0.1259734 0.15724652 -0.06489735 0.23655011 0.045763947 -0.05235655 -0.039735273 0.10038339
0.011790296 0.046544813 0.17122953 0.15112697 0.060423996 -0.149293 -0.064827144 0.020660583
0.28659254 -0.10027887 0.05933858 0.18458924 0.20869431 0.12900113 -0.25490597 -0.07587578
0.073043935 0.09274022 0.00094758073 0.06368255 -0.13038683 0.20670627 0.017117921 0.044013567
0.07672958 0.12023544 0.16600525 0.11568917 0.15628256 0.037329856 0.09250061 0.27614582
-0.08814815 0.0039257337 0.06002224 0.036456224 -0.089321285 0.101598024 0.3471679 0.04027896
0.27348435 0.108397186 -0.09418166 0.008819077 0.28838632 -0.1261064 -0.061116803 0.22286496
0.15339762 0.22330537 0.030145423 0.13635038 0.10391076 0.26866764 0.15230523 0.07451189
0.118420854 0.029079758 0.10465557 -0.054888554 -0.13497911 0.19525653 0.25013325 -0.056560557
0.16656697 0.111223735 -0.049281195 -0.13529854 0.2379854 0.27050114 0.0976753 0.32305747
-0.17424484 -0.039467387 0.10770315 -0.11197579 -0.08836417 0.14446293 0.27375972 0.12095591
0.10560363 -0.11784184 -0.22514665 0.09775188 0.03574709 -0.069822215 0.21115193 0.13407247
0.07875168 -0.12688112 -0.0131329475 0.022194305 -0.18164127 0.2333607 0.16278899 0.045406602
-0.022997119 0.08316936 0.25125638 0.11226114 0.13937716 0.20103948 0.22176428 0.0217513
0.0019103079 -0.08096823 -0.12144247 -0.163448 0.12509379 -0.2057266 0.13382712 -0.01748073
-0.07078619 0.13827583 -0.11657336 -0.08038116 -0.1705993 0.06889012 -0.10581521 -0.11335652
-0.1688783 0.029547608 0.23595127 -0.3232812 0.10984824 -0.18728901 -0.17820208 -0.23911723
-0.036649518 -0.09909993 -0.12041886 -0.024899587 0.19264841 0.10000634 -0.058134783 -0.040407192
