experiments/gnn_hd64_ld32_nr3_ep500_b2.0_nf5.0/model.pt (torch, 178671 bytes, 18 tensors)

encoder.input_net.0.weight f4 [64, 7]
-0.05492198 -0.19533111 -0.27747005 -0.25692493 0.41240188 1.0390335 -0.12894773 0.24897978
-0.28295377 -0.25640124 -0.20225517 -0.08325814 0.32684654 -0.11543725 -0.1866933 -0.14913921
-0.13998005 -0.36146381 0.17736909 0.14207329 -0.036030047 0.32440004 -0.19131738 -0.4311536
-0.37912658 -0.13347717 -0.3851493 0.08288452 -0.3890666 0.14044651 -0.35425293 -0.36957294
0.47971112 -0.3719002 0.57174325 -0.10417582 0.587184 0.42322445 -0.22723466 0.3635585
-0.0965042 -0.06427243 0.17851171 -0.23984486 0.2755734 0.11544818 0.35486022 -0.20576638
-0.039659567 -0.22675513 -0.008974519 0.17439178 0.0002041527 -0.07765561 0.14869368 -0.1108528
-0.24805278 0.51784134 0.54532856 -0.04238669 0.135 0.08259249 -0.28520602 -0.13286953
0.0018273717 -0.035799038 0.086931035 0.37716445 -0.34440318 -0.089963354 0.09462766 0.105371006
0.37594593 0.46555912 0.04021403 0.09597387 -0.19043316 -0.21475106 0.030814894 -0.19858615
0.22513558 0.817604 -0.30364963 -0.08849612 0.44391486 -0.34580603 0.08170879 -0.11992852
0.075099446 -0.18426333 -0.05881409 0.2916831 -0.19869494 -0.20333223 -0.30092996 -0.2594448
0.3196007 -0.025353946 0.26341495 0.19018257 -0.31802052 0.0677227 -0.24202688 0.04199195
0.6561591 -0.048242487 -0.0727897 0.051893085 -0.081851 0.19499548 0.29656184 -0.19274628
-0.10109688 -0.1303772 0.44632062 -0.14481884 0.61721414 -0.32702982 -0.15733811 0.20909466
-0.11289171 0.5669065 0.020687645 -0.36382446 -0.07019627 0.29472312 0.536819 -0.3078899
0.21091048 -0.13259886 0.28095773 0.11608875 0.18399243 0.3774377 -0.31468615 -0.24253084
-0.21947052 -0.23862103 0.04757989 -0.13984418 0.23824643 -0.2417131 -0.3645571 0.07236896
0.16136886 -0.25740615 -0.33773074 0.74680954 -0.16961336 -0.1785654 -0.22417007 -0.1700073
-0.040029544 -0.34722283 -0.15794829 0.13486831 0.7251613 0.2744012 -0.37231097 -0.35558653
-0.35531542 -0.09675503 -0.37139514 0.5594463 0.24028236 0.3568676 0.17090262 -0.22866482
-0.36210564 0.4429804 0.33228546 0.36731145 0.122567385 -0.18230991 -0.07661381 0.45049524
-0.070274845 0.044019938 0.023342751 0.2501232 0.053687386 0.6375593 0.24048232 0.38262466
0.14669725 -0.33177567 -0.21044199 -0.115362145 -0.21119715 0.15585689 0.65737915 -0.14509828
-0.16022004 -0.15729563 -0.23793522 0.17248893 -0.37323102 0.2635946 0.46827635 -0.09449906
0.025561979 0.19813038 -0.05749868 -0.28515974 -0.22268632 0.24242347 0.3868946 -0.075911485
-0.17811488 -0.37559628 -0.08056278 -0.21946041 -0.1484373 -0.20740941 -0.087742 0.12748383
-0.20827436 -0.30452263 0.5163975 -0.09510232 0.039654147 0.43439367 -0.2782709 -0.28434402
0.14444068 0.052435976 -0.030065643 -0.18378073 0.10465527 0.037890263 -0.25888598 -0.05589488
0.73708093 -0.34384254 0.06034941 0.124713 -0.10056934 -0.085917234 -0.35528755 0.0124002695
0.3572895 0.057001393 0.23495649 0.24248588 -0.18226573 0.19810148 0.38849172 0.12605879
-0.28093308 -0.13101275 -0.28210393 -0.27218205 -0.37963635 0.40727076 -0.3755534 -0.18692411
00000000: dff5 60bd e104 48be 8e10 8ebe aa8b 83be
00000010: 5726 d33e 0dff 843f e00a 04be 8ef4 7e3e
00000020: 51df 90be 0647 83be fb1b 4fbe 3e83 aabd
00000030: 6e58 a73e 5d6a ecbd 872c 3fbe f3b7 18be
00000040: ee56 0fbe c911 b9be 3ea0 353e a97b 113e
00000050: 3e94 13bd c317 a63e b4e8 43be 2ac0 dcbe
00000060: e11c c2be 3dae 08be 4a32 c5be 5cbf a93d
00000070: bd33 c7be 36d1 0f3e a460 b5be aa38 bdbe
00000080: b29c f53e b469 bebe c45d 123f 225a d5bd
00000090: b151 163f e0b0 d83e 34b0 68be 5724 ba3e
000000a0: fea3 c5bd 44a1 83bd c6cb 363e e499 75be
000000b0: f517 8d3e 1870 ec3d 3db0 b53e 6cb4 52be
000000c0: 1272 22bd 7f32 68be dc09 13bc c293 323e
000000d0: d311 5639 e809 9fbd 2843 183e cb06 e3bd
000000e0: 8c01 7ebe 4091 043f a79a 0b3f aa9d 2dbd
000000f0: 713d 0a3e 4026 a93d 8606 92be f30e 08be
00000100: 6b84 ef3a 03a2 12bd e608 b23d b31b c13e
00000110: 9d55 b0be b53e b8bd 26cc c13d c1cc d73d
00000120: fc7b c03e c45d ee3e 77b7 243d f38d c43d
00000130: e900 43be b4e7 5bbe 846f fc3c 2b5a 4bbe
00000140: f189 663e 7f4e 513f f777 9bbe 743d b5bd
00000150: cf48 e33e 7d0d b1be f056 a73d 159d f5bd
00000160: bdcd 993d 87af 3cbe 0be7 70bd 7d57 953e
00000170: b076 4bbe 5336 50be 7e13 9abe f3d5 84be
00000180: b4a2 a33e 14b3 cfbc 53de 863e 38bf 423e
00000190: 96d3 a2be 33b2 8a3d e5d5 77be c0ff 2b3d
000001a0: 0bfa 273f ea99 45bd c412 95bd d88d 543d
000001b0: 7fa1 a7bd e5ac 473e f4d6 973e 485f 45be
000001c0: e20b cfbd 9a81 05be 2384 e43e 644b 14be
000001d0: bf01 1e3f 7470 a7be 3e1d 21be e91c 563e
000001e0: c533 e7bd c920 113f 2379 a93c 3347 babe
000001f0: 10c3 8fbd f3e5 963e f86c 093f bfa3 9dbe
00000200: ebf8 573e ffc7 07be b1d9 8f3e f0bf ed3d
00000210: 8368 3c3e 843f c13e 8b1e a1be 015a 78be
00000220: e1bc 60be 1259 74be 21e3 423d 5033 0fbe
00000230: dff6 733e a483 77be 3aa7 babe 2d36 943d
00000240: e13d 253e bdca 83be 0beb acbe e92e 3f3f
00000250: 20af 2dbe d9d9 36be d78c 65be 6516 2ebe
00000260: 05f6 23bd 31c7 b1be 32bd 21be eb1a 0a3e
00000270: 2ca4 393f 507e 8c3e 8b9f bebe 700f b6be
00000280: e7eb b5be 8027 c6bd 8127 bebe df37 0f3f
00000290: 940c 763e 5ab7 b63e 1901 2f3e 1c27 6abe
000002a0: e965 b9be 54ce e23e 5221 aa3e 3f10 bc3e
000002b0: 9c04 fb3d 73af 3abe b4e7 9cbd 50a7 e63e
000002c0: 42ec 8fbd 404e 343d 4c39 bf3c 2610 803e
000002d0: 4ee7 5b3d 1637 233f ff40 763e 61e7 c33e
000002e0: ce37 163e 80de a9be 1b7e 57be fd42 ecbd
000002f0: 1144 58be f398 1f3e 004a 283f a594 14be
00000300: b910 24be 1b12 21be 4aa5 73be f0a0 303e
00000310: 2318 bfbe dff5 863e ebc1 ef3e b988 c1bd
00000320: 5b67 d13c b1e2 4a3e bc83 6bbd 7500 92be
00000330: e207 64be dc3d 783e 0d17 c63e 7b77 9bbd
00000340: bf63 36be 284e c0be 19fe a4bd 3bba 60be
00000350: f3ff 17be 2263 54be 14b2 b3bd 1f8b 023e
00000360: e045 55be 64ea 9bbe a032 043f 01c5 c2bd
00000370: 636c 223d d968 de3e 8679 8ebe 8a95 91be
00000380: 42e8 133e 1bc7 563d 394c f6bc 0431 3cbe
00000390: 8155 d63d d232 1b3d b48c 84be 08f2 64bd
000003a0: 56b1 3c3f 210c b0be f130 773d 8869 ff3d
000003b0: 4cf7 cdbd 60f5 afbd 40e8 b5be 802a 4b3c
000003c0: a6ee b63e 4b7a 693d 6f98 703e 384e 783e
000003d0: dea3 3abe 1ddb 4a3e 63e8 c63e 8e15 013e
000003e0: 76d6 8fbe 3528 06be ed6f 90be 725b 8bbe
000003f0: b25f c2be cb85 d03e 8948 c0be 0969 3fbe

encoder.input_net.0.bias f4 [64]
0.052323587 0.07992235 -0.20997757 0.429717 0.34907523 0.09909197 0.1979487 -0.18383007
0.2524219 -0.15571256 -0.10734883 -0.08667153 -0.08231449 0.20666876 -0.029301966 -0.3581843
0.11097292 -0.0001797716 0.26135948 0.1323346 -0.31541863 0.11822328 0.34056315 0.09981761
0.28785428 -0.059084177 0.20979017 -0.15966062 0.015564698 0.37559825 -0.30710077 0.2508934
-0.19169673 0.084811464 0.35191798 0.0118588675 0.3641556 -0.11037795 0.4456213 0.18219396
0.3704439 -0.06937666 0.14486635 -0.0015321785 0.193812 0.21658829 0.11747284 0.14358968
-0.2578544 -0.3308512 -0.3327391 -0.030931104 -0.2625818 -0.3763853 0.3573493 0.025487633
0.13879737 0.06617264 -0.19560397 0.3104484 -0.3437283 0.2368825 -0.22826189 0.37974438
00000000: 4251 563d 54ae a33d 5c04 57be de03 dc3e
00000010: fdb9 b23e bbf0 ca3d 10b3 4a3e f33d 3cbe
00000020: 713d 813e 1d73 1fbe b4d9 dbbd d880 b1bd
00000030: 8094 a8bd faa0 533e ad0a f0bc ef63 b7be
00000040: c545 e33d 1281 3cb9 e9d0 853e b982 073e
00000050: 8d7e a1be 0c1f f23d 4b5e ae3e 2d6d cc3d
00000060: a361 933e 4002 72bd 3cd3 563e 137e 23be
00000070: 1303 7f3c 6a4e c03e 503c 9dbe 1a75 803e
00000080: 264c 44be a2b1 ad3d 982e b43e b24b 423c
00000090: 9a72 ba3e d60d e2bd 7a28 e43e 0e91 3a3e
000000a0: d3aa bd3e 5a15 8ebd d857 143e 61d3 c8ba
000000b0: a776 463e 52c9 5d3e 9a95 f03d 2c09 133e
000000c0: 7e05 84be 5465 a9be c85c aabe 3a63 fdbc
000000d0: 1f71 86be 93b5 c0be 7df6 b63e 71cb d03c
000000e0: e620 0e3e 8585 873d 684c 48be 18f3 9e3e
000000f0: 28fd afbe 5391 723e 7cbd 69be db6d c23e

encoder.message_net.0.0.weight f4 [64, 64]
-0.30081028 0.036429733 0.05880794 0.03334774 -0.2580317 -0.00082672434 -0.01981506 -0.06709434
0.15897544 -0.21972173 0.057795145 -0.059066013 0.089328535 0.028307341 0.0756822 0.058388308
0.2200378 0.10478207 0.0120006995 0.02953246 -0.05428016 -0.09095773 0.13098714 0.17339987
0.17040898 0.109192595 0.09197913 0.14030623 0.114572376 0.15890759 0.11928329 0.007887473
0.078193635 -0.03132401 -0.015552422 0.015677067 -0.10949969 -0.09613139 -0.054009218 0.0923723
0.052559458 0.05725259 0.058695544 0.06306361 -0.0533165 0.07746707 0.033401348 -0.018931186
0.0793671 -0.021441625 0.026233405 -0.38119477 -0.124655664 0.10578865 0.03002482 0.024262302
-0.11079777 0.065967955 0.09857608 0.11878255 0.08080545 0.06547395 -0.28020436 0.2066732
-0.09296564 -0.11377924 -0.10350318 -0.070721656 0.12024954 0.26604578 -0.18417367 0.0013612211
0.046160255 0.015161394 0.11638956 0.04835764 0.050868224 0.034676276 0.033886567 -0.03657864
0.04094844 -0.13377097 -0.22572753 -0.07751585 -0.002907306 -0.019884612 0.037525516 0.06533708
0.21573348 -0.15162477 0.06228454 0.34951797 0.15948464 0.05413907 0.12191464 0.18645822
0.04241824 0.17236798 0.012601912 0.13346876 0.13782822 -0.13068196 0.02635025 0.163341
0.1051134 -0.11204059 0.22587258 0.08627971 0.18814492 0.2548983 0.02178834 -0.027558597
0.02705568 0.015589966 -0.05155298 -0.29606676 -0.045858905 0.042025372 0.24270041 -0.09832836
-0.17678276 0.11206238 -0.01755614 0.18496995 0.09006657 0.06147481 -0.25262266 -0.09784411
0.38940045 0.0035764938 -0.08277109 0.10615595 -0.24040946 -0.41565824 0.1531829 -0.058437616
0.10377667 -0.25281146 0.06842849 0.07287701 0.13868019 0.065378435 0.1658523 -0.017789513
-0.2225943 -0.05026927 0.0078070834 0.029315218 -0.030860081 0.046696138 0.045244426 0.02317436
0.005431325 0.015006303 -0.10702099 -0.26088855 0.01688291 0.112673335 0.05848013 -0.033011645
-0.12009591 -0.05180868 0.13303372 0.12758957 0.08163666 0.07653389 -0.037321713 -0.083399035
0.08582677 0.005291389 -0.033746526 0.11207727 0.026282659 -0.2215187 0.16197494 0.38969225
0.08599807 0.08353637 0.0055732727 0.4368816 -0.06562485 0.0399708 0.31846452 0.14915417
0.40613112 0.07455723 0.041203298 0.18722868 0.1235393 0.047325447 0.20006524 -0.123588674
0.0073067397 -0.0480022 0.015582696 -0.1324208 -0.059424326 -0.11489981 -0.049051344 -0.06927335
-0.039279275 -0.041989878 -0.047743503 -0.12476009 0.01987414 0.029521182 0.059001423 -0.12454514
0.07302162 -0.08954759 -0.08249231 -0.010665894 -0.10591161 0.026155666 -0.028858839 0.039667502
-0.008895761 -0.028641477 -0.03227032 -0.04715375 0.05740329 0.06370305 0.06359111 -0.101768464
-0.06950013 0.07358619 -0.1344319 0.04461415 0.028295292 0.002868116 0.032347165 0.04315712
-0.10978499 0.12442723 0.10607737 -0.08414705 -0.035707574 0.10660861 0.08485134 -0.021674752
-0.014319211 0.043798223 0.09098779 -0.092852175 -0.021688625 0.085542366 -0.029729916 -0.12673944
0.10680278 -0.044029646 0.031114444 0.07363058 0.11414471 -0.1220173 0.09735012 0.018496916
00000000: ce03 9abe 5837 153d 98e0 703d a497 083d
00000010: bb1c 84be 88b8 58ba 3153 a2bc c268 89bd
00000020: 75ca 223e bcfe 60be 9aba 6c3d 34ef 71bd
00000030: e1f1 b63d cce4 e73c 45ff 9a3d 9428 6f3d
00000040: 9751 613e fb97 d63d 959e 443c 0fee f13c
00000050: e054 5ebd 0c48 babd 7e21 063e bc8f 313e
00000060: b17f 2e3e 5ea0 df3d 8e5f bc3d 70ac 0f3e
00000070: eca4 ea3d acb8 223e cc4a f43d 763a 013c
00000080: fc23 a03d 9b4d 00bd 96cf 7ebc 316d 803c
00000090: 6041 e0bd 89e0 c4bd c538 5dbd b02d bd3d
000000a0: 9648 573d b181 6a3d bd6a 703d 7e27 813d
000000b0: 6762 5abd 0ea7 9e3d dacf 083d 9315 9bbc
000000c0: 388b a23d 59a6 afbc 70e7 d63c f62b c3be
000000d0: 784b ffbd b8a7 d83d 9cf6 f53c bcc1 c63c
000000e0: f1e9 e2bd 351a 873d 41e2 c93d 4444 f33d
000000f0: 547d a53d 3517 863d f276 8fbe 24a2 533e
00000100: c564 bebd 1705 e9bd 7af9 d3bd 84d6 90bd
00000110: 6445 f63d 2737 883e 0698 3cbe 006b b23a
00000120: 8912 3d3d 7f67 783c a65d ee3d a912 463d
00000130: 335b 503d b608 0e3d a4cc 0a3d 7cd3 15bd
00000140: 8db9 273d 42fb 08be 1e25 67be a1c0 9ebd
00000150: 8088 3ebb 0ee5 a2bc 5bb4 193d 72cf 853d
00000160: 3de9 5c3e 8643 1bbe 131e 7f3d 05f4 b23e
00000170: f14f 233e eec0 5d3d 62ae f93d e7ee 3e3e
00000180: c0be 2d3d 3b81 303e 4078 4e3c 09ac 083e
00000190: d722 0d3e 7ed1 05be 7bdc d73c dd42 273e
000001a0: b245 d73d 8975 e5bd 244b 673e 6bb3 b03d
000001b0: 10a9 403e 0882 823e 767d b23c 91c2 e1bc
000001c0: e0a3 dd3c 0f6d 7f3c 3829 53bd 1096 97be
000001d0: 8cd6 3bbd cc22 2c3d 7586 783e 6160 c9bd
000001e0: 8a06 35be f680 e53d e5d1 8fbc c368 3d3e
000001f0: d274 b83d 03cd 7b3d c257 81be 7e62 c8bd
00000200: 7f5f c73e 9c63 6a3b e483 a9bd 4a68 d93d
00000210: e62d 76be 28d1 d4be fadb 1c3e 485c 6fbd
00000220: dd88 d43d 8170 81be 3c24 8c3d 8b40 953d
00000230: 2e02 0e3e 21e5 853d 2fd5 293e 50bb 91bc
00000240: c3ef 63be 26e7 4dbd 90d2 ff3b 7826 f03c
00000250: 48ce fcbc 7344 3f3d 3852 393d 28d8 bd3c
00000260: 42f9 b13b ffdc 753c d22d dbbd 2f93 85be
00000270: 074e 8a3c 47c1 e63d dc88 6f3d 3837 07bd
00000280: d8f4 f5bd 5735 54bd fe39 083e d7a6 023e
00000290: 1f31 a73d cdbd 9c3d a7de 18bd 1dcd aabd
000002a0: f2c5 af3d 6363 ad3b cc39 0abd c588 e53d
000002b0: bb4e d73c ccd5 62be c2dc 253e be85 c73e
000002c0: c21f b03d 1e15 ab3d 00a0 b63b f2ae df3e
000002d0: 5266 86bd 6cb8 233d c80d a33e dfbb 183e
000002e0: 6bf0 cf3e 76b1 983d cac4 283d e0b8 3f3e
000002f0: 2c02 fd3d 54d8 413d e7dd 4c3e 0f1c fdbd
00000300: 606d ef3b f49d 44bd 904e 7f3c 5199 07be
00000310: ec66 73bd 9750 ebbd 10ea 48bd 30df 8dbd
00000320: 4ee3 20bd 94fd 2bbd b18e 43bd 3882 ffbd
00000330: 18cf a23c 68d6 f13c 7aab 713d 8611 ffbd
00000340: 5c8c 953d ba64 b7bd baf1 a8bd 00c0 2ebc
00000350: 30e8 d8bd 6844 d63c 5f69 ecbc 647a 223d
00000360: 87bf 11bc 88a1 eabc e22d 04bd 4a24 41bd
00000370: b61f 6b3d bf76 823d 0e3c 823d fc6b d0bd
00000380: 1656 8ebd 5bb4 963d 84a8 09be 54bd 363d
00000390: 87cb e73c 00f7 3b3b 767e 043d 85c5 303d
000003a0: f4d6 e0bd b4d3 fe3d 183f d93d 4a55 acbd
000003b0: 1b42 12bd 9d55 da3d 8ac6 ad3d 408f b1bc
000003c0: 209b 6abc c465 333d ce57 ba3d 4829 bebd
000003d0: 58ac b1bc d630 af3d 278c f3bc fcc7 01be
000003e0: 6abb da3d 6e58 34bd b8e3 fe3c a1cb 963d
000003f0: b4c4 e93d 35e4 f9bd 805f c73d d886 973c

encoder.message_net.0.0.bias f4 [64]
0.08005394 -0.03184929 0.023385324 -0.07209821 -0.11003305 0.13619058 0.22430357 0.08938684
-0.14004776 0.11810371 -0.07966157 0.19827811 0.10262271 0.040550996 -0.076157935 -0.038914725
0.11123164 0.11526342 0.10525043 -0.09631642 0.104825296 -0.09925371 0.0100373 -0.06670338
0.012891623 0.14477874 0.16102356 0.024586294 0.16796398 0.09072656 -0.11699659 -0.014577407
0.06297041 0.07233953 -0.12363989 0.090299636 -0.08800171 0.065468535 0.16804309 0.12503122
-0.003902844 0.13802427 -0.09456659 -0.12573807 -0.021960393 0.008083268 0.032245528 -0.09864418
-0.102852486 -0.073084965 -0.02617683 0.14351729 -0.07732443 -0.116540074 0.011988922 0.14905995
-0.017903212 0.05502541 -0.11318038 0.09012227 -0.02156264 -0.094285294 0.020862376 0.03420388
00000000: 52f3 a33d 6774 02bd 9492 bf3c 3aa8 93bd
00000010: 0259 e1bd 8b75 0b3e d6af 653e 7310 b73d
00000020: ae68 0fbe 5ce0 f13d 9b25 a3bd 6b09 4b3e
00000030: db2b d23d cd18 263d b1f8 9bbd 0c65 1fbd
00000040: 6acd e33d 3a0f ec3d 8a8d d73d 8b41 c5bd
00000050: a5ae d63d 8745 cbbd 7d73 243c c89b 88bd
00000060: 6337 533c e140 143e 5ce3 243e 3269 c93c
00000070: c0fe 2b3e d9ce b93d e89b efbd 14d6 6ebc
00000080: a1f6 803d bf26 943d e936 fdbd 04ef b83d
00000090: 3e3a b4bd 5e14 863d 7d13 2c3e 2f08 003e
000000a0: dbc6 7fbb 3c56 0d3e 21ac c1bd 7bc1 00be
000000b0: 48e6 b3bc af6f 043c e313 043d f605 cabd
000000c0: 53a4 d2bd 92ad 95bd cb70 d6bc 32f6 123e
000000d0: 455c 9ebd 90ac eebd 2f6d 443c 2ca3 183e
000000e0: c2a9 92bc 5362 613d 1dcb e7bd 0692 b83d
000000f0: 22a4 b0bc a618 c1bd 93e7 aa3c 5e19 0c3d

encoder.message_net.1.0.weight f4 [64, 64]
-0.2953597 -0.11086142 -0.12527332 -0.24091253 -0.42848134 -0.083836615 0.04449497 0.24348965
-0.07741869 0.23430692 -0.1408812 -0.029677732 -0.25754854 -0.041312896 -0.12137736 0.015063808
-0.010590699 -0.097948134 -0.22729057 0.2002524 0.02574513 -0.23584339 0.012660047 0.117346756
-0.09424365 -0.057220515 0.15278623 -0.05037601 0.34890825 -0.110670194 -0.23779415 -0.16509318
0.3551901 0.007934224 0.02625472 0.05490904 -0.06143328 0.10517328 -0.28782493 0.05387445
0.01475057 -0.19597097 0.0077284644 -0.03779047 -0.081524506 -0.0676061 0.0044281418 0.10725854
-0.34512812 -0.28697395 0.31690913 -0.06699771 -0.17762695 0.17431778 -0.1173548 0.024254106
-0.18990397 -0.025379546 0.16685477 -0.11653219 -0.35451183 0.28133354 0.095753066 -0.13727821
0.038513526 -0.036949378 -0.115573324 -0.16947101 -0.13320868 0.08977008 0.011121424 0.04955559
0.12669723 0.028354248 0.02110084 0.060991455 -0.075035304 -0.08970077 -0.07442803 -0.08763293
-0.014458662 -0.1131333 -0.07211266 0.0010553916 0.18844804 -0.08010378 0.032586068 -0.011175787
-0.060241576 -0.12253561 0.090610094 -0.15460648 0.057717796 -0.011902887 0.08499581 0.09532138
0.056200113 -0.011172953 0.19237402 0.13677427 0.1887356 -0.2742644 -0.0725429 0.21241067
0.08277442 -0.14225857 -0.08731988 -0.15886022 -0.03380928 -0.09298669 0.012009505 0.17280772
0.1193755 -0.05632724 0.18140118 -0.12861522 0.17903271 0.029449224 0.039186135 -0.06416146
-0.07583808 -0.12492659 0.17581792 -0.22774926 0.04630341 0.054946367 -0.056395732 0.04151027
0.08867079 0.12969394 0.10865094 0.049663935 -0.09304245 0.031445295 0.021217186 -0.04139123
-0.017700633 0.11020028 -0.08691803 -0.049736958 -0.12826961 0.06270209 0.022927595 -0.12436353
0.014974537 -0.12084608 -0.09638279 0.21281092 -0.12101255 -0.047179 0.058852263 0.22254229
-0.09688399 0.22304508 0.08463702 0.099761695 0.18335049 -0.062174108 -0.2645003 -0.18908304
0.018876448 0.10977791 -0.16852112 0.06988214 -0.09981105 0.10205019 -0.30757558 0.10947859
0.0394147 0.060892735 0.14424874 -0.036199033 0.059466165 0.08105096 -0.030589232 0.10667849
-0.12392455 0.13445857 0.32289913 -0.051881906 -0.29514334 0.10018209 0.15367694 -0.04976079
-0.15340236 0.26438218 -0.292181 -0.00607913 -0.31087527 0.21882693 0.046642393 0.12710762
0.56415373 0.23154484 0.21273117 0.10108522 -0.07391094 -0.19959068 0.07221987 -0.12683244
-0.07248624 -0.10787203 0.09750528 0.17069007 0.29050863 0.016540179 -0.050367147 0.034588758
-0.13698535 0.07047263 -0.053052463 -0.30441207 -0.06006115 0.31334808 -0.23307769 -0.06349196
-0.034859065 -0.06819878 -0.25205278 -0.17813781 -0.2463137 0.055741873 -0.12357311 -0.12863797
-0.12115059 0.034088466 -0.0693706 0.033400893 0.051814307 0.07630751 0.1917931 -0.1349766
-0.02555391 0.17618017 -0.10650227 0.063649215 0.15739313 0.0363947 0.1571072 -0.0864644
0.09520002 0.15119536 -0.264312 0.4227718 0.20876516 0.13045631 0.4295281 0.103415765
0.2878462 -0.01454598 -0.28648958 0.18516834 0.34388193 -0.19856489 -0.18664752 -0.029637504
00000000: 6339 97be 500b e3bd a647 00be c6b1 76be
00000010: e861 dbbe 88b2 abbd 5c40 363d 5a55 793e
00000020: b18d 9ebd 27ee 6f3e 2943 10be b71e f3bc
00000030: 67dd 83be b637 29bd b194 f8bd 31ce 763c
00000040: 9c84 2dbc 0899 c8bd dcbe 68be f70e 4d3e
00000050: 73e7 d23c ee80 71be 166c 4f3c 7f53 f03d
00000060: d102 c1bd 0f60 6abd fe73 1c3e 1357 4ebd
00000070: 1aa4 b23e 0ea7 e2bd 4f80 73be 300e 29be
00000080: 7adb b53e 8cfe 013c 2314 d73c 4de8 603d
00000090: 77a1 7bbd 1765 d73d ca5d 93be 75ab 5c3d
000000a0: 60ac 713c 9dac 48be 0f3f fd3b 2eca 1abd
000000b0: 52f6 a6bd 1175 8abd f219 913b 5eaa db3d
000000c0: a2b4 b0be 40ee 92be ea41 a23e 1836 89bd
000000d0: d7e3 35be 5c80 323e b757 f0bd 8cb0 c63c
000000e0: 3076 42be c4e8 cfbc fadb 2a3e 6ea8 eebd
000000f0: 9382 b5be f30a 903e 2f1a c43d a992 0cbe
00000100: 5cc0 1d3d 3b58 17bd b5b1 ecbd cf89 2dbe
00000110: db67 08be 60d9 b73d a236 363c cdfa 4a3d
00000120: ebbc 013e 2b47 e83c abdb ac3c 2dd2 793d
00000130: 1cac 99bd 0ab5 b7bd b96d 98bd e578 b3bd
00000140: 06e4 6cbc 6eb2 e7bd cdaf 93bd 1155 8a3a
00000150: 86f8 403e 730d a4bd f878 053d a61a 37bc
00000160: dfbf 76bd f3f3 fabd c991 b93d 2951 1ebe
00000170: 7f69 6c3d 5404 43bc 4912 ae3d db37 c33d
00000180: 1732 663d c30e 37bc b2fd 443e 8e0e 0c3e
00000190: e843 413e 626c 8cbe 5f91 94bd 2f82 593e
000001a0: a385 a93d 3bac 11be c4d4 b2bd 41ac 22be
000001b0: 997b 0abd ce6f bebd 84c3 443c 82f4 303e
000001c0: 247b f43d 64b7 66bd 3bc1 393e b5b3 03be
000001d0: 5a54 373e 803f f13c a481 203d 1567 83bd
000001e0: ff50 9bbd 83d9 ffbd 9d09 343e 1a37 69be
000001f0: a5a8 3d3d 710f 613d 36ff 66bd ac06 2a3d
00000200: 0899 b53d 7dce 043e 6284 de3d 696c 4b3d
00000210: 0a8d bebd c8cc 003d aacf ad3c da89 29bd
00000220: eb00 91bc afb0 e13d 1502 b2bd fbb8 4bbd
00000230: 1c59 03be f469 803d a7d2 bb3c 4eb2 febd
00000240: c357 753c 267e f7bd 5764 c5bd 1beb 593e
00000250: 6ed5 f7bd c43e 41bd 120f 713d 20e2 633e
00000260: 1d6b c6bd ee65 643e 2d56 ad3d dc4f cc3d
00000270: 3bc0 3b3e 47aa 7ebd 956c 87be fc9e 41be
00000280: c8a2 9a3c 3ed3 e03d cd90 2cbe 5e1e 8f3d
00000290: bc69 ccbd b1ff d03d 8c7a 9dbe 5036 e03d
000002a0: 4f71 213d a96a 793d f1b5 133e 7045 14bd
000002b0: cb92 733d 0cfe a53d 4596 fabc 417a da3d
000002c0: 28cc fdbd 82af 093e 0953 a53e 1f82 54bd
000002d0: 071d 97be 452c cd3d 7d5d 1d3e f8d1 4bbd
000002e0: 8215 1dbe 1a5d 873e bf98 95be 7033 c7bb
000002f0: 0b2b 9fbe 2b14 603e 180c 3f3d 8028 023e
00000300: 616c 103f 171a 6d3e 33d6 593e c505 cf3d
00000310: 9e5e 97bd 8061 4cbe 03e8 933d 5de0 01be
00000320: aa73 94bd 03ec dcbd d9b0 c73d 61c9 2e3e
00000330: 8cbd 943e 457f 873c c84d 4ebd f1ac 0d3d
00000340: e345 0cbe f453 903d 8a4d 59bd e6db 9bbe
00000350: ae02 76bd 296f a03e ebab 6ebe 1308 82bd
00000360: 61c8 0ebd cdab 8bbd 100d 81be c269 36be
00000370: a939 7cbe 9751 643d e613 fdbd acb9 03be
00000380: cd1d f8bd 59a0 0b3d 2c12 8ebd 60cf 083d
00000390: 3d3b 543d 1d47 9c3d 6965 443e 4e37 0abe
000003a0: 6f56 d1bc 9368 343e dd1d dabd 855a 823d
000003b0: aa2b 213e 9c12 153d b6e0 203e 3f14 b1bd
000003c0: 3af8 c23d f5d2 1a3e e753 87be 8c75 d83e
000003d0: 89c6 553e 5796 053e 1beb db3e a5cb d33d
000003e0: 9460 933e 4352 6ebc c3ae 92be c59c 3d3e
000003f0: 4b11 b03e 9854 4bbe 8720 3fbe 5aca f2bc

encoder.message_net.1.0.bias f4 [64]
-0.12232943 0.075320676 -0.098148614 0.08552838 0.12261449 0.0143903205 -0.14113005 -0.11795517
-0.18146037 0.0567481 -0.005887269 0.029603275 -0.15391806 0.117084816 -0.012548409 -0.05142416
0.016510727 0.100957 -0.08799579 0.15369065 -0.05999878 -0.06710035 0.10106591 0.107825324
-0.009749437 0.012211948 -0.050052937 -0.07953808 0.0022738306 -0.14260831 0.013962899 -0.011422268
0.055292312 -0.14283632 0.060279246 -0.1623655 -0.06360486 0.015413827 -0.10254455 -0.029096775
-0.18099019 0.040275462 -0.05516165 0.09778211 -0.033234823 -0.079942614 0.15075244 -0.18738526
-0.10399174 -0.18021467 -0.026223363 0.056875866 0.12407678 -0.020094393 -0.0583477 -0.09763823
0.002861384 0.095481545 -0.19635923 0.046232976 -0.13424747 -0.12670529 0.064373806 0.0863827
00000000: da87 fabd ba41 9a3d 2402 c9bd 8129 af3d
00000010: 4e1d fb3d 61c5 6b3c 6584 10be 7b92 f1bd
00000020: bfd0 39be b270 683d fee9 c0bb 9182 f23c
00000030: b29c 1dbe 2aca ef3d d897 4dbc 24a2 52bd
00000040: 8141 873c 8bc2 ce3d 2337 b4bd 1561 1d3e
00000050: 48c1 75bd e96b 89bd a5fb ce3d 86d3 dc3d
00000060: 1abc 1fbc 9f14 483c 4f04 4dbd dce4 a2bd
00000070: 8c04 153b ea07 12be a5c4 643c 7724 3bbc
00000080: 317a 623d af43 12be 5fe7 763d 2443 26be
00000090: 4443 82bd 478a 7c3c e102 d2bd 5c5c eebc
000000a0: 7e55 39be e2f7 243d 2ff1 61bd fd41 c83d
000000b0: 3d21 08bd f4b8 a3bd d95e 1a3e ece1 3fbe
000000c0: 9ff9 d4bd 328a 38be 61d2 d6bc abf6 683d
000000d0: f81b fe3d ff9c a4bc fffd 6ebd 8df6 c7bd
000000e0: 0f86 3b3b d48b c33d 6512 49be ca5e 3d3d
000000f0: 2b78 09be 08bf 01be 6ad6 833d 6ae9 b03d

encoder.message_net.2.0.weight f4 [64, 64]
-0.10354836 0.018222373 -0.060202863 0.053517915 -0.08947827 0.07639011 -0.034073938 -0.065218784
-0.1389994 0.016735286 -0.04092038 -0.07053609 0.04366947 0.018918414 -0.12072004 -0.011538555
-0.09399078 0.06278244 -0.03316427 0.07230207 -0.1317314 0.016801035 0.052335896 -0.15614384
0.15985617 0.03490484 0.1030653 0.06768327 -0.022274664 -0.06487007 0.11352638 0.105850816
0.027015569 -0.050281916 0.08366204 -0.080973804 -0.06599658 -0.019729428 -0.08073575 0.06735974
-0.079823725 -0.009049101 -0.0058245026 -0.14515579 -0.116951875 -0.050127476 -0.038221665 0.03782654
0.12706311 -0.14548382 -0.024463732 0.0036954572 -0.04250136 -0.026789384 -0.102976106 -0.08614165
-0.006639832 -0.10005821 -0.05579507 0.08553677 -0.0052536004 -0.0446314 -0.10165392 -0.16601726
0.045469046 -0.17880325 -0.3016556 0.072810605 -0.05736625 -0.023424678 0.054544292 0.07228964
0.08341141 -0.07083137 0.061837263 -0.15503024 -0.11699608 -0.20416845 -0.12771739 0.11815064
0.06329474 0.01564633 -0.03809588 0.1083284 -0.06031503 0.024251945 0.20068027 0.115370885
-0.207198 -0.01604519 0.08465025 0.2634265 0.022542931 0.110332824 -0.08616367 -0.018710135
0.077331066 -0.078467935 0.1320951 0.0041879998 -0.1646291 0.057052787 0.013988746 0.020284219
0.20134892 0.012473666 0.017180445 -0.01966872 -0.18307652 -0.13979955 0.030321527 -0.24850714
-0.14249504 -0.07509122 -0.06585362 -0.09744093 -0.09907735 -0.014380326 -0.17907098 0.15114388
-0.0142075345 -0.10736604 -0.07898999 -0.071149826 0.03492268 -0.1911229 -0.12745208 -0.075251095
0.09425146 -0.16440539 0.01688277 0.10620875 -0.17561208 -0.14106138 -0.15726343 -0.1421331
0.041168243 0.057722725 -0.06773572 0.18348128 -0.04370136 -0.1139496 -0.17203958 0.071871206
-0.118175 -0.059427936 0.026920404 -0.042475056 0.006842496 0.07374459 0.0018874113 -0.09344502
-0.051874027 0.16639134 -0.115302525 0.24888813 0.10798221 0.12682112 -0.12756531 0.023825308
0.0529975 0.024741154 -0.088278726 -0.10080356 -0.07639042 -0.03905903 0.062096912 -0.14744791
0.057625204 -0.010862402 -0.0733768 -0.079609655 -0.0051115174 0.04995353 0.016428169 -0.052440714
-0.02117376 -0.116419666 0.0010956684 -0.044744328 -0.028492462 0.08506259 -0.12676498 -0.11962034
0.21311736 -0.045342773 -0.03812419 0.08099302 -0.07786266 -0.13066997 -0.034607086 -0.07101798
0.032234203 -0.058558915 0.01284259 -0.03129143 0.018876659 -0.09867289 -0.06976106 -0.012923991
-0.082804725 0.0122251045 0.031673666 0.1084026 0.050091483 0.024150778 -0.08000093 0.0040077795
-0.06339794 0.07766457 -0.10994263 0.014104219 -0.005857505 0.018536652 0.037490875 -0.13093449
-0.0019249399 0.053135745 0.106140874 0.020114152 0.12732261 0.06579328 0.039434604 -0.020980475
0.041282795 -0.09049796 0.09743975 0.0233952 0.10070981 -0.027553415 -0.10373513 -0.031289365
-0.09523755 0.06756849 -0.05564578 -0.020695245 -0.0585486 -0.0071958285 -0.10594101 0.034039974
0.031858098 -0.16543606 -0.015574702 0.050716687 0.08447685 -0.025828015 -0.08779098 -0.04196915
0.029919732 0.03226948 0.005723341 0.087261796 -0.0736016 0.076440975 -4.3326276e-05 0.025934689
00000000: 2a11 d4bd 1647 953c 4797 76bd 9a35 5b3d
00000010: 6240 b7bd 6b72 9c3d 1d91 0bbd 6d91 85bd
00000020: dc55 0ebe 7018 893c 219c 27bd 3a75 90bd
00000030: c2de 323d cafa 9a3c 113c f7bd 350c 3dbc
00000040: 3d7e c0bd 1494 803d 42d7 07bd 1c13 943d
00000050: 99e4 06be 53a2 893c 2a5e 563d 2ce4 1fbe
00000060: 56b1 233e 61f8 0e3d e613 d33d 879d 8a3d
00000070: 5b79 b6bc 99da 84bd 8580 e83d 50c8 d83d
00000080: c14f dd3c 69f4 4dbd 0157 ab3d 98d5 a5bd
00000090: 3729 87bd 9c9f a1bc c958 a5bd e7f3 893d
000000a0: 9f7a a3bd ae42 14bc 78db bebb b8a3 14be
000000b0: 7784 efbd 7852 4dbd 528e 1cbd 01f0 1a3d
000000c0: d51c 023e b6f9 14be 2a68 c8bc 7c2f 723b
000000d0: e815 2ebd 6975 dbbc 23e5 d2bd 096b b0bd
000000e0: f392 d9bb 52eb ccbd 5f89 64bd e72d af3d
000000f0: 6526 acbb 6acf 36bd ee2f d0bd 6e00 2abe
00000100: c03d 3a3d 3318 37be 9a72 9abe ba1d 953d
00000110: dff8 6abd 1ce5 bfbc d669 5f3d 970c 943d
00000120: 9ad3 aa3d 0a10 91bd 1249 7d3d 3fc0 1ebe
00000130: a49b efbd 8911 51be 59c8 02be f6f8 f13d
00000140: aca0 813d bb2c 803c 6d0a 1cbd 48db dd3d
00000150: e50c 77bd 04ac c63c 217f 4d3e 9247 ec3d
00000160: b62b 54be 3471 83bc 1c5d ad3d d7df 863e
00000170: f4ab b83c 2df6 e13d 9476 b0bd ff45 99bc
00000180: c05f 9e3d ccb3 a0bd f043 073e 7d3b 893b
00000190: 8894 28be 2fb0 693d 0e31 653c 172b a63c
000001a0: 692e 4e3e 595e 4c3c 01be 8c3c 4c20 a1bc
000001b0: 6978 3bbe 9d27 0fbe da64 f83c a878 7ebe
000001c0: 38ea 11be 6dc9 99bd 43de 86bd 1c8f c7bd
000001d0: 11e9 cabd 759b 6bbc 625e 37be 76c5 1a3e
000001e0: b8c6 68bc bae2 dbbd 81c5 a1bd 00b7 91bd
000001f0: 160b 0f3d b9b5 43be cc82 02be 3f1d 9abd
00000200: e906 c13d e359 28be bc4d 8a3c f983 d93d
00000210: a7d3 33be 6572 10be aa09 21be 578b 11be
00000220: 08a0 283d aa6e 6c3d 06b9 8abd 84e2 3b3e
00000230: 3200 33bd 685e e9bd 252b 30be 3631 933d
00000240: bc05 f2bd b56a 73bd 2e88 dc3c 53fa 2dbd
00000250: 0437 e03b 6707 973d 0463 f73a 1a60 bfbd
00000260: dc79 54bd 7e62 2a3e bb23 ecbd 88dc 7e3e
00000270: c725 dd3d 65dd 013e 7ba0 02be 4b2d c33c
00000280: e813 593d f6ad ca3c 7acb b4bd 1972 cebd
00000290: 9572 9cbd 5dfc 1fbd 5559 7e3d 96fc 16be
000002a0: 6808 6c3d 37f8 31bc 9346 96bd 630a a3bd
000002b0: 847e a7bb 139c 4c3d 5e94 863c 13cc 56bd
000002c0: 9874 adbc 6f6d eebd 889c 8f3a d445 37bd
000002d0: 0669 e9bc 4c35 ae3d aece 01be 82fb f4bd
000002e0: 703b 5a3e 58b9 39bd 1c28 1cbd abdf a53d
000002f0: 7576 9fbd 59ce 05be 29c0 0dbd e071 91bd
00000300: 0308 043d 79db 6fbd ba69 523c 712b 00bd
00000310: 39a3 9a3c 0315 cabd e3de 8ebd 26bf 53bc
00000320: 8695 a9bd ce4b 483c 3fbc 013d 2f02 de3d
00000330: ba2c 4d3d dad7 c53c 87d7 a3bd b153 833b
00000340: c7d6 81bd 9a0e 9f3d 9a29 e1bd 6215 673c
00000350: 50f0 bfbb 2dda 973c 0890 193d b113 06be
00000360: 444e fcba dea4 593d 6360 d93d 6fc6 a43c
00000370: dc60 023e a1be 863d 2e86 213d 3fdf abbc
00000380: 2618 293d ff56 b9bd 7e8e c73d 4aa7 bf3c
00000390: f240 ce3d b3b7 e1bc 1573 d4bd 4729 00bd
000003a0: e80b c3bd 5961 8a3d d4ec 63bd 1389 a9bc
000003b0: a8d0 6fbd fcca ebbb 9af7 d8bd 806d 0b3d
000003c0: a37d 023d 1268 29be 092d 7fbc 4dbc 4f3d
000003d0: 3302 ad3d 4695 d3bc c2cb b3bd d8e7 2bbd
000003e0: 3a1a f53c 012d 043d dd8a bb3b 50b6 b23d
000003f0: 70bc 96bd 168d 9c3d 3cb9 35b8 fc74 d43c

encoder.message_net.2.0.bias f4 [64]
-0.0841529 0.021000737 -0.090843834 -0.16432077 -0.043375574 0.027491858 -0.06639605 0.13338938
-0.059503935 0.015983777 0.15963098 0.010898991 0.024229504 -0.12824772 -0.0036418317 -0.17585452
0.050561897 0.08476509 0.11335764 0.033626765 -0.19858547 0.07546812 -0.06987741 -0.12706262
-0.035986733 -0.14285056 0.06234973 -0.005210626 0.033157997 -0.017019715 -0.15591669 -0.07076827
-0.12695363 -0.11753782 0.117837526 -0.124581814 0.063819766 -0.09404198 0.016233431 -0.13759582
0.014709 0.0051653283 0.01290061 0.006980334 -0.13696226 -0.032023635 -0.1627601 -0.03592911
-0.102834985 0.09003109 0.023229914 -0.142769 0.1146047 -0.038229596 0.0178194 -0.17685659
-0.057930585 -0.15096375 0.038469896 0.105275504 0.09144411 0.049804512 0.091329925 0.06849113
00000000: 5b58 acbd bd09 ac3c 550c babd b443 28be
00000010: 96aa 31bd 9b36 e13c a7fa 87bd 3a97 083e
00000020: 66ba 73bd 69f0 823c 4e76 233e ae91 323c
00000030: f47c c63c 5f53 03be ccab 6ebb 3513 34be
00000040: fe19 4f3d 5299 ad3d 0d28 e83d 38bc 093d
00000050: fd59 4bbe 088f 9a3d e31b 8fbd b41c 02be
00000060: d366 13bd 6b47 12be 6e62 7f3d e6bd aabb
00000070: aed0 073d ee6c 8bbc a0a8 1fbe f4ee 90bd
00000080: 2200 02be abb7 f0bd cd54 f13d c024 ffbd
00000090: f0b3 823d 1599 c0bd f9fb 843c ebe5 0cbe
000000a0: 04fe 703c ea41 a93b 155d 533c 49bb e43b
000000b0: d63f 0cbe 372b 03bd 95aa 26be 672a 13bd
000000c0: 269b d2bd 3862 b83d a94c be3c 0932 12be
000000d0: deb5 ea3d a396 1cbd fef9 913c e519 35be
000000e0: 9f48 6dbd 3e96 1abe 9c92 1d3d af9a d73d
000000f0: 0d47 bb3d d1ff 4b3d 2f0b bb3d 1445 8c3d

encoder.gru.weight_ih f4 [192, 64]
-0.18546973 0.05019638 0.03760768 -0.0055564437 -0.30310646 -0.10490984 0.05061257 0.10329294
0.22779071 0.08036419 -0.06996599 0.042082336 -0.024157109 -0.024628801 -0.119019665 -0.00023762553
0.013304004 0.23209286 -0.2649014 0.085681 0.14979932 -0.031182678 0.13090731 -0.16910282
-0.03683154 0.04548065 -0.059510686 -0.15178463 -0.046538655 0.034461014 -0.28536972 -0.005797267
-0.05436863 0.00042413874 -0.25165686 -0.10028582 0.013978362 -0.14293112 0.15993156 -0.18705344
-0.037765235 0.18661857 0.17682232 -0.17043953 0.06508918 0.055176895 -0.029294966 0.018601563
-0.107227735 -0.10818645 0.22150308 -0.23068304 0.09331567 -0.11502926 -0.058427826 -0.23437248
0.021337427 -0.089393064 0.27654728 0.12155765 0.028767046 -0.024575757 0.08798833 -0.05356996
0.013685517 -0.23602644 0.024433099 0.30421495 0.20313454 0.076236404 -0.2410013 0.21560252
0.066780046 0.046842206 0.31737435 0.02642639 0.100500606 0.08294485 -0.061036114 -0.25111106
-0.053349704 0.28660402 0.15811053 0.33552998 -0.07072052 -0.0034443615 -0.017415421 0.36034927
-0.32183737 0.12057277 0.00997986 -0.034407113 0.15864208 -0.019832801 -0.13064002 0.0027878578
-0.24310835 0.06961566 -0.2593551 0.13855319 0.14389308 0.4875911 0.060742896 0.081634186
-0.12910098 -0.21045862 0.1699435 0.29152682 -0.07989256 0.07180686 0.24241526 -0.082205236
0.29521775 -0.14072512 -0.11459 -0.09511827 0.120367676 -0.09434315 -0.17358355 -0.051022165
-0.2230949 0.29735646 0.12634687 -0.22594078 -0.14032324 -0.15894374 -0.08190112 -0.1258314
0.18332554 0.16667067 0.037483726 0.2389121 0.10383513 0.12251551 -0.4191342 -0.065475225
-0.250824 -0.14240697 0.017625129 0.17325155 -0.04973907 -0.20973457 0.15213536 0.20858514
0.16619635 -0.00070551404 -0.12971912 0.21542466 0.048879415 -0.00822231 0.44700536 0.27667937
0.20822974 -0.046794124 0.08768324 0.14252813 -0.15907834 -0.0858493 0.27625588 0.06228677
0.21663882 0.27467573 0.11826898 0.0608036 -0.028106742 0.2971747 -0.23212612 0.009018902
0.10233565 0.32433277 0.41804722 0.0101180505 0.0817771 -0.10633299 0.08220554 -0.02262915
0.26624313 0.17167115 0.16583376 0.3591568 0.28382397 0.18357949 0.0664678 0.19657773
0.035264563 -0.053558704 0.36471573 0.23463114 -0.060948778 0.053114876 -0.06235221 0.10003641
-0.0006926889 0.1734905 -0.14095005 0.20094332 0.13144827 -0.06911367 -0.29577208 -0.01198385
0.15391798 0.07783227 -0.14980467 -0.061878305 -0.058192037 -0.26247677 0.053944934 0.13532102
0.039229337 -0.011300299 0.05050471 0.45124084 0.021327095 0.1845439 0.14749815 -0.22047347
-0.18172413 -0.1053214 -0.0618474 -0.010290768 -0.29490387 -0.041223858 -0.11260655 0.070660494
-0.086832285 0.13846132 -0.10609443 -0.024333049 0.0055871056 -0.06423643 -0.24985655 -0.14117782
-0.32103565 -0.003133883 0.021961471 -0.13258803 -0.01896773 -0.046070214 -0.10949602 0.0035670067
-0.26731902 0.04945936 -0.09600422 -0.22042553 0.25577065 -0.13186866 0.42288634 -0.05795535
0.14506243 -0.1282095 0.31352425 0.047614925 -0.0668362 -0.14406161 0.119454324 0.09461788
00000000: c7eb 3dbe b89a 4d3d 830a 1a3d d412 b6bb
00000010: c530 9bbe f8da d6bd 204f 4f3d 408b d33d
00000020: f841 693e fb95 a43d 544a 8fbd 875e 2c3d
00000030: 21e5 c5bc 57c2 c9bc 95c0 f3bd 1e2b 79b9
00000040: 0af9 593c c0a9 6d3e 28a1 87be 8579 af3d
00000050: fe64 193e d172 ffbc 910c 063e 4a29 2dbe
00000060: abdc 16bd eb49 3a3d 7ac1 73bd 6e6d 1bbe
00000070: 519f 3ebd fe26 0d3d fb1b 92be 00f7 bdbb
00000080: a4b1 5ebd f05e de39 2bd9 80be a762 cdbd
00000090: 8005 653c 895c 12be 19c5 233e f08a 3fbe
000000a0: b8af 1abd f018 3f3e e910 353e b387 2ebe
000000b0: 7a4d 853d 2b01 623d fffb efbc 4e62 983c
000000c0: 379a dbbd dc90 ddbd b4d1 623e 2d38 6cbe
000000d0: 491c bf3d 7694 ebbd 0452 6fbd 57ff 6fbe
000000e0: d4cb ae3c b613 b7bd 9b97 8d3e 38f3 f83d
000000f0: dea8 eb3c 1953 c9bc 3a33 b43d 2d6c 5bbd
00000100: 3839 603c eab0 71be ec27 c83c 10c2 9b3e
00000110: 8002 503e d521 9c3d 0bc9 76be e8c6 5c3e
00000120: fac3 883d 9ddd 3f3d e47e a23e 287c d83c
00000130: 43d3 cd3d fdde a93d 0101 7abd a191 80be
00000140: 3885 5abd c3bd 923e bae7 213e 96ca ab3e
00000150: ecd5 90bd ccba 61bb c9aa 8ebc b37f b83e
00000160: dec7 a4be dbee f63d 9182 233c 79ee 0cbd
00000170: 1273 223e 6678 a2bc 7fc6 05be 7eb4 363b
00000180: 65f1 78be a892 8e3d 31ca 84be e3e0 0d3e
00000190: b558 133e 8aa5 f93e 8bcd 783d d32f a73d
000001a0: 0c33 04be 7782 57be ab05 2e3e 0143 953e
000001b0: b69e a3bd 7a0f 933d b53b 783e 385b a8bd
000001c0: c826 973e 3f1a 10be 29ae eabd 5ecd c2bd
000001d0: 5483 f63d fb36 c1bd e3bf 31be 9efc 50bd
000001e0: fd72 64be 1b3f 983e 1361 013e 055d 67be
000001f0: e5b0 0fbe 26c2 22be c6bb a7bd f2d9 00be
00000200: b1b9 3b3e b7ab 2a3e 8988 193d 60a5 743e
00000210: 83a7 d43d 69e9 fa3d c298 d6be e017 86bd
00000220: 016c 80be 22d3 11be 9362 903c db68 313e
00000230: 32bb 4bbd a9c4 56be 5fc9 1b3e 5897 553e
00000240: 602f 2a3e 3ff2 38ba 17d5 04be 4898 5c3e
00000250: c835 483d deb6 06bc e3dd e43e eba8 8d3e
00000260: 2d3a 553e 32ab 3fbd 4593 b33d e5f2 113e
00000270: 6fe5 22be c2d1 afbd 6971 8d3e 6a20 7f3d
00000280: 91d6 5d3e 4ca2 8c3e 0237 f23d 320d 793d
00000290: 1c40 e6bc 4827 983e 78b2 6dbe 04c4 133c
000002a0: 5a95 d13d f20e a63e 490a d63e 2ec6 253c
000002b0: c17a a73d 1cc5 d9bd 615b a83d c460 b9bc
000002c0: 0551 883e 90ca 2f3e 53d0 293e 66e3 b73e
000002d0: 6051 913e 43fc 3b3e 4520 883d ac4b 493e
000002e0: 9371 103d 5f60 5bbd 05bc ba3e 2543 703e
000002f0: 6da5 79bd fc8e 593d 0865 7fbd e4df cc3d
00000300: 9195 35ba 7ea7 313e 3655 10be 16c4 4d3e
00000310: 609a 063e 788b 8dbd 706f 97be e957 44bc
00000320: ad9c 1d3e 8666 9f3d 6566 19be 1b74 7dbd
00000330: c65a 6ebd 5b63 86be 5df5 5c3d 9891 0a3e
00000340: f1ae 203d e424 39bc 07de 4e3d 0a09 e73e
00000350: 29b6 ae3c 13f9 3c3e c109 173e ccc3 61be
00000360: e415 3abe bfb2 d7bd b353 7dbd 9c9a 28bc
00000370: a4fd 96be 59da 28bd 439e e6bd 73b6 903d
00000380: 20d5 b1bd cec8 0d3e 0948 d9bd 1a56 c7bc
00000390: 0a14 b73b 648e 83bd 65da 7fbe eb90 10be
000003a0: c95e a4be d561 4dbb 8be8 b33c 28c5 07be
000003b0: 3762 9bbc 1fb4 3cbd 733f e0bd 71c4 693b
000003c0: 0ade 88be e695 4a3d dc9d c4bd 3bb7 61be
000003d0: 5ff4 823e 9408 07be 8f84 d83e 9762 6dbd
000003e0: 3f8b 143e 5a49 03be 4086 a03e de07 433d
000003f0: 6be1 88bd e384 13be 78a4 f43d 05c7 c13d

encoder.gru.weight_hh f4 [192, 64]
-0.09434168 0.11818428 -0.1654363 0.24146196 0.11525153 -0.27063414 0.26073498 0.10946606
0.04875918 -0.054906018 -0.18758248 0.087959066 0.24008164 0.22170551 -0.3551122 -0.044028472
-0.06390035 0.12059456 -0.033379883 -0.28681535 -0.04220782 -0.032977678 -0.057098866 -0.032167517
-0.12850985 0.022616265 -0.24430183 -0.20072722 -0.1007854 0.0051982817 0.09622697 0.030076208
-0.06503603 -0.1284072 0.06807572 0.06173986 -0.24925083 0.26596206 0.031569093 -0.143038
-0.3057558 0.06884104 -0.13873816 -0.007219373 0.055809636 0.06025439 0.070170686 -0.20791881
-0.14932911 0.089192204 0.08862634 -0.16089441 0.27708468 -0.01445788 -0.6297452 -0.048194397
0.3853623 -0.04399441 -0.12469604 -0.13289252 0.05250718 -0.21289976 -0.17387079 -0.008438109
-0.36163393 0.15225233 -0.3179844 0.055852167 -0.21953022 -0.09082122 0.13025613 -0.1966644
-0.03732347 -0.2888708 -0.02226013 0.2100731 0.083507024 0.08561527 0.17126587 -0.0048030885
0.09585274 0.13198566 0.17235497 0.15383881 -0.002549318 0.30883574 0.14588675 -0.009067323
-0.08546643 -0.049212597 0.18668084 -0.12704866 -0.08748014 -0.044203687 0.00599686 0.06423574
-0.24189414 0.04558911 0.124863945 -0.027519552 -0.048261404 -0.104946606 0.27432576 -0.14059721
0.11063512 0.058970403 -0.00017930639 -0.22623946 0.10847988 -0.08055382 0.0110773975 -0.19279604
0.03953297 -0.27040094 -0.0014491101 -0.35447472 0.31841037 -0.17141683 -0.22546062 0.10896126
0.12838066 -0.09261974 0.2762618 -0.066913836 0.15702842 -0.15257551 0.07419161 0.06983954
0.022113256 0.35757408 -0.4200936 0.19453107 -0.06064997 0.015812563 0.05799167 -0.06302157
0.30311456 0.03626806 -0.29708973 0.0938066 -0.010759121 0.0120476205 0.03146487 -0.2063482
-0.0625617 -0.12488032 0.15528123 -0.066461086 0.016945278 0.034676738 -0.19830203 -0.028486833
-0.17613186 -0.14664456 -0.00581796 0.0145001 -0.23270822 -0.09397601 -0.10885314 -0.124067046
-0.073443644 -0.05052054 0.12267793 0.013715933 -0.0749537 0.02510422 0.04415149 0.022093473
0.08109548 0.2842476 0.05328272 0.057292163 0.36707583 0.16191469 0.16225572 -0.12975796
0.49384233 0.14858018 0.03372947 -0.015129184 0.17498721 0.003661849 -0.17478672 0.02449744
0.19087939 0.0020674393 0.0973455 -0.026198644 0.25285462 0.025666455 0.042426083 -0.09597319
-0.06246145 0.092345014 -0.3788986 0.08215418 0.01547184 0.22326519 0.057669446 -0.11392893
-0.035974555 -0.1167079 -0.056908943 0.17532705 0.18205747 0.1843991 0.05780684 -0.13337423
-0.029419573 0.28559318 0.1491973 0.10159145 -0.08726615 0.07502849 0.013565697 0.001599715
-0.05729323 0.08961422 0.090369806 0.036182176 -0.035648312 0.20661694 -0.08460463 0.021014035
-0.5936722 -0.18895493 0.04454846 -0.03151809 -0.20465428 0.34704664 0.05951099 -0.07533122
0.13359891 0.15998979 0.12335579 0.27118757 0.2721591 0.14969994 0.25000024 -0.19256897
-0.009550109 0.0014124529 -0.054629724 -0.35190675 0.11088856 0.11751317 -0.2424271 0.020656953
0.28194544 -0.06978562 0.04878128 0.16179758 0.120374456 0.024203423 0.12346082 -0.063056774
00000000: 3636 c1bd 9a0a f23d 2268 29be ce41 773e
00000010: ff08 ec3d 8f90 8abe 0e7f 853e be2f e03d
00000020: b5b7 473d 22e5 60bd 9f15 40be e223 b43d
00000030: f6d7 753e c506 633e 44d1 b5be 3357 34bd
00000040: 30de 82bd 48fa f63d 58b9 08bd 76d9 92be
00000050: 1be2 2cbd 9a13 07bd 80e0 69bd 16c2 03bd
00000060: 1698 03be bf45 b93c 422a 7abe 708b 4dbe
00000070: 9368 cebd 5956 aa3b a512 c53d 6162 f63c
00000080: 9c31 85bd 2d7d 03be 486b 8b3d efe2 7c3d
00000090: 9c3b 7fbe 2e2c 883e 984e 013d 8e78 12be
000000a0: 068c 9cbe 88fc 8c3d 6011 0ebe 7d90 ecbb
000000b0: a598 643d 4fcd 763d a6b5 8f3d abe8 54be
000000c0: bbe9 18be 67aa b63d ba81 b53d 81c1 24be
000000d0: 0bde 8d3e bee0 6cbc fb36 21bf 7d67 45bd
000000e0: 354e c53e 7c33 34bd a360 ffbd fa14 08be
000000f0: c511 573d 6502 5abe 2f0b 32be ff3f 0abc
00000100: 1528 b9be 09e8 1b3e dace a2be 3ec5 643d
00000110: 88cc 60be 7a00 babd dd61 053e 6462 49be
00000120: 7fe0 18bd e0e6 93be e05a b6bc 671d 573e
00000130: bb05 ab3d 0f57 af3d 5260 2f3e 3a63 9dbb
00000140: 714e c43d 4027 073e d27d 303e ec87 1d3e
00000150: 7512 27bb b81f 9e3e 5663 153e 1c8f 14bc
00000160: 0609 afbd 2693 49bd 4329 3f3e 0b19 02be
00000170: ca28 b3bd ed0e 35bd 4f81 c43b 078e 833d
00000180: 19b3 77be a6bb 3a3d abb8 ff3d af70 e1bc
00000190: c0ad 45bd 3fee d6bd 6d74 8c3e b7f8 0fbe
000001a0: aa94 e23d f38a 713d 3104 3cb9 51ab 67be
000001b0: b32a de3d 67f9 a4bd f97d 353c 536c 45be
000001c0: 53ed 213d fe71 8abe 11f0 bdba b67d b5be
000001d0: af06 a33e e587 2fbe 26df 66be 1527 df3d
000001e0: 3876 033e 6baf bdbd 3072 8d3e 1f0a 89bd
000001f0: 0fcc 203e c13c 1cbe c5f1 973d 0808 8f3d
00000200: dc26 b53c f313 b73e 8216 d7be 2733 473e
00000210: 1a6c 78bd 5989 813c ac88 6d3d 7411 81bd
00000220: d531 9b3e d18d 143d 251c 98be ad1d c03d
00000230: 0647 30bc 6263 453c 4fe1 003d f14c 53be
00000240: 5920 80bd 41c1 ffbd 0b02 1f3e c01c 88bd
00000250: d3d0 8a3c 3209 0e3d b00f 4bbe 385d e9bc
00000260: e95b 34be fe29 16be 96a4 bebb d491 6d3c
00000270: 104b 6ebe 7f76 c0bd 65ee debd dd16 febd
00000280: 9f69 96bd a0ee 4ebd 913e fb3d cbb8 603c
00000290: 5381 99bd 5da7 cd3c 31d8 343d 5ffd b43c
000002a0: 6315 a63d e788 913e fb3e 5a3d 30ab 6a3d
000002b0: 5df1 bb3e f7cc 253e 5d26 263e 45df 04be
000002c0: e7d8 fc3e 6725 183e ea27 0a3d 66e0 77bc
000002d0: d92f 333e a2fb 6f3b 4afb 32be dbae c83c
000002e0: e375 433e e07d 073b 145d c73d 8a9e d6bc
000002f0: 2976 813e 7542 d23c f9c6 2d3d 988d c4bd
00000300: 94d7 7fbd 621f bd3d fffe c1be 7340 a83d
00000310: 9a7d 7d3c a19f 643e cc36 6c3d 9253 e9bd
00000320: 0e5a 13bd 8d04 efbd 5a19 69bd ef88 333e
00000330: 466d 3a3e 1ed3 3c3e ddc6 6c3d 4193 08be
00000340: 5101 f1bc 4539 923e 2dc7 183e 2e0f d03d
00000350: 98b8 b2bd 89a8 993d a842 5e3c 87ad d13a
00000360: 4eac 6abd a987 b73d ce13 b93d c333 143d
00000370: f703 12bd 6493 533e 3145 adbd a025 ac3c
00000380: e7fa 17bf 677d 41be 7278 363d 1d19 01bd
00000390: e490 51be 19b0 b13e ccc1 733d 4147 9abd
000003a0: 27ce 083e 5dd4 233e f6a1 fc3d 19d9 8a3e
000003b0: 7058 8b3e f14a 193e 0800 803e cd30 45be
000003c0: 0f78 1cbc 0e22 b93a 6bc3 5fbd 1f2d b4be
000003d0: 8b19 e33d bfaa f03d cf3e 78be c538 a93c
000003e0: 275b 903e c3eb 8ebd e1ce 473d 44ae 253e
000003f0: e286 f63d 4246 c63c 07d9 fc3d e923 81bd

encoder.gru.bias_ih f4 [192]
-0.046784386 0.018004334 0.017546108 0.013047111 0.13220657 -0.11164272 0.0049241898 0.28618312
-0.18646322 0.19677383 -0.13137358 0.12025336 0.18758139 -0.09238557 -0.12147993 -0.18359031
0.087450795 0.05519708 -0.02711984 0.24511452 0.008135924 0.23670183 0.05249057 0.017776102
-0.030139443 0.069205806 0.16755038 0.012250333 -0.11878589 0.13153538 0.30443692 0.18206996
0.06695624 -0.014303638 -0.09334871 -0.016909268 0.14064716 0.13118285 0.17794493 0.08694872
-0.21760055 -0.00047339336 0.02437031 0.036680955 -0.09315688 -0.066782296 -0.049277987 0.002393249
0.15178294 0.07521096 0.10521094 0.16285877 0.19629316 0.054715127 -0.12291896 0.02433835
-0.039219085 -0.04815879 -0.026592288 0.22188604 0.0974055 -0.0055398312 0.12419424 -0.010089661
0.17971426 0.16065678 -0.08058988 -0.0622272 0.009525245 0.011347883 -0.06217823 0.016381094
0.0019559264 0.13536376 0.13552894 -0.08180944 -0.06375045 -0.12274159 0.09565387 0.19379385
0.113498345 0.122006364 0.013107211 -0.048949834 -0.07018044 -0.0807369 -0.0068318173 0.21122783
0.098371916 0.009874958 -0.16633688 -0.07363098 -0.03892909 -0.021937331 -0.2666335 0.13133617
-0.13740216 -0.016591314 0.12106921 0.1659141 0.020411892 -0.026410433 0.13105293 0.10788387
-0.13080414 0.18108545 -0.006687076 -0.007876789 -0.06095322 -0.042662904 0.14460893 0.032457482
0.18725272 0.082057625 -0.067060605 0.06517295 0.017641772 0.112540275 0.10021882 0.05796858
-0.06609951 0.10076587 0.13776825 0.1557813 -0.05109082 -0.0029817496 -0.09907478 0.17973387
0.08629787 -0.116916835 0.20377119 0.21878764 0.115500875 0.046534084 -0.09267013 -0.23229325
0.077256784 -0.06137749 0.12590647 0.10001312 0.072469875 0.15279236 -0.0698967 -0.0149271935
0.031397954 0.041301265 0.14992231 -0.19745375 0.16975617 0.012043918 0.0721821 0.04498666
-0.17138061 0.012482107 -0.25789487 0.057003688 -0.17485535 0.07969969 0.27151722 0.07181673
-0.03499679 0.05199611 -0.084273875 0.10335792 0.21916038 -0.1161731 0.053780645 0.13592726
-0.1496865 0.06265878 0.18134993 0.093250245 0.09253585 -0.015296553 0.1331414 0.021859642
-0.026130402 0.06126834 -0.2210816 0.14322942 -0.15410228 -0.040481392 0.07971821 0.017908828
0.26604572 0.12606682 -0.1613951 -0.07601429 0.20275639 0.07885182 -0.041487668 0.12497947
00000000: fca0 3fbd d37d 933c dbbc 8f3c 8dc3 553c
00000010: 2961 073e f0a4 e4bd 195b a13b 9886 923e
00000020: 37f0 3ebe 147f 493e cc86 06be 6547 f63d
00000030: 5615 403e a534 bdbd 78ca f8bd 19ff 3bbe
00000040: 6719 b33d 5516 623d 6d2a debc 4dff 7a3e
00000050: 8a4c 053c f761 723e 5a00 573d 309f 913c
00000060: fee6 f6bc c6bb 8d3d 5492 2b3e 9fb5 483c
00000070: 0446 f3bd 36b1 063e 28df 9b3e 8c70 3a3e
00000080: 5a20 893d ce59 6abc 9c2d bfbd 4e85 8abc
00000090: cf05 103e cc54 063e 3237 363e 2c12 b23d
000000a0: aed2 5ebe c831 f8b9 3fa4 c73c c53e 163d
000000b0: 09c9 bebd 28c5 88bd b7d7 49bd 0ed8 1c3b
000000c0: fd6c 1b3e 3408 9a3d d578 d73d 73c4 263e
000000d0: 1301 493e f81c 603d f0bc fbbd 3861 c73c
000000e0: 31a4 20bd 2742 45bd 12d8 d9bc 1836 633e
000000f0: 897c c73d 7987 b5bb 8d59 fe3d 1b4f 25bc
00000100: 0407 383e 3683 243e 4f0c a5bd f3e1 7ebd
00000110: c60f 1c3c 79ec 393c 9aae 7ebd a531 863c
00000120: 002f 003b cc9c 0a3e 19c8 0a3e b58b a7bd
00000130: 998f 82bd f15f fbbd 2de6 c33d e571 463e
00000140: d271 e83d 79de f93d a1bf 563c 9f7f 48bd
00000150: c3ba 8fbd 6359 a5bd 70dd dfbb 1c4c 583e
00000160: 3777 c93d 93ca 213c 3754 2abe d7cb 96bd
00000170: 1c74 1fbd ebb5 b3bc 3084 88be fd7c 063e
00000180: 27b3 0cbe 82ea 87bc 22f3 f73d 63e5 293e
00000190: d736 a73c b15a d8bc bd32 063e 38f2 dc3d
000001a0: 85f1 05be 776e 393e 421f dbbb a60d 01bc
000001b0: 15aa 79bd 4cbf 2ebd 5d14 143e 23f2 043d
000001c0: 2dbf 3f3e d40d a83d 1257 89bd 6579 853d
000001d0: 7a85 903c 847b e63d 863f cd3d 7670 6d3d
000001e0: 2e5f 87bd 565e ce3d 1f13 0d3e 2285 1f3e
000001f0: 9c44 51bd 7569 43bb b8e7 cabd 280c 383e
00000200: f0bc b03d 1872 efbd 65a9 503e de09 603e
00000210: b98b ec3d 869a 3e3d d6c9 bdbd 48de 6dbe
00000220: ce38 9e3d f766 7bbd a0ed 003e aed3 cc3d
00000230: 166b 943d 9a75 1c3e 0026 8fbd 3091 74bc
00000240: 249b 003d 842b 293d 3c85 193e 5131 4abe
00000250: 90d4 2d3e da53 453c 35d4 933d ef43 383d
00000260: 667e 2fbe c081 4c3c cc0a 84be b37c 693d
00000270: 480d 33be 9739 a33d 4e04 8b3e a614 933d
00000280: cb58 0fbd dff9 543d c897 acbd 51ad d33d
00000290: 946b 603e 2aec edbd 1849 5c3d 8430 0b3e
000002a0: 6b47 19be 3f53 803d ccb3 393e fcf9 be3d
000002b0: 7083 bd3d 659e 7abc 3856 083e fe12 b33c
000002c0: 6d0f d6bc 83f4 7a3d 3763 62be bcaa 123e
000002d0: fdcc 1dbe d1cf 25bd 4d43 a33d 89b5 923c
000002e0: 2537 883e a917 013e c244 25be 61ad 9bbd
000002f0: 5f9f 4f3e 107d a13d f9ee 29bd 3df5 ff3d
