experiments/gnn_hd64_ld32_nr3_ep500_b2.0_nf2.0/model.pt (torch, 178671 bytes, 18 tensors)

encoder.input_net.0.weight f4 [64, 7]
000000 76 33 06 be e1 04 48 be 8e 10 8e be aa 8b 83 be
       -0.13105568 -0.19533111 -0.27747005 -0.25692493
000010 93 fc ae 3e aa 5e 45 3f 95 9d 04 be d4 7c 03 3e
       0.34177074 0.7709757 -0.12950738 0.12840587
000020 51 df 90 be 06 47 83 be fb 1b 4f be 9d 59 c5 bd
       -0.28295377 -0.25640124 -0.20225517 -0.09636233
000030 38 89 a2 3e 5d 6a ec bd 87 2c 3f be f3 b7 18 be
       0.31745315 -0.11543725 -0.1866933 -0.14913921
000040 ee 56 0f be c9 11 b9 be 3e a0 35 3e a9 7b 11 3e
       -0.13998005 -0.36146381 0.17736909 0.14207329
000050 3e 94 13 bd fe 9e be 3d d0 86 2b be f3 82 ad be
       -0.036030047 0.09307669 -0.16750646 -0.3388897
000060 2d c1 a9 be 04 78 ae be 08 61 a5 be c2 72 92 be
       -0.33155194 -0.3407594 -0.3230059 -0.28603178
000070 7e 5c a9 be c9 10 a8 be b2 c2 a5 be 89 df b3 be
       -0.33078378 -0.32825306 -0.32375103 -0.3513148
000080 ec 98 85 3e 5a 77 87 3e 07 70 61 3f 22 5a d5 bd
       0.26093233 0.26458246 0.88061565 -0.10417582
000090 6c f2 f4 3e 40 02 85 3e 34 b0 68 be 56 ed d2 3e
       0.47841203 0.2597828 -0.22723466 0.41196698
0000a0 b0 a7 5e bd b7 46 d3 3b 39 65 ca 3d 97 8e 7a be
       -0.054359138 0.006447639 0.09882588 -0.24468456
0000b0 19 d0 e1 3e 50 0c aa bd 79 ea 03 3e 74 c3 59 3c
       0.44104078 -0.0830313 0.12882413 0.013291229
0000c0 13 d8 80 be 7f 32 68 be dc 09 13 bc c2 93 32 3e
       -0.25164852 -0.22675513 -0.008974519 0.17439178
0000d0 d3 11 56 39 e8 09 9f bd 28 43 18 3e cb 06 e3 bd
       0.0002041527 -0.07765561 0.14869368 -0.1108528
0000e0 89 16 1e be 78 32 67 3e ef 9f e0 3e f6 59 be bd
       -0.15438284 0.22577846 0.4387202 -0.092945024
0000f0 15 52 11 3d 1c ec 82 3d 86 06 92 be f3 0e 08 be
       0.03547867 0.063926905 -0.28520602 -0.13286953
000100 cc 9c ef bc 03 a2 12 bd 74 8a 0b 3e 13 ad 10 3f
       -0.029249571 -0.035799038 0.13627034 0.5651409
000110 9d 55 b0 be b5 3e b8 bd 37 89 c1 3d f9 56 8d 3d
       -0.34440318 -0.089963354 0.0945 0.06901354
000120 61 0e f4 3e 8c 8b ab 3e 77 b7 24 3d 75 26 d6 3d
       0.4766722 0.33504903 0.04021403 0.10456554
000130 e9 00 43 be b4 e7 5b be 06 6a 90 b9 2b 5a 4b be
       -0.19043316 -0.21475106 -0.00027544814 -0.19858615
000140 cf b3 90 3e a7 c3 ba 3d f7 77 9b be 74 3d b5 bd
       0.28262183 0.09119349 -0.30364963 -0.08849612
000150 0a 81 85 3e 7d 0d b1 be b4 3e ae 3d 15 9d f5 bd
       0.26075011 -0.34580603 0.085080534 -0.11992852
000160 bd cd 99 3d 87 af 3c be 0b e7 70 bd 1d 67 23 bb
       0.075099446 -0.18426333 -0.05881409 -0.0024933286
000170 bf 0a d3 bd d1 a4 f9 bd 7e 13 9a be f3 d5 84 be
       -0.10304784 -0.12189639 -0.30092996 -0.2594448
000180 63 40 1b 3e 5e 97 fd bd 03 4c 13 3e d9 96 00 3e
       0.1516128 -0.123823866 0.14384465 0.12557544
000190 96 d3 a2 be 60 a1 97 3d e5 d5 77 be 66 da 95 3d
       -0.31802052 0.07403827 -0.24202688 0.07317047
0001a0 a1 50 b7 3d ea 99 45 bd c4 12 95 bd d8 8d 54 3d
       0.089509256 -0.048242487 -0.0727897 0.051893085
0001b0 7f a1 a7 bd e5 ac 47 3e f4 d6 97 3e 48 5f 45 be
       -0.081851 0.19499548 0.29656184 -0.19274628
0001c0 32 7b 5c bd 9a 81 05 be 7a f6 3e 3e 64 4b 14 be
       -0.053828426 -0.1303772 0.18648711 -0.14481884
0001d0 2a 42 12 3f 74 70 a7 be 3e 1d 21 be 00 72 b6 3d
       0.5713221 -0.32702982 -0.15733811 0.089084625
0001e0 c5 33 e7 bd d3 2f bf 3e e6 bc d8 3c 33 47 ba be
       -0.11289171 0.37341174 0.026457261 -0.36382446
0001f0 10 c3 8f bd 91 c9 62 3f 62 40 f7 3e bf a3 9d be
       -0.07019627 0.88588816 0.48291308 -0.3078899
000200 81 0e 33 3e d4 b9 4a be 3a fe c6 3e 84 f8 19 3e
       0.17486002 -0.1979745 0.38865834 0.15036207
000210 67 9c 47 3d e1 c5 9f 3e 8b 1e a1 be 01 5a 78 be
       0.04873314 0.31205657 -0.31468615 -0.24253084
000220 e1 bc 60 be 12 59 74 be a7 a8 99 bd 3d 90 b2 3e
       -0.21947052 -0.23862103 -0.07502871 0.3487567
000230 df f6 73 3e a4 83 77 be 3a a7 ba be 2d 36 94 3d
       0.23824643 -0.2417131 -0.3645571 0.07236896
000240 e1 3d 25 3e bd ca 83 be 0b eb ac be 59 3a 00 3f
       0.16136886 -0.25740615 -0.33773074 0.5008903
000250 20 af 2d be d9 d9 36 be d7 8c 65 be 65 16 2e be
       -0.16961336 -0.1785654 -0.22417007 -0.1700073
000260 7b 32 dc 3d 31 c7 b1 be 0d 67 49 be 5f ed 86 bc
       0.10751816 -0.34722283 -0.19668217 -0.01647061
000270 a3 e6 ed 3e b1 34 9b 3d 8b 9f be be c2 4d 93 be
       0.46465024 0.075784095 -0.37231097 -0.28770262
000280 85 e3 98 be c3 22 cc bd 81 27 be be 5f e0 e3 3e
       -0.29861084 -0.09967568 -0.37139514 0.4450712
000290 6a 1a 4e 3d 0a 07 01 3f 5e 9f 4c 3d 1c 27 6a be
       0.05031816 0.50401366 0.049956672 -0.22866482
0002a0 e6 4f b1 be 5e 57 6a 3e f1 1d b6 3e 7c 29 c5 3e
       -0.3463127 0.2288489 0.35569718 0.38508213
0002b0 d1 31 4d be a0 5a 8e be d8 75 a6 3e 05 8d 25 3e
       -0.20038535 -0.27803516 0.32511783 0.16167076
0002c0 42 ec 8f bd 40 4e 34 3d 4c 39 bf 3c 75 a0 ca 3d
       -0.070274845 0.044019938 0.023342751 0.09893886
0002d0 4e e7 5b 3d 26 34 26 3f 47 19 e9 3c 36 28 79 3d
       0.053687386 0.6492332 0.028454436 0.060829364
0002e0 01 86 a4 3d 80 de a9 be 15 cd 51 be c0 8d 63 3c
       0.08033372 -0.33177567 -0.20488389 0.013888776
0002f0 38 eb 05 be d1 d8 80 3e 95 00 ae 3e a5 94 14 be
       -0.1307801 0.25165418 0.3398482 -0.14509828
000300 b9 10 24 be 1b 12 21 be 4a a5 73 be 49 06 96 3e
       -0.16022004 -0.15729563 -0.23793522 0.2930167
000310 23 18 bf be 27 ac 54 3e f6 c9 85 3e c2 fe 08 bc
       -0.37323102 0.20768796 0.26130646 -0.00836152
000320 78 f4 be 3c 77 ee 21 3d ce 92 18 3e 3c 21 a8 be
       0.023309931 0.03953406 0.14899752 -0.32837856
000330 50 5a 96 be 08 d7 2c 3e 0d 0c 9a 3e 11 bf b3 be
       -0.29365778 0.16878903 0.3008732 -0.3510671
000340 31 0f ab be 9f f2 a0 be 19 fe a4 bd 3b ba 60 be
       -0.33410028 -0.31435105 -0.08056278 -0.21946041
000350 f3 ff 17 be 22 63 54 be 14 b2 b3 bd 1f 8b 02 3e
       -0.1484373 -0.20740941 -0.087742 0.12748383
000360 e0 45 55 be db 56 93 be de 5f ac 3e 18 c9 2d be
       -0.20827436 -0.28777203 0.3366689 -0.16971242
000370 bd c2 2d 3e de ff 5d 3e 43 d3 86 be 85 5b 0f 3e
       0.16968818 0.21679637 -0.26333055 0.13999756
000380 42 e8 13 3e 1b c7 56 3d 39 4c f6 bc 04 31 3c be
       0.14444068 0.052435976 -0.030065643 -0.18378073
000390 81 55 d6 3d d2 32 1b 3d b4 8c 84 be 3d 58 b6 bb
       0.10465527 0.037890263 -0.25888598 -0.005564718
0003a0 3d e3 ca 3e 21 0c b0 be fc 38 63 bc 49 2c e8 3d
       0.39626494 -0.34384254 -0.013868567 0.11336572
0003b0 4c f7 cd bd 9c 26 13 3d ea c6 92 be a4 48 8e be
       -0.10056934 0.035925493 -0.28667384 -0.27789795
0003c0 8b 7c 43 3d b8 06 24 bc 7f bc 01 3f 58 d6 03 3f
       0.047726195 -0.0100113675 0.5067825 0.5149894
0003d0 62 86 bf 3e d1 5d 45 3e b0 c7 e3 3d 6d 95 09 3d
       0.37407213 0.1927407 0.11122072 0.03358977
0003e0 76 d6 8f be 5c 68 c8 bd ed 6f 90 be 72 5b 8b be
       -0.28093308 -0.0978553 -0.28210393 -0.27218205
0003f0 c8 c8 b1 be 8d 5f b1 3d 55 29 b8 be 06 17 49 3e
       -0.34723496 0.08660803 -0.35969034 0.19637689

encoder.input_net.0.bias f4 [64]
000000 9a 0e 12 3e 5b 6b 23 bd 5c 04 57 be a5 b5 8b 3e
       0.14263383 -0.039897304 -0.20997757 0.2728702
000010 73 38 b1 3e 61 da 8a bd 82 12 2c 3e f3 3d 3c be
       0.3461338 -0.06779934 0.16803935 -0.18383007
000020 84 3b a8 3d 33 23 a2 bd 49 52 f3 bd 38 64 4d be
       0.08214477 -0.0791687 -0.11880929 -0.20057762
000030 0d b9 87 be bb 29 b8 ba 4d d2 16 be ef 63 b7 be
       -0.2650837 -0.0014050523 -0.14728661 -0.3581843
000040 a3 80 3f bc b4 60 c7 bd df c8 44 3e 12 17 93 3d
       -0.011688384 -0.097352415 0.19217251 0.07182135
000050 8d 7e a1 be 92 a2 e3 bd 84 bc 42 3e 26 f2 60 bd
       -0.31541863 -0.11114992 0.19017226 -0.05491843
000060 62 66 4c 3e 2e 10 18 be 4e da ad bd 26 f2 b0 be
       0.19960931 -0.14849922 -0.08488904 -0.34559745
000070 63 0c f0 bd e3 d9 8b 3e 50 3c 9d be af 40 65 3e
       -0.117211126 0.27314672 -0.30710077 0.22387956
000080 26 4c 44 be c1 1e 29 bd 33 8e 83 3e 74 23 54 bd
       -0.19169673 -0.041289095 0.25694427 -0.051791623
000090 43 9c a5 3e d3 cf ab bd 49 12 83 3e 68 01 7d bb
       0.3234578 -0.08389249 0.25599888 -0.0038605575
0000a0 53 45 9d 3e 1d f0 2d be a3 de 18 be 80 a1 4d be
       0.30716953 -0.16986127 -0.14928679 -0.20081139
0000b0 8c 70 e6 3d ca 17 ab bc 64 df 93 bc 19 b0 3c 3e
       0.11251935 -0.020885367 -0.018050857 0.18426551
0000c0 7e 05 84 be f4 40 aa be c8 5c aa be 6d 07 c7 bd
       -0.2578544 -0.3325268 -0.3327391 -0.09718213
0000d0 1f 71 86 be 93 b5 c0 be 50 bf e1 3d 58 a1 2c bd
       -0.2625818 -0.3763853 0.11022818 -0.042146057
0000e0 b8 33 41 be f5 2d f7 bc e7 08 ac be f8 6d a2 bd
       -0.18867385 -0.030173281 -0.33600542 -0.07931131
0000f0 28 fd af be 1f 1d 0a 3e 71 78 a8 be 67 4c 7e 3e
       -0.3437283 0.13487671 -0.3290439 0.24833833

encoder.message_net.0.0.weight f4 [64, 64]
000000 6b a6 a6 3d f7 5c ac 3d 98 e0 70 3d f4 a8 c1 3d
       0.081372105 0.08416169 0.05880794 0.094560534
000010 98 9b 0e be b6 65 40 be 91 d4 9f bc c2 68 89 bd
       -0.13926542 -0.187888 -0.01951054 -0.06709434
000020 c1 29 be bd b9 47 d1 bd fd 9a 06 be e6 21 bc bb
       -0.09285308 -0.10218758 -0.13145061 -0.0057413457
000030 b9 c1 a3 3d 43 17 50 3d 45 ff ff 3d 94 28 6f 3d
       0.07995934 0.050803434 0.12499861 0.058388308
000040 32 a0 b4 bc 4e d3 77 3d c1 cb 5f 3d af 5c ce 3d
       -0.022049043 0.06050425 0.054637674 0.10076272
000050 e0 54 5e bd f3 92 82 bd cc 78 8f 3c 44 e9 bc bd
       -0.05428016 -0.063756846 0.017513655 -0.092241794
000060 07 73 86 bd 4f 9e 08 3e ba d5 96 3d 00 25 47 3d
       -0.065649085 0.1334164 0.07364984 0.04861927
000070 8c 0d 27 be bb c2 6d bc cc 4a f4 3d f5 7c 27 be
       -0.16313761 -0.014511759 0.11928329 -0.16356261
000080 fc 23 a0 3d c1 11 09 be 8d 20 32 be d0 d0 f5 3c
       0.078193635 -0.13385679 -0.1739523 0.030006796
000090 9c cc 8c be 03 a3 d0 bd 0f 91 c3 bd 40 e6 16 be
       -0.27499855 -0.10187342 -0.09549152 -0.14736271
0000a0 16 2e 93 3d 3a 96 be 3d f1 ca 1f 3d c9 0f 40 3d
       0.071865246 0.09305997 0.0390119 0.046890054
0000b0 69 15 65 be 7a d8 25 bd 4b 35 9d 3d 6c 43 c6 3c
       -0.22371449 -0.04048965 0.076761805 0.024202071
0000c0 38 8b a2 3d 31 54 d2 ba 70 e7 d6 3c b8 7d ac 3b
       0.0793671 -0.001604682 0.026233405 0.0052640103
0000d0 78 4b ff bd b8 a7 d8 3d c8 e4 d3 bd 70 9c e1 bc
       -0.124655664 0.10578865 -0.10346371 -0.027540416
0000e0 06 1e b5 3d d8 11 87 bd 05 9d 2a be c7 54 13 bd
       0.08843617 -0.065952 -0.1666146 -0.03596952
0000f0 54 7d a5 3d cb ad 1d bd 95 6d 62 3e 13 63 1e 3b
       0.08080545 -0.03849582 0.22112115 0.002416794
000100 90 db 09 3e f6 9f 6d bd 7a f9 d3 bd 39 25 da bd
       0.13462663 -0.05801388 -0.10350318 -0.10651631
000110 75 c4 05 3c 0d a0 85 3d f7 1a 04 be 00 6b b2 3a
       0.008164515 0.06524668 -0.12900911 0.0013612211
000120 c7 9e 87 bd 11 52 ab 3d 60 fa 68 3d 68 77 d0 3d
       -0.06622081 0.08365262 0.0568794 0.10179025
000130 97 6f a4 3d 7a e2 c4 3d 43 76 9b bc 7c d3 15 bd
       0.080290966 0.096135095 -0.01897729 -0.03657864
000140 ca 0a 6a 3d 86 a0 44 bd 91 ef e6 bd b7 df 59 bb
       0.057139196 -0.04800465 -0.112761624 -0.0033244917
000150 80 88 3e bb bd 44 ab 3c 4e 29 67 bc f8 79 4b 3d
       -0.002907306 0.0209068 -0.014108969 0.049676865
000160 46 c0 93 3d 63 50 d2 bc 33 ba ab bb e3 47 92 3d
       0.072144076 -0.025673097 -0.0052407025 0.071426176
000170 d3 06 4c 3d b7 a8 12 3c 62 ae f9 3d 5b 86 d8 bc
       0.049811196 0.008951358 0.12191464 -0.026431253
000180 c0 be 2d 3d 65 49 e0 bd 7c 59 90 bd 08 12 13 3d
       0.04241824 -0.10951499 -0.07048318 0.035905868
000190 03 1c aa bd 57 28 ca bd b4 1f 30 bd fb 16 cb 3c
       -0.08306124 -0.098709755 -0.042998984 0.024791231
0001a0 b8 b3 4c ba b0 bb 6a bd 1a 7e cf 3d 3c b0 99 3c
       -0.00078087626 -0.0573079 0.10131474 0.018760793
0001b0 1f 8b e7 bc 82 b1 19 bc 72 35 2e bd 54 b6 b0 bc
       -0.02826458 -0.0093807 -0.04253144 -0.021571316
0001c0 e0 a3 dd 3c 21 79 76 3d 38 29 53 bd 52 25 22 3d
       0.02705568 0.06017411 -0.05155298 0.039586373
0001d0 8c d6 3b bd cc 22 2c 3d 1d ac f5 3c b4 f1 a2 bd
       -0.045858905 0.042025372 0.029989297 -0.079562575
0001e0 4c 1f dc 3d 8f f4 e7 bd f6 94 59 3c 9c d8 82 bd
       0.10748157 -0.11325943 0.013280144 -0.06388971
0001f0 d2 74 b8 3d 64 8c cc bd 9c 85 e1 bd 3d 71 b3 bd
       0.09006657 -0.09987715 -0.11011812 -0.08761833
000200 3c 54 56 3e 25 9c 7c bc e4 83 a9 bd 72 e5 09 3e
       0.2093057 -0.015418087 -0.08277109 0.13466433
000210 5e 98 3d be 43 25 8a be b6 ba 13 3e 48 5c 6f bd
       -0.18515155 -0.26981553 0.14426693 -0.058437616
000220 ac 2c 93 be 99 48 10 3d 95 31 a5 3c 6e 86 61 3e
       -0.2874502 0.035225485 0.020165244 0.22023937
000230 45 70 d2 3d a6 3f 8c 3c c5 e2 0e 3e 50 bb 91 bc
       0.1027532 0.017120194 0.13953693 -0.017789513
000240 ac 2e 55 be da 83 af bd 06 57 2a 3c 1b 9b 7c 3d
       -0.20818585 -0.085700706 0.010396725 0.061671358
000250 48 ce fc bc b5 23 02 3d 26 c8 a1 3c 04 0a 27 be
       -0.030860081 0.031772334 0.019748759 -0.16312414
000260 bc 21 b3 bd bb 8e a3 3a d4 85 08 be a0 54 01 be
       -0.08746669 0.001247845 -0.13332301 -0.12629938
000270 40 cc 3a be 7d 4a ae 3c dc 88 6f 3d 9a 6c 97 bd
       -0.18241978 0.021275753 0.05848013 -0.07393761
000280 d8 f4 f5 bd f9 1d d0 bc fa fe 31 be cf d9 0e 3e
       -0.12009591 -0.025404917 -0.17382422 0.13950275
000290 ef 1f 02 ba 74 7e e6 3d 79 5f e3 bd 62 22 32 be
       -0.0004963865 0.11254588 -0.11102194 -0.17395929
0002a0 6d d0 d1 3d 80 a7 19 bc 97 ad 7b bd 73 df 10 3e
       0.10244832 -0.009378314 -0.061444845 0.14147739
0002b0 a3 f0 75 be 70 36 85 bd 4d ca 2c 3e f0 2c 55 3d
       -0.24017577 -0.06504524 0.16874047 0.05204481
0002c0 c2 1f b0 3d 20 3d 28 3d 00 a0 b6 3b eb db b0 bd
       0.08599807 0.04107392 0.0055732727 -0.08635696
0002d0 52 66 86 bd 6c b8 23 3d 14 07 1d be ef aa f3 3d
       -0.06562485 0.0399708 -0.15334731 0.11897837
0002e0 21 53 70 bc 8f 22 06 be 40 42 16 bd 6c 35 94 3c
       -0.014668257 -0.1309912 -0.036684275 0.01809188
0002f0 2c 02 fd 3d 0c af 86 bd 26 2f 86 3e 5a 4d e9 bd
       0.1235393 -0.06576356 0.26207846 -0.11391707
000300 60 6d ef 3b f4 9d 44 bd 90 4e 7f 3c c8 ef ee bd
       0.0073067397 -0.0480022 0.015582696 -0.116668284
000310 c0 ab 32 bd 54 f2 ca bd 10 ea 48 bd 30 df 8d bd
       -0.043620825 -0.09909502 -0.049051344 -0.06927335
000320 58 4d c0 bc 94 fd 2b bd c4 db 02 bd 38 82 ff bd
       -0.02347438 -0.041989878 -0.031947866 -0.12476009
000330 18 cf a2 3c 68 d6 f1 3c b6 2c 99 3d 86 11 ff bd
       0.01987414 0.029521182 0.07479231 -0.12454514
000340 5c 8c 95 3d ba 64 b7 bd ba f1 a8 bd 00 c0 2e bc
       0.07302162 -0.08954759 -0.08249231 -0.010665894
000350 30 e8 d8 bd 68 44 d6 3c f0 e1 55 bc 64 7a 22 3d
       -0.10591161 0.026155666 -0.013054356 0.039667502
000360 a0 69 e2 3b 88 a1 ea bc 70 e4 86 bc b4 69 00 bd
       0.006909564 -0.028641477 -0.01646635 -0.031350806
000370 f0 ed 95 3d b6 d3 a2 3d 0e 3c 82 3d 76 0d b0 bd
       0.073207736 0.07950537 0.06359111 -0.085963175
000380 16 56 8e bd 76 12 b7 3d d4 f3 f2 bd 58 79 77 3d
       -0.06950013 0.08939068 -0.11862913 0.060418457
000390 30 a1 34 3d 00 f7 3b 3b b8 3a 45 3d 5c 82 71 3d
       0.044099033 0.002868116 0.0481517 0.05896221
0003a0 c0 78 c0 bd b4 d3 fe 3d ac 9c f9 3d 4a 55 ac bd
       -0.09398031 0.12442723 0.12188086 -0.08414705
0003b0 10 0b a3 bc e2 b3 fa 3d c0 22 ce 3d 40 8f b1 bc
       -0.019902736 0.12241341 0.10065222 -0.021674752
0003c0 20 9b 6a bc c4 65 33 3d ce 57 ba 3d 48 29 be bd
       -0.014319211 0.043798223 0.09098779 -0.092852175
0003d0 58 ac b1 bc d6 30 af 3d 90 24 64 bc da 3c e3 bd
       -0.021688625 0.085542366 -0.013924733 -0.11095591
0003e0 6a bb da 3d 10 3b e7 bc b8 e3 fe 3c cc 29 b7 3d
       0.10680278 -0.028226405 0.031114444 0.08943519
0003f0 b4 c4 e9 3d 40 86 d9 bd 80 5f c7 3d d8 86 97 3c
       0.11414471 -0.10621309 0.09735012 0.018496916

encoder.message_net.0.0.bias f4 [64]
000000 7d df e4 3d e2 c9 8c bd 9d c7 34 3d 1c 93 66 bd
       0.111754395 -0.068744436 0.04413568 -0.05629264
000010 80 07 94 3d 48 35 1b 3e 03 c4 05 bd 7c 4e cc 3d
       0.07227993 0.15157044 -0.032657634 0.09975907
000020 e6 79 49 3c bc 3f ef 3d 7e f0 32 bd 29 41 65 3e
       0.012297129 0.11682078 -0.043686382 0.22388138
000030 05 9f b2 3d b6 74 1e bd f1 e1 d5 bd 0c 65 1f bd
       0.08721737 -0.038685523 -0.104434855 -0.038914725
000040 36 87 0f 3e 9b 7c 47 3e 41 a7 f5 3d 42 6e 13 be
       0.14016423 0.19481127 0.11994792 -0.14397529
000050 d0 b1 5b 3d 18 59 ee bd 83 e3 ca bb 0b 8f 18 be
       0.053636372 -0.11638087 -0.0061916723 -0.14898317
000060 cf d4 13 3d 71 d5 a4 3c 70 2e 88 3c c7 39 f1 3c
       0.036091622 0.020121308 0.016623706 0.029446496
000070 28 da c6 3d 54 e2 09 3e e8 10 08 be cd c8 d9 bc
       0.09709579 0.13465244 -0.13287699 -0.026585007
000080 81 73 a5 bc ae 2b 12 3e bc 83 63 3b 9d 9f 09 3e
       -0.020196678 0.14274475 0.003471597 0.13439794
000090 3e 3a b4 bd dc 96 3f 3d ba 59 32 3e 52 62 b4 3d
       -0.08800171 0.04677473 0.1741704 0.088078156
0000a0 c6 c6 08 3d aa 6a 06 3e 11 11 ef bd c3 b9 0e be
       0.03339269 0.13126627 -0.11673177 -0.1393805
0000b0 48 e6 b3 bc ed 9e 23 bd 56 60 2b 3d 70 36 bc bd
       -0.021960393 -0.039946485 0.04183992 -0.09190071
0000c0 12 ac ea 3c 10 e9 d9 bd a8 7e d2 3b 15 ce 3e 3d
       0.028646503 -0.10640156 0.00642379 0.046583254
0000d0 bf 17 c2 bc 90 ac ee bd 2a 80 e8 bc a3 2b 43 3d
       -0.023692964 -0.116540074 -0.028381426 0.047649037
0000e0 be 58 0a bd e7 44 a0 3d 66 3d e9 bd 5c 3e df 3a
       -0.033776037 0.07825642 -0.11388664 0.0017032134
0000f0 f8 ef ed bd 95 13 c6 bd 34 e5 a0 3d c7 66 f2 bd
       -0.11618036 -0.09671704 0.07856217 -0.118360095

encoder.message_net.1.0.weight f4 [64, 64]
000000 11 f3 19 3c 84 08 2a 3d 77 e6 10 be 35 12 aa 3c
       0.00939633 0.041512027 -0.14150415 0.020760635
000010 0c 52 77 be 06 64 28 be 1d 6c 98 bc 75 de ee 3d
       -0.24152392 -0.16444406 -0.01860624 0.11663524
000020 2d 15 ca bd 17 d7 69 bd a3 36 1e 3d 89 91 37 bc
       -0.0986732 -0.05708989 0.038626324 -0.011204132
000030 2f f1 d8 bd 7c 30 1c be 78 bf 03 bd 35 88 21 bd
       -0.10592877 -0.1525287 -0.03216502 -0.039436538
000040 52 7b f0 bd 00 84 89 3c 09 e3 87 be 45 3f 27 3e
       -0.117422715 0.016786575 -0.26540402 0.16332729
000050 b2 d2 3d 3e 92 2f 14 3e c0 ae 3c 3e f6 91 a4 bd
       0.18537405 0.14471272 0.18426037 -0.08035652
000060 e7 e0 86 3c 85 42 d6 bd a2 7c 00 be ac 76 eb 3d
       0.016464664 -0.10461906 -0.12547544 0.11497244
000070 94 a6 46 3d 03 76 4d 3d d9 1e a2 ba cf f8 6c be
       0.048498705 0.050161373 -0.0012368812 -0.23141788
000080 be 8f 18 3e a1 95 26 3e e7 bd dc 3d 9c cb 0f be
       0.14898583 0.16268016 0.107784085 -0.14042515
000090 7d 7d d4 bd 88 be 6c 3d 04 78 fb 3d 68 7e 7a bd
       -0.103754975 0.057798892 0.122787505 -0.061155707
0000a0 90 34 74 3d 1b 00 14 3e 41 cb 3d bb db e9 e2 bb
       0.05962044 0.14453165 -0.002896026 -0.0069248504
0000b0 ac 06 f7 bd 55 56 18 be af 90 a8 3d ed 6b 9a 3d
       -0.120618194 -0.14876683 0.08230721 0.075401165
0000c0 fc d7 4c 3e 55 5c 31 be 4d 80 03 be a5 0e a3 3d
       0.20004267 -0.17320378 -0.12841912 0.079617776
0000d0 e6 a6 8d bc f5 5b f7 bd 7e ef be 3c a1 62 45 bd
       -0.017291497 -0.12078086 0.023307558 -0.048189763
0000e0 d0 c8 e0 bd a8 f4 3e bd c1 9f 8a 3d 13 fd 90 3d
       -0.10975802 -0.04662004 0.06768752 0.0707952
0000f0 6e 82 8d bc 27 f5 90 3d 48 69 e2 bd 45 1d 8c bd
       -0.017274108 0.07078009 -0.11055237 -0.0684152
000100 ac da d3 3d 2a 88 4b be df 3e 5a bd 9d 59 34 bd
       0.10344443 -0.19876161 -0.053282615 -0.044030774
000110 5d 84 a3 bd 50 31 80 bc 7c 95 58 bd ef f0 44 bd
       -0.07984231 -0.015648514 -0.052876934 -0.048081335
000120 9b d3 97 bb 67 af 99 bd f1 8f 59 3e 79 1b 01 be
       -0.0046333796 -0.075041585 0.21246316 -0.12608136
000130 1c f9 04 be b8 ad f0 bd 84 14 0a be 2a ea 4f bb
       -0.12985653 -0.11751884 -0.13484389 -0.0031725266
000140 5c ae 46 3d 41 c4 d6 bc b2 12 34 be af df 98 3c
       0.048506126 -0.026216628 -0.17585257 0.018661348
000150 24 9c 2d 3e 4e 5d 2f bd e2 6c 37 3e 05 0e 54 3d
       0.16954094 -0.04281359 0.17912629 0.051771183
000160 c3 44 d7 3d 83 8b 28 be 91 a6 f8 bc fa e0 14 3d
       0.10511162 -0.1645947 -0.030352863 0.036347367
000170 06 9e 63 bd fd fc ce 3c 21 81 fd 3d 1f 4b cd bc
       -0.055570625 0.025267119 0.12378145 -0.025060235
000180 72 05 d5 3d ef 23 53 3d 24 14 4f 3e 53 e4 8a 3b
       0.10401429 0.05154794 0.20222527 0.004238644
000190 e4 13 0e 3e 3f 25 57 be 2b 57 9f 3d 5f 21 cf 3d
       0.13874775 -0.21010302 0.07780298 0.10113787
0001a0 22 9e f9 3d 26 32 a0 bd 69 36 9c 3d 6b 03 dc bd
       0.121883646 -0.07822065 0.076275654 -0.107428394
0001b0 0e 64 68 b9 f6 e4 73 bc a5 73 82 bd f9 57 a7 3d
       -0.00022162517 -0.0148861315 -0.06369714 0.08171076
0001c0 0a 15 04 3e a0 6c 2e bd 91 ad 15 3d 27 cb 43 3c
       0.12898651 -0.04258406 0.03654248 0.011950291
0001d0 0f 17 21 3e aa 78 46 be ef 33 6e be 3a 56 49 be
       0.15731452 -0.19381967 -0.23261999 -0.19661799
0001e0 56 14 74 bd e7 93 d5 bd 1e 8f cc bc 57 47 26 bc
       -0.059589706 -0.10428601 -0.024970587 -0.010148845
0001f0 af c8 6d 3d 69 a5 12 3d 99 30 e9 bd e1 79 f0 3d
       0.058052715 0.03580228 -0.113862224 0.117419966
000200 b6 0d a3 3d 8f 3d c5 3d 33 96 50 3a 12 d8 e2 bd
       0.079615995 0.09630882 0.0007956952 -0.110763684
000210 15 39 a3 bd 41 2d c1 3d b5 a8 17 bd f5 bf 63 bd
       -0.07969872 0.094324596 -0.037026126 -0.055602986
000220 df 64 05 be af d7 9b bd 0d 97 2c bd 3f 3c a7 bb
       -0.1302676 -0.07609498 -0.04213624 -0.0051036174
000230 12 08 9e 3b c2 76 5a 3d 8d 41 2c bd 67 62 d7 bc
       0.0048227394 0.053335913 -0.0420547 -0.02629204
000240 f5 e2 61 bc 3a 5e ee 3b ac a4 11 be b3 6d 90 bb
       -0.013787021 0.0072744163 -0.14222974 -0.0044076084
000250 4c 3c 23 3d 3b b5 96 3c ff 53 d0 3d e3 07 e8 3b
       0.039852425 0.018396964 0.10172271 0.0070810183
000260 96 48 69 bc 8c 4d 18 3c bd 9b 94 bc 58 c3 5b 3d
       -0.014238497 0.009295832 -0.018140668 0.05365309
000270 0d 89 c9 3d 27 3a f0 3d cf 1c c0 bd 7d a4 ba bd
       0.098405935 0.11729842 -0.09380495 -0.09113405
000280 ce 6b 2c bd e1 58 16 3e 5d 3e 81 bd ba fa b6 bc
       -0.042094998 0.14682342 -0.06310723 -0.022336353
000290 eb b7 93 3d 6c b9 fe 3c 89 e4 92 bd 6a 52 ed 3d
       0.07212814 0.031094275 -0.07172496 0.11587985
0002a0 71 bc 12 bd 6f 35 7f 3d 5b 60 f6 3d 4d f4 9a bc
       -0.035824243 0.062306818 0.12030097 -0.01891532
0002b0 0c 63 d4 3c c2 db 89 bc 6a 4b d6 bd 1a c9 d5 3c
       0.025926135 -0.016828422 -0.10463603 0.02609687
0002c0 d6 f4 cf 3d e0 90 8f 3d 93 6c 14 3e 41 f6 df bd
       0.101541206 0.070100546 0.14494543 -0.10935641
0002d0 90 ef 8c bd 11 b5 4b bd 2c c9 bb 3d 4f 07 ab bd
       -0.068816304 -0.049733225 0.0916923 -0.083510034
0002e0 16 55 7f bd 60 1f f9 3c 53 dd e2 bd ff 39 8a 3d
       -0.062337004 0.030410469 -0.110773705 0.06749343
0002f0 eb b1 36 bc 0d a1 a4 3d e1 2a 9a 3d b0 b5 5b 3d
       -0.011150817 0.080385305 0.0752771 0.053640068
000300 63 90 eb 3d 24 25 d0 be 45 3e 8e 3e a8 b3 e3 3d
       0.11502149 -0.40653336 0.27781883 0.11118251
000310 62 b1 48 be a0 29 20 3e d9 79 c9 3c 59 32 7c be
       -0.19598916 0.15640879 0.024594234 -0.24628581
000320 c5 be ac 3e 68 38 ac 3d f8 9a 38 3f 1b 41 51 be
       0.33739296 0.08409196 0.72111464 -0.20434992
000330 94 ef 9c 3c b1 c7 93 be 40 c5 92 3c 3a 66 62 3d
       0.019157209 -0.2886329 0.017916322 0.055273272
000340 73 33 25 3d 80 16 db 3d 71 17 2f 3c 6a ea d0 3e
       0.04033227 0.10697651 0.010686741 0.40803844
000350 d5 5d c3 3e b0 a2 2e 3f 76 9b 94 3e 94 2e a6 3e
       0.38157526 0.6821699 0.29024857 0.3245741
000360 51 9c da 3e fd dd 53 3e ee 2b a4 be 5b 25 13 be
       0.42697385 0.2069015 -0.32064766 -0.14369719
000370 73 1b d1 3d fd 3b d0 bd 62 0e b1 bc 29 cc 8a 3c
       0.10210314 -0.10167692 -0.021613304 0.016943054
000380 da 7a 21 be 7a f1 15 3f 6b e8 02 3e 9c a1 f7 bd
       -0.1576952 0.5857159 0.12783973 -0.120913714
000390 42 52 0a be fa 45 06 bd 54 3b 25 3f ca 72 89 be
       -0.13507941 -0.03278158 0.6454365 -0.2684539
0003a0 ab 1c 8b bd 1d 63 48 bd a3 71 c9 3d 1e c3 46 be
       -0.06792577 -0.048922647 0.098361276 -0.19410369
0003b0 c9 c3 8e 3e 7a 00 0a 3d 87 88 6e 3d 3a b9 9d bd
       0.27883747 0.03369186 0.05823567 -0.07701345
0003c0 c1 92 ce 3e 3d 9b 8d 3d 1a f3 f7 39 6b 43 9c 3e
       0.4034634 0.06914375 0.00047292636 0.30520186
0003d0 d2 aa c4 3e 8a 25 aa bc b4 48 d9 bd 23 48 88 bd
       0.38411576 -0.020769853 -0.1060957 -0.06654384
0003e0 89 e6 63 3e a5 a0 16 3e 51 c5 ba bd 9a 3f 95 3e
       0.22255911 0.14709719 -0.09119666 0.29150087
0003f0 9c da ab 3e a9 82 25 bd a7 3f 4b bd 2b be 1e 3e
       0.33565223 -0.04040781 -0.04962125 0.15502231

encoder.message_net.1.0.bias f4 [64]
000000 bd 1c 2b be 82 86 c3 bd b3 64 0b be 2d 56 2e be
       -0.16710182 -0.0954714 -0.13612632 -0.17025061
000010 69 27 9a 3d b1 a5 2a bd c6 d9 24 be fb b1 d9 bd
       0.07527048 -0.041661922 -0.16098699 -0.1062965
000020 5e 0c 2e be 1d b7 a2 3d 90 7b dc bd 18 5f 0d bd
       -0.16996905 0.07945082 -0.10765755 -0.034514517
000030 d5 49 20 be ed 62 d9 3c 28 a9 36 bd 6d 5e f8 bd
       -0.15653165 0.02653643 -0.044594914 -0.12127385
000040 c7 ca 18 be 83 1b ae bd 4f 35 23 be 24 bb fd bd
       -0.14921103 -0.08501341 -0.15938304 -0.1238921
000050 89 04 e5 bd 13 01 41 be 35 b1 29 3d b8 f6 29 3d
       -0.11182506 -0.18848066 0.041428763 0.041495055
000060 12 1f 8a bd 36 27 c3 bd 20 8d 90 3c a9 33 18 be
       -0.067442074 -0.09528963 0.017645419 -0.14863457
000070 f0 a8 f7 bd e6 39 c5 bd 09 a2 2f bd fb b9 fe bb
       -0.12092769 -0.09630184 -0.04287914 -0.0077736354
000080 7d e9 13 be f0 42 44 bd a5 d8 f4 bd 76 8f 04 be
       -0.14444537 -0.0479154 -0.11955384 -0.12945351
000090 3b 5e 44 bd 1a 19 93 bd 45 73 da bc a9 dd 2e be
       -0.047941428 -0.07182522 -0.026666293 -0.17076744
0000a0 c7 c0 09 be 2b 6f 8b bc d3 e6 e6 bd 32 53 82 bb
       -0.13452445 -0.017020782 -0.11274495 -0.003977203
0000b0 d0 d5 15 bd b4 a7 1e bd 47 a4 39 3e 78 c1 2d be
       -0.03658086 -0.038734153 0.18129073 -0.16968334
0000c0 35 74 f5 bd 39 08 4c be bf 8a 80 bd 76 aa c1 bd
       -0.11985055 -0.19925012 -0.06276464 -0.09456341
0000d0 7e 43 a1 bd f3 56 55 bd ff 85 c8 bd 23 50 14 be
       -0.07874201 -0.052084874 -0.09791183 -0.14483695
0000e0 2c 94 93 bd d1 79 cf bc 36 26 28 be 4c f3 76 bd
       -0.07205996 -0.025326641 -0.16420826 -0.06029062
0000f0 2c d8 0e be 58 e6 13 3d 12 dc c1 bd 3e 84 24 bd
       -0.1394965 0.036108345 -0.09465803 -0.04016518

encoder.message_net.2.0.weight f4 [64, 64]
000000 b6 f7 50 3e 81 2e 6c 3e b5 b1 8f be a9 c0 9a 3d
       0.20406994 0.23064615 -0.28065267 0.07556278
000010 3e 80 d4 bd 8b ab 83 be 14 b1 93 3e 17 4a 9a bc
       -0.10376023 -0.25716814 0.28846037 -0.018834157
000020 c3 9f fd bd b5 a4 c1 be 6b 6a 57 be e7 9c ff bd
       -0.12383988 -0.37820974 -0.21036689 -0.124810986
000030 b6 c6 2c be 81 9d 94 3e 71 02 1e bf d2 d4 99 3e
       -0.16872677 0.29026416 -0.61722475 0.30045182
000040 e3 5a 39 be f1 85 77 3d 50 2f a7 be 19 32 a6 3e
       -0.18101077 0.06043047 -0.32653284 0.32460096
000050 fa 5d ba be 43 ed cb bd 47 52 76 bd a7 c1 2e bf
       -0.36399823 -0.099573635 -0.06013706 -0.6826424
000060 8b 09 b8 3d 41 46 21 3e 45 b4 81 3e ad f1 82 bd
       0.08986195 0.15749456 0.25332847 -0.06393752
000070 07 29 5a be a9 0e 42 3d 3a 03 68 3e b2 83 95 bc
       -0.21304713 0.047377262 0.22657481 -0.018251274
000080 a4 c5 96 3e 40 bb d2 bd d8 41 17 3d da ca 20 bd
       0.29447663 -0.10289621 0.036928028 -0.039255954
000090 5e 33 80 be a7 9e ac be 34 91 c2 bd f6 fe a1 bd
       -0.2503919 -0.33714792 -0.095003515 -0.07909958
0000a0 27 9a 81 be 42 c0 b3 be 18 79 46 3e 88 82 15 3c
       -0.2531292 -0.3510762 0.19382131 0.009125359
0000b0 1d 09 47 be 98 c4 db bc a7 7c f8 3e 5d aa 94 be
       -0.1943707 -0.026827142 0.48532602 -0.29036227
0000c0 34 26 ee 3e d1 2e c0 bd cc a0 2b bf 2e eb a8 3e
       0.46513522 -0.093839295 -0.6704223 0.32991928
0000d0 ae 5d 0e be 9b f9 cc bc 00 60 31 3c ee a0 8d 3c
       -0.13902923 -0.025021365 0.010826111 0.017288651
0000e0 1b 8f 35 be 48 e6 4a be 63 b0 8a bd 29 06 f2 bc
       -0.17730372 -0.19814408 -0.06771924 -0.029543953
0000f0 a4 31 5a bc c6 a9 f2 bd f5 a2 3d bf dd 55 50 3d
       -0.013317499 -0.11848788 -0.7407678 0.050863136
000100 5e 1c 12 3e 7d 9d 29 3d 0c 46 e7 bd 0e 6f 06 be
       0.14268634 0.04140996 -0.11292657 -0.13128302
000110 cd 39 0c be 02 53 1a be 0f 5b a0 3e 02 f0 4e 3d
       -0.13693924 -0.15070727 0.31319472 0.050521858
000120 44 a0 b3 be ce 75 cf be 88 ae a1 bd 49 6b 61 be
       -0.3508321 -0.40519565 -0.07894617 -0.22013582
000130 82 46 28 be 25 ab fa 3c c9 70 f5 be 90 2c eb 3e
       -0.16433147 0.030599186 -0.4793761 0.45932436
000140 84 4f 31 bd 75 10 de 3c 3a 7d 57 be d5 94 cd 3d
       -0.043288723 0.027107457 -0.21043864 0.10038153
000150 df f5 17 be f9 e3 41 3d 8b a3 a1 3d 35 a9 8d be
       -0.14839886 0.047336552 0.078925215 -0.27668157
000160 0c ba 4d be d9 1b a8 39 84 94 1f 3e 92 1d 35 3c
       -0.20090503 0.00032064205 0.15583998 0.011054413
000170 fb 0f 11 be 96 7b 84 3d cc a9 7d 3b 72 b9 06 be
       -0.14166252 0.06468885 0.0038705943 -0.1315668
000180 0b 2a c6 3e 70 f0 87 be bb 19 c9 3d 80 53 0e 3e
       0.3870395 -0.26550627 0.09819361 0.1389904
000190 7d b0 7a be 50 50 18 bd 32 ad 36 3c 2e 3a 99 bd
       -0.24481387 -0.037185967 0.011149691 -0.074818
0001a0 4d 38 17 3e 6a da 46 3d c7 9b a2 3e 94 48 fd bd
       0.14767571 0.04854814 0.31759474 -0.12367359
0001b0 86 e8 ba be bc c3 09 bf d1 48 ab 3e 08 b9 0f be
       -0.36505526 -0.5381429 0.33453992 -0.14035428
0001c0 b8 c2 a5 3e 9c 81 f8 bc da f4 57 bf fc f9 da 3d
       0.3237512 -0.03033524 -0.8435799 0.10692212
0001d0 47 a8 0d bd 13 4e 8b bc 64 f3 01 3d 09 f6 f7 3d
       -0.03458431 -0.017005002 0.031726256 0.12107474
0001e0 9d e1 80 be 8c e7 03 bf bb e3 3e 3d ab f1 a6 3b
       -0.2517213 -0.5152519 0.0466039 0.005094727
0001f0 56 95 7d bd 90 9b 85 be 2f 22 23 bf ff d1 71 be
       -0.061909996 -0.26095247 -0.63724035 -0.23615263
000200 0f d9 b0 b8 49 75 9d bc ae 79 7d bd 9a 80 67 3d
       -8.432764e-05 -0.019220965 -0.06188362 0.05651913
000210 8f 1e 16 be b7 ad c3 bd ab 42 ee bd 01 e8 94 bd
       -0.14660095 -0.09554618 -0.1163381 -0.07270814
000220 76 1d 4f bd d7 83 46 be 05 74 4a bc 2a e2 fe 3d
       -0.050565206 -0.1938623 -0.012356763 0.12445481
000230 5f 6d 23 bd 40 f3 ef 3c 75 e8 f6 bd 3d 23 41 3e
       -0.039899226 0.029290795 -0.120560564 0.18861099
000240 4f f4 97 bd b6 72 f1 bc 78 22 2e bd 4a dc 33 3d
       -0.07419645 -0.029473644 -0.04251334 0.043911256
000250 75 7f 83 3d cf b5 3a 3e ef 25 0d bc 15 f9 d3 bd
       0.06420795 0.18233417 -0.008615001 -0.10350243
000260 7e 88 e6 bc 31 1f 3d 3e 10 19 8d 3d 73 99 d7 3d
       -0.028141256 0.1846893 0.06889546 0.10527315
000270 5e 1b 09 3e 7e 71 c3 3d 8d 6a b0 bd 40 8e f7 3b
       0.13389346 0.09543131 -0.08614073 0.0075547993
000280 e2 2a 10 3e 45 55 54 3d cb 3c 86 bd 7c 1a 1f be
       0.14078858 0.05183913 -0.06554564 -0.15537447
000290 70 8a 28 be cc f1 ef bc 6c dd b1 3d d0 b2 28 be
       -0.1645906 -0.029290102 0.08684811 -0.16474462
0002a0 9d 8e b8 3d 17 46 22 be 12 4f a1 bd 0b 84 83 be
       0.09011576 -0.1584705 -0.078764096 -0.25686678
0002b0 d4 e5 ce bc 42 ed 31 3d ae 7b bf 3d 21 f1 36 be
       -0.025256075 0.043439157 0.09349762 -0.17865421
0002c0 2a b7 67 3e 39 96 34 be 71 27 84 3c a0 95 ce bb
       0.22628465 -0.1763543 0.016132088 -0.006304458
0002d0 ca 73 0c 3c b1 9e 52 3d 0c da f6 bd 98 fd 5d be
       0.008572528 0.05142087 -0.12053308 -0.2167877
0002e0 be be 50 3d 83 50 11 bd ef 2a 59 be ca d8 ef 3d
       0.050963156 -0.035477173 -0.21207784 0.11711271
0002f0 61 1b 34 3d f3 e4 23 bd 38 10 10 bd 1f 65 44 be
       0.043971423 -0.040013265 -0.035171717 -0.191792
000300 36 42 6d 3e 08 bf 87 be d6 90 cc bd 3c f1 90 bd
       0.23169789 -0.26512933 -0.09988563 -0.07077262
000310 05 0b 51 3d 04 e5 8a be 34 bf 6d be 7a 6d e5 bd
       0.0510359 -0.2712785 -0.2321747 -0.112025216
000320 75 0e f3 bd 52 a1 b3 bc 1e 8e 81 3a a7 a2 e3 3e
       -0.11867992 -0.02192751 0.0009884273 0.4446003
000330 0d 47 8a 3e 31 5c 3e 3d 30 2b 99 bd af 5b 65 be
       0.27007332 0.04647464 -0.074789405 -0.22398256
000340 dc 57 0d 3e 22 fd 88 3d 55 1c c7 bc ae 8a 08 3a
       0.13803047 0.06688906 -0.024305502 0.0005208653
000350 1d 58 63 3e 65 20 5d 3e c4 6a 10 3e 84 66 7e bd
       0.22201581 0.21594389 0.14103228 -0.062109485
000360 93 b3 2e bd fb 42 6a 3d 5c 4f 4f 3d 40 59 ca 3c
       -0.042651724 0.057192784 0.050612792 0.02470076
000370 12 6d be bd 4e 55 22 bd 75 f2 01 be 21 b0 7d 3e
       -0.09298147 -0.039632134 -0.12690146 0.24774219
000380 f0 8d 23 be 98 27 43 3e b6 77 b5 bd c9 24 75 3d
       -0.15972114 0.19058073 -0.08860724 0.059849534
000390 3c 9d 94 3e ea 28 d4 bd d2 f7 a5 bd c6 b1 78 3e
       0.2902621 -0.10359366 -0.081039086 0.24286565
0003a0 0e d3 0c be 3e 67 25 3e 4a 0d db be 55 21 0d bd
       -0.13752386 0.16152665 -0.42783576 -0.034455616
0003b0 27 10 ad 3d cd 0c bf bc 15 7a 3a be e9 2c d4 bc
       0.084503464 -0.023321534 -0.18210633 -0.025900321
0003c0 dd 32 f9 3c 97 17 7b be 2c 66 59 3e 6a 32 7f 3d
       0.030419761 -0.24520718 0.21230382 0.062303938
0003d0 f6 a9 43 be fd 35 90 3d 0f cd ab bd 39 cb e7 bb
       -0.19107804 0.070415474 -0.08388721 -0.0070737866
0003e0 b0 8b 91 3e bf 61 69 3e a3 eb 51 be 98 50 5c 3d
       0.28426886 0.22791193 -0.20500045 0.053787798
0003f0 75 19 0c be 5a a3 2a 3e fc f8 9f 3e 0c 62 44 3e
       -0.13681586 0.16663876 0.31244648 0.19178027

encoder.message_net.2.0.bias f4 [64]
000000 f1 aa 83 bc 17 21 16 3e 29 b0 2c be eb 80 df bd
       -0.016072722 0.1466106 -0.16864075 -0.10913261
000010 81 ad 53 be d9 22 18 3e 0c 5d 4e be 30 d7 1b 3e
       -0.20671655 0.14857043 -0.20152682 0.15218806
000020 80 f9 1f be 33 fb 5c bd 47 6d 99 bc 64 3b 97 3d
       -0.1562252 -0.0539505 -0.018728865 0.07384375
000030 b0 48 e8 3d 7d 4c 39 be 1d 3c 06 3e 15 8d 0c be
       0.11341989 -0.18095584 0.13108869 -0.13725694
000040 ba 1c eb 3d 82 17 55 bc 8d fd 42 3d 88 5f b7 bd
       0.114800885 -0.013006093 0.047605086 -0.08953768
000050 ce a6 33 be 7a d0 c0 3d a0 26 1e be 9c d5 24 be
       -0.175441 0.09414764 -0.15444422 -0.1609711
000060 4c 22 a8 bd 3a 46 23 be e3 6b 12 3d 3b 10 6d bb
       -0.082096666 -0.15944758 0.03574742 -0.0036173004
000070 d2 ed 99 3c c8 ce 84 3d 27 58 f3 bd 7f 12 c7 bd
       0.01879016 0.06484753 -0.11882048 -0.09720325
000080 c0 b4 b9 bd 13 e0 09 be 9d 5d 17 3d 3b 55 80 bd
       -0.090676785 -0.13464384 0.03695451 -0.062662564
000090 38 6d 07 3e 5f a0 30 be 73 02 2f 3d 83 52 16 be
       0.13225257 -0.17248677 0.042726945 -0.14679913
0000a0 fd 22 ac 3d 04 39 c0 bc 3a b7 2e bc 55 20 09 be
       0.08405111 -0.023464687 -0.010663802 -0.1339124
0000b0 fb 67 04 be 73 7e 9a 3d 2f e9 34 be ae 3d 44 be
       -0.1293029 0.075436495 -0.17667077 -0.19164154
0000c0 44 6d c4 bd 86 f3 39 3e 44 10 19 bc 42 72 04 be
       -0.09591153 0.18159303 -0.009342257 -0.12934211
0000d0 5a 05 2a 3e 33 62 1f 3e d4 b9 eb 3d e0 48 3e be
       0.16603604 0.15564804 0.11510053 -0.18582487
0000e0 ec fa f8 bd 43 c8 d9 bd c1 ad 95 3d 68 5a 04 3e
       -0.121572345 -0.106339 0.073085316 0.12925112
0000f0 c9 17 b5 3d 8d 50 1b ba b2 9d 08 3e fb b4 c0 3d
       0.08842427 -0.0005924784 0.13341406 0.09409519

encoder.gru.weight_ih f4 [192, 64]
000000 57 7b 12 3e 39 b7 8f 3e a0 2e be be af e8 18 bf
       0.14304863 0.28069475 -0.37144947 -0.59730047
000010 c5 59 06 be ec 04 5a 3e 0d e4 e6 bb b2 1d d4 3e
       -0.13120182 0.2129094 -0.0070462287 0.41428906
000020 f3 6f 66 be 67 a3 1a 3e c9 85 85 bd 2e 3d 96 3e
       -0.22503643 0.15101396 -0.06519658 0.2934355
000030 ac a1 28 3d 36 e3 1a bf 06 d2 dd 3e 5a 94 81 be
       0.041169807 -0.60502946 0.43324298 -0.25308496
000040 cc 5f 5f 3e 86 9f 48 3e 10 4d ba be 38 45 52 3d
       0.21813887 0.19592103 -0.3638692 0.051335543
000050 6b 63 95 be c7 29 90 be 12 d9 2e 3d 57 79 c0 be
       -0.29177412 -0.28156874 0.042687483 -0.37592575
000060 70 69 5e be 17 d8 27 3e d3 73 57 3d a2 3d ab bb
       -0.21719909 0.16391025 0.052600693 -0.005225853
000070 2b 01 35 be e6 d2 42 3e 2c 90 62 bd 6a be 26 be
       -0.17676227 0.19025764 -0.055313274 -0.16283575
000080 a6 d7 17 bc d6 35 18 3e 53 d0 67 3e 77 9d d0 3e
       -0.009267723 0.14864287 0.22638063 0.40745136
000090 8d 62 75 3e da 6c 0a bf 54 42 8d 3d aa 25 4d be
       0.23963375 -0.54072344 0.06897417 -0.20033899
0000a0 1c ad 7a 3e 6a 01 f0 bc 87 03 ab bd 85 28 1d bf
       0.24480098 -0.02929755 -0.08350282 -0.6138995
0000b0 e4 ea b1 3d 93 33 88 be 5a c4 0d bd 7c c3 fb be
       0.0868738 -0.26601848 -0.034611084 -0.4917258
0000c0 1d ee 41 3d ce 6b af 3d e0 5d a8 3d 36 2a 9d be
       0.047346223 0.08565484 0.0822103 -0.30696267
0000d0 93 5e 0e 3e 0f 06 50 3e 6c 1b 28 3e 79 9b 08 bd
       0.13903265 0.20314811 0.1641671 -0.033351395
0000e0 96 2b 0f be cb 19 a0 be ef ec 25 3f 18 2e 7a 3e
       -0.1398147 -0.31269678 0.64814657 0.24431646
0000f0 d0 e7 0d be b6 89 52 3e a9 4a 2c 3e 09 a1 29 3f
       -0.1385796 0.20560345 0.16825356 0.66261345
000100 38 0e 7d 3d 10 94 b9 bd 17 9d a1 be 52 5b be 3c
       0.06178114 -0.09061444 -0.31565163 0.023236904
000110 ed fb 07 bd d7 26 ac be b2 39 2e be cc 95 30 be
       -0.03319924 -0.33623382 -0.17014197 -0.17244643
000120 4c 8d dd bd fd dc bd be 39 6d ce bd 03 91 ad 3c
       -0.10817966 -0.37082663 -0.10079426 0.021187311
000130 75 64 36 bf 41 27 bc be 4c b5 3a bd 45 57 c5 be
       -0.71247035 -0.36748698 -0.045583054 -0.38543144
000140 6f d8 be be 6c 87 70 be 2c ef ac bd 56 9a c0 3d
       -0.372745 -0.2348916 -0.08444056 0.09404437
000150 df 59 81 be 9c 8b 63 3c e9 b7 c2 be b0 4d 72 be
       -0.2526388 0.013888266 -0.38030937 -0.23662448
000160 1b b5 09 be 77 2a c5 bd 45 81 8e be 33 19 43 bd
       -0.13447993 -0.0962724 -0.27833 -0.047631454
000170 b6 89 84 3e a9 ac db 3d 7f 86 bc 3c 0b e8 b1 be
       0.25886315 0.10726292 0.023013351 -0.34747347
000180 b2 e0 b8 3c 8d cf c9 be 2c 2e cb 3d c3 0f e5 bd
       0.02256808 -0.3941616 0.09920916 -0.11184647
000190 a6 63 ce 3b cc 7b 04 be cd 7c 9f bd d8 eb b9 be
       0.0062985 -0.1293785 -0.07787476 -0.36312747
0001a0 45 22 07 3c 22 be 1d bd 32 7d 4e bd 4d c1 18 be
       0.008247917 -0.038511403 -0.050412364 -0.14917488
0001b0 ea 8b 25 bf 98 c9 38 bf 6e 6a b6 be 0c 76 ed be
       -0.64666617 -0.7218261 -0.35628074 -0.46379125
0001c0 75 be 27 be a8 4d 96 3d 0d 37 cc bb f7 92 57 be
       -0.16381247 0.073390305 -0.0062321485 -0.21052156
0001d0 88 fa 65 3e d9 b9 ad bd c5 e6 a2 be 5d 97 b1 3d
       0.22458851 -0.08482713 -0.31816688 0.086714484
0001e0 3c 20 b6 be a9 f5 84 bd 69 34 97 be 3f 65 2d bd
       -0.35571468 -0.064921685 -0.29532173 -0.042332884
0001f0 75 4a 36 3e 28 d9 da 3d 6d 40 e5 3d 4a 6b ad be
       0.1780184 0.106859505 0.11193929 -0.33870918
000200 c9 44 9c 3e 95 b2 48 be 60 16 9d 3e 62 ad 57 3d
       0.3052123 -0.19599374 0.30681133 0.052655585
000210 ef 5c b6 3d 3e a4 04 bd a2 47 1c be a4 26 df bd
       0.089044444 -0.032383196 -0.15261701 -0.10896042
000220 1e 97 33 3d 6b ef 55 3e de 49 83 be ae 70 7e 3d
       0.04384529 0.20892112 -0.25642294 0.06211918
000230 46 7f ae bd b3 1e 9e be 2d 79 87 bd dc 49 95 be
       -0.08520369 -0.30882797 -0.06614909 -0.29157913
000240 71 20 99 3e 44 f6 02 be c9 0e 07 3e a8 67 f6 bd
       0.29907563 -0.12789255 0.13189234 -0.120314896
000250 21 52 6a 3d 87 a7 e4 bd 77 58 02 3e 23 15 c2 3e
       0.05720723 -0.11164766 0.12729059 0.3790675
000260 f6 e2 0e 3d 4c 43 16 3d d1 b8 88 3e 69 d3 a1 be
       0.034884416 0.036685273 0.26703504 -0.31606606
000270 79 68 ff be 40 77 07 3e f0 99 e5 bd 9d b9 b0 bd
       -0.49884394 0.13229084 -0.11211002 -0.08629153
000280 ef e5 af be 43 68 88 3e 64 3d c0 be da 7f 43 3e
       -0.34355113 0.26642045 -0.37546837 0.1909174
000290 fb df 63 be 0d f0 d2 be 23 3f 26 be ea e1 65 be
       -0.2225341 -0.4119877 -0.16235022 -0.2244946
0002a0 f9 79 a2 3c 94 0a 5e be 60 3f 63 be 43 1b cf be
       0.019833552 -0.21683723 -0.22192144 -0.40450487
0002b0 f9 49 de 3e d7 b9 46 be 63 2c 0f 3e 6c 59 c5 bd
       0.43415812 -0.1940683 0.13981776 -0.096361965
0002c0 97 5c be 3d fd 4f e2 bc 1e 4e 9f be a7 92 a5 be
       0.09295004 -0.027626032 -0.31114286 -0.3233845
0002d0 f3 e7 a6 3b 79 2e 98 be c7 b1 be 3b fc c6 0a bd
       0.0050935685 -0.29722956 0.0058195326 -0.033881173
0002e0 ec c6 99 be 19 d8 c5 3d f2 a3 81 bd e4 58 d2 3d
       -0.30034578 0.09660358 -0.06330098 0.10270861
0002f0 b0 9f b3 be 34 f4 7c bd 8c e1 dd be fd 51 03 be
       -0.3508277 -0.061756328 -0.4333614 -0.12824245
000300 f0 a7 6e bd 3d 32 aa 3d 4e 7b 1a be 22 28 4a 3e
       -0.058265626 0.083103634 -0.150861 0.19741872
000310 92 4d da bc 47 67 8b be 7e e3 b3 be d9 5e a8 bd
       -0.026648317 -0.27227232 -0.351345 -0.08221216
000320 7a 3b a2 bd 7a 2e 10 be 6e 1b 0b 3e 11 d9 f2 bd
       -0.079215005 -0.1408023 0.13584682 -0.118578084
000330 e5 8b 40 bd eb b0 b7 be ba 8c e9 3d 99 7e 81 be
       -0.047008414 -0.35877165 0.114037946 -0.252919
000340 58 91 91 bd 14 37 31 be 21 f1 04 be fd a2 e7 3d
       -0.071078 -0.17306167 -0.12982608 0.113103844
000350 4c a0 f6 3c e8 de 13 3f 53 cf a4 be ef d2 8c be
       0.030105732 0.57762 -0.32189426 -0.2750468
000360 db 09 9f be ab ab d7 bc 67 c5 be be 0e 7c 71 be
       -0.31062207 -0.026326975 -0.3725998 -0.2358248
000370 31 b6 8f be 97 10 c4 3d 06 f0 0e be 22 50 fb be
       -0.2806869 0.09573477 -0.13958749 -0.49084574
000380 c8 b9 eb bd 42 ca 3d 3d f2 d8 73 be a5 38 c7 bd
       -0.11510044 0.046335466 -0.23813227 -0.09727601
000390 a1 fd 85 3e be 97 44 be 59 f9 db bd c9 2c 52 be
       0.26170066 -0.1919851 -0.10740919 -0.20524897
0003a0 44 1a 39 be 2e d0 71 be 02 b6 60 bd 19 c4 ff be
       -0.18076426 -0.2361457 -0.054861076 -0.49954298
0003b0 a3 33 86 be b7 22 97 be 3d 9b 85 be 56 6d ca be
       -0.2621127 -0.29518673 -0.26095 -0.39536542
0003c0 c1 7b 51 be d0 6a a0 3e 0d 56 24 be 8d 59 8b be
       -0.20457365 0.3133149 -0.16048451 -0.2721676
0003d0 65 e8 82 3e fc 2b b7 3e 05 ab a0 3e 83 80 3e bd
       0.25567928 0.35775745 0.31380478 -0.046509277
0003e0 82 12 fe bd bf 05 3b be 7f ff fd bc 2c 36 aa 3e
       -0.12405874 -0.1826391 -0.03100562 0.33244455
0003f0 db 15 21 3f 97 4e 5e 3e ec 22 cd 3d 80 db d5 3d
       0.62923974 0.21709667 0.100164264 0.10442257

encoder.gru.weight_hh f4 [192, 64]
000000 ef de 6d be 95 33 29 3f 7a 33 5b be 22 99 11 bf
       -0.23229574 0.6609433 -0.21406356 -0.5687429
000010 20 5f 57 3e f3 3d c3 3d 98 c7 b3 3d 5f 3b 13 3f
       0.21032381 0.095333 0.08778304 0.5751247
000020 ec e7 7e be 3c e8 15 be 43 85 c2 be a3 c4 53 be
       -0.24893159 -0.14639372 -0.37992296 -0.2068048
000030 8c 9a 78 3e f3 c4 98 3e c2 36 ed 3e fa d0 c7 bd
       0.24277705 0.2983776 0.4633084 -0.09756656
000040 8f 04 aa be 71 60 8a 3d 33 ff 28 bf c5 32 6e bf
       -0.33206603 0.06756676 -0.66014403 -0.9304622
000050 9a e9 74 bf 4f 1a 36 bf 50 c3 c7 bd c8 7c c2 bc
       -0.9566895 -0.71133894 -0.0975405 -0.023741141
000060 0c d0 ef 3c 9c d7 89 3d 68 a1 6c 3f 50 08 d9 3d
       0.02927401 0.06730577 0.92433786 0.105972886
000070 c2 92 1b 3e fb 74 e4 3d f5 12 a5 3d e2 1b 5a bd
       0.15192702 0.11155125 0.080602564 -0.053249247
000080 ef 7d 86 3d 69 fb b2 bd b3 14 86 be 81 23 6b bc
       0.06566989 -0.08739359 -0.26187667 -0.0143517265
000090 6b 10 4a be 81 23 12 3f 38 1a 54 be 97 7f be be
       -0.19732825 0.57085425 -0.20713127 -0.37206718
0000a0 11 02 0d be 1e e7 70 be 1a 43 3c be 92 89 0f 3e
       -0.1377032 -0.23525664 -0.18384972 0.14017323
0000b0 7f 54 9f 3d 67 a3 77 bc 73 eb f6 be 93 b8 eb be
       0.07779788 -0.015114642 -0.48226508 -0.46039256
0000c0 6f 88 4f bf 03 47 21 bf 0a 0f 53 3f 5a e0 38 bf
       -0.81067556 -0.6299898 0.8244482 -0.72217333
0000d0 13 4f 49 3d 7b 95 3c bc e8 38 8d 3d ea b8 a5 bd
       0.049147677 -0.011510248 0.0689562 -0.0809191
0000e0 ae 83 c4 be e0 27 3d 3e 0d c5 a1 3e cc 8e e2 bd
       -0.38381714 0.18472242 0.3159565 -0.110623926
0000f0 23 63 25 bf 78 82 3e be 37 68 3f 3e a6 ac 9d bd
       -0.64604396 -0.18604457 0.18692099 -0.07698946
000100 e6 72 0a bf 55 32 5b bd ec 1e d2 be 31 5c b6 3e
       -0.5408157 -0.053514797 -0.41039217 0.3561721
000110 30 2c 41 3d 95 34 c7 3d d0 6a 53 3b ef e7 83 3e
       0.04716128 0.09726826 0.003225971 0.2576289
000120 aa f5 d0 3d 5c 84 54 be c7 7b 41 3e 3b 9b 47 3e
       0.10203107 -0.20753616 0.18894874 0.1949281
000130 c5 38 b0 be 6e 42 b2 be 59 32 c0 3e fd f9 d7 3e
       -0.34418312 -0.34816307 0.37538412 0.42182913
000140 37 2d db 3e 37 f5 93 be 31 43 e5 3e a3 2e d2 3e
       0.42807934 -0.28898022 0.44777825 0.41051206
000150 d4 62 43 3e 6e 72 02 3f 4b 7d e3 3e 0a 4b 5e 3e
       0.19080669 0.50955856 0.44431528 0.21708313
000160 ab 27 8f 3e b7 24 be bd 4f 48 33 3e d0 55 db 3e
       0.27959952 -0.092843466 0.17508052 0.42838907
000170 38 ab fc bd d8 34 85 bd 32 2f d1 3e c7 4b 8f 3e
       -0.12337345 -0.0650422 0.4085632 0.279875
000180 9c ff 2d 3e 24 02 8f 3e a6 ce f0 bd 03 56 1f 3e
       0.16992038 0.2793132 -0.11758165 0.15560155
000190 d3 42 6b 3e 04 da 3c bf ff 7b c7 3e fe 1f 28 bd
       0.2297471 -0.73770165 0.3896179 -0.041046135
0001a0 93 b4 7e 3e 91 11 a1 3e a9 8d b9 3e 16 c6 cb 3e
       0.24873571 0.31458715 0.3624089 0.39799565
0001b0 10 24 6e 3d 0b 1d bf 3d 0c e9 09 3e 39 08 12 bf
       0.05813986 0.093317114 0.13467807 -0.57043797
0001c0 ae 90 3a 3e da d5 25 be f8 2a 17 3f b2 dc bf 3e
       0.18219253 -0.16194859 0.5904994 0.37473065
0001d0 14 de ca 3e 9c 8b ad be 9f 6d a9 bc 74 18 ac 3d
       0.39622557 -0.33895576 -0.020682154 0.084031016
0001e0 cf 03 29 3f 0b 13 91 3d cc 52 2f 3f fc e2 b7 be
       0.66021436 0.0708371 0.68485713 -0.35915363
0001f0 7e 71 b9 be 84 77 b0 3e d9 5b 32 3f ae bf 60 3e
       -0.362194 0.34466183 0.696714 0.2194812
000200 42 86 50 3d 80 03 ce bd ec f7 9b bc b4 74 be 3e
       0.05090929 -0.10059261 -0.019039117 0.37198412
000210 76 93 a9 be f7 bb 87 bc ce b4 47 be 8d 74 0a be
       -0.33120316 -0.01656912 -0.19502565 -0.13521023
000220 9c b6 66 be 2f c4 4b 3c d1 f7 05 be 7f f0 eb 3e
       -0.22530597 0.0124369105 -0.13082816 0.4608192
000230 1a 01 92 3e 3e e4 e3 3d d0 31 47 3e 42 29 82 be
       0.28516465 0.11127518 0.19452596 -0.25422102
000240 2b dc a7 be 2f 8a 2f be 69 d1 a6 3d 6b 84 3c 3e
       -0.32785162 -0.17142557 0.081454106 0.18409888
000250 ad 8f e7 3e 51 fe d4 3e 65 d8 27 be f7 97 6b be
       0.45226803 0.41600278 -0.16391142 -0.23007189
000260 35 88 ba bd 71 0c b4 3b d5 37 8f be d9 90 43 bd
       -0.09108011 0.005494647 -0.27972284 -0.04774556
000270 18 20 a8 be e2 23 b2 be 96 21 77 be 9d f4 d9 3d
       -0.32836986 -0.34793 -0.24133906 0.106423594
000280 f1 7e ae be 26 15 66 3e ef c1 4f be be cc bf 3d
       -0.34081224 0.22469005 -0.20288824 0.09365223
000290 14 b4 f7 bc eb c8 72 bc 4e 9a 82 3d a4 6f 1a bd
       -0.030237235 -0.01481841 0.063770875 -0.037704125
0002a0 f7 4a 86 3e 10 7f d8 3e 49 4a af bd 89 73 d0 3d
       0.2622907 0.4228444 -0.08559091 0.101782866
0002b0 10 bf 13 3f 83 cd f0 3e f1 fa 89 3e c0 c8 e6 3d
       0.57713413 0.47031793 0.26949266 0.11268759
0002c0 7d 7b de 3e 27 ed 22 3e e6 19 ae 3d 3e 40 31 bc
       0.4345359 0.15910779 0.085010335 -0.010818539
0002d0 1a 1a 29 3e 62 64 8d 3e 9c dc 83 3e 56 2f 01 be
       0.16513863 0.27615649 0.2575425 -0.12615713
0002e0 f9 63 3a 3e e0 bb 30 3e e6 79 34 be 6c 3b 1f 3e
       0.18202199 0.17259169 -0.17624626 0.15550011
0002f0 8a 28 14 3f e6 1e a6 3e 82 69 50 3e 9d 32 b4 be
       0.5787436 0.3244545 0.20352748 -0.35194865
000300 7e a1 1a 3f 28 d6 97 3d d7 43 6b bf bb a5 10 3e
       0.6040267 0.07413894 -0.9190039 0.14125721
000310 ff 0c 09 bf 38 ae 70 bd af 76 54 3d f0 fa 80 3e
       -0.53535455 -0.058759898 0.051870998 0.2519145
000320 7b a3 03 bf c6 db e8 be bc 39 16 be 7a 94 70 3e
       -0.51421326 -0.45480174 -0.14670461 0.2349414
000330 4d 1c 21 3f 2c 4a 03 3f 78 8a d9 be 67 a3 84 be
       0.6293381 0.5128505 -0.42488456 -0.25905916
000340 bc d5 1b be 4e df d7 3e 7b 54 47 bc d3 20 8f 3e
       -0.15218252 0.42162555 -0.012166138 0.2795473
000350 b7 85 92 3e 20 c6 af 3c 31 11 15 be 10 99 bc be
       0.2861764 0.021456778 -0.14557339 -0.36835527
000360 50 b9 57 bd ad 77 c8 bd 84 63 34 be e6 e8 71 3e
       -0.052666962 -0.09788451 -0.17616087 0.23624
000370 4b 97 05 be 0a e6 0e 3f 1f 8e b0 3e d7 39 82 be
       -0.13045995 0.5581976 0.3448343 -0.25434753
000380 b2 34 c0 bd 2f 35 b4 be 82 82 0e bf 5e 85 ad bd
       -0.09385051 -0.35196826 -0.5566789 -0.084727034
000390 a4 99 97 be ee 2c 0c bf 3e 2a 8e 3c f0 47 dd bd
       -0.29609406 -0.5475606 0.017354127 -0.108047366
0003a0 36 be 38 3e 53 70 e2 3d a0 12 0b 3e 5c 1a a3 be
       0.1804131 0.110565804 0.13581324 -0.31856048
0003b0 9b c4 6f be e5 40 77 be b9 dc 99 3e 49 5b f5 be
       -0.23414843 -0.24145849 0.3005121 -0.47921208
0003c0 46 c4 96 be 75 75 85 be 7e 55 2b be 59 90 f3 3d
       -0.2944662 -0.26066175 -0.16731831 0.118927665
0003d0 97 5e 42 be aa 6c ef 3d 56 97 d6 3d d9 ee b2 bc
       -0.18981396 0.11690648 0.10478084 -0.021842407
0003e0 1a 0a ef bd 5e 2b 82 be 16 eb dd bc fa 09 89 3e
       -0.116718486 -0.25423712 -0.027089637 0.26765424
0003f0 2a f5 16 3f 05 c1 19 bf 4f 6d ab be 56 f4 a0 be
       0.5896784 -0.6006015 -0.33481833 -0.31436414
