experiments/gnn_hd64_ld32_nr3_ep500_nf5.0/model.pt (torch, 183461 bytes, 20 tensors)

encoder.input_net.0.weight f4 [64, 7]
-0.038733017 -0.32981718 -0.08415363 0.04029165 0.5617185 0.20894518 0.3093407 -0.20595498
0.13116266 0.051231425 0.10553676 -0.36627 -0.10904945 0.14834486 0.07944105 -0.18912295
0.12644911 -0.28111592 -0.045432333 0.24994916 -0.23894626 0.5322345 0.108758554 -0.37434968
0.079834476 0.43994337 -0.2245664 0.5839344 -0.34612206 -0.16505176 0.43688908 -0.15998705
0.720057 0.20077224 0.90522414 0.037420757 0.07370354 0.1993302 0.20858079 0.3271401
-0.34502375 -0.16302118 0.34154382 -0.10584838 0.31115392 -0.0582949 -0.0124457 0.19195284
0.14877406 -0.20010795 -0.2065187 0.3568261 -0.3755346 0.4038922 -0.20579502 -0.19010824
0.1921525 -0.19744577 -0.062359843 -0.1320795 -0.019602038 -0.34302083 -0.008424735 0.04475301
-0.21084473 0.1074759 -0.31697184 0.7070763 0.09252381 -0.16116808 -0.42781484 -0.37493
0.31223002 0.1391964 0.013084901 0.36004263 0.117965885 -0.34409422 0.09997275 0.20909277
0.13787562 -0.302136 0.2578222 0.4910098 -0.2280192 -0.021424748 -0.37408125 0.29128474
-0.120881446 0.45730555 -0.21542819 -0.044757437 -0.020758174 -0.3641743 -0.10463305 0.057961028
-0.13863385 0.014769075 -0.3283658 -0.31313965 -0.31493154 -0.032977037 -0.051727187 0.12877974
0.34193873 -0.046149112 0.37141448 0.23090704 0.2856895 -0.20235687 0.14468002 -0.25219208
-0.24805261 -0.2069114 0.45475495 -0.30793256 -0.055505656 0.12650573 -0.14652275 0.16840397
0.11971679 -0.109652065 -0.3214519 -0.3489758 0.18019821 0.11409226 -0.1588796 0.38947588
-0.015293528 -0.19252528 -0.33565494 0.16252007 0.28760964 0.029644456 0.07725709 0.45759043
0.3240625 0.5523417 -0.30017003 0.40369818 0.25126392 0.14965995 -0.2933239 -0.19929898
-0.2861488 -0.21854071 0.37307084 0.26821163 -0.2227 -0.023807872 -0.22949404 0.21438085
-0.077681795 0.105875954 0.2453158 -0.21713932 -0.037284836 0.013187787 -0.24351853 0.21173775
-0.2877287 0.27422512 0.102516375 -0.2163869 -0.20969619 0.17600842 0.0044845557 -0.15703222
-0.105253704 -0.2399939 -0.24893777 -0.22437814 0.21360458 -0.37541547 -0.20831795 -0.10303318
-0.2525426 -0.059519503 -0.09119841 0.20564277 -0.18973613 -0.21626805 -0.19486421 -0.3241282
-0.018219493 0.07856539 -0.36777824 -0.31853378 -0.28709355 -0.062356994 0.29600868 -0.045183472
-0.289978 0.13445346 0.0723305 -0.29294115 -0.24307653 -0.115371615 0.036742482 0.22765695
-0.18519224 0.22503215 0.31508425 0.052157626 0.47450748 0.054728568 0.20351486 -0.18369499
0.000737536 -0.05804673 -0.005124797 0.09761353 -0.3093975 0.30022734 -0.24452637 -0.081100665
-0.25496975 0.23108366 0.056412436 0.052371643 -0.07698697 0.23325807 0.048752736 0.09504849
-0.33138144 -0.265718 0.3826386 0.18097042 0.09398815 0.16231063 0.35364017 -0.20893297
-0.22910525 -0.26189125 0.058773875 0.59870535 -0.00863121 -0.018695993 -0.38353074 -0.05818384
-0.06635602 0.0063773594 0.39044747 -0.1400706 -0.36382943 0.3502659 -0.30675626 -0.3613411
-0.06069963 -0.32309663 -0.23009555 0.024761096 -0.24001887 -0.32566646 -0.008691066 -0.22447859
00000000: 83a6 1ebd ccdd a8be bd58 acbd db08 253d
00000010: c9cc 0f3f baf5 553e e761 9e3e dde5 52be
00000020: 814f 063e 0bd8 513d a823 d83d be87 bbbe
00000030: 5155 dfbd b7e7 173e fdb1 a23d 72a9 41be
00000040: e07b 013e 6dee 8fbe 4117 3abd acf2 7f3e
00000050: 54ae 74be 8540 083f cebc de3d c3aa bfbe
00000060: 4280 a33d 4240 e13e bcf4 65be ba7c 153f
00000070: e936 b1be 5403 29be edaf df3e a5d3 23be
00000080: a855 383f 3d97 4d3e c5bc 673f 8246 193d
00000090: e2f1 963d 371d 4c3e 3496 553e e87e a73e
000000a0: f4a6 b0be 06ef 26be d5de ae3e 09c7 d8bd
000000b0: 914f 9f3e a2c6 6ebd 0de9 4bbc 498f 443e
000000c0: 3a58 183e 19e9 4cbe a379 53be e9b1 b63e
000000d0: 1246 c0be f5ca ce3e eebb 52be bcab 42be
000000e0: a0c3 443e 392f 4abe 096d 7fbd d93f 07be
000000f0: 7494 a0bc 6da0 afbe e607 0abc ef4e 373d
00000100: aee7 57be 531c dc3d 224a a2be f402 353f
00000110: 207d bd3d 3f09 25be 8c0a dbbe d3f6 bfbe
00000120: 9ddc 9f3e 8089 0e3e 0d62 563c 8257 b83e
00000130: 1998 f13d 1e2d b0be 83be cc3d 6a1c 563e
00000140: 442f 0d3e 92b1 9abe 4501 843e a365 fb3e
00000150: dd7d 69be f482 afbc 9487 bfbe 4623 953e
00000160: b190 f7bd f423 ea3e 3599 5cbe 9353 37bd
00000170: 0c0d aabc 0e75 babe da49 d6bd 8b68 6d3d
00000180: 08f6 0dbe fef9 713c 901f a8be d753 a0be
00000190: b53e a1be ee12 07bd e3df 53bd d6de 033e
000001a0: 9812 af3e da06 3dbd 0a2a be3e e572 6c3e
000001b0: e545 923e a436 4fbe 0027 143e 521f 81be
000001c0: 8101 7ebe 95e0 53be a4d5 e83e 56a9 9dbe
000001d0: e659 63bd b88a 013e 0f0a 16be 1772 2c3e
000001e0: 142e f53d 4391 e0bd 5895 a4be f5ac b2be
000001f0: e185 383e 34a9 e93d 55b1 22be 6269 c73e
00000200: b591 7abc 5925 45be f7da abbe a96b 263e
00000210: 9241 933e eed8 f23c f738 9e3d 4b49 ea3e
00000220: 85eb a53e 4466 0d3f e3af 99be 87b1 ce3e
00000230: aaa5 803e 7540 193e 8d2e 96be 0815 4cbe
00000240: 1882 92be 23c9 5fbe 2403 bf3e 0953 893e
00000250: 780b 64be ba08 c3bc 7c00 6bbe a786 5b3e
00000260: a217 9fbd 7ed5 d83d 1134 7b3e c559 5ebe
00000270: fcb7 18bd 9611 583c ec5c 79be c8d1 583e
00000280: 2d51 93be 3c67 8c3e 1bf4 d13d 8794 5dbe
00000290: 99ba 56be 8d3b 343e 2ef3 923b 0ecd 20be
000002a0: 418f d7bd f6c0 75be 8be9 7ebe 62c3 65be
000002b0: 29bb 5a3e 7536 c0be 4d51 55be 0f03 d3bd
000002c0: 434d 81be b9ca 73bd 3bc6 babd 0594 523e
000002d0: 304a 42be 5f75 5dbe 7c8a 47be 22f4 a5be
000002e0: 0c41 95bc e4e6 a03d 6e4d bcbe dc16 a3be
000002f0: edfd 92be 0c6a 7fbd 738e 973e 4e12 39bd
00000300: ff77 94be 2bae 093e 0322 943d 62fc 95be
00000310: 0ee9 78be f447 ecbd 497f 163d e71e 693e
00000320: 09a3 3dbe d46e 663e b952 a13e 3ca3 553d
00000330: a5f2 f23e 102b 603d 3366 503e 8a1a 3cbe
00000340: 3457 413a 68c2 6dbd eaed a7bb 9ae9 c73d
00000350: 5969 9ebe 66b7 993e 1f65 7abe 1b18 a6bd
00000360: 658b 82be 32a1 6c3e ba10 673d a683 563d
00000370: 58ab 9dbd 34db 6e3e f3b0 473d c8a8 c23d
00000380: d4aa a9be 310c 88be 35e9 c33e 4f50 393e
00000390: dc7c c03d c234 263e 5310 b53e 86f2 55be
000003a0: 919a 6abe 9c16 86be e0bc 703d c144 193f
000003b0: eb69 0dbc 5728 99bc 245e c4be 2e52 6ebd
000003c0: aae5 87bd 2bf9 d03b bbe8 c73e ab6e 0fbe
000003d0: da47 babe 0d56 b33e 280f 9dbe b301 b9be
000003e0: 2da0 78bd ec6c a5be 2b9e 6bbe c8d7 ca3c
000003f0: 82c7 75be c1bd a6be f964 0ebc b7dd 65be

encoder.input_net.0.bias f4 [64]
0.028336987 -0.16107288 -0.17787464 0.3371263 0.09401478 -0.12934743 -0.34423697 0.18552822
-0.045180958 -0.12288373 0.41519797 0.29166234 0.18529809 0.07214508 0.28680095 -0.009784707
-0.07950689 0.08265645 0.13527283 -0.038833477 0.12296386 -0.35079658 -0.35311568 -0.3284729
0.17927027 -0.29376444 0.23943754 0.011124015 0.17459548 -0.062408634 -0.040363446 -0.2363951
0.30011266 0.003063436 0.30563954 -0.19996232 -0.3413827 0.20098662 -0.022010764 -0.36151844
-0.15977177 -0.06657241 0.12153305 -0.13875924 0.07929747 0.17274351 -0.027576812 -0.2568677
0.037891366 -0.099740855 0.028588265 0.140146 0.03229216 -0.13561642 0.0048124823 -0.3727088
-0.34421057 0.11521945 -0.30609852 -0.32394844 0.04094501 0.3481069 -0.24883777 0.15504923
00000000: f822 e83c 4af0 24be c524 36be d29b ac3e
00000010: d28a c03d a773 04be d43f b0be 1cfb 3d3e
00000020: ab0f 39bd 77aa fbbd d494 d43e c454 953e
00000030: c8be 3d3e cdc0 933d 93d7 923e 0950 20bc
00000040: 82d4 a2bd c947 a93d f684 0a3e da0f 1fbd
00000050: 7ad4 fb3d 9c9b b3be 94cb b4be 9a2d a8be
00000060: a092 373e 4b68 96be 1d2f 753e 8041 363c
00000070: 28c9 323e 32a0 7fbd 2454 25bd 8f11 72be
00000080: 5ea8 993e edc3 483b c97c 9c3e ecc2 4cbe
00000090: b7c9 aebe 70cf 4d3e eb4f b4bc f218 b9be
000000a0: 369b 23be 1e57 88bd 52e6 f83d e716 0ebe
000000b0: b666 a23d ade3 303e c4e8 e1bc 2a84 83be
000000c0: fa33 1b3d ef44 ccbd f031 ea3c 6f82 0f3e
000000d0: c944 043d 08df 0abe 07b2 9d3b b0d3 bebe
000000e0: 5e3c b0be 2df8 eb3d f2b8 9cbe 92dc a5be
000000f0: f4b5 273d 113b b23e 54cf 7ebe 3ac5 1e3e

encoder.message_net.0.0.weight f4 [64, 64]
0.13599418 0.050338745 0.07329024 0.040278044 -0.04685179 -0.106913894 0.03160953 0.009795604
0.0044824686 -0.13731208 0.093066804 -0.094101556 -0.113126434 0.1295035 -0.1293675 0.08084813
0.027403181 0.15504278 0.08487073 0.009254028 0.20716684 -0.07359147 0.06719059 -0.038956717
0.09127881 0.020179212 0.004578137 -0.10829216 -0.0068472466 0.118106544 -0.064201914 0.18103044
-0.17549974 -0.1412479 0.027284592 -0.0141638825 0.041169092 0.071588084 -0.077466734 0.031177133
0.103273205 -0.052792106 0.002584771 0.14950179 -0.007249357 -0.21159254 0.035309754 0.10655281
0.116210125 -0.12083137 0.046494734 0.04803133 -0.11114268 -0.008420706 0.16624248 0.065670654
0.08256528 -0.14513977 0.08073205 0.117460236 0.0876113 -0.15857945 -0.06610069 0.17467596
0.11270272 0.07704031 -0.08255664 -0.14918011 0.002064071 0.0028358866 0.075601704 0.0036646498
0.0016116636 -0.026023978 -0.16420348 -0.1364088 0.034441795 -0.036968853 -0.047092013 -0.0008827859
-0.11165588 0.02297454 -0.17396289 -0.18490018 -0.056706686 0.04353501 -0.090847224 -0.068245575
-0.025738537 0.09021841 0.014536737 0.07883834 0.021482848 -0.08375549 -0.0015117448 -0.047158916
-0.16562921 -0.107517295 -0.0014702578 -0.03862824 -0.06168595 -0.12377089 0.06126453 -0.046590626
0.052138664 0.03095697 -0.02229736 -0.08882382 0.090303525 0.01671325 -0.0070725037 0.12380166
-0.045339797 -0.15165271 -0.12572007 0.016948907 0.053240225 -0.11596815 0.05959856 -0.00088751316
-0.1177744 -0.07427962 0.08977796 0.08571331 0.05913188 0.06036944 0.11057538 -0.038606133
-0.11232437 0.11276722 0.04042682 -0.104668885 -0.011528224 0.084288 0.09752604 -0.102785245
-0.0572944 0.038722336 0.112350464 0.016628966 -0.030962825 0.1139597 -0.10165188 -0.0050471723
0.02503948 0.081820235 -0.031253636 -0.113156945 -0.10688563 0.023475572 0.06051518 0.018392935
0.123734206 0.07659061 0.0002643615 -0.06788275 -0.085718274 -0.06394978 -0.045851022 -0.09327595
-0.11963248 0.110657975 -0.022862047 0.039708063 0.108087525 -0.027829394 0.0026043355 -0.08732018
-0.04132837 0.0455776 -0.051965356 0.060631886 -0.08199762 -0.07383223 -0.07203819 -0.021050021
-0.052401274 0.08162148 0.12191713 0.04728523 -0.083200395 -0.019829407 -0.050399765 0.081079796
-0.01981923 -0.03462018 -0.12112266 -0.01388821 -0.09703942 0.12061928 0.0064774305 0.12255114
-0.006743198 0.09403959 -0.16625762 -0.10645984 0.22811396 0.098367766 -0.13453078 0.11910075
-0.20937245 0.44261968 0.20988731 0.036397837 0.057292216 0.0041909786 0.14287052 0.033349115
0.1469621 -0.18564516 -0.19739754 0.1399136 -0.0037326796 0.08819786 -0.04829906 0.014433101
0.4683922 0.057553515 -0.002251257 0.06178911 -0.10253354 -0.24815767 -0.17076942 0.14274289
0.26374394 0.6327966 0.20959912 -0.05568862 0.12455118 0.23889089 -0.12528121 -0.077641815
-0.121890806 -0.03218114 -0.0045540277 -0.25257772 0.6187718 0.14073414 -0.19195296 -0.032083377
-0.05504564 0.012397214 -0.011460341 0.19770837 -0.15557848 -0.06587161 0.28356713 -0.05048263
-0.0445821 0.096021496 -0.069371596 0.054590747 0.18222804 0.07625172 -0.09836061 0.22917509
00000000: 0f42 0b3e 0030 4e3d 3119 963d 97fa 243d
00000010: aae7 3fbd acf5 dabd ff78 013d be7d 203c
00000020: ace1 923b 8a9b 0cbe cf99 be3d 51b8 c0bd
00000030: d5ae e7bd 919c 043e ea78 04be b493 a53d
00000040: a37c e03c 89c3 1e3e b5d0 ad3d 359e 173c
00000050: 8b23 543e 20b7 96bd 389b 893d 1491 1fbd
00000060: 62f0 ba3d e04e a53c 3204 963b 48c8 ddbd
00000070: de5e e0bb d8e1 f13d 4b7c 83bd 0b60 393e
00000080: 34b6 33be 4aa3 10be f083 df3c a10f 68bc
00000090: eca0 283d c69c 923d e1a6 9ebd 3067 ff3c
000000a0: e780 d33d 893c 58bd 4365 293b ff16 193e
000000b0: 048c edbb b7ab 58be f6a0 103d 5c38 da3d
000000c0: 93ff ed3d 7076 f7bd 4371 3e3d 80bc 443d
000000d0: c69e e3bd 00f7 09bc 783b 2a3e 567e 863d
000000e0: fc17 a93d 859f 14be d856 a53d fe8e f03d
000000f0: 8e6d b33d a762 22be cc5f 87bd 41de 323e
00000100: afd0 e63d 4fc7 9d3d 7513 a9bd acc2 18be
00000110: 5d45 073b 48da 393b 11d5 9a3d 9f2a 703b
00000120: 753e d33a 3d30 d5bc f524 28be c0ae 0bbe
00000130: d712 0d3d a76c 17bd 8ee3 40bd c26a 67ba
00000140: d7ab e4bd 1a35 bc3c 5423 32be 7956 3dbe
00000150: 4545 68bd c451 323d 1c0e babd 56c4 8bbd
00000160: a0d9 d2bc 6ec4 b83d 7f2b 6e3c ff75 a13d
00000170: ccfc af3c 0088 abbd bd25 c6ba b529 41bd
00000180: b49a 29be 0732 dcbd aab5 c0ba a538 1ebd
00000190: 68aa 7cbd 987b fdbd 84f0 7a3d d0d5 3ebd
000001a0: 5a8f 553d 7999 fd3c f4a8 b6bc 43e9 b5bd
000001b0: 0ef1 b83d 3aea 883c 76c0 e7bb ba8b fd3d
000001c0: 39b6 39bd d94a 1bbe c3bc 00be 6fd8 8a3c
000001d0: 6c12 5a3d b680 edbd 9f1d 743d 00a8 68ba
000001e0: b433 f1bd ea1f 98bd 82dd b73d 768a af3d
000001f0: 4534 723d f245 773d 5875 e23d 7721 1ebd
00000200: 520a e6bd 80f2 e63d 9896 253d a45c d6bd
00000210: e0e0 3cbc 309f ac3d bcbb c73d 1281 d2bd
00000220: 88ad 6abd 509b 1e3d 0018 e63d 7839 883c
00000230: c0a5 fdbc b463 e93d dc2e d0bd c062 a5bb
00000240: 981f cd3c 5e91 a73d d003 00bd d4be e7bd
00000250: dae6 dabd d84f c03c c4de 773d c8ac 963c
00000260: 5c68 fd3d 8adb 9c3d 009a 8a39 1c06 8bbd
00000270: 108d afbd 1af8 82bd 48ce 3bbd 7607 bfbd
00000280: e001 f5bd a6a0 e23d 3049 bbbc eca4 223d
00000290: fe5c dd3d 78fa e3bc 80ad 2a3b ecd4 b2bd
000002a0: f047 29bd 94af 3a3d a0d9 54bd 2459 783d
000002b0: 5eee a7bd 5a35 97bd c288 93bd 1871 acbc
000002c0: b8a2 56bd 2a29 a73d b0af f93d 28ae 413d
000002d0: f864 aabd 4871 a2bc fc6f 4ebd 2a0d a63d
000002e0: f05b a2bc e4cd 0dbd 280f f8bd 608b 63bc
000002f0: 9abc c6bd 3e07 f73d a040 d43b 18fc fa3d
00000300: 0bf6 dcbb d497 c03d 703f 2abe 9e07 dabd
00000310: b596 693e 0a75 c93d 70c2 09be 18eb f33d
00000320: bb65 56be 0c9f e23e b3ec 563e e615 153d
00000330: 3eab 6a3d 7a54 893b a64c 123e 1599 083d
00000340: 3c7d 163e c419 3ebe 9522 4abe 8345 0f3e
00000350: f99f 74bb 14a1 b43d 3cd5 45bd d078 6c3c
00000360: 1ad1 ef3e 3cbd 6b3d d389 13bb 9416 7d3d
00000370: 1bfd d1bd 0b1d 7ebe 2ede 2ebe 312b 123e
00000380: 7209 873e f5fe 213f 27a1 563e c019 64bd
00000390: b014 ff3d d09f 743e b849 00be ac02 9fbd
000003a0: e3a1 f9bd 5fd0 03bd f439 95bb de51 81be
000003b0: d467 1e3f 9c1c 103e 518f 44be dc69 03bd
000003c0: 8977 61bd af1d 4b3c 27c4 3bbc 1074 4a3e
000003d0: f74f 1fbe b2e7 86bd b62f 913e e0c6 4ebd
000003e0: b89b 36bd eba6 c43d b212 8ebd 8c9a 5f3d
000003f0: fd99 3a3e dd29 9c3d 4a71 c9bd e0ac 6a3e

encoder.message_net.0.0.bias f4 [64]
0.07617561 0.041250028 -0.035597786 0.062382113 0.11470235 0.033794798 -0.04256686 0.03891148
0.0059886603 0.015870396 -0.026616687 0.107330844 -0.08191987 0.12987326 0.06637308 0.06874278
-0.025951566 0.087096706 0.15142022 0.022682577 -0.0030543038 0.049505647 -0.12682265 0.16052897
0.08539213 0.08991647 -0.11574395 -0.10564995 -0.053921733 0.109181546 0.13647015 0.06581689
0.03627669 -0.07791105 0.037885748 0.07970322 -0.042710178 0.14304796 -0.14651491 0.09480562
-0.07783539 -0.010772958 -0.026905715 0.096078254 0.023798507 0.060203265 0.033328135 -0.08297921
0.055070493 0.10690683 0.14879428 -0.06448767 0.025234025 0.11145793 -0.07985161 0.0713828
0.05252408 0.06316331 -0.13821153 -0.09975718 -0.115645096 -0.026268007 0.076225676 -0.13957833
00000000: f501 9c3d caf5 283d fcce 11bd 6384 7f3d
00000010: 11e9 ea3d 6a6c 0a3d 965a 2ebd a561 1f3d
00000020: 863c c43b a202 823c 3d0b dabc 46d0 db3d
00000030: 9bc5 a7bd 7ffd 043e 9cee 873d 04c9 8c3d
00000040: 6198 d4bc c25f b23d e70d 1b3e d0d0 b93c
00000050: b72a 48bb 6fc6 4a3d ccdd 01be b561 243e
00000060: 12e2 ae3d 2026 b83d 2a0b edbd 005f d8bd
00000070: 09dd 5cbd 939a df3d d5be 0b3e 01cb 863d
00000080: de96 143d d48f 9fbd 162e 1b3d 713b a33d
00000090: def0 2ebd 2a7b 123e 0108 16be 7329 c23d
000000a0: 2968 9fbd 1081 30bc 6069 dcbc adc4 c43d
000000b0: 16f5 c23c b397 763d 1583 083d 01f1 a9bd
000000c0: 9991 613d f8f1 da3d 875d 183e 1d12 84bd
000000d0: 96b7 ce3c 0e44 e43d 3e89 a3bd 2531 923d
000000e0: 7d23 573d c45b 813d 5387 0dbe 7e4d ccbd
000000f0: 56d7 ecbd 0130 d7bc 351c 9c3d 9fed 0ebe

encoder.message_net.1.0.weight f4 [64, 64]
0.17078388 0.021552203 0.022168214 0.19352531 0.33672094 -0.27458704 0.31256703 0.40700114
0.040118787 0.12748986 -0.080297515 0.10749192 -0.23282187 -0.08439409 -0.32093576 0.11690236
0.19416639 -0.11489063 0.17236638 -0.020637143 0.048759043 -0.019715145 -0.011338665 -0.05008823
0.015724657 -0.10430265 0.09047393 -0.068041295 0.1363669 0.001691007 -0.23866677 0.065012805
0.22668622 -0.30589175 0.102193125 -0.3693607 0.123720646 -0.0068067294 -0.092058055 -0.09783298
-0.32552037 0.058986247 0.08861418 -0.40299058 0.046105996 -0.27492216 0.0033140047 0.0100052785
0.15677242 -0.22025064 0.0583423 -0.06547964 0.16439453 -0.09040758 -0.091984086 -0.3998751
0.16274849 -0.0020707452 -0.018619534 0.051477883 -0.26463467 -0.30080897 -0.1567501 0.03091133
-0.04359183 -0.41300324 -0.264692 -0.14515327 -0.4755326 0.08653302 0.08299502 -0.24124968
-0.2826665 -0.22832203 -0.12251365 -0.1819708 0.10828 -0.22836544 0.013510139 -0.029385993
0.24361607 0.03278367 -0.16876885 0.0009856974 -0.13804723 0.13693774 -0.4497431 -0.095782004
-0.21558627 0.15527041 -0.19948767 0.31787747 0.062279694 0.41074616 0.07950968 -0.06826228
0.059895627 0.116534315 0.20137188 -0.04415704 -0.017731495 -0.023477523 0.26120353 0.11911357
0.26051757 0.030091077 -0.15011196 0.0640472 0.08655959 0.166737 0.08763288 -0.23743267
-0.554829 0.14853512 -0.38897818 0.08323484 0.09321403 -0.120190755 -0.16617079 0.38118944
-0.02988714 0.31879297 -0.07590458 -0.21755728 -0.032485195 -0.17345959 0.03399586 -0.1657658
-0.23002386 -0.08652922 0.013746684 -0.04588972 0.10023802 0.2869023 -0.13550407 -0.19636258
-0.15365614 -0.13460433 0.0635172 -0.071162574 0.027510153 -0.2454058 -0.00332822 -0.0019439124
0.19859368 0.027924018 -0.037908457 0.1974258 -0.15329348 0.07940779 -0.2035021 -0.24136715
-0.01322089 0.0002764529 -0.3432044 -0.08531487 0.079403006 0.19800025 -0.045803145 0.01175402
0.27696276 -0.0005570703 0.10798808 0.101773605 -0.3423006 -0.26073423 0.18097858 0.32236177
0.21085832 -0.017532691 -0.012121662 0.10971843 0.0064575677 0.1033994 -0.09673243 -0.046542775
-0.3500913 0.0236404 -0.3662298 -0.017157558 0.031286683 -0.11067805 -0.13026565 0.45765692
-0.03704686 0.39952695 0.050988168 -0.328782 -0.004597577 0.10302147 -0.15752757 -0.09064749
-0.038475785 -0.10976408 0.17767227 -0.104013965 0.1944186 0.20029497 -0.03295207 0.0177008
-0.11878754 0.044567194 0.32216474 -0.117720634 0.008544201 -0.28916118 -0.28629816 0.09423751
0.25714955 -0.038445186 -0.24010754 0.42025998 0.044038028 0.42992133 -0.3032617 -0.1625975
-0.089575715 -0.24219911 -0.1427753 -0.066794045 -0.06353708 0.2645868 0.041634195 -0.21858457
0.07805879 0.0543542 0.2828822 0.2184762 -0.7343148 -0.11858301 0.1495645 0.22409037
0.10935378 -0.07006188 -0.013575526 0.23886201 0.3266212 0.20325026 -0.07113878 -0.033788938
-0.37301052 -0.010005082 -0.19854958 -0.07506916 0.011277912 -0.07848845 -0.35514888 0.13128899
-0.22440293 0.58128285 0.21027637 -0.28674334 -0.16012332 -0.27994233 0.04371966 -0.27294672
00000000: f8e1 2e3e 3f8e b03c 1d9a b53c 802b 463e
00000010: b066 ac3e ac96 8cbe c908 a03e 7462 d03e
00000020: 9953 243d b48c 023e 0673 a4bd b924 dc3d
00000030: db68 6ebe cfd6 acbd b151 a4be 816a ef3d
00000040: 8ed3 463e c74b ebbd d080 303e 3a0f a9bc
00000050: 90b7 473d a881 a1bc cfc5 39bc 5129 4dbd
00000060: ffd0 803c a19c d5bd 654a b93d 3c59 8bbd
00000070: c4a3 0b3e c8a4 dd3a 1065 74be 6f25 853d
00000080: 6f20 683e d89d 9cbe a14a d13d d81c bdbe
00000090: 4061 fd3d fc0a dfbb ef88 bcbd a85c c8bd
000000a0: 9baa a6be 909b 713d 5a7b b53d c854 cebe
000000b0: a4d9 3c3d 99c2 8cbe c62f 593b 2eed 233c
000000c0: f388 203e 6289 61be 56f8 6e3d 311a 86bd
000000d0: 0a57 283e 9c27 b9bd 2762 bcbd 6ebc ccbe
000000e0: 8aa7 263e 57b5 07bb fe87 98bc 79da 523d
000000f0: 327e 87be a203 9abe 1983 20be c239 fd3c
00000100: 598d 32bd 2975 d3be b685 87be 0fa3 14be
00000110: 0279 f3be 3938 b13d 4bf9 a93d 280a 77be
00000120: aab9 90be 40cd 69be 70e8 fabd 8e56 3abe
00000130: e8c1 dd3d a1d8 69be a159 5d3c e5ba f0bc
00000140: 7e76 793e 2b48 063d bed1 2cbe 8432 813a
00000150: 415c 0dbe 6839 0c3e ba44 e6be 5b29 c4bd
00000160: a6c2 5cbe 35ff 1e3e 7f46 4cbe d6c0 a23e
00000170: fe18 7f3d 524d d23e f9d5 a23d 18cd 8bbd
00000180: 1e55 753d 8ba9 ee3d 6e34 4e3e 03de 34bd
00000190: a441 91bc ef53 c0bc 78bc 853e d1f1 f33d
000001a0: 8f62 853e 9081 f63c f3b6 19be 2e2b 833d
000001b0: 2846 b13d 1bbd 2a3e de78 b33d 8d21 73be
000001c0: 4609 0ebf 9719 183e 2628 c7be 0777 aa3d
000001d0: ffe6 be3d 9226 f6bd ad28 2abe 432b c33e
000001e0: e0d5 f4bc d538 a33e dc73 9bbd 56c7 5ebe
000001f0: 320f 05bd 649f 31be 3e3f 0b3d 83be 29be
00000200: 608b 6bbe 3b36 b1bd c639 613c dcf6 3bbd
00000210: 9749 cd3d dce4 923e 94c1 0abe 4613 49be
00000220: 0958 1dbe b8d5 09be 4e15 823d afbd 91bd
00000230: f95c e13c a84b 7bbe 441e 5abb e0ca feba
00000240: 245c 4b3e e9c0 e43c e645 1bbd fd29 4a3e
00000250: f7f8 1cbe 8da0 a23d db62 50be f328 77be
00000260: 6f9c 58bc e1f0 9039 7db8 afbe 90b9 aebd
00000270: 0b9e a23d 94c0 4a3e 149c 3bbd ef93 403c
00000280: 10ce 8d3e 5b08 12ba db28 dd3d ae6e d03d
00000290: 0642 afbe f57e 85be 7352 393e 9a0c a53e
000002a0: 3eeb 573e b8a0 8fbc ef99 46bc 0eb4 e03d
000002b0: 019a d33b 11c3 d33d a71b c6bd a3a3 3ebd
000002c0: 2b3f b3be 83a9 c13c 7982 bbbe 028e 8cbc
000002d0: 7726 003d 2cab e2bd 5c64 05be 0252 ea3e
000002e0: 73be 17bd cc8e cc3e f8d8 503d 1d56 a8be
000002f0: 45a7 96bb ecfc d23d e84e 21be 64a5 b9bd
00000300: c998 1dbd fdcb e0bd b8ef 353e 4605 d5bd
00000310: ab15 473e 201a 4d3e c0f8 06bd 4501 913c
00000320: e246 f3bd 178c 363d c7f2 a43e 8417 f1bd
00000330: fafc 0b3c ef0c 94be ac95 92be 98ff c03d
00000340: 1ba9 833e b378 1dbd c0de 75be 512c d73e
00000350: 3861 343d a61e dc3e 1e45 9bbe f67f 26be
00000360: 7973 b7bd 0b03 78be b033 12be 51cb 88bd
00000370: bb1f 82bd ec77 873e 9e88 2a3d a2d4 5fbe
00000380: 49dd 9f3d 82a2 5e3d f0d5 903e 3ab8 5f3e
00000390: 0efc 3bbf a6db f2bd 7027 193e f277 653e
000003a0: e0f4 df3d 9a7c 8fbd e26b 5ebc 3e98 743e
000003b0: e53a a73e d620 503e 35b1 91bd 4566 0abd
000003c0: 3cfb bebe 5bec 23bc 9550 4bbe dcbd 99bd
000003d0: fec6 383c 8dbe a0bd 13d6 b5be 9f70 063e
000003e0: e2c9 65be f4ce 143f b052 573e 06d0 92be
000003f0: 5ef7 23be 9a54 8fbe 6313 333d acbf 8bbe

encoder.message_net.1.0.bias f4 [64]
0.11669738 -0.1972315 -0.14466415 -0.025111869 -0.14346908 0.17023529 -0.057754617 -0.049131647
-0.13147052 0.12573935 -0.04829661 0.024360774 0.049871944 0.09163625 0.091331854 0.040293604
0.0440554 -0.03913086 0.10359696 0.046191435 -0.048797574 0.047984175 0.048958868 0.051536214
0.0056252703 0.024757853 0.099350385 0.064346984 -0.10028595 0.010867962 0.10381106 0.12455792
-0.1526639 0.111610234 -0.08964202 -0.17647932 -0.037821636 -0.044098172 0.16379201 -0.12898818
-0.025521202 0.024650576 -0.062091496 -0.23579094 -0.10386745 -0.22944383 -0.08979902 -0.024822222
-0.019156074 -0.009356057 0.015523875 0.002023038 0.027086869 0.18084358 -0.16581932 0.057118777
-0.026110187 -0.028258199 0.022362275 -0.121891245 -0.12697959 -0.17320682 0.09350143 0.073517926
00000000: 09ff ee3d 0ef7 49be d722 14be 68b7 cdbc
00000010: 8fe9 12be 2952 2e3e 1b90 6cbd 443e 49bd
00000020: 35a0 06be d1c1 003e abd2 45bd 3f90 c73c
00000030: 8646 4c3d c9ab bb3d 320c bb3d e80a 253d
00000040: 6f73 343d ae47 20bd a52a d43d 3b33 3d3d
00000050: f7df 47bd 0e8b 443d 1889 483d a317 533d
00000060: 3054 b83b fbd0 ca3c 3778 cb3d 5ac8 833d
00000070: b862 cdbd 890f 323c e59a d43d 3918 ff3d
00000080: ed53 1cbe e893 e43d 3c96 b7bd ffb6 34be
00000090: dcea 1abd 49a0 34bd 18b9 273e 7a15 04be
000000a0: d711 d1bc 01f0 c93c a753 7ebd 2e73 71be
000000b0: 75b8 d4bd 53f3 6abe 8ce8 b7bd f957 cbbc
000000c0: 33ed 9cbc 264a 19bc da57 7e3c f294 043b
000000d0: 48e5 dd3c 0f2f 393e 8acc 29be 61f5 693d
000000e0: 08e5 d5bc bd7d e7bc 1731 b73c 1ea2 f9bd
000000f0: f006 02be 215d 31be ad7d bf3d 9190 963d

encoder.message_net.2.0.weight f4 [64, 64]
0.0042594797 0.026529817 0.19291817 0.13923265 -0.059000198 0.038267355 0.04638387 0.016362138
-0.077316925 -0.060809407 0.06994812 -0.0845698 -0.16337754 -0.20888002 0.017656153 0.0089374995
-0.10259882 -0.09295764 0.08070837 0.041057717 -0.0707443 0.0030776132 -0.14869025 0.04970335
0.08024111 0.053493034 0.045218643 0.13923204 0.1341461 0.10168813 0.042154875 -0.05422599
0.011661953 -0.032863308 0.0802237 0.058744017 -0.11651916 0.09415282 -0.010811587 0.007249935
-0.028292771 0.09544525 -0.04203692 0.01923283 -0.077536955 0.06901158 -0.029919382 -0.12926385
0.009708232 -0.07158112 -0.051811855 0.03162543 0.066225335 -0.05794726 -0.08474567 0.0064800424
-0.00094988314 0.0021410377 0.02442555 -0.08204026 0.102423646 -0.025361966 0.022171073 0.023509074
0.08679496 -0.2907474 -0.0014926523 0.15629359 -0.11796879 -0.13208553 0.06686142 0.066590555
0.116014354 -0.34140003 0.11266552 -0.061949797 0.18148087 -0.18650264 0.004713984 -0.0013626505
-0.28594095 0.14229964 0.0379361 0.06989803 0.042461757 0.2605457 -0.25821078 -0.080033995
0.12900019 0.03312477 -0.05535812 0.09787122 0.117317736 0.08144839 0.19380197 -0.06383393
0.13810183 -0.14572245 -0.098606 -0.108033545 -0.1859813 0.06160156 -0.049239404 0.2302642
-0.05520107 0.19096889 -0.05884221 -0.016103407 0.17092514 -0.12826379 -0.011025775 0.048198164
-0.09581371 0.12973611 -0.14909841 0.025156641 -0.14367935 0.18304642 -0.07430655 0.034909032
-0.42700824 0.16384335 -0.24413231 -0.2680804 -0.24739896 -0.14423811 0.21456105 0.08510076
-0.13601209 -0.3291718 -0.13748746 0.16699885 -0.021351404 -0.29176712 0.13242726 0.17315573
0.14262907 -0.19527853 0.18856888 0.04806552 0.22429332 -0.10752308 -0.20714562 -0.015995475
-0.07155981 0.058347255 -0.0651259 0.07016652 -0.13579991 -0.46192157 0.1840534 -0.13031939
0.11879554 0.20549177 -0.24489728 -0.29251546 -0.070435494 -0.024888167 0.027828885 -0.043691248
0.27287844 -0.31704402 -0.02487865 -0.21451084 0.04630401 0.07026619 -0.0854863 0.10253627
-0.029964225 -0.07356825 0.11415298 -0.1206512 -0.1687936 -0.38357243 -0.27527073 -0.10253502
-0.1733388 0.22879823 -0.20509338 -0.014574628 -0.14991474 0.17786616 -0.056966096 -0.04546636
-0.26461795 -0.012418986 -0.3072843 0.21084371 -0.25688854 0.07794743 0.112650454 0.07299317
0.17136726 0.14338145 -0.060863834 -0.018358592 0.009620845 -0.16803417 0.21217784 -0.05465922
-0.08042101 0.008219637 -0.16979963 -0.25862855 -0.11113937 -0.3272159 0.008677744 0.08111284
-0.066805884 -0.042304743 -0.09003584 0.003765199 0.25500715 -0.10810077 -0.1317984 -0.09988031
-0.28565624 0.35865816 -0.017777672 -0.010642656 -0.026207387 0.0979678 -0.074534886 0.028233886
0.04776677 0.17146297 -0.14794521 -0.17948864 0.058391385 -0.07015198 0.06407274 -0.0075925514
-0.28394553 0.052126385 -0.26927128 -0.10718489 -0.023616094 0.07084557 0.043905396 0.07274337
-0.3917459 -0.021573149 0.05115244 -0.008855864 -0.043119114 0.053542983 0.041336045 0.066819295
-0.11104243 0.120987624 -0.16450739 -0.16781928 0.06803514 -0.1041724 -0.15641248 -0.23018397
00000000: 1b93 8b3b 0f55 d93c 578c 453e 0193 0e3e
00000010: 31aa 71bd 3bbe 1c3d 03fd 3d3d e409 863c
00000020: 5658 9ebd 4913 79bd f640 8f3d ee32 adbd
00000030: 714c 27be a5e4 55be a3a3 903c 976e 123c
00000040: 551f d2bd 9360 bebd 6e4a a53d 232c 283d
00000050: 63e2 90bd c8b1 493b 4242 18be bd95 4b3d
00000060: 7355 a43d 831b 5b3d 2f37 393d d892 0e3e
00000070: 985d 093e de41 d03d 97aa 2c3d 121c 5ebd
00000080: c711 3f3c ad9b 06bd 534c a43d 919d 703d
00000090: 99a1 eebd 32d3 c03d 1523 31bc dd90 ed3b
000000a0: 3ec6 e7bc cd78 c33d e82e 2cbd 2b8e 9d3c
000000b0: b2cb 9ebd f155 8d3d 7e19 f5bc be5d 04be
000000c0: 470f 1f3c 1f99 92bd ab38 54bd ab89 013d
000000d0: 26a1 873d 1b5a 6dbd 238f adbd 8956 d43b
000000e0: 9401 79ba a750 0c3b 1718 c83c b904 a8bd
000000f0: 7dc3 d13d e6c3 cfbc 1ca0 b53c 1a96 c03c
00000100: 8ec1 b13d d8dc 94be 1aa5 c3ba 6d0b 203e
00000110: 9f99 f1bd 6e41 07be a4ee 883d a160 883d
00000120: ef98 ed3d fccb aebe 2ebd e63d 12bf 7dbd
00000130: 1fd6 393e 8cfa 3ebe c477 9a3b f79a b2ba
00000140: da66 92be ffb6 113e e262 1b3d b326 8f3d
00000150: 61ec 2d3d 3f66 853e 3434 84be dde8 a3bd
00000160: a018 043e d7ad 073d 32bf 62bd b570 c83d
00000170: 4844 f03d 6ace a63d 0674 463e 5dbb 82bd
00000180: 916a 0d3e 4438 15be f1f1 c9bd b140 ddbd
00000190: e271 3ebe eb51 7c3d 42af 49bd 61ca 6b3e
000001a0: 841a 62bd 598d 433e 8704 71bd 4beb 83bc
000001b0: 0007 2f3e 9557 03be 74a5 34bc 706b 453d
000001c0: fa39 c4bd 8bd9 043e 41ad 18be 4d15 ce3c
000001d0: ae20 13be 8570 3b3e 082e 98bd c6fc 0e3d
000001e0: d3a0 dabe 8dc6 273e d2fd 79be d641 89be
000001f0: 2756 7dbe 28b3 13be e4b5 5b3e 4f49 ae3d
00000200: c146 0bbe 3589 a8be 83c9 0cbe bf01 2b3e
00000210: 24e9 aebc 8062 95be 039b 073e bc4f 313e
00000220: 5b0d 123e 18f7 47be 3318 413e 5ae0 443d
00000230: 26ad 653e 1035 dcbd fb1d 54be f108 83bc
00000240: f38d 92bd 88fd 6e3d ba60 85bd 77b3 8f3d
00000250: 220f 0bbe fc80 ecbe 7f78 3c3e 7272 05be
00000260: 134b f33d 6f6c 523e 5ac6 7abe 96c4 95be
00000270: 7c40 90bd 45e2 cbbc 67f9 e33c 98f5 32bd
00000280: b9b6 8b3e 9853 a2be 50ce cbbc bba8 5bbe
00000290: 46a9 3d3d b8e7 8f3d 7113 afbd 89fe d13d
000002a0: 8977 f5bc f3aa 96bd 0ac9 e93d fa17 f7bd
000002b0: 3bd8 2cbe 9b63 c4be 49f0 8cbe e1fd d1bd
000002c0: ba7f 31be 154a 6a3e 0004 52be 6cca 6ebc
000002d0: 4083 19be 8c22 363e 4855 69bd ef3a 3abd
000002e0: 017c 87be 0179 4bbc 5e54 9dbe 6ae7 573e
000002f0: e586 83be e7a2 9f3d 48b5 e63d 717d 953d
00000300: e67a 2f3e 96d2 123e 5b4c 79bd c264 96bc
00000310: c0a0 1d3c 2611 2cbe 2645 593e 59e2 5fbd
00000320: c5b3 a4bd a8ab 063c f4df 2dbe f66a 84be
00000330: 0a9d e3bd d888 a7be 192d 0e3c 7d1e a63d
00000340: 86d1 88bd bd47 2dbd b664 b8bd 8fc1 763b
00000350: 4c90 823e f063 ddbd 29f6 06be 0c8e ccbd
00000360: 8941 92be 0ba2 b73e 7ba2 91bc 895e 2ebc
00000370: e0b0 d6bc 58a3 c83d bfa5 98bd c04a e73c
00000380: 17a7 433d fd93 2f3e f37e 17be dfcb 37be
00000390: ce2b 6f3d d7ab 8fbd 9238 833d f0ca f8bb
000003a0: 4f61 91be 7a82 553d eddd 89be c083 dbbd
000003b0: 8a76 c1bc 7b17 913d 25d6 333d 7afa 943d
000003c0: eb92 c8be 2cba b0bc 3985 513d 3018 11bc
000003d0: ab9d 30bd e34f 5b3d fc4f 293d 8ed8 883d
000003e0: 376a e3bd 5cc8 f73d a074 28be d1d8 2bbe
000003f0: 0256 8b3d 5758 d5bd 982a 20be 59b5 6bbe

encoder.message_net.2.0.bias f4 [64]
-0.12689702 -0.044105217 -0.12187814 -0.03360374 -0.17009233 0.12336906 -0.15541838 -0.04227818
0.15796655 -0.17860141 -0.10042788 -0.04736534 -0.15437247 -0.052243248 0.21599832 -0.17655382
0.1854076 0.1327885 -0.19945496 -0.0018039846 -0.18450046 -0.03351743 0.17851761 -0.00071511324
-0.14376523 -0.07742911 -0.11342617 -0.10998961 -0.23476177 -0.24460785 0.08155694 0.006299194
-0.09975676 0.15895249 -0.12870237 -0.038475115 0.16675392 0.11428512 0.1403004 0.20513827
0.016009547 -0.18071966 0.10566066 -0.04384735 0.07847424 0.111921415 -0.09247733 -0.16709249
0.08180908 -0.07062122 -0.13018371 -0.09918595 0.058612403 -0.05202908 0.13023736 0.004187419
-0.08861601 0.05397712 0.11799277 -0.09157224 0.015717665 -0.19902357 -0.08567013 -0.05284197
00000000: 4bf1 01be aca7 34bd 3f9b f9bd 13a4 09bd
00000010: af2c 2ebe eba8 fc3d ff25 1fbe e32b 2dbd
00000020: fcc1 213e 4ae3 36be 22ad cdbd 2902 42bd
00000030: d113 1ebe 04fd 55bd aa2e 5d3e 86ca 34be
00000040: 7ddb 3d3e b5f9 073e ec3d 4cbe ae73 ecba
00000050: b0ed 3cbe 9349 09bd 52cd 363e 7076 3bba
00000060: 3137 13be 2793 9ebd fb4b e8bd 3c42 e1bd
00000070: 6465 70be 7b7a 7abe 5307 a73d 7869 ce3b
00000080: 464d ccbd 71c4 223e 8eca 03be 1598 1dbd
00000090: 8ac1 2a3e 510e ea3d e8aa 0f3e c40f 523e
000000a0: 7426 833c 930e 39be 9e64 d83d 4799 33bd
000000b0: 1ab7 a03d 0e37 e53d c164 bdbd 4b1a 2bbe
000000c0: 858b a73d dca1 90bd e14e 05be 0122 cbbd
000000d0: 8f13 703d 721c 55bd f15c 053e 9e36 893b
000000e0: 507c b5bd 1d17 5d3d 32a6 f13d 3a8a bbbd
000000f0: 55c2 803c d6cc 4bbe d273 afbd d270 58bd

encoder.gru.weight_ih f4 [192, 64]
-0.15166478 -0.22436787 -0.057263684 0.007177056 -0.12921032 -0.17925243 -0.036658857 -0.35342428
-0.13013129 -0.17476536 0.11596338 -0.41039988 0.40678546 0.04588705 0.04182236 0.07983269
-0.1125371 0.11401366 -0.07643169 -0.1308836 -0.20429946 0.17629214 0.40728194 -0.124169365
-0.11306975 -0.15858905 0.019698389 -0.045338713 -0.5654578 -0.17659266 -0.17660731 -0.027690107
-0.18844797 -0.11562398 -0.06574653 -0.07805756 -0.18355456 0.056499917 0.036024675 -0.12930983
1.1063696 0.2770121 -0.056721814 -0.22397017 -0.028085552 -0.23206641 -0.12411805 -0.16165583
0.021792365 0.054509927 -0.038136598 -0.2768474 0.03486424 0.053110298 -0.1868648 0.058121167
-0.2227437 -0.38227633 -0.14056365 -0.22387487 -0.40917453 -0.34963253 0.31363347 -0.12155969
0.020112684 -0.5030352 -0.35399163 0.7405157 -0.09984818 0.004014484 -0.67025906 -0.1117902
0.096818164 -0.3900174 0.50300723 -0.42681113 -1.0155066 0.12526177 0.048420798 0.09840889
0.13752301 0.16977075 -0.05027549 0.28526324 0.23698147 -0.37951225 -0.7519112 0.059550416
0.6226784 0.27461413 -0.657602 -0.43457052 -0.25671947 -0.07266507 0.032286078 -0.018511182
0.67416644 -0.38303453 -0.55296993 0.23953855 0.1830225 0.11000981 -0.32756358 0.12823237
-0.34282577 -0.66382754 -0.02500748 -0.40137532 -0.11711693 -0.05122356 0.23005824 -0.54434615
0.18749426 0.17355691 0.2428841 0.38040888 -0.0024229097 0.023007877 -0.14896633 -0.08115153
-0.37500957 -0.039190598 -0.02481688 -0.73915243 -0.264613 -0.38199595 -0.5429175 0.02285454
-0.28315276 -0.18594609 -0.11489313 -0.360844 -0.46387112 -0.09734774 -0.91779387 0.10084862
0.033754114 0.0021403825 -0.17833881 0.074220456 0.03207207 -0.44286975 -0.06343942 -0.35114127
0.0065365643 -0.29689506 -0.25499943 -0.12665442 -0.3400194 -0.18889241 0.05563172 -0.059075125
-0.3282373 0.16675392 -0.09615909 -0.047737785 -0.4041496 0.01950329 -0.1674477 -0.0639982
0.223357 -0.020619698 -0.34683385 -0.52106905 0.13884151 0.16420844 -0.0912404 -0.11406617
-0.14209273 -0.047385346 0.21696025 -0.27173617 -0.15407655 0.05670291 0.21011004 -0.73995095
0.021765828 -0.054606006 -0.047661703 0.024956258 -0.16730775 -0.53361565 0.26507786 -0.16521893
0.087664105 -0.0153951235 0.18117326 -0.62659013 0.022951636 -0.24131538 -0.16007976 0.091942884
-0.16264918 0.081439465 -0.12048527 0.037255254 -0.2097203 -0.0672295 0.118935674 -0.19887464
-0.13845417 -0.37679338 0.11571876 -0.17696916 -0.018978111 -0.042981356 -0.45632762 0.0045523886
-0.35616022 -0.15412264 -0.22200587 -0.30955544 0.1381282 -0.15799649 -0.0025122645 -0.2321619
0.020669248 -0.22051413 -0.43750152 -0.14119925 0.04318749 -0.2333913 -0.15336871 0.10235468
0.028936539 -0.27979204 0.05840522 -0.1885894 -0.1971198 -0.23033807 -0.29829258 -0.30269668
-0.16903871 0.025782496 -0.34193403 0.025737038 0.28452942 -0.08478208 -0.090563245 0.13089296
0.07005562 -0.021162705 -0.025505917 -0.015728608 -0.23536241 -0.30021706 -0.13273273 -0.24216425
-0.05099174 -0.09419507 -0.5790398 0.17561696 -0.011339916 -0.051624916 -0.030364076 -0.4575496
00000000: 034e 1bbe b1c0 65be 538d 6abd 822d eb3b
00000010: b64f 04be f38d 37be 9927 16bd 07f4 b4be
00000020: 2341 05be b1f5 32be 357e ed3d ef1f d2be
00000030: 2f46 d03e 0ff4 3b3d ec4d 2b3d 527f a33d
00000040: da79 e6bd fe7f e93d 3888 9cbd 5a06 06be
00000050: e133 51be ed85 343e 4287 d03e 824c febd
00000060: 1d91 e7bd 2b65 22be 845e a13c 16b5 39bd
00000070: d8c1 10bf b5d4 34be 8cd8 34be 5dd6 e2bc
00000080: 81f8 40be 44cc ecbd 1ea6 86bd a4dc 9fbd
00000090: baf5 3bbe 756c 673d 9c8e 133d cc69 04be
000000a0: 859d 8d3f 88d4 8d3e 2255 68bd 7058 65be
000000b0: ac13 e6bc d1a2 6dbe 9b31 febd 1b89 25be
000000c0: e785 b23c cd45 5f3d 1f35 1cbd f1be 8dbe
000000d0: cecd 0e3d 2f8a 593d 7c59 3fbe 7610 6e3d
000000e0: ed16 64be b9b9 c3be ebef 0fbe 743f 65be
000000f0: 537f d1be 0903 b3be 9194 a03e 49f4 f8bd
00000100: 5bc3 a43c eac6 00bf 643e b5be 7092 3d3f
00000110: 347d ccbd ef8b 833b 1996 2bbf 43f2 e4bd
00000120: 9a48 c63d 5cb0 c7be 15c5 003f fd86 dabe
00000130: 1ffc 81bf 9f44 003e e354 463d 9a8a c93d
00000140: d5d2 0c3e 62d8 2d3e aced 4dbd 060e 923e
00000150: 45ab 723e 6e4f c2be 417d 40bf 23eb 733d
00000160: da67 1f3f 399a 8c3e 9b58 28bf 0780 debe
00000170: bc70 83be 6dd1 94bd 683e 043d c3a4 97bc
00000180: 2c96 2c3f 1a1d c4be 708f 0dbf 9849 753e
00000190: 406a 3b3e d34c e13d 6ab6 a7be 594f 033e
000001a0: dc86 afbe 9af0 29bf 7ddc ccbc 1181 cdbe
000001b0: 00db efbd cccf 51bd 6394 6b3e 455a 0bbf
000001c0: 7ffe 3f3e e7b8 313e 9cb6 783e f4c4 c23e
000001d0: aec9 1ebb 047b bc3c a18a 18be c632 a6bd
000001e0: 4101 c0be 5286 20bd c54c cbbc 1839 3dbf
000001f0: 5b7b 87be f994 c3be a4fc 0abf 7239 bb3c
00000200: 66f9 90be a768 3ebe 174d ebbd 8bc0 b8be
00000210: 8480 edbe 405e c7bd 8af4 6abf b989 ce3d
00000220: c141 0a3d a945 0c3b 739e 36be e500 983d
00000230: 015e 033d d3bf e2be 87ec 81bd cac8 b3be
00000240: ad30 d63b a102 98be 498f 82be b2b1 01be
00000250: 0617 aebe 036d 41be 16de 633d c2f8 71bd
00000260: b80e a8be 8ac1 2a3e 0fef c4bd b288 43bd
00000270: b2ec cebe 5dc5 9f3c 6977 2bbe 7d11 83bd
00000280: b3b7 643e a4ea a8bc 3594 b1be c864 05bf
00000290: 782c 0e3e 4226 283e 3fdc babd 869b e9bd
000002a0: c280 11be 2317 42bd d42a 5e3e 0121 8bbe
000002b0: 3ec6 1dbe 5041 683d 1627 573e 6d6d 3dbf
000002c0: 404e b23c 8caa 5fbd eb38 43bd 1171 cc3c
000002d0: b952 2bbe 099b 08bf 49b8 873e 272f 29be
000002e0: 3d89 b33d d43b 7cbc 7c85 393e 3668 20bf
000002f0: 1205 bc3c 611b 77be f3eb 23be 8d4c bc3d
00000300: 828d 26be bcc9 a63d fbc0 f6bd f798 183d
00000310: ebc0 56be 9faf 89bd 8c94 f33d cba5 4bbe
00000320: eec6 0dbe 10eb c0be f5fd ec3d 6737 35be
00000330: fc77 9bbc 380d 30bd c6a3 e9be 342c 953b
00000340: a25a b6be 53d2 1dbe 8255 63be 0d7e 9ebe
00000350: 7b71 0d3e d5c9 21be cea4 24bb d9bb 6dbe
00000360: 8e52 a93c 75ce 61be 3300 e0be 8996 10be
00000370: 5ee5 303d 21fe 6ebe b00c 1dbe 559f d13d
00000380: 520c ed3c e740 8fbe 503a 6f3d 941d 41be
00000390: c6d9 49be bedd 6bbe ceb9 98be 0ffb 9abe
000003a0: 7c18 2dbe d035 d33c fa11 afbe 7bd6 d23c
000003b0: d7ad 913e 3aa2 adbd 3979 b9bd ce08 063e
000003c0: 5279 8f3d 695d adbc c9f1 d0bc 48d9 80bc
000003d0: d802 71be 0db6 99be 17eb 07be e8f9 77be
000003e0: b7dc 50bd 58e9 c0bd f43b 14bf efd4 333e
000003f0: 0ecb 39bc a674 53bd 15be f8bc f143 eabe

encoder.gru.weight_hh f4 [192, 64]
-0.19985574 0.13892569 -0.09318881 0.31247327 0.05108212 0.19462566 -0.1313353 0.00014109224
0.31288078 -0.4226736 -0.29830882 -0.44664246 0.17108604 0.24630944 -0.009450213 -0.2746018
0.002425148 0.30413893 -0.13791345 0.10011331 0.3282728 0.4412853 -0.38982838 -0.029876783
0.29886684 0.026107399 -0.04895409 -0.22886163 -0.026816884 -0.05391903 -0.08607747 0.05869463
0.3258672 -0.02507702 -0.28831455 0.36122665 0.24217363 -0.15993354 0.07912196 0.333356
-0.008778693 0.452446 0.2602355 0.30407947 0.359755 -0.110634565 -0.14469765 0.15141842
0.26577738 -0.21786703 0.12527011 0.10231194 0.09872015 0.58483934 0.34148872 -0.06359945
0.011742292 -0.23346299 -0.5720842 -0.09467391 0.22753799 -0.24701294 -0.28362545 0.23248388
0.27306536 -0.47456986 0.1424991 0.273328 -0.11889045 -0.03795497 0.12697735 0.11421279
0.27651423 -0.194064 -0.5186678 -0.28273082 -0.20558397 0.080418274 -0.21390195 -0.3305769
0.024485383 0.45036033 -0.032945644 -0.015957935 0.21377073 0.22550458 -0.31852466 -0.24499264
0.22369562 0.02013982 -0.04672174 0.032651205 0.09431193 0.31429917 0.14238982 0.122668006
-0.118691176 0.10259452 -0.12399224 0.5715614 -0.26058948 -0.23144239 -0.012014597 -0.049795687
0.01874299 0.3032284 0.3639126 0.42038605 -0.0055997698 -0.10155766 -0.1438158 -0.23056954
0.1214606 -0.09264349 0.046191093 -0.26273292 -0.013754049 0.034693576 0.32075003 0.1719889
-0.22067486 0.22429316 -0.06605036 -0.47146317 0.25806364 -0.3307458 0.009855889 0.10803328
-0.04882388 0.30830768 0.034726094 -0.3290026 -0.3376054 0.08667262 -0.31202176 0.2107495
-0.18361194 -0.15326263 -0.28081682 -0.1667517 -0.37636876 -0.0019948985 -0.32398832 0.015432871
-0.21873425 -0.19076103 -0.0442237 -0.53151894 -0.1840128 0.31884068 -0.12762244 0.35315374
0.23342758 0.20319402 0.146572 0.09264283 -0.2976027 -0.37432748 -0.11853534 0.5186797
-0.31429097 0.26190093 -0.14250223 0.22516683 0.114642575 -0.10565805 -0.07170382 -0.18714541
-0.34905046 0.008116771 -0.04060937 0.22554655 0.0015473898 0.15933736 0.15423569 0.15160017
0.09606372 0.0044008773 0.29411104 -0.30603638 -0.16050218 -0.27795613 0.2516516 -0.75202376
0.15108722 -0.27024835 0.18556854 -0.20443365 0.12042421 -0.4518701 0.43224704 0.432699
0.016404482 0.045554385 0.07327382 0.19243924 -0.3853551 -0.21566488 0.08343979 -0.6137006
0.10899253 -0.3501527 0.077959254 -0.18407056 -0.07991713 0.12833403 0.2569154 -0.07741957
-0.31180245 0.08476218 0.021490837 -0.12515661 0.1680276 0.00980892 -0.1602284 0.2111143
-0.07725077 -0.113531545 0.11105585 -0.13473569 -0.054036483 0.057934526 0.09699767 -0.008233576
0.12949938 -0.29307032 -0.13002162 -0.010562871 0.13510936 0.11825326 0.06294638 -0.06921706
0.24724235 0.1261945 -0.063651316 0.2183013 0.09339787 0.20350768 0.09302846 0.2401194
-0.019552376 0.08441036 0.24510579 0.25724885 -0.14298938 0.28008327 -0.02963238 -0.2790004
-0.120815046 -0.015115688 -0.3903511 0.13388097 -0.04084659 0.13422258 -0.280778 0.106772564
00000000: fca6 4cbe 8942 0e3e c6d9 bebd 7ffc 9f3e
00000010: 7c3b 513d f34b 473e c37c 06be 29f2 1339
00000020: e931 a03e ad68 d8be efbb 98be 52ae e4be
00000030: 2e31 2f3e 8b38 7c3e 11d5 1abc 9b98 8cbe
00000040: 3bef 1e3b 19b8 9b3e 2f39 0dbe 3508 cd3d
00000050: 5f13 a83e 26f0 e13e 9697 c7be 28c0 f4bc
00000060: 1305 993e 2fdf d53c 1584 48bd b45a 6abe
00000070: 15af dbbc 33da 5cbd 6249 b0bd c869 703d
00000080: 11d8 a63e 536e cdbc f79d 93be b3f2 b83e
00000090: 5dfc 773e 9ec5 23be b20a a23d a3ad aa3e
000000a0: 82d4 0fbc 01a7 e73e 963d 853e 4eb0 9b3e
000000b0: cf31 b83e 6094 e2bd 9f2b 14be 6e0d 1b3e
000000c0: f913 883e 8918 5fbe cf46 003e ec88 d13d
000000d0: ca2d ca3d 08b8 153f 9cd7 ae3e 6e40 82bd
000000e0: be62 403c ec10 6fbe 1c74 12bf 65e4 c1bd
000000f0: b8ff 683e f6f0 7cbe 5b37 91be 4110 6e3e
00000100: 39cf 8b3e d2fa f2be 49eb 113e a6f1 8b3e
00000110: d67c f3bd ac76 1bbd 5a06 023e 65e8 e93d
00000120: 4693 8d3e b7b8 46be 6ac7 04bf 18c2 90be
00000130: 9b84 52be 56b2 a43d 1d09 5bbe 6041 a9be
00000140: 9295 c83c a195 e63e 03f2 06bd 37ba 82bc
00000150: b7e6 5a3e acea 663e aa15 a3be 5adf 7abe
00000160: 7710 653e 44fc a43c 4c5f 3fbd 45bd 053d
00000170: 9d26 c13d d2eb a03e a3ce 113e 5d39 fb3d
00000180: 5c14 f3bd 131d d23d a5ef fdbd d951 123f
00000190: fc6b 85be 3cff 6cbe dfd8 44bc 90f6 4bbd
000001a0: e68a 993c c140 9b3e c152 ba3e d73c d73e
000001b0: 467e b7bb 76fd cfbd 7344 13be 6c1a 6cbe
000001c0: 56c0 f83d dfbb bdbd df32 3d3d ee84 86be
000001d0: aa58 61bc da1a 0e3d 5939 a43e dc1d 303e
000001e0: 97f8 61be 1bad 653e 6945 87bd 9f63 f1be
000001f0: eb20 843e 8357 a9be 987a 213c 8d40 dd3d
00000200: 8cfb 47bd 81da 9d3e f33c 0e3d 0773 a8be
00000210: 9dda acbe 6a81 b13d 51c1 9fbe b8ce 573e
00000220: c504 3cbe e1f0 1cbe 39c7 8fbe f5c0 2abe
00000230: 68b3 c0be d8bc 02bb cce1 a5be 27da 7c3c
00000240: dffb 5fbe dc56 43be e923 35bd a011 08bf
00000250: da6d 3cbe 163f a33e 75af 02be 91d0 b43e
00000260: a407 6f3e 1812 503e f816 163e 86bb bd3d
00000270: 625f 98be daa7 bfbe a8c2 f2bd 31c8 043f
00000280: bfea a0be e117 863e 1bec 11be 2292 663e
00000290: bac9 ea3d 3f63 d8bd 74d9 92bd 0ca3 3fbe
000002a0: beb6 b2be 34fc 043c 0356 26bd adf5 663e
000002b0: c9d1 ca3a 5529 233e f6ef 1d3e 133d 1b3e
000002c0: 0ebd c43d 3c35 903b b995 963e cdb0 9cbe
000002d0: af5a 24be 4450 8ebe 7ad8 803e a184 40bf
000002e0: 9cb6 1a3e fe5d 8abe ae05 3e3e 0e57 51be
000002f0: f8a0 f63d 855b e7be 7c4f dd3e b98a dd3e
00000300: b162 863c 3c97 3a3d 9610 963d cb0e 453e
00000310: 434d c5be 41d7 5cbe 7be2 aa3d 7c1b 1dbf
00000320: 7a37 df3d 3747 b3be 1aa9 9f3d fe7c 3cbe
00000330: 98ab a3bd ff69 033e 6a8a 833e 278e 9ebd
00000340: 92a4 9fbe cb97 ad3d 8d0d b03c 0e29 00be
00000350: 6d0f 2c3e 98b5 203c ea12 24be 592e 583e
00000360: a735 9ebd 3a83 e8bd 4071 e33d 27f8 09be
00000370: 5c55 5dbd c14c 6d3d b7a6 c63d 1fe6 06bc
00000380: 7c9b 043e 500d 96be 6324 05be e40f 2dbc
00000390: 1c5a 0a3e c42e f23d 08ea 803d adc1 8dbd
000003a0: 192d 7d3e 2239 013e 9f5b 82bd 608a 5f3e
000003b0: 6247 bf3d 5164 503e b585 be3d dce1 753e
000003c0: 4e2c a0bc 57df ac3d 03fd 7a3e 1fb6 833e
000003d0: cf6b 12be 1367 8f3e 9bbf f2bc 24d9 8ebe
000003e0: e16d f7bd caa7 77bc 19dc c7be 1818 093e
000003f0: c14e 27bd a571 093e 22c2 8fbe 93ab da3d

encoder.gru.bias_ih f4 [192]
0.25152025 -0.06400827 0.05839933 -0.023972332 0.04667265 0.23036925 0.32465228 0.16716816
-0.17103873 0.07782773 -0.1579725 0.12864198 0.14353508 -0.014272581 -0.08640377 0.00756236
0.13067827 0.024299787 -0.17258601 -0.21562557 -0.21519846 0.020411916 0.007871282 -0.01602439
-0.16264106 -0.16244832 -0.2285312 0.041245405 -0.0037460579 -0.18856685 0.19604528 -0.18637401
0.2672644 0.28538194 -0.39455718 0.12580247 -0.36178917 -0.16328838 -0.14685766 -0.0014525891
-0.06742071 -0.038469013 0.06753944 0.2730281 0.15117618 -0.058687218 -0.41113764 -0.36063674
0.23450957 -0.094793156 0.22874697 -0.051754773 0.11590049 0.026149683 -0.05721967 0.28456226
-0.04705637 -0.08280767 0.11194051 0.093533725 0.06319818 0.12474343 -0.059183624 -0.23068728
-0.068584524 0.0070654727 0.28370962 0.2288056 0.14890306 0.01057991 0.20309386 0.23714967
0.3161879 0.23154365 0.036924593 -0.09428013 -0.12652121 0.2920016 -0.15512444 0.21868524
0.0921792 0.052049305 0.00999093 0.34708175 0.012391863 0.20503013 0.3836279 -0.03710161
0.2985505 0.19700572 0.2283975 0.17977075 0.3338966 0.21893948 0.2616554 0.48943913
-0.13027868 -0.08347591 0.20606889 -0.174086 0.34555608 0.2734343 0.12164683 -0.16097084
0.31319818 0.22009023 0.12817198 -0.062240835 0.1649094 0.26636782 0.2760955 0.4425827
0.29619724 0.038015295 -0.09651936 0.03935651 0.2427879 0.19706814 0.15903884 -0.17476976
-0.15610975 0.17424329 0.26438266 0.38747424 0.15155818 0.20134462 0.12103222 0.35432357
0.122173 -0.06835056 -0.012618384 -0.01497336 -0.080019794 -0.26438665 0.37212384 -0.018907333
0.16583689 0.24077547 -0.002987841 0.2110905 0.17493217 0.01681834 -0.15754014 0.1263541
-0.077780925 0.0799464 0.073007695 0.19923137 0.1473794 -0.20081942 0.11545492 0.09475438
0.16865818 0.06862998 -0.05315725 -0.07449414 -0.048069715 0.07135166 -0.1369268 -0.11060786
0.08651961 -0.39307442 -0.06467946 -0.055808265 0.0059842556 0.03426136 -0.18319823 -0.07132417
-0.08585168 -0.049628053 -0.18836756 -0.15286367 -0.14653003 0.008546803 0.06390136 0.0062770806
0.11112382 -0.021427762 -0.05536508 0.013023402 -0.1675678 -0.23294093 0.15364462 0.12183436
0.13326713 -0.16085279 0.18846594 0.11012436 -0.03623719 0.1905416 0.15829326 0.18024495
00000000: 43c7 803e c516 83bd 2334 6f3d a061 c4bc
00000010: d22b 3f3d ebe5 6b3e d338 a63e 212e 2b3e
00000020: c724 2fbe 2564 9f3d 8bc3 21be b9ba 033e
00000030: dcfa 123e 8bd7 69bc 76f4 b0bd accd f73b
00000040: 86d0 053e 5910 c73c 63ba 30be f3cc 5cbe
00000050: fc5c 5cbe e436 a73c 8df6 003c 9545 83bc
00000060: 618b 26be da58 26be 1504 6abe f1f0 283d
00000070: 6c80 75bb ab17 41be 18c0 483e d4d8 3ebe
00000080: e1d6 883e 951d 923e 6603 cabe 5dd2 003e
00000090: 6e3c b9be 1235 27be db61 16be cd64 beba
000000a0: df13 8abd af91 1dbd 1e52 8a3d 57ca 8b3e
000000b0: eecd 1a3e 0262 70bd a280 d2be 61a5 b8be
000000c0: 4723 703e ea22 c2bd a53c 6a3e d0fc 53bd
000000d0: 3c5d ed3d dc37 d63c 2c5f 6abd 25b2 913e
000000e0: 2ebe 40bd 1197 a9bd 1141 e53d 9c8e bf3d
000000f0: 0c6e 813d 7c79 ff3d 876a 72bd 4939 6cbe
00000100: 0b76 8cbd 7b85 e73b 6342 913e 044c 6a3e
00000110: 0b7a 183e 5c57 2d3c d6f7 4f3e 5dd7 723e
00000120: 61e3 a13e c719 6d3e 3e3e 173d f115 c1bd
00000130: c78e 01be 3c81 953e f1d8 1ebe 06ef 5f3e
00000140: 73c8 bc3d a731 553d ffb0 233c b3b4 b13e
00000150: 3e07 4b3c 6bf3 513e e06a c43e dcf7 17bd
00000160: 9cdb 983e debb 493e 09e1 693e d315 383e
00000170: 7ff4 aa3e ac31 603e b2f7 853e c497 fa3e
00000180: c667 05be 6bf5 aabd b903 533e 9a43 32be
00000190: baec b03e 95ff 8b3e f921 f93d 8ad5 24be
000001a0: 835b a03e 555f 613e 843f 033e 3ff0 7ebd
000001b0: 02de 283e 5d61 883e 645c 8d3e 339a e23e
000001c0: 2aa7 973e edb5 1b3d f1ab c5bd 4b34 213d
000001d0: 649d 783e 3bcc 493e 14db 223e d8f6 32be
000001e0: 3cdb 1fbe d56c 323e 2a5d 873e 0663 c63e
000001f0: 1132 1b3e 492d 4e3e bedf f73d e669 b53e
00000200: d635 fa3d 61fb 8bbd 57bd 4ebc d352 75bc
00000210: 6be1 a3bd b05d 87be 0487 be3e 8de3 9abc
00000220: 25d1 293e d88d 763e a7cf 43bb 1c28 583e
00000230: 6b21 333e 9ec6 893c 3452 21be f862 013e
00000240: 9b4b 9fbd f0ba a33d 0f85 953d 4f03 4c3e
00000250: a0ea 163e 9ba3 4dbe a173 ec3d 960e c23d
00000260: bbb4 2c3e e08d 8c3d 6bbb 59bd 6290 98bd
00000270: c0e4 44bd d220 923d 8a36 0cbe 6086 e2bd
00000280: 3131 b13d 0d41 c9be aa76 84bd 3597 64bd
00000290: 9317 c43b a455 0c3d 5198 3bbe 6812 92bd
000002a0: 01d3 afbd c946 4bbd 6de3 40be 4b88 1cbe
000002b0: f80b 16be e407 0c3c b7de 823d f8af cd3b
000002c0: e394 e33d 4689 afbc 7ec6 62bd 1b60 553c
000002d0: e596 2bbe 1188 6ebe 0455 1d3e 4b84 f93d
000002e0: 2e77 083e 98b6 24be 37fd 403e e188 e13d
000002f0: 736d 14bd 561d 433e a117 223e 2292 383e
