experiments/gat_hd128_ld64_nr5_ep500_nf2.0_dl2/model.pt (torch, 839997 bytes, 28 tensors)

encoder.input_net.0.weight f4 [128, 7]
0	0x3e9551bf	0.2916393
1	0x3e894912	0.2681356
2	0xbe56fc1e	-0.20994613
3	0xbe6a1f3b	-0.22863476
4	0x3e03ecee	0.1288335
5	0x3cbd3263	0.023095315
6	0x3e7099ab	0.2349612
7	0x390b3fad	0.00013279794
8	0x3dc485dd	0.09595845
9	0x3dcaa4b8	0.09894699
10	0x3e551118	0.20807302
11	0xbcc7efc0	-0.024406314
12	0x3e4b33ed	0.19844027
13	0xbd1627af	-0.03665894
14	0xbe7d6076	-0.24743828
15	0xbe7f4969	-0.24930348
16	0x3d216d82	0.039411075
17	0x3dcc6656	0.099804565
18	0xbd941fb0	-0.072326064
19	0x3db19b22	0.08672167
20	0x3ecf79b5	0.40522543
21	0xbd5f649f	-0.05453932
22	0xbcd75fa9	-0.026290732
23	0xbea5c867	-0.32379457
24	0x3e97e600	0.29667664
25	0xbdb098bb	-0.08622881
26	0x3ddc7b65	0.10765723
27	0xbead675c	-0.3386792
28	0x3ec7ec84	0.39047635
29	0x3db53303	0.0884762
30	0x3e265a9f	0.16245507
31	0xbdf9c7a7	-0.12196284
32	0x3ec6b2d8	0.38808322
33	0xbcde0041	-0.02709973
34	0xbe93129b	-0.28725132
35	0xbe3457c2	-0.17611602
36	0xbe246b05	-0.1605645
37	0xbe019738	-0.12655342
38	0xbdc38483	-0.09546759
39	0xbdc8b5b2	-0.09800281
40	0xbe554d24	-0.20830208
41	0xbe9e615a	-0.30933648
42	0x3e658895	0.22415383
43	0x3e004995	0.1252807
44	0xbeae14e9	-0.34000328
45	0xbea0a103	-0.31372842
46	0xbe387fe2	-0.18017533
47	0xbe58b6cc	-0.21163481
48	0x3e7494ac	0.23884839
49	0x3e601270	0.21882033
50	0xbe90f96f	-0.28315303
51	0xbd1c582b	-0.03817002
52	0x3d2acea9	0.041700993
53	0xbe74f02a	-0.2391974
54	0xbd96f751	-0.073713906
55	0xbdd3d73d	-0.10343788
56	0xbe9c4225	-0.30519214
57	0xbe87017f	-0.2636833
58	0xbea425cb	-0.32060084
59	0xbea73d95	-0.3266417
60	0xbe9b5417	-0.30337593
61	0xbe9c5984	-0.30537045
62	0xbe565979	-0.20932569
63	0xbd131ed6	-0.03591808
64	0x3e744c57	0.23857246
65	0xbe146d3a	-0.14494792
66	0xbea35e5c	-0.31907928
67	0xbe687b01	-0.22703172
68	0x3e16e835	0.14737017
69	0xbe5a18ce	-0.21298525
70	0x3dfad581	0.12247754
71	0xbe8ea766	-0.2786209
72	0xbe181b57	-0.1485418
73	0xbd14d972	-0.036340185
74	0x3e42ae77	0.19011866
75	0xbd22486a	-0.03961984
76	0xbd061570	-0.03273529
77	0x3ddfe9cc	0.10933265
78	0xbeb98826	-0.36236686
79	0xbe86d329	-0.26332977
80	0xbea9973b	-0.33123192
81	0x3e1cd193	0.15314321
82	0x3ca9b8d7	0.020718021
83	0xbdd1c22e	-0.10242115
84	0x3e969030	0.2940688
85	0xbe4e0410	-0.20118737
86	0xbe968e6a	-0.29405528
87	0x3ea36c33	0.31918487
88	0xbdb9c959	-0.09071607
89	0x3e63eaab	0.22257487
90	0x3e028090	0.12744355
91	0xbe8bacdd	-0.27280322
92	0xbcf8fcdf	-0.030394016
93	0xbd0b1c61	-0.03396261
94	0xbc658171	-0.014007912
95	0xbeaff7e1	-0.34368804
96	0x3e8ee5f6	0.2790982
97	0x3e950fc9	0.29113606
98	0xbeafe842	-0.34356886
99	0xbe7731fa	-0.24140158
100	0xbe1890ad	-0.1489894
101	0xbea29ea1	-0.3176165
102	0x3e2697e8	0.16268885
103	0xbe78c096	-0.24292216
104	0xbe88106b	-0.26575026
105	0x3e2ad50d	0.16682835
106	0x3c2ea4da	0.010659421
107	0xbdf65d83	-0.12029555
108	0x3dec5600	0.11539841
109	0xbadbe607	-0.0016776928
110	0x3d958df5	0.07302467
111	0xbe292b46	-0.16520414
112	0xbe586862	-0.21133569
113	0xbe57e925	-0.21085031
114	0xbe59f154	-0.21283466
115	0x3e92c395	0.28664842
116	0x3d96298a	0.07332142
117	0x3efd1129	0.49427155
118	0x3df66f50	0.1203295
119	0x3c1cfb73	0.009581435
120	0x3e2fd88f	0.17172454
121	0xbdb093f0	-0.08621967
122	0xbea9c380	-0.33156967
123	0xbe1307b6	-0.1435841
124	0x3e46497a	0.19363967
125	0x3d9d479c	0.07679674
126	0xbe08c1ea	-0.13355222
127	0xbe4b8c53	-0.19877748
128	0x3e3342d3	0.1750596
129	0x3e13ac75	0.14421256
130	0x3d4e5617	0.05037507
131	0xbe3fe0e8	-0.18738139
132	0xbea589dc	-0.3233174
133	0x3d8d7da8	0.06908733
134	0x3e1ae3b8	0.1512593
135	0xbe82cbd0	-0.25546122
136	0x3e3c5823	0.18392996
137	0xbdb2caac	-0.08730063
138	0xbe9b5379	-0.30337122
139	0x3c45ac87	0.0120650595
140	0xbe8a9aee	-0.27071327
141	0xbe5b1d0b	-0.21397798
142	0xbea6f882	-0.3261147
143	0x3ec2ffc9	0.38085774
144	0x3ed11ab2	0.4084068
145	0x3d9efa77	0.07762616
146	0x3ecda2e2	0.40163332
147	0xbc4a16e7	-0.012334562
148	0x3e990760	0.2988844
149	0x3e41677f	0.18887137
150	0xbe38f53a	-0.18062297
151	0xbdc1f353	-0.094702385
152	0xbcc35d8f	-0.023848323
153	0x3c734503	0.014847997
154	0x3db6cd4b	0.08925875
155	0x3dbf1fd5	0.09332243
156	0xbeabc707	-0.33550283
157	0xbe94f2e4	-0.2909156
158	0x3ea22ff3	0.31677207
159	0xbbd7d7c2	-0.0065869996
160	0xbebeba89	-0.3725169
161	0xbe9dc850	-0.3081689
162	0x3e8a542d	0.27017346
163	0x3e77192a	0.24130693
164	0x3ee8051b	0.45316395
165	0xbe5408bb	-0.20706455
166	0x3e80e83e	0.25177187
167	0x3ed2f0c5	0.41199318
168	0x3d28f0f6	0.041245423
169	0x3ea0a31c	0.31374443
170	0xbe0e3df5	-0.13890822
171	0x3ec24273	0.37941322
172	0xbe9a6c68	-0.30160832
173	0x3df8979a	0.12138291
174	0x3e2e3ce3	0.17015414
175	0xbdf42b81	-0.1192236
176	0x3ea8c2ff	0.3296127
177	0xbdef226f	-0.116764896
178	0x3f1caac8	0.6119809
179	0x3edc5835	0.43036047
180	0xbe719b3a	-0.2359437
181	0x3d3fe2c4	0.04684712
182	0xbed3494a	-0.41266853
183	0x3f038de7	0.513884
184	0x3e093900	0.1340065
185	0xbd36c2e3	-0.044619452
186	0x3e10e2b1	0.14148976
187	0x3c5fd418	0.013661407
188	0x3e732c55	0.2374738
189	0x3ec3c1c3	0.38233766
190	0xbdb48651	-0.08814681
191	0xbdf0f0ae	-0.11764656
192	0x3debe174	0.11517611
193	0x3d491d82	0.049100406
194	0xbe0ddef6	-0.13854584
195	0xbe9c9eb8	-0.30589843
196	0xbe99b8c9	-0.30023792
197	0x3e2968b8	0.16543853
198	0x3ea141fd	0.31495658
199	0x3eae43e8	0.34036183
200	0xbd518af0	-0.05115789
201	0xbea612e4	-0.32436287
202	0xbd9a59c7	-0.07536655
203	0xbea924c9	-0.33035877
204	0xbe2031b6	-0.15643963
205	0xbe31b061	-0.1735244
206	0xbda8149c	-0.08207056
207	0x3d5574b3	0.052113246
208	0xbea65328	-0.32485318
209	0xbea98da7	-0.33115885
210	0xbdc1ee38	-0.09469265
211	0x3e422d16	0.18962511
212	0xbe9adb48	-0.30245423
213	0xbe9515bb	-0.29118142
214	0xbe9ac977	-0.3023183
215	0xbe8160c6	-0.25269145
216	0x3ef014bd	0.46890822
217	0xbe16a260	-0.14710379
218	0x3eb6a1bf	0.35670277
219	0xbe585dfe	-0.21129605
220	0xbe4222db	-0.18958609
221	0x3e560410	0.20899987
222	0xbe3ad181	-0.18243982
223	0xbe416935	-0.1888779
224	0x3e916984	0.28400815
225	0xbdc39f48	-0.09551865
226	0x3e6d60b2	0.23181418
227	0xbe41dfb9	-0.18933
228	0x3ea60737	0.3242738
229	0x3e8fcc73	0.2808567
230	0x3daf62c7	0.08563762
231	0x3ec78a65	0.38972774
232	0x3e60a9c5	0.21939762
233	0xbe96d31d	-0.29457942
234	0xbc873416	-0.016504329
235	0xbea10087	-0.31445715
236	0xbda5eb5e	-0.08101533
237	0x3dd17769	0.10227854
238	0x3dde96e6	0.10868625
239	0xbe9b83ec	-0.30374086
240	0x3e1b2f05	0.15154655
241	0xbb8b6eb1	-0.004255139
242	0xbd893858	-0.067002
243	0xbe31a1c6	-0.17346868
244	0xbe581300	-0.21100998
245	0xbe37d2e6	-0.17951545
246	0x3d60700f	0.054794367
247	0x3ce08f34	0.027412035
248	0x3e80ef76	0.25182694
249	0x3eda5c12	0.4264837
250	0x3e79c0a6	0.24389896
251	0xbe3fb9a7	-0.18723164
252	0xbe8d1b7a	-0.27560025
253	0x3e70ea5a	0.23526898
254	0x3ebe6d15	0.37192598
255	0x3b0a0eb4	0.0021065893

encoder.input_net.0.bias f4 [128]
0	0x3e167044	0.14691263
1	0xbb4f678b	-0.003164741
2	0x3e6a0c53	0.22856264
3	0xbe9a6730	-0.3015685
4	0x3db88e0f	0.090114705
5	0xbd758bb2	-0.059947677
6	0x3e2dc64e	0.16970178
7	0xbe74a1b9	-0.23889817
8	0x3e54519a	0.20734254
9	0xbe76ec32	-0.24113539
10	0x3c01739b	0.007901098
11	0x3e9c216c	0.3049425
12	0xbe80bcd0	-0.25144053
13	0xbe992873	-0.29913673
14	0xbe2a68a9	-0.16641487
15	0xbe63baee	-0.22239277
16	0x3e4bcc8c	0.19902247
17	0xbead2242	-0.338152
18	0x3debdfe7	0.11517315
19	0xbe9c7910	-0.30561113
20	0x3ea1aff9	0.3157957
21	0xbc1c3d3e	-0.009536086
22	0xbea3e5b4	-0.32011187
23	0xbb010ece	-0.0019692662
24	0xbe34bbf6	-0.17649826
25	0xbe86fd5c	-0.26365173
26	0x3ed4c4d4	0.41556418
27	0x3e45addb	0.19304602
28	0xbe642c0a	-0.22282425
29	0xbd5b56dc	-0.053549632
30	0x3d023b86	0.031795047
31	0x3dbe46c3	0.092908405
32	0x3ea661af	0.32496402
33	0x3d99063b	0.074718915
34	0x3e437882	0.19088939
35	0x3e1a11d8	0.1504587
36	0xbe4a262b	-0.19741122
37	0x3d81d62d	0.06339679
38	0x3dbe56ec	0.09293923
39	0xbeb0b22a	-0.34510928
40	0xbcfdc6fc	-0.030978672
41	0x3d4aa135	0.049470145
42	0xbdb4eaf8	-0.08833879
43	0x3e0f828d	0.14014645
44	0x3dde43d5	0.10852782
45	0x3dea14a9	0.11429722
46	0xbc493fc0	-0.012283266
47	0x3cdd03f1	0.026979418
48	0x3cf56d3a	0.02995931
49	0xbe5be370	-0.2147348
50	0xbdb4fb35	-0.088369764
51	0x3e31b850	0.17355466
52	0xbeaa2e80	-0.33238602
53	0x3e20f1f0	0.15717292
54	0xbd982a87	-0.074299864
55	0x3eb79582	0.35856253
56	0xbe1a84f3	-0.15089779
57	0xbe9c3e03	-0.3051606
58	0xbeaa9eaf	-0.3332419
59	0xbd512586	-0.051061176
60	0x3aa203a3	0.0012360703
61	0xbe767f40	-0.2407198
62	0xbc9cce6a	-0.019141395
63	0xbea35f30	-0.3190856
64	0x3e9bf73e	0.30462068
65	0x3d82966c	0.06376347
66	0xbd065ef0	-0.032805383
67	0x3e2d864b	0.1694576
68	0xbcde3bc7	-0.027128113
69	0xbe6d9ccf	-0.23204349
70	0xbda72f9e	-0.08163379
71	0x3e932909	0.28742245
72	0x3de0d5c0	0.109782696
73	0xbe449abb	-0.1919965
74	0x3d85a70e	0.06526004
75	0xbdd0dbd1	-0.10198177
76	0xbd5aecb2	-0.053448386
77	0x3eb262ec	0.34841096
78	0xbe20a463	-0.15687709
79	0xbd51fb7e	-0.051265232
80	0x3e0ea363	0.13929515
81	0x3d94bc0b	0.07262429
82	0x3e6a7207	0.2289506
83	0xbec0c0bd	-0.37647048
84	0xbe0fd3c3	-0.14045624
85	0x3db4a3cb	0.088203035
86	0xbb80da92	-0.0039323056
87	0x3e9eaab1	0.30989602
88	0xbe46d287	-0.19416247
89	0x3c879c85	0.016554127
90	0x3e0b5424	0.13606316
91	0xbe1f4892	-0.15555027
92	0x3e60e329	0.21961655
93	0xbea53f28	-0.32274747
94	0x3dc4c617	0.09608095
95	0x3e532617	0.20619999
96	0xbd276c22	-0.040874608
97	0xbe2e1cf9	-0.1700324
98	0x3e86207d	0.26196662
99	0x3e756b9c	0.23966831
100	0xbdef9003	-0.1169739
101	0xbeb16488	-0.34647012
102	0xbdf174a2	-0.11789824
103	0xbe34b92c	-0.17648762
104	0x3d45b222	0.048265584
105	0x3e8eb6b8	0.27873778
106	0xbe1051a9	-0.14093651
107	0x3e99bb16	0.30025548
108	0x3d0b9beb	0.03408424
109	0xbe93b91d	-0.28852168
110	0xbe48e81e	-0.19619796
111	0x3e05498a	0.13016334
112	0x3e3d2e46	0.18474683
113	0xbe475543	-0.19466119
114	0x3e59abbf	0.21256922
115	0xbe20cd0b	-0.15703218
116	0xbe0c1759	-0.13680781
117	0xbe287d01	-0.16453935
118	0xbe5e03b7	-0.21681105
119	0x3e6fd995	0.23422845
120	0x3d0bb768	0.034110457
121	0xbdabe743	-0.08393719
122	0xbdf5fdc6	-0.12011294
123	0xbe8eb60d	-0.2787327
124	0xbdcc290c	-0.099687666
125	0xbd205d5a	-0.039151527
126	0xbc42fb62	-0.011900755
127	0x3e8dee3a	0.27720815

encoder.message_net.0.0.weight f4 [128, 128]
0	0xbd410c7a	-0.04713104
1	0x3d2864b8	0.041111678
2	0xbc209686	-0.009801513
3	0xbd4dbbda	-0.050227977
4	0x3d2c6461	0.042087916
5	0x3d902f9c	0.07040331
6	0x3d991c42	0.07476093
7	0x3d3b9903	0.04580022
8	0xbd8a644b	-0.067574106
9	0x3d887076	0.06662075
10	0xbd0bad2f	-0.034100708
11	0x3ce43885	0.027858982
12	0xbd38e464	-0.045139685
13	0xbd3adf3b	-0.045623045
14	0x3c628ce6	0.013827538
15	0xbda90005	-0.08251957
16	0x3da9e80f	0.08296215
17	0xbd8a35f7	-0.06748574
18	0x3d9a9735	0.07548372
19	0x3d8caa50	0.06868422
20	0x3d9cc92e	0.076555595
21	0xbd9711e5	-0.0737646
22	0xbcb48e00	-0.022040367
23	0xbd182d0e	-0.037152342
24	0x3d7fc7e3	0.062446486
25	0x3cb82d26	0.022482466
26	0xbc266aeb	-0.010157327
27	0xb993f378	-0.00028219423
28	0x3da3ed36	0.08004229
29	0x3d95477e	0.07289027
30	0x3c4a54b8	0.0123493
31	0xbd60bb2e	-0.05486601
32	0xbd36d51f	-0.044636842
33	0xbb8b0fd2	-0.0042438293
34	0xbcf60d29	-0.030035572
35	0xbcfb82d8	-0.03070204
36	0x3cd89b1d	0.026441151
37	0xbcb086ee	-0.021548714
38	0xbdb01d86	-0.08599381
39	0x3d4cde08	0.050016433
40	0xbd5e56bf	-0.054281946
41	0xbce84c47	-0.028356684
42	0xbd9e988c	-0.0774394
43	0xbd1f43a5	-0.03888287
44	0xbd081308	-0.033221275
45	0xbd571cca	-0.05251769
46	0xbdad5599	-0.08463592
47	0xbd710de5	-0.05885114
48	0xbd93767e	-0.07200335
49	0xbc97171e	-0.01844364
50	0x3c3489ea	0.011019209
51	0x3da6ce14	0.08144775
52	0xbd840994	-0.064471394
53	0xbd1dfcb8	-0.03857109
54	0x3d432c1f	0.0476495
55	0xbd8d5895	-0.06901661
56	0x3d83023b	0.0639691
57	0xbd904e8b	-0.07046231
58	0xbd599067	-0.05311623
59	0x3cef1411	0.029184373
60	0x3c0d6f0c	0.008632433
61	0xbd5d7008	-0.05406192
62	0x3d6ab4c3	0.057301294
63	0x3c63df29	0.013908186
64	0x3cb612b6	0.022225719
65	0x3daa951c	0.083292216
66	0xbdac47f2	-0.0841216
67	0xbc0efb56	-0.008726915
68	0x3d9e069b	0.07716104
69	0xbd9cb1bb	-0.07651087
70	0x3d27ef8a	0.040999927
71	0xbb59ee5f	-0.0033253653
72	0xbcfd7a0a	-0.030941982
73	0x3d40d347	0.04707649
74	0xbd3a733e	-0.04552006
75	0x3cb7df5e	0.022445377
76	0x3d149ce5	0.03628244
77	0x3d826f59	0.06368894
78	0x3ceb4ade	0.028722223
79	0xbd7f1ca8	-0.062283188
80	0x3c151101	0.009098292
81	0xbad4cf65	-0.0016236125
82	0xbd694cbc	-0.056957945
83	0xbda970ab	-0.08273443
84	0xbd9eab38	-0.07747501
85	0xbd2ed434	-0.04268284
86	0x3da48b3d	0.0803437
87	0xbd3778f3	-0.04479308
88	0x3d2dc77d	0.042426575
89	0xbd7c3e48	-0.061582834
90	0xbcba5b4d	-0.022748614
91	0xb9a09a04	-0.0003063233
92	0xbd93f9d3	-0.072253846
93	0x3d2ffa7e	0.042963497
94	0xbd1350fa	-0.035965897
95	0x3d8f1c8d	0.069878675
96	0x3d38241a	0.044956304
97	0x3c3ed56f	0.011647566
98	0x3d37e7ad	0.044898678
99	0x3cd36188	0.025803342
100	0xbdb30ace	-0.08742295
101	0x3d97ed6e	0.07418333
102	0x3da86a30	0.08223379
103	0xbd77e5a4	-0.060521737
104	0x3d8c74ee	0.0685824
105	0x3d75cefd	0.060011853
106	0x3d99df7b	0.07513329
107	0x3c429385	0.011875992
108	0xbd8306e6	-0.063978
109	0xbd07bf81	-0.033141617
110	0x3d88ae92	0.06673922
111	0xbd0d14f0	-0.034443796
112	0xbd67a65c	-0.056555137
113	0x3dacd59b	0.084391795
114	0xbd9065e4	-0.07050684
115	0x3d1887c6	0.03723886
116	0x3c1a706b	0.009426217
117	0xbd126769	-0.03574315
118	0x3da760bb	0.08172747
119	0xbd4e6759	-0.05039153
120	0xbd9d6bb5	-0.07686559
121	0xbda265d7	-0.07929581
122	0xbcb5a88e	-0.0221751
123	0xbdb0bba3	-0.08629539
124	0x3c20a993	0.009806055
125	0x3ce96fb7	0.028495653
126	0xbceef8a5	-0.029171297
127	0x3bb2a273	0.0054514944
128	0x3ce7e670	0.028308123
129	0x3d93a4bd	0.07209156
130	0x3d5ccfb8	0.053909034
131	0x3d1fa808	0.038978606
132	0xbdaf4f93	-0.085600995
133	0xbc69d8a2	-0.014272841
134	0xbd18fc55	-0.037350018
135	0xbcdcb5f1	-0.026942225
136	0x3cd3a0ac	0.02583345
137	0xba485038	-0.0007641348
138	0xbd19a0b4	-0.037506774
139	0x3d8bd483	0.06827643
140	0xbc195456	-0.009358486
141	0x3daa6946	0.083208606
142	0x3da8875b	0.08228942
143	0xbd1bbaec	-0.03802006
144	0xbcb9dfe9	-0.022689776
145	0xbd8dd3e1	-0.06925178
146	0x3cf0be60	0.029387653
147	0x3d9f8dfd	0.07790754
148	0x3cc73523	0.02431733
149	0x3d9780b8	0.07397598
150	0x3d77b19f	0.060472127
151	0xbdb0f2af	-0.08640038
152	0x3ba770bf	0.005109876
153	0xbc97d3e5	-0.018533656
154	0xbcf432e4	-0.029809423
155	0xbdb757c2	-0.08952285
156	0x3d88b58f	0.066752546
157	0x3d32df8d	0.043670226
158	0xbc738930	-0.014864251
159	0xbc0cc30d	-0.008591426
160	0xbcebe39b	-0.028795054
161	0xbd19cca1	-0.037548665
162	0xbd47305a	-0.048630096
163	0x3d308afc	0.043101296
164	0x3d14a5c2	0.03629089
165	0xbd042ed9	-0.03227124
166	0x3d894dad	0.067042686
167	0xbd50d52c	-0.050984547
168	0xbd604ff7	-0.05476376
169	0x3d89757d	0.06711862
170	0xbd630f53	-0.055434536
171	0xbd967583	-0.07346632
172	0xbd6734cc	-0.056446835
173	0xbcadfce9	-0.021238761
174	0x3b94c806	0.004540446
175	0x3cac0592	0.02099875
176	0x3dafa0c0	0.085755825
177	0xbd5d159d	-0.05397569
178	0x3d3f7c31	0.046749298
179	0xbb8319af	-0.0040008645
180	0x3d8069eb	0.06270202
181	0xbda20d15	-0.079126514
182	0x3cfbc101	0.03073168
183	0x3cd4dee8	0.025985196
184	0xbd8488c0	-0.064713955
185	0x3cbc4eea	0.022986848
186	0x3db37658	0.08762807
187	0x3c8ccf33	0.017188644
188	0x3c9eff43	0.019408828
189	0xbd09b6b8	-0.03362152
190	0x3d6618f2	0.056176133
191	0x3d409e0c	0.047025725
192	0xbce1ba2a	-0.02755459
193	0xb9949346	-0.00028338487
194	0x3d1cc21d	0.03827106
195	0xbd4cc3e7	-0.049991515
196	0x3d1bc9e8	0.03803435
197	0xbda44f92	-0.08022989
198	0xbd9e078a	-0.07716282
199	0xbc3ba9a3	-0.011454019
200	0x3c4ec807	0.012620932
201	0xbd978688	-0.07398707
202	0x3da4e7bc	0.08052012
203	0xbd39cea5	-0.045363087
204	0x3d1ab490	0.037769854
205	0xbd0dbcdc	-0.03460394
206	0xbc0f261f	-0.008737116
207	0xbd8f7b86	-0.07005982
208	0x3d4d31d0	0.050096333
209	0x3d13cca2	0.036083825
210	0x3c2e11f9	0.010624402
211	0xbd227df4	-0.0396709
212	0x3d8eeb94	0.06978527
213	0x3d9350fb	0.0719318
214	0xbc9369ea	-0.01799484
215	0xbd08afc9	-0.033370767
216	0x3d993c4b	0.07482203
217	0xbd92e1eb	-0.07171997
218	0xbc9de0c6	-0.01927222
219	0x3b9f4851	0.0048609157
220	0x3b94a92d	0.004536769
221	0xbb759de1	-0.0037478136
222	0x3d98b397	0.07456129
223	0x3d120292	0.035646982
224	0x3c6e9667	0.014562226
225	0xbd89915c	-0.06717178
226	0x3d356293	0.04428346
227	0xbcff628f	-0.031174926
228	0xbcdb2059	-0.026748823
229	0x3d89e937	0.06733935
230	0x3cdc94e2	0.026926462
231	0xbda23099	-0.079194255
232	0xbd2ef5ce	-0.042714886
233	0xbd0113ff	-0.03151321
234	0x3d2dc397	0.042422857
235	0xbd6d7401	-0.057971958
236	0x3d1aee9d	0.037825216
237	0x3dac942c	0.08426699
238	0x3d811ba4	0.063041
239	0x3cd06c18	0.025442168
240	0xbc429e13	-0.011878508
241	0xbcdd803c	-0.027038686
242	0xbd9feb66	-0.078085706
243	0x3cceb8fa	0.025234688
244	0x3ca84345	0.02053989
245	0x3d902700	0.07038689
246	0xbc710322	-0.01471022
247	0xbda5a63a	-0.08088346
248	0x3bdb57e3	0.0066938265
249	0x3cdf54bb	0.027262082
250	0x3d805465	0.06266097
251	0xbd0e9921	-0.034814004
252	0x3d4fdd58	0.0507482
253	0x3d8b1d17	0.06792658
254	0x3da91f00	0.08257866
255	0xbc59f0d9	-0.013302051

encoder.message_net.0.0.bias f4 [128]
0	0xbbd82d5c	-0.006597204
1	0xbd375a8c	-0.044764087
2	0x3d148fec	0.036270067
3	0xbc83a4d4	-0.016069807
4	0xbd6901f5	-0.056886632
5	0xbcf5539d	-0.029947096
6	0x3d83a4b9	0.06427903
7	0xbd6dc4a3	-0.058048856
8	0xbd973008	-0.07382208
9	0x3dbc73fc	0.0920181
10	0xbd750360	-0.05981767
11	0xbd9efa26	-0.07762556
12	0x3d938de1	0.07204796
13	0xba670176	-0.00088121684
14	0xbd4cb1d6	-0.049974285
15	0xbd49060f	-0.049078044
16	0x3d5e7b82	0.054317005
17	0xbcd31e11	-0.025771173
18	0x3c839a52	0.016064797
19	0xbccb1245	-0.024788985
20	0x3daaed7d	0.083460785
21	0x3ca8abc5	0.020589719
22	0xbbdd2632	-0.006748938
23	0xbd72b970	-0.05925888
24	0xbd32d18a	-0.043656863
25	0xbd238ada	-0.03992734
26	0xbd09330d	-0.03349595
27	0xbd24d2d0	-0.04024011
28	0xbd755506	-0.059895538
29	0xbd88ce45	-0.06679968
30	0xbcf6f88f	-0.030147819
31	0x3d1eb1fd	0.03874396
32	0xbcd591df	-0.026070533
33	0xbd35206b	-0.04422037
34	0x3c8762f2	0.016526673
35	0xbcdf930e	-0.0272918
36	0xbd3883ab	-0.045047443
37	0xbb16c64a	-0.0023006373
38	0xbd732341	-0.059359793
39	0x3d9e5acc	0.07732162
40	0x3d773a00	0.060358047
41	0xbd32e81b	-0.043678384
42	0x3d81716a	0.0632046
43	0x3da7153b	0.08158346
44	0x3db9dc6b	0.090752445
45	0xbd6f9bdf	-0.05849826
46	0x3d6512c6	0.055926107
47	0x3d402c04	0.046916977
48	0xbb42fd21	-0.0029752927
49	0x3d761117	0.060074892
50	0x3d9f5a2b	0.0778087
51	0xbd57ff59	-0.052733753
52	0x3d818898	0.06324881
53	0x3d6f9bf9	0.058498356
54	0xbcb160aa	-0.021652538
55	0xbd80cfef	-0.0628966
56	0xbd1b74b9	-0.037953112
57	0xbd78e361	-0.06076372
58	0xbd38ab4e	-0.045085244
59	0xbce96ae8	-0.02849336
60	0x3d81cfbc	0.0633845
61	0x3c05fb9d	0.008177665
62	0xbc17b57d	-0.009259579
63	0xba28c267	-0.00064376596
64	0xbd32d179	-0.0436568
65	0xbd377f83	-0.04479934
66	0xbd8e00e7	-0.06933766
67	0x3c76c72a	0.015062133
68	0xbd2c7e16	-0.042112432
69	0x3d4dd14e	0.050248437
70	0x3bece986	0.0072299866
71	0x3bedc345	0.007255944
72	0xbd448dc3	-0.047986757
73	0x3d949aa8	0.07256061
74	0x3c79013d	0.015198049
75	0xbd3eec9f	-0.04661238
76	0xbdd5234b	-0.10407122
77	0xbd741fdf	-0.059600707
78	0x3d6c0fa3	0.0576321
79	0x3b9c3ce7	0.0047680023
80	0xbd70ee89	-0.058821235
81	0xbd9c1fe3	-0.076232694
82	0xbc21774a	-0.009855101
83	0x3c13c441	0.009018959
84	0xbd8fe26f	-0.07025611
85	0x3d737045	0.05943324
86	0x3d1ab74b	0.037772458
87	0xbd3f872f	-0.04675978
88	0xbb8d6f92	-0.0043162787
89	0x3bcaa1e8	0.0061838515
90	0xbd80afd3	-0.06283536
91	0x3c63af5f	0.013896792
92	0xbd82b78b	-0.06382664
93	0xbd288985	-0.041146774
94	0x3d5d841b	0.054081064
95	0x3d04afdc	0.032394275
96	0xbd32dc0f	-0.043666895
97	0xbd54bc04	-0.05193712
98	0xbdace144	-0.084414035
99	0x3d6a45d3	0.057195496
100	0xbd93e89b	-0.072221
101	0x3d3d068e	0.04614883
102	0xbd8fdaf0	-0.07024181
103	0xbd98e1fa	-0.074649766
104	0x3d41fe25	0.04736151
105	0xbd95c810	-0.073135495
106	0xbd049412	-0.032367773
107	0xbd8663cd	-0.06562004
108	0xbc106d10	-0.008815065
109	0x3d0ae50f	0.033909854
110	0xbd8aa0f3	-0.0676898
111	0x3cd80219	0.026368188
112	0x3da3e590	0.0800277
113	0xbd45c22c	-0.04828088
114	0xbcce1c38	-0.02515994
115	0xbcff99c2	-0.031201247
116	0x3c1beb18	0.0095165
117	0x3cbe6282	0.023240332
118	0xbc839cc8	-0.01606597
119	0xbdad9058	-0.08474797
120	0xbd3d5c55	-0.046230633
121	0xbbd5c741	-0.006523997
122	0xbc287b8d	-0.010283363
123	0xbb098021	-0.0020980912
124	0xbc924366	-0.017854404
125	0xbac91e92	-0.0015344194
126	0xbd1ae84d	-0.037819196
127	0xbdc98629	-0.09840042

encoder.message_net.1.0.weight f4 [128, 128]
0	0xbbdfc3db	-0.0068287677
1	0xbd88a4d7	-0.06672066
2	0xbd51bd27	-0.05120578
3	0xbdcee8a9	-0.1010297
4	0xbcbda6e9	-0.023150878
5	0x3d4284c8	0.04748991
6	0xbddc70a2	-0.107636705
7	0xbdc0313c	-0.09384391
8	0xbdc11d25	-0.09429387
9	0xbd6bdefe	-0.05758571
10	0x3c873e58	0.01650922
11	0x3ca6c345	0.020356784
12	0xbd395198	-0.04524383
13	0xbc18b858	-0.009321295
14	0xbcfe8bab	-0.031072458
15	0x3db1d69c	0.086835116
16	0x3ac6b243	0.0015159327
17	0x3d977f8b	0.07397374
18	0xbc881203	-0.016610151
19	0xbe1bad1a	-0.15202752
20	0x3d3387a4	0.04383053
21	0xbccc672b	-0.024951538
22	0xbd8a071e	-0.06739639
23	0xbd99e8dd	-0.07515118
24	0xbd8c8878	-0.06861967
25	0xbd8f0270	-0.06982887
26	0x3cbd0c92	0.023077283
27	0x3d3db44e	0.04631453
28	0xbcda6661	-0.026660146
29	0xbd3856f1	-0.04500479
30	0x3cc13a67	0.023587419
31	0xbc922d9f	-0.01784402
32	0xbda46cbe	-0.080285534
33	0x3bf9c5ea	0.00762247
34	0xbdd397ad	-0.10331664
35	0xbdb376d4	-0.08762899
36	0xbe13c5ed	-0.14430971
37	0x3c4ffd7a	0.012694711
38	0x3cae72c3	0.021294957
39	0x3d45d322	0.048297055
40	0xbd9a4c19	-0.07534046
41	0xbb066c3c	-0.002051129
42	0xbd4baf5b	-0.04972778
43	0x3dcf0f50	0.101103425
44	0x3cd648ed	0.02615782
45	0x3d863e47	0.06554847
46	0xbc8e2ea2	-0.01735622
47	0xbdac5089	-0.08413798
48	0x3d6c7dbd	0.0577371
49	0xbb47b210	-0.0030471124
50	0xbddec8c9	-0.108781405
51	0x3d6cbf50	0.057799637
52	0x3dc0a31b	0.0940611
53	0xbdfc19dd	-0.123096205
54	0xbbbaea25	-0.0057041817
55	0xbc600e91	-0.013675348
56	0x3c8a9beb	0.01692005
57	0xbd11e8df	-0.035622474
58	0x3dc72e07	0.09725576
59	0xbd99bdef	-0.0750693
60	0x3d0fd27f	0.035112854
61	0xbd8e6896	-0.06953542
62	0xbde72c94	-0.112877995
63	0x3d7ad522	0.061238416
64	0xbdb24693	-0.08704867
65	0xbd7217b7	-0.059104647
66	0xbca22ffd	-0.019798273
67	0xbda7e642	-0.08198215
68	0x3cb66a02	0.022267345
69	0x3d989154	0.07449594
70	0xbdcbedad	-0.099574424
71	0xbc43a354	-0.011940796
72	0xbbed2003	-0.007236482
73	0x3df69a0b	0.120411
74	0xbd6f84a1	-0.058476094
75	0xbc558c7e	-0.013033984
76	0xbcfc7aea	-0.030820329
77	0xbd08f5f9	-0.033437703
78	0xbd241087	-0.040054824
79	0x3beff209	0.007322554
80	0x3da6d2f3	0.08145704
81	0xbdb2621d	-0.0871012
82	0xbd92c84a	-0.07167108
83	0xbda20d2f	-0.07912671
84	0xbd00d9fb	-0.031457882
85	0x3cdd7ddb	0.027037552
86	0x3cc9cafa	0.02463292
87	0xbd4db119	-0.05021772
88	0xbc52f752	-0.012876349
89	0xbd86a70f	-0.06574833
90	0xbdde49ab	-0.10853895
91	0x3d65d9a0	0.056115746
92	0x3d3549eb	0.044259947
93	0x3d85e013	0.065368794
94	0xbc8008d2	-0.015629206
95	0x3d5439e7	0.051813032
96	0x3d36b6a0	0.04460776
97	0x3d375a5d	0.04476391
98	0x3d3cca6a	0.046091475
99	0x3c268bc1	0.010165156
100	0x3d6d0303	0.0578642
101	0x3c032190	0.008003607
102	0x3956ab3e	0.00020472423
103	0x3d49d6c4	0.049277082
104	0xbbbfe48f	-0.0058561037
105	0xbd41c0f0	-0.04730314
106	0x3dc8f6b3	0.09812679
107	0xbc323e53	-0.010879117
108	0x3deeb0d0	0.11654818
109	0xbdce2140	-0.10064936
110	0xbdbd8f3a	-0.09255834
111	0x3c79211f	0.015205651
112	0x3c0ec797	0.008714578
113	0x3cf60ec8	0.030036345
114	0x3c2f1c9b	0.010687972
115	0x3d3cc5a9	0.04608694
116	0xbc5571cd	-0.0130276205
117	0xbdfacb1a	-0.1224577
118	0xbc90ac73	-0.017660355
119	0x3d9cb954	0.07652536
120	0xbd9788c6	-0.07399134
121	0x3c9fbcb4	0.01949916
122	0x3b5e97f8	0.0033965092
123	0x3c1ffe02	0.00976515
124	0xbe14f9e4	-0.1454845
125	0xbda6e1ec	-0.0814856
126	0xbdb55158	-0.08853406
127	0xbd19b44a	-0.037525453
128	0x3d65d9dc	0.05611597
129	0xbce61a03	-0.028088575
130	0xbd927e7b	-0.071530305
131	0x3c1fd1f2	0.009754645
132	0x3d0bc8a1	0.03412688
133	0x3abc8e47	0.0014385664
134	0xbdb353f5	-0.08756248
135	0x3ac5434c	0.0015049963
136	0x3cbcaad7	0.023030682
137	0xbda36a1b	-0.079792224
138	0xbd6e4095	-0.05816706
139	0xbc6ece3c	-0.014575537
140	0xbdb9bdcb	-0.09069403
141	0x3dc686c3	0.096936725
142	0x3dd17fc0	0.102294445
143	0xbc7018e8	-0.014654376
144	0x3d224ffb	0.039627057
145	0x3d2267d4	0.0396498
146	0xbcc7a361	-0.024369897
147	0x3d818525	0.063242234
148	0xbb72fa20	-0.0037075356
149	0x3d77bf0a	0.060484923
150	0xbcb3881a	-0.021915484
151	0x3d01b216	0.031663977
152	0xbd963bcb	-0.07335623
153	0x3c4532d9	0.012036049
154	0x3d31c5d8	0.04340157
155	0xbbd54ec7	-0.006509635
156	0x3d98350c	0.07431993
157	0xbceaeb12	-0.028676543
158	0xbd5390e8	-0.051651865
159	0x3d87b092	0.06625475
160	0xbda1ae88	-0.07894617
161	0xbd169056	-0.036758743
162	0xbdccde54	-0.10003343
163	0xbdf2203e	-0.11822556
164	0xbd4b364c	-0.04961233
165	0x3cc6487a	0.024204481
166	0x3cae2da1	0.021261992
167	0x3d94efdb	0.07272311
168	0xbc869dc0	-0.016432643
169	0x3d43853f	0.047734495
170	0xbdb52f10	-0.08846867
171	0xbcaeace8	-0.021322682
172	0x3cec8749	0.028873103
173	0xbdc70e83	-0.09719565
174	0x3ca93389	0.020654457
175	0xbc056a28	-0.008142985
176	0x3d413c69	0.047176752
177	0xbd8be539	-0.0683083
178	0xbbb18807	-0.005417827
179	0x3d23985c	0.039940223
180	0x3cc7eae0	0.02440399
181	0xbd7ff605	-0.062490482
182	0x3cf8ca59	0.030369924
183	0xbd324019	-0.04351816
184	0x3dd07fab	0.10180601
185	0x3c8bc183	0.017060047
186	0x3d5f4cd3	0.054516625
187	0xbcbe523c	-0.023232572
188	0xbda6a295	-0.08136479
189	0x3cf46d25	0.0298372
190	0xbd0688d5	-0.032845337
191	0x3c9fb352	0.019494686
192	0x3d318a78	0.043344945
193	0x3d9ee480	0.07758427
194	0x3d382247	0.044954564
195	0xbd3b5199	-0.045732114
196	0x3d728b90	0.05921513
197	0xbd6537c2	-0.055961378
198	0x3cdf26d9	0.027240204
199	0xbd54f108	-0.051987678
200	0xbdb55a75	-0.08855144
201	0x3d0ab97c	0.033868298
202	0x3cf9629d	0.03044253
203	0xbce1f513	-0.02758268
204	0xbcdf78ee	-0.027279343
205	0x3d660cc0	0.056164503
206	0xbdb147ae	-0.0865625
207	0xbd0e3843	-0.034721624
208	0xbd0bfba2	-0.034175523
209	0xbd8aa631	-0.0676998
210	0x3d88816a	0.06665309
211	0xbdab64af	-0.08368813
212	0x3d6b964a	0.057516374
213	0x3d7fd09e	0.062454812
214	0xbc4ed9a6	-0.012625134
215	0xbc874c8d	-0.016515994
216	0xbd5f7d37	-0.054562774
217	0xbd9f1b38	-0.077688634
218	0xbd4e6689	-0.050390754
219	0xbdd2d5b2	-0.102946654
220	0x3d07af82	0.03312636
221	0xbd1122aa	-0.03543345
222	0xbd86b6f8	-0.06577867
223	0x3d87eea9	0.06637318
224	0xbd4a2479	-0.04935119
225	0xbd88c5a0	-0.06678319
226	0x3cf86848	0.030323163
227	0xbd152dd5	-0.036420662
228	0x3d69350c	0.056935355
229	0xbc754f07	-0.014972455
230	0xbd44478f	-0.047919806
231	0x3d0eb111	0.034836832
232	0x3d8de5fb	0.06928631
233	0x3d918eaf	0.07107293
234	0x3d09f3df	0.03367984
235	0xbd58b4b8	-0.05290672
236	0xbb7f9305	-0.0038997543
237	0x3caf5b33	0.021405792
238	0xbc06caf6	-0.008227101
239	0xbd680298	-0.0566431
240	0x3cad97a5	0.021190474
241	0x3de1e92e	0.110308036
242	0xbda1e54e	-0.079050645
243	0x3dacc5c4	0.08436158
244	0x39c687ac	0.00037866586
245	0xbbb70805	-0.005585673
246	0xbdabfd2a	-0.083978966
247	0xbd524603	-0.0513363
248	0x3d9ff47f	0.07810306
249	0x3dbc67d5	0.09199492
250	0xba29b17d	-0.0006473286
251	0xbb01b6d8	-0.0019792821
252	0x3c60c2d9	0.01371833
253	0x3d429250	0.047502816
254	0xbdabbdee	-0.083858356
255	0x3b3f72dd	0.002921275

encoder.message_net.1.0.bias f4 [128]
0	0xbd65fb23	-0.056147706
1	0xbd62c998	-0.055368036
2	0xbc518bb4	-0.0127896555
3	0x3cdf0c66	0.027227592
4	0xbd513793	-0.05107839
5	0xbddad176	-0.10684483
6	0x3ba56fd9	0.0050487337
7	0xbd4ef603	-0.050527584
8	0xbd096e5c	-0.033552513
9	0x3ddfaef0	0.109220386
10	0x3d2bee47	0.041975286
11	0xbd3fa61f	-0.046789285
12	0xbd90fc84	-0.070794135
13	0xbda61c84	-0.08110908
14	0x3d7d2cce	0.061810307
15	0xbdbeb2b5	-0.093114294
16	0xbd9c0814	-0.07618728
17	0xbb811d61	-0.00394027
18	0xbd5f5d3c	-0.054532275
19	0xbd1458c5	-0.03621747
20	0xbbe3c096	-0.0069504483
21	0xbd670638	-0.056402415
22	0xbde5114b	-0.11184939
23	0x3d26b645	0.04070117
24	0xbca2dd8e	-0.019881036
25	0x3ced2db4	0.028952457
26	0x3c321a5e	0.010870544
27	0x3d33fcf5	0.04394241
28	0xbdf81de9	-0.1211508
29	0x3cd0cbe2	0.025487844
30	0xbdc6fc83	-0.097161315
31	0x3d9e39b9	0.077258535
32	0x3d0ed13d	0.034867514
33	0x3d73253f	0.059361693
34	0x3d39b68c	0.045340106
35	0x3be4fda9	0.0069882465
36	0xbd975a5e	-0.07390283
37	0xbcf1d060	-0.029518306
38	0xba9f8c93	-0.0012172632
39	0x3d131ed2	0.035918064
40	0x3dc081e3	0.09399774
41	0x3dc7d950	0.09758246
42	0xbc11c8fe	-0.008898018
43	0x3bcb68ba	0.0062075527
44	0x3c06c1a5	0.008224879
45	0xbbf803b4	-0.007568801
46	0xbd5468d4	-0.051857784
47	0xbcaf54ec	-0.021402799
48	0x3d7ff3ce	0.06248837
49	0xbda59f7d	-0.080870606
50	0x3cca28d2	0.024677668
51	0xbb6f99b1	-0.0036560113
52	0x3c88c35f	0.016694723
53	0xbe0c209d	-0.13684316
54	0xbd8779d8	-0.06615037
55	0x3cab0db4	0.020880558
56	0x3d2f164f	0.042745885
57	0xbdbd9743	-0.092573665
58	0xbdb072a8	-0.08615619
59	0xbc8e412b	-0.017365059
60	0x3b6f07da	0.0036473186
61	0xbdb2dadb	-0.087331496
62	0x3d56d4e8	0.052449137
63	0xbd813a71	-0.06309975
64	0x3d7245d9	0.059148643
65	0x3c9b6e37	0.018973453
66	0xbdc859f1	-0.0978278
67	0x3c850d5b	0.01624172
68	0x3d8766c5	0.066113986
69	0x39aee267	0.0003335655
70	0xbde55382	-0.111975685
71	0x3c806e2f	0.01567754
72	0xbdb39e9b	-0.08770486
73	0xbda8e883	-0.08247473
74	0xbda38462	-0.079842344
75	0xbc1df8b0	-0.009641811
76	0xbdc8d4c5	-0.098062076
77	0xbdef5379	-0.11685843
78	0xbdb5e6a3	-0.08881881
79	0x3d2c55d9	0.04207406
80	0x3d55c330	0.0521881
81	0x3ca1b712	0.019740615
82	0x3cb9209d	0.022598559
83	0x3c8138d2	0.015774164
84	0xbc2a206d	-0.0103837075
85	0xbd584795	-0.05280264
86	0xbdb9efa3	-0.0907891
87	0xbdba5aa0	-0.090993166
88	0x3d0fa22f	0.03506678
89	0xbd6c375f	-0.057669993
90	0x3c6145b4	0.013749529
91	0xbd936eae	-0.07198845
92	0xbdb19c39	-0.08672375
93	0xbd91cd11	-0.071191914
94	0x3c292725	0.010324274
95	0xbdf9aa0e	-0.121906385
96	0x3c892a7f	0.016743897
97	0x3bfc431e	0.0076984307
98	0xbce8e9c5	-0.028431782
99	0x3d936d2b	0.071985565
100	0xbc8d0459	-0.017213987
101	0x3c09b240	0.0084043145
102	0xbd5c29d3	-0.053750824
103	0xbc352a55	-0.011057456
104	0xbdda2799	-0.10652084
105	0x3cfef926	0.031124663
106	0xbd71fcb9	-0.059078906
107	0x3d33681d	0.043800462
108	0x3c9ee9a8	0.019398525
109	0xbc9bea44	-0.019032605
110	0x3d8e0791	0.06935037
111	0xbdcc81b1	-0.09985674
112	0x3dc30b10	0.095235944
113	0xbde81b89	-0.11333377
114	0xbd30d94b	-0.043175977
115	0x3cc31cc7	0.023817433
116	0xbda61292	-0.08109011
117	0xbd9cc832	-0.07655372
118	0x3dc2d995	0.09514157
119	0xbdb83560	-0.089945555
120	0xbdb1d065	-0.08682326
121	0x3c9e5026	0.019325327
122	0x3d8b8ee2	0.06814362
123	0xbd8b4367	-0.06799965
124	0xbd7827b5	-0.060584743
125	0xbbde2134	-0.0067788605
126	0x3b5cc903	0.0033689148
127	0x3db0fb82	0.08641721

encoder.message_net.2.0.weight f4 [128, 128]
0	0x3cd7a292	0.026322637
1	0xbc3682ff	-0.01113963
2	0xbc4e0d49	-0.01257641
3	0x3d94cee6	0.07266025
4	0x3d2952f6	0.041338883
5	0xbcf8effc	-0.030387871
6	0xbcc8c696	-0.024508756
7	0x3ccc94c2	0.024973277
8	0x3d0b5d35	0.034024436
9	0xbdc058c9	-0.093919344
10	0x3d669aa9	0.05629984
11	0xbd81efae	-0.063445434
12	0xbe132c4c	-0.14372367
13	0x3d835f55	0.064146675
14	0xbc49f110	-0.01232554
15	0xbc69b1db	-0.014263595
16	0x3c40ef6d	0.011775834
17	0x3d78e6ae	0.06076687
18	0xbd242ecf	-0.040083703
19	0xbc27af2e	-0.010234637
20	0x3a021ade	0.000496311
21	0x3d2c1256	0.042009674
22	0xba6b0f82	-0.00089668494
23	0x3e10dbd6	0.14146361
24	0xbc871070	-0.01648733
25	0xbae3d354	-0.0017381706
26	0xbbc51afa	-0.0060151787
27	0xbcd2acf6	-0.02571724
28	0x3d563295	0.052294333
29	0xbc02f1ea	-0.007992247
30	0x3c1613a0	0.009159952
31	0x3d86b889	0.06578166
32	0x3d4bb5fc	0.0497341
33	0x3cd1f642	0.02563012
34	0x3c7622ee	0.015022976
35	0x3dd1816f	0.102297656
36	0x3d2fdd5f	0.042935725
37	0x3d507c7c	0.050899968
38	0xbd0868b7	-0.03330299
39	0x3de7b779	0.113142915
40	0x3aaedefc	0.0013341601
41	0xbdac832e	-0.08423458
42	0x3cf98c53	0.03046242
43	0x3d4a56ef	0.049399313
44	0x3b484120	0.0030556396
45	0x3d3f43e4	0.046695605
46	0x3cd97080	0.026542902
47	0x3cfe7a36	0.031064134
48	0xbd9f242e	-0.077705726
49	0x3d1cac52	0.038250275
50	0xbcbbfe6d	-0.022948468
51	0xbd8481d0	-0.06470072
52	0xbd16b13b	-0.036790114
53	0x3d6aa3a2	0.05728496
54	0xbccfaba3	-0.025350397
55	0xbbbe37cc	-0.0058049913
56	0x3c8e74b5	0.017389635
57	0xbd08d816	-0.0334092
58	0x3c64f6e2	0.013974877
59	0x3d75a407	0.05997088
60	0x3d127c64	0.03576316
61	0x3d8d475f	0.068983786
62	0x3b1a9ffa	0.0023593889
63	0xbdbcefda	-0.092254356
64	0x3ddf9173	0.10916414
65	0xbcceda68	-0.025250629
66	0x3c7f86c3	0.015596095
67	0xbd02c593	-0.031926703
68	0xbb1172f8	-0.002219377
69	0xbcb3502a	-0.021888811
70	0xbd18d321	-0.037310723
71	0x3d79cf1f	0.06098854
72	0xbc7cc7d5	-0.015428503
73	0xbd4d2b41	-0.05009008
74	0xbc883462	-0.01662654
75	0x3b0b3b4e	0.0021245065
76	0x3cc44b88	0.023961797
77	0xbe021e1a	-0.12706795
78	0xbd0a3923	-0.033745896
79	0xbd6c4ba7	-0.057689335
80	0xbd87f8fc	-0.06639287
81	0xbbecdd28	-0.0072285123
82	0xbd5d4b12	-0.05402667
83	0x3e098445	0.13429363
84	0x3c225907	0.009908921
85	0xbbe02a51	-0.006840982
86	0x3d08aa15	0.033365328
87	0xbdcb6108	-0.099306166
88	0x3d3d251a	0.04617796
89	0xbd75070c	-0.059821174
90	0x3a8d1281	0.0010762961
91	0xbb6ace78	-0.0035828631
92	0x3db0c741	0.08631755
93	0x3cf71c5c	0.03016489
94	0x3c6d4dd6	0.01448389
95	0x3d4a83c0	0.049442053
96	0x3c85fafa	0.016355027
97	0x3dad1de5	0.084529676
98	0x3ce7abed	0.028280223
99	0xbd39baf4	-0.045344308
100	0x3d1fc472	0.039005704
101	0xbc038f70	-0.008029804
102	0x3d81cb9c	0.063376635
103	0xbc4126e7	-0.01178906
104	0xbd5d9552	-0.05409748
105	0xbd4a4f2d	-0.049391914
106	0xbbf44089	-0.0074539823
107	0xbdc654e1	-0.09684158
108	0x3c2b12a3	0.010441455
109	0xbd95b874	-0.07310572
110	0xbd21a8e4	-0.039467707
111	0x3e00bf61	0.12573005
112	0x3d7dd22e	0.06196802
113	0x3c8f895b	0.01752155
114	0xbd4c8fe3	-0.04994191
115	0x3dace53b	0.0844216
116	0xbd28dea9	-0.04122797
117	0x3d303521	0.043019418
118	0xbdc70244	-0.09717229
119	0xbe1ecc9a	-0.15507737
120	0xbc366cea	-0.011134366
121	0xbca04f91	-0.01956919
122	0x3da8ed32	0.082483664
123	0xbbec8e52	-0.0072191143
124	0x3d23c6d6	0.039984547
125	0xbcd0a5ab	-0.025469622
126	0xbd968d4d	-0.0735117
127	0xbd0106b4	-0.031500533
128	0xbe0b23c7	-0.13587867
129	0x3c2275fa	0.009915823
130	0xbdca8503	-0.09888651
131	0x3dcc30cb	0.09970244
132	0xbd273e23	-0.040830743
133	0x3d00bfbd	0.031432856
134	0x3cbe5177	0.023232205
135	0x3c362be6	0.011118865
136	0xbda6be27	-0.081417374
137	0x3d070864	0.032966986
138	0xbbd27666	-0.0064228056
139	0x3dd683f5	0.104743876
140	0xbd2a48d1	-0.04157335
141	0x3e073df1	0.13207223
142	0xbd192772	-0.037391134
143	0xbd14e3f6	-0.036350213
144	0xbd69e359	-0.05710158
145	0xbc627b11	-0.013823287
146	0x3da25e62	0.07928158
147	0x3def411b	0.1168234
148	0xbcff985e	-0.031200584
149	0xbd868d2c	-0.06569895
150	0x3dee7e45	0.11645178
151	0x3dac49e2	0.084125295
152	0x3d89b1d5	0.06723372
153	0xbd946d85	-0.07247452
154	0x3dde5dbc	0.10857722
155	0xbda82ca4	-0.082116395
156	0x3cf135b8	0.02944456
157	0x3c971a37	0.018445117
158	0x3d79a8fa	0.060952164
159	0x3e0c2578	0.13686168
160	0xbd46cfa5	-0.04853787
161	0xbd4b76db	-0.049673896
162	0xbcdf0258	-0.027222797
163	0x3d84cdde	0.064845785
164	0xbe0457e6	-0.12924156
165	0xbd371846	-0.044700883
166	0xbd89fbdd	-0.06737492
167	0x3d986a76	0.07442181
168	0x3c75d4a6	0.015004313
169	0x3d76dc15	0.06026848
170	0x3d0778fe	0.03307437
171	0xbe0def49	-0.13860811
172	0xbd1e972f	-0.0387184
173	0xbcbbeb98	-0.022939488
174	0x3d1c7b44	0.038203493
175	0x3d1c7377	0.038196053
176	0xbc85cea1	-0.01633388
177	0xbd1a8a0e	-0.037729315
178	0x3c65a6d6	0.014016828
179	0x3d8b980c	0.0681611
180	0xbb659799	-0.0035032986
181	0x3b9ac9cb	0.0047237626
182	0xbd9dafcd	-0.07699547
183	0xbdc7fe44	-0.09765294
184	0x3cc8b34b	0.024499556
185	0xbcab3999	-0.020901488
186	0x3c0e2967	0.008676863
187	0xbcb6fed8	-0.022338316
188	0x3dac039e	0.083991274
189	0x3d540c02	0.051769264
190	0xbdc438d4	-0.095811516
191	0xbd4d7f06	-0.050169967
192	0xbce82c73	-0.028341508
193	0x3d7d2400	0.06180191
194	0x3dc234ba	0.09482713
195	0xbce3c2ff	-0.027802942
196	0xbdc89d0e	-0.09795581
197	0xbd37ec0c	-0.044902846
198	0x3d6bafbb	0.057540637
199	0xbdced773	-0.100996874
200	0xbd2b277b	-0.0417857
201	0x3c84fcbf	0.0162338
202	0xbbeb673d	-0.007183938
203	0x3d4716c1	0.048605684
204	0xbdbef723	-0.09324481
205	0xbca6252f	-0.020281402
206	0x3b885345	0.004160317
207	0x3d3a734f	0.045520123
208	0x3da3c8f2	0.07997312
209	0xbc892124	-0.016739435
210	0xbda056df	-0.07829069
211	0xbd052835	-0.032509048
212	0xbdd6a9fc	-0.10481641
213	0x3de5dabf	0.11223363
214	0x3dd72617	0.10505312
215	0xbd5a3b2a	-0.05327908
216	0xbdb72374	-0.08942309
217	0xbd366a1f	-0.0445348
218	0x39d06911	0.00039751132
219	0xbd5bf339	-0.053698752
220	0xbbfaddef	-0.007655851
221	0x3ddb299a	0.10701294
222	0xbda10eff	-0.078641884
223	0x3e2058f3	0.15658931
224	0xbd2a5d87	-0.0415931
225	0xbd273d1c	-0.040829763
226	0xbdbaef76	-0.09127705
227	0x3dc2cd0a	0.09511764
228	0xbc85000c	-0.016235374
229	0x3d31a5b3	0.043370914
230	0xbc9796df	-0.018504558
231	0xbd4cda97	-0.05001315
232	0x3d1697ab	0.036765736
233	0x3d619dd1	0.055082146
234	0xbd4b9843	-0.049705755
235	0x3c1730ba	0.009227926
236	0xbdc22324	-0.09479359
237	0xbd173b1b	-0.0369216
238	0x3dd436f2	0.103620425
239	0x3d8fd8e7	0.07023793
240	0xbd092052	-0.03347809
241	0xbc8bbbdf	-0.017057357
242	0xbc1b78a7	-0.009489215
243	0x3d0b0e7d	0.033949364
244	0x3d1c200b	0.038116496
245	0x3cd0055d	0.025393182
246	0x3d50a498	0.05093822
247	0x3d9c0d92	0.07619776
248	0xbd7c099c	-0.0615326
249	0x3c45e8cb	0.012079428
250	0xbd189203	-0.037248623
251	0x3d841ddd	0.064510085
252	0xbd50ae9f	-0.05094778
253	0x3cad07ba	0.021121848
254	0xbcbb84db	-0.022890499
255	0xbd4749d4	-0.048654392

encoder.message_net.2.0.bias f4 [128]
0	0x3d308554	0.0430959
1	0xbd714ed0	-0.058913052
2	0xbdaf8d2d	-0.08571849
3	0xbde64670	-0.11243904
4	0xbd029c86	-0.031887554
5	0x3db5b0ae	0.088715896
6	0x3d13ee84	0.036116138
7	0x3d00fc75	0.03149076
8	0xbd45590d	-0.04818063
9	0xbd4f8df7	-0.050672498
10	0x3d415e3a	0.047209002
11	0xbcf3a0e1	-0.029739799
12	0x3cb30abf	0.02185571
13	0xbd08918e	-0.033341937
14	0x3bba113a	0.005678323
15	0x3d05c2cc	0.032656476
16	0x3d904721	0.07044817
17	0x3d04a1b7	0.032380786
18	0x3cf42e9d	0.029807383
19	0xbe0f3e97	-0.1398872
20	0xbd881b0c	-0.06645784
21	0xbd577329	-0.05260006
22	0xbce4ba44	-0.02792085
23	0xbd8f1062	-0.06985547
24	0xbc4e2117	-0.012581131
25	0xbd84b1ea	-0.06479247
26	0x3d8cbc1b	0.06871816
27	0x3ca7e383	0.020494228
28	0xbcfa6be3	-0.030569023
29	0x3ceb258e	0.02870443
30	0x3d878ff7	0.06619256
31	0x3d6269b1	0.055276576
32	0x3d706bd9	0.0586966
33	0xbc76e33b	-0.015068824
34	0x3d1d961a	0.038473226
35	0x3d8fc8fd	0.07020757
36	0xbca051ee	-0.019570317
37	0x3c1258b7	0.008932284
38	0x3dbfbc19	0.09362049
39	0x3d6192f5	0.05507179
40	0x3dbc1d66	0.09185295
41	0xbd950dff	-0.0727806
42	0xbd2ec041	-0.042663816
43	0x3b7a11de	0.0038157622
44	0xbde15f69	-0.11004526
45	0x3d311f1d	0.043242563
46	0x3d255bb9	0.040370677
47	0x3d93c7aa	0.07215817
48	0x3d3824be	0.044956915
49	0xbdc9877e	-0.09840296
50	0xbd70714a	-0.05870179
51	0x3be2e663	0.006924437
52	0xbd52ec5c	-0.05149494
53	0xbc86242b	-0.016374668
54	0x3d66468e	0.05621963
55	0x3d6c6b96	0.05771979
56	0x3dd0018f	0.10156547
57	0x3d6e4e92	0.0581804
58	0x3d70f7af	0.05882996
59	0xbca0b9a9	-0.01961978
60	0x3c230ce4	0.009951804
61	0xbc1ffe6b	-0.009765248
62	0xbd6458fb	-0.05574892
63	0xbd8aefa4	-0.06783989
64	0x3d839c31	0.064262755
65	0xbd01e30c	-0.03171067
66	0x3d4c37f3	0.049858045
67	0x3d290871	0.041267816
68	0x3cc92e18	0.024558112
69	0xbd1dc04a	-0.03851346
70	0x3d754bc7	0.05988672
71	0x3d283895	0.041069586
72	0xbc5f7b70	-0.01364027
73	0x3cb2a30f	0.021806268
74	0x3d2bf1e8	0.041978747
75	0xbd8a39a0	-0.06749272
76	0xbd83d84f	-0.06437742
77	0xbda0a8b2	-0.07844676
78	0x3d631144	0.055436388
79	0x3cd749ea	0.026280362
80	0x3d6e6d37	0.058209624
81	0xbdc91c50	-0.09819853
82	0x3d2eeb41	0.042704824
83	0xbdb45fa4	-0.088073045
84	0xbd6e81c6	-0.05822923
85	0x3dc0f6ba	0.09422059
86	0xbd3603d0	-0.04443723
87	0x3a8ca804	0.0010731225
88	0x3d9e4eb9	0.07729859
89	0xbd884210	-0.066532254
90	0xbd7cadee	-0.06168931
91	0xbdc06b7c	-0.09395501
92	0xbc187cd4	-0.009307105
93	0x3c701bd2	0.01465507
94	0xbd678346	-0.056521676
95	0x3d1cc2bd	0.038271654
96	0x3da3ee43	0.08004429
97	0x3d8d80b9	0.069093175
98	0x3cd41e51	0.025893362
99	0x3e157f4b	0.1459934
100	0xbcbc6149	-0.022995608
101	0xbdc07285	-0.09396843
102	0x3cf17429	0.029474335
103	0x3d8a367b	0.067486726
104	0x3d2689a8	0.040658623
105	0x3da3143d	0.079628445
106	0x3d82ad09	0.0638066
107	0xbb831b14	-0.0040010307
108	0xbdb09fb1	-0.08624209
109	0xbd1907a4	-0.037360802
110	0x3dbe6445	0.09296469
111	0x3d2a034b	0.041507047
112	0xbdbec051	-0.09314025
113	0x3d8f8f25	0.070097245
114	0xbda9d037	-0.08291667
115	0xbd917d4c	-0.071039766
116	0xbdbda728	-0.09260398
117	0xbcc4061d	-0.023928696
118	0x3c81969c	0.015818886
119	0xbc30eb61	-0.010798306
120	0x3d25aac4	0.040446058
121	0x3c7b659f	0.015344053
122	0xbdd4a4f4	-0.10383025
123	0xbb21eb0f	-0.0024706756
124	0xbc7a505e	-0.01527795
125	0x3dbf9e33	0.09356346
126	0x3c8b513d	0.01700651
127	0x3cd65d26	0.026167464

encoder.message_net.3.0.weight f4 [128, 128]
0	0xbdc39021	-0.09548975
1	0xbdc90bae	-0.09816681
2	0xbc0c2264	-0.008553121
3	0xbadc3d01	-0.0016802849
4	0x3d60f189	0.054917846
5	0xbcb97546	-0.022638928
6	0xbd8ab7c4	-0.06773332
7	0x3d61de0c	0.0551434
8	0xbcdd1fda	-0.026992727
9	0xbd20bf8a	-0.039245166
10	0xbcb5df3d	-0.022201175
11	0x3da64417	0.08118456
12	0xbc8a82ff	-0.016908167
13	0xbdcaa761	-0.09895206
14	0x3c49b63b	0.012311514
15	0xbdb99ab2	-0.09062709
16	0x3d9bd5e7	0.07609158
17	0x3e09f941	0.13473989
18	0xbdc3a4c9	-0.09552915
19	0x3da31622	0.07963206
20	0x3d33065e	0.043707244
21	0xbcc0fa9b	-0.023556998
22	0x3cb5b8c1	0.022182824
23	0xbcbcbcff	-0.02303934
24	0xbc8cf27b	-0.017205467
25	0x3cb17ed8	0.02166693
26	0x3d5def64	0.05418338
27	0xbd429e11	-0.047514025
28	0x3a655862	0.0008748827
29	0x3da3248b	0.079659544
30	0x3d79f987	0.061028983
31	0xbd817b47	-0.063223414
32	0x3c5dcd77	0.013537756
33	0xbd528903	-0.051400196
34	0xbdde5505	-0.1085606
35	0x3c819a4e	0.015820649
36	0xbdc92ea4	-0.09823349
37	0xbd9648f1	-0.07338131
38	0x3d9c6dd4	0.076381356
39	0x3b611445	0.0034344357
40	0xbb784dcd	-0.003788817
41	0xbc95db62	-0.018293086
42	0xbc83c249	-0.016083853
43	0xbdacd4b3	-0.08439007
44	0xbc2d7a0e	-0.010588182
45	0x3dacf22d	0.08444629
46	0x3cee7185	0.029106865
47	0xbdc3fb19	-0.095693775
48	0xbd07520c	-0.03303723
49	0x3ddd1a45	0.10796026
50	0xb8c97c31	-9.607559e-05
51	0x3dbca508	0.09211165
52	0xb951bfaa	-0.00020003194
53	0xbc36fbc2	-0.011168422
54	0xbda39bf9	-0.07988734
55	0x3d7ab9ac	0.061212227
56	0x3d125fd5	0.035735924
57	0xbd87cce8	-0.0663088
58	0x3d6794ad	0.056538273
59	0x3e072c46	0.13200483
60	0x3d91fc49	0.07128198
61	0x3bc843d9	0.0061116037
62	0xba2683e9	-0.00063520536
63	0xbd2c2eeb	-0.042036932
64	0x3d834472	0.06409539
65	0x3cdd4d48	0.02701439
66	0xbc4d0b3d	-0.012514886
67	0x3d11d4c7	0.03560331
68	0xbd484381	-0.0488925
69	0x3df7b3f5	0.12094871
70	0xbdf99549	-0.12186677
71	0xbdc1088c	-0.09425458
72	0x3d49eca6	0.04929795
73	0x3da05307	0.07828336
74	0x3d3df7ec	0.046379015
75	0xbdab5bfc	-0.08367154
76	0xbd3bdf69	-0.045867357
77	0x3ca339c7	0.019925011
78	0xbda8abca	-0.08235891
79	0x3d864e76	0.06557934
80	0x3c9e9c18	0.01936154
81	0xbbfc1a5c	-0.007693572
82	0xbdc1fb91	-0.094718106
83	0xbd2648a1	-0.040596608
84	0x3bd2738c	0.0064224657
85	0x3c3f5dd0	0.0116800815
86	0x3b16dd19	0.0023019968
87	0xbcd461ae	-0.025925484
88	0xbd96087f	-0.07325839
89	0x3dcc3316	0.09970681
90	0x3d714c37	0.058910575
91	0x3dd4079f	0.10353016
92	0x3d8d1130	0.06888044
93	0xbd7e5eed	-0.062102247
94	0xbdab44e1	-0.08362747
95	0xbbc52560	-0.0060164183
96	0x3c7d62b1	0.015465424
97	0xbe0c4e82	-0.13701823
98	0xbd31d3c6	-0.043414854
99	0xbd5b1359	-0.05348525
100	0xbcd60b1a	-0.02612834
101	0xbca3fe25	-0.020018646
102	0x3d8c52c8	0.06851727
103	0x3c29603b	0.010337885
104	0x3d0ac473	0.033878755
105	0xbd36c1d9	-0.04461846
106	0x3d9cb712	0.076521054
107	0x3d6d9b87	0.05800965
108	0x3d7fbfbe	0.06243872
109	0x3d0fb7b5	0.035087306
110	0x3dba4830	0.090958
111	0x3da95973	0.08269014
112	0x3d80a16a	0.06280787
113	0x3e026a7e	0.12735936
114	0xbde006fa	-0.10938831
115	0x3c2e23be	0.010628639
116	0x3d7ae298	0.061251253
117	0xbd4dd3ff	-0.050251003
118	0xbdbfb1f8	-0.09360117
119	0xbdb7172d	-0.08939967
120	0x3d9a2fe4	0.07528666
121	0x3d36361e	0.044485204
122	0xbd406994	-0.046975687
123	0xbc40b811	-0.011762635
124	0x3d607f6c	0.05480902
125	0x3c79973d	0.015233812
126	0xbb895ea7	-0.0041921916
127	0xbdc62582	-0.09675123
128	0x3dcab898	0.0989849
129	0xbdaa9de2	-0.08330895
130	0x3d4cc382	0.04999114
131	0x3cd2ef8c	0.02574899
132	0x3d72b0ff	0.059250828
133	0x3c39f3f6	0.011349669
134	0xbdf4310f	-0.1192342
135	0xbd3cfd5a	-0.046140052
136	0xbc922c23	-0.017843312
137	0xbdf7ec72	-0.12105645
138	0x3d548109	0.05188087
139	0x3e9843b2	0.29739147
140	0x3cc09836	0.02351008
141	0x3bdab3e1	0.0066742753
142	0xbe1cf3a9	-0.15327324
143	0xbd064e0d	-0.03278928
144	0xbc35c941	-0.011095346
145	0xbd66dba9	-0.056361828
146	0xbc0e5d06	-0.008689171
147	0xbaaadf6b	-0.0013036554
148	0xbe93ea44	-0.28889668
149	0xbe0c2abf	-0.13688181
150	0xbd1f7ab6	-0.038935386
151	0x3d40995c	0.047021255
152	0x3c8ccee7	0.017188502
153	0xbb42d13b	-0.0029726762
154	0x3d29892f	0.041390594
155	0x3dab85b8	0.08375114
156	0xbd69f9a6	-0.05712285
157	0x3d327945	0.043572683
158	0x3d8957f2	0.06706227
159	0x3c2d68bd	0.010584054
160	0x3cea7aeb	0.028623065
161	0x3d15b2c4	0.036547437
162	0xbc23f2be	-0.010006605
163	0xbd8d029d	-0.06885264
164	0x3d4e3871	0.050346795
165	0xbdf9cc2a	-0.12197144
166	0xbd9b9f39	-0.07598729
167	0xbe303c23	-0.1721044
168	0x3e13fb10	0.14451241
169	0xbde94e4a	-0.113918856
170	0xbd68e9bc	-0.05686353
171	0x3da94db7	0.08266776
172	0xbd5a5df7	-0.053312268
173	0x3cba02a8	0.022706345
174	0x3e3a072d	0.181668
175	0xbdd6e316	-0.10492532
176	0xbd05ff26	-0.03271403
177	0x3d76343a	0.0601084
178	0x3da06528	0.07831794
179	0xbe236647	-0.15956984
180	0xbdef7576	-0.11692326
181	0x3e319fd4	0.17346126
182	0xbcef80df	-0.029236255
183	0xbdc185d4	-0.09449354
184	0xbd5020e9	-0.050812636
185	0x3da33d0c	0.07970628
186	0x3e0f7aad	0.14011641
187	0x3df977c6	0.12181048
188	0xbde34b5f	-0.1109836
189	0x3d371a3e	0.04470276
190	0x3d454c35	0.04816838
191	0x3e1001a1	0.14063121
192	0x3d099b3e	0.033595316
193	0xbbbc0295	-0.0057376125
194	0x3d816971	0.063189395
195	0xbd9615fd	-0.07328413
196	0xbe191f11	-0.14953257
197	0xbd9cd14e	-0.07657109
198	0xbe182e70	-0.14861465
199	0x3d8165b4	0.063182265
200	0x3d8198f0	0.06327999
201	0xbd2c1fec	-0.04202263
202	0x3ce31d8f	0.027724056
203	0x3d67e740	0.05661702
204	0xbd34e060	-0.044159293
205	0xbde23198	-0.110446155
206	0xbd545cf7	-0.05184647
207	0x3dc18dc4	0.09450868
208	0xbce4bad7	-0.027921123
209	0x3a26972b	0.0006354923
210	0xbd5cc0c4	-0.053894773
211	0xbd14ba0d	-0.036310244
212	0xbd5d9b51	-0.0541032
213	0x3ca22b18	0.01979594
214	0xbd95d8ef	-0.073167674
215	0x3d98fa57	0.074696235
216	0xbca50644	-0.02014459
217	0x3cb553f8	0.022134766
218	0x3e6e6d5f	0.2328391
219	0x3d92bd0a	0.071649626
220	0x3dcce24e	0.10004102
221	0x3d31e2d2	0.043429203
222	0xbddff842	-0.10936023
223	0xbdceb2ee	-0.10092722
224	0x3e1b972a	0.15194383
225	0xbd8682e5	-0.06567935
226	0xbdedbb08	-0.11607939
227	0x3bdbf7d3	0.0067128926
228	0xbc279007	-0.01022721
229	0x3d821ba1	0.06352926
230	0xbd6c5153	-0.057694744
231	0xbac50752	-0.0015032089
232	0xbc2e046c	-0.010621171
233	0xbd4e9cd0	-0.050442517
234	0xbe1a7ce6	-0.15086707
235	0xbcb531e9	-0.022118526
236	0xbd933fb2	-0.07189883
237	0xbdc84fc6	-0.097808406
238	0xbd5b7d4f	-0.0535863
239	0xbd89aca7	-0.06722384
240	0xbe218d0e	-0.15776464
241	0x3d943216	0.07236116
242	0x3a10c468	0.0005522431
243	0x3d3c509e	0.04597532
244	0xbd8cfb5b	-0.0688388
245	0xbd6296f2	-0.055319734
246	0xbe002c59	-0.12516917
247	0x3ccfd256	0.02536885
248	0x3e110f90	0.14166093
249	0xbda24e34	-0.07925072
250	0x3d5a32dd	0.053271163
251	0xbddfa326	-0.1091979
252	0x3bf6af97	0.007528256
253	0xbd5d44df	-0.05402076
254	0xbd934963	-0.07191732
255	0x3d33c4e5	0.043888945
