experiments/gat_hd32_ld16_nr3_ep500_nf3.0_dl2/model.pt (torch, 53265 bytes, 24 tensors)

encoder.input_net.0.weight f4 [32, 7]
0	0xbe1f8203	-0.1557694
1	0x3ebe3078	0.37146354
2	0x3d3ea791	0.046546523
3	0x3dc3674a	0.09541185
4	0xbea2d20b	-0.31800875
5	0x3dd5bfbc	0.10436961
6	0xbeade266	-0.3396179
7	0xbeb376d5	-0.350516
8	0x3e912b47	0.2835333
9	0x3ebebc1a	0.37252885
10	0xbea5b36f	-0.3236346
11	0xbd8a93c5	-0.06766466
12	0xbe494840	-0.19656467
13	0x3e24fca3	0.16111998
14	0x3d7cf6d8	0.061758846
15	0xbeb688a2	-0.35651118
16	0xbe7cec9f	-0.24699639
17	0x3ead94f1	0.33902696
18	0x3f213c3f	0.62982553
19	0xbe805ba8	-0.25069928
20	0xbebde9bf	-0.37092397
21	0x3c8deb69	0.017324166
22	0x3f15982d	0.58435327
23	0xbdbb8278	-0.09155744
24	0xbe83db3b	-0.25753197
25	0xbe9e2a59	-0.30891684
26	0xbe8564e1	-0.26053527
27	0x3e554d26	0.20830211
28	0x3ec277d3	0.37982044
29	0x3f6f4e38	0.9347873
30	0xbd23842c	-0.03992097
31	0xbe1287af	-0.14309572
32	0xbe348ce1	-0.17631866
33	0xbe1568cc	-0.14590758
34	0xbe8ea3ba	-0.27859288
35	0xbdc0df5d	-0.09417603
36	0xbe677daa	-0.22606531
37	0xbd40e5ff	-0.04709434
38	0xbe292326	-0.16517314
39	0x3ec817a5	0.3908054
40	0xbca36884	-0.019947298
41	0x3ed465ef	0.4148402
42	0x3ed2006c	0.41015947
43	0xbd0b6d43	-0.034039747
44	0xbea3b70d	-0.31975594
45	0xbe237c17	-0.15965305
46	0xbe6ce77b	-0.23135178
47	0xbe348033	-0.17627029
48	0xbd21c78d	-0.039496947
49	0x3e371950	0.1788075
50	0xbe412fb5	-0.18865855
51	0xbe6f63ea	-0.23377958
52	0xbe3f7e77	-0.18700586
53	0x3e18c28b	0.14917962
54	0x3daf0beb	0.08547195
55	0xbe2dfe92	-0.16991642
56	0xbe8aab1a	-0.27083665
57	0xbe75138e	-0.23933241
58	0xbd758f88	-0.059951335
59	0xbe7e39a3	-0.24826674
60	0x3e7b29aa	0.24527612
61	0x3ebb5aed	0.36592808
62	0x3ee96b9c	0.45589912
63	0x3ea224e7	0.3166878
64	0x3e63755d	0.2221274
65	0xbdaaa688	-0.083325446
66	0xbe84b963	-0.2592269
67	0xbc3ed92f	-0.01164846
68	0xbec13dcd	-0.37742463
69	0xbe2f6934	-0.17129976
70	0x3ef86076	0.48511094
71	0x3c0dc426	0.008652722
72	0xbd97b3e3	-0.074073575
73	0xbd865a98	-0.06560248
74	0xbca65eae	-0.020308819
75	0xbeb5155c	-0.35367858
76	0x3e0eddc1	0.1395178
77	0xbe599d33	-0.21251373
78	0x3ee55fa7	0.4479954
79	0x3f3ad23a	0.7297703
80	0xbeb01286	-0.34389132
81	0xbe792964	-0.24332196
82	0xbe93459a	-0.2876404
83	0xbe991b4d	-0.2990364
84	0xbea7a9e3	-0.327468
85	0xbeaea7ba	-0.3411234
86	0xbeac6777	-0.33672687
87	0x3daf8838	0.085709035
88	0xbcd2f0ba	-0.025749553
89	0x3e3c8ee8	0.1841389
90	0xbe9e2b6f	-0.30892512
91	0x3e8d1a6d	0.27559224
92	0xbe7ddf83	-0.24792294
93	0x3e02ca74	0.12772542
94	0x3e95b33f	0.29238316
95	0xbe6fb0cf	-0.23407291
96	0x3e11f67a	0.1425418
97	0x3f317f2e	0.69334686
98	0xbdf9a08c	-0.12188825
99	0x3f35f5ec	0.7107837
100	0x3e114ce7	0.14189492
101	0x3e419e6f	0.18908094
102	0x3e25654b	0.16151921
103	0xbdfd9837	-0.12382548
104	0xbe8effbe	-0.2792949
105	0x3ccf4c4d	0.025304938
106	0xbe04ea8f	-0.12980102
107	0xbd4a9163	-0.049455058
108	0xbe61a38b	-0.22035043
109	0x3ef9ed41	0.48813823
110	0xbe11ba4f	-0.14231227
111	0x3ea070e0	0.31336117
112	0x3e967d0c	0.29392278
113	0xbe5f4e28	-0.21807158
114	0xbd96378c	-0.073348135
115	0xbea4105e	-0.32043737
116	0xbdd0fda6	-0.102046296
117	0xbe17ec37	-0.14836203
118	0x3debaa19	0.11507053
119	0x3e246863	0.16055445
120	0xbe313352	-0.17304733
121	0x3cfdc060	0.03097552
122	0xbdefce25	-0.11709241
123	0xba4e676f	-0.0007873689
124	0xbe899d32	-0.26877743
125	0xbe8c7526	-0.27433127
126	0x3ef961d1	0.4870744
127	0xbd07491f	-0.033028718
128	0x3e0e5337	0.13898931
129	0x3e2e9648	0.17049515
130	0x3e76c24d	0.24097557
131	0x3e5d207e	0.21594426
132	0x3f026967	0.5094208
133	0xbebfef2f	-0.3748717
134	0x3ec86076	0.39136094
135	0x3ea239ab	0.31684622
136	0x3db2f596	0.08738248
137	0xbeb5b847	-0.35492155
138	0xbdc6ef36	-0.097135946
139	0xbd9e16bd	-0.07719181
140	0x3ddef7e9	0.10887129
141	0x3eb135b6	0.3461129
142	0xbe810804	-0.25201428
143	0x3eb052a0	0.34438038
144	0xbd2936bf	-0.041311976
145	0x3e4c38bc	0.19943517
146	0x3f150f16	0.58226144
147	0xbe3395a6	-0.17537555
148	0xbe1ce0b2	-0.1532009
149	0x3f34849c	0.70514846
150	0x3d94e110	0.0726949
151	0xbd95e195	-0.07318417
152	0xbe036526	-0.12831554
153	0x3cf13f34	0.029449083
154	0xbe95dba5	-0.29269138
155	0x3ee3d77a	0.44500333
156	0x3eba61f1	0.36402848
157	0xbdfe8532	-0.12427749
158	0xbeb6a199	-0.35670164
159	0xbe27b876	-0.1637896
160	0x3e07c55f	0.13258885
161	0xbc5f7af8	-0.013640158
162	0x3e794767	0.24343644
163	0x3decc58c	0.115611166
164	0xbeabf89b	-0.33588108
165	0xbe0b28aa	-0.13589731
166	0xbe8225f4	-0.2541958
167	0x3e12ab5b	0.1432318
168	0xbea531f7	-0.32264683
169	0xbe931269	-0.28724983
170	0xbd3d8ceb	-0.046276968
171	0xbe5b65a3	-0.2142549
172	0x3f0c8113	0.5488445
173	0xbe104e6a	-0.14092413
174	0x3f163ad0	0.5868349
175	0xbeaf022d	-0.34181347
176	0xbe2fdde9	-0.17174496
177	0x3f2e4a9d	0.680826
178	0xbe9f1087	-0.31067297
179	0xbe94d0d7	-0.29065582
180	0x3d85afd2	0.06527676
181	0xbe73793f	-0.2377672
182	0xbe8c915f	-0.2745466
183	0xbe2e4fab	-0.17022578
184	0xbe914ceb	-0.28378996
185	0xbead9f4b	-0.33910593
186	0x3ec33465	0.3812591
187	0xbe0cd784	-0.13754088
188	0x3f220bce	0.6329926
189	0x3eb5c9e0	0.3550558
190	0x3ee0f1f0	0.43934584
191	0xbeb8f6bc	-0.36125743
192	0x3e1163ee	0.14198276
193	0x3ed1007e	0.40820688
194	0xbda3d203	-0.07999041
195	0x3ec01432	0.37515408
196	0xbe695658	-0.22786844
197	0xbe395869	-0.18100132
198	0xbe5ae76a	-0.2137734
199	0x3f159659	0.5843254
200	0x3f0161f0	0.50540066
201	0x3f1ab1a8	0.6042733
202	0x3f072687	0.52793163
203	0xbe2dada0	-0.16960764
204	0x3e5d1d71	0.21593262
205	0x3d22b373	0.039721917
206	0xbe1c3b29	-0.15256943
207	0xbe8eaebd	-0.2786769
208	0x3d91f5bc	0.07126948
209	0x3f48bc4b	0.7841231
210	0x3de4e9ff	0.11177444
211	0xbd44d7f9	-0.04805753
212	0x3e9dc42e	0.30813736
213	0x3d325030	0.043533504
214	0xbdb981d1	-0.09057964
215	0xbd7aafac	-0.06120269
216	0x3ddd97ca	0.10819967
217	0x3ee340eb	0.44385466
218	0xbd9fc8cb	-0.0780197
219	0xbe08c438	-0.13356102
220	0xbe81b0c4	-0.25330174
221	0xbd8eb41f	-0.06967949
222	0xbead8d02	-0.33896643
223	0xbe513eac	-0.20434064

encoder.input_net.0.bias f4 [32]
0	0x3e984e2e	0.29747146
1	0x3ecfad43	0.40561876
2	0xbd84e1f0	-0.06488407
3	0x3e66b8f1	0.22531487
4	0x3e0f94a1	0.14021541
5	0x3d2d2f49	0.042281423
6	0xbdccb480	-0.09995365
7	0xbe80c756	-0.2515208
8	0x3e71edb2	0.2362583
9	0x3d8fb146	0.07016234
10	0x3ea14b81	0.31502917
11	0x3e4f2e20	0.20232439
12	0xbe86531e	-0.26235288
13	0xbe97ce4b	-0.29649577
14	0x3de99b4f	0.11406576
15	0xbce29343	-0.02765811
16	0xbe47c5f5	-0.19509108
17	0xbeab0f42	-0.33410078
18	0xbe55ec62	-0.20890954
19	0x3ebdda9f	0.37080857
20	0x3e68eacc	0.22745818
21	0xbd0f27f6	-0.03495022
22	0x3e8f706f	0.28015468
23	0xbe88fbae	-0.26754516
24	0x3d3c1ed0	0.045927823
25	0xbd23ee64	-0.04002227
26	0x3e0ab4e0	0.13545561
27	0x3eb3aa6b	0.35090956
28	0x3e54b266	0.20771179
29	0xbe3d76f3	-0.18502407
30	0xbeadbae7	-0.33931658
31	0x3d88853c	0.066660374

encoder.message_net.0.0.weight f4 [32, 32]
0	0x3dd9b6cf	0.10630571
1	0xbe565c24	-0.20933586
2	0x3e19c419	0.15016212
3	0x3e093149	0.13397707
4	0x3e0b6d47	0.13615905
5	0xbe2a0d2f	-0.16606592
6	0x3c9a3554	0.018824257
7	0x3c912851	0.01771942
8	0xbe9954c1	-0.29947475
9	0x3d97618b	0.07391652
10	0x3dc851c2	0.09781219
11	0xbdca14ed	-0.098672725
12	0x3dbb95f4	0.09159461
13	0xbe2a4f3c	-0.16631788
14	0xbe255d95	-0.1614898
15	0xbd6a4de4	-0.05720319
16	0xbd95fd97	-0.07323759
17	0xbb56fb89	-0.0032803735
18	0x3c3e2b79	0.011607044
19	0x3dec14b5	0.11527387
20	0x3e397272	0.18110064
21	0xbd657fa5	-0.056029934
22	0xbe09e259	-0.13465251
23	0xbe1d27b5	-0.15347178
24	0xbe3454b6	-0.1761044
25	0xbdfbc4fc	-0.12293431
26	0x3b2a88d8	0.0026021507
27	0x3e05f620	0.1308217
28	0xbe7273e1	-0.23677017
29	0xbe232aba	-0.15934268
30	0xbdde8a44	-0.10866216
31	0x3e18b0c0	0.14911175
32	0xbe04a7e6	-0.12954673
33	0x3d442622	0.04788793
34	0xbcc14596	-0.023592751
35	0xbe01a2bb	-0.12659733
36	0xbd660961	-0.05616129
37	0x3c714227	0.014725245
38	0xbdd253c3	-0.102698825
39	0xbd060d3d	-0.03272747
40	0xbe284803	-0.1643372
41	0x3d88e0d2	0.06683506
42	0xbdad6552	-0.08466591
43	0xbe0b3b99	-0.13596953
44	0xbdf231aa	-0.11825879
45	0xbdf3d061	-0.119049795
46	0x3d5800d9	0.052735183
47	0xbde45789	-0.111495085
48	0x3d247731	0.040152732
49	0xbe0edcba	-0.13951388
50	0xbe1f95bd	-0.15584464
51	0x3e02ccf5	0.12773497
52	0xbd7e42a9	-0.06207529
53	0x3c2d1dd5	0.010566195
54	0x3e00cb4b	0.1257755
55	0xbdaaa095	-0.0833141
56	0xbe0abb85	-0.13548096
57	0x3db8142a	0.08988221
58	0x3c8d7f9f	0.017272769
59	0xbe009492	-0.12556675
60	0xbe022537	-0.12709509
61	0x3d1053eb	0.03523628
62	0xbe226173	-0.15857486
63	0x3d9bd2db	0.07608577
64	0xbcceeee4	-0.025260396
65	0x3d06c954	0.032906845
66	0xbd04df37	-0.032439437
67	0xbe235e57	-0.15953957
68	0x3d1a9ad2	0.037745304
69	0x3d975a1d	0.073902346
70	0xbd6604e4	-0.056157008
71	0x3dceeb69	0.10103495
72	0xbe19e7be	-0.15029809
73	0xbe2cc8a5	-0.16873415
74	0xbcdabb63	-0.026700681
75	0xbe01f200	-0.12689972
76	0xbde37f48	-0.11108261
77	0xbca27580	-0.019831419
78	0xbceabb42	-0.028653745
79	0xbe29f8ac	-0.16598767
80	0x3c384dca	0.011249015
81	0xbd395fc5	-0.04525735
82	0x3cebff34	0.028808214
83	0xbc150359	-0.009095036
84	0xbda2feca	-0.079587534
85	0x3d070180	0.032960415
86	0x3c87d46b	0.016580781
87	0xbdd2abeb	-0.10286697
88	0x3e023f74	0.12719518
89	0xbd8da4ab	-0.069161735
90	0xbddd5dd3	-0.10808911
91	0xbd64610c	-0.055756614
92	0xbd14d7a4	-0.036338463
93	0xbbd6f71d	-0.00656022
94	0xbdfb67da	-0.122756675
95	0x3dd91bf6	0.10601036
96	0xbc048e6a	-0.008090595
97	0x3e9f5158	0.31116748
98	0xbe2662f3	-0.16248684
99	0xbdb74d4f	-0.08950292
100	0x3df92d55	0.121668495
101	0xbd7a7710	-0.061148703
102	0x3d86eb62	0.065878645
103	0x3de361d0	0.11102641
104	0xbe310de8	-0.17290461
105	0xbd5e7005	-0.05430605
106	0xbda39aca	-0.07988508
107	0x3ef04101	0.46924594
108	0x3de0d1e5	0.10977534
109	0xbd737e3e	-0.059446566
110	0x3ea901a3	0.3300906
111	0xbe771677	-0.24129663
112	0x3dec9511	0.1155187
113	0xbe066238	-0.13123405
114	0xbc969647	-0.018382205
115	0x3ecdabd8	0.4017017
116	0xbde77a37	-0.113026075
117	0x3e0b8d62	0.13628152
118	0x3eb52b39	0.3538454
119	0xbe0e22e1	-0.13880493
120	0xbeae583f	-0.340517
121	0x3d3151b5	0.043290813
122	0xbe2d329e	-0.1691384
123	0x3d82aaf6	0.063802645
124	0xbdeb4030	-0.11486852
125	0x3cc2b147	0.023766173
126	0xbe1d0283	-0.1533299
127	0xbc97dcb7	-0.018537862
128	0xbcdeac0b	-0.027181646
129	0x3e063934	0.13107759
130	0x3d53bbed	0.051692892
131	0x3d85ce50	0.065334916
132	0xba893b00	-0.0010469854
133	0xbe7664b3	-0.24061851
134	0xbe404ede	-0.18780085
135	0xbddfa130	-0.10919416
136	0x3d9ef866	0.07762222
137	0x3c85351d	0.016260678
138	0x3d443385	0.047900695
139	0x3e4e6527	0.20155774
140	0x3df4f402	0.11960603
141	0xbe32bf05	-0.1745568
142	0x3e0b0f32	0.13580015
143	0xbe73f56e	-0.23824093
144	0xbe1b8640	-0.15187931
145	0xbd9e526c	-0.077305645
146	0x3d1e533a	0.03865359
147	0x3e967cc8	0.29392076
148	0xbe231b46	-0.15928373
149	0x3eda2b52	0.42611176
150	0x3ec7b014	0.39001524
151	0xbdea1ecd	-0.11431656
152	0xbe47e24c	-0.19519919
153	0x3ded5e66	0.11590271
154	0x3d9ca74b	0.07649096
155	0x3dd36658	0.10322255
156	0xbe45ba66	-0.19309387
157	0xbe712228	-0.23548186
158	0x3e15b6ea	0.14620557
159	0xbdfed52c	-0.12443003
160	0x3e6c8148	0.23096192
161	0x3ef24ad4	0.47322714
162	0xbe4f6fa4	-0.20257431
163	0x3e8603cd	0.26174775
164	0x3d7b6a66	0.061380766
165	0xbdf9d249	-0.12198312
166	0xbda5c673	-0.08094492
167	0xbd2c5f43	-0.042083036
168	0xbd48c591	-0.04901654
169	0xbe8526a1	-0.26006034
170	0x3d991dad	0.07476363
171	0x3f29869a	0.6622101
172	0x3df56634	0.11982384
173	0xbe08c070	-0.13354659
174	0x3f024639	0.508884
175	0xbdd90480	-0.105965614
176	0xbe160934	-0.14651948
177	0xbe323389	-0.17402472
178	0xbe83b6d5	-0.25725427
179	0x3ef87953	0.48530063
180	0xbded545e	-0.115883574
181	0x3f2e4128	0.6806817
182	0x3ea55aff	0.32295987
183	0x3ddbd53f	0.10734033
184	0xbdf23245	-0.118259944
185	0x3f3a18db	0.72694176
186	0xbe0c29b5	-0.13687785
187	0xbd5f45c7	-0.054509904
188	0xbe40a419	-0.18812598
189	0xbd50e49e	-0.050999276
190	0xbdec90f2	-0.115510836
191	0xbe84037c	-0.25783908
192	0x3d823720	0.063581705
193	0x3e50c6af	0.20388292
194	0x3df2bcbf	0.11852407
195	0xbddd0506	-0.10791974
196	0xbe1b541a	-0.15168801
197	0x3ecce604	0.40019238
198	0x3ca94edb	0.020667484
199	0xbe084981	-0.1330929
200	0x3b7ccb9b	0.0038573507
201	0xbd59eb74	-0.05320306
202	0x3d72e068	0.05929604
203	0xbdc4e89c	-0.09614679
204	0x3de1e939	0.11030812
205	0x3e83ea6f	0.25764796
206	0xbde70116	-0.11279504
207	0x3ea27941	0.31733134
208	0x3d05653f	0.03256726
209	0xbd8fddd8	-0.07024735
210	0x3dbcd863	0.0922096
211	0x3e314cf0	0.17314506
212	0xbd304438	-0.04303381
213	0xbe22f290	-0.15912843
214	0xbd8fcb1f	-0.07021164
215	0x3e0c42ed	0.13697405
216	0x3e745395	0.23860009
217	0xbd7e71b6	-0.062120162
218	0x3e3a5432	0.1819618
219	0x3e3134ab	0.17305247
220	0x3e8ad51d	0.27115718
221	0x3edbd92b	0.42939124
222	0xbe2f0d3c	-0.17094892
223	0xbde5c9a6	-0.11220102
224	0x3dafb198	0.08578795
225	0xbe1498a5	-0.14511354
226	0xbd99cb9e	-0.0750954
227	0xbd8eb525	-0.06968144
228	0xbe18eb6a	-0.14933553
229	0x3d25396d	0.04033797
230	0x3d9e0c76	0.077172205
231	0x3d8a3175	0.067477144
232	0xbd79d645	-0.06099536
233	0xbd736601	-0.05942345
234	0xbd1a9f27	-0.037749436
235	0xbc01e2a3	-0.00792757
236	0xbdd01cfb	-0.101617776
237	0x3e10a574	0.14125615
238	0xbe0272aa	-0.12739053
239	0x3d0a599c	0.033776864
240	0xbda57261	-0.08078457
241	0xbd5fb07d	-0.05461167
242	0xb8166fdd	-3.5866968e-05
243	0x3e1afd89	0.15135778
244	0xbe0afadb	-0.13572256
245	0xbe296b03	-0.16544728
246	0xbe1770b1	-0.14789082
247	0xbe034dc6	-0.12822637
248	0x3c2da400	0.010598183
249	0xbdcec269	-0.100956745
250	0x3de978c9	0.11399991
251	0x3d5e746a	0.05431024
252	0xbbb92e62	-0.005651281
253	0xbd8ef452	-0.06980194
254	0xbdf3673e	-0.11884926
255	0xbd94264d	-0.07233868

encoder.message_net.0.0.bias f4 [32]
0	0x3e0e38d7	0.1388887
1	0xbd5e1eed	-0.054228712
2	0xbb9794c8	-0.0046258904
3	0x3e0d7df9	0.13817586
4	0x3e3a2ba6	0.18180713
5	0xbd26f588	-0.0407615
6	0xbdb981f1	-0.090579875
7	0xbd77295f	-0.06034219
8	0xbc5f42bc	-0.013626751
9	0x3db13f48	0.08654648
10	0x3d2ffc92	0.04296548
11	0xbda6f884	-0.08152869
12	0x3de346e8	0.11097509
13	0xbe2776f3	-0.1635397
14	0x3da5d9ac	0.08098158
15	0x3e2f187c	0.17099184
16	0x3e026bc4	0.12736422
17	0xbd8d5555	-0.069010414
18	0xbd3ea81e	-0.046547048
19	0x3db90355	0.09033839
20	0x3bbf1a1a	0.005831969
21	0xbddc4198	-0.107546985
22	0xbc9a44c6	-0.018831622
23	0xbe374820	-0.17898607
24	0xbd139f25	-0.036040444
25	0x3d304da5	0.043042798
26	0xbe0aa838	-0.13540733
27	0x3e286de1	0.16448165
28	0x3cb05d32	0.021528814
29	0xbd8c6230	-0.06854665
30	0x3e17d6af	0.14827989
31	0x3e4674a9	0.1938044

encoder.message_net.1.0.weight f4 [32, 32]
0	0xbe2ed4d6	-0.17073378
1	0xbe3ebe8d	-0.18627377
2	0x3cbf7cec	0.023374997
3	0x3c600714	0.013673563
4	0x3bd24016	0.006416331
5	0x3e00527b	0.12531464
6	0xbd9969e3	-0.074908994
7	0x3d96b846	0.07359366
8	0x3e00aa4a	0.1256496
9	0xbdddc5b2	-0.10828723
10	0xbdd5083e	-0.10401963
11	0xbdcfe4fc	-0.10151097
12	0xbdc75f3c	-0.097349614
13	0xbcb7948b	-0.022409698
14	0xbe5cb7cd	-0.2155449
15	0x3e1e6174	0.15466863
16	0xbdcbc11c	-0.09948942
17	0x3b75091a	0.0037389458
18	0x3d3c7bda	0.04601655
19	0x3db3c7d5	0.08778349
20	0xbc845aac	-0.016156517
21	0xbd371a49	-0.0447028
22	0x3dfd8490	0.123788
23	0xbdc36981	-0.09541608
24	0x3e052b06	0.13004693
25	0xbdeb081e	-0.114761576
26	0x3d67b98d	0.05657344
27	0xbe198b55	-0.14994557
28	0x3de76230	0.11298025
29	0x3d009e74	0.031401113
30	0xbc251956	-0.010076841
31	0xbdc8fa80	-0.09813404
32	0x3daf7773	0.08567705
33	0x3e6a387a	0.22873107
34	0xbced077d	-0.028934235
35	0x3dbb70ec	0.091523975
36	0x3e0b2a79	0.13590421
37	0x3cb4aeef	0.022056071
38	0x3e528a72	0.20560625
39	0x3deb7ee2	0.1149881
40	0x3cedfb18	0.029050395
41	0x3c91100d	0.017707849
42	0xb990fe3d	-0.00027655243
43	0x3ed03e39	0.40672472
44	0xbe225dfc	-0.15856165
45	0xbe8fc818	-0.28082347
46	0x3e127350	0.143018
47	0xbe0722bf	-0.13196848
48	0x3e62c683	0.22146039
49	0xbd75bc13	-0.059993815
50	0xbe9493f8	-0.2901914
51	0x3dadef03	0.084928535
52	0x3c839aa2	0.016064946
53	0x3dd03d01	0.101678856
54	0x3d1508f7	0.036385503
55	0xbd535b38	-0.051600665
56	0x3dbb5a5c	0.09148094
57	0xbb89a404	-0.0042004604
58	0x3e0946eb	0.1340596
59	0xbedb5946	-0.42841548
60	0x3daf5360	0.085608244
61	0xbd5037b1	-0.05083436
62	0xbd562678	-0.05228278
63	0xbe2e1d5f	-0.17003392
64	0x3d07e998	0.033181757
65	0xbe3f208c	-0.1866476
66	0xbe0fb080	-0.14032173
67	0xbe5ebaf7	-0.21751009
68	0xbd9d4a0a	-0.076801375
69	0xbd5f765e	-0.054556243
70	0x3dfb4c2e	0.122703895
71	0xbe08485b	-0.13308851
72	0x3d9b302e	0.07577549
73	0x3d968f80	0.07351589
74	0x3d55553c	0.05208324
75	0xbd7ca4bf	-0.06168055
76	0x3db8f878	0.09031767
77	0x3c9c2d3b	0.019064536
78	0xbbacd2ad	-0.005274138
79	0xbe20fdcc	-0.15721816
80	0x3dc2bbaf	0.09508454
81	0xbcaca9a7	-0.02107699
82	0xbe1be2e8	-0.15223277
83	0xbe01ceb7	-0.12676512
84	0xbdf8a05a	-0.1213996
85	0xbe5e6084	-0.21716505
86	0xbd962a82	-0.073323265
87	0x3e001938	0.1250962
88	0xbe036ac1	-0.12833692
89	0x3d8d3892	0.068955556
90	0xbe09a4e1	-0.13441803
91	0xbdde0d85	-0.108424224
92	0x3c97b4dd	0.01851886
93	0xbd9306f5	-0.07179061
94	0xbda71f1c	-0.081602305
95	0xbd818f10	-0.06326115
96	0x3e06d07d	0.1316547
97	0xbd716c6b	-0.058941286
98	0xbddbc30a	-0.1073056
99	0xbe3ab2ce	-0.18232271
100	0xbe0a9d21	-0.13536502
101	0x3d4f68a3	0.0506369
102	0xbd4aa700	-0.04947567
103	0x3cce4027	0.025177075
104	0x3ccbab75	0.02486203
105	0xbda56593	-0.08076014
106	0xbe00a959	-0.12564601
107	0xbc73ca1f	-0.014879732
108	0x3d93c119	0.07214565
109	0x3e0a0959	0.13480128
110	0xbc806c92	-0.01567677
111	0xbad9b6b5	-0.0016610237
112	0xbb56e0a9	-0.0032787716
113	0x3d4af28c	0.049547717
114	0x3dc8b0b1	0.09799326
115	0x3dfbe9a7	0.12300425
116	0xbdd5426b	-0.10413059
117	0xbdd64287	-0.10461908
118	0xbda00aa6	-0.07814531
119	0x3dd5f188	0.10446459
120	0xbd4bc0ef	-0.049744543
121	0x3d991d2a	0.07476266
122	0xbe2c44bc	-0.16823095
123	0x3ceda9fc	0.029011719
124	0x3e13de60	0.14440298
125	0xbd60f781	-0.054923538
126	0xbd797a90	-0.0609079
127	0x3e080535	0.13283236
128	0xbcb1f3b2	-0.021722648
129	0xbe2bbeaf	-0.16771959
130	0xbdccfd37	-0.100092344
131	0x3de5049b	0.11182519
132	0xbd134a4c	-0.035959527
133	0x3dbf940e	0.09354411
134	0xbe6f9a84	-0.23398787
135	0xbdd9ac6e	-0.106285915
136	0xbe0d8445	-0.13819988
137	0x3e090ca3	0.13383727
138	0xbb4d9cf6	-0.0031374074
139	0x3e1814fa	0.14851752
140	0x3da2d657	0.07951038
141	0x3d961bfb	0.073295556
142	0x3e0ac5f3	0.13552074
143	0x3e32aea0	0.17449427
144	0x3c9f7df7	0.019469244
145	0x3e0a71eb	0.13520019
146	0xbd68af7e	-0.056807987
147	0x3e2170f9	0.15765752
148	0xbe30f0cc	-0.17279357
149	0x3d7d6f3c	0.06187366
150	0x3de9a644	0.11408666
151	0xbe1bc026	-0.15210018
152	0xbd829de3	-0.06377771
153	0x3df0e19c	0.117617816
154	0xbe4d3e79	-0.20043363
155	0x3e144553	0.1447957
156	0xbdf94086	-0.1217051
157	0x3df4141e	0.119178995
158	0x3dfa8220	0.122318506
159	0xbe3ece89	-0.18633474
160	0x3eafa7d8	0.34307742
161	0x3e9dbff2	0.30810505
162	0x3e1dec40	0.15422153
163	0xbe2f9e85	-0.17150314
164	0x3e3fbcb7	0.18724333
165	0x3e77169a	0.24129716
166	0x3e1d873c	0.15383619
167	0x3ed0b84a	0.407656
168	0xbe45f36a	-0.19331136
169	0x3e1b3706	0.15157709
170	0x3df76660	0.12080073
171	0x3ef416f7	0.4767377
172	0xbe850851	-0.25982907
173	0xbe92d835	-0.28680578
174	0x3dbc782c	0.092026085
175	0xbd8c5762	-0.068526044
176	0x3e4e9e0b	0.20177476
177	0x3d6c4fd0	0.057693303
178	0xbe914bfb	-0.2837828
179	0x3d718669	0.058966074
180	0xbe065816	-0.1311954
181	0x3e7203a2	0.23634198
182	0x3bd400ef	0.006469838
183	0x3d85007e	0.064942345
184	0x3c31f88d	0.010862482
185	0x3e02e675	0.12783225
186	0xbde2853d	-0.110605694
187	0xbe3b2e8e	-0.18279478
188	0x3e806002	0.25073248
189	0x3d82951f	0.06376099
190	0xbdda6152	-0.106630936
191	0xbcc439a5	-0.023953268
192	0x3e5ab20e	0.21356985
193	0xbdbb1e6f	-0.09136664
194	0xbea8cff7	-0.32971165
195	0x3e821ddb	0.25413403
196	0x3e3ffbdb	0.18748419
197	0x3e18a79a	0.14907685
198	0xbd494be4	-0.04914464
199	0xbc881e44	-0.016615994
200	0xbdccdb70	-0.10002792
201	0xbdcfdaf7	-0.10149186
202	0x3ba52d2d	0.0050407858
203	0xbe13e8d0	-0.1444428
204	0x3c5b5011	0.013385789
205	0xbd2cee4d	-0.04221945
206	0x3e6f4ad6	0.23368391
207	0xbda074d1	-0.07834781
208	0x3d340401	0.04394913
209	0xbd92eaec	-0.07173714
210	0x3e4048db	0.18777792
211	0xbe8ba6aa	-0.27275592
212	0x3e7d61e2	0.2474437
213	0xbd09a421	-0.03360379
214	0xbe179143	-0.14801507
215	0x3d0bf3fa	0.03416822
216	0xbd8a11c6	-0.06741671
217	0xbd723bbb	-0.059138995
218	0xbab29dc0	-0.0013627335
219	0x3dfd249c	0.12360498
220	0x3db13d7a	0.08654304
221	0xbe1e872a	-0.15481248
222	0xbcba9dd5	-0.022780338
223	0x3e13b1d7	0.1442331
224	0xbd4b0e6a	-0.049574293
225	0xbd1a458f	-0.037663992
226	0xbce517f1	-0.027965518
227	0x3cf9d72a	0.030498106
228	0x3dd744f3	0.10511198
229	0xbe163316	-0.14667925
230	0xbe07c252	-0.13257721
231	0xbeb3dd65	-0.35129848
232	0x3c7f7b99	0.015593433
233	0x3d95c6b8	0.07313293
234	0x3a881c7e	0.0010384468
235	0xbe16c5cc	-0.14723891
236	0x3e432d91	0.19060351
237	0x3e3f91d1	0.18707968
238	0xbeb48bb2	-0.3526283
239	0x3e9370ce	0.28797
240	0xbd63e1dd	-0.055635322
241	0xbbcd6c91	-0.0062690456
242	0xbc25c96e	-0.010118825
243	0x3c84848c	0.016176485
244	0x3e2cf5a3	0.16890578
245	0x3d87d91e	0.06633209
246	0xbda04427	-0.07825499
247	0x3e1de269	0.154184
248	0x3e7b0d4e	0.24516794
249	0x3dd6dc47	0.10491233
250	0xbd324e9b	-0.043531995
251	0x3e8674c4	0.2626096
252	0xbdadc5aa	-0.08484967
253	0xbc790e50	-0.015201166
254	0x3e6f872f	0.23391412
255	0x3dd15c2d	0.10222659

encoder.message_net.1.0.bias f4 [32]
0	0xbdbffd1d	-0.093744494
1	0x3b92a1de	0.0044748625
2	0xbe5f2234	-0.21790391
3	0xbdfa7dc4	-0.12231019
4	0xbe0a9fa2	-0.13537458
5	0x3e241fc7	0.16027747
6	0x3db05b8b	0.086112104
7	0x3df56430	0.11982
8	0xbcea9dbe	-0.02863967
9	0xbd7bf201	-0.06151009
10	0xbdc95d9e	-0.09832309
11	0x3cda68a3	0.026661223
12	0x3e26dc8f	0.16295074
13	0xbb51c000	-0.003200531
14	0x3de4568b	0.11149319
15	0x3d27d1f6	0.04097172
16	0xbde85f22	-0.1134627
17	0x3daa3f12	0.08312811
18	0x3e20130a	0.15632263
19	0x3dc47a07	0.09593587
20	0x3c924214	0.017853774
21	0x3c61a8ca	0.013773153
22	0xbda6fa01	-0.08153153
23	0xbba1cf73	-0.00493806
24	0xbd05d311	-0.03267199
25	0x3e09644b	0.13417165
26	0xbe115406	-0.14192209
27	0xbc439d7d	-0.011939404
28	0xbd41accd	-0.047283936
29	0xbdc3ac9e	-0.095544085
30	0x3caa34d5	0.020777145
31	0x3c3668ae	0.011133356

encoder.message_net.2.0.weight f4 [32, 32]
0	0xbe876f95	-0.26452318
1	0xbe8f231f	-0.27956483
2	0xbe1abed4	-0.15111858
3	0xbd89897c	-0.06715676
4	0xbcbafb46	-0.022824895
5	0xbeda335f	-0.42617318
6	0x3d1afb4c	0.03783731
7	0x3d7fad7d	0.06242131
8	0x3e16f224	0.14740807
9	0x3e1cd147	0.15314208
10	0x3ddb847c	0.10718629
11	0xbe0472e7	-0.12934457
12	0xbd675210	-0.056474745
13	0x3e004688	0.12526906
14	0xbc434122	-0.011917384
15	0x3d669d20	0.05630219
16	0xbe1c4c39	-0.15263452
17	0x3eb59776	0.35467118
18	0xbc912e25	-0.017722199
19	0xbe0cd724	-0.13753945
20	0xbdd9855b	-0.10621139
21	0x3de7a6e4	0.11311129
22	0x3e357cc2	0.17723373
23	0xbc8851d0	-0.016640574
24	0x3dce3805	0.10069279
25	0x3ddaa3c3	0.10675766
26	0xbcb2a997	-0.021809382
27	0xbd2a0cf5	-0.041516263
28	0x3e10a180	0.14124107
29	0x3e21e2c3	0.15809159
30	0x3de52a11	0.11189664
31	0x3d8477cb	0.06468161
32	0x3db33a25	0.087513246
33	0x3dbc1404	0.09183505
34	0x3d0631fe	0.03276252
35	0xbe02b74d	-0.12765236
36	0xbdcf7362	-0.101294294
37	0x3e1c2d6d	0.15251704
38	0x3cbcc7a9	0.023044424
39	0x3df26d4e	0.118372545
40	0x3df6092d	0.12013469
41	0xbdb5d445	-0.08878378
42	0x3df19d6e	0.117976055
43	0x3cefc478	0.029268488
44	0xbce9a7c8	-0.028522387
45	0x3ce48c13	0.027898824
46	0x3d90676b	0.070509754
47	0x3caa12da	0.020760942
48	0x3d752a8e	0.059855036
49	0xbb279c84	-0.0025575468
50	0xbe1c72d7	-0.15278183
51	0xbadbdfc6	-0.0016775064
52	0xbb1b6315	-0.002371018
53	0xbd945732	-0.07243194
54	0xbd20c64e	-0.039251618
55	0xb9845114	-0.0002523741
56	0xbe4e4c24	-0.20146233
57	0xbdc6b839	-0.097031064
58	0xbe0cbbc7	-0.13743506
59	0x3d17f241	0.037096266
60	0xbe1c8788	-0.15286076
61	0x3dbe3152	0.09286751
62	0xbe3e1b0c	-0.18565005
63	0x3d9e00fc	0.077150315
64	0xbe921178	-0.28528953
65	0xbe8f5aeb	-0.27999052
66	0xbe4018aa	-0.18759409
67	0x3e544a8a	0.2073156
68	0xbcb059ad	-0.021527136
69	0xbeec5425	-0.46157947
70	0x3cb4a5cc	0.022051714
71	0x3e20a7cc	0.1568901
72	0xbe5c2eaf	-0.21502183
73	0x3cc35c33	0.023847675
74	0x3e0f7d59	0.1401266
75	0xbe4156c4	-0.18880755
76	0xbde92ae5	-0.113851346
77	0xbe09f4fd	-0.13472362
78	0x3e3a7fd2	0.18212822
79	0xbcd323b2	-0.025773857
80	0xbe0f6396	-0.14002833
81	0x3e813371	0.2523456
82	0x3e083020	0.13299608
83	0x3d875dc1	0.06609679
84	0xbd5158a5	-0.05110993
85	0x3e13e573	0.14442997
86	0xbd214414	-0.039371565
87	0x3daf0416	0.08545701
88	0xbd563c76	-0.052303754
89	0x3e030b81	0.12797357
90	0xbdb88dec	-0.090114444
91	0x3e1f2a23	0.15543418
92	0xbe0d5395	-0.13801415
93	0x3db22c4e	0.08699857
94	0x3b01246f	0.0019705554
95	0x3e7a3861	0.2443557
96	0xbe368ee8	-0.17827952
97	0xbe0add4d	-0.13560982
98	0x3d276b08	0.040873557
99	0xbd0c284b	-0.034218114
100	0xbe2a9ed5	-0.16662152
101	0xbe2b50b9	-0.16730012
102	0xbdc344d1	-0.0953461
103	0xbe4a3c1c	-0.19749492
104	0x3d437f90	0.047729075
105	0x3d0fe17f	0.03512716
106	0xbe1b16b0	-0.15145373
107	0x3d0a14c2	0.033711202
108	0x3db9e434	0.090767294
109	0xbdfb2cf5	-0.12264434
110	0xbe516e81	-0.2045231
111	0xbd819848	-0.063278735
112	0x3d840276	0.06445782
113	0x3e02275d	0.12710328
114	0x3da0a878	0.07844633
115	0x3e15398c	0.14572734
116	0x3d63582d	0.055504013
117	0xbe0aab97	-0.13542019
118	0xbddc034b	-0.107428156
119	0xbe306fa7	-0.17230092
120	0x3d3438c7	0.04399946
121	0xbe22d987	-0.15903293
122	0x3d9b7e78	0.075924814
123	0xbd98ddcb	-0.07464179
124	0xbd4af7fc	-0.049552903
125	0x3db8653c	0.09003684
126	0x3d927fb3	0.07153263
127	0xbcb9518c	-0.022621892
128	0xbe2f6905	-0.17129906
129	0xbda46e6e	-0.08028875
130	0x3c6e0a32	0.014528798
131	0x3db3295f	0.08748125
132	0x3c889119	0.01667075
133	0x3d9bae18	0.07601565
134	0x3c0955c5	0.008382265
135	0x3e15ff88	0.14648259
136	0x3e0c6f62	0.13714364
137	0x3dd76a9d	0.10518382
138	0xbda59aa1	-0.08086134
139	0x3a1ad5a7	0.00059064705
140	0xbe4edad3	-0.20200662
141	0xbde4a7e1	-0.11164833
142	0xbc9bc9d0	-0.01901713
143	0xbe09adb9	-0.13445176
144	0xbde68f12	-0.11257757
145	0xbbc3f09e	-0.0059796115
146	0xbdb84bf7	-0.08998864
147	0x3de12da8	0.10995036
148	0xbe13dd07	-0.14439784
149	0x3c2d9466	0.010594463
150	0x3e173ce5	0.14769323
151	0xbe499b8d	-0.19688244
152	0xbce9838d	-0.028505111
153	0xbe0e4aeb	-0.13895766
154	0xbe018064	-0.12646633
155	0xbca5ca11	-0.020237954
156	0x3e030d36	0.12798008
157	0x3d1c2ce9	0.038128767
158	0xbde84234	-0.11340752
159	0x3da20ef1	0.07913006
160	0xbde78156	-0.11303966
161	0xbe55abd4	-0.20866328
162	0xbe9ecdbb	-0.31016335
163	0x3d4869df	0.04892909
164	0x3de481e1	0.11157585
165	0x3db8d241	0.09024478
166	0xbd5071b5	-0.05088969
167	0x3d96acd2	0.073571816
168	0x39ddac07	0.00042280575
169	0x3cc7573b	0.024333587
170	0x3ded6907	0.11592298
171	0x3dd3c456	0.103401825
172	0x3e890a6e	0.2676577
173	0x3ca0e6bc	0.019641273
174	0x3e28f183	0.1649838
175	0x3d76128a	0.060076274
176	0xbd0bd348	-0.03413704
177	0xbdd81bee	-0.10552202
178	0x3da82e81	0.08211995
179	0xbda507e1	-0.080581434
180	0xbdf2a09a	-0.118470386
181	0x3c682917	0.014169953
182	0xbe01e966	-0.1268669
183	0x3de17dc3	0.11010315
184	0xbde64f90	-0.11245644
185	0x3cb84ee1	0.02249855
186	0xbd502017	-0.050811853
187	0x3e3df92d	0.18552084
188	0x3e897f89	0.26855114
189	0x3e01b7bb	0.12667744
190	0x3e02a1c3	0.1275702
191	0xbdc098fe	-0.09404181
192	0xbd66a981	-0.056313995
193	0xbe02a19c	-0.12756962
194	0xbe2b5361	-0.16731025
195	0xbdc3fe2a	-0.09569962
196	0xbdfe0ba7	-0.12404566
197	0x3e0ab3ac	0.13545102
198	0xbe0af403	-0.13569646
199	0x3db0483f	0.0860753
200	0x3e2152a2	0.15754178
201	0xbd9bfb0b	-0.07616242
202	0xbda93892	-0.08262743
203	0x3e018f23	0.12652259
204	0xbd5d2844	-0.05399348
205	0xbda60328	-0.08106071
206	0xba9d3926	-0.0011995181
207	0xbdad86b8	-0.08472961
208	0xbe18f26b	-0.14936225
209	0x3dbe955f	0.09305834
210	0xbb49692a	-0.0030732849
211	0xbe1c778d	-0.1527998
212	0x3ca416da	0.020030428
213	0xbe259756	-0.16171011
214	0x3e32ab7c	0.17448229
215	0xbd16ae4e	-0.036787324
216	0x3d829929	0.06376869
217	0xbbefc3e9	-0.0073170555
218	0xbdeec0c7	-0.11657863
219	0x3cf805fb	0.03027629
220	0xbd69b1d4	-0.057054356
221	0x3d6438bb	0.055718165
222	0xbe143cd1	-0.14476325
223	0xbcf1dcd8	-0.029524252
224	0xbe0893b4	-0.13337594
225	0x3da0e641	0.078564174
226	0x3d0804fa	0.03320787
227	0xbc9ede4d	-0.01939311
228	0xbdef8f29	-0.116972275
229	0xbcadc580	-0.02121234
230	0xbc1d2be5	-0.009592985
231	0xbe23a7a5	-0.1598192
232	0xbe02920d	-0.12751026
233	0xbe25bca6	-0.16185245
234	0x3df41f7f	0.1192007
235	0x3cea6c82	0.028616194
236	0xbd1a6ee7	-0.03770342
237	0x3dba819a	0.09106751
238	0xbe18a110	-0.1490519
239	0x3d7d5e98	0.06185779
240	0xbe4061d9	-0.18787326
241	0x3d01d06d	0.03169291
242	0xbe0f3e46	-0.13988599
243	0xbe04ab2a	-0.12955919
244	0xbd9607bb	-0.07325693
245	0xbdaf7c61	-0.08568645
246	0xbb4bdb08	-0.0031105895
247	0xbd9ee79a	-0.07759018
248	0xbe3a1d27	-0.18175183
249	0xbd259c64	-0.04043235
250	0xbe5a62d0	-0.21326756
251	0xbdd40eee	-0.1035441
252	0x3d42c9a7	0.047555592
253	0x3dab160e	0.08353816
254	0xbb93c659	-0.004509729
255	0xbdaad02d	-0.08340488

encoder.message_net.2.0.bias f4 [32]
0	0xbc5dce48	-0.013537951
1	0xbd593c99	-0.053036306
2	0xbdd68c52	-0.10475983
3	0xbbddb6f5	-0.006766195
4	0xbd83b28e	-0.06430541
5	0xbcaa48d0	-0.020786673
6	0xbde3d48d	-0.11124525
7	0x3db4fba3	0.088370584
8	0xbadfe613	-0.0017082117
9	0x3dc08158	0.0939967
10	0xbbcd246c	-0.0062604453
11	0xbde6737e	-0.11252497
12	0xbe5337d7	-0.2062677
13	0x3df0ab15	0.11751381
14	0x3c0eedb5	0.008723666
15	0xbe2b2c35	-0.16716082
16	0xbe3574e2	-0.17720369
17	0xbbc324e1	-0.005955324
18	0x3cb23531	0.02175388
19	0xbde69989	-0.11259753
20	0x3d5fc76c	0.054633543
21	0xbcd79de0	-0.026320398
22	0xbe7f38ee	-0.2492406
23	0xbdddf804	-0.10838321
24	0x3d838e57	0.064236335
25	0xbd9806e5	-0.0742319
26	0xbdc44d1f	-0.09585022
27	0xbd6501ad	-0.0559098
28	0xbe115b55	-0.14194997
29	0x3dafd500	0.085855484
30	0xbd89451b	-0.06702634
31	0x3dd51ad5	0.104055084

encoder.gru.weight_ih f4 [96, 32]
0	0xbdd9e3bf	-0.10639142
1	0xbdd67397	-0.10471266
2	0xbe1e34bb	-0.15449803
3	0x3bd36206	0.0064508943
4	0xbdbc42a5	-0.09192399
5	0x3dd2f674	0.103009135
6	0x3db34d69	0.08754999
7	0x3e89f80e	0.26947063
8	0x3df854ae	0.12125526
9	0x3e6a78a7	0.22897588
10	0xbe3fe026	-0.1873785
11	0x3e167c04	0.14695746
12	0xbe19ffa7	-0.1503893
13	0x3cc32d39	0.023825275
14	0xbd6f52f7	-0.05842873
15	0xbea4d635	-0.32194677
16	0xbdad760c	-0.08469781
17	0xbe041f6f	-0.12902616
18	0xbe99b929	-0.30024078
19	0x3dbbd662	0.0917175
20	0xbdf62572	-0.12018861
21	0x3d0dbe5d	0.034605373
22	0xbb34a877	-0.0027566233
23	0xbd00a5f7	-0.031408276
24	0xbcb594c2	-0.02216566
25	0x3d3afba2	0.045650132
26	0xbe38971c	-0.18026394
27	0xbd418ad5	-0.04725154
28	0xbe432f16	-0.1906093
29	0x3e397801	0.18112184
30	0xbd8c9c14	-0.06865707
31	0xbe06d20e	-0.13166067
32	0xbdd7c660	-0.10535884
33	0x3dd63dc7	0.10461002
34	0xbd74fdf4	-0.0598125
35	0x3e608cda	0.2192873
36	0xbc831176	-0.015999537
37	0x3d6f9b8d	0.058497954
38	0xbcc0db2d	-0.023542011
39	0x3c051ce5	0.008124565
40	0x3bc3bd83	0.0059735193
41	0xbe7fd813	-0.2498477
42	0xbe6e6c35	-0.23283465
43	0x3c445fe6	0.011985755
44	0x3e3b9fe6	0.18322715
45	0x3e0b0fc1	0.13580228
46	0x3d9c4543	0.07630398
47	0xbe47a967	-0.19498216
48	0xbe2a4846	-0.16629133
49	0xbe6210f5	-0.22076781
50	0xbe7958c5	-0.24350269
51	0xbd89e348	-0.067328036
52	0x3da78791	0.08180154
53	0xbcfb7e9e	-0.030700024
54	0xbd73ef1c	-0.059554204
55	0x3d10decb	0.035368722
56	0x3c87e152	0.016586933
57	0xbd8992a0	-0.067174196
58	0xbb2e1c1c	-0.0026567047
59	0xbe713d86	-0.23558626
60	0x3e6e43dc	0.23268074
61	0x3d2aecb8	0.04172966
62	0xbe79fe46	-0.24413404
63	0x3c53dc80	0.012930989
64	0xbdccc291	-0.09998048
65	0x3edc8969	0.43073586
66	0x3dbdf6cb	0.09275588
67	0x3f1edb92	0.6205379
68	0x3e6ad53f	0.2293291
69	0x3e62c9cd	0.22147293
70	0xbd58691d	-0.05283462
71	0x3e494147	0.19653808
72	0xbd82b137	-0.06381457
73	0xbc48e52a	-0.012261668
74	0x3aefd746	0.0018298409
75	0x3ce4ac49	0.027914183
76	0xbb99fca9	-0.004699309
77	0x3e2fb21e	0.1715779
78	0x3c7c3286	0.015392905
79	0xbd7584b9	-0.059941027
80	0xbe229cdc	-0.1588015
81	0x39037f90	0.00012540654
82	0x3de69ac6	0.112599894
83	0x3eb61e5d	0.3557004
84	0x3ce7db8f	0.028302936
85	0xbd39a2d2	-0.045321293
86	0x3e2d6a4a	0.16935077
87	0x3d6a8656	0.05725702
88	0xbb73a0c2	-0.0037174677
89	0xbe95bb0d	-0.2924427
90	0x3cf664b9	0.030077325
91	0xbe0f2bab	-0.13981502
92	0x3de2e2e4	0.11078432
93	0x3e15157a	0.14558974
94	0x3d8a5fdb	0.06756564
95	0x3db85355	0.09000269
96	0x3d31344b	0.04326276
97	0x3e5af0e7	0.2138096
98	0x3e6852d8	0.22687852
99	0x3e8bab62	0.27279192
100	0x3e9317b3	0.2872902
101	0x3ee9af2b	0.45641455
102	0x3cfe59b0	0.031048626
103	0xbd30d0f9	-0.04316804
104	0x3db669c9	0.08906896
105	0x3d2fa75a	0.04288421
106	0x3d5305db	0.051519256
107	0x3d3f181b	0.04665385
108	0x3e881f23	0.26586255
109	0x3e46890d	0.19388218
110	0xbcd5c4f4	-0.026094891
111	0x3e7053c1	0.2346945
112	0x3d26be2a	0.0407087
113	0x3d90d2a2	0.07071425
114	0xbe275154	-0.16339618
115	0x3e858b47	0.26082823
116	0xbe204742	-0.15652183
117	0x3d381c98	0.044949144
118	0x3e8e5ee5	0.27806774
119	0xbd36bfb4	-0.044616416
120	0x3e05160c	0.12996691
121	0x3dbf83e8	0.09351331
122	0xbe260616	-0.16213259
123	0x3e33f02e	0.1757209
124	0x3e8fdea1	0.2809954
125	0x3e79a903	0.24380879
126	0xbda5abd4	-0.08089414
127	0x3e0e53eb	0.138992
128	0xbdf738f9	-0.120714135
129	0x3e15c6cb	0.14626615
130	0xbe81d61f	-0.25358674
131	0x3da846b1	0.08216608
132	0x3e9627cf	0.29327247
133	0x3e8f7966	0.28022307
134	0x3e7f8d3c	0.2495622
135	0xbb97c272	-0.004631334
136	0xbca3b322	-0.019982878
137	0xbc955d1c	-0.018232875
138	0xbe182979	-0.1485957
139	0xbe4b6607	-0.19863139
140	0x3df0b3d7	0.11753052
141	0x3e290f19	0.16509666
142	0x3e143488	0.14473164
143	0xbf029ecb	-0.5102355
144	0xbd9f77ee	-0.07786547
145	0x3d9e77f8	0.07737726
146	0xbe8755cb	-0.26432642
147	0x3e2fb5bb	0.17159168
148	0xbd2d266e	-0.042272978
149	0xbe62b7c5	-0.22140415
150	0xbe020935	-0.12698825
151	0x3db69f97	0.08917158
152	0xbe4bb2b5	-0.1989239
153	0x3cf2ca5f	0.029637514
154	0xbe80d563	-0.251628
155	0x3e90646f	0.28201625
156	0x3ef0c12f	0.47022387
157	0xbd56a871	-0.052406732
158	0xbcf1e2a6	-0.02952702
159	0xbe2e9782	-0.17049983
160	0xbc812a33	-0.015767192
161	0x3e5111ba	0.20416918
162	0xbc1cd324	-0.009571824
163	0xbe2c6c79	-0.16838254
164	0xbe2ff0b2	-0.17181662
165	0x3e143549	0.14473452
166	0x3e62d871	0.22152878
167	0x3ea88009	0.32910183
168	0x3e1227c3	0.1427298
169	0x3ea0c5cc	0.31400907
170	0xbd86c411	-0.065803654
171	0xbce0a81f	-0.027423916
172	0x3d91192c	0.07084879
173	0x3e74cd6f	0.23906492
174	0xbd2d534a	-0.04231576
175	0xbe77dc5a	-0.24205151
176	0xbd8e2e66	-0.069424435
177	0x3d278c32	0.040905185
178	0xbd9d43b5	-0.0767893
179	0xbcb78f03	-0.02240706
180	0x3e568f17	0.20953022
181	0xbd91c463	-0.07117536
182	0xbdcdee88	-0.10055262
183	0x3dd039e8	0.10167295
184	0x3da04bea	0.078269795
185	0xbe2a77af	-0.16647218
186	0x3d835281	0.06412221
187	0xbd667cca	-0.056271352
188	0xbec08125	-0.3759853
189	0xbcf81df8	-0.030287728
190	0xbdf937ef	-0.121688716
191	0x3d42d668	0.047567755
192	0x3e2f1309	0.17097105
193	0x3d87a8eb	0.066240154
194	0x3da9368f	0.08262359
195	0xbdaec9d7	-0.08534592
196	0xbdc54012	-0.09631361
197	0xbd52cc26	-0.051464222
198	0x3d9a7d30	0.07543409
199	0x3e093b70	0.1340158
200	0xbe153efa	-0.14574805
201	0xbcd3e80d	-0.025867486
202	0x3d2717cf	0.04079419
203	0xbbbdcb52	-0.00579206
204	0xbe97a11d	-0.29615107
205	0xbe178f79	-0.14800824
206	0xbc2f0178	-0.0106815025
207	0x3ea127cb	0.31475672
208	0x3e6fb07e	0.2340717
209	0x3e21f613	0.15816526
210	0xbe94ef6a	-0.29088908
211	0x3d8573e1	0.06516243
212	0xbc47f0f9	-0.012203448
213	0xbe04368c	-0.12911433
214	0x3eb768f2	0.35822254
215	0x3cd0050c	0.025393032
216	0xbe780162	-0.24219278
217	0xbdfba231	-0.12286795
218	0xbc75e98f	-0.015009298
219	0x3c4c0cee	0.012454255
220	0xbd83a7be	-0.06428479
221	0xbdd67b3c	-0.10472724
222	0x3e568b00	0.20951462
223	0x3e871fd9	0.26391485
224	0xbd70644b	-0.058689397
225	0x3dee60eb	0.116395794
226	0xbe1d4c5b	-0.15361159
227	0x3de71058	0.11282414
228	0x3e34adee	0.17644474
229	0x3e1c3821	0.15255786
230	0xbd4776ed	-0.0486974
231	0x3e5dc65e	0.21657702
232	0x3e0dfb2b	0.13865344
233	0xbe1ad85e	-0.151216
234	0xbe39226b	-0.18079536
235	0xbe5df0d0	-0.21673894
236	0x3dde46f3	0.10853376
237	0x3df28eda	0.11843653
238	0x3e90f443	0.28311357
239	0xbd4bd7d6	-0.049766384
240	0xbe4b1755	-0.19833119
241	0xbe048037	-0.12939535
242	0xbe216976	-0.15762886
243	0xbcbf2a9f	-0.023335753
244	0x3e386bab	0.18009822
245	0xbe12fe60	-0.14354849
246	0x3d242813	0.04007728
247	0x3ddca16c	0.10772976
248	0x3db4df41	0.08831645
249	0xbe131372	-0.14362887
250	0xbd65879d	-0.056037534
251	0xbe26bf34	-0.16283876
252	0xbd29798a	-0.041375674
253	0x3d18c841	0.037300352
254	0xbd150581	-0.036382202
255	0xbe13f448	-0.14448655

encoder.gru.weight_hh f4 [96, 32]
0	0x3cf603a2	0.03003103
1	0x3ea62ccc	0.32456052
2	0xbdf6819a	-0.12036438
3	0x3db27cb6	0.08715193
4	0x3e4a99fb	0.19785301
5	0xbdc49121	-0.09597994
6	0xbd36dc88	-0.04464391
7	0x3dad32fb	0.084569894
8	0xbdb2300f	-0.08700573
9	0xbd07d2ba	-0.03315995
10	0x3e229b58	0.15879571
11	0x3efa50ba	0.48889714
12	0xbe438b91	-0.19096209
13	0x3e053cd8	0.13011491
14	0x3e9b1f8c	0.30297506
15	0x3e3af63e	0.18257996
16	0xbe3a4f41	-0.18194295
17	0x3e2f28e6	0.17105445
18	0xbe42ca60	-0.19022512
19	0x3eef6adb	0.46761212
20	0x3debfed5	0.11523215
21	0xbd552b46	-0.052043222
22	0x3ed5bc6f	0.41745326
23	0xbb6a9d97	-0.0035799497
24	0xbe04378a	-0.12911811
25	0x3e5653da	0.20930424
26	0xbe30b399	-0.17256011
27	0xbd8a454e	-0.067515
28	0x3d190c6c	0.037365362
29	0x3c8a99b4	0.016918994
30	0xbd8c8321	-0.06860948
31	0xbe63601d	-0.22204633
32	0xbc54e5cd	-0.012994242
33	0x3e7b99dc	0.24570411
34	0x3d9b71b5	0.07590047
35	0xbd837a5a	-0.06419821
36	0x3e6bcb97	0.23026882
37	0x3ebbe114	0.36695158
38	0x3e238b3a	0.1597108
39	0x3dc89e7c	0.097958535
40	0xbda33350	-0.079687715
41	0x3e47cb8d	0.19511242
42	0x3d4c17b7	0.049827304
43	0x3e19bf69	0.15014423
44	0xbd91a20e	-0.071109876
45	0xbe66413c	-0.22485822
46	0x3e276011	0.1634524
47	0x3e285db2	0.16441992
48	0xbdccb31b	-0.09995099
49	0xbe432d21	-0.19060184
50	0xbdb246da	-0.0870492
51	0x3e76afdb	0.24090521
52	0xbc003fb9	-0.007827693
53	0xbe1556e2	-0.14583924
54	0x3d6dac64	0.058025733
55	0xbe245fe8	-0.1605221
56	0xbe5ae7d1	-0.21377493
57	0xbbefb4a5	-0.0073152357
58	0x3d8a5260	0.06753993
59	0x3e6b991d	0.23007627
60	0xbd46fb37	-0.04857942
61	0x3bba19dd	0.0056793527
62	0xbe2f2403	-0.17103581
63	0x3c0f160e	0.008733286
64	0x3d8acbd2	0.06777157
65	0x3e8dc9ac	0.27692926
66	0xbb3f6c4e	-0.0029208842
67	0x3dcbb9e4	0.09947565
68	0x3e70764e	0.2348263
69	0xbde34cc6	-0.11098628
70	0x3d95b5a8	0.07310039
71	0x3d900aeb	0.070333324
72	0xbd3c9631	-0.04604167
73	0x3d9c0be2	0.07619454
74	0x3eabd44f	0.33560416
75	0x3966f06f	0.00022024078
76	0xbe4a5089	-0.19757284
77	0xbd7e7908	-0.062127143
78	0x3ca43e5a	0.020049263
79	0x3d80589b	0.062669
80	0x3d89ef16	0.06735055
81	0xbdbbfdd4	-0.09179273
82	0x3e0a08c7	0.13479911
83	0xbdcf7afd	-0.1013088
84	0x3e660501	0.22462846
85	0x3d6f6f92	0.05845601
86	0xbe81d200	-0.2535553
87	0x3e64cafb	0.22343056
88	0x3e349bb3	0.1763752
89	0x3e11f0ac	0.14251965
90	0xbd4c42c0	-0.049868345
91	0x3e522394	0.20521384
92	0xbddd3303	-0.10800745
93	0xbe183358	-0.14863336
94	0xbd319b22	-0.043360837
95	0x3e2c0ce5	0.16801794
96	0x3e06d2dc	0.13166374
97	0x3d0b9e08	0.034086257
98	0x3bc1f1f6	0.0059187366
99	0xbd9e559f	-0.07731175
100	0x3e8e62d8	0.27809787
101	0xbe85991c	-0.26093376
102	0x3d2b0647	0.041754033
103	0x3e3f2c67	0.18669282
104	0x3e019c76	0.12657341
105	0x3e565204	0.20929724
106	0x3e78035c	0.24220031
107	0x3db8814e	0.09009038
108	0xbdd69e18	-0.10479373
109	0xbe30f9f9	-0.17282857
110	0xbe14a5a8	-0.14516318
111	0x3d9c25aa	0.07624371
112	0x3cd32b85	0.025777588
113	0x3df9f1d0	0.12204325
114	0x3ea65d3c	0.32493007
115	0x3c8f2fd9	0.01747887
116	0xbc8ced88	-0.017203107
117	0x3d898f1f	0.06716751
118	0xbe3dc9a3	-0.1853395
119	0x3cb55308	0.022134319
120	0x3db438e9	0.08799917
121	0x3d9950eb	0.07486137
122	0x3c18d736	0.009328654
123	0x3d9d138a	0.076697424
124	0xbd0d39bb	-0.034478884
125	0x3d647573	0.05577607
126	0x3e2a2a32	0.16617659
127	0xbd5421e2	-0.051790126
128	0x3d7bcf99	0.061477277
129	0x3e813fa0	0.25243855
130	0xbd50f2e0	-0.051012874
131	0xbc7f0e20	-0.0155673325
132	0xbd1aa8d5	-0.037758667
133	0x3da8cc80	0.0824213
134	0x3e87046c	0.2637056
135	0x3ca0ca23	0.019627636
136	0xbe1a36e1	-0.15059997
137	0xbd8202de	-0.06348203
138	0x3ea200c0	0.31641197
139	0x3c003fb9	0.007827693
140	0xbe0cf221	-0.1376424
141	0xbbf27cf8	-0.0074001513
142	0x3daae545	0.08344511
143	0x3df80302	0.12109949
144	0x3d39e560	0.045384765
145	0x3d6e7ba3	0.058223378
146	0x3cfed533	0.03110752
147	0xbe11f4c6	-0.1425353
148	0x3c8c1d97	0.017103953
149	0xbc82172d	-0.015880192
150	0x3e14e3a2	0.1453996
151	0x3c81fad9	0.015866684
152	0x3e3eaaa9	0.18619789
153	0x3e167eb3	0.1469677
154	0x3dcd3f76	0.1002187
155	0x3e3764fd	0.17909618
156	0xbc0380f6	-0.008026352
157	0xbd40eeb8	-0.04710266
158	0x3d9352f7	0.07193559
159	0xbd8bd261	-0.06827236
160	0x3e54e887	0.20791827
161	0x3e854018	0.26025462
162	0x3dad7f34	0.08471528
163	0x3e89539e	0.26821607
164	0x3e32326a	0.17402044
165	0x3f1e47a9	0.61828095
166	0x3e38e1cc	0.18054885
167	0xbe1d0c7b	-0.15336792
168	0xbe416ed3	-0.18889932
169	0x3e532fd4	0.20623714
170	0x3e2b09a8	0.16702902
171	0x3db438e9	0.08799917
172	0x3d81f07f	0.06344699
173	0x3e1ddd39	0.15416421
174	0x3d34230f	0.043978747
175	0x3e52c6e8	0.20583689
176	0x3e4ccd28	0.20000136
177	0xbec35109	-0.38147762
178	0x3e3fadc1	0.18718626
179	0x3d254fdc	0.040359363
180	0x3e26a0b6	0.16272244
181	0xbd9b4367	-0.07581215
182	0x3df0816c	0.11743435
183	0x3dd645f5	0.10462562
184	0xbde8f85a	-0.11375494
185	0xbdf16deb	-0.11788543
186	0x3e21f11f	0.15814637
187	0x3bddb9bf	0.0067665274
188	0xbc2d20a3	-0.010566863
189	0xbea1a9fc	-0.31575
190	0xbd137501	-0.036000255
191	0x3e236313	0.15955763
192	0x3d1edc01	0.03878403
193	0xbe2d5b3f	-0.16929339
194	0xbdbabd8c	-0.091181844
195	0x3dca6964	0.09883383
196	0xbdb5ef1e	-0.088834986
197	0xbe4df2a9	-0.20112099
198	0x3e1ea263	0.15491633
199	0x3d901382	0.07034971
200	0x3d78e5fe	0.060766213
201	0xbd2d3b65	-0.04229297
202	0x3d7f8da0	0.062390924
203	0xbeaf6ed5	-0.34264246
204	0xbe270c59	-0.16313304
205	0xbd8b9630	-0.06815755
206	0xbe4554c2	-0.19270614
207	0x3e8c522b	0.2740644
208	0x3dd8f43a	0.105934575
209	0x3c5932d7	0.01325675
210	0x3d167848	0.036735803
211	0x3d8878e0	0.0666368
212	0x3e2b5bef	0.16734289
213	0x3e02b726	0.12765178
214	0xbe9fa011	-0.31176808
215	0x3d683873	0.05669446
216	0x3d2607ff	0.04053497
217	0x3d6cda18	0.057825178
218	0x3d39bf24	0.0453483
219	0x3e09bd4b	0.13451116
220	0xbe477466	-0.19477996
221	0xbdf05503	-0.11734965
222	0xbd4b16d2	-0.04958231
223	0x3e94ea7d	0.2908515
224	0xbd876976	-0.06611912
225	0xbd6ca28c	-0.057772204
226	0xbe082e38	-0.13298881
227	0xbe83855f	-0.25687692
228	0x3d1c8d06	0.038220428
229	0x3df84d2b	0.121240936
230	0xbe19b1ad	-0.15009184
231	0xbe58822a	-0.21143404
232	0x3c0df628	0.008664645
233	0xbd0c761f	-0.034292337
234	0x3e4e18e9	0.2012669
235	0x3e302806	0.17202768
236	0x3c95e930	0.018299669
237	0xbe85ab81	-0.2610741
238	0xbd876797	-0.06611555
239	0x3df83535	0.121195234
240	0xbdf3fb9f	-0.11913227
241	0x3c27a6ec	0.010232668
242	0xbe02d8c2	-0.12777999
243	0xbce5422e	-0.027985658
244	0x3e1ddb88	0.15415776
245	0xbd252b1a	-0.040324308
246	0xbe4e9e8d	-0.2017767
247	0xbd4645da	-0.04840646
248	0x3ca13e52	0.019683037
249	0xbd2b79b9	-0.04186413
250	0x3ddf0bdb	0.10890933
251	0x3c4e64bf	0.012597262
252	0xbe0ec446	-0.1394206
253	0x3e67eae8	0.22648203
254	0xbb9c7fb4	-0.0047759656
255	0xbdfe28e3	-0.12410142

encoder.gru.bias_ih f4 [96]
0	0x3e654b56	0.2239202
1	0x3e63e2c4	0.22254473
2	0x3e5761bb	0.21033375
3	0x3dfd1127	0.12356787
4	0x3e592617	0.21205936
5	0x3e0ce50e	0.13759252
6	0x3ddb815b	0.10718032
7	0xbdc12bc4	-0.09432176
8	0xbd8e0011	-0.069336064
9	0xbdc71846	-0.09721427
10	0x3e5a1c39	0.21299829
11	0xbe377a2e	-0.17917702
12	0x3be968de	0.007123097
13	0x3e5cb2f0	0.21552634
14	0x3e372b6d	0.1788766
15	0xbe08fcac	-0.13377637
16	0xbe5d46e3	-0.21609072
17	0x3e0edb95	0.13950951
18	0xbcf63a9f	-0.03005725
19	0x3d290e3e	0.041273348
20	0x3e30bba9	0.17259087
21	0xbcb6afce	-0.022300627
22	0xbdb918ce	-0.09037934
23	0xbddcea0d	-0.10786829
24	0x3e5c330c	0.21503848
25	0x3da5d08a	0.08096416
26	0xbd944e4c	-0.072414964
27	0x3e4d1317	0.20026813
28	0x3d2be8b5	0.041969974
29	0xbc445ff5	-0.011985769
30	0x3dbefffa	0.093261674
31	0xbe87da75	-0.26533857
32	0x3daca689	0.084302016
33	0xbcfd6930	-0.030933946
34	0xbdf9e1ec	-0.12201294
35	0xbe48a9c5	-0.19596012
36	0xbd9a1d87	-0.07525163
37	0x3bff9aad	0.007800421
38	0xbda15d7a	-0.07879157
39	0x3e381d45	0.17979915
40	0xbdf0e65a	-0.11762686
41	0x3d6fe69c	0.058569536
42	0xbe01fe47	-0.12694655
43	0x3d6d6fa0	0.057967782
44	0xbe10dab4	-0.14145929
45	0x3c5a4973	0.013323176
46	0xbc0fdcdb	-0.008780683
47	0x3de1c430	0.11023748
48	0x3dc7f04b	0.09762629
49	0x3dbc18b8	0.09184402
50	0xbd9dd3e8	-0.077064335
51	0x3e0ca428	0.13734496
52	0x3e831748	0.256037
53	0xbe0b3cf5	-0.13597472
54	0x3d3d7b57	0.046260204
55	0x3c74dd19	0.014945292
56	0xbd51ec7c	-0.05125092
57	0xbe363a2d	-0.1779563
58	0x3df802cc	0.121099085
59	0x3dd24e86	0.102688834
60	0xbe7b1098	-0.24518049
61	0x3d74ddfc	0.059782013
62	0x3e0f1a08	0.13974774
63	0xbbf30fa1	-0.0074176346
64	0x3c38ffb1	0.01129143
65	0x3ca50c0b	0.020147344
66	0xbdc34b92	-0.09535898
67	0xbd740548	-0.05957535
68	0xbda608e9	-0.08107168
69	0x3d1e0457	0.038578358
70	0xbc9a2313	-0.018815553
71	0x3e3cb767	0.18429337
72	0x3dba27e9	0.090896435
73	0x3c347c3b	0.011015947
74	0xbe11b121	-0.14227726
75	0xbc5795b7	-0.013158253
76	0xbe01e0b1	-0.12683369
77	0x3e7baa61	0.24576713
78	0xbc0130a2	-0.00788513
79	0x3dfca0e2	0.123353735
80	0x3d986d77	0.07442754
81	0x3b048a5f	0.0020224077
82	0x3e59ee1f	0.21282242
83	0xbdbd873b	-0.09254309
84	0x3e1ed6d7	0.15511642
85	0x3d635e1f	0.055509683
86	0xbdbc9c27	-0.09209471
87	0x3d8935e9	0.06699736
88	0x3da6e34c	0.08148822
89	0x3e49eae0	0.19718504
90	0x3d10208d	0.035187293
91	0xbd94b272	-0.07260598
92	0xbe288ba1	-0.16459514
93	0xbdda8d79	-0.10671515
94	0xbd398565	-0.04529323
95	0xbd8be495	-0.06830708

encoder.gru.bias_hh f4 [96]
0	0x3dcec459	0.10096044
1	0x3cb7b929	0.022427158
2	0x3e75c180	0.23999596
3	0x3c9f52de	0.019448694
4	0x3e2aa366	0.16663894
5	0x3e698f8a	0.22808662
6	0xbd878c67	-0.066185765
7	0x3de3ffc5	0.111327685
8	0xbd683249	-0.05668858
9	0x3d2bd712	0.041953154
10	0xbd34d4e6	-0.04414835
11	0x3d926624	0.07148388
12	0x3e5e6f63	0.21722178
13	0x3e110872	0.14163378
14	0x3e0bf9f1	0.13669564
15	0x3e1af4e9	0.15132488
16	0xbe58770a	-0.2113916
17	0x3e92b42a	0.2865308
18	0x3e775451	0.24153258
19	0x3cc744dc	0.024324827
20	0xbd8326c0	-0.06403875
21	0xbe0bf5ef	-0.13668035
22	0x3bba8e7c	0.005693255
23	0xbdec4d49	-0.115381785
24	0x3a453420	0.0007522721
25	0xbd1a4b8c	-0.037669703
26	0x3d986b03	0.07442286
27	0xb971311a	-0.00023001843
28	0xbda24103	-0.07922556
29	0xbdb2bab7	-0.08727019
30	0xbdd5a95e	-0.10432695
31	0xbdc0e4ee	-0.09418665
32	0xbd360aac	-0.04444377
33	0xbd8c96f6	-0.06864731
34	0xbe0dc6d6	-0.13845381
35	0xba9830da	-0.0011611239
36	0x3b42d137	0.0029726753
37	0xbe3e5825	-0.18588312
38	0x3d25d6dd	0.040488113
39	0x3e1ce4a5	0.15321596
40	0x3de36330	0.11102903
41	0xbd2d2f68	-0.04228154
42	0x3d175339	0.0369446
43	0xbdb147c0	-0.08656263
44	0x3cd0083c	0.025394551
45	0xbe8c0de1	-0.2735434
46	0xbb5c6965	-0.0033632156
47	0xbdb9f32e	-0.09079586
48	0x3e9dd0b9	0.30823305
49	0x3e12e6e5	0.14345892
50	0xbcc1bb63	-0.023648923
51	0xbd08088d	-0.03321128
52	0x3d0929c3	0.033487093
53	0x3e0536ec	0.13009232
54	0x3da0d851	0.07853759
55	0xbc803f8d	-0.015655303
56	0xbb1f6f6f	-0.0024327894
57	0xbd838353	-0.064215325
58	0x3e0e6135	0.13904269
59	0xbd3ca835	-0.046058852
60	0xbc5788a8	-0.01315514
61	0x3de8ed32	0.113733664
62	0xbd67841a	-0.056522466
63	0xbe0b5639	-0.1360711
64	0xbc1c3c46	-0.009535855
65	0xbe1fc202	-0.15601352
66	0x3dde82a9	0.10864765
67	0x3df8c643	0.121471904
68	0x3dc6df20	0.097105265
69	0xbe867a43	-0.26265153
70	0x3dd07672	0.10178842
71	0x3dfa5fd3	0.12225308
72	0xbe029db1	-0.12755467
73	0x3e504088	0.20337117
74	0xbe648a3b	-0.22318356
75	0x3df101f9	0.117679544
76	0xbc92418d	-0.017853523
77	0x3b154ae8	0.0022780243
78	0xbd111e9a	-0.035429575
79	0xbd3a7104	-0.045517936
80	0xbdce807c	-0.100831
81	0x3e94506a	0.289676
82	0x3e069586	0.13142976
83	0xbbb62c24	-0.005559461
84	0x3d5e3990	0.054254115
85	0xbe15cd06	-0.14628991
86	0x3de39758	0.11112851
87	0x3dc7da44	0.09758428
88	0x3cee0595	0.029055396
89	0x3d8cd062	0.06875683
90	0x3dd0d099	0.10196037
91	0x3e491fcd	0.19641037
92	0xbd6ab17e	-0.057298176
93	0x3d984c91	0.07436479
94	0x3e75a6f4	0.23989469
95	0x3def32b6	0.11679594
