experiments/gnn_hd64_ld32_nr5_ep500_nf3.0/model.pt (torch, 213211 bytes, 22 tensors)

encoder.input_net.0.weight f4 [64, 7]
00000000: bb2e 54be 8f67 53be b121 0f3f 74eb be3e
00000010: 01de b2be 256f db3e 4200 183f 2b84 853e
00000020: 53a2 2cbe 290d 09bd e143 81ba 01a9 b9be
00000030: ef01 963d 5860 8dbe def3 9a3e 8893 92bd
00000040: b3eb f1bd 4319 213e 88cd f93d 17e1 5c3e
00000050: 55da cebd 6c80 30be f941 05be b0d3 003f
00000060: 1d4e f6bd ce23 bf3d fe48 ed3e 251b 77be
00000070: b0a2 8a3d 925a 25be 6ad2 48bd 0eed 11be
00000080: 179d 083e 198d 98be 530e 3f3e 27a4 2bbe
00000090: b6ae 23be b4f4 c83e 556d 7b3e 36b4 4ebd
000000a0: 2232 b0be ebba 423c 7abc ebbd 3d26 803c
000000b0: c363 7fbe a477 1c3f fdff c6bd 7867 48be
000000c0: 83d7 643e 9248 8c3e 73d1 a53d 3e1a a3be
000000d0: cc2e 313e a899 97be 9c20 a9bd d40d 31bd
000000e0: 0bc6 c73d d9b9 8ebe 8987 a9bd 117e 7d3e
000000f0: 92cf 22be cb81 02bb 1f89 77be bcd0 e7be
00000100: b762 063f c325 c03e 37ca 8f3e bcd5 193f
00000110: aa2f c43e 5c63 a7bd ee8f 1d3e 98cf be3e
00000120: 2a62 81be 8c0e 353c 465e 4ebe 707b 4fbe
00000130: 6288 983d fe63 a4be 05e7 eb3d 5969 853e
00000140: bb09 b73e a056 74be 8d0e b0be f328 b1be
00000150: eeb2 1a3c 212d 853e 0590 6c3d 5edf edbc
00000160: fc33 aa3e 0d25 90bb 8a7e 9fbe 5dc3 c93e
00000170: 0645 9dbe 94bd 2fbd f2f2 e6bb e4c0 e03d
00000180: 1602 8ebd 12df 9abd a444 5c3e cb40 9cbe
00000190: f115 05be fdff cb3e 5209 d83e 39be 033f
000001a0: b84e 5f3f 069b 06be 4db3 a7be f593 90be
000001b0: a9ec 653e ca2f b0be 0fd4 183f c070 b9be
000001c0: b785 013f 0286 563e 7972 a1bc 4dab 52be
000001d0: 58f9 a63e 9e21 1ebd ffbe 663d 4d7f 4cbe
000001e0: 499a 473f 5ee8 b8bd cd4c ed3e 1676 9fbe
000001f0: fe2c aa3e d0e6 493e c3e0 fd3d cc6f 74bc
00000200: 40ab 03bc d2ba 3f3e ad19 253e 75e5 2abe
00000210: 17c9 c83c f76e d83e 218d a8be 72a0 513e
00000220: 2eba 88be b6da b1be 77ef 89be 1b37 61bd
00000230: 09c1 61bd 409b 463d f0da ed3e 619f f73e
00000240: 54e1 803e a255 493d 92e3 d4bd 73ef dc3e
00000250: c18f 22be e484 f6bd 332c 213e 4b93 eb3e
00000260: 23e7 a9bc 15d7 dd3e 4e68 64be 1dba 073e
00000270: 5edc a4be 3fb3 8f3e e20c f9bc d447 ddbd
00000280: bb15 893c 7e20 3d3c d8d4 af3e 3d6f 9cbe
00000290: 83f6 893c 2624 d33d 5986 a73d 35ca bc3d
000002a0: 4674 6dbe e6b7 2ebe 37f5 b83e 7789 a7be
000002b0: 452d dd3e 4391 69be 2c9b 61be 4444 993e
000002c0: ed13 e43d 18ca bfbe 1caa 94be 4e9b 243e
000002d0: ab4a 26be f0db 0ebd 9be1 c8be 2598 583e
000002e0: 531a 8f3e 70c0 ed3e d0a8 1bbe 0725 3dbe
000002f0: 0545 a13d e58e ba3e f4d9 38bd ec92 e5bc
00000300: 3f11 003e ed07 d4bd c175 03be 4264 93be
00000310: 5fc6 ad3c d3fd 603b 281e 93be f8fc 3e3f
00000320: 3131 00bd 8544 cd3e 4fa5 06be cdf6 f03e
00000330: a17b 34be 26b7 41be 73b9 beba 7a58 833c
00000340: abf5 f0bd 7373 323e a062 0bbf 0a45 e33e
00000350: 60ff 22bd 0572 273e c3dd 663e 3704 003e
00000360: 8d63 463f e301 5a3e ea76 10be fea0 d3bb
00000370: 8dfc 03be 8071 b9bd 6297 10be 62a4 43be
00000380: 93eb 713d fc3c 98bd 5248 023f 884f 033e
00000390: fe51 37be 4b25 0e3f fb22 ca3e 8875 8e3e
000003a0: 69a1 0fbe b30a 303e db53 bebe 6638 2dbd
000003b0: 4675 593e 6a9e 41be b40f 453e 72bb bebe
000003c0: 8356 7ebe b533 e9bd 7866 67bd 9903 bdbe
000003d0: 2605 84be f1dc 133e 3970 b0be bee6 83be
000003e0: 8d11 1abe c617 ae3d 4122 3f3e 2245 dabc
000003f0: be0b 5cbc af3b 95be a85e 3c3e ab1c 613e
-0.20720951 -0.20644973 0.55910784 0.3728901 -0.34935 0.42858234 0.59375393 0.260774
-0.16858797 -0.033459816 -0.0009862148 -0.36261752 0.073245876 -0.27612567 0.3026418 -0.071570456
-0.11812534 0.15732293 0.12197405 0.2157024 -0.10100237 -0.17236489 -0.13013448 0.5032301
-0.12026618 0.09333001 0.4634475 -0.24131449 0.067693114 -0.16147831 -0.04902879 -0.14250585
0.13341175 -0.2979515 0.18657808 -0.16761838 -0.15984616 0.39249194 0.24553426 -0.05046483
-0.34413248 0.011885385 -0.115105584 0.015643233 -0.249404 0.6112006 -0.09716795 -0.1957072
0.22347836 0.27399117 0.0809659 -0.3185596 0.17303008 -0.29609418 -0.08258173 -0.04322608
0.097545706 -0.27876166 -0.082778044 0.24755122 -0.15899494 -0.0019913788 -0.24173401 -0.4527644
0.52494377 0.3752881 0.28083965 0.6009176 0.38317615 -0.08173248 0.15386936 0.37267756
-0.25270206 0.0110508315 -0.2015315 -0.20261931 0.07447888 -0.32107538 0.11518673 0.26056936
0.3574961 -0.2386117 -0.343861 -0.34601554 0.009442074 0.26010993 0.057754535 -0.029037174
0.33242786 -0.004398948 -0.3115123 0.39406863 -0.30716723 -0.042905405 -0.0070480043 0.10974291
-0.069339916 -0.075620785 0.2151056 -0.30518183 -0.12996651 0.3984374 0.4219461 0.5146213
0.8722949 -0.13145074 -0.32753983 -0.28237882 0.2245356 -0.3441146 0.59698576 -0.36218834
0.5059466 0.20949557 -0.019707905 -0.20573159 0.3261211 -0.03860628 0.05633449 -0.19970436
0.77969795 -0.090286955 0.46347657 -0.3114478 0.3323745 0.19716954 0.123963855 -0.014919233
-0.008036435 0.1872361 0.16123076 -0.16689093 0.02450995 0.4227216 -0.32920173 0.20471361
-0.26704544 -0.34737176 -0.2694051 -0.054984193 -0.055115733 0.0484879 0.464561 0.48363784
0.25171912 0.04915393 -0.10394968 0.43151435 -0.1587515 -0.120370656 0.15739517 0.46010813
-0.020740097 0.43328157 -0.22305414 0.1325459 -0.32199377 0.2806644 -0.03040165 -0.10804716
0.016733995 0.011543391 0.34342074 -0.30553618 0.016841179 0.10309629 0.08179922 0.092182554
-0.23188886 -0.17062339 0.36124584 -0.32722065 0.431986 -0.22809319 -0.2203185 0.29934895
0.11136613 -0.37458873 -0.29036033 0.16074869 -0.16239421 -0.034877717 -0.39234623 0.21151789
0.2794977 0.4643588 -0.15201116 -0.18471156 0.078744926 0.36437145 -0.04512973 -0.02802416
0.12506579 -0.10353074 -0.12837888 -0.28787428 0.021212755 0.0034330979 -0.28733945 0.7460475
-0.031296913 0.4009134 -0.13148998 0.47063294 -0.17625286 -0.18917522 -0.0014551118 0.0160334
-0.117656074 0.17426853 -0.54447365 0.4438861 -0.039794326 0.16352089 0.22545533 0.12501608
0.7749565 0.21289782 -0.14107862 -0.0064584007 -0.12889309 -0.090548515 -0.14120248 -0.19105676
0.05906255 -0.07433507 0.508916 0.12823308 -0.17902371 0.55525655 0.39479813 0.27824044
-0.14026417 0.17191581 -0.37173352 -0.042290114 0.21236143 -0.18908086 0.19244272 -0.37252384
-0.24837689 -0.113868155 -0.056494206 -0.36916807 -0.25785178 0.14439751 -0.3446062 -0.2576198
-0.15045758 0.08500628 0.1866541 -0.026644293 -0.013430534 -0.29147097 0.18395483 0.21983592

encoder.input_net.0.bias f4 [64]
00000000: 36a6 503e 217d db3d 0d07 a9be b6d4 023e
00000010: 7ec4 223e 3d22 1f3e cc22 50bd 38f5 8dbe
00000020: 204a adbe b01b e73e e440 4b3e 3da2 6f3e
00000030: ce51 acbe 18e0 4d3e 3366 863e 496e 013e
00000040: ace3 dc3d 93b2 413e 4675 b7be 60fe aa3e
00000050: 7b1b 53bd 4992 c73d 3ea2 a13e f872 c5bd
00000060: fd38 2c3e 3b25 36be b004 c73e cff8 22be
00000070: 49e3 8fbb cbbd 33be 81b9 0a3f 59db 643e
00000080: 22c0 703d d72f 8fbe 4310 7d3e 2963 8fbe
00000090: 7b02 903e 609a c43c 2991 1abe 7bc8 19be
000000a0: 8d3c 2f3d f375 863e 032e 4c3e 3545 0b3f
000000b0: 95b6 ca3e 8873 223e 9b8c a83e cfb6 bfbe
000000c0: 0b66 7abe 0f62 b5be 5a6a 253e f8f4 423e
000000d0: 74ee 623e c337 dd3c 29e4 d83d 9b99 3bbd
000000e0: 22d2 f13e 4019 c23e 17d2 c0be b799 ba3e
000000f0: cb04 b5be a180 583e bc07 d1bb 75bd 433e
0.20375904 0.10717226 -0.33013192 0.12776455 0.15895268 0.15540405 -0.050814435 -0.2772615
-0.33845615 0.4513831 0.19848973 0.23401733 -0.33656162 0.20105016 0.26249847 0.12639727
0.107856125 0.18915777 -0.3583166 0.33397198 -0.05153988 0.097446986 0.31569093 -0.09641069
0.16818614 -0.1778764 0.38870764 -0.15915225 -0.004391108 -0.17552869 0.54189306 0.223493
0.058776982 -0.27966186 0.24713235 -0.2800534 0.28126892 0.023999393 -0.15094437 -0.15017883
0.042782355 0.26261863 0.19939427 0.54402477 0.39592424 0.15864384 0.32919773 -0.3744416
-0.24452989 -0.35426375 0.16153851 0.1903876 0.22161275 0.027004128 0.10590393 -0.045800786
0.4723063 0.3790989 -0.37660286 0.364454 -0.3535522 0.21142818 -0.006379096 0.19115241

encoder.message_net.0.0.weight f4 [64, 64]
00000000: b43b f3bd 4cc8 853d 1ee1 9abd 0013 8d3d
00000010: e0de 97bd bca0 ab3d 6850 99bc e8e5 47bd
00000020: ea74 ccbd 24ef 233d 0e09 a4bd 6e25 c0bd
00000030: 58bf a73c 9cec 6d3d 1c4e f8bd cc8b 4fbd
00000040: a4ab c1bd 70fe c13c 209f c43b 7c1a 083d
00000050: 3679 fdbd e084 d4bb 007f 173d ceae efbd
00000060: f036 f73d 0090 6c3d 22c9 c13d c090 e93c
00000070: 10e2 8cbd 8c46 a4bd 7e95 ba3d aa09 fa3d
00000080: 409e 9e3c 062b b7bd f6df 8b3d 7e42 86bd
00000090: daa5 e7bd 40c7 8fbb ea06 d5bd 3032 e83c
000000a0: f06e e3bd 707f c7bc b440 38bd fe75 f9bd
000000b0: f64b 9fbd 0098 45bb e099 103c b0fb 1c3d
000000c0: 1abc e43d 523e dabd 00d9 703c 58ac a43c
000000d0: 027b 86bd 2015 363c bc7f b3bd ac3f 44bd
000000e0: 8c33 053d 923d 9dbd 187b 95bd 2e7c c03d
000000f0: 406d e9bc 980f f0bc 96d3 edbd 28a3 f3bd
00000100: 4475 dabc 0bc2 08be 04d3 93bd 52c2 253c
00000110: eb9b 35bd 0404 35bc f7a1 cc3e c42a 813d
00000120: aa6c c93d bea5 cd3d 79aa 153e abd8 0d3d
00000130: ce8c dabd 83a5 20be d087 15b9 6a72 403e
00000140: ea2a 8a3c 194c 753e 2a58 95bd 0bb7 8dbe
00000150: bcdc d9bd 1ab5 da3c 187b a23e 048f a13e
00000160: 7525 aabd 3a0a ebbd c641 1c3e 22ea 2abd
00000170: 88ca 933e 1718 c4bb 94a5 663e c4ca 293d
00000180: b864 483d 13cf 3dbe 3090 333e 28fd 843d
00000190: a302 22be f44a 683e 32ab 933d 36b9 57bd
000001a0: 6e2b 983e 9510 7d3e bee1 a83d a89a d43c
000001b0: 71cf a2bd 56bb 2a3c 1f0e bc3e c20c cfbd
000001c0: c08d 14bd b038 08bd 4964 13be e7ba 493e
000001d0: ce66 64be 8b15 7bbd e380 123e 26b4 933e
000001e0: 9c50 a73d f421 923d 1021 593c d843 1e3e
000001f0: c253 d73d 9968 653d fd66 273e 4c98 e7bc
00000200: e4bf a4bd b69e ffbd d8bf 81bd 78b7 ef3d
00000210: bc86 7ebd f006 0dbc feba dbbd 54d6 cabd
00000220: 64f6 193d 00a7 03bd d2e8 b7bd ae65 fb3d
00000230: 5893 dcbd 5883 9fbd 44cc f6bd f2ca b13d
00000240: 909f 9abd f8f2 bebd 3056 be3d a0fc 70bc
00000250: 5857 afbc 2c23 e53d 6020 07bc 60c3 993b
00000260: a059 acbd e4b1 103d c89f 73bd 2696 d73d
00000270: fea8 a73d 9c29 193d c4d5 aebd 8a18 ac3d
00000280: 48f5 bc3d a0d3 a43d c08b f4bd 60ad 30bd
00000290: eceb 7ebd c046 5dbb 5c0a cf3d dedb c2bd
000002a0: 9028 353d 5406 49bd 00ec b5bd 0880 e1bd
000002b0: d024 f6bc 1ea1 903d 20a8 493d 7466 d1bd
000002c0: 6a9d 8b3d 64ea debd 9cf9 4d3d ac75 21bd
000002d0: 2895 78bd 946c 803d 3008 3fbd 1a19 cabd
000002e0: ecb7 c93d 6490 34bd 6890 f3bd a206 863d
000002f0: 483b 0c3d 8079 e7bc b46a 6c3d bea9 dabd
00000300: a652 8abd 739e b83d 1010 94bc f0d8 0cbe
00000310: 5753 df3d a295 51be f2a2 4fbe d8ac 903c
00000320: 14a9 bbbd cbe6 98bc c1d3 b43d fdbd 1dbd
00000330: aaf1 31bd e7a9 fe3d d4e1 66bc 0b49 2e3c
00000340: 3458 753d 284d 30bd 564e c9bd 94da c43d
00000350: 6fcb 33be 7621 613d 825e 873d 953a 09be
00000360: bbe7 9fbd b347 2d3e ca69 173c 0b5e fc3d
00000370: 5191 c6bc 704b 4f3e d51d 27bd f296 143e
00000380: 17e2 2e3d 68e3 70bc 3fcb 583e 80c5 643d
00000390: 79b8 a93d ffd5 04be b01c bfbd 2dc5 0d3e
000003a0: 13ec 1fbe ce78 813d 4236 40be fd65 7f3d
000003b0: e1d0 bf3c a26d 603b 24f8 b9bd 94e8 6e3d
000003c0: b6f8 0bbc 7a1f fabd badc 62bd f9a2 a43d
000003d0: 2ca1 4abc cc3e 113d e6b9 1ebe 5e71 b6bd
000003e0: 7dfe 223e 9409 ca3c 0058 6ab9 f386 3b3d
000003f0: 3d65 bcbd c009 323c 6521 183d 3648 d73d
-0.11876622 0.06532344 -0.07562469 0.068883896 -0.07415557 0.08380267 -0.018715099 -0.04880324
-0.09983237 0.040022984 -0.080095395 -0.09382139 0.020476982 0.058086976 -0.12124273 -0.05067043
-0.09456566 0.023680896 0.0060004145 0.033228382 -0.12376635 -0.0064855665 0.03698635 -0.11703263
0.12071025 0.057754517 0.09462191 0.028511405 -0.068790555 -0.08021268 0.091105446 0.122088745
0.019362569 -0.08943753 0.068298265 -0.06555651 -0.113109306 -0.004387766 -0.104017094 0.028344244
-0.11105144 -0.02435276 -0.04498358 -0.12180708 -0.0777816 -0.0030150414 0.008825749 0.038325965
0.1116869 -0.10656418 0.014700174 0.020101711 -0.06566431 0.011113435 -0.08764598 -0.047912285
0.032519862 -0.07677759 -0.07298869 0.093986854 -0.028494477 -0.02930431 -0.116126224 -0.11896354
-0.026667245 -0.13355272 -0.072179824 0.01011713 -0.044338148 -0.011048321 0.3996732 0.06306985
0.09835179 0.100413784 0.14615811 0.03463046 -0.106713876 -0.15688138 -0.00014260341 0.18793646
0.016866166 0.2395481 -0.072922066 -0.27678713 -0.10637805 0.026697684 0.31734538 0.31554425
-0.083079256 -0.1147656 0.15259466 -0.041727193 0.28865457 -0.005984317 0.225241 0.041453138
0.048924178 -0.18536024 0.17535472 0.06493598 -0.15821318 0.22684842 0.07210387 -0.052666865
0.29720634 0.24713357 0.08246182 0.025952652 -0.079497226 0.010420641 0.36729524 -0.10109855
-0.036267996 -0.033257186 -0.14393725 0.19700204 -0.22304842 -0.06129984 0.14306979 0.2884838
0.08169672 0.07135382 0.013252512 0.15455568 0.105140224 0.056007955 0.1634788 -0.028270863
-0.08044413 -0.124814436 -0.063354194 0.11704916 -0.06214021 -0.008607611 -0.10729025 -0.09904161
0.037588492 -0.032141685 -0.08979954 0.12275253 -0.10770291 -0.07788724 -0.12050679 0.08681287
-0.075499654 -0.09323686 0.09293783 -0.014708668 -0.021403953 0.11188349 -0.008247465 0.00469248
-0.08415532 0.0353259 -0.05947855 0.105266854 0.081865296 0.037393197 -0.08536866 0.08403118
0.09226471 0.08048177 -0.11940718 -0.043134093 -0.06223671 -0.0033764094 0.10109398 -0.095145926
0.044228137 -0.0490783 -0.08882904 -0.11010748 -0.03004685 0.07061981 0.049232602 -0.102246195
0.06817134 -0.1088455 0.050286874 -0.03941886 -0.06068912 0.0627071 -0.046638668 -0.09868069
0.098495334 -0.044083014 -0.11892778 0.06544234 0.034236223 -0.028256178 0.057718948 -0.10676907
-0.06754045 0.09014597 -0.018074065 -0.1375463 0.10904568 -0.20467237 -0.20277002 0.017660543
-0.091631085 -0.018664738 0.08829451 -0.038511265 -0.04344336 0.1243475 -0.014091928 0.010637532
0.05989857 -0.043042332 -0.098293945 0.09612003 -0.17558073 0.05496355 0.06609823 -0.13401254
-0.07807871 0.16921882 0.009241531 0.12322625 -0.024239214 0.20243621 -0.040799934 0.14510706
0.042696085 -0.014702655 0.21171282 0.055852413 0.082871385 -0.12972258 -0.093316436 0.13844748
-0.15617399 0.0632187 -0.18770698 0.062353123 0.02341503 0.0034245034 -0.09080532 0.058327273
-0.008543184 -0.12213035 -0.055386283 0.08038897 -0.012367528 0.03546028 -0.15500602 -0.08908342
0.15917392 0.02466277 -0.00022348762 0.045782994 -0.09198997 0.010866582 0.037141223 0.1051182

encoder.message_net.0.0.bias f4 [64]
00000000: 00b6 17bd acc4 373e 4c52 2ebd a884 c4bc
00000010: 4b42 82bd e7ca 803d 20b9 cebb 1f96 0b3e
00000020: 989a bebd d348 183e edb3 fc3d b8ed 1a3d
00000030: 8b8f 863d 946b fbbd c21d d33d 8ee6 cabd
00000040: 42f8 39bc 9abb 953d 882a 31bc 7d72 18bd
00000050: 9542 08be 8f4d 4b3d 38db 0abd d753 aabd
00000060: eb47 843d 672b 82bd 84da e93d b3e2 5e3d
00000070: b3c1 213e 0e38 9d3d 2473 eabd 4ad7 75bd
00000080: 97df 87bd 0d84 dabd 3094 113d 9a42 e7bd
00000090: 547a 953c b485 c2bd 22be b93c 030d 9fbd
000000a0: fa7c 593c 6903 193e d438 5c3d 80a5 52bd
000000b0: 3eb8 8fbc 13f9 b03d 597b b7bd f0e3 efbc
000000c0: ac36 0abd e3fb 8a3d 8ebe eb3c cde7 1dbe
000000d0: b436 103e eb30 cb3c 9bb8 00bd 1a7b f6bd
000000e0: 7a71 f03d ac9e 98bd c2a1 be3d 1071 5a3d
000000f0: 7a63 c93d a8f6 123e 80c4 c63c a9da 043e
-0.037038803 0.17946118 -0.042558953 -0.023989037 -0.06360301 0.062887006 -0.0063086897 0.13631485
-0.0930683 0.1487153 0.123390056 0.037824363 0.065703474 -0.12276378 0.1030841 -0.09907256
-0.011350693 0.07311173 -0.010813363 -0.03721856 -0.13306649 0.049634513 -0.03390047 -0.083167724
0.0645903 -0.063559346 0.11418632 0.054415416 0.15796547 0.07676707 -0.114477426 -0.06001977
-0.06634443 -0.10669718 0.035541713 -0.11292 0.018246807 -0.09498158 0.02267367 -0.07766154
0.013274426 0.14942707 0.053765133 -0.051427364 -0.017543908 0.08641257 -0.089590736 -0.029283494
-0.033743545 0.06786325 0.028777387 -0.15420456 0.14083368 0.0248036 -0.031426053 -0.120351985
0.11740394 -0.07452139 0.093081966 0.05333048 0.09833427 0.14351904 0.02426362 0.12974037

encoder.message_net.1.0.weight f4 [64, 64]
00000000: 7fab 143e aea9 25bd 7d6b 483c 5bec 8b3d
00000010: d7cc 29be e3c5 533e 70dd edbc 667c 783e
00000020: b99a 3f3e ead3 c23d e166 0abe 0538 d63e
00000030: 4a50 0abe f2e6 d3bd e7de 0bbe f0fc bebc
00000040: 1f69 b6bd a3be 323c 01ee 15be 2eee 39be
00000050: f50d 083e 6d2e c7bd 99dc b43c 6e98 2f3d
00000060: 75c1 423e 7362 0d3e 3a4d 303e f078 77be
00000070: f4e5 f1bd fb9c 6dbe f5c7 773e 5ca4 d4bd
00000080: eb76 64bd 3671 8a3d d153 98be 9b5b 2c3e
00000090: ff4a 8ebe 5e62 fb3c ad13 463e 6d13 40be
000000a0: caf4 4d3e 7f4f 113e a27a 6d3d 0ea2 b5be
000000b0: 414a 96bd c59b 023d f492 553e d005 e7bc
000000c0: e0bd 8cbd 4683 50bd a139 623e 3194 043d
000000d0: 8af5 963d f589 07bf b1a6 ac3d 2184 02be
000000e0: dc44 6ebe f0cd fe3d b3a3 21bd 85b8 7ebe
000000f0: 6ba1 c6bd 8c9e 453e 5ec6 443d 8793 d33c
00000100: 5477 943d fc35 34bd e8b6 3ebc 9246 03be
00000110: 88ca 293d 9759 a23d 151c f9bd 715a 013d
00000120: 3141 9b3c 3a62 63bd 2112 e1bc e84e 9e3d
00000130: df14 963e 6119 11be a6f9 433d 076e 14be
00000140: 1e85 11be e2e2 b83c fe09 003e cd45 fa3d
00000150: ceb7 c9b8 7ca9 c2bd c11e 08be 3f44 833c
00000160: 56e1 2dbe b31d 05bc b6ce 8abe 8dec 1b3e
00000170: 483f f6bd f406 10bc 2d7e a6bc 4aef 933e
00000180: 0000 fc3d 8f51 863d c401 86bc c607 90bd
00000190: 9d6d cc3d afd1 9d3d 78a7 35be fd11 333c
000001a0: aecb 653e f7b7 153c b20e a63d 04c7 743e
000001b0: 618b fa3d b8e8 3cbe b4f1 b2bd 643e c8bc
000001c0: 54fd 6a3d ab16 d3bb 88e2 3abe fb7e 97bd
000001d0: 290b ca3b 8f47 c93c 2865 95be 7f4a 263d
000001e0: 019d 96bd aa22 0b3c c11c 443c a6e3 01be
000001f0: 4bc6 e3bd 7846 a2bd 3ff6 eabb 2d0f 55bd
00000200: 08b3 bc3d a731 85be 17cb 203d e52e 55bc
00000210: 6be1 00be 2346 423e 54cf 7fbd a748 103e
00000220: 026d 8dbd c26c f3bd 0507 d9bd 3e7f 9b3e
00000230: b12d abbd 76aa bfbd 1112 10be 3e21 82bd
00000240: b974 c23b 9c7d b83d 278f a9bd 14a5 88be
00000250: 40c8 b3bc 893f 83be 625f 453e e4b1 1f3e
00000260: eeed 733d 01a4 97bc 0d0a bc3d 47b3 83be
00000270: 937a 9abc 9dbf 5dbe 78f7 133e 84e9 33be
00000280: 9754 d5bd 9bd1 a43d 1503 63be d210 123e
00000290: 6036 0bbe c226 d2bc 4d4d a63d 507f 1fbe
000002a0: d9a3 e3bc 4110 a13d 3ef9 833d 40f0 14be
000002b0: 9fd1 71bd 7761 eabd 1ba9 4e3e 988f 85bd
000002c0: 9e9c b23c 7c76 973c e410 133e dc0a 213e
000002d0: aa18 7a3d a9f6 8ebe e8e3 953d 6c90 e0bc
000002e0: b74d b1be 9800 0ebc 7adc 3d3c 5614 25bc
000002f0: a6b8 e0bd 3a0d 223e 9cfa 08bd 8639 e3bd
00000300: 7b71 613d 0618 d93d 8208 09be 60e7 0dbd
00000310: 6fd8 3e3d 0f41 1dbe 6452 03be 2c54 9c3d
00000320: f1cc f6bc be36 383e a9a2 fa3d fc3f e93c
00000330: 1975 1c3d 60f0 b9bc 8dd6 673d 4a73 b03d
00000340: 4ebc fc3d 4e79 723e 1657 c33d ca78 e83d
00000350: d6e7 13bd 9234 6e3d e90c c13d 02e7 1ebd
00000360: bb96 63bd f83f 90bd 59f0 4e3e daaf 6fbd
00000370: 82d7 2dbc 23ce 3d3d c0b6 62be 857d 3c3c
00000380: fb48 bb3c 42f2 6ebd 3fcd 97bd 5b93 dd3d
00000390: 8e7d f03d 5d31 1c3e 20ab a0bd abb6 ddbd
000003a0: 3598 403d 2409 1cbd 708d 0dbe 8244 803d
000003b0: c237 afbd ab68 523d 552f 613d 9f6b 073e
000003c0: aa0d eebc 26ce f2bd 424d 083d e7d0 cbbd
000003d0: bf8f d93c d376 3a3e 9d10 993e 4b06 fc39
000003e0: 23df df3d 9e13 6b3c 8585 bdbc 5d6e 823d
000003f0: 2fe2 643d ce14 193d b2e5 b63c bd17 bf3d
0.14518546 -0.040445022 0.012232658 0.068321906 -0.16582046 0.20680957 -0.029036254 0.24266204
0.18711366 0.09513076 -0.13515808 0.41839615 -0.1350719 -0.10346784 -0.13659249 -0.02331397
-0.08906769 0.010909709 -0.14641573 -0.18157265 0.13286574 -0.09725652 0.022077845 0.042869978
0.1901911 0.13807087 0.1721696 -0.24167228 -0.11811438 -0.23204415 0.24197371 -0.103829116
-0.05577747 0.067598745 -0.29751447 0.1683182 -0.27791592 0.030686554 0.19343443 -0.1875741
0.20112911 0.14190482 0.05797828 -0.354752 -0.073383816 0.031886835 0.2085684 -0.028201014
-0.06872153 -0.050906442 0.22092296 0.03236789 0.073710516 -0.5294488 0.08430231 -0.12745716
-0.23268455 0.12441623 -0.039462756 -0.24875076 -0.09698757 0.19298762 0.04804074 0.025827182
0.072493225 -0.043996796 -0.011640288 -0.12819889 0.041452914 0.07927244 -0.12163559 0.031580392
0.018951984 -0.055513598 -0.027474465 0.07729894 0.29312798 -0.14169838 0.047845505 -0.14495097
-0.14210936 0.022569124 0.12503812 0.12220345 -9.618663e-05 -0.09504983 -0.13292982 0.016023753
-0.1698049 -0.008124757 -0.27110833 0.15226956 -0.12023789 -0.00879072 -0.020323837 0.288935
0.123046875 0.06558525 -0.016358264 -0.07032733 0.099818446 0.077060096 -0.17739666 0.010929582
0.22440979 0.009138099 0.08108272 0.23904043 0.12233616 -0.1844815 -0.087375075 -0.024443813
0.0573705 -0.006441911 -0.18250477 -0.073972665 0.006165881 0.024570255 -0.2917874 0.04059839
-0.07354165 0.008492151 0.011969746 -0.12684497 -0.11121806 -0.07923597 -0.007170468 -0.052016426
0.09213835 -0.26014444 0.03925618 -0.013011669 -0.1258599 0.18972068 -0.062453583 0.14090215
-0.06905557 -0.11885978 -0.10597042 0.30370516 -0.08358324 -0.09358685 -0.14069392 -0.06353997
0.0059343246 0.09008333 -0.08279257 -0.26688445 -0.021946073 -0.2563441 0.19274667 0.15595204
0.05955308 -0.01851082 0.091816045 -0.25722715 -0.018857276 -0.21655126 0.1444987 -0.17569548
-0.10416525 0.080477916 -0.22169144 0.14264229 -0.13594961 -0.025653247 0.08120213 -0.1557591
-0.02778809 0.07864428 0.064440235 -0.14544773 -0.0590378 -0.11444371 0.20181696 -0.06521529
0.021803197 0.018489115 0.14361912 0.15726799 0.061058678 -0.27922562 0.0731886 -0.027412616
-0.34629604 -0.008667134 0.01158821 -0.010075649 -0.10972719 0.15825358 -0.033442125 -0.11094956
0.055039864 0.10600285 -0.13382152 -0.034644485 0.046593126 -0.15356849 -0.12824398 0.07633242
-0.03012702 0.17989632 0.12238056 0.028472893 0.03819761 -0.022697628 0.056601096 0.0861574
0.12340604 0.23679087 0.09538095 0.11351164 -0.036109768 0.058155604 0.094262905 -0.038794525
-0.05556367 -0.07043451 0.20208873 -0.058517314 -0.010610463 0.046339165 -0.22140026 0.011504536
0.022861948 -0.058336504 -0.074121945 0.108191215 0.11742698 0.15253206 -0.078451395 -0.10825857
0.047020156 -0.038094655 -0.13823485 0.06263067 -0.08555557 0.05136935 0.05497678 0.13224648
-0.02905925 -0.11855726 0.033276804 -0.09951954 0.026557801 0.1820939 0.29895487 0.00048069874
0.10931232 0.014347939 -0.023134956 0.063687064 0.055879768 0.037373357 0.022326324 0.093306996

encoder.message_net.1.0.bias f4 [64]
00000000: 0989 2abe c6d3 f83c 420f cbbd 90cf 1d3e
00000010: b7f0 d1bd 89c6 c2bd f5ee 1b3d 4cd3 3c3d
00000020: 866a bf3c 5404 45bd 02eb 8f3d dd69 6b3d
00000030: a1a6 e9bd 621f f33d 82bd e0bd d611 bc3d
00000040: cabc a53d 9a20 8bbc b9fa e8bc 6872 50bd
00000050: 438e b9bd ce75 1bbe 22fe aabd 82db 7fbc
00000060: 2942 1ebe 6eb5 86bd bd46 683d 9e02 11be
00000070: 0870 d03d 01d9 07bd 00cb 683d e5ef 24be
00000080: 265a 12bd 4014 55bd 48f4 e03d 4406 7dbd
00000090: d135 edbd d3b5 f6bd 8bf1 23bd 3e57 25bd
000000a0: b011 acbd fe90 cd3c f720 893d 41cb 1fbe
000000b0: 9434 82bd 688c 173d 242e 00bd 3db4 0dbe
000000c0: decd 0abe 3699 0abe a07d 09be 8941 2cbd
000000d0: c300 ea3d 75a0 74bd 1ade 83bc 9934 813b
000000e0: 2bf7 383e b703 32bd 6884 96bc 2a6a 623c
000000f0: 5cde e0bc cead b23d 3c91 5e3d a93a 08be
-0.16653837 0.030374419 -0.099150196 0.1541121 -0.10250991 -0.09510524 0.038069684 0.046099946
0.023366224 -0.04809983 0.07027246 0.057474006 -0.11408735 0.1187122 -0.10973646 0.091830894
0.08092649 -0.01698332 -0.028439866 -0.050890356 -0.090603374 -0.15181658 -0.08349253 -0.0156163
-0.15454926 -0.06577574 0.056708086 -0.14161155 0.10177618 -0.033165935 0.05683422 -0.16107138
-0.035730503 -0.052021265 0.10984093 -0.061773553 -0.1158253 -0.12046399 -0.040025275 -0.040366404
-0.08401811 0.025093552 0.06695741 -0.15604879 -0.06357685 0.036999136 -0.031294003 -0.13838287
-0.13555095 -0.13535008 -0.13426828 -0.042054687 0.114259265 -0.059723336 -0.016097117 0.0039430377
0.18063037 -0.043460574 -0.018373683 0.013819257 -0.02744978 0.08724557 0.054337725 -0.13303627

encoder.message_net.2.0.weight f4 [64, 64]
00000000: 00fa c93d 02d5 b4bd bc48 babb f0d1 8a3c
00000010: 36c5 713d 7c05 d63b d2e9 e0bc c706 8ebd
00000020: c65b 16be 9656 063d 4f63 92bd 7769 423c
00000030: 0d50 1c3d 3654 20be be15 a3bd 57c7 23be
00000040: e2a5 a1bd ba2b 8fbc 1d6d bd3d 5f9f 14bd
00000050: b6b7 9ebb 01f8 2b3d 3815 ba3d c687 b53c
00000060: f7fa 893c 11d6 9a3c 1e4a c2bd 5fdf 153e
00000070: 8867 793d 3d30 a2bd ede2 81bc 4a04 553d
00000080: 7e9f 0b3e 5b52 debd 0b97 96bd 31a9 0b3d
00000090: 02bf fc3b 8101 6d3b 72d1 163e 3a62 f33d
000000a0: 78cf ac3d 70fc 5abd ca4e b43d 31ed ec3c
000000b0: ae7e 0f3e afe9 033e b001 063e 31f1 b2bd
000000c0: 40cd 0a3d ff07 72bd 644d 88bd 9589 943d
000000d0: 7bdb b7bd 0cbd 2abc 77f7 113e e392 0b3e
000000e0: a966 47bd 5a70 a33c 3d49 013d d7c9 27bd
000000f0: 8d1d 953d 0b0f 9ebd 01fd 023e 1ace 233e
00000100: c86b a9bc 746d e43b e438 f9bd 3e6b c0bd
00000110: 8929 90bc 3675 c8bd 258c 523e 10bf a3bd
00000120: 838a 703d 15ce e83d 26b0 30bd 102f 03bd
00000130: a821 9abd c232 f7bb 52a5 de3a e975 b3bc
00000140: 8244 fe3d d1b6 3b3d 6fb5 dbbd a92c 1abe
00000150: cd68 17be c557 61be d4cc 833e 373d dd3c
00000160: 51f8 8d3d f618 09bd e4a6 523d 3320 a9bd
00000170: a830 9a3c 1137 38bc ba03 2bbd fba3 8cbd
00000180: 7b2e f8bd 653c c3bd 8b10 04bb ab01 e0bb
00000190: 8721 5fbb cddd 9d3d 44c6 4e3e 71b3 573c
000001a0: 16f9 a33d d24c 4cbe c11d 18be 263a 7d3d
000001b0: eba5 1fbd 5e0d f33c 3d48 873d 9188 81bd
000001c0: 967a d43d 6fb3 aabc a0c4 a4bd a15b 3e3e
000001d0: 7828 65be e2b6 a5bd 0c33 c93c c0cf bb3c
000001e0: 9d99 b3be 8a20 b4bd abca 103d 8097 e53d
000001f0: b21a 1c3e 0479 58be 6200 b5bd 5f9e 4d3d
00000200: 5994 35bd 08bd a63b c477 54bd f9a3 3b3e
00000210: d633 853a 7dd4 f83d 3f7b 623c f16a 833e
00000220: 8140 f83d 4f83 46be 66ee 98bd 8b0e bebd
00000230: 4bc4 803e 29f2 263e d562 153e 3a26 af3c
00000240: e66f 95bd 59c9 8bbe 9a63 d8bd df6a b8be
00000250: 7b0b d3bc 7fd8 c3bc 4183 94bd 9b38 903d
00000260: 041c 223e 027a a5bd 6bd4 21be 8009 9c3d
00000270: a4f4 35bc b9b4 14bd 0e1b 673d 606c 76bd
00000280: 0279 f4bd cd52 26be a028 41bd 21c2 233c
00000290: 147e b5bd 7741 64be 3916 b63b d395 323d
000002a0: 02fd 483d 0162 113e 6ba6 77bc e9ac 1fbe
000002b0: cbb0 e1bd f763 9c3d df0e 503e 7eb2 273e
000002c0: 55ac bb3c 2083 2d3e 9e0c 833e afb5 31bc
000002d0: de03 8a3d 9642 f8bc 0791 1bba f402 333e
000002e0: 7981 d6bd 385c 673e 2213 3fbe 7871 b63d
000002f0: 5643 743d e4a1 8f3d 78d9 023e ac0a 413e
00000300: c6a0 f13d dc69 f3bd ce3f 893c 1f8f 0db7
00000310: a43d 023c 460a 3bbe 05bd a93c 5841 f53c
00000320: 2efb e2bd 57ce 973e 202a 053e 0540 05be
00000330: 9d52 a53d 483d 12be f17e bebc 0083 4f3e
00000340: ce5e 29bc e5b5 993e c5b0 50bc b6ea 043e
00000350: f1e0 ef3d 8df5 a33d faf6 8d3d 0437 a13d
00000360: 2add 9d3d e358 a3bd 06a7 083f e0d9 d63d
00000370: 3b45 903d 6e38 173e aa17 953d dc75 ee3c
00000380: 0f42 7c3d 152f f7bd 09d0 2d3d 7915 533d
00000390: 9af1 1f3c d534 f53d c1d7 24be c135 793d
000003a0: 79b9 85bc 8204 14bd c50f 443e b809 203e
000003b0: 47c6 a5bd acc4 373e f1f0 30be 8ac5 d13d
000003c0: dbe7 02bc 297d 1d3e 9106 53bd 1563 c23d
000003d0: a3f4 0a3e eff6 2f3e d341 313b 805a 83bd
000003e0: 894b 0a3e 79dc ee3d b32b 503d 69c3 983d
000003f0: 1cbc e2bc 0533 e0bc d0a4 01be 830e 8c3c
0.09862137 -0.088296905 -0.00568494 0.01694581 0.059025966 0.0065314155 -0.027455244 -0.069348864
-0.14683446 0.03279742 -0.07147848 0.011865965 0.03816228 -0.15657124 -0.07963131 -0.15994011
-0.07892968 -0.017476905 0.09249327 -0.0362848 -0.0048436774 0.04198456 0.090860784 0.022159468
0.016843302 0.018900903 -0.09486793 0.1463599 0.06088975 -0.07919357 -0.015855277 0.052006043
0.1363506 -0.10855552 -0.07353028 0.0340969 0.0077131996 0.0036164226 0.14728335 0.118839696
0.08438009 -0.0534634 0.0880409 0.028921695 0.14013168 0.12882112 0.13086581 -0.0873741
0.033887148 -0.059089657 -0.06655386 0.07252804 -0.089774095 -0.010421049 0.14254557 0.13630252
-0.04868189 0.019951034 0.031563986 -0.040963974 0.07281027 -0.07717713 0.12791826 0.1599659
-0.020681277 0.0069710556 -0.12169054 -0.09395455 -0.01759793 -0.09787981 0.20561273 -0.07995427
0.058725845 0.11367432 -0.04313674 -0.032027304 -0.07525951 -0.0075438926 0.0016986525 -0.02190681
0.124154106 0.045828644 -0.10727965 -0.15056099 -0.14786072 -0.22006138 0.2574221 0.027006729
0.06932128 -0.03347107 0.05142869 -0.08258095 0.01882203 -0.011243598 -0.0417516 -0.06867214
-0.121182404 -0.09533004 -0.0020151462 -0.0068361363 -0.0034047083 0.07708321 0.2019282 0.013165341
0.08006494 -0.1995118 -0.148551 0.061823033 -0.03897659 0.02966946 0.06605575 -0.06324876
0.10374944 -0.020837514 -0.08045316 0.18589641 -0.22378719 -0.08091523 0.024560474 0.022926211
-0.35078135 -0.08795269 0.03534953 0.11210537 0.15244558 -0.21139914 -0.08837964 0.050199863
-0.04433093 0.0050884522 -0.05187203 0.1832427 0.0010162543 0.12149904 0.0138233295 0.25667527
0.12121678 -0.19386028 -0.07467346 -0.092801176 0.2514976 0.16303314 0.14588483 0.021380533
-0.072967336 -0.27302054 -0.105658725 -0.36019036 -0.02576231 -0.023906944 -0.07251597 0.07042047
0.15831 -0.08079912 -0.15803687 0.076189995 -0.01110569 -0.036305163 0.056422286 -0.06016195
-0.11937143 -0.16242523 -0.047157884 0.009995014 -0.08861938 -0.22290598 0.0055568484 0.043599915
0.049069412 0.14197542 -0.015115361 -0.15593304 -0.11020049 0.07636254 0.20318173 0.16376683
0.022909323 0.16944551 0.25595564 -0.010846539 0.06739019 -0.030305188 -0.00059343915 0.17481595
-0.10473914 0.22593772 -0.18659642 0.08908361 0.05963453 0.070133 0.1277827 0.18851727
0.11798243 -0.118854254 0.016754057 -8.437578e-06 0.007949267 -0.18265638 0.020720014 0.029938385
-0.11083065 0.29649612 0.1300435 -0.13012703 0.08072398 -0.1428119 -0.02325389 0.20264816
-0.010337545 0.30021587 -0.012737458 0.1298016 0.11712826 0.080058195 0.06931873 0.078718215
0.07708199 -0.07975938 0.5337986 0.10490775 0.07044455 0.1476762 0.07279904 0.029108934
0.061586436 -0.12069527 0.042434726 0.05153415 0.009762192 0.119729675 -0.16097929 0.06084228
-0.016323792 -0.03613711 0.1914664 0.15628707 -0.08094459 0.17946118 -0.17279412 0.10242756
-0.007989849 0.15379776 -0.051519934 0.09491555 0.13569884 0.17184041 0.002704729 -0.06413746
0.13505377 0.116631456 0.050822925 0.074591465 -0.027677588 -0.027368078 -0.12660527 0.017096763

encoder.message_net.2.0.bias f4 [64]
00000000: cb5b a2bd 5876 e3bd f367 8c3d d98a 1b3e
00000010: 8d8d f4bb e1f3 1abd 930e 0fbc 0d4a 08be
00000020: c46b 08be 267f cf3c 377c 1f3d 0099 d33d
00000030: a27f 0d3e e815 423d 00a0 07bc 016c b43c
00000040: 6382 77bc 07b7 323d 968a 0cbd 246b ce3d
00000050: c29d acbd d79b cebc 62ec c5bd 18fe 14be
00000060: 0a7f 23be b5dd abbd 9682 acbd 60c4 5ebd
00000070: a128 393d 97ca 1ebe 7a2f a93c 5359 cfbd
00000080: 8aa4 d93c 8793 093b 58f5 ce3d 3083 0c3d
00000090: 6178 e3bc 9ec8 93bc e8e6 7e3d 6ee6 2b3d
000000a0: 8a75 f8bc 3d10 b2bd e4ec a1bd 1ca6 133e
000000b0: fcb2 35be eaee 4cbd ca93 24be 621c debd
000000c0: 8a82 e83d 1c7a ef3d e25c d1bd 1f78 91bd
000000d0: b3af d13d 1fbd 053e c495 f8bd 96ef 07bc
000000e0: 7268 a4bd 5d00 61bd a0ec d03c 568f 29bd
000000f0: 9793 29bd 1692 36bd 6c1d 80bd 82b5 863d
-0.07927664 -0.11106557 0.06855764 0.15189685 -0.007463163 -0.037830237 -0.008731502 -0.13309498
-0.1332236 0.025329184 0.03893682 0.10331917 0.1381822 0.047384173 -0.008277893 0.022024157
-0.01510677 0.04363158 -0.034311853 0.10079029 -0.084285274 -0.025220795 -0.09664227 -0.14550054
-0.1596643 -0.08391897 -0.08423345 -0.054386497 0.045204762 -0.1550697 0.020652521 -0.10124459
0.026567716 0.0020992474 0.10105389 0.034304798 -0.027767362 -0.018039998 0.062231928 0.0419678
-0.030329484 -0.086945035 -0.079065114 0.14418834 -0.17744058 -0.050032534 -0.16072002 -0.10845257
0.11353023 0.116932124 -0.10222794 -0.071029894 0.1023859 0.13060425 -0.121379405 -0.008296868
-0.08027734 -0.054931987 0.025503457 -0.04139646 -0.04140052 -0.044572912 -0.06255612 0.065775886

encoder.message_net.3.0.weight f4 [64, 64]
00000000: 59bc cc3d e523 d33c 3159 073e e8f0 f43d
00000010: 08f0 313e f8a7 7dbe 7e01 0bbe 1c66 d33d
00000020: ee30 d23d 34e6 8fbd f7a7 09be 7409 a9bd
00000030: f435 38be 1fbb c7bc d656 2a3e 553b b03d
00000040: ac2e 72be dbdd 22be 2bd6 ef3d d16d b3bd
00000050: 5e77 083e 1310 22be f6e2 02be 63eb 2e3d
00000060: c2ea 463d 04c6 43be cae9 46be e14d 4b3c
00000070: 23c3 103d 30fe 80bd e4ee 9fbe e435 853d
00000080: e52e 87bb eefd 8d3c 2f5c c73d 82bb 6b3d
00000090: 839b f6bc 4e5c c8bd 5e72 203d 0f8b f3bc
000000a0: 47b7 563e 2c1a 513e 3ff5 ba3d f6c1 fdbc
000000b0: 6062 a33c 6436 133c 4c60 4f3d 536f d3b8
000000c0: 2ab7 d3bd 57b2 46bd 8d65 93bc fe9a fcbd
000000d0: 40a4 90bd 32b9 28bd 0bcd 56be 190f 6c3d
000000e0: 3047 20bd 95b2 b73d 1091 d93c 37e4 303d
000000f0: 6ee3 7a3e 036e 6cbd e193 ba3d 702a c5bc
00000100: 4af2 023d 3993 563d 908c c33c a0a4 853d
00000110: 5d7e 063e 94ba 98bc 3253 a5bd b80b 38be
00000120: bcdf 5cbe 4245 38bd 395a d4bd 11ed 3037
00000130: 9aa3 3f3d 7704 f73c 24e4 6d3b ef1c b1bd
00000140: c15b bbbd 6557 693c bbb2 b73d 11ae ad3c
00000150: 23b8 aa3d 4283 1c3e fe4a 683e 6f88 6ebd
00000160: f11b 8abd a60c d8bd f0ee 30be f3ec 953d
00000170: 471d be3c 2207 233d 5dda 6cbd 57b6 873e
00000180: 7ca1 a5bd a95f ee3d 5294 13bd 2875 0bbe
00000190: 0d1f e73d a998 6c3d 0acc 8cbd 9ca1 c2bd
000001a0: 8f55 b03b b3e8 cfbd d69a a43d 35b6 3dbd
000001b0: ab03 353e 02e7 cabe 1d97 87bc fb56 2b3d
000001c0: dc02 883d 813f 733d 0d97 0fbe 3079 193e
000001d0: 2484 243c 5984 1e3e f664 d4bd dd82 933d
000001e0: 9edc 4b3e 4c98 01be e094 47be f987 c5bd
000001f0: 0f15 043e c602 06be ab86 4a3c b327 29be
00000200: 7ad1 d1bc f085 523d 7384 71be 5190 7d3d
00000210: 3094 35bd aaf3 dd3e 0fa1 54bb 2a2a e93d
00000220: ccb9 a33c c432 2ebe d6f3 57be d7dc 9bbd
00000230: 7892 19be c650 97bd ff80 a93d d49f 103e
00000240: b719 963d 838f 69be 8ddc e43b 2a7b 49be
00000250: 47b4 bbbd 0408 91be 7e00 2bbd c3fd b0bc
00000260: 2c02 56bd 1fd3 8f3e 0758 2fbe e3f0 8fbd
00000270: 017e bd3e 8a45 23bd bf99 033e 5c1f 86bc
00000280: 5a33 4ebe 57a3 d53d d6a3 9c3c a99e fcbc
00000290: cdfc c43d dc4f 7dbd 4ad2 753c 5bbe 18be
000002a0: 47da 923d aabc 4abe 58e8 0dbe e29c 32bd
000002b0: cfde a0bd 7568 d83d f028 6abe bf03 29bd
000002c0: b7d9 a9bc 1704 c63d adfc c83d 4d77 c33d
000002d0: ca7d 393e d855 12be 2baa 283d 7158 87be
000002e0: e314 14be 2db2 1b3e 1c7d abbd 8145 e3bc
000002f0: daac 5d3e e326 4bbe 651a 343d 9538 0abe
00000300: 5752 ef3d 2efe e7bd 450d 8bbd dd30 a4ba
00000310: 9747 dbbc e7bc 9a3d 2911 9f3d 897b 1dbd
00000320: c6c1 bc3c 81f4 2f3e 8897 d13d b514 e7bc
00000330: 84da bb3e f43d 5fbe 2a38 bcbd b74f 1e3d
00000340: 9169 1a3d c040 cf3d 8976 4b3d 97d6 913d
00000350: aaa3 7a3e 02ac 07bd 2625 c5bd 34d3 0d3d
00000360: bd65 e63b f00e 10be aae0 e83d 5bbc 893d
00000370: 332a ae3d b8d8 0f3d d014 2a3e 6dd4 293d
00000380: 2770 2dbe a3a9 0c3e ed6c a63a 2744 1ebe
00000390: df8d 78bd aec7 b53d 056f 10be 3ebb 0c3d
000003a0: 7821 44bd eb5a a13c a1bf ceba 7aa8 253e
000003b0: 5663 7e3d f955 3abe a214 43bd 8349 05be
000003c0: 3c5a 603d 1e22 7d3e a14d 5ebd efc9 103e
000003d0: 61b6 24bd a687 a6bc b000 383d b94c 3ebe
000003e0: 5549 4ebd e57e 7fbd e631 3fbd 5dd1 01bd
000003f0: 7b1c 4bbd 4c56 95bd a6a3 cebd 9fb3 ecbd
0.09996862 0.025773952 0.13217618 0.11960012 0.17376721 -0.24771106 -0.13574788 0.1032221
0.10263239 -0.0702633 -0.1344298 -0.08253756 -0.17989331 -0.024381218 0.16634688 0.08605067
-0.23650616 -0.15904944 0.11710771 -0.0876118 0.13326785 -0.15826444 -0.12781891 0.04270495
0.048563726 -0.19118506 -0.19425121 0.0124087045 0.035342347 -0.062984824 -0.31236947 0.065044194
-0.0041254633 0.017332997 0.097343795 0.05755187 -0.03010345 -0.09783231 0.03917157 -0.029729394
0.20968352 0.2042014 0.09128808 -0.030976277 0.01994437 0.008985136 0.050628945 -0.00010082
-0.1033767 -0.048509922 -0.01799276 -0.1233425 -0.07062578 -0.04119224 -0.20976655 0.057631586
-0.03913039 0.08969609 0.026558429 0.043186393 0.2450082 -0.057722103 0.09110237 -0.024068087
0.031969346 0.052386496 0.023870736 0.0652554 0.13134141 -0.018643655 -0.08072509 -0.1797322
-0.21569723 -0.044987924 -0.10368771 1.0545614e-05 0.046786882 0.030153496 0.0036299312 -0.08648097
-0.0914836 0.014242028 0.08969637 0.021201165 0.083359025 0.15284446 0.22684857 -0.058235582
-0.06743611 -0.105492875 -0.17278647 0.07320585 0.02320732 0.039801724 -0.057825435 0.26506302
-0.08087441 0.116393395 -0.03603012 -0.1361891 0.11285219 0.057762776 -0.06874855 -0.09503481
0.005381293 -0.10151806 0.08037345 -0.046316344 0.1767718 -0.3962937 -0.016551549 0.041830998
0.066411704 0.059386734 -0.14022465 0.14987636 0.01004127 0.15480174 -0.10370819 0.072026946
0.19908378 -0.12655753 -0.19490385 -0.09645075 0.12898658 -0.13086995 0.012361209 -0.1651905
-0.025612582 0.051397264 -0.23585682 0.06190521 -0.044330776 0.43349963 -0.0032444631 0.11384995
0.019986056 -0.17011553 -0.2108911 -0.07610481 -0.1499728 -0.07388453 0.08276557 0.1412347
0.073291235 -0.22808652 0.0069842995 -0.1967589 -0.091652445 -0.28326428 -0.041748516 -0.021605378
-0.052248165 0.2809076 -0.17123424 -0.07028367 0.37010196 -0.03986124 0.12851618 -0.016372375
-0.20136777 0.10431545 0.019121092 -0.030837374 0.096185304 -0.061843738 0.01500375 -0.14916365
0.07170539 -0.19798532 -0.13858163 -0.043606646 -0.07854997 0.105667986 -0.22867179 -0.04126334
-0.020733697 0.09668749 0.09813819 0.09544239 0.18114391 -0.1429056 0.04117791 -0.26434663
-0.14461093 0.15204687 -0.08373472 -0.027743103 0.21647969 -0.19839053 0.043970484 -0.13498147
0.11685627 -0.11327778 -0.0678964 -0.001252677 -0.026767535 0.075555615 0.07766945 -0.03844789
0.023041617 0.17183115 0.102339804 -0.028208116 0.36690152 -0.21800977 -0.091904 0.03865024
0.037698332 0.10119772 0.04967359 0.07121008 0.24476495 -0.033123024 -0.09626226 0.034625247
0.007031171 -0.14068198 0.11370976 0.06725379 0.085041426 0.03511879 0.16609502 0.04146235
-0.16937314 0.13736586 0.0012697257 -0.15455686 -0.060682174 0.088759765 -0.1410485 0.034358256
-0.04788348 0.019696673 -0.0015773663 0.1617755 0.062106453 -0.18196858 -0.0476271 -0.13016324
0.054773554 0.24720046 -0.05427325 0.14139532 -0.040212993 -0.020328354 0.04492253 -0.18583955
-0.050362904 -0.062376875 -0.046678446 -0.031693805 -0.049587708 -0.072918504 -0.10089807 -0.115576975

encoder.message_net.3.0.bias f4 [64]
00000000: e2cb cfbd ee38 84bd c44c 33be 4687 7dbd
00000010: 4ee7 14be 2b7e 08be 657a dbbd a60c 2ebe
00000020: 9751 02be 6813 42bd ec13 13be 3371 d9bd
00000030: 350c 39bd 517a 1cbe 97c7 11be cb82 103e
00000040: 8551 d9bc d189 24be 5f0a efbd b726 c3bd
00000050: c17e 4c3c 1bfd e7bd c2a3 0cbe d326 3e3d
00000060: 8057 0abc 1165 6dbd dc3d a83c 1d79 193d
00000070: 4c4e f0bd e222 cbbd 484d d7bd 6fb8 13be
00000080: 40e9 babd 14e1 b5bc e64a 7bbc 6ae4 0cbd
00000090: 08a1 203c 710f 2bbe 6e8f 003d 4f0d 80bd
000000a0: 3c2a a6bc 8884 013e ed89 d4bc 5040 943c
000000b0: e184 b33d 42f5 b93d a581 823c 99c9 953d
000000c0: ca01 af3d f5cc 6d3c 0864 2dbd dcb7 643d
000000d0: f8ed b2bc 5080 26bd 6f4b 3abe c5a0 373d
000000e0: 60e8 3abc a8ba 7b3d 44fa 3f3e b594 cdbd
000000f0: 0eda 07bc ba4f a93d a80b cabd e19d 27be
-0.101463094 -0.06456171 -0.17509753 -0.061896585 -0.1454136 -0.1332938 -0.10716704 -0.16997012
-0.12726437 -0.04738179 -0.14363068 -0.10617294 -0.045177657 -0.15281035 -0.14236294 0.14112394
-0.02652813 -0.16068198 -0.116719 -0.09528869 0.012481392 -0.11327573 -0.13734344 0.046423744
-0.008443713 -0.057957713 0.02053731 0.03746902 -0.11733684 -0.09918763 -0.10512787 -0.14425825
-0.0912652 -0.022202052 -0.015337681 -0.03439752 0.009804018 -0.16705109 0.031386785 -0.062525384
-0.02028381 0.12648213 -0.025944674 0.018097073 0.08765579 0.09079982 0.01593096 0.07313842
0.08545263 0.014514198 -0.042331725 0.055839404 -0.021841988 -0.040649712 -0.18192838 0.044831056
-0.011407942 0.061457306 0.18747813 -0.10038129 -0.008291734 0.0826716 -0.098655045 -0.1636882

encoder.message_net.4.0.weight f4 [64, 64]
00000000: d9cb dd3c d012 fbbd 8f6c 93bd 7da4 dabd
00000010: 360d bdbd 7437 23bd 24c3 98bd 40f9 fb3c
00000020: be80 87bd a567 fe3b 5241 353d 73d1 65bd
00000030: 2223 19be a810 ebbc 6a57 883c 4403 063e
00000040: 9433 df3d 8df6 e23d 2007 29bd ee36 a0bd
00000050: 8cbd 773c 00d9 03bd a688 993d 5734 003e
00000060: d7c6 85bc 1936 823d d08f 84bc 51df 913d
00000070: c793 c43d aa46 fb3d 4012 a63b bd62 903c
00000080: 88a8 1ebe 1dd1 043b f787 a0bd 138d 14be
00000090: ccc7 853d 0442 c3bd 51eb 5e3d 439e 00be
000000a0: d413 64bd dcef a0bd d434 7ebd 0277 c43d
000000b0: 75af b03d 6eda cabc 52a3 553d 530c de3d
000000c0: a07c f63d 48bb 593c 8ba2 15be 7d46 cbbc
000000d0: 8f07 8abd e9c0 cc3d 91ad 523e dca5 47be
000000e0: 9183 ed3d ed80 453d 83f8 913d cbdc c0bb
000000f0: 55e9 8a3d dfa2 40bd 969c f53c 7df0 e2bc
00000100: fcf6 983e adef fdbc 9e64 593e 9469 6e3d
00000110: b966 4d3d 22bb e0bd 0158 1dbd efd1 0fbe
00000120: ff5e f53c c14b c43d 0240 8dbd 344b ccbc
00000130: 4558 ef3d 3e6a 1e3d 299e 2abe 1a60 153d
00000140: 17c9 7e3d 0fa5 003e fbd7 f83c 533d f23c
00000150: 56c0 913c 9a39 633e 0044 283e 8d3b 543d
00000160: f146 39be f26c 02bd ced0 a33d 9ac4 7f3c
00000170: 4d61 6d3e a8dc a5bc fb8a d13d fe66 5f38
00000180: e614 c2bd 4866 4a3e a734 adbd 57c4 8bbc
00000190: 7b98 443e 52c5 0c3d 3f1c 333e 47d7 ae3d
000001a0: a9b5 81be dd5b 483d 12c8 203e cb60 363e
000001b0: 029f fb3d 79f4 24be 2260 72bd 138a 1fbd
000001c0: 7e09 72be df2a 0d3e b3bf 423d ed65 7c3c
000001d0: 4443 1d3b 4367 ee3d 9d62 003e 47be bebd
000001e0: b201 00be 6e8b 83be b181 463d 3dd8 7ebd
000001f0: 20a7 cd3c 88b0 e4bd f4d2 54be 7a08 99bd
00000200: be8e 5abc 2b0c 2dbd e50d 913b 49f1 c7bb
00000210: 0233 a03b 87cd 1fbd 3302 3d3e 0381 d23d
00000220: 3c44 2d3c c502 b33a 8cc3 74bd db5a dfbc
00000230: 4892 16be a36f 5c3d f40f 393d 98a7 df3b
00000240: 11b2 063e 6885 3c3e fac7 c23c 504f 55bd
00000250: ec0b a5bd fc60 93be 68a7 8ebd 6918 11be
00000260: c05f ecbd c51e 153e 4c55 ac3d d5bf 27be
00000270: 0921 5fbe 655c 0bbe 7170 37be 07c3 41bd
00000280: 45fa 193d 537c 9abd 78e3 67bd 16ea 8a3d
00000290: 5587 5e3d eb02 923d 2fcd 9abd 8a1c a4be
000002a0: c916 32bd 7fca c5bc 4882 c23d 1a0c d53c
000002b0: 845d b7bd c8b7 253e 296c a73d 110f 203d
000002c0: 85ca fbbd f786 af3c 0a55 e4bd 87a7 1b3e
000002d0: cfe5 ddbd 46bc 603e 93a3 18bd 0d71 dd3d
000002e0: dde9 edbc fb83 c73b 7023 b93d c0eb 763e
000002f0: 0414 23bc 6b07 363d e239 d73d d99c ccbc
00000300: 38ee 38bd 45e8 60bd 3b65 403c f86c 0fbe
00000310: b6b3 893d c792 163c d509 193c 682f d53c
00000320: f3d6 e6bd c097 fbbd 219d 89bd 86ce bc3c
00000330: 9e4c 7bbd bcb1 993d aaec 43bd 8bc7 f83d
00000340: f4ce 8f3d 74f7 ca3d 0e6f 73bd 0ab9 9a3d
00000350: f898 84bd a836 58bd 4620 29bd a4a8 113d
00000360: b15d 18bd a056 2bbb ac2e 50bd 7c92 01be
00000370: 5c62 1d3d 4069 ccbd d8a0 c43d a5ca b7bd
00000380: 3ada a1bc a60e 033d 37be acbb b55c 2f3d
00000390: 24df 963c eb71 2bbd c0f6 dfbb 0269 00be
000003a0: 678e 723d 7584 8c3d ea31 2b3c a8e8 97bc
000003b0: 9543 883c 49c6 1b3d 3dd2 45bc 071d 403d
000003c0: 308c a8bb 6586 e5bc af04 a1bc e16b fb3d
000003d0: 2cbf 24bd 24ea c43c 71cb e8bd 12b2 22be
000003e0: c0c9 023e 1003 933d 4781 bfbc 70bb abbc
000003f0: 87da 2abc eb72 15be 743a a83c 103f b1bd
0.027074741 -0.122594476 -0.0719844 -0.10675905 -0.092310354 -0.039847806 -0.07459095 0.0307585
-0.066163525 0.0077638202 0.044251747 -0.05610795 -0.14954808 -0.028694466 0.016643245 0.13087183
0.108985096 0.11082182 -0.04126656 -0.07822977 0.015120875 -0.03218937 0.07496767 0.12519966
-0.016330166 0.063579746 -0.016181856 0.07122672 0.09598499 0.122693375 0.0050680935 0.017625207
-0.15493977 0.0020266243 -0.07838433 -0.1450694 0.06532249 -0.09534076 0.054423634 -0.12560372
-0.055682972 -0.078582495 -0.0620621 0.095930114 0.08627216 -0.024762359 0.052157708 0.108421944
0.12035489 0.01328928 -0.14612786 -0.024813885 -0.06739723 0.09997732 0.20574023 -0.19496864
0.1159736 0.048218656 0.07127478 -0.0058856956 0.06782786 -0.047030326 0.029981893 -0.027702564
0.29875934 -0.030998075 0.21229789 0.058206156 0.050146792 -0.10973193 -0.038414005 -0.14044927
0.029952524 0.095847614 -0.06896974 -0.024938203 0.11686758 0.03867554 -0.16661896 0.036468603
0.062203493 0.12562965 0.030376425 0.029570257 0.017791908 0.22189942 0.1643219 0.051814605
-0.18093468 -0.03184218 0.07998811 0.015610838 0.23181649 -0.020246819 0.102315865 5.3263262e-05
-0.09476642 0.1976558 -0.08457308 -0.017061396 0.19198792 0.034367867 0.17491244 0.08537155
-0.25333908 0.048915733 0.15701321 0.17810361 0.12286188 -0.16108884 -0.05917371 -0.038950037
-0.23636433 0.13785885 0.0475461 0.01540516 0.0023996392 0.11640789 0.12537618 -0.09313636
-0.12500647 -0.25692314 0.048463527 -0.06221794 0.025104105 -0.11166483 -0.20783597 -0.0747232
-0.013339696 -0.042247932 0.004426705 -0.0061017615 0.004888893 -0.039014366 0.1845787 0.10278513
0.01057535 0.0013657442 -0.0597568 -0.027265003 -0.1470424 0.053817403 0.04518123 0.0068253987
0.13153864 0.18410265 0.023776997 -0.05207759 -0.080589145 -0.2878493 -0.06965524 -0.14169468
-0.115417 0.14562519 0.084147066 -0.16381772 -0.21789946 -0.13609464 -0.17913987 -0.047305133
0.03759219 -0.07543244 -0.056613415 0.067829296 0.05432828 0.07129463 -0.07558667 -0.32053024
-0.04347876 -0.02414441 0.094975054 0.026006747 -0.089533836 0.16183388 0.08174927 0.03907687
-0.12294487 0.021426661 -0.111490324 0.15200625 -0.10834848 0.2194682 -0.03726537 0.10812578
-0.029042179 0.0060887313 0.09039962 0.24113369 -0.009953503 0.044440668 0.10509087 -0.024977135
-0.045149058 -0.05490901 0.011742885 -0.14006412 0.0672373 0.009190268 0.009340723 0.026023582
-0.11271467 -0.122848034 -0.06719423 0.023047697 -0.061352365 0.07504603 -0.047833122 0.12147435
0.07021895 0.09910479 -0.059432082 0.07554825 -0.06474489 -0.0527865 -0.041290544 0.03556122
-0.037198726 -0.0026144162 -0.05082576 -0.12653536 0.03842388 -0.09981012 0.09600991 -0.08974198
-0.019757379 0.03199639 -0.005271699 0.04281302 0.018416949 -0.041856688 -0.006834835 -0.12540057
0.059217837 0.06861202 0.010448912 -0.018543556 0.016633788 0.038030896 -0.0120740505 0.046902683
-0.005143665 -0.028018186 -0.019655554 0.12276436 -0.04022138 0.024037428 -0.11366928 -0.15888241
0.12772274 0.071783185 -0.023377074 -0.0209634 -0.010428078 -0.14594619 0.020535685 -0.08654606

encoder.message_net.4.0.bias f4 [64]
00000000: 58b7 163d fe14 a13d c5f6 1cbe 07bd 2abe
00000010: 06e2 24be 8c85 bcbd 8c42 d93b e9cb 0cbd
00000020: bd50 f03c 1633 83bd 7ba3 92bd b492 51bd
00000030: 1b57 f5bc 28a5 a2ba 3b73 803d 5584 e5bd
00000040: f81b 25be cd91 7dbd 5817 2dbd 37dc e6bd
00000050: 71ea 0fbe 9e4b 21be 33bd 1a3d 0fd8 22bd
00000060: 5a58 11be 0ab9 00be 078d 903d b883 3a3c
00000070: f2c9 1c3d bf2d 2bbc f022 b7bd dddf fe3c
00000080: 5418 1cbe 1b31 92bd e8be aabd b5c9 04be
00000090: 00c3 a03a 0ab5 4c3d e1c5 823d 07a1 9c3d
000000a0: 0980 1fbd dc68 2fbe ee9f 11bd be66 933d
000000b0: 23b7 17be d4b0 553d a70c 583d 8189 433d
000000c0: 0527 22be a367 f1bd 283a 4abd f9a5 513d
000000d0: 4f4f bfbd 46b2 ffbd c11a ad3d 4f13 9dbd
000000e0: d802 82bd d95d d6bd 83b0 1b3d 1f2e a6ba
000000f0: 77f8 b13d f31f c2bc 18d7 c8bd 5470 01be
0.036795944 0.07865332 -0.1532851 -0.1667367 -0.16101846 -0.092051595 0.0066302475 -0.03437415
0.029335374 -0.06406228 -0.07160088 -0.051165298 -0.029948762 -0.001240884 0.062719785 -0.11206881
-0.1612395 -0.061906625 -0.04225859 -0.112724714 -0.14054276 -0.15751502 0.03777809 -0.03975683
-0.1419386 -0.12570587 0.07058149 0.011383943 0.038278528 -0.010447918 -0.08942211 0.031112606
-0.15243655 -0.071382724 -0.08337194 -0.1296757 0.0012265146 0.04997734 0.06385399 0.07647901
-0.038940463 -0.17129844 -0.03555291 0.07197331 -0.14815955 0.05217059 0.05274644 0.047738556
-0.15835197 -0.11787345 -0.04937187 0.051183674 -0.09341299 -0.12485175 0.084523685 -0.076696984
-0.06348199 -0.10467119 0.03801013 -0.001267854 0.08689969 -0.023696875 -0.09806651 -0.12640506
