experiments/gnn_hd64_ld32_nr5_ep10/model.pt (torch, 218065 bytes, 24 tensors)

encoder.input_net.0.weight f4 [64, 7]
000000 3b b9 9f 3d 5a 2a 95 3d 54 8d 9c be bb 19 b5 be
       0.07799002 0.072834685 -0.30576575 -0.35371193
000010 a3 8e cb bd 20 96 38 3d 31 ac 26 3e d1 d9 84 3e
       -0.09939315 0.045065045 0.16276623 0.2594743
000020 c3 c6 5c 3e 4a ed bd be 39 64 69 be e3 b4 83 3e
       0.21560197 -0.370951 -0.22792138 0.25723943
000030 55 44 ee 3d bb 53 34 bd 1c 19 3a 3e 5d 48 94 be
       0.11634127 -0.044025164 0.18173641 -0.2896146
000040 eb 82 aa 3e 77 b9 6f 3e 75 7c ee 3d fa 76 6a 3e
       0.33303007 0.23410593 0.11644832 0.22896948
000050 04 30 a4 be 06 9e ba be e1 54 9a be a0 df b9 be
       -0.32067883 -0.36448687 -0.30142882 -0.36303425
000060 5e ee 90 3e ec 0c 4b be 57 e4 d1 3e cc 22 d3 3a
       0.2830686 -0.19829148 0.40994522 0.0016108393
000070 b5 08 d8 3c a1 4b 59 be 96 98 0f be d0 34 89 3e
       0.02637134 -0.21220256 -0.1402305 0.26798105
000080 46 2c 7e be 8d 69 a0 be 8c f6 13 be f8 16 05 3e
       -0.24821576 -0.3133053 -0.14449519 0.12997043
000090 0f bf 9b be 03 62 8a be 40 56 30 3e 3f ab e9 bd
       -0.30419204 -0.27027902 0.17220402 -0.11409616
0000a0 32 21 ba 3d 91 bd c0 be 16 c2 fc 3d c4 56 24 be
       0.09088363 -0.37644628 0.123417065 -0.16048723
0000b0 d2 7c 15 be b6 4d 95 be 3e da 91 be b5 79 8e be
       -0.14598396 -0.2916085 -0.28486818 -0.2782723
0000c0 f2 72 00 3e 67 a3 b6 be 46 7c 10 3e f7 27 db 3d
       0.12543848 -0.3567154 0.14109907 0.10700982
0000d0 ee 68 bc 3d 59 ea 9b 3e 53 a9 8c bd 41 41 86 3c
       0.09199701 0.3045223 -0.068682335 0.016388537
0000e0 a8 0b a3 bc 8c 95 99 3e c6 44 9d bd 40 45 de 3d
       -0.01990302 0.29996908 -0.07679133 0.10853052
0000f0 7b 33 89 37 e4 1f 48 be 54 80 8f bd 4a 2e 10 3e
       1.6355645e-05 -0.19543415 -0.070068985 0.14080158
000100 77 c5 95 3e 3f 4c b5 3e 20 b4 80 be 37 69 5d be
       0.29252216 0.35409734 -0.25137424 -0.21622168
000110 82 7d 9e 3e fe 25 ed 3d 48 2c 3f 3e 3d 9b 70 3e
       0.3095513 0.11579512 0.18669236 0.23496719
000120 48 fa 0a 3e 52 b1 1a 3e 4f f7 4d be f5 dd 95 be
       0.13572037 0.15106705 -0.20113872 -0.29270902
000130 94 69 8e 3e af 49 af be 35 af f8 3c 33 b1 3f 3e
       0.27814925 -0.34235904 0.030356983 0.1871994
000140 0c 18 57 bc ce 90 38 be e2 50 d1 3d bf 0f e7 bd
       -0.013128292 -0.18023989 0.10220505 -0.112823
000150 b3 89 72 3e e0 cb c3 bd d2 5c 81 3d df e5 14 be
       0.2368534 -0.095603704 0.06316532 -0.14540814
000160 b7 94 33 bd d8 86 91 3d 63 8b 71 3e b6 af 05 3e
       -0.043842997 0.071057975 0.23588328 0.1305531
000170 8d 8f a4 3e 3f 4a 7e 3e b3 80 80 be 99 2b 58 3e
       0.3214077 0.2483301 -0.2509819 0.21110381
000180 cd 05 a8 3d 3c e9 8b be 96 d8 7e 3d 14 48 04 3d
       0.082042314 -0.2732638 0.06221827 0.0322953
000190 e9 19 83 3e b0 9a 99 3e 20 dd 1f 3e f9 60 63 be
       0.25605705 0.3000083 0.15611696 -0.22204961
0001a0 47 e0 ab 3e e9 04 43 3d f2 e2 5e 3d 95 1c 43 3e
       0.33569548 0.047612105 0.05441565 0.19053872
0001b0 28 ce 6b 3e 7c df 72 bd d5 94 c9 3e 8f d7 5f be
       0.23027861 -0.059295163 0.39371362 -0.21859573
0001c0 21 f2 04 be be 94 f5 3d ce 7d e1 bd c3 64 c6 bd
       -0.1298299 0.11991261 -0.110103235 -0.096871875
0001d0 97 eb 4e be 5f 45 60 bd 68 0a 48 bd 35 75 f4 bc
       -0.20207058 -0.054753657 -0.04883805 -0.029841045
0001e0 7c c0 a1 3d 59 ff b0 bd 69 a8 19 3d 13 f2 b1 3e
       0.078980416 -0.08642454 0.037514124 0.34755
0001f0 77 fa 9c 3e 67 af 42 3e 48 2a 47 3e 13 dd bb be
       0.3065984 0.19012223 0.19449723 -0.36692104
000200 3d 35 07 be c0 bc 1f 3e b6 f1 ab be 25 1b 70 be
       -0.13203903 0.15599346 -0.33582848 -0.23447855
000210 4d bd bc 3e 2d b8 bb 3e 75 fd 82 3e 9f 7a 05 be
       0.36863175 0.36663952 0.25583997 -0.13035057
000220 26 10 69 be d8 0b 06 3e d2 48 9f be 87 31 ec bd
       -0.22760066 0.13090456 -0.31110245 -0.11532884
000230 3d 61 92 be 49 23 dc 3d 10 30 64 be b8 12 3e 3e
       -0.28589812 0.107489176 -0.2228396 0.18561828
000240 8e 9a 6b 3e da eb b4 3e cf 27 40 3e 63 a9 0f be
       0.23008177 0.3533619 0.18765186 -0.1402946
000250 9b 44 4f be 9d 24 86 3d 73 b9 80 3e 4b e3 92 3e
       -0.20241015 0.06549952 0.25141487 0.28689036
000260 cd 61 ae 3d 23 5c 85 be 96 63 1b be 54 fd 19 3e
       0.08514748 -0.26046857 -0.15174708 0.15038043
000270 d4 95 8f 3e 80 4a 24 3d 3c 5a 29 3e 55 9f 98 3c
       0.28043997 0.04011011 0.16538328 0.018630663
000280 73 61 a5 3e 25 93 b2 be 12 4c 9d 3e 92 70 f4 bd
       0.3230091 -0.34877887 0.307221 -0.119355336
000290 19 8a 27 3e 53 1d 2c 3e 0c a9 b3 3e 16 83 77 3e
       0.16361274 0.16808061 0.3508991 0.24171099
0002a0 0c 83 ae be 6e 06 a2 bc ce 7d 23 be b2 ab d1 3d
       -0.34084356 -0.019778457 -0.1596596 0.102378264
0002b0 b9 4a b2 3e 8d cc 15 bc 91 39 3b 3e 7b 79 c6 bd
       0.34822634 -0.009143007 0.18283679 -0.09691139
0002c0 6f ca cc 3d 83 92 a9 be 0f 5b b2 3e 29 32 7d be
       0.09999549 -0.33119592 0.34835097 -0.24726166
0002d0 d2 42 21 3e 06 f1 e6 3d 0a d1 ee 3d cb e6 ef bb
       0.15748146 0.1127644 0.11660965 -0.007321214
0002e0 af bc 9b be 50 58 c4 bc b8 d6 9e 3e e7 e4 b9 be
       -0.30417392 -0.023967892 0.31023192 -0.3630745
0002f0 d2 c9 cb 3d 9d d6 35 be f4 9a 6d be e1 16 55 3d
       0.099506035 -0.1775765 -0.23203641 0.052023772
000300 8e 49 a3 be 51 15 3f 3d 20 6f fe 3d d7 b8 83 bd
       -0.31892055 0.04665119 0.12423539 -0.0643174
000310 c7 6b 96 bb c5 5d dc 3d 49 21 70 3e 14 67 bb be
       -0.004590485 0.107600726 0.23450197 -0.3660208
000320 cb b7 98 bd ff 13 62 3c 5b 97 48 3e cf 3a 77 3e
       -0.07456931 0.013798713 0.19588988 0.24143527
000330 99 46 42 3d 24 7e 07 be 2c c6 34 be 8e 30 3d 3c
       0.04743061 -0.13231713 -0.17653722 0.011547221
000340 e8 47 26 3e 55 3d 99 be a5 08 a2 be 36 f3 f4 bb
       0.16238368 -0.29929605 -0.3164722 -0.007475282
000350 9e 75 85 3e ec ff 88 3e c0 9e fd 3c d0 3d de 3e
       0.26066297 0.26757753 0.030959487 0.43406534
000360 c8 f5 7e be a9 57 ff bd c1 73 7a be 18 dc 98 3e
       -0.24898446 -0.12467892 -0.24458219 0.29855418
000370 f1 72 bc be 37 13 46 be 08 bd 96 3e 8f f9 ad bd
       -0.36806443 -0.19343267 0.29441094 -0.08494865
000380 b2 14 b9 3e 86 70 09 3e 7f f9 75 3e 92 ef ca bd
       0.36148602 0.1342183 0.24020956 -0.09908976
000390 27 ff b3 be 68 c1 8c 3d 32 29 82 be 2b fc 9f 3e
       -0.35155603 0.06872827 -0.25422055 0.31247076
0003a0 94 1c 0c be b8 f0 91 be f9 dc bb be fe 67 43 3e
       -0.13682777 -0.28503966 -0.36692026 0.19082639
0003b0 cb 03 8a 3e 01 4c 3c 3e 3f 27 97 3c f8 3c 1a be
       0.2695602 0.18388368 0.018451331 -0.1506232
0003c0 b3 c9 aa be f4 8b 50 be 79 15 1b 3e 63 54 e2 3d
       -0.3335701 -0.20365888 0.1514491 0.11051252
0003d0 10 30 aa 3d 46 f1 79 3e ed 4e 71 be 9a c1 d0 bd
       0.083099484 0.24408445 -0.23565264 -0.101931766
0003e0 fd 41 bc 3d 3f eb 29 3e 48 6d 74 3e ec d4 88 be
       0.09192274 0.16593646 0.23869812 -0.26724946
0003f0 9c e0 77 be 7b 04 91 3e 17 ed d8 3c 4b fd 44 bd
       -0.24206775 0.2832373 0.02648024 -0.04809312

encoder.input_net.0.bias f4 [64]
000000 f8 29 8f 3e 85 84 be bd 9d 7e a7 be 78 30 b7 3e
       0.27961707 -0.0930262 -0.32713786 0.35779166
000010 82 5d 8f be 23 26 87 3e 6d b9 eb 3d fd ac 2e 3e
       -0.28001028 0.26396284 0.115099765 0.17058177
000020 ed ce 70 be 3e 5d a0 3e 61 47 b1 be 83 eb 9b 3d
       -0.23516436 0.31321138 -0.3462477 0.0761328
000030 a4 be 5a bd 7e 2d 29 3e e8 28 40 3e e3 b3 fc 3b
       -0.053404465 0.1652126 0.18765604 0.007711874
000040 c1 3c 1b be b2 03 c7 bc c3 8c 2c 3e dc 26 b3 be
       -0.15159895 -0.024293754 0.16850571 -0.34990585
000050 2b 51 85 bc 6c 61 a5 3e 49 15 2d 3e 98 79 a8 3e
       -0.016274055 0.3230089 0.16902651 0.3290527
000060 89 32 87 3e 59 f3 a5 3e 4f 0c 2f 3e 0c e4 5a 3e
       0.26405743 0.32412222 0.17094539 0.21376055
000070 b1 2f 44 bd 3a 19 c9 bd 37 d1 93 3e 8b f2 a2 3e
       -0.047897045 -0.09819265 0.28870556 0.3182567
000080 46 6e 9e be 89 e8 5e 3e 76 94 8d 3e 51 86 ad be
       -0.30943507 0.21768393 0.2765233 -0.33891538
000090 7a 49 bd bd a5 12 fb bc cf 66 8f 3e 15 b4 55 be
       -0.0924253 -0.030648539 0.28008124 -0.20869477
0000a0 f9 b0 00 3e bb b8 39 be 3e a0 e9 bd 9d c0 86 be
       0.1256751 -0.18136875 -0.11407517 -0.26318827
0000b0 f0 92 6f be 12 79 a8 be 05 14 cf 3a 77 37 6b 3e
       -0.23395896 -0.3290487 0.0015798813 0.22970377
0000c0 fc b8 3c be 87 06 82 be d3 6a e3 3d 49 3d 39 3e
       -0.18429941 -0.25395605 0.111043595 0.18089785
0000d0 f5 22 65 be 9f f4 9d 3e 4f 1d ad be 0b aa 93 3b
       -0.22376616 0.30850694 -0.33811423 0.0045063547
0000e0 8d 54 19 be a4 83 81 3e 88 88 1e 3d 03 46 ec 3c
       -0.1497366 0.25295746 0.038704425 0.028841978
0000f0 0a f5 55 3e 91 0c 35 bd 39 2a b2 3e 37 0c b0 bd
       0.20894256 -0.044201437 0.34797838 -0.0859608

encoder.message_net.0.0.weight f4 [64, 64]
000000 3b a0 1b bd 74 d4 01 bc 06 1d 96 3d 9b b9 41 3d
       -0.037994605 -0.007924188 0.073297545 0.047296148
000010 8f 94 bd bd 6c c1 7f bd a2 b2 3b 3c 0f 68 2c 3d
       -0.09256851 -0.06244032 0.011456164 0.042091426
000020 58 3b 29 bd a3 0b 01 be d8 7b 97 3c 3f 8a f5 bd
       -0.04131636 -0.12602095 0.01849167 -0.11989259
000030 76 97 cd bd 08 79 c5 bd 3a 98 46 3c 24 f9 f4 3c
       -0.100386545 -0.096422255 0.012121255 0.029903956
000040 b6 0c cc bd 1d a4 98 bd a7 cc a4 3d 6e f8 c3 3d
       -0.09963362 -0.07453177 0.08046847 0.095688686
000050 a8 c7 0d be 74 75 00 bd d9 ac 19 be 7a b3 34 bc
       -0.13845694 -0.031362012 -0.15007342 -0.011029119
000060 f3 d0 5d bc d8 89 c3 3d 12 d2 ee 3b ec 7e a5 3d
       -0.013538587 0.09547776 0.007288226 0.08080849
000070 5e c9 cf 3d ca 48 f3 3d 19 a0 7e 3d 11 df c8 bc
       0.101458296 0.11879118 0.0621644 -0.024520429
000080 ba 34 32 bc f6 39 10 bd 2b 73 16 bc 20 26 3e 3c
       -0.010876829 -0.035211526 -0.009182732 0.011605769
000090 30 0e 16 bc 85 00 8b 3d 01 59 28 bd ef b7 32 bb
       -0.009158656 0.067872085 -0.041100506 -0.0027270277
0000a0 ff 98 d0 bd 22 bb b0 3d c4 54 fd bc fc c7 51 bd
       -0.10185432 0.08629443 -0.030924208 -0.05121611
0000b0 16 97 fa bd f0 6b a5 3d ae 95 1c 3c bf 52 c2 bd
       -0.122358486 0.08077228 0.009557171 -0.09488439
0000c0 45 3b 4b 3d 82 4a 87 bd 88 23 33 bd d3 17 aa 3d
       0.04961707 -0.06606008 -0.043735057 0.08305325
0000d0 02 4b c1 3c 1b c0 bd bd b6 64 92 bd f5 ee 29 3c
       0.023595337 -0.09265157 -0.07148115 0.010371913
0000e0 a3 03 38 3c e5 aa d6 bd fb 90 0d bd 5f 3f 9f bd
       0.011231336 -0.10481814 -0.034562092 -0.07775759
0000f0 b4 d2 90 bb 1f ca 0f bd 64 02 65 3a 51 31 9a 3d
       -0.004419649 -0.035104867 0.0008736013 0.075289376
000100 5a d3 92 3d 28 a7 63 bc 13 52 95 3c 0d c9 ca bd
       0.07169218 -0.013894834 0.018227613 -0.09901629
000110 3d 3c 9d bc e8 8d 1f 3d 33 36 4a bd 5e 53 d5 3d
       -0.019193763 0.03895369 -0.049368095 0.10416292
000120 01 b8 ce 3d 7f 43 06 be 48 e4 7c 3d f1 8d 5b 3d
       0.1009369 -0.13111685 0.061741143 0.053602163
000130 19 3d 8e bb d9 e3 0b be 5a 00 cb bc 15 6b 9a 3d
       -0.0043407795 -0.13661136 -0.024780441 0.075399555
000140 50 bf 92 bd ad 4d 78 3d aa bc 6e bc df 2b 81 bd
       -0.07165396 0.060620952 -0.014571348 -0.06307196
000150 99 ae c4 3a 79 1b 89 3d 69 58 c1 bc c7 02 e4 bc
       0.0015005647 0.06694693 -0.023601728 -0.027833356
000160 c6 aa 53 3d 15 49 e2 bc 3a 2c ae 3d 75 b8 d4 3c
       0.051676534 -0.027622739 0.08504529 0.025966862
000170 1f 92 bf 3b 54 ae 3c 3d a5 e7 b5 3d 73 ad 02 bc
       0.0058462764 0.04606469 0.08882073 -0.007975924
000180 dc e3 38 bd e7 ef 8f 3d 25 b7 7b bd 10 15 40 bc
       -0.04513918 0.070281796 -0.061453957 -0.011723772
000190 71 f9 e5 bd ad d0 fc bd 45 37 4f bd 1d 79 bb 3c
       -0.11229218 -0.12344489 -0.05058982 0.0228849
0001a0 91 b8 e7 3c 9c 78 e0 bd bc 91 09 bd d5 ef 42 bd
       0.02828625 -0.109605044 -0.03358625 -0.047592003
0001b0 80 b7 73 3b d8 f8 41 3d 0f 0a 15 3d 46 0a ab 39
       0.0037188232 0.047356457 0.036386546 0.00032623316
0001c0 de 26 fb bb b5 7d e2 3c 6a 15 1b 3c 21 6d dc bc
       -0.0076645454 0.027647832 0.009465555 -0.026907505
0001d0 a5 3f b8 bd 0b 90 ac bd 18 37 c3 bd 92 ac 8a 3d
       -0.08996514 -0.084259115 -0.09531993 0.067711964
0001e0 42 07 23 be 63 1c bf 3d 61 2e c8 3d 54 cf fc bd
       -0.15920737 0.09331586 0.09774471 -0.12344232
0001f0 41 b6 e7 bd 7c de fc bd 57 26 c4 bc f4 5f b5 3d
       -0.11314059 -0.12347123 -0.023944063 0.08856192
000200 40 01 c1 bd e0 71 c3 bd c8 f4 66 bd 98 6c 22 bd
       -0.094240665 -0.09543204 -0.056385785 -0.039654344
000210 a2 6a 83 bd 74 09 9e 3d 44 d2 46 3d a0 2a f4 3d
       -0.06416823 0.07716647 0.04854037 0.119221926
000220 be 5d fe 3d a0 2a 5e bd 68 6b 3d 3d a8 88 9e 3d
       0.12420224 -0.05423987 0.04624501 0.07740909
000230 c8 41 5d 3d 1a 02 bb bd ce a4 b3 bd 24 8d 6f 3d
       0.054017812 -0.0913126 -0.087716684 0.05848421
000240 00 40 9e 3c 20 3b f9 3b aa 13 dc bd 66 ec fa bd
       0.019317627 0.007605925 -0.10745938 -0.12252121
000250 dc 10 34 bd a6 6a e4 bd 4a 7c be 3d 9c 81 d0 bd
       -0.04396139 -0.11153154 0.0930105 -0.10180971
000260 08 f5 16 3d a0 8f 55 3c e6 28 ff bd 7c 2c fb bd
       0.036854774 0.013034731 -0.12458973 -0.12264344
000270 fa 6f cc bd 00 5b 29 3a 24 35 4b 3d ac a2 37 3d
       -0.09982295 0.00064603984 0.049611226 0.04483287
000280 e4 36 f4 3d a0 b4 8b bc c0 00 24 3d a2 47 bd 3d
       0.11924532 -0.017053902 0.040039778 0.092421785
000290 40 b6 65 bb ac 63 79 bd 58 b9 b3 3d 68 74 70 bd
       -0.0035051256 -0.06088607 0.08775586 -0.058704764
0002a0 92 ff 8b bd c4 95 a6 bd 60 6a c1 3d 80 56 64 3c
       -0.068358555 -0.08134034 0.094441175 0.013936639
0002b0 28 7d dc bd 00 e8 8e bb d2 ce fb bd 9e 44 a6 bd
       -0.10766059 -0.0043611526 -0.12295307 -0.081185564
0002c0 3e 3a be bd 00 f7 eb 3a 20 c6 d9 bc d4 8b 03 bd
       -0.092884526 0.0018002689 -0.026583731 -0.032115772
0002d0 24 3a 50 3d 0c 13 cb 3d e0 e6 dd bb 4c 8c 3b bd
       0.050836697 0.09915742 -0.006771907 -0.045788094
0002e0 80 0d a8 bd 30 1b f6 bc d4 79 b3 3d f6 d4 fc 3d
       -0.082057 -0.03004226 0.08763471 0.123453066
0002f0 6e ee 9f bd 60 c1 a0 bd 80 03 3e bb 26 99 b4 3d
       -0.07809149 -0.07849383 -0.0028993785 0.08818273
000300 3d a0 b0 3d 23 bf 74 bc 12 83 76 bd b9 f3 2e bd
       0.08624313 -0.014938149 -0.060183592 -0.0427129
000310 fc 44 8a 3d 40 e6 8d bd 0c f1 3b 3d de 4e 41 bd
       0.06751439 -0.06928682 0.045884177 -0.047194354
000320 0a 98 2f 3d 1c 3f 4c 3d 3e 73 9c bd 8d aa ba bd
       0.042869605 0.049864873 -0.07639168 -0.09114561
000330 f2 52 1b bd 30 e1 a4 bd 50 36 c1 bd 86 89 40 3d
       -0.0379209 -0.080507636 -0.094341874 0.047006153
000340 04 82 8a bd 4c 7f 97 3c a0 44 31 3b a8 a3 eb bd
       -0.0676308 0.018493317 0.002704896 -0.11505824
000350 c0 1d 60 3d 44 00 ad bd a3 fe db 3d db 54 4c bd
       0.05471587 -0.08447316 0.107419275 -0.049885612
000360 d4 87 e7 bd ba 88 68 3d 8b 06 84 3b b0 f2 0c bc
       -0.11305204 0.056771018 0.0040291003 -0.008602783
000370 0a 7a fd bd 43 71 91 3c 4e ef e9 bd 9f 64 88 3d
       -0.12376793 0.017754203 -0.11422597 0.06659817
000380 c4 7e b3 bc e6 86 e2 bc af 7c e3 bd c4 13 17 bd
       -0.021911032 -0.027652215 -0.11107766 -0.036884084
000390 d7 4b e3 bd 86 2f 87 bb 5f b8 dd 3c fb 61 bd bd
       -0.1109845 -0.0041255383 0.027065454 -0.09247204
0003a0 81 56 42 bb b6 10 7b 3d a2 dd ee bd 8b 64 ce bd
       -0.002965361 0.061295234 -0.11663367 -0.10077771
0003b0 f8 de 65 3d 0b cb 0b 3d d4 a0 f9 3c bd 29 bb bc
       0.056120843 0.034129184 0.030472197 -0.02284705
0003c0 6e cd 02 be 97 51 0e bd b5 92 b0 3d 1a 69 78 bd
       -0.12773678 -0.03474578 0.08621732 -0.060647108
0003d0 54 0c b9 bd 90 79 00 be 00 b6 01 bc c8 a2 f7 bd
       -0.090355545 -0.12546372 -0.007916927 -0.12091595
0003e0 d0 2d e7 bd 36 8b a6 3d 1f f9 69 bd bc e8 ba 3d
       -0.11288035 0.08132021 -0.057122346 0.09126422
0003f0 96 a5 8f 3c bc b4 fd bd a9 b0 51 bc 06 44 1a bd
       0.017535012 -0.12387988 -0.012798467 -0.03766253

encoder.message_net.0.0.bias f4 [64]
000000 a5 75 1a bd da 60 d7 3c 84 be 73 bd e3 fe a6 3d
       -0.03770985 0.0262913 -0.05950786 0.081540845
000010 35 3e f9 bd 9e f8 c4 3d e3 e5 9c bd 80 85 0e 3d
       -0.12170068 0.096177325 -0.07661035 0.034795284
000020 cf 04 4a 3d 7d 39 87 bd a2 f6 ee bc 98 a4 8b bc
       0.049320992 -0.06602762 -0.029170338 -0.017046258
000030 38 80 a4 bd ff fb 71 3d b8 43 e4 3d 48 e5 fb bd
       -0.08032268 0.059078213 0.11145729 -0.12299591
000040 68 55 b0 3d fd ce 7f 3d aa 02 db bc ea d8 90 bd
       0.0861004 0.06245326 -0.026734669 -0.07072623
000050 fa 1e 06 be 12 a1 ae 3d 97 ff 00 ba 73 d4 a6 3d
       -0.13097754 0.085268155 -0.00049208984 0.0814599
000060 2e 2b 78 bd ab 30 bf 3d 40 9f f4 3c 82 13 81 bd
       -0.060588054 0.093354546 0.029861093 -0.06302549
000070 98 35 8c bd 64 87 cd bd 50 ae 34 bc 37 e0 29 3c
       -0.0684616 -0.10035589 -0.011027887 0.010368398
000080 a6 15 ae 3d f7 ff 44 3d eb ec 1f 3d 68 a4 86 bd
       0.08500223 0.04809567 0.039044302 -0.06574327
000090 0a 06 c3 bb 02 9a fd 3c cf 8f cd 3c 8b 67 09 3d
       -0.0059516476 0.030957226 0.025092987 0.033546012
0000a0 33 bb c1 3d b0 55 e9 bd cc bd 77 3d 24 e2 c5 bb
       0.094595335 -0.11393297 0.06048374 -0.006038921
0000b0 81 3c a1 3d 69 79 ad 3c 64 a2 e3 bc 9f 0e 61 3d
       0.07872868 0.021176057 -0.027787395 0.054945584
0000c0 5b e7 c3 bc 60 4c 33 bd fc 71 7a bd 1b 08 bc bb
       -0.02391403 -0.04377401 -0.06114386 -0.005738271
0000d0 5f 29 a2 bc f6 ee 94 3d d4 ed f9 3c 22 11 f8 bd
       -0.019795118 0.07272141 0.030508913 -0.12112643
0000e0 00 c5 20 3d 6d e5 b5 3d db fc 49 3d f3 8a 18 3d
       0.039250374 0.0888165 0.049313407 0.037241887
0000f0 ac 00 06 3e 32 0d a3 3d e6 3f f8 3b 56 da c9 bd
       0.13086194 0.07961501 0.0075759767 -0.098560974

encoder.message_net.1.0.weight f4 [64, 64]
000000 23 42 c1 bd fa 9d e3 3d a3 9b 09 bd 01 f6 b9 3d
       -0.09436443 0.11114116 -0.033595692 0.09080125
000010 46 e4 84 bd e6 8a 91 bd 4a c1 8d bd d0 c5 e1 bd
       -0.06488852 -0.07106571 -0.069216326 -0.11024058
000020 66 29 8e bd 77 92 c2 bd 7c 69 1e 3c 93 94 9f bd
       -0.0694149 -0.09500592 0.009668704 -0.0779201
000030 c1 54 59 bc ef f8 99 3d ac 19 8a 3d 25 18 df 3d
       -0.013264836 0.075181834 0.06743178 0.10893277
000040 3a ce 80 bd 44 bc 87 3d 80 19 13 3c 82 80 f3 bd
       -0.062893346 0.06627706 0.008978248 -0.11889745
000050 94 79 7b 3d 90 88 18 3d 2e b0 76 3d cd 70 8c bd
       0.061395243 0.03723961 0.06022661 -0.068574525
000060 d6 1e 05 be 1f b8 d2 3d af a3 b6 3d b7 b4 61 3d
       -0.13000044 0.102890246 0.08917939 0.055103984
000070 2f 2b 8d bd 07 8a 60 bd b9 b3 bf bd 65 77 93 bd
       -0.06893002 -0.054819133 -0.09360451 -0.07200507
000080 8e 90 eb bd 30 52 f1 bc 1b a5 da 3d 7c 5e 3b bd
       -0.11502181 -0.029458135 0.106760226 -0.045744404
000090 be ee 4d bd c1 25 8f 3d f5 a8 b6 3d 9c 6c b6 bd
       -0.05027651 0.06989623 0.08918945 -0.08907434
0000a0 04 38 4a 3b cc 84 c9 3c 94 08 1e 3d c2 dc 5f 3b
       0.0030856142 0.024599455 0.0385824 0.0034158682
0000b0 4b 5f 5e 3d f2 40 8a bd 32 c9 65 bd 8f 70 ab 3d
       0.054290097 -0.067506686 -0.056100078 0.08371078
0000c0 9a 76 d2 3d 97 6c cf 3d 31 3f e8 3b c9 f9 c4 bd
       0.10276528 0.10128134 0.007087611 -0.09617955
0000d0 9e e7 d0 3c b0 f1 7a 3d f0 9b 53 bd 54 7b ba 3d
       0.025501069 0.061265647 -0.051662385 0.09105554
0000e0 a3 e3 6b 3d db 7f fc 3d 46 72 bb 39 34 33 eb 3b
       0.05759014 0.12329074 0.0003575256 0.0071777347
0000f0 05 a8 35 bd 9a b0 16 3c 17 28 7d 3d a7 95 ac 3c
       -0.04434969 0.0091973785 0.06180581 0.021067454
000100 4b a7 54 bd ca 27 83 bd 69 f0 be 3c 14 d3 a4 3d
       -0.051917356 -0.064040735 0.023307996 0.080480725
000110 c2 77 66 bc 15 6c 42 3d b6 3c 70 3d a7 50 b0 bd
       -0.014066638 0.047466356 0.05865165 -0.08609133
000120 ca 9e 57 3d 9d e1 62 3d cf 52 8b 3c 5e a5 d4 bc
       0.052641667 0.055390943 0.01700726 -0.02595776
000130 54 61 c7 bd d2 fa 00 3d d5 99 2a bc d5 12 13 bd
       -0.09735361 0.0314892 -0.010412653 -0.03590663
000140 a7 a0 ae 3d 69 1f 35 bd 32 8e ee bd 83 5e 89 3d
       0.08526736 -0.04421941 -0.11648215 0.0670748
000150 1f ed b8 bd a6 db 83 3c 38 03 b1 bd 8c c6 65 bd
       -0.09029602 0.016095947 -0.08643192 -0.056097552
000160 9a f8 2d bd f0 a1 a1 3d 53 b5 0a 3d 0f 1c c5 3c
       -0.042473413 0.07892215 0.03386433 0.024061231
000170 16 32 fc bc 1f c8 45 3d f1 07 04 be ff 5b ee 3d
       -0.030785602 0.048286553 -0.12893654 0.116386406
000180 83 32 fa 39 db 88 02 be 02 af be bc d6 5c 75 3d
       0.0004772135 -0.12747519 -0.02327681 0.05990299
000190 e0 8e 9d 3d d9 fd c3 3c 5d a4 85 3d 96 51 73 3d
       0.07693267 0.023924755 0.065254904 0.05940398
0001a0 fb a0 51 bd 95 6e 8e 3b 85 e6 ab bd 2a 8a ea 3d
       -0.051178914 0.0043466785 -0.083935775 0.11452134
0001b0 f3 87 ba bc a0 4a 04 be 32 65 e9 3d 5c 7d cd 3d
       -0.022769904 -0.12919092 0.113962546 0.10033676
0001c0 c3 03 16 3e d4 3e 05 3e 5d 38 3d 3d 23 96 12 bc
       0.14649872 0.13012248 0.04619633 -0.008946928
0001d0 d9 ca ba bb 44 b8 3d bd a1 49 97 bd df 92 b5 3d
       -0.005700451 -0.046318308 -0.073870905 0.08865904
0001e0 c0 22 40 bd fa ea 2f 3c da c1 1a 3c e3 ae e4 3c
       -0.04690814 0.010737175 0.009445632 0.027915424
0001f0 a4 bb 5b 3d f7 f4 c2 3c 4c 33 87 3d 9f 87 06 be
       0.053645745 0.023798449 0.06601581 -0.13137673
000200 fc ff 81 bd 1b d4 7f 3d b3 5b 3c bc 3d ec 99 3d
       -0.06347653 0.06245814 -0.011496472 0.07515762
000210 ab 82 2a be 8c c3 86 3d 0a 63 37 be 33 d2 d9 bd
       -0.16651408 0.06580266 -0.17908874 -0.106357954
000220 1a 88 6a bd 47 f1 91 bd 30 dd c6 3a 17 a8 aa bd
       -0.057258703 -0.07126098 0.001517212 -0.08332842
000230 38 36 8d 3d 51 8b 92 bc e8 65 c0 bc 57 e1 ba ba
       0.06895107 -0.017888697 -0.023486093 -0.001425783
000240 60 03 e5 3d 3d af 88 bd f5 28 f6 bd 3c e2 80 bd
       0.11182284 -0.06674049 -0.12019531 -0.06293151
000250 f9 42 01 3e 8d 3b c1 bd bf af 8a bb ca a7 29 3d
       0.12623204 -0.094351865 -0.0042323763 0.04141978
000260 48 20 b1 3d 90 d1 d5 3d cd 9e 11 3e a3 db ae 3c
       0.08648735 0.104403615 0.14220734 0.021344965
000270 82 73 c4 3d 85 2f 90 bd 61 7c c7 bd 20 41 4f bc
       0.09592344 -0.07040314 -0.0974052 -0.012649804
000280 86 d1 ab bd a7 a0 16 be ae 8e 1f bd 74 80 8f bd
       -0.08389573 -0.14709722 -0.03895443 -0.07006922
000290 80 1e 96 bd 8d bd 13 bd 11 27 96 bb 4f d6 c8 3d
       -0.07330036 -0.03606944 -0.004582294 0.09806501
0002a0 23 43 aa bb 39 08 79 bd af 26 9a 3d 82 b6 1e 3e
       -0.0051959916 -0.060798857 0.075269096 0.15499309
0002b0 a7 64 11 bd 68 d2 11 bd 30 0d 2a 3e 38 94 11 be
       -0.03549638 -0.03560105 0.16606593 -0.14216697
0002c0 55 e9 6d 3c 8f 60 c0 3d 71 aa 82 bd ee dc 08 3d
       0.014520963 0.09393417 -0.06380165 0.03341382
0002d0 ec 6c 6e 3c 70 4f 31 be 26 c3 97 3d 0f 0a b5 bd
       0.014552336 -0.17315459 0.074102685 -0.08839809
0002e0 c8 6f b6 bd 5a ca 7f bd e7 b3 55 3d 51 55 d8 3c
       -0.08908039 -0.062448837 0.05217352 0.02640787
0002f0 7a 90 64 3c 4e 66 84 bc 38 c3 e3 bd c3 37 13 3d
       0.0139504615 -0.016162064 -0.111212194 0.03594185
000300 f2 63 02 3d 2b 8f d4 3d 2c c2 92 3d 42 1c e1 3c
       0.031833597 0.103788696 0.071659416 0.027479295
000310 dc 51 cd 3c 15 b3 92 3d 3c 17 19 bd b8 5f 5c bb
       0.025063448 0.071630634 -0.037375674 -0.0033626389
000320 79 b5 ae bd 95 51 c2 3d d5 2d 02 be 2a a4 c5 3d
       -0.08530707 0.09488217 -0.12712796 0.096504524
000330 f4 51 e6 ba 0b d2 e3 3d 52 d8 bd bd 57 b2 b6 3d
       -0.0017572031 0.11124047 -0.092697755 0.089207344
000340 b8 e3 ee bd dd d0 df bc 95 1e c4 3d ff a7 dc bd
       -0.11664528 -0.027321273 0.095761456 -0.1077423
000350 9d cf e6 bb 63 d1 d7 bd eb ae 01 3d 9a 04 a6 bd
       -0.0070437924 -0.10537984 0.031660955 -0.081063464
000360 28 7e d6 bd ed 58 c7 bd 95 68 9f bd 85 1f fb 3d
       -0.10473281 -0.09733758 -0.07783619 0.12261871
000370 f1 b8 98 3d f8 2d bd 3d e4 91 f4 bd fb 9c 90 3b
       0.0745715 0.092372835 -0.11941889 0.004413245
000380 7b e5 e7 3c 25 a2 dd bd 10 42 89 3c f8 f3 d2 bd
       0.028307667 -0.10821942 0.016755134 -0.103004396
000390 e1 ff 2e 3a d0 fa 8e bd 9d 77 18 3b 58 c0 f2 bd
       0.0006675702 -0.069814324 0.0023264654 -0.11853093
0003a0 f2 51 06 be 99 f0 1c bd 5b 7a f5 bd 06 db fe 3d
       -0.13117197 -0.03831539 -0.11986228 0.12444119
0003b0 db ba aa 3d 46 38 a7 bd 0a 5d f4 bc d6 e3 97 3d
       0.08336421 -0.0816503 -0.02982952 0.07416503
0003c0 eb e3 b1 3d a4 bf 3a 3d 8d 4f d1 bc 3b 7b ac bc
       0.0868605 0.04559292 -0.025550628 -0.021054855
0003d0 68 9b ac bd fb 59 a9 bb 9b c6 45 ba a6 76 0c 3d
       -0.08428079 -0.005168197 -0.0007544548 0.03429284
0003e0 84 6c ae 3d 30 50 d6 bd e0 23 6b 3c 17 44 4d 3d
       0.085167915 -0.10464513 0.014351815 0.050113764
0003f0 e9 ba 6d 3c 3a 86 0b bd a9 cd f7 bd fd cb 79 3d
       0.014509895 -0.034063555 -0.120997734 0.060985554

encoder.message_net.1.0.bias f4 [64]
000000 c5 67 3e bd db 34 93 3d e1 32 c2 3d 67 b6 e2 3d
       -0.04648568 0.07187816 0.09482361 0.11069947
000010 bf 83 86 3d b5 a6 df 3c bb 55 0a be dd ce 13 3d
       0.06568097 0.027301172 -0.13509266 0.036085952
000020 90 9f 8f 3d 74 60 47 bc 2b a6 ed 3b 24 7b 9c bc
       0.07012856 -0.012168992 0.007252475 -0.019101687
000030 db f4 a0 3d 4e 2a 45 bb 23 3b 3b bd 8c 7b 00 3c
       0.078592025 -0.003008503 -0.045710694 0.007841956
000040 f7 72 53 3d ba f3 ac bd 7d 3b ae 3d 1b 69 5c bc
       0.05162331 -0.08444925 0.0850744 -0.0134527935
000050 9f 29 91 bd 19 e3 b0 3d 1b 65 a6 bc 1a 4b 34 bd
       -0.07088017 0.086370654 -0.020311883 -0.044016935
000060 c3 a9 e3 3d 7c 68 b1 bc 05 7e a3 3d 33 e5 02 bd
       0.11116364 -0.021656267 0.07983021 -0.031956863
000070 91 55 04 bd 2e 4b d3 3d 6c fd 56 3d 22 04 ea 3c
       -0.032308165 0.10317074 0.052487776 0.028566424
000080 a6 d1 12 3d 86 82 19 3d 8a 06 f1 bc 03 04 cc bd
       0.035844468 0.037477992 -0.029422063 -0.09961703
000090 3b 25 1f bd b5 35 ce 3c f1 5f 05 be 2e 98 dc 3d
       -0.038853865 0.025172094 -0.1302488 0.107712135
0000a0 41 d4 05 bd 0d 42 f4 bb 72 0a 83 3c 96 08 e9 bd
       -0.032673124 -0.007454163 0.015996192 -0.11378591
0000b0 a5 31 f6 3c 9a 90 e6 3b 8a 35 97 3d 8e f4 b4 bc
       0.03005297 0.007036281 0.07383259 -0.022089269
0000c0 51 03 9f 3d 21 43 a8 bc 41 d1 92 bc b3 89 12 3e
       0.077643044 -0.020539822 -0.017922046 0.1431034
0000d0 f8 23 86 bd 67 81 b5 bd e2 25 09 3d fb 00 f6 3d
       -0.06549829 -0.08862572 0.033483393 0.12011906
0000e0 2a b2 d3 bd 0f 62 d8 bd b4 c3 cf bd 60 fd da 3d
       -0.103367165 -0.10565578 -0.10144749 0.10692859
0000f0 5a 37 9a bd 9d 99 07 be 99 75 fb 3d 74 27 f6 3d
       -0.07530089 -0.13242193 0.12278289 0.12019244

encoder.message_net.2.0.weight f4 [64, 64]
000000 70 b6 0a bd d4 39 c3 3d 04 a4 52 3d b0 f7 d9 bc
       -0.033865392 0.09532514 0.05142595 -0.026607364
000010 02 77 cf bd f4 04 dc bd e0 c4 64 3c 74 78 a1 bd
       -0.10130121 -0.10743132 0.013962954 -0.07884303
000020 f8 89 90 bc 2c b3 21 bd 38 2d 46 bd 28 75 fa 3d
       -0.017643914 -0.039477512 -0.048382968 0.12229377
000030 78 70 41 3d f2 00 99 3d 80 12 a0 3c bc c9 ba bd
       0.0472264 0.074708834 0.019540071 -0.09120509
000040 64 1d 7e bd 10 61 68 3d 50 a7 27 bc 1c a5 a7 3d
       -0.062039748 0.05673319 -0.0102327615 0.08185789
000050 96 54 8d bd 28 89 63 bd 84 d2 bb bd c2 82 cc bd
       -0.06900899 -0.055550724 -0.09171012 -0.099858776
000060 ae f4 a7 3d 7e db 8f 3d da c8 9b 3d 00 94 d7 3a
       0.08200966 0.07024287 0.07606669 0.0016447306
000070 96 46 9a 3d f8 a2 1b bd 10 bc a7 3d 96 23 e0 bd
       0.075329944 -0.037997216 0.08190167 -0.109442875
000080 70 e9 e2 bc 72 71 a7 bd a2 49 a1 bd 80 bc 2b 3b
       -0.027699202 -0.08175935 -0.078753725 0.0026204884
000090 ec 51 49 bd 80 b3 97 3c bc 10 7c 3d 00 af dd bc
       -0.049150392 0.01851821 0.061539397 -0.027060986
0000a0 56 0a b8 bd 26 d7 dd bd 60 a9 a0 3b 34 cd 48 3d
       -0.089863464 -0.10832052 0.0049030036 0.049023822
0000b0 d8 0e ac 3d c8 a2 26 3d 78 a2 80 bd b0 e9 ac 3c
       0.08401269 0.040682584 -0.062809885 0.021107525
0000c0 9c 8e ce 3d b8 ce 0e bd 98 7a 6c 3d 46 bd 8c 3d
       0.10085794 -0.03486511 0.057734102 0.068720385
0000d0 c8 36 af bd 0e f5 cc bd f2 ae ca bd e4 5e b5 3d
       -0.085553706 -0.10007678 -0.098966494 0.088559896
0000e0 90 df 5e bc 5a 33 f7 bd dc 22 78 bd 22 62 ea 3d
       -0.013603106 -0.120703414 -0.06058012 0.114444986
0000f0 a0 20 2c bd b8 f2 ab bc a0 e5 50 3d 4c 87 b2 bd
       -0.0420233 -0.02098976 0.051000237 -0.08717212
000100 ae bc 39 3c 3b 82 b7 bd 8d 09 7b 3d e7 97 20 bd
       0.011336489 -0.08960386 0.061288405 -0.039207365
000110 9b c0 97 bd 04 25 41 bc 58 48 f8 bd b6 ba 5e bd
       -0.074097835 -0.01178861 -0.121231735 -0.05437728
000120 1e 10 1f 3e 74 2a 1f 3d ea 34 60 bd 20 a3 83 bd
       0.15533492 0.038858846 -0.054737963 -0.06427598
000130 fb 39 32 3d 4c 7f 90 3d 1d 74 5e bc 70 75 8b 3d
       0.043512326 0.0705553 -0.013577488 0.06809509
000140 d3 28 83 3d 1e 73 30 3d 91 86 81 bd 89 99 f0 bd
       0.06404271 0.043078534 -0.06324495 -0.117480345
000150 15 c8 05 be 4a 3b 9a 3d b0 1b a0 3d ea cf a2 bc
       -0.13064606 0.0753084 0.07817781 -0.019874532
000160 5c ee 29 3d 9b 59 90 bd 3d fe f9 3d 0a 8d 95 3d
       0.041487083 -0.07048341 0.12206695 0.07302292
000170 56 58 46 3c c2 8d 0d 3c ea 94 28 bc 44 c2 96 3d
       0.012106022 0.008639755 -0.01028941 0.07361272
000180 e1 4e eb 3c 71 54 f6 bd 85 7c d1 3c 0a 74 87 3d
       0.028724136 -0.12027825 0.02557207 0.066139296
000190 4c 40 90 3d 44 f7 ce bd 96 45 d5 bd fe 17 78 bd
       0.07043514 -0.10105756 -0.10413663 -0.060569756
0001a0 cd 9f 22 bd 62 d6 8f 3d 83 5c 90 bd 3a fa d5 bb
       -0.03970318 0.07023312 -0.07048895 -0.0065300735
0001b0 24 92 99 bd ed ff 3e 3d 17 f2 d5 bd db a0 c3 3d
       -0.07498577 0.04663079 -0.104465656 0.09552165
0001c0 26 b2 8d bd 16 9d b7 3c 93 f5 f7 bc 64 60 bb 3c
       -0.06918745 0.022413772 -0.030268466 0.022873111
0001d0 e3 bb 10 3e 4b 07 85 bc 91 40 84 3d ac ca 3f bd
       0.14134173 -0.01623883 0.064576276 -0.046824142
0001e0 99 9b ce 3d b3 f1 a8 bd 5d c8 0c 3e b8 37 3f 3d
       0.10088272 -0.082492255 0.13748308 0.046683997
0001f0 f8 0f 2c 3b 8c c3 ec bc d5 ef e1 3d 1a ed 41 3d
       0.0026254635 -0.028901838 0.110320725 0.04734526
000200 18 8a 01 3d 81 a6 12 3d b8 38 00 be e4 7c 84 3c
       0.031625837 0.03580332 -0.12521636 0.016172834
000210 48 9e 07 3e 34 c1 23 3d 26 ef 3a bd 72 cf e2 3c
       0.13243973 0.039979175 -0.045638226 0.027686808
000220 b6 95 94 3d 9d 13 98 3d f7 e6 74 bd 29 01 fd bc
       0.072551176 0.07425616 -0.059790578 -0.030884342
000230 0c 68 3e 3d 4f 0c a3 3d 4e ca f5 bd ef 47 e8 bc
       0.046485946 0.07961332 -0.12001477 -0.028354613
000240 79 c7 5b 3d 72 82 b6 bd 2a dd 02 be 49 a7 b1 bc
       0.05365703 -0.08911599 -0.1277968 -0.021686213
000250 4a 76 bc bd 13 92 30 3d 92 57 44 3d 74 77 98 bd
       -0.09202249 0.043108057 0.047935076 -0.07444659
000260 1f d6 05 be 05 20 28 3b 01 68 f7 3c 3a ed 77 bb
       -0.13069962 0.002565385 0.03020096 -0.0037830607
000270 0c cf e4 3d 01 4b 66 bd 98 79 06 3d 4d 63 e3 bc
       0.111723036 -0.056223873 0.032830805 -0.027757311
000280 61 f7 a6 3d 5d 94 63 3d a2 d5 dd bd 4a c3 b6 bb
       0.081526525 0.055561412 -0.10831763 -0.0055774795
000290 f1 90 55 3d c4 eb 92 bd 71 a7 f0 3d 43 14 dc bc
       0.05214018 -0.07173875 0.11750687 -0.02686513
0002a0 ae 22 94 bd 1d ce da bd ee bf e8 3c 4e 08 98 bd
       -0.07233177 -0.10683844 0.028411832 -0.07423459
0002b0 0f 06 b0 3c 08 af ac 3d 8d 42 77 bd 3b 4f b6 3d
       0.021487264 0.08431822 -0.060366202 0.08901831
0002c0 ec 7e a5 bc 67 b4 a2 bd 80 25 c3 bc 7d 51 0e bc
       -0.020202123 -0.07944565 -0.023821592 -0.0086864205
0002d0 b8 15 b8 bd e0 98 f1 bd ac fb f2 3d e2 3f a4 3d
       -0.089885175 -0.11796737 0.11864409 0.08019997
0002e0 5f 16 07 3c d8 e1 8b bd 8b 26 ea 3b 58 64 1b bb
       0.00824508 -0.06830186 0.007145708 -0.0023710933
0002f0 53 ce 10 be 1b fb 4c bd da 87 ee bc 63 47 d4 3d
       -0.14141206 -0.05004416 -0.029117513 0.103651784
000300 20 b3 1c bd 98 28 de 3d b0 b7 da bd c0 dc 87 3c
       -0.038256764 0.108475864 -0.10679567 0.016584754
000310 08 fb 2e bd 80 81 a1 3d 90 5b 10 3d d4 66 80 3d
       -0.04271987 0.07886028 0.03524357 0.06269613
000320 ae 04 ca bd 40 02 25 3c 00 a4 d0 bb f8 60 75 3d
       -0.09864174 0.010071337 -0.0063672066 0.05990693
000330 78 ad fc 3c fc 5d e7 3d 10 80 ca bd 60 d0 86 3c
       0.030844435 0.11297223 -0.09887707 0.016456783
000340 04 12 e6 bd 3e 25 e9 bd 30 44 ed bd 78 f1 7c bd
       -0.11233905 -0.113840565 -0.11585271 -0.06175372
000350 c8 ae e0 3d 4a 69 f9 3d c0 8f 10 bd 30 e9 1a bd
       0.10970837 0.121782854 -0.03529334 -0.03782004
000360 b4 a1 a0 bd 82 be a3 3d 68 ec 97 bd f2 a1 a6 3d
       -0.078433424 0.07995321 -0.07418138 0.08136357
000370 70 84 38 bc 58 c3 fc bc 34 2d 2d 3d 16 9b b5 3d
       -0.011262044 -0.030854866 0.042279437 0.08867471
000380 d8 8a 5e bd f0 fc 89 3d d0 ab 12 bd 1e 10 87 bd
       -0.05433163 0.06737697 -0.035808384 -0.06594871
000390 e8 50 6b 3d 7e 82 f1 bd e8 f5 ec bc 78 bc a2 3d
       0.057450205 -0.117924675 -0.028925851 0.07946104
0003a0 76 e9 db bd cc 9b 17 3d 30 41 a8 3d 60 2b 0f bd
       -0.107378885 0.037013814 0.082155585 -0.034953475
0003b0 30 ae 38 bd fa 46 c4 3d a0 89 a5 bc 44 d1 87 bd
       -0.045087993 0.0958385 -0.020207226 -0.06631711
0003c0 74 7b ea 3d 28 24 a3 bd e6 a9 dd bd bc aa 8f bd
       0.11449328 -0.07965881 -0.10823421 -0.07014987
0003d0 68 b2 95 bd 00 e3 0f bd 3e 73 ab 3d 16 0d df 3d
       -0.07309419 -0.035128593 0.0837159 0.10891168
0003e0 68 67 d9 3d 80 de 8c 3d f0 69 57 bc b8 91 af bd
       0.10615426 0.06878376 -0.013147816 -0.085727155
0003f0 0a 05 97 3d 88 d3 b6 3c 08 1a b1 3d 9e 38 b9 3d
       0.07374008 0.022317663 0.08647543 0.09044002

encoder.message_net.2.0.bias f4 [64]
000000 24 8e f7 bd 40 23 9c 3d 30 ab 49 3a 1e ef e6 bd
       -0.12087658 0.07623911 0.00076930504 -0.11276077
000010 90 98 34 3d 06 4d c4 bd 31 fc 90 3d 97 64 e9 3d
       0.044090807 -0.095850036 0.07079352 0.11396139
000020 8f 6f 8e bb 3e ec c1 3d 87 38 e0 3d 00 43 82 3b
       -0.004346795 0.09468888 0.10948282 0.003975272
000030 6c 4b ab bb 6b 4b c7 bd 5e 29 ed 3a d6 d4 9f 3c
       -0.005227497 -0.09731182 0.0018093993 0.019510668
000040 7b 2f e9 bd e9 ac 8a 3d 3f 43 98 bd c8 ba 9e 3d
       -0.11386009 0.06771261 -0.07434701 0.077504694
000050 b5 ff 6d 3d af 6b 3f 3d ba 95 83 bb 42 5f f9 bd
       0.05810519 0.046733554 -0.0040156515 -0.12176372
000060 24 02 ba 3c e6 35 82 3d 70 4a c1 3d c5 37 f9 bd
       0.022706099 0.063579366 0.09438026 -0.1216884
000070 1b a4 51 3d 4f 9f 7f 3d 00 f5 3d bd 51 66 73 bd
       0.051181894 0.062407788 -0.04637623 -0.05942375
000080 ca cd 86 3d 64 41 dc 3c 7c ba c5 bd 9f be 97 3d
       0.0658222 0.02688665 -0.0965471 0.07409405
000090 00 77 5b 3b 09 f3 aa 3d e0 4f e8 bd 61 43 c3 3c
       0.0033487678 0.083471365 -0.1134336 0.02383584
0000a0 5b f6 ef 3c 9f be db 3d cb 31 95 3d 9c 5c d2 3d
       0.029292276 0.107297175 0.07284888 0.1027157
0000b0 b2 36 9e 3d 22 75 3c bc 90 87 fe bd 6b d9 8f bd
       0.07725276 -0.011502536 -0.124282 -0.07023891
0000c0 56 d8 ec bd 3b c7 dc 3d 44 9a 71 3d e1 08 a9 bc
       -0.115647 0.10780188 0.05898501 -0.020634117
0000d0 83 0b 2a 3c 3f ea ad bd 0d e7 d3 bd 6f 22 6c bc
       0.010378721 -0.084919445 -0.10346804 -0.0144125065
0000e0 ea aa c1 bd 97 60 05 3d 72 33 c6 bd 72 66 fb bd
       -0.094564274 0.03256282 -0.09677781 -0.12275399
0000f0 d1 38 ab bd 4c bf 84 3c a3 d1 65 bd 48 ba a0 3d
       -0.08360446 0.016204499 -0.05610813 0.0784803

encoder.message_net.3.0.weight f4 [64, 64]
000000 a7 b0 89 3d c0 a5 00 3e 7b fd a1 3d c6 a3 d7 bc
       0.06723147 0.12563229 0.07909676 -0.02632321
000010 bf 69 a8 3d 0c 85 cc bd 58 0d c2 bd 27 57 52 bd
       0.082232945 -0.09986314 -0.09475201 -0.051352646
000020 15 9a 98 bd f1 23 4b 3d e0 f5 91 3d 4f ea 0c 3d
       -0.07451264 0.049594823 0.07126975 0.03440314
000030 a8 8c 3a 3d c0 51 51 bd 36 23 c7 bc b4 48 48 bd
       0.045544297 -0.051103354 -0.024308782 -0.04889746
000040 66 94 ef bd 39 1a ac 3d 2e 13 6c 3d 73 f2 7b bd
       -0.11698227 0.08403439 0.05763548 -0.061510514
000050 cb a3 cd bd b2 86 1c 3d 81 0c 2e bd 7b 01 98 bd
       -0.10041007 0.038214393 -0.042492393 -0.074221574
000060 7a e8 1e 3b e5 3a 15 bd 9e d5 31 3d bc 49 97 3b
       0.0024247454 -0.03643312 0.04341661 0.004616944
000070 91 62 b0 3d 5e 3d ec bd ba fb cd bd 35 03 ef 3d
       0.0861255 -0.11535142 -0.10057779 0.116705336
000080 2f c3 11 bd 30 19 ad 3d f1 ac bc 3d 54 d6 ef bb
       -0.035586532 0.0845207 0.092126735 -0.007319251
000090 0e 1d d4 bd 56 e5 ca bc b9 72 d5 bd 4e e1 71 bd
       -0.10357104 -0.024767559 -0.10422272 -0.059052758
0000a0 70 9d 06 3d 2e a6 ad bd 3c 88 57 bd c1 a0 d1 3d
       0.032864988 -0.08478962 -0.052620158 0.102357395
0000b0 cd 3c a2 3d 70 29 e3 3d 27 7b f9 bd ed e8 ca 3c
       0.07921753 0.11091888 -0.121816926 0.02476927
0000c0 aa 89 f8 bd 90 bb d3 3d 0b 0f d4 bc 3c 09 d7 bd
       -0.12135632 0.10338509 -0.02588608 -0.10499808
0000d0 ff cb e7 bc 78 d3 0b bc 25 a6 aa bd f4 9e 0c 3d
       -0.028295515 -0.008534305 -0.08332471 0.034331277
0000e0 02 08 e3 3d e8 25 7c bd cc e7 76 3d 47 d6 05 bd
       0.11085512 -0.061559588 0.060279652 -0.032675054
0000f0 6f 77 92 3d 70 c6 86 3d de 59 46 bd f0 3a ad 3d
       0.071516864 0.06580818 -0.048425548 0.08458507
000100 40 63 e1 3c 3f 33 c6 3d 84 52 ed 3c 04 30 e2 bd
       0.027513146 0.09677743 0.02897001 -0.110443145
000110 e1 fd d7 bd c5 9f 22 bc 1d f8 c2 3d 70 76 83 3c
       -0.105464704 -0.009925787 0.0951998 0.016047686
000120 39 fe ca 3d 9e 73 1b 3d 1e 9a 81 bd 0c f4 97 bd
       0.099117704 0.037952058 -0.06328224 -0.07419595
000130 f8 d5 36 3d fd 54 08 3e f2 54 fd bd 39 da 62 3d
       0.04463765 0.1331367 -0.12369718 0.055383895
000140 2c 8e e1 bb b5 07 79 bc 2b cc 38 bd 8f 64 cc bd
       -0.0068834033 -0.015199591 -0.045116585 -0.099801175
000150 43 c6 db bc 9f 44 db bd bc e4 50 bd 08 51 d7 3d
       -0.026827937 -0.10706448 -0.050999388 0.10513502
000160 a8 44 f8 bd 18 7a e7 3b 40 f3 ef bd bd 27 8d 3d
       -0.1212247 0.0070641153 -0.11716318 0.06892345
000170 a4 b9 99 3d 5d e9 01 be ba db d8 bb e8 d0 10 bd
       0.07506111 -0.12686677 -0.0066179903 -0.03535548
000180 99 66 bc 3c d2 a6 8c 3c 76 50 9e bc 5b 26 ef bc
       0.022998141 0.01716939 -0.019325476 -0.029193094
000190 37 bd 8c bc 28 88 0c 3e 7f 56 c5 bd e3 ed 95 3d
       -0.017180068 0.13723814 -0.096356384 0.07320764
0001a0 31 cf 9b 3d 54 d5 d7 3d d7 94 ee 3d 93 d6 b0 3d
       0.07607878 0.10538736 0.11649483 0.08634677
0001b0 ff 3c 45 3d 0d c0 b6 bd 04 a1 39 3d e8 f0 36 3d
       0.048153874 -0.089233495 0.045319572 0.04466334
0001c0 a8 22 7d 3d 28 e7 77 bc 80 72 ed 3c 13 d5 9e bc
       0.06180063 -0.015130796 0.028985262 -0.019388711
0001d0 55 c5 05 3d 80 fb b3 bd 00 74 b7 3d 95 4b d8 3c
       0.032658894 -0.08788204 0.08957672 0.026403228
0001e0 ea 8a 89 3d 6e 82 04 3e a6 61 cd 3d 37 47 ef bd
       0.06715949 0.1294038 0.100283906 -0.11683505
0001f0 75 d1 ed bb 09 8e 92 3d 44 91 0d 3e 7d 90 f9 3c
       -0.0072576352 0.07155997 0.13824946 0.030464405
000200 91 c9 98 3b 25 7b b1 3d 14 84 c2 3c 87 99 d7 bd
       0.0046627005 0.08666066 0.02374462 -0.1052733
000210 eb 99 5b bd 65 c4 b4 bd 0f f8 39 3d a6 fc 68 bd
       -0.053613584 -0.08826522 0.045402583 -0.05688157
000220 67 78 af 3c 1b e9 77 bd 29 6f 96 3b 81 cb 00 3e
       0.021419717 -0.06052504 0.004590888 0.1257763
000230 00 e8 04 3e d2 80 10 bc e4 31 38 bd d8 f8 7e 3c
       0.12979126 -0.008819776 -0.044969454 0.015562259
000240 f3 e6 d4 bd 4b 1e 15 3d 42 bd 16 bb a2 0a 18 3d
       -0.103956126 0.036405843 -0.002300099 0.037119515
000250 c1 98 d0 bd 14 23 96 bd f6 cd db bd 38 de 00 be
       -0.101853855 -0.07330909 -0.10732643 -0.1258477
000260 13 25 52 bd 31 46 81 bc 38 ca 48 bc 32 0b a0 3c
       -0.051304888 -0.01578054 -0.012255244 0.019536588
000270 45 3e 02 3e c4 7a e4 3c 82 3a a8 3d 51 3b c0 bd
       0.12719066 0.02789057 0.082142845 -0.09386314
000280 7a 1f 0b 3d bd 29 9c bd a7 ee bf 3d af 93 9a 3c
       0.033965565 -0.076251484 0.09371691 0.01886925
000290 a8 fd fb bd f7 aa 25 bb d1 37 9e 3d a0 31 6a bd
       -0.123042405 -0.0025278905 0.0772549 -0.057176232
0002a0 0d 58 89 bd b9 42 b4 bc a4 ea 91 3d b3 33 92 bd
       -0.067062475 -0.022004472 0.07124832 -0.07138767
0002b0 ce 1b d6 bd fd 68 d3 3b 22 0e 15 3d 64 36 ce 3d
       -0.10454522 0.0064517246 0.03639043 0.10068968
0002c0 58 d9 a5 bd 73 5e f5 3b 48 17 1f bd 92 6c 1d bd
       -0.08098096 0.007488066 -0.038840562 -0.03843362
0002d0 da 07 01 3e a3 3c de 3d b6 28 e3 bd 3b 56 a9 bd
       0.12600651 0.10851409 -0.11091749 -0.082684
0002e0 d1 23 09 be d0 94 f5 3c b3 d0 d2 bb 65 d9 9b bd
       -0.13392569 0.029978186 -0.0064335703 -0.07609824
0002f0 9f 2d 37 bd 76 70 40 3b 89 2e cd 3d ae c3 3c bd
       -0.044721242 0.0029363907 0.100186415 -0.046085052
000300 e1 78 9e 3b bd 59 c5 bc 5d 38 ac 3d 74 a7 1b 3d
       0.004836187 -0.024090642 0.08409188 0.038001493
000310 96 eb 07 bd 7c ea 00 bd 1a 80 55 bb ae 5f b0 3c
       -0.033183657 -0.03147362 -0.0032577575 0.021529999
000320 ae 21 1c 3e 13 f4 0b bd 0c 35 99 3d 0d 37 74 bd
       0.15247223 -0.034168314 0.07480821 -0.059622813
000330 cc eb a3 3d 4b 95 cc bc b5 f2 ea bd 23 59 50 bd
       0.08003959 -0.024973532 -0.11472074 -0.050866257
000340 d7 d3 fd 3d 97 c1 97 3d 0c 55 a5 bd 54 a2 77 3d
       0.12393921 0.07409971 -0.08072862 0.060457543
000350 87 3f 08 3d 1e a3 db bd f2 6a 7a 3d d6 21 1f bd
       0.03326371 -0.107244715 0.061137147 -0.038850628
000360 01 99 8c bc ad b4 60 3d 89 89 bb bd c1 c0 8e bd
       -0.017162802 0.054859806 -0.09157092 -0.06970359
000370 82 2a f0 bc a1 39 ab 3d 20 fb c0 3d b3 28 ac bc
       -0.029317144 0.08360601 0.09422898 -0.0210155
000380 bd f3 46 3d d0 5f 47 3d 43 6d 78 3d 12 1c 07 3e
       0.04857229 0.04867536 0.060651075 0.13194302
000390 b9 65 16 3d ef 2c 59 3c 09 87 0a bd de 78 c1 3d
       0.036718104 0.013255342 -0.033820186 0.09446882
0003a0 0b ef a3 bd 6b 98 af bd 36 ea 67 bd dc ed 8a 3d
       -0.08004578 -0.08573993 -0.056619845 0.06783649
0003b0 f5 32 4a bd 2a bb b6 3d d4 5b 55 3c a6 ee 07 3e
       -0.049365003 0.089224175 0.013022382 0.13274631
0003c0 8e a5 a5 bd 59 ae da bd f1 fe d3 3a a9 28 dd 3d
       -0.08088218 -0.106777854 0.0016174001 0.10798771
0003d0 79 33 af bd 3c 0d 99 3c 1e 10 bc bd e0 5a 58 bd
       -0.085547395 0.018683068 -0.091827616 -0.05282104
0003e0 cd c2 b8 3d 41 8f ae 3d dd 97 f3 3c 3c bd af bd
       0.0902153 0.08523417 0.0297355 -0.085810155
0003f0 73 c1 f5 bd 9e 71 f8 3c b7 36 a9 bd ab ab 6b 3c
       -0.11999788 0.030327614 -0.08262389 0.014384191

encoder.message_net.3.0.bias f4 [64]
000000 3c e7 e2 bd e2 b5 e5 3d e1 16 c3 3d 19 27 fa bd
       -0.11079261 0.11216332 0.09525848 -0.122144885
000010 5d fb 91 bd 5d a6 0c bd b6 31 a2 bd 6c 70 ad 3d
       -0.07128022 -0.034338344 -0.07919638 0.084687084
000020 4a 6b 96 3d 22 5e 9f 3d a6 38 4c bd 65 bf 6e 3d
       0.073446825 0.07781626 -0.04985871 0.058287997
000030 88 ea f8 bc 21 45 67 bc 5e 77 86 bd a1 77 98 3d
       -0.03038527 -0.014115603 -0.06565736 0.074446924
000040 df 1b 90 bd 7f 61 a7 bd 1e bf 96 bd a6 6f 01 be
       -0.07036566 -0.08172893 -0.073606715 -0.12640247
000050 5e c6 06 be 32 1a 9a bd 33 e6 54 3d d6 47 ce bd
       -0.13161609 -0.075245276 0.051977348 -0.10072295
000060 fb 0b 32 bc 70 87 e3 b9 f9 3f 64 bc fa fb a1 3d
       -0.010867114 -0.00043397723 -0.013931268 0.07909389
000070 ba c5 44 3d 9d db 2e bd 78 f0 f6 bd a1 24 56 3d
       0.04804013 -0.04268991 -0.120575845 0.052281026
000080 c1 f2 59 bd 7c 99 d9 3c b8 4c 14 bd 57 62 b4 3c
       -0.053210024 0.026562445 -0.036205977 0.022019548
000090 0c 85 35 3c f4 2f 07 bc e7 39 a6 3d f0 81 bc 3d
       0.011079084 -0.008251179 0.08116513 0.09204471
0000a0 97 dc da bd 60 58 76 bd 18 e3 1e bd 81 13 93 3d
       -0.106866054 -0.060142875 -0.038790792 0.071814544
0000b0 65 b4 4f bd 03 27 c8 3d 2a 89 02 3d f4 90 86 bd
       -0.050709147 0.09773066 0.03186909 -0.06570616
0000c0 fc 2b dd bd 75 6a 09 3e 98 cb 5d bd 06 96 03 bd
       -0.10799405 0.13419516 -0.05414924 -0.032125495
0000d0 f6 58 c9 3d d2 2a d8 bd 3e cb a3 3d 95 c0 f4 bd
       0.09831421 -0.10555042 0.0799775 -0.119507946
0000e0 20 ee a5 bc b0 66 bc bd f9 89 8f bb 5d cb 86 3c
       -0.020255148 -0.091992736 -0.0043804613 0.016454393
0000f0 b3 12 d2 3d 40 de 6d bd 2c 65 9d 3d 79 6b eb 3d
       0.10257473 -0.058073282 0.07685313 0.11495108
