experiments/gnn_hd64_ld32_nr5_ep100/model.pt (torch, 218065 bytes, 24 tensors)

encoder.input_net.0.weight f4 [64, 7]
0.050126325 0.06358908 -0.30576575 -0.35371193 -0.13255177 -0.15052298 -0.055213712 0.25621328
0.20064223 -0.370951 -0.22792138 0.28585002 0.083281234 -0.044025164 0.18173641 -0.2896146
0.35806727 0.23410593 0.11644832 0.22896948 -0.32067883 -0.35429478 -0.2579963 -0.36303425
0.1722823 0.022901313 0.023778034 -0.097048625 0.02637134 -0.21220256 -0.1402305 0.31007823
-0.24821576 -0.3133053 -0.14449519 0.09583658 -0.30419204 -0.20309132 0.15793276 0.019289525
-0.00016621522 -0.37644628 0.115934566 -0.16048723 -0.14598396 -0.2916085 -0.28486818 -0.2782723
0.014356278 -0.3567154 0.124302015 0.07339029 0.022719374 -0.054169726 -0.0067083347 -0.11423153
-0.01990302 0.32630056 -0.07679133 0.10853052 1.6355645e-05 -0.19543415 -0.070068985 0.11161611
0.29879805 0.34165233 -0.13534653 0.13876924 0.27746403 0.15616566 0.18669236 0.23496719
0.13572037 0.15106705 -0.20113872 -0.29270902 0.27814925 -0.34235904 0.05757314 0.16012235
0.005024907 -0.18023989 0.1156752 -0.112823 0.22907625 -0.095603704 0.13204475 -0.14540814
-0.043842997 0.020779636 0.18689607 0.11083447 0.3160608 0.17910196 -0.2509819 0.13996913
0.029661557 -0.2732638 0.07673421 0.06213517 0.17739244 0.1405844 0.06101957 -0.22204961
0.14614432 0.052967876 0.07932262 0.13648687 0.20161566 -0.059295163 0.2103306 -0.21859573
-0.1298299 0.11991261 -0.110103235 -0.096871875 -0.20207058 -0.054753657 -0.04883805 -0.005627739
0.09847662 -0.08642454 0.03273013 0.035420258 0.11035991 0.11116687 0.123968385 -0.36692104
-0.17088914 -0.11117947 -0.33582848 -0.23447855 0.06792197 0.39649183 0.25583997 -0.13035057
-0.22760066 0.13090456 -0.31110245 -0.11532884 -0.28589812 0.26474464 -0.2228396 0.35680622
0.22340606 0.219557 0.2408665 -0.1358021 -0.08666105 0.019078 0.18346727 0.058796443
0.083432294 0.1369694 -0.12409067 0.16023037 0.19251867 0.00501825 0.10241193 0.12861365
0.34338364 -0.352742 0.1993148 -0.13763668 0.13772947 0.050687823 0.15587412 0.31422618
-0.34084356 -0.052861374 -0.2233953 0.12247101 0.07501772 -0.1113399 0.07771246 -0.06733458
0.06095902 -0.33932534 0.173892 0.07951992 -0.017818712 0.1226395 0.11964603 0.025652654
-0.30417392 -0.090603426 0.03261441 -0.3630745 0.05103677 -0.14836495 -0.19187973 0.034661803
-0.31892055 -0.2285074 0.056496527 0.0027877716 -0.004590485 0.11568867 0.21727741 -0.3660208
-0.07456931 0.013798713 0.036299538 0.2920804 0.04743061 -0.13231713 -0.17653722 0.011547221
0.08720003 -0.29929605 -0.3164722 0.009102357 0.21282053 0.18705651 0.030647451 0.11638892
-0.13824382 -0.09947081 -0.23495543 0.21288767 -0.36806443 -0.33578312 0.11000136 -0.33409992
0.3529446 0.1342183 0.24020956 -0.09908976 -0.35155603 0.06872827 -0.25422055 0.26946765
-0.11485258 -0.28503966 -0.36692026 0.009434519 0.10712347 -0.15031926 0.016886417 -0.09803678
-0.3335701 -0.19971895 -0.029020913 0.014036235 -0.03850649 0.24408445 -0.23565264 -0.101931766
0.09192274 0.16593646 0.23869812 -0.26724946 -0.24206775 0.17709301 0.02648024 -0.04809312
00000000: 4351 4d3d fe3a 823d 548d 9cbe bb19 b5be
00000010: a7bb 07be b222 1abe c627 62bd 632e 833e
00000020: 2875 4d3e 4aed bdbe 3964 69be ef5a 923e
00000030: 5a8f aa3d bb53 34bd 1c19 3a3e 5d48 94be
00000040: 9854 b73e 77b9 6f3e 757c ee3d fa76 6a3e
00000050: 0430 a4be 2066 b5be 1718 84be a0df b9be
00000060: c56a 303e 899b bb3c 27ca c23c 6ec1 c6bd
00000070: b508 d83c a14b 59be 9698 0fbe 93c2 9e3e
00000080: 462c 7ebe 8d69 a0be 8cf6 13be f845 c43d
00000090: 0fbf 9bbe 2cf7 4fbe 20b9 213e 1105 9e3c
000000a0: 0f4a 2eb9 91bd c0be 1a6f ed3d c456 24be
000000b0: d27c 15be b64d 95be 3eda 91be b579 8ebe
000000c0: 9836 6b3c 67a3 b6be 0e92 fe3d a64d 963d
000000d0: fb1d ba3c 13e1 5dbd 97d1 dbbb 38f2 e9bd
000000e0: a80b a3bc de10 a73e c644 9dbd 4045 de3d
000000f0: 7b33 8937 e41f 48be 5480 8fbd fd96 e43d
00000100: 0ffc 983e 0eed ae3e 4898 0abe 8619 0e3e
00000110: c40f 8e3e e4e9 1f3e 482c 3f3e 3d9b 703e
00000120: 48fa 0a3e 52b1 1a3e 4ff7 4dbe f5dd 95be
00000130: 9469 8e3e af49 afbe d0d1 6b3d 1df7 233e
00000140: faa7 a43b ce90 38be 1fe7 ec3d bf0f e7bd
00000150: f792 6a3e e0cb c3bd bd36 073e dfe5 14be
00000160: b794 33bd 0e3a aa3c af61 3f3e 2ffd e23d
00000170: b9d2 a13e 8166 373e b380 80be 1154 0f3e
00000180: cbfc f23c 3ce9 8bbe d326 9d3d 7381 7e3d
00000190: 5da6 353e 5bf5 0f3e a8ef 793d f960 63be
000001a0: dba6 153e d8f4 583d e673 a23d 37c3 0b3e
000001b0: 5674 4e3e 7cdf 72bd e860 573e 8fd7 5fbe
000001c0: 21f2 04be be94 f53d ce7d e1bd c364 c6bd
000001d0: 97eb 4ebe 5f45 60bd 680a 48bd e568 b8bb
000001e0: 1cae c93d 59ff b0bd 0710 063d d514 113d
000001f0: 6004 e23d 75ab e33d 23e3 fd3d 13dd bbbe
00000200: 90fd 2ebe 10b2 e3bd b6f1 abbe 251b 70be
00000210: ac1a 8b3d fa00 cb3e 75fd 823e 9f7a 05be
00000220: 2610 69be d80b 063e d248 9fbe 8731 ecbd
00000230: 3d61 92be 9c8c 873e 1030 64be 4eaf b63e
00000240: 8fc4 643e 8dd3 603e b5a5 763e b50f 0bbe
00000250: 597b b1bd 7749 9c3c d8de 3b3e 8ad4 703d
00000260: 8dde aa3d b541 0c3e 4023 febd 6e13 243e
00000270: 9d23 453e 2270 a43b 59bd d13d 4cb3 033e
00000280: fbcf af3e 999a b4be 2e19 4c3e a1f0 0cbe
00000290: f408 0d3e 099e 4f3d 779d 1f3e 41e2 a03e
000002a0: 0c83 aebe 2b85 58bd bdc1 64be 15d2 fa3d
000002b0: e4a2 993d 2c06 e4bd b627 9f3d b6e6 89bd
000002c0: 2ab0 793d 0dbc adbe bf10 323e 57db a23d
000002d0: 8cf8 91bc 6b2a fb3d fa08 f53d 8425 d23c
000002e0: afbc 9bbe 4a8e b9bd b096 053d e7e4 b9be
000002f0: ef0b 513d fbec 17be 1f7c 44be 89f9 0d3d
00000300: 8e49 a3be d8fd 69be e768 673d 0cb3 363b
00000310: c76b 96bb 2eee ec3d f87d 5e3e 1467 bbbe
00000320: cbb7 98bd ff13 623c d3ae 143d 908b 953e
00000330: 9946 423d 247e 07be 2cc6 34be 8e30 3d3c
00000340: ee95 b23d 553d 99be a508 a2be 0d22 153c
00000350: a0ed 593e be8b 3f3e 5d10 fb3c 505d ee3d
00000360: ca8f 0dbe 5ab7 cbbd 2898 70be 3aff 593e
00000370: f172 bcbe c4eb abbe 6548 e13d 250f abbe
00000380: 28b5 b43e 8670 093e 7ff9 753e 92ef cabd
00000390: 27ff b3be 68c1 8c3d 3229 82be aaf7 893e
000003a0: d437 ebbd b8f0 91be f9dc bbbe 3e93 1a3c
000003b0: 8d63 db3d 4bed 19be 6255 8a3c 82c7 c8bd
000003c0: b3c9 aabe 2083 4cbe 44bd edbc 3df8 653c
000003d0: fbb8 1dbd 46f1 793e ed4e 71be 9ac1 d0bd
000003e0: fd41 bc3d 3feb 293e 486d 743e ecd4 88be
000003f0: 9ce0 77be df57 353e 17ed d83c 4bfd 44bd

encoder.input_net.0.bias f4 [64]
0.25258005 -0.09747217 -0.30210063 0.31100872 -0.23791502 0.24723192 0.106141314 0.13032307
-0.20883387 0.3032045 -0.3462477 0.084945574 -0.049889516 0.13953486 0.1797818 0.004934097
-0.15159895 -0.04683749 0.07609507 -0.32005358 0.12093689 0.34023514 0.1710328 0.25974938
0.18940261 0.31421384 0.17565659 0.23921673 -0.052254215 -0.050310265 0.23860429 0.31916252
-0.31797642 0.16982193 0.2783382 -0.33891538 -0.19857012 -0.026002469 0.26476818 -0.15889828
0.04515481 -0.20421395 -0.1284806 -0.25894514 -0.23395896 -0.34776852 -0.06842401 0.27010393
-0.18529671 -0.25601515 0.10641901 0.08671247 -0.17560041 0.32979915 -0.33811423 -0.007526406
-0.11023885 0.22241151 0.057772785 0.087911166 0.15618356 -0.19428605 0.33907533 -0.14044465
00000000: 2c52 813e 7d9f c7bd efac 9abe 893c 9f3e
00000010: ff9f 73be 5d2a 7d3e 9e60 d93d 6973 053e
00000020: 8cd8 55be 9f3d 9b3e 6147 b1be f2f7 ad3d
00000030: f358 4cbd 3ae2 0e3e b818 383e 35ae a13b
00000040: c13c 1bbe abd8 3fbd bbd7 9b3d 10de a3be
00000050: c3ad f73d 4d33 ae3e 3923 2f3e dffd 843e
00000060: c2f2 413e a3e0 a03e 52df 333e 3bf5 743e
00000070: 8408 56bd 2312 4ebd af54 743e 4569 a33e
00000080: cecd a2be cde5 2d3e 5882 8e3e 5186 adbe
00000090: f755 4bbe 2103 d5bc b28f 873e 3bb6 22be
000000a0: 40f4 383d 761d 51be 6b90 03be 7594 84be
000000b0: f092 6fbe b70e b2be e321 8cbd 104b 8a3e
000000c0: 6cbe 3dbe 6b14 83be 36f2 d93d 4f96 b13d
000000d0: 98d0 33be 6fdb a83e 4f1d adbe 12a0 f6bb
000000e0: e8c4 e1bd d8bf 633e 28a3 6c3d c50a b43d
000000f0: 95ee 1f3e ecf2 46be 489b ad3e b9d0 0fbe

encoder.message_net.0.0.weight f4 [64, 64]
-0.058113646 -0.0053625405 0.08908534 0.062409874 -0.08218511 -0.043998685 0.012854291 0.0680838
-0.04131636 -0.12827228 0.01849167 -0.10446757 -0.104453444 -0.08405776 0.037034452 0.047017068
-0.09963362 -0.08709497 0.11072928 0.11259787 -0.13417713 -0.010831858 -0.12746628 0.006885457
0.0060581914 0.11389945 0.03573206 0.060092177 0.09846055 0.11782992 0.08122958 -0.042035833
0.0061451048 -0.05796063 -0.007963955 0.011605769 -0.009158656 0.079751976 -0.024971364 0.015835522
-0.09674889 0.09578216 -0.0054350398 -0.028081244 -0.122358486 0.08077228 0.019850096 -0.12401139
0.078132674 -0.06606008 -0.052764602 0.06665165 0.0458607 -0.098016605 -0.07148115 -0.020323703
-0.017217856 -0.07934605 -0.031243756 -0.053043712 0.0067864493 -0.014394007 0.02518738 0.091091156
0.07580344 -0.008671971 -0.0064908783 -0.12957315 -0.06114206 0.038580842 -0.047978688 0.10667438
0.1120607 -0.12963647 0.061741143 0.042984392 -0.0016828983 -0.13377747 -0.024594797 0.07603721
-0.07165396 0.08226364 -0.008519037 -0.10619701 -0.030682929 0.06444633 -0.025051417 -0.022941535
0.05377843 -0.02760271 0.08824111 0.017383851 0.00086604484 0.04479607 0.0721701 -0.006057477
-0.04261813 0.0732867 -0.059327334 -0.011723772 -0.10181543 -0.12109724 -0.051107544 0.02028059
0.027509023 -0.09735315 -0.054943 -0.053638462 0.0037188232 0.06643602 -0.0135465935 0.011562031
-0.0015373998 0.018242577 0.011209045 -0.018718688 -0.117052026 -0.08291013 -0.09531993 0.087721355
-0.1504592 0.094089985 0.09958402 -0.15045527 -0.13616824 -0.11162802 -0.023896044 0.073773585
-0.094240665 -0.09543204 -0.056385785 -0.039654344 -0.06416823 0.07716647 0.04854037 0.119221926
0.12420224 -0.05423987 0.04624501 0.07740909 0.054017812 -0.0913126 -0.087716684 0.05848421
0.019317627 0.007605925 -0.10745938 -0.12252121 -0.04396139 -0.11153154 0.0930105 -0.10180971
0.036854774 0.013034731 -0.12458973 -0.12264344 -0.09982295 0.00064603984 0.049611226 0.04483287
0.11924532 -0.017053902 0.040039778 0.092421785 -0.0035051256 -0.06088607 0.08775586 -0.058704764
-0.068358555 -0.08134034 0.094441175 0.013936639 -0.10766059 -0.0043611526 -0.12295307 -0.081185564
-0.092884526 0.0018002689 -0.026583731 -0.032115772 0.050836697 0.09915742 -0.006771907 -0.045788094
-0.082057 -0.03004226 0.08763471 0.123453066 -0.07809149 -0.07849383 -0.0028993785 0.08818273
0.08365945 -0.018454686 -0.06694932 -0.044328667 0.06751439 -0.07506483 0.039540876 -0.03694051
0.05763627 0.04695502 -0.07639168 -0.09113291 -0.045849904 -0.08168718 -0.09861304 0.042702645
-0.0676308 0.025429385 -0.0025965306 -0.12593105 0.05796987 -0.092645645 0.10636899 -0.042738706
-0.09933764 0.054836478 -0.00048404408 -0.020988015 -0.13374381 0.008900848 -0.11346663 0.06101206
-0.023151554 -0.033102635 -0.11609834 -0.036884084 -0.096868575 -0.011729394 0.021727555 -0.08928394
0.00019521103 0.07594862 -0.12472098 -0.1003704 0.056120843 0.050419528 0.019802189 -0.013809573
-0.13785727 -0.055098422 0.08244781 -0.052786496 -0.102389835 -0.12941037 -0.007916927 -0.10918549
-0.12120594 0.076082885 -0.065702096 0.081118874 0.0189135 -0.12387988 -0.01843867 -0.034235034
00000000: 9308 6ebd 40b8 afbb 6072 b63d 7fa1 7f3d
00000010: ab50 a8bd f737 34bd ce9a 523c 856f 8b3d
00000020: 583b 29bd cf59 03be d87b 973c 18f3 d5bd
00000030: b0eb d5bd 7a26 acbd 70b1 173d f894 403d
00000040: b60c ccbd d95e b2bd 08c6 e23d b699 e63d
00000050: bb65 09be 1b78 31bc 8586 02be 669f e13b
00000060: cb83 c63b 1d44 e93d c85b 123d 3723 763d
00000070: afa5 c93d d050 f13d b25b a63d c42d 2cbd
00000080: e05c c93b 2068 6dbd 407b 02bc 2026 3e3c
00000090: 300e 16bc 0155 a33d bf90 ccbc 7fb9 813c
000000a0: 4824 c6bd 7029 c43d 6b18 b2bb a30a e6bc
000000b0: 1697 fabd f06b a53d ab9c a23c aff9 fdbd
000000c0: 0604 a03d 824a 87bd b21f 58bd a980 883d
000000d0: 6ed8 3b3d eebc c8bd b664 92bd e57d a6bc
000000e0: 760c 8dbc 2f80 a2bd e8f2 ffbc 5d44 59bd
000000f0: dd60 de3b d7d4 6bbc c455 ce3c 008e ba3d
00000100: d53e 9b3d e214 0ebc 6fb1 d4bb d3ae 04be
00000110: 1970 7abd f206 1e3d 4d85 44bd 1978 da3d
00000120: 1580 e53d 6cbf 04be 48e4 7c3d 6710 303d
00000130: b294 dcba f6fc 08be 077b c9bc 66b9 9b3d
00000140: 50bf 92bd d779 a83d 6e93 0bbc d17d d9bd
00000150: c45a fbbc 70fc 833d a138 cdbc e3ef bbbc
00000160: c546 5c3d 141f e2bc c1b7 b43d 9468 8e3c
00000170: 4907 633a 157c 373d ebcd 933d cd7d c6bb
00000180: 5990 2ebd 5617 963d 3801 73bd 1015 40bc
00000190: 9c84 d0bd d401 f8bd 2556 51bd 7b23 a63c
000001a0: 9a5a e13c 1761 c7bd e90b 61bd 01b4 5bbd
000001b0: 80b7 733b 9c0f 883d 88f2 5dbc ac6e 3d3c
000001c0: 9482 c9ba 7571 953c 24a6 373c ef57 99bc
000001d0: f9b8 efbd c9cc a9bd 1837 c3bd 41a7 b33d
000001e0: fa11 1abe 40b2 c03d b5f2 cb3d f210 1abe
000001f0: b06f 0bbe 3b9d e4bd a3c1 c3bc 9b16 973d
00000200: 4001 c1bd e071 c3bd c8f4 66bd 986c 22bd
00000210: a26a 83bd 7409 9e3d 44d2 463d a02a f43d
00000220: be5d fe3d a02a 5ebd 686b 3d3d a888 9e3d
00000230: c841 5d3d 1a02 bbbd cea4 b3bd 248d 6f3d
00000240: 0040 9e3c 203b f93b aa13 dcbd 66ec fabd
00000250: dc10 34bd a66a e4bd 4a7c be3d 9c81 d0bd
00000260: 08f5 163d a08f 553c e628 ffbd 7c2c fbbd
00000270: fa6f ccbd 005b 293a 2435 4b3d aca2 373d
00000280: e436 f43d a0b4 8bbc c000 243d a247 bd3d
00000290: 40b6 65bb ac63 79bd 58b9 b33d 6874 70bd
000002a0: 92ff 8bbd c495 a6bd 606a c13d 8056 643c
000002b0: 287d dcbd 00e8 8ebb d2ce fbbd 9e44 a6bd
000002c0: 3e3a bebd 00f7 eb3a 20c6 d9bc d48b 03bd
000002d0: 243a 503d 0c13 cb3d e0e6 ddbb 4c8c 3bbd
000002e0: 800d a8bd 301b f6bc d479 b33d f6d4 fc3d
000002f0: 6eee 9fbd 60c1 a0bd 8003 3ebb 2699 b43d
00000300: a555 ab3d 482e 97bc ba1c 89bd fa91 35bd
00000310: fc44 8a3d 97bb 99bd 9df5 213d ef4e 17bd
00000320: 0214 6c3d e853 403d 3e73 9cbd e4a3 babd
00000330: 1ccd 3bbd 9c4b a7bd a2f5 c9bd f8e8 2e3d
00000340: 0482 8abd 4951 d03c 8e2a 2abb 12f4 00be
00000350: d071 6d3d 00bd bdbd fcd7 d93d c80e 2fbd
00000360: 8871 cbbd 379c 603d 4cc7 fdb9 0fef abbc
00000370: 23f4 08be ddd4 113c 3161 e8bd c8e7 793d
00000380: 54a8 bdbc a196 07bd f7c4 edbd c413 17bd
00000390: 0863 c6bd a52c 40bc fcfd b13c 80da b6bd
000003a0: 90b1 4c39 f38a 9b3d b76d ffbd ff8e cdbd
000003b0: f8de 653d b584 4e3d 3338 a23c 8c41 62bc
000003c0: 752a 0dbe e2ae 61bd 66da a83d a736 58bd
000003d0: c3b1 d1bd 2784 04be 00b6 01bc a49c dfbd
000003e0: d23a f8bd 58d1 9b3d d28e 86bd a721 a63d
000003f0: 7cf0 9a3c bcb4 fdbd b20c 97bc 093a 0cbd

encoder.message_net.0.0.bias f4 [64]
-0.014837399 0.02602416 -0.05950786 0.077670686 -0.12761767 0.09524772 -0.09583252 0.022700794
0.03298876 -0.066412725 -0.054855503 -0.017046258 -0.08361013 0.011634805 0.06754089 -0.12299591
0.0861004 0.042988103 -0.05545425 -0.08142642 -0.13325912 0.063557185 4.255969e-05 0.08854817
-0.07235842 0.05765041 0.029861093 -0.06302549 -0.07562758 -0.12026709 -0.011027887 0.01593142
0.039123803 0.04340204 0.035615932 -0.06574327 -0.008881047 0.017502157 0.01905929 0.036962003
0.08621665 -0.11393297 0.05043058 -0.016263321 0.042599607 0.023127325 -0.024575772 0.036419593
-0.029719047 -0.075680315 -0.05394129 -0.01618487 -0.036880866 0.058014937 0.014856833 -0.12112643
0.021651523 0.068301745 0.043051753 0.015700396 0.083814554 0.07302972 0.013653354 -0.098560974
00000000: 9018 73bc 9f30 d53c 84be 73bd cf11 9f3d
00000010: 35ae 02be 3d11 c33d d743 c4bd 04f7 b93c
00000020: 391f 073d 6503 88bd 2ab0 60bd 98a4 8bbc
00000030: ca3b abbd e99f 3e3c e152 8a3d 48e5 fbbd
00000040: 6855 b03d 4b14 303d ff23 63bd e5c2 a6bd
00000050: 1475 08be 452a 823d 1f82 3238 be58 b53d
00000060: a730 94bd d622 6c3d 409f f43c 8213 81bd
00000070: a2e2 9abd 984e f6bd 50ae 34bc 9c82 823c
00000080: 4840 203d 56c6 313d 03e2 113d 68a4 86bd
00000090: d081 11bc af60 8f3c 3a22 9c3c 7865 173d
000000a0: 5b92 b03d b055 e9bd 4c90 4e3d a83a 85bc
000000b0: ed7c 2e3d 8475 bd3c 2153 c9bc b62c 153d
000000c0: 5c75 f3bc 48fe 9abd 8bf1 5cbd 2296 84bc
000000d0: 6410 17bd 12a1 6d3d 136a 733c 2211 f8bd
000000e0: 895e b13c c9e1 8b3d 0957 303d 1e9e 803c
000000f0: f7a6 ab3d 9b90 953d 51b2 5f3c 56da c9bd

encoder.message_net.1.0.weight f4 [64, 64]
-0.09015261 0.117404714 -0.030641247 0.1082752 -0.05586237 -0.1127255 -0.0818098 -0.1465766
-0.07145216 -0.09764079 0.012796872 -0.07955189 -0.05213667 0.07014595 0.069805056 0.10739729
-0.06744399 0.066040896 0.0098838275 -0.12098115 0.009769776 0.03184815 0.0053439313 -0.03481267
-0.12408607 0.0985636 0.08879023 0.021382304 -0.06977658 -0.07828988 -0.10125576 -0.07257647
-0.10930232 -0.024260212 0.10499204 -0.05602118 -0.046824444 0.05701134 0.07265203 -0.08071506
0.0018340556 0.03762974 0.038469195 0.03397517 0.044525076 -0.029601747 -0.05869342 0.062253874
0.09644102 0.098082356 0.0013840683 -0.099518456 0.0176021 0.05067429 -0.082595825 0.10001142
0.052939888 0.11930026 -0.007867529 0.00035900893 -0.04046213 0.037806943 0.04984655 0.03354859
-0.053356133 -0.026016802 0.042298183 0.115019016 0.022841489 -0.054596823 0.06620939 -0.10839771
0.053485874 0.059144083 0.025871681 -0.054559417 -0.14123635 0.03331321 0.0042453962 -0.033841442
0.09563521 -0.05508616 -0.105901785 0.06431618 -0.17731038 0.013353211 -0.1109617 -0.02421676
-0.025330711 0.06926058 0.04076988 -0.07242771 -0.04513217 -0.0016462171 -0.13599648 0.11265608
0.014878058 -0.11294812 -0.014189381 0.026814857 0.097399734 -0.004997144 0.028098501 0.049711395
-0.043775413 0.047833532 -0.07358657 0.13744982 -0.06049401 -0.06393497 0.108163565 0.10800182
0.1287586 0.10962746 0.03507745 -0.0032844818 -0.03618724 -0.075651176 -0.14896445 0.10179407
-0.055901308 0.013149203 -0.030935308 0.016805803 0.068420164 0.054486874 0.04930958 -0.098513134
-0.0666784 0.110693775 0.022737259 -0.0049840626 -0.079432055 0.0015317197 -0.13567297 -0.1393933
-0.011728635 -0.04437433 0.021143215 -0.09776602 0.044051047 -0.0028222692 -0.031265337 -0.061257903
0.0486218 -0.10028193 -0.100300595 -0.021313692 0.060496356 -0.14679259 -0.09342601 -0.0094902115
-0.028000169 0.05075784 0.114350066 -0.010955945 0.07970755 -0.022297919 -0.1538076 0.062757134
-0.0033522141 -0.11948458 -0.022027938 -0.05376506 -0.076935604 0.06581652 -0.015640773 0.061134618
-0.006492712 -0.031999107 0.118203215 0.1330441 -0.093896344 -0.0005905829 0.05483752 -0.10936036
0.033358075 0.0725996 0.0069875233 0.027511716 0.02250856 -0.1301498 0.020756546 -0.07665049
-0.045353383 -0.05256545 0.06914518 -0.060002875 -0.025246289 -0.018266981 -0.1316569 -0.0021510927
0.03031572 0.10926739 0.075750396 0.04257098 0.054830108 0.032897256 -0.05270481 -0.026336918
-0.09348721 0.08615627 -0.12899974 0.06522734 -0.006630144 0.095750295 -0.094233155 0.08015735
-0.11414709 -0.020007672 0.08893505 -0.11374335 -0.10029776 -0.118621856 -0.0022018747 -0.08008518
-0.09904891 -0.1060271 -0.09117638 0.05595581 0.071751475 0.08633552 -0.13706693 -0.005951408
0.030488312 -0.111852214 0.009143973 -0.10226174 0.0035800817 -0.10466527 -0.027438192 -0.100820646
-0.13797359 -0.03013945 -0.12586989 0.18181835 0.0833325 -0.059611153 -0.027421575 0.071511015
0.08559756 0.045056883 -0.044078294 -0.031983823 -0.097429246 -0.026744412 -0.03979631 0.04850573
0.07555569 -0.11658055 0.005032487 0.03936841 0.01152834 0.021705396 -0.14374708 0.0828299
00000000: eea1 b8bd e271 f03d 5a03 fbbc 63bf dd3d
00000010: f1cf 64bd a0dc e6bd e58b a7bd 2d18 16be
00000020: 8355 92bd e5f7 c7bd f9a9 513c 1aec a2bd
00000030: 438d 55bd aea8 8f3d f4f5 8e3d 1cf3 db3d
00000040: 1320 8abd 7340 873d c7ef 213c f7c4 f7bd
00000050: 6911 203c 3573 023d 251c af3b bb97 0ebd
00000060: d620 febd b6db c93d a7d7 b53d f129 af3c
00000070: 06e7 8ebd 7256 a0bd 2e5f cfbd f9a2 94bd
00000080: e5d9 dfbd 5abd c6bc 1106 d73d 7776 65bd
00000090: fdca 3fbd b984 693d 96ca 943d f04d a5bd
000000a0: b264 f03a a421 1a3d e091 1d3d 8c29 0b3d
000000b0: ed5f 363d 5d7f f2bc 8368 70bd ebfd 7e3d
000000c0: df82 c53d 67df c83d a069 b53a 55d0 cbbd
000000d0: 4732 903c d88f 4f3d 0028 a9bd cad2 cc3d
000000e0: 7fd7 583d b253 f43d cfe6 00bc 5d39 bc39
000000f0: 9ebb 25bd 74db 1a3d e52b 4c3d 3f6a 093d
00000100: f68b 5abd 3021 d5bc dc40 2d3d 178f eb3d
00000110: 131e bb3c eba0 5fbd ca98 873d 9eff ddbd
00000120: 0114 5b3d 1141 723d d9f0 d33c b279 5fbd
00000130: 43a0 10be 6f73 083d f71c 8b3b 539d 0abd
00000140: 65dc c33d 06a2 61bd 09e3 d8bd 34b8 833d
00000150: da90 35be 6dc7 5a3c e33f e3bd 3a62 c6bc
00000160: 5a82 cfbc 7ed8 8d3d 51fe 263d fb54 94bd
00000170: 83dc 38bd e1c5 d7ba a942 0bbe 3bb8 e63d
00000180: 19c3 733c 5851 e7bd 947a 68bc d5aa db3c
00000190: 8379 c73d 15bf a3bb d42e e63c 2d9e 4b3d
000001a0: d94d 33bd 18ed 433d 8eb4 96bd a5bf 0c3e
000001b0: 91c8 77bd 56f0 82bd dc84 dd3d 0f30 dd3d
000001c0: 4bd9 033e 5d84 e03d 5fad 0f3d 7640 57bb
000001d0: 1239 14bd 01ef 9abd 238a 18be 6979 d03d
000001e0: c5f8 64bd c16f 573c 0b6c fdbc 53ac 893c
000001f0: df1f 8c3d a12d 5f3d d8f8 493d 41c1 c9bd
00000200: af8e 88bd 6bb3 e23d 7d43 ba3c 5951 a3bb
00000210: 46ad a2bd fcc3 c83a dbed 0abe 1ebd 0ebe
00000220: 7629 40bc dcc1 35bd 8934 ad3c 8d39 c8bd
00000230: df6e 343d d2f5 38bb 1510 00bd 91e9 7abd
00000240: a727 473d 9d60 cdbd 666a cdbd 0d9a aebc
00000250: 07cb 773d cc50 16be 2356 bfbd d57c 1bbc
00000260: 9c60 e5bc 74e7 4f3d 5e30 ea3d 9080 33bc
00000270: b63d a33d 20aa b6bc bd7f 1dbe d086 803d
00000280: d2b0 5bbb 55b4 f4bd ef73 b4bc c038 5cbd
00000290: 6a90 9dbd d0ca 863d 1421 80bc 4b68 7a3d
000002a0: d1c0 d4bb 7f11 03bd 8714 f23d b63c 083e
000002b0: ba4c c0bd 59d1 1aba 4f9d 603d 53f8 dfbd
000002c0: 7aa2 083d 19af 943d 98f7 e43b 4060 e13c
000002d0: df63 b83c fd45 05be a209 aa3c effa 9cbd
000002e0: 78c4 39bd df4e 57bd fd9b 8d3d 93c5 75bd
000002f0: 4ed1 cebc a3a4 95bc 11d1 06be 59f9 0cbb
00000300: ac58 f83c 95c7 df3d 0623 9b3d e85e 2e3d
00000310: 8995 603d 46bf 063d 00e1 57bd 85c0 d7bc
00000320: 3976 bfbd b372 b03d 8218 04be e995 853d
00000330: ae41 d9bb bb18 c43d 50fd c0bd 8929 a43d
00000340: f3c5 e9bd 21e7 a3bc 9423 b63d 46f2 e8bd
00000350: e968 cdbd 04f0 f2bd 544d 10bb b303 a4bd
00000360: 28da cabd bc24 d9bd afba babd eb31 653d
00000370: 70f2 923d add0 b03d 465b 0cbe 0704 c3bb
00000380: a0c2 f93c c612 e5bd 9ad0 153c 9a6e d1bd
00000390: ce9f 6a3b bf5a d6bd 0fc6 e0bc 0e7b cebd
000003a0: f348 0dbe 02e7 f6bc 09e4 00be 972e 3a3e
000003b0: 3baa aa3d d32a 74bd 36a3 e0bc 5e74 923d
000003c0: c64d af3d 918d 383d 718b 34bd 7801 03bd
000003d0: fc88 c7bd 1917 dbbc 7501 23bd f2ad 463d
000003e0: f1bc 9a3d c9c1 eebd 90e7 a43b c540 213d
000003f0: 5de1 3c3c 84cf b13c 6f32 13be b9a2 a93d

encoder.message_net.1.0.bias f4 [64]
-0.052044477 0.0657889 0.068009235 0.09354015 0.058952764 0.026042948 -0.1224812 0.025426235
0.052392073 -0.012449518 0.009542435 -0.018201454 0.07228634 -0.020630183 -0.05107288 0.014796479
0.048184916 -0.08444925 0.06642695 -0.011134387 -0.08326424 0.052617922 -0.024028178 -0.0535512
0.09357144 -0.022656318 0.06343774 -0.041166622 -0.023344439 0.07237635 0.03591684 0.027698167
0.023560202 0.03393306 -0.021373618 -0.09632816 -0.036125552 0.027615031 -0.12682894 0.08930442
-0.03278143 0.001697131 0.011093039 -0.095264465 0.01954967 0.0050605116 0.061545286 -0.0335033
0.06495682 -0.032534387 -0.0058389655 0.10651973 -0.0788877 -0.08764655 0.0030333253 0.077716954
-0.101226896 -0.098713934 -0.10144749 0.06147104 -0.069519356 -0.13498928 0.08939395 0.10643184
00000000: 972c 55bd 55bc 863d 6d48 8b3d fa91 bf3d
00000010: 7478 713d 0558 d53c 6cd7 fabd ae4a d03c
00000020: 1299 563d 10f9 4bbc e057 1c3c 371b 95bc
00000030: dc0a 943d a100 a9bc cc31 51bd ee6c 723c
00000040: 8c5d 453d baf3 acbd da0a 883d 016d 36bc
00000050: 7186 aabd e485 573d bed6 c4bc 8158 5bbd
00000060: 62a2 bf3d be99 b9bc a5eb 813d 559e 28bd
00000070: d63c bfbc 0d3a 943d 891d 133d 44e7 e23c
00000080: 5301 c13c 64fd 0a3d ba17 afbc b347 c5bd
00000090: 63f8 13bd eb38 e23c 72df 01be 3ce5 b63d
000000a0: d245 06bd 4472 de3a 94bf 353c 041a c3bd
000000b0: a126 a03c a6d2 a53b e916 7c3d c23a 09bd
000000c0: 1508 853d c742 05bd cb54 bfbb 0427 da3d
000000d0: e08f a1bd 0980 b3bd c1ca 463b 112a 9f3d
000000e0: 0c50 cfbd 882a cabd b4c3 cfbd 0fc9 7b3d
000000f0: 2a60 8ebd a13a 0abe 2d14 b73d f0f8 d93d

encoder.message_net.2.0.weight f4 [64, 64]
-0.02804457 0.089510605 0.04553496 -0.02072356 -0.09542308 -0.10156117 0.0081184 -0.084708154
-0.02299653 -0.04535344 -0.054241344 0.116418265 0.041385252 0.06882798 0.013655649 -0.08535645
-0.056296982 0.050967168 -0.016122999 0.07596562 -0.0631502 -0.06132823 -0.09757372 -0.09396791
0.076153055 0.07601095 0.07019109 0.0064972057 0.08122254 -0.032274935 0.07602502 -0.10360562
-0.033578776 -0.075881116 -0.084650576 0.008496559 -0.054994877 0.024339473 0.055663183 -0.021180322
-0.09575509 -0.11391837 -0.0009901269 0.05491083 0.0784491 0.046385877 -0.058159947 0.01740882
0.106658325 -0.028972767 0.051858254 0.06284089 -0.0798252 -0.10595758 -0.10482951 0.094452575
-0.007815937 -0.114971735 -0.054703753 0.10860903 -0.047805313 -0.026851619 0.04511737 -0.08130052
0.010276427 -0.056479264 0.06719735 -0.01897776 -0.06518629 -0.075681634 -0.13354139 -0.06982458
0.064997375 0.027254187 -0.06444754 -0.093527965 0.01902522 0.054795254 0.00019883178 0.041749597
0.06468291 0.058117997 -0.06558247 -0.11975946 -0.20388979 0.037201032 0.056969587 -0.0044607716
0.06734819 -0.09477775 0.13366966 0.005781638 0.0123139545 0.013816388 -0.037822496 0.06808797
0.05921737 -0.088683896 0.022959188 0.04450844 0.075994484 -0.09824244 -0.20208554 -0.067030616
-0.041074377 0.08917733 -0.059509285 0.0011862591 -0.095786065 0.07284788 -0.1061251 0.09946181
-0.03724433 0.015720423 -0.05037995 0.009830832 0.090948805 -0.035615698 -0.018331703 -0.05436915
0.0856704 -0.11511888 0.11910961 0.0059455987 -0.0004749584 0.01711504 0.06437599 0.053093296
0.049205437 0.049380977 -0.12660253 0.047416158 0.12509723 0.029103156 -0.035501882 0.06437803
0.06825749 0.08796762 -0.04532006 -0.072617315 0.05135276 0.086933136 -0.109705284 -0.012449337
0.019078989 -0.06553886 -0.10837431 -0.020421337 -0.086491555 -0.02257921 0.055842843 -0.03193531
-0.099460974 0.041618545 0.013112379 -0.0407603 0.09030643 -0.047665115 0.03491373 -0.044236865
0.065339714 0.077965744 -0.090281144 -0.014665273 0.060009345 -0.044917267 0.10815604 -0.044063516
-0.061955377 -0.09036967 0.054395147 -0.09450941 0.023092384 0.13569318 -0.10177371 0.1233531
-0.035864286 -0.10103964 -0.03037975 0.0018051106 -0.1431618 -0.097711906 0.098479055 0.08551967
-0.04191079 -0.118402556 -0.009657352 -0.008096615 -0.11884649 -0.037031725 -0.04306819 0.094665594
-0.038256764 0.108475864 -0.10679567 0.016584754 -0.04271987 0.07886028 0.03524357 0.06269613
-0.09864174 0.010071337 -0.0063672066 0.05990693 0.030844435 0.11297223 -0.09887707 0.016456783
-0.11233905 -0.113840565 -0.11585271 -0.06175372 0.10970837 0.121782854 -0.03529334 -0.03782004
-0.078433424 0.07995321 -0.07418138 0.08136357 -0.011262044 -0.030854866 0.042279437 0.08867471
-0.05433163 0.06737697 -0.035808384 -0.06594871 0.057450205 -0.117924675 -0.028925851 0.07946104
-0.107378885 0.037013814 0.082155585 -0.034953475 -0.045087993 0.0958385 -0.020207226 -0.06631711
0.11449328 -0.07965881 -0.10823421 -0.07014987 -0.07309419 -0.035128593 0.0837159 0.10891168
0.10615426 0.06878376 -0.013147816 -0.085727155 0.07374008 0.022317663 0.08647543 0.09044002
00000000: babd e5bc 5651 b73d de82 3a3d 75c4 a9bc
00000010: 2d6d c3bd 4dff cfbd 0a03 053c 787b adbd
00000020: 3863 bcbc 87c4 39bd 2c2c 5ebd b36c ee3d
00000030: 9583 293d aff5 8c3d f1bb 5f3c 5dcf aebd
00000040: aa97 66bd f3c2 503d 6114 84bc dd93 9b3d
00000050: e454 81bd 4f33 7bbd bbd4 c7bd 3f72 c0bd
00000060: 22f6 9b3d a1ab 9b3d 59c0 8f3d 83e6 d43b
00000070: 0158 a63d b932 04bd 01b3 9b3d 2f2f d4bd
00000080: e689 09bd 8f67 9bbd 485d adbd 2735 0b3c
00000090: 4f42 61bd 9363 c73c 14ff 633d 5b82 adbc
000000a0: 3f1b c4bd 094e e9bd 25c7 81ba 2eea 603d
000000b0: eca9 a03d 1eff 3d3d 2039 6ebd f19c 8e3c
000000c0: ae6f da3d 4c58 edbc 5269 543d b9b2 803d
000000d0: 657b a3bd 4a00 d9bd dbb0 d6bd 5a70 c13d
000000e0: 6a0e 00bc 4d76 ebbd 0b11 60bd 696e de3d
000000f0: 81cf 43bd edf7 dbbc fecc 383d e380 a6bd
00000100: 755e 283c cd56 67bd c49e 893d 3f77 9bbc
00000110: 6480 85bd f9fe 9abd 13bf 08be 3000 8fbd
00000120: 581d 853d 2c44 df3c 12fd 83bd 978b bfbd
00000130: c7da 9b3c fd70 603d 807d 5039 a001 2b3d
00000140: 7978 843d 230d 6e3d 1a50 86bd 7344 f5bd
00000150: 7cc8 50be 1c60 183d f158 693d aa2b 92bb
00000160: d9ed 893d d61a c2bd b3e0 083e e573 bd3b
00000170: 78c0 493c 225e 623c c3eb 1abd b571 8b3d
00000180: ea8d 723d e79f b5bd e814 bc3c 7b4e 363d
00000190: ffa2 9b3d 5533 c9bd 83ef 4ebe 5947 89bd
000001a0: 9b3d 28bd 9ba2 b63d 02c0 73bd 407c 9b3a
000001b0: 7c2b c4bd 4531 953d 1e58 d9bd a2b2 cb3d
000001c0: 838d 18bd 1ec8 803c 355b 4ebd 7f11 213c
000001d0: 5e43 ba3d c4e1 11bd 5e2c 96bc 30b2 5ebd
000001e0: f673 af3d 73c3 ebbd bdef f33d 4cd3 c23b
000001f0: d603 f9b9 d734 8c3c 8fd7 833d 5b78 593d
00000200: a48b 493d b543 4a3d 18a4 01be 7237 423d
00000210: 7d19 003e be69 ee3c 6c6a 11bd a1d8 833d
00000220: 95ca 8b3d 5e28 b43d 87a1 39bd 63b8 94bd
00000230: 4657 523d 000a b23d 2aad e0bd 4ef8 4bbc
00000240: 8a4b 9c3c 3d39 86bd 5af3 ddbd a64a a7bc
00000250: 7c22 b1bd 09f8 b8bc 77bb 643d 9ace 02bd
00000260: 32b2 cbbd 3578 2a3d 4ed5 563c 46f4 26bd
00000270: 94f2 b83d 7f3c 43bd b301 0f3d b731 35bd
00000280: d4d0 853d 81ac 9f3d 52e5 b8bd 9d46 70bc
00000290: 5ccc 753d 2bfb 37bd ea80 dd3d f27b 34bd
000002a0: ecc4 7dbd bc13 b9bd 72cd 5e3d 268e c1bd
000002b0: 3d2c bd3c 27f3 0a3e bc6e d0bd 8da0 fc3d
000002c0: 6ee6 12bd dfed cebd f4de f8bc 7699 ec3a
000002d0: 0299 12be 2e1d c8bd 63af c93d f024 af3d
000002e0: a6aa 2bbd 0a7d f2bd df39 1ebc aaa7 04bc
000002f0: ca65 f3bd 94ae 17bd 4568 30bd 09e0 c13d
00000300: 20b3 1cbd 9828 de3d b0b7 dabd c0dc 873c
00000310: 08fb 2ebd 8081 a13d 905b 103d d466 803d
00000320: ae04 cabd 4002 253c 00a4 d0bb f860 753d
00000330: 78ad fc3c fc5d e73d 1080 cabd 60d0 863c
00000340: 0412 e6bd 3e25 e9bd 3044 edbd 78f1 7cbd
00000350: c8ae e03d 4a69 f93d c08f 10bd 30e9 1abd
00000360: b4a1 a0bd 82be a33d 68ec 97bd f2a1 a63d
00000370: 7084 38bc 58c3 fcbc 342d 2d3d 169b b53d
00000380: d88a 5ebd f0fc 893d d0ab 12bd 1e10 87bd
00000390: e850 6b3d 7e82 f1bd e8f5 ecbc 78bc a23d
000003a0: 76e9 dbbd cc9b 173d 3041 a83d 602b 0fbd
000003b0: 30ae 38bd fa46 c43d a089 a5bc 44d1 87bd
000003c0: 747b ea3d 2824 a3bd e6a9 ddbd bcaa 8fbd
000003d0: 68b2 95bd 00e3 0fbd 3e73 ab3d 160d df3d
000003e0: 6867 d93d 80de 8c3d f069 57bc b891 afbd
000003f0: 0a05 973d 88d3 b63c 081a b13d 9e38 b93d

encoder.message_net.2.0.bias f4 [64]
-0.12678087 0.049403496 0.008274049 -0.11276077 0.044090807 -0.095850036 0.049448114 0.06282159
-0.012380168 0.058553863 0.100299954 0.003975272 -0.021656884 -0.09652092 -0.0059958003 0.016221639
-0.102141894 0.042713877 -0.06352044 0.044272903 0.056173887 0.012636399 -0.009729297 -0.12176372
0.0023093314 0.044898964 0.0778796 -0.12334967 0.027344847 0.042524762 -0.04278943 -0.051533386
0.01428799 0.024856307 -0.11034722 0.04423607 0.0019028415 0.06936574 -0.10995455 0.0030265537
0.024527444 0.08403147 0.050455466 0.064765625 0.053344622 -0.0048895073 -0.13113719 -0.08770809
-0.10496101 0.04223299 0.05342708 -0.0328443 -0.014071518 -0.088078395 -0.09539932 -0.026948938
-0.094564274 0.011540584 -0.0745009 -0.12275399 -0.09033589 0.0020636404 -0.064859286 0.049657576
00000000: d8d2 01be 525b 4a3d e08f 073c 1eef e6bd
00000010: 9098 343d 064d c4bd 1b8a 4a3d 9ba8 803d
00000020: 30d6 4abc 2dd6 6f3d 106a cd3d 0043 823b
00000030: c769 b1bc c3ac c5bd 6b78 c4bb 3ee3 843c
00000040: c52f d1bd bff4 2e3d 0117 82bd 8157 353d
00000050: 9716 663d e608 4f3c a167 1fbc 425f f9bd
00000060: 2758 173b fae7 373d 577f 9f3d c09e fcbd
00000070: 4d02 e03c 722e 2e3d f843 2fbd ac14 53bd
00000080: 2c18 6a3c 749f cb3c b9fd e1bd e230 353d
00000090: c468 f93a a00f 8e3d da2f e1bd 2559 463b
000000a0: c7ed c83c b118 ac3d 64aa 4e3d d7a3 843d
000000b0: e47f 5a3d 2938 a0bb d448 06be 4da0 b3bd
000000c0: ccf5 d6bd 80fc 2c3d 5bd6 5a3d bf87 06bd
000000d0: 398c 66bc 7262 b4bd b860 c3bd 05c4 dcbc
000000e0: eaaa c1bd b814 3d3c ee93 98bd 7266 fbbd
000000f0: 0602 b9bd 243e 073b f2d4 84bd be65 4b3d

encoder.message_net.3.0.weight f4 [64, 64]
0.06462087 0.12035723 0.084597275 -0.021188498 0.081727535 -0.10277499 -0.088096574 -0.051680222
-0.08143501 0.053431705 0.07432425 0.026949003 0.049782082 -0.063233435 -0.021765098 -0.06580907
-0.123907074 0.104492605 0.06002295 -0.057794467 -0.09317197 0.034980014 -0.039437234 -0.06985013
0.008308321 -0.039329693 0.030885637 -0.0069041997 0.08377464 -0.12144564 -0.107492045 0.11534868
-0.032177523 0.088345066 0.09313764 -0.0110566765 -0.1040436 -0.018004596 -0.1079745 -0.056730494
0.034061998 -0.08221854 -0.049804106 0.09671876 0.088810116 0.113571316 -0.124328196 0.021300957
-0.123454735 0.10102554 -0.03885968 -0.10405193 -0.029648721 0.00027115643 -0.08509776 0.03537932
0.10807939 -0.065988496 0.05907072 -0.032948896 0.075715125 0.06779574 -0.055153385 0.09156948
0.048196573 0.10174721 0.03737435 -0.12602238 -0.06833505 -0.0407359 0.057020254 0.021919088
0.03977053 0.029373152 -0.09526892 -0.060359184 0.04007809 0.08793362 -0.08956659 0.053969253
-0.0425987 0.005331337 -0.070617266 -0.108743235 -0.16059987 -0.11446877 -0.10154141 0.13022408
-0.11758061 0.013986686 -0.09095157 0.045240644 0.099681 -0.09335459 -0.03747735 -0.033186976
0.056152444 0.032509457 -0.038438927 -0.029988196 -0.037576865 0.1359009 -0.14944747 0.081922
0.059427503 0.10382974 0.12470676 0.14121597 0.044486936 -0.099693425 0.036908578 0.071213335
0.08657936 -0.0060626674 -0.012856603 -0.060547292 0.014709323 -0.11557004 0.04616711 0.036613476
0.041034717 0.10746976 0.09524025 -0.14292936 -0.013333562 0.11941038 0.07787209 0.034803562
0.029702952 0.10283816 0.0045847907 -0.109365955 -0.028102735 -0.12961777 0.021810504 -0.063592754
-0.02179093 -0.066273876 -0.019212378 0.12868679 0.09265121 -0.018072074 -0.017762516 0.025483245
-0.12057652 0.03467072 -0.016695019 0.015008417 -0.1981025 -0.074035145 -0.12635894 -0.085637525
-0.04702441 -0.03486142 0.00731055 -0.011569016 0.14307754 0.024042051 0.031524632 -0.068615176
0.0313148 -0.053391565 0.0813278 0.011749789 -0.12222246 -0.0010888139 0.03283016 -0.06858272
-0.07347868 -0.010053594 0.079267986 -0.040600833 -0.12325778 0.010890841 0.04603612 0.11302806
-0.06712927 0.011986151 -0.052100167 -0.05675351 0.10893337 0.087330565 -0.14761506 -0.08901344
-0.13581228 0.03081653 -0.033563703 -0.087753914 -0.05479873 0.026476856 0.05739604 -0.01994811
-0.010906337 -0.015202017 0.10786187 0.05671412 -0.034468696 -0.04292565 0.016603388 0.035385948
0.10043007 -0.01821676 0.08949706 -0.07694351 0.10455857 -0.043582905 -0.09917636 -0.05214037
0.09814621 0.07981101 -0.06751891 0.073662125 0.0554893 -0.12376687 0.072733715 -0.04663635
0.00096280675 0.0705919 -0.083224095 -0.07885103 -0.04355264 0.099006765 0.08675867 -0.03314114
0.06402537 0.071016505 0.07262752 0.11541051 0.04785588 0.024498185 -0.061994277 0.08788497
-0.067026824 -0.06948597 -0.038152732 0.05279339 -0.057110928 0.10167806 -0.016496688 0.121207625
-0.09424666 -0.120840065 0.0025680375 0.11653993 -0.10044194 0.038394906 -0.11148245 -0.05895756
0.094112 0.06631886 0.021776197 -0.07910585 -0.107019074 0.040604215 -0.10390281 0.010432285
00000000: f257 843d da7d f63d 5641 ad3d 8093 adbc
00000010: c460 a73d b27b d2bd fa6b b4bd a4ae 53bd
00000020: 66c7 a6bd 34db 5a3d 5037 983d 28c4 dc3c
00000030: 4ce8 4b3d 8880 81bd b84c b2bc e8c6 86bd
00000040: fec2 fdbd 3800 d63d a0da 753d e4b9 6cbd
00000050: f2d0 bebd 3447 0f3d f088 21bd 960d 8fbd
00000060: a01f 083c 2c18 21bd e003 fd3c a03c e2bb
00000070: 0a92 ab3d 7eb8 f8bd ca24 dcbd ee3b ec3d
00000080: 94cc 03bd 42ee b43d f2be be3d 1027 35bc
00000090: d014 d5bd 607e 93bc bc21 ddbd 3c5e 68bd
000000a0: 9884 0b3d 3262 a8bd 64ff 4bbd 7c14 c63d
000000b0: 14e2 b53d 1498 e83d c89f febd 587f ae3c
000000c0: d6d5 fcbd 7ae6 ce3d 542b 1fbd 2e19 d5bd
000000d0: e0e1 f2bc 002a 8e39 bc47 aebd e8e9 103d
000000e0: ba58 dd3d fa24 87bd 24f4 713d 6cf5 06bd
000000f0: 8810 9b3d 7ed8 8a3d 84e8 61bd c888 bb3d
00000100: c569 453d d760 d03d d915 193d 030c 01be
00000110: 3ff3 8bbd b0da 26bd 128e 693d a98f b33c
00000120: 6ce6 223d f79f f03c 5a1c c3bd 313b 77bd
00000130: ec28 243d 8b16 b43d b06e b7bd dd0e 5d3d
00000140: f97b 2ebd 7fb2 ae3b c99f 90bd c6b4 debd
00000150: 4b74 24be 9a6e eabd f1f4 cfbd 7659 053e
00000160: 1ace f0bd 6a28 653c d144 babd 414e 393d
00000170: 8d25 cc3d b130 bfbd da81 19bd 11ef 07bd
00000180: 1b00 663d a328 053d 2372 1dbd cea9 f5bc
00000190: 33ea 19bd 9b29 0b3e c208 19be b9c6 a73d
000001a0: 416a 733d b0a4 d43d 4266 ff3d eb9a 103e
000001b0: ef37 363d 112c ccbd 732d 173d 4cd8 913d
000001c0: 8550 b13d 57a9 c6bb 80a4 52bc 7000 78bd
000001d0: 5fff 703c fcaf ecbd b919 3d3d 03f8 153d
000001e0: 0514 283d 1b19 dc3d 520d c33d 135c 12be
000001f0: 0375 5abc 6e8d f43d 677b 9f3d 2e8e 0e3d
00000200: 9b53 f33c d09c d23d 033c 963b 42fb dfbd
00000210: b537 e6bc 85ba 04be f1ab b23c eb3c 82bd
00000220: e482 b2bc 99ba 87bd 4763 9dbc 78c6 033e
00000230: ebbf bd3d e30b 94bc b282 91bc 3dc2 d03c
00000240: d3f0 f6bd e302 0e3d fec3 88bc dde5 753c
00000250: 62db 4abe bd9f 97bd 3d64 01be ba62 afbd
00000260: ab9c 40bd d9ca 0ebd 578d ef3b f88b 3dbc
00000270: eb82 123e d6f3 c43c f91f 013d 1d86 8cbd
00000280: f343 003d 1db1 5abd 318f a63d 3082 403c
00000290: c54f fabd 88b6 8eba eb78 063d 1975 8cbd
000002a0: fd7b 96bd d4b7 24bc 4157 a23d 0f4d 26bd
000002b0: 936e fcbd 7f6f 323c 5f90 3c3d 417b e73d
000002c0: 127b 89bd 9061 443c fc66 55bd 5e76 68bd
000002d0: 7518 df3d 5eda b23d 6728 17be ae4c b6bd
000002e0: 6012 0bbe f372 fc3c 187a 09bd 53b8 b3bd
000002f0: a274 60bd fee5 d83c 1c18 6b3d 386a a3bc
00000300: 7eb0 32bc e111 79bc afe6 dc3d 114d 683d
00000310: 0c2f 0dbd ced2 2fbd d403 883c dbf0 103d
00000320: 48ae cd3d 513b 95bc 3c4a b73d 8f94 9dbd
00000330: ce22 d63d fd83 32bd fa1c cbbd 2491 55bd
00000340: e100 c93d f473 a33d 5b47 8abd 2bdc 963d
00000350: c048 633d 7c79 fdbd 6af5 943d c205 3fbd
00000360: de64 7c3a 7c92 903d 6571 aabd a67c a1bd
00000370: 4164 32bd 0fc4 ca3d 88ae b13d 01bf 07bd
00000380: bc1f 833d 1a71 913d bdbd 943d 585c ec3d
00000390: 8704 443d 6bb0 c83c b6ed 7dbd 09fd b33d
000003a0: 5c45 89bd a94e 8ebd 0a46 1cbd e23d 583d
000003b0: 26ed 69bd 963c d03d 1024 87bc b43b f83d
000003c0: 6504 c1bd ff7a f7bd 854c 283b 7dac ee3d
000003d0: 81b4 cdbd fa43 1d3d e950 e4bd 7c7d 71bd
000003e0: cbbd c03d 2fd2 873d ff63 b23c 3f02 a2bd
000003f0: d12c dbbd 9b50 263d ffca d4bd 2dec 2a3c

encoder.message_net.3.0.bias f4 [64]
-0.11016607 0.07279338 0.06957889 -0.11285348 -0.083017915 -0.041373007 -0.06480269 0.06600979
0.03038073 0.06305169 -0.038175773 0.0121649895 -0.026871784 -0.019382868 -0.06565736 0.054391153
-0.069243714 -0.08279928 -0.073606715 -0.11820406 -0.11158273 -0.075245276 0.046419464 -0.094628766
-0.017054833 0.01290518 -0.015685145 0.050715584 0.039769407 -0.041827746 -0.120575845 0.026168328
-0.0458768 0.015163847 -0.036205977 0.006304791 0.012459919 -0.005606294 0.066664346 0.042889968
-0.10616214 -0.06749515 -0.038790792 0.040585767 -0.05743687 0.06358622 0.011370069 -0.068669535
-0.10799405 0.07423925 -0.048233286 -0.037477702 0.02855649 -0.10555042 0.060460124 -0.11076181
-0.032867566 -0.097901165 -0.0025480443 -0.013204544 0.06485885 -0.058073282 0.06034686 0.08278878
00000000: c09e e1bd b214 953d 617f 8e3d ba1f e7bd
00000010: 4c05 aabd be76 29bd 46b7 84bd 2430 873d
00000020: 02e1 f83c 3f21 813d 335e 1cbd aa4f 473c
00000030: 3722 dcbc d2c8 9ebc 5e77 86bd 42c9 5e3d
00000040: a6cf 8dbd ab92 a9bd 1ebf 96bd f814 f2bd
00000050: 7d85 e4bd 321a 9abd 5622 3e3d bacc c1bd
00000060: 94b6 8bbc 4070 533c 227e 80bc 25bb 4f3d
00000070: 3fe5 223d 9253 2bbd 78f0 f6bd f65e d63c
00000080: 50e9 3bbd c971 783c b84c 14bd 6c98 ce3b
00000090: b024 4c3c 01b5 b7bb 5187 883d 64ad 2f3d
000000a0: 896b d9bd e63a 8abd 18e3 1ebd 433d 263d
000000b0: ec42 6bbd 7e39 823d 8749 3a3c 9da2 8cbd
000000c0: fc2b ddbd bf0a 983d 4490 45bd 3882 19bd
000000d0: 4def e93c d22a d8bd 09a5 773d 16d7 e2bd
000000e0: 24a0 06bd 6880 c8bd 17fd 26bb df57 58bc
000000f0: b7d4 843d 40de 6dbd 452e 773d 2a8d a93d

encoder.message_net.4.0.weight f4 [64, 64]
-0.044590205 -0.046080947 0.03694108 0.122991025 -0.069021046 -0.015173361 0.104586616 -0.06909816
-0.08019209 -0.042809695 0.055219308 -0.06021343 0.072145164 0.015888527 0.06459987 0.055874467
-0.024619907 -0.019360647 0.053870752 0.025968254 0.05562122 -0.016257808 -0.10007994 0.007068619
-0.044770017 -0.034671903 0.03682235 -0.086603165 0.009177476 -0.03367637 -0.013972074 -0.01952517
0.121092305 -0.084772676 -0.011420965 -0.015441671 0.03809394 0.114672184 0.040673375 -0.03915161
0.033457354 -0.105766386 0.036192685 0.080479324 0.004476249 0.09218432 -0.04585482 -0.010653183
-0.0024606287 -0.05538471 0.111846 0.08916573 -0.06998393 0.10371974 0.002459228 0.11490753
0.031883106 0.030394882 -0.012571409 -0.06615493 -0.001036182 0.043523893 0.09283106 0.057047665
-0.06270992 -0.10940785 0.029437464 -0.14670308 0.028597387 0.08761494 0.012504856 -0.094552055
0.06156929 0.012556706 -0.060948294 -0.049083225 -0.12930833 0.10275123 -0.08180714 0.027802581
0.013214996 0.08237326 -0.10545293 -0.12767018 0.031324185 0.026541857 -0.07406355 -0.07872925
0.09701973 0.047230847 -0.011969764 -0.10855254 -0.059906054 -0.04772014 0.019723948 0.07928601
-0.123738885 0.08207513 -0.10855243 -0.10325979 -0.12168851 -0.12317072 0.026013935 -0.12540215
-0.076913804 -0.11409586 0.07593473 -0.10625691 -0.12389607 0.07362127 0.08466906 -0.07876013
-0.053324383 0.05099101 -0.107405975 0.003410031 0.0046943147 0.017959572 0.04541742 -0.030418811
0.06289549 -0.06343346 -0.1186491 0.059543215 -0.079277694 -0.09333558 -0.07683311 -0.10817637
-0.060671017 0.06970638 -0.06191227 -0.12292957 -0.014849231 -0.10240595 -0.05654882 -0.016214505
0.0563626 0.09863344 -0.06428537 -0.11211401 0.11431396 -0.05147402 0.01929234 0.020777747
-0.039769962 -0.03040567 0.025551304 -0.1244043 -0.024896085 -0.10460991 -0.06256196 -0.0016052276
-0.015760198 -0.10614696 -0.06155166 0.009200573 0.068161756 0.06124358 0.033270657 0.06547789
0.004571229 0.07844061 -0.04998362 -0.11115928 -0.080214605 0.06615296 -0.08933832 0.102135494
0.020025492 0.12185241 0.08227092 -0.06536728 0.08270933 0.09832139 0.035326317 -0.028035343
0.086450964 -0.105736494 0.06656931 0.09509346 -0.095210984 0.012109518 0.06762348 0.051700592
-0.06759432 0.03540626 -0.07656659 0.057030678 0.09981896 -0.049686253 -0.036024958 0.032035545
-0.10250466 -0.09324209 0.01108003 0.1311284 -0.105751716 -0.043697722 -0.10743772 0.109725095
0.1084632 -0.003994154 -0.08064879 0.082724534 -0.06142647 0.019585986 -0.11059529 -0.015114691
-0.112494506 -0.07737963 -0.055314623 -0.042361252 -0.11151501 -0.10163414 -0.11187077 0.055568956
-0.013423607 -0.08630708 0.03420586 -0.066205144 -0.005586108 0.101580285 0.11592214 -0.10749906
0.0042931894 -0.09383284 0.072808415 -0.027147304 -0.03532493 -0.074258 -0.09911849 -0.031032123
-0.11572143 -0.120531455 0.032403037 0.07526117 -0.0023641188 0.05261717 -0.027022159 0.03010113
-0.062134344 -0.077760264 -0.07729091 -0.024189107 -0.08139627 -0.1177343 -0.07495602 -0.06228359
-0.107949495 0.01754157 0.018026553 0.08099992 0.05277337 0.026622113 0.04231088 -0.07277258
00000000: 38a4 36bd 60bf 3cbd 884f 173d b8e2 fb3d
00000010: e85a 8dbd b099 78bc 8231 d63d 5683 8dbd
00000020: c03b a4bd 3859 2fbd a42d 623d 5ca2 76bd
00000030: d8c0 933d a828 823c f04c 843d a0dc 643d
00000040: b0af c9bc 389a 9ebc 94a7 5c3d 60bb d43c
00000050: 14d3 633d 182f 85bc b6f6 ccbd e09f e73b
00000060: c460 37bd 2004 0ebd 08d3 163d 005d b1bd
00000070: 205d 163c 3cf0 09bd 20eb 64bc 40f3 9fbc
00000080: 3eff f73d 4c9d adbd 001f 3bbc 10ff 7cbc
00000090: 6408 1c3d 40d9 ea3d 2099 263d 705d 20bd
000000a0: 940a 093d 0c9c d8bd c83e 143d 58d2 a43d
000000b0: 80ad 923b 22cb bc3d 44d2 3bbd b08a 2ebc
000000c0: 8042 21bb 14db 62bd 840f e53d 869c b63d
000000d0: bc53 8fbd 046b d43d 002b 213b a454 eb3d
000000e0: dc97 023d b0fe f83c 50f8 4dbc 3c7c 87bd
000000f0: 80d0 87ba 1c46 323d 361e be3d d0aa 693d
00000100: 0f6e 80bd 3911 e0bd d626 f13c 5539 16be
00000110: 1145 ea3c 766f b33d 2be1 4c3c 82a4 c1bd
00000120: 1430 7c3d a4ba 4d3c eba4 79bd 7e0b 49bd
00000130: 6769 04be 3d6f d23d 808a a7bd 3dc2 e33c
00000140: b683 583c 50b3 a83d b5f7 d7bd f9bb 02be
00000150: ca4d 003d 4f6e d93c a1ae 97bd cd3c a1bd
00000160: 48b2 c63d 2275 413d d41c 44bc cb50 debd
00000170: 0d60 75bd 3276 43bd 1e94 a13c b460 a23d
00000180: d06a fdbd 0117 a83d bd50 debd de79 d3bd
00000190: d337 f9bd ee40 fcbd 2d1b d53c 6c69 00be
000001a0: fc84 9dbd 17ab e9bd ab83 9b3d 399d d9bd
000001b0: 39bd fdbd c0c6 963d f966 ad3d fe4c a1bd
000001c0: ab6a 5abd f3db 503d aaf7 dbbd d47a 5f3b
000001d0: c4d2 993b f41f 933c 9e07 3a3d df30 f9bc
000001e0: 5acf 803d 67e9 81bd 4dfe f2bd 96e3 733d
000001f0: 585c a2bd b926 bfbd ad5a 9dbd 938b ddbd
00000200: 2c82 78bd 38c2 8e3d b897 7dbd 80c2 fbbd
00000210: 304a 73bc 36ba d1bd bc9f 67bd 48d4 84bc
00000220: 78dc 663d 5400 ca3d 0ca8 83bd 089c e5bd
00000230: 701d ea3d 6cd6 52bd f80a 9e3c 1836 aa3c
00000240: d4e5 22bd 5015 f9bc f850 d13c aec7 febd
00000250: e0f2 cbbc b83d d6bd 7c20 80bd 8066 d2ba
00000260: 881b 81bc 9463 d9bd 981d 7cbd 00be 163c
00000270: 6498 8b3d 8cda 7a3d d046 083d 4619 863d
00000280: 40ca 953b 78a5 a03d a0bb 4cbd 7aa7 e3bd
00000290: 8e47 a4bd 347b 873d 02f7 b6bd 6a2c d13d
000002a0: 800c a43c c28d f93d a87d a83d 48df 85bd
000002b0: 8263 a93d ba5c c93d 54b2 103d 60aa e5bc
000002c0: 340d b13d 608c d8bd 7e55 883d 5cc0 c23d
000002d0: fafd c2bd 0067 463c 2e7e 8a3d 00c4 533d
000002e0: e46e 8abd 2806 113d f2ce 9cbd 0099 693d
000002f0: e26d cc3d d083 4bbd e88e 13bd b437 033d
00000300: f7ed d1bd b5f5 bebd 0489 353c 8646 063e
00000310: 5b94 d8bd 62fc 32bd 4f08 dcbd 8db7 e03d
00000320: f421 de3d 64e1 82bb 312b a5bd 7b6b a93d
00000330: 529a 7bbd ca72 a03c c97f e2bd 9ca3 77bc
00000340: 8563 e6bd 3679 9ebd 9691 62bd fe82 2dbd
00000350: fb61 e4bd 8f25 d0bd 811c e5bd 469c 633d
00000360: b0ee 5bbc c4c1 b0bd 721b 0c3d 9096 87bd
00000370: ac0b b7bb 5309 d03d 9668 ed3d 7828 dcbd
00000380: e2ad 8c3b 6f2b c0bd 941c 953d 0664 debc
00000390: e0b0 10bd 9414 98bd a3fe cabd 1437 febc
000003a0: 5bff ecbd 32d9 f6bd 0cb9 043d 8722 9a3d
000003b0: 55ef 1abb 1a85 573d 935d ddbc a596 f63c
000003c0: 9580 7ebd c640 9fbd b24a 9ebd 3c28 c6bc
000003d0: 16b3 a6bd ae1e f1bd 8b82 99bd 141d 7fbd
000003e0: a014 ddbd 57b3 8f3c 6cac 933c 49e3 a53d
000003f0: e428 583d 9e16 da3c 2c4e 2d3d ca09 95bd

encoder.message_net.4.0.bias f4 [64]
-0.07762417 -0.026828581 -0.033145994 -0.07960867 0.047688454 -0.11824983 -0.0195547 0.0065202485
0.06171571 -0.06294954 -0.008131727 -0.111595556 0.011784092 -0.09493929 -0.10612276 -0.034119878
0.06562998 0.044126406 0.044620078 0.06929528 0.06535434 -0.042380493 -0.06757411 0.019182583
0.08230915 -0.06721139 0.07201984 -0.0029166548 0.07605666 0.014256363 -0.0781202 -0.1201701
0.05167691 -0.08100881 0.03700332 -0.025322016 -0.078669 -0.021370433 -0.0987168 -0.07080912
-0.055317823 -0.026814787 -0.01039374 -0.023652963 -0.0021631918 -0.08251742 0.0053364486 0.0024862622
0.031042691 -0.0023754225 0.029182421 -0.0906198 -0.0046877656 -0.12278135 0.07869645 -0.058349147
-0.068942025 -0.11964345 0.06105308 0.029909257 -0.09753135 -0.09724274 -0.019775683 -0.016042182
00000000: 6cf9 9ebd 9dc7 dbbc 18c4 07bd df09 a3bd
00000010: f854 433d f82c f2bd 2e31 a0bc cfa7 d53b
00000020: 9dc9 7c3d b0eb 80bd ef3a 05bc 368c e4bd
00000030: 1012 413c 886f c2bd e456 d9bd 49c1 0bbd
00000040: 0369 863d e4bd 343d 8bc3 363d afea 8d3d
00000050: 7fd8 853d 2b97 2dbd 4c64 8abd cb24 9d3c
00000060: b391 a83d 20a6 89bd 237f 933d 5925 3fbb
00000070: 98c3 9b3d 8593 693c 7cfd 9fbd be1b f6bd
00000080: 2bab 533d f2e7 a5bd cb90 173d 1e70 cfbc
00000090: 361d a1bd 0c11 afbc 092c cabd 5f04 91bd
000000a0: f194 62bd afaa dbbc 814a 2abc dcc3 c1bc
000000b0: 56c4 0dbb e5fe a8bd 60dd ae3b 8ff0 223b
000000c0: 3e4d fe3c faac 1bbb f90f ef3c e096 b9bd
000000d0: d49b 99bb ca74 fbbd 9b2b a13d 84ff 6ebd
000000e0: 7a31 8dbd a007 f5bd cb12 7a3d 4204 f53c
000000f0: 84be c7bd 3427 c7bd 9d00 a2bc e56a 83bc
