experiments/gnn_hd64_ld32_nr5_ep500/model.pt (torch, 218065 bytes, 24 tensors)

encoder.input_net.0.weight f4 [64, 7]
0.10519048 -0.045173146 -0.33752623 -0.35371193 0.010233827 -0.024699943 0.27069405 0.16095924
0.18551542 -0.370951 -0.22792138 0.14098029 0.08705094 -0.044025164 0.18173641 -0.2896146
0.3273854 0.23410593 0.11644832 0.22896948 -0.32067883 -0.3722004 -0.37232468 -0.3668479
0.4072297 0.018918382 0.26181248 0.02408952 0.02637134 -0.21220256 -0.1402305 0.267981
-0.24821576 -0.3133053 -0.14449519 0.13973369 -0.30419204 -0.29022545 0.1849907 -0.20249115
-0.004914021 -0.37644628 0.20687675 -0.22394177 -0.22036268 -0.2916085 -0.28486818 -0.2782723
-0.22065064 -0.3567154 -0.06588429 0.16452211 0.096378 0.10997187 -0.14921944 -0.15046816
-0.01990302 0.26318207 -0.07679133 0.10853052 1.6355645e-05 -0.19543415 -0.070068985 0.09969582
0.0360902 0.044485793 -0.27957886 -0.28193083 0.38626578 -0.10289149 0.18669236 0.23496719
0.13572037 0.15106705 -0.20113872 -0.29270902 0.27814925 -0.34235904 0.14494433 0.13601492
0.18530592 -0.18023989 -0.108827285 -0.15565908 0.18981422 -0.095603704 0.21393582 -0.14540814
-0.043842997 0.14892334 0.061778154 0.016770171 0.18171002 0.12974119 -0.2509819 0.14082311
0.051224556 -0.2732638 -0.0033041092 -0.073448665 0.0477495 0.07221134 -0.015392646 -0.22204961
-0.020337574 -0.002498817 0.051494427 0.06647612 0.246274 -0.059295163 0.3246497 -0.21859573
-0.1298299 0.11991261 -0.110103235 -0.096871875 -0.20207058 -0.054753657 -0.04883805 -0.029841045
0.04137203 -0.08642454 0.040140964 0.23576666 0.19499433 0.04372196 0.17410061 -0.36692104
-0.21591274 0.17225999 -0.33582848 -0.23447855 0.17605531 0.35568112 0.25583997 -0.13035057
-0.22760066 0.13090456 -0.31110245 -0.11532884 -0.28589812 0.31888276 -0.2228396 0.23730174
0.309702 0.13580151 0.16785595 -0.27256426 -0.28236252 0.15822987 0.1595983 0.1340851
-0.21282935 -0.30174968 -0.19594894 0.12564817 0.3622806 0.017318461 0.34724388 0.1446883
0.17809649 -0.34877887 0.22317597 -0.17077725 0.38250935 0.2963301 0.17838027 0.34884375
-0.34084356 0.06110772 -0.24351464 0.05532286 0.51745313 -0.1996123 -0.10952447 -0.16270599
-0.1660189 -0.331196 0.3848061 -0.15963419 0.1534402 0.14617194 -0.009763183 -0.058296014
-0.30417392 -0.12371263 0.06168348 -0.3630745 -0.0036223535 -0.16976573 -0.23684712 0.09894781
-0.31892055 0.2643775 -0.14522588 -0.044011597 -0.064314 0.15946244 0.3695111 -0.3660208
-0.07456931 -0.056709886 0.4064317 0.1695532 0.04743061 -0.13231713 -0.17653722 0.011547221
0.17280513 -0.29929605 -0.34823653 0.15009327 0.19300613 0.22232923 0.12461608 0.23622562
-0.3493204 -0.31168592 -0.31491622 0.46816722 -0.36806443 -0.2754824 0.082062975 -0.10228674
0.3340666 0.1342183 0.24020956 -0.09908976 -0.35155603 0.06872827 -0.25422055 0.3670909
-0.19082803 -0.3262539 -0.36692026 -0.077359535 0.46765116 0.07347066 -0.15402426 -0.18184964
-0.3335701 -0.285755 -0.20997527 0.06043011 -0.093663886 0.24408445 -0.23565264 -0.101931766
0.09192274 0.16593646 0.23869812 -0.26724946 -0.24206775 0.3901878 -0.014491227 -0.04809312
00000000: 1b6e d73d 7a07 39bd 3dd0 acbe bb19 b5be
00000010: c8ab 273c 8957 cabc 6998 8a3e 80d2 243e
00000020: c1f7 3d3e 4aed bdbe 3964 69be 235d 103e
00000030: c347 b23d bb53 34bd 1c19 3a3e 5d48 94be
00000040: 0f9f a73e 77b9 6f3e 757c ee3d fa76 6a3e
00000050: 0430 a4be 0d91 bebe 57a1 bebe 7dd3 bbbe
00000060: 6980 d03e b9fa 9a3c 490c 863e 6357 c53c
00000070: b508 d83c a14b 59be 9698 0fbe ce34 893e
00000080: 462c 7ebe 8d69 a0be 8cf6 13be 5916 0f3e
00000090: 0fbf 9bbe 6e98 94be 346e 3d3e d759 4fbe
000000a0: cc05 a1bb 91bd c0be 80d7 533e fe50 65be
000000b0: c1a6 61be b64d 95be 3eda 91be b579 8ebe
000000c0: 3ef2 61be 67a3 b6be 58ee 86bd 7c78 283e
000000d0: d461 c53d ef38 e13d fbcc 18be 5314 1abe
000000e0: a80b a3bc cdbf 863e c644 9dbd 4045 de3d
000000f0: 7b33 8937 e41f 48be 5480 8fbd 522d cc3d
00000100: 51d3 133d bc36 363d f624 8fbe 3d59 90be
00000110: a1c4 c53e c6b8 d2bd 482c 3f3e 3d9b 703e
00000120: 48fa 0a3e 52b1 1a3e 4ff7 4dbe f5dd 95be
00000130: 9469 8e3e af49 afbe 496c 143e 7f47 0b3e
00000140: d6c0 3d3e ce90 38be d7e0 debd 1865 1fbe
00000150: a95e 423e e0cb c3bd fe11 5b3e dfe5 14be
00000160: b794 33bd 5c7f 183e 170b 7d3d 9961 893c
00000170: 3112 3a3e e0da 043e b380 80be ef33 103e
00000180: d7d0 513d 3ce9 8bbe c189 58bb 416c 96bd
00000190: fb94 433d 8ae3 933d 7031 7cbc f960 63be
000001a0: fc9a a6bc 31c3 23bb d2eb 523d a224 883d
000001b0: 402f 7c3e 7cdf 72bd 7c38 a63e 8fd7 5fbe
000001c0: 21f2 04be be94 f53d ce7d e1bd c364 c6bd
000001d0: 97eb 4ebe 5f45 60bd 680a 48bd 3575 f4bc
000001e0: b875 293d 59ff b0bd da6a 243d d16c 713e
000001f0: 98ac 473e cc15 333d 6e47 323e 13dd bbbe
00000200: 3b18 5dbe ec64 303e b6f1 abbe 251b 70be
00000210: d847 343e d61b b63e 75fd 823e 9f7a 05be
00000220: 2610 69be d80b 063e d248 9fbe 8731 ecbd
00000230: 3d61 92be 9a44 a33e 1030 64be 3aff 723e
00000240: 4391 9e3e 8d0f 0b3e 6ee2 2b3e 8b8d 8bbe
00000250: d291 90be 0307 223e bd6d 233e 9b4d 093e
00000260: f0ef 59be ef7e 9abe d7a6 48be eaa9 003e
00000270: d87c b93e 72df 8d3c f3c9 b13e 2b29 143e
00000280: ed5e 363e 2593 b2be 3e88 643e 3be0 2ebe
00000290: 44d8 c33e 94b8 973e 51a9 363e a69b b23e
000002a0: 0c83 aebe 174c 7a3d e75b 79be 399a 623d
000002b0: cf77 043f 2b67 4cbe 5e4e e0bd 669c 26be
000002c0: dc00 2abe 8692 a9be 4e05 c53e 2577 23be
000002d0: 6e1f 1d3e 19ae 153e c2f5 1fbc cdc7 6ebd
000002e0: afbc 9bbe 0c5d fdbd d1a7 7c3d e7e4 b9be
000002f0: 0265 6dbb 11d7 2dbe 0d88 72be 26a5 ca3d
00000300: 8e49 a3be 7d5c 873e 18b6 14be 8145 34bd
00000310: 0fb7 83bd 1f4a 233e 8f30 bd3e 1467 bbbe
00000320: cbb7 98bd a048 68bd d117 d03e 5b9f 2d3e
00000330: 9946 423d 247e 07be 2cc6 34be 8e30 3d3c
00000340: d4f3 303e 553d 99be 0f4c b2be 0db2 193e
00000350: 66a3 453e 46aa 633e b736 ff3d 21e5 713e
00000360: 20da b2be 4c95 9fbe b33c a1be 9db3 ef3e
00000370: f172 bcbe 070c 8dbe a210 a83d b67b d1bd
00000380: c70a ab3e 8670 093e 7ff9 753e 92ef cabd
00000390: 27ff b3be 68c1 8c3d 3229 82be 57f3 bb3e
000003a0: 6c68 43be c00a a7be f9dc bbbe ad6e 9ebd
000003b0: f96f ef3e c977 963d 89b8 1dbe cb36 3abe
000003c0: b3c9 aabe 7b4e 92be c203 57be 9085 773d
000003d0: dad2 bfbd 46f1 793e ed4e 71be 9ac1 d0bd
000003e0: fd41 bc3d 3feb 293e 486d 743e ecd4 88be
000003f0: 9ce0 77be b2c6 c73e 9d6c 6dbc 4bfd 44bd

encoder.input_net.0.bias f4 [64]
0.25065058 -0.20664129 -0.33278254 0.37473512 -0.28001034 0.25753865 0.1861138 0.062273115
-0.27195218 0.047179103 -0.3462477 0.1044108 -0.011598009 -0.062225666 -0.07859299 -0.09131038
-0.15159895 -0.14953904 0.14065698 -0.36086428 0.15604165 0.27573615 0.16523962 0.1950648
0.23849694 0.1390034 -0.06203277 0.2445082 0.051570438 -0.177958 0.27362365 0.30900463
-0.33685443 0.28922224 0.15209663 -0.33891538 0.008463811 -0.21993588 0.26244998 -0.12845519
0.09961052 -0.2840458 -0.18731517 -0.3983779 -0.23395896 -0.34511146 -0.032165896 0.050609216
-0.23272619 -0.25395602 -0.0077778175 -0.098087005 -0.26067764 0.27503726 -0.33811423 -0.019624094
-0.14973661 0.11411774 0.14703912 0.2175324 0.15769146 -0.16333406 0.2454001 -0.02139305
00000000: 4655 803e c699 53be 7962 aabe 48dd bf3e
00000010: 845d 8fbe 1bdc 833e 9e94 3e3e 1812 7f3d
00000020: 513d 8bbe e03e 413d 6147 b1be 54d5 d53d
00000030: 9305 3ebc 57e0 7ebd 5df5 a0bd f000 bbbd
00000040: c13c 1bbe c320 19be 6208 103e 34c3 b8be
00000050: 62c9 1f3e 4a2d 8d3e 9334 293e 11bf 473e
00000060: 8b38 743e e856 0e3e 1316 7ebd 5c60 7a3e
00000070: 863b 533d 9f3a 36be 6618 8c3e db35 9e3e
00000080: 2f78 acbe f014 943e 38bf 1b3e 5186 adbe
00000090: ccab 0a3c df36 61be d85f 863e c289 03be
000000a0: 9a00 cc3d 736e 91be 8ccf 3fbe 30f8 cbbe
000000b0: f092 6fbe 73b2 b0be 63c0 03bd 9c4b 4f3d
000000c0: c64f 6ebe 8606 82be 10dd febb d7e1 c8bd
000000d0: 8a77 85be afd1 8c3e 4f1d adbe b5c2 a0bc
000000e0: 8e54 19be 90b6 e93d 6c91 163e d0c0 5e3e
000000f0: df79 213e 0b41 27be 2a4a 7b3e 7a40 afbc

encoder.message_net.0.0.weight f4 [64, 64]
-0.03799464 -0.0079241935 0.07329755 0.047296096 -0.09256849 -0.06244035 0.011456179 0.042091396
-0.04131636 -0.12602103 0.01849167 -0.11989268 -0.100386575 -0.096422255 0.012121204 0.029903896
-0.09963362 -0.07453181 0.08046845 0.09568869 -0.13845704 -0.031362064 -0.1500735 -0.011029177
-0.013538628 0.09547775 0.0072881794 0.080808476 0.101458326 0.118791126 0.06216434 -0.024520459
-0.010876831 -0.035211552 -0.0091828 0.011605769 -0.009158656 0.0678721 -0.041100584 -0.002727052
-0.10185438 0.08629441 -0.030924251 -0.05121616 -0.122358486 0.08077228 0.009557098 -0.09488438
0.049617067 -0.06606008 -0.043735065 0.083053246 0.023595339 -0.09265158 -0.07148115 0.010371902
0.011231328 -0.10481814 -0.03456212 -0.07775761 -0.0044197147 -0.03510492 0.00087355863 0.07528939
-0.034484077 -0.023445157 0.018227618 -0.21346967 -0.01919376 -0.18212701 -0.13311888 0.45210576
0.10861588 -0.18355265 0.061741143 0.12668566 0.09855488 -0.026010836 0.07724296 -0.1917264
-0.07165396 -0.2599235 -0.13849935 -0.06307195 -0.0063574146 0.39330682 0.1927049 -0.07956374
0.073319934 -0.17528503 0.067249425 0.3290907 0.25176784 0.012199696 0.21106917 0.25323594
-0.045139182 -0.06178996 -0.113017954 -0.011723772 -0.14357519 -0.12223152 0.08505333 0.07450436
0.34274244 -0.068913296 -0.033632495 0.23702885 0.0037188232 0.047356457 -0.1041025 0.013745541
-0.015207566 0.027647838 0.30146787 -0.025232598 -0.092886895 -0.13485384 -0.09531993 -0.23510396
-0.15920736 0.1917834 -0.27530548 0.13885802 -0.3769266 0.11959626 0.19695526 0.22205791
-0.14014192 -0.14066824 -0.056385785 -0.039654344 -0.06416823 0.031411152 0.0026732266 0.102138564
0.12420224 -0.08283453 0.04624501 0.06385578 0.008412003 -0.118972495 -0.114450164 0.040678892
0.019317627 0.007605925 -0.15331432 -0.12252121 -0.04396139 -0.13119549 0.07575534 -0.11911924
0.019109601 -0.032837838 -0.17034352 -0.13957512 -0.11624204 -0.044680413 0.03295999 0.025638865
0.11924532 -0.062986106 -0.0059208996 0.092421785 -0.0035051256 -0.10539444 0.052871786 -0.058704764
-0.08595258 -0.08134034 0.094441175 0.013936639 -0.10766059 -0.0043611526 -0.12295307 -0.081185564
-0.13675614 0.0018002689 -0.058357757 -0.049331885 0.050836697 0.047853183 -0.006771907 -0.045788094
-0.082057 -0.07253103 0.041963387 0.10707873 -0.1020749 -0.07849383 -0.029272808 0.07105281
0.061497144 -0.02093622 -0.06018356 -0.013535848 0.06751439 -0.09998265 0.015348657 -0.104553916
0.013424084 0.01462986 -0.07639168 -0.124403134 -0.07014154 -0.11020542 -0.13894969 0.026738063
-0.0676308 0.043745227 -0.020584218 -0.12111066 0.031085655 -0.103888825 0.07337096 -0.076075085
-0.12552074 0.033040047 -0.031421676 -0.02288578 -0.18577619 -0.016088706 -0.17328747 0.038684927
-0.033298384 -0.05034338 -0.13957813 -0.036884084 -0.1366231 -0.007246295 -0.0012118457 -0.062508516
-0.050551806 0.035415743 -0.11663368 -0.10077769 0.056120843 0.03412917 0.059334114 -0.041049644
-0.1534731 -0.034745745 0.05152596 -0.09839967 -0.09035553 -0.15552203 -0.007916927 -0.12123378
-0.11288035 0.059036016 -0.08716898 0.049854912 0.0084652975 -0.12387988 -0.040497378 -0.12169471
00000000: 45a0 1bbd 7ad4 01bc 071d 963d 8db9 413d
00000010: 8c94 bdbd 74c1 7fbd b3b2 3b3c 0768 2c3d
00000020: 583b 29bd a80b 01be d87b 973c 4b8a f5bd
00000030: 7a97 cdbd 0879 c5bd 0498 463c 04f9 f43c
00000040: b60c ccbd 22a4 98bd a5cc a43d 6ff8 c33d
00000050: afc7 0dbe 8275 00bd deac 19be b9b3 34bc
00000060: 1fd1 5dbc d789 c33d aed1 ee3b ea7e a53d
00000070: 62c9 cf3d c348 f33d 09a0 7e3d 21df c8bc
00000080: bc34 32bc fd39 10bd 7473 16bc 2026 3e3c
00000090: 300e 16bc 8700 8b3d 1659 28bd 57b8 32bb
000000a0: 0799 d0bd 20bb b03d db54 fdbc 09c8 51bd
000000b0: 1697 fabd f06b a53d 6095 1c3c be52 c2bd
000000c0: 443b 4b3d 824a 87bd 8a23 33bd d217 aa3d
000000d0: 034b c13c 1dc0 bdbd b664 92bd e9ee 293c
000000e0: 9b03 383c e5aa d6bd 0291 0dbd 623f 9fbd
000000f0: 41d3 90bb 2dca 0fbd 87ff 643a 5331 9a3d
00000100: 2d3f 0dbd 0f10 c0bc 1652 953c cb97 5abe
00000110: 3b3c 9dbc 817f 3abe 5150 08be 687a e73e
00000120: 0172 de3d 3af5 3bbe 48e4 7c3d e3b9 013e
00000130: 24d7 c93d ad14 d5bc 8f31 9e3d ed53 44be
00000140: 50bf 92bd b114 85be c6d2 0dbe de2b 81bd
00000150: dc51 d0bb 835f c93e 6f54 453e 50f2 a2bd
00000160: c328 963d eb7d 33be 11ba 893d 947e a83e
00000170: b7e7 803e 3ce1 473c 8422 583e 24a8 813e
00000180: dde3 38bd 7817 7dbd f575 e7bd 1015 40bc
00000190: 6005 13be 8554 fabd 7130 ae3d be95 983d
000001a0: f07b af3e 6a22 8dbd 3ac2 09bd b1b7 723e
000001b0: 80b7 733b d8f8 413d b133 d5bd fa34 613c
000001c0: 2829 79bc b87d e23c ff59 9a3e 98b4 cebc
000001d0: 7c3b bebd 2017 0abe 1837 c3bd 18bf 70be
000001e0: 4107 23be de62 443e d7f4 8cbe cc30 0e3e
000001f0: 86fc c0be e2ee f43d a4ae 493e 2663 633e
00000200: 5d81 0fbe 560b 10be c8f4 66bd 986c 22bd
00000210: a26a 83bd fba8 003d 4d31 2f3b 062e d13d
00000220: be5d fe3d 26a5 a9bd 686b 3d3d d2c6 823d
00000230: 7fd2 093c daa7 f3bd d964 eabd e99e 263d
00000240: 0040 9e3c 203b f93b 6efe 1cbe 66ec fabd
00000250: dc10 34bd 1c58 06be 9e25 9b3d caf4 f3bd
00000260: bd8b 9c3c f880 06bd 886e 2ebe c8ec 0ebe
00000270: 4f10 eebd cf02 37bd 0e01 073d 9908 d23c
00000280: e436 f43d dcfe 80bd 1b04 c2bb a247 bd3d
00000290: 40b6 65bb 0ad9 d7bd 1690 583d 6874 70bd
000002a0: e807 b0bd c495 a6bd 606a c13d 8056 643c
000002b0: 287d dcbd 00e8 8ebb d2ce fbbd 9e44 a6bd
000002c0: cd09 0cbe 00f7 eb3a 8b08 6fbd 3b10 4abd
000002d0: 243a 503d b301 443d e0e6 ddbb 4c8c 3bbd
000002e0: 800d a8bd 268b 94bd cde1 2b3d 184c db3d
000002f0: a50c d1bd 60c1 a0bd 87cd efbc 2384 913d
00000300: 6ee4 7b3d 7082 abbc 0983 76bd 76c5 5dbc
00000310: fc44 8a3d b4c3 ccbd ef78 7b3c 5d20 d6bd
00000320: b0f0 5b3c 15b2 6f3c 3e73 9cbd 12c7 febd
00000330: 5ea6 8fbd 61b3 e1bd d448 0ebe c809 db3c
00000340: 0482 8abd 322e 333d 3ca0 a8bc de08 f8bd
00000350: 58a7 fe3c aac3 d4bd 8443 963d 41cd 9bbd
00000360: 8288 00be 0055 073d 04b4 00bd f67a bbbc
00000370: 1d3c 3ebe 76cc 83bc 4572 31be 1674 1e3d
00000380: e363 08bd dc34 4ebd 92ed 0ebe c413 17bd
00000390: ede6 0bbe 5472 edbb cbd6 9eba 7704 80bd
000003a0: 690f 4fbd 1910 113d a4dd eebd 8964 cebd
000003b0: f8de 653d 07cb 0b3d 5408 733d ac23 28bd
000003c0: 0d28 1dbe 8e51 0ebd e30c 533d c485 c9bd
000003d0: 520c b9bd 2b41 1fbe 00b6 01bc 6b49 f8bd
000003e0: d02d e7bd c0cf 713d a685 b2bd aa34 4c3d
000003f0: 08b2 0a3c bcb4 fdbd 94e0 25bd 133b f9bd

encoder.message_net.0.0.bias f4 [64]
-0.03770991 0.082193285 -0.09284093 0.055682868 -0.15576729 0.07322115 -0.07168228 0.012036303
0.0026333805 -0.09037873 -0.09181491 -0.03615496 -0.07994766 0.063302346 0.16108094 -0.12299591
0.06091409 0.096807644 0.06405059 -0.07918448 -0.13698706 0.0979719 -0.0004920898 0.051560212
-0.016570536 0.06429999 -0.0019021294 -0.08139031 -0.070377864 -0.12819557 -0.04276795 -0.03153194
0.077209026 0.028667105 0.11760738 -0.06574327 -0.014992447 0.013005608 -0.017933354 0.0008732148
0.054838363 -0.13273147 0.036193587 -0.032387506 0.013216253 -0.039704278 -0.027787404 0.004571269
-0.050988004 -0.078668535 -0.06114386 0.02292036 -0.09335249 0.024438918 -0.0046396554 -0.1476519
-0.003182778 0.023442449 -0.0076378672 0.06391785 0.17137206 0.13453422 -0.03954681 -0.098560974
00000000: b575 1abd f454 a83d 6323 bebd b813 643d
00000010: 7681 1fbe f8f4 953d 29ce 92bd ea33 453c
00000020: cb94 2c3b 7c18 b9bd 7509 bcbd 3917 14bd
00000030: 99bb a3bd a9a4 813d 67f2 243e 48e5 fbbd
00000040: 0e81 793d 1643 c63d f52c 833d 792b a2bd
00000050: 5646 0cbe 7ea5 c83d 96ff 00ba cd30 533d
00000060: efbe 87bc b7af 833d df50 f9ba f6af a6bd
00000070: 4522 90bd b345 03be 722d 2fbd a327 01bd
00000080: c41f 9e3d 47d7 ea3c 23dc f03d 68a4 86bd
00000090: e1a2 75bc 7915 553c f8e8 92bc 74e8 643a
000000a0: 319e 603d c2ea 07be ba3f 143d c3a8 04bd
000000b0: fc88 583c f4a0 22bd 69a2 e3bc 95ca 953b
000000c0: ccd8 50bd f81c a1bd fc71 7abd 7bc3 bb3c
000000d0: 972f bfbd 2034 c83c 4008 98bb 0f32 17be
000000e0: 2796 50bb 610a c03c 1347 fabb 5de7 823d
000000f0: 287c 2f3e 57c3 093e d6fb 21bd 56da c9bd

encoder.message_net.1.0.weight f4 [64, 64]
-0.046952724 0.12845592 0.009625302 0.007711826 0.15606216 -0.038437176 -0.0745621 -0.20343117
-0.08666599 -0.11413596 0.02638162 -0.068385914 -0.031134835 0.13637508 -0.049727652 -0.09265355
-0.20781875 -0.11162541 -0.0078555755 -0.14305437 0.02134635 -0.058019705 0.025036514 -0.052667476
-0.14938119 0.06461724 0.031925328 -0.13935128 -0.107117444 0.12292375 -0.11382154 -0.09665583
-0.04875152 -0.018255044 0.09399453 -0.04526144 -0.05147912 0.17505807 0.23223071 -0.026245654
-0.0945659 0.020513035 0.07129202 -0.018473152 0.03373739 -0.035003643 -0.110757835 -0.20053555
0.03530139 0.13765068 -0.15559779 -0.06933844 -0.03230939 0.1158096 0.10047309 0.055510446
0.18881266 0.13800187 0.0028885342 0.05065373 -0.103487276 -0.0390045 0.120873265 0.0647056
0.015823118 -0.15242203 -0.02800014 -0.07130052 0.059379496 0.069387265 0.05949351 -0.37067094
0.025091786 0.014431966 -0.041306943 -0.15493403 -0.088279314 0.0043317573 0.011148394 -0.21119085
0.11124728 -0.22136445 -0.15275039 -0.03340176 -0.23942874 -0.073274754 -0.119096935 0.0725385
-0.07929447 0.22409762 0.18679881 -0.039878067 -0.097463705 0.07286333 -0.23737358 0.056268584
0.015363165 -0.14243565 -0.03732962 -0.064156316 -0.0059060147 0.06524546 0.19315551 0.0061826967
-0.15392815 -0.06918963 -0.15230122 0.04867235 -0.03541587 -0.13306612 0.1565662 -0.21765347
0.050219648 0.40171626 -0.120316744 0.05563044 -0.024194477 0.03220431 -0.09515369 0.08139843
0.03802123 0.022956666 0.08645436 0.077492826 0.2015096 0.0043384833 0.22046389 -0.085818
-0.1304224 -0.015266822 -0.15807721 0.014064975 -0.3107308 0.1013855 -0.14357553 -0.27010727
-0.034869473 -0.079838656 -0.09678161 -0.110180736 -0.112388074 -0.25916076 -0.097834066 -0.16380434
0.14655815 -0.12165784 -0.2774023 -0.06879639 0.0990112 -0.276952 -0.12435729 0.07616818
0.1882397 0.011510434 0.26577425 -0.06584588 0.080197655 -0.18637413 -0.16526242 -0.07832671
-0.07252477 -0.15394033 -0.11238922 -0.15885822 -0.096833944 0.08785784 -0.08890434 -0.036370113
-0.13340628 -0.24277031 -0.0068612755 0.19436908 0.055395603 0.0072597535 0.17434272 -0.17225806
-0.053674325 0.14097255 -0.18309371 -0.015479096 0.07936178 -0.1805336 0.08031645 0.07514786
-0.16160497 -0.07853883 0.023445182 -0.11700253 0.0887465 -0.124938264 -0.19585754 -0.0078011933
0.02557946 0.09119178 -0.03160414 0.038284525 -0.0337721 0.03871667 -0.033032767 -0.07199156
-0.10198675 -0.0027820119 -0.23812805 0.030660925 -0.10469294 0.055142615 -0.1193959 0.092780195
0.018299565 -0.034982182 0.033509433 -0.21216051 -0.12562004 -0.04703422 -0.04459004 -0.07929811
-0.11942581 -0.08804087 -0.07371404 0.0860979 0.112859234 -0.076239236 -0.259671 0.015576074
-0.055409856 -0.21296653 -0.076614924 -0.08783103 -0.011817312 -0.09934443 -0.056921322 -0.12303882
-0.20190734 -0.102753125 -0.18080446 0.1279785 0.12571728 -0.062956676 0.057819124 0.0029208402
0.12749986 0.097803466 -0.053407554 -0.09690544 -0.12534258 -0.032874864 0.07913014 0.0059427195
0.07080617 -0.086668 0.09271605 0.074526966 -0.045583844 -0.08028079 -0.13893534 0.049162313
00000000: 8051 40bd f389 033e 71b3 1d3c 7cb3 fc3b
00000010: c2ce 1f3e 4d70 1dbd 04b4 98bd 4350 50be
00000020: f07d b1bd 1dc0 e9bd 441e d83c ea0d 8cbd
00000030: 7b0e ffbc e9a5 0b3e 39af 4bbd 25c1 bdbd
00000040: 70ce 54be dd9b e4bd acb4 00bc d87c 12be
00000050: 8ade ae3c 12a6 6dbd 6019 cd3c dab9 57bd
00000060: 62f7 18be 0b56 843d 22c4 023d 1ab2 0ebe
00000070: 6460 dbbd 72bf fb3d 441b e9bd 7ef3 c5bd
00000080: adaf 47bd 9a8b 95bc 3480 c03d 0f64 39bd
00000090: c5db 52bd 6c42 333e e3cd 6d3e 2001 d7bc
000000a0: c4ab c1bd f40a a83c 8d01 923d 0255 97bc
000000b0: 3830 0a3d fb5f 0fbd 01d5 e2bd 3159 4dbe
000000c0: 3198 103d 4df4 0c3e 0755 1fbe 5001 8ebd
000000d0: da56 04bd 952d ed3d d6c4 cd3d ec5e 633d
000000e0: 1b58 413e 5d50 0d3e 904d 3d3b 497a 4f3d
000000f0: 23f1 d3bd 2fc3 1fbd 678c f73d 5f84 843d
00000100: 7c9f 813c 8514 1cbe 8d60 e5bc 0206 92bd
00000110: ea37 733d e91a 8e3d 77af 733d 95c8 bdbe
00000120: 4a8d cd3c 0d74 6c3c 7831 29bd 07a7 1ebe
00000130: c9cb b4bd 6af1 8d3b c1a7 363c 6a42 58be
00000140: 9dd5 e33d 5dad 62be 996a 1cbe 49d0 08bd
00000150: cf2c 75be 1311 96bd 18e9 f3bd 118f 943d
00000160: 2465 a2bd d979 653e 3048 3f3e 2f57 23bd
00000170: 0d9b c7bd 5f39 953d 0f12 73be e379 663d
00000180: c9b5 7b3c a7da 11be f2e6 18bd 6364 83bd
00000190: 3e87 c1bb 699f 853d 8fca 453e 3898 ca3b
000001a0: 579f 1dbe 4bb3 8dbd daf4 1bbe a85c 473d
000001b0: 3b10 11bd 7c42 08be e452 203e 8de0 5ebe
000001c0: 1eb3 4d3d c1ad cd3e a068 f6bd bfdc 633d
000001d0: 7f33 c6bc abe8 033d f0df c2bd 38b4 a63d
000001e0: 26bc 1b3d 9e0f bc3c fc0e b13d 8fb4 9e3d
000001f0: 8858 4e3e d629 8e3b 49c1 613e 59c1 afbd
00000200: 738d 05be b121 7abc fede 21be c870 663c
00000210: 1b18 9fbe 33a3 cf3d 7705 13be 804b 8abe
00000220: 4bd3 0ebd 7382 a3bd 7035 c6bd 70a6 e1bd
00000230: b82b e6bd b8b0 84be 3a5d c8bd 53bc 27be
00000240: 5713 163e bf27 f9bd ad07 8ebe 1fe5 8cbd
00000250: 62c6 ca3d a7cc 8dbe 09af febd 10fe 9b3d
00000260: e8c1 403e 4296 3c3c 9013 883e 34da 86bd
00000270: ab3e a43d dcd8 3ebe 8d3a 29be c169 a0bd
00000280: de87 94bd 89a2 1dbe 522c e6bd bbab 22be
00000290: e050 c6bd d0ee b33d 7b13 b6bd d4f8 14bd
000002a0: a89b 08be c898 78be 8dd4 e0bb b008 473e
000002b0: 80e6 623d 3ae3 ed3b e686 323e 6b64 30be
000002c0: 9cd9 5bbd 1c5b 103e eb7c 3bbe 099c 7dbc
000002d0: 6e88 a23d cddd 38be f37c a43d 1fe7 993d
000002e0: c67b 25be f7d8 a0bd 1c10 c03c 069f efbd
000002f0: bac0 b53d a2df ffbd e18e 48be 27a1 ffbb
00000300: 048c d13c c2c2 ba3d 5873 01bd 3cd0 1c3d
00000310: 9d54 0abd 5f95 1e3d 5e4d 07bd 5070 93bd
00000320: 6ede d0bd 6a52 36bb d7d7 73be 9f2c fb3c
00000330: 4169 d6bd 39dd 613d d685 f4bd 8b03 be3d
00000340: f8e8 953c 7a49 0fbd 3041 093d 9b40 59be
00000350: 8aa2 00be f4a6 40bd 0ca4 36bd 0c67 a2bd
00000360: 8595 f4bd c64e b4bd 63f7 96bd 1954 b03d
00000370: be22 e73d 5123 9cbd 99f3 84be ca32 7f3c
00000380: 72f5 62bd e613 5abe 49e8 9cbd c1e0 b3bd
00000390: 669d 41bc 1875 cbbd 5526 69bd c7fb fbbd
000003a0: ccc0 4ebe 3b70 d2bd ce24 39be cc0c 033e
000003b0: 08bc 003e 6eef 80bd bfd3 6c3d 916b 3f3b
000003c0: 538f 023e 2f4d c83d e1c1 5abd 5c76 c6bd
000003d0: ce59 00be cba7 06bd fc0e a23d 25bb c23b
000003e0: d302 913d fe7e b1bd eae1 bd3d 98a1 983d
000003f0: 20b6 3abd 416a a4bd 1145 0ebe 6c5e 493d

encoder.message_net.1.0.bias f4 [64]
-0.074491724 -0.010688047 0.023266185 -0.0044264477 -0.07131023 -0.04696106 -0.13509266 -0.019621875
-0.03734361 -0.08466926 -0.039056722 -0.107567094 -0.00067549193 0.08131818 -0.1702222 -0.05104191
-0.007322882 -0.13514933 -0.057595592 -0.080270775 -0.13837391 0.13376133 -0.11853416 -0.1423527
0.0054238867 -0.06933623 0.04765888 -0.06985616 -0.120860174 0.098751806 -0.03592276 -0.067592375
0.008878239 -0.07605639 -0.067559004 -0.11087998 -0.113344856 0.06397496 -0.14375988 -0.012709035
-0.011430864 -0.026324186 -0.099982396 -0.12172696 0.004764249 -0.042833667 -0.017134836 0.031736128
-0.06896029 -0.00045947407 -0.053682078 0.22037901 -0.113915965 -0.09670899 -0.016299373 0.15293716
-0.16419488 -0.105655804 -0.10144749 0.11950857 -0.07530089 -0.1552185 0.08830074 0.18920217
00000000: 1e8f 98bd eb1c 2fbc ba98 be3c bc0b 91bb
00000010: 190b 92bd 3e5a 40bd bb55 0abe 0ebe a0bc
00000020: 9df5 18bd 1467 adbd f1f9 1fbd 234c dcbd
00000030: 7f13 31ba 258a a63d ba4e 2ebe 5211 51bd
00000040: c9f4 efbb 9664 0abe 5be9 6bbd 0165 a4bd
00000050: e4b1 0dbe bbf8 083e 0ac2 f2bd e8c4 11be
00000060: dcba b13b 2700 8ebd f535 433d bf10 8fbd
00000070: 8a85 f7bd 633e ca3d be23 13bd df6d 8abd
00000080: 0976 113c 74c3 9bbd 605c 8abd 0b15 e3bd
00000090: 5921 e8bd 4e05 833d ca35 13be 8e39 50bc
000000a0: 8548 3bbc d2a5 d7bc 92c3 ccbd fc4b f9bd
000000b0: 6b1d 9c3b 5b72 2fbd 5b5e 8cbc befd 013d
000000c0: 0d3b 8dbd 91e5 f0b9 bde1 5bbd 09ab 613e
000000d0: c64c e9bd 5d0f c6bd 4386 85bc 8f9b 1c3e
000000e0: b422 28be 1262 d8bd b4c3 cfbd e9c0 f43d
000000f0: 5a37 9abd 99f1 1ebe 05d7 b43d 37be 413e

encoder.message_net.2.0.weight f4 [64, 64]
0.04218369 0.12741557 0.049717538 -0.04131154 -0.12179648 -0.16708522 0.023182627 -0.19361366
-0.045093708 -0.018886412 -0.07456609 0.16096145 -0.008018119 0.035101626 -0.09795652 -0.028154545
-0.065321006 0.03563185 0.020396437 0.09148533 -0.04337386 -0.011751679 -0.18285975 -0.123367436
0.14968969 0.0020531316 0.12223343 0.013664803 0.05158642 -0.11889574 -0.01107152 -0.15309434
0.04635042 -0.031874508 -0.07112145 -0.057662033 -0.08346952 0.09479924 0.0071091577 -0.029018529
-0.072725214 -0.29986387 0.05137356 0.070167325 0.03005966 0.031584166 -0.051751837 0.09531591
0.09912397 0.080083475 0.036908146 0.13021573 -0.05971504 -0.18754221 -0.09760517 0.070089
0.016300602 -0.15503207 -0.119638905 0.1169971 -0.01541216 -0.08197255 0.027265433 -0.06920778
-0.12062188 -0.39556503 -0.09487095 0.058501884 -0.25996593 -0.023329759 0.20513366 0.08760266
0.3542491 -0.020738572 -0.35628724 -0.25253376 0.115857914 0.028132655 -0.026589291 0.08467845
0.35077384 -0.045518354 -0.0058350284 -0.45255572 -0.16285652 0.13025165 0.054453943 -0.012444138
0.15604158 -0.048144765 0.20199999 0.16415422 0.15862884 -0.14074512 -0.02298799 0.18361323
-0.10314649 -0.2898146 -0.39049536 0.092481814 -0.0056494144 -0.1967519 -0.13659051 -0.19129804
-0.030765299 -0.051701255 -0.27467617 0.054025248 0.23379794 -0.24368058 0.112494566 0.06748155
-0.22030228 -0.047585938 0.10445428 0.13887973 0.118952796 0.05965068 0.08345713 0.12120838
-0.17676993 0.13189104 0.24294473 -0.05430798 -0.15521733 -0.041343164 0.26513386 -0.011593398
0.023504913 -0.023915334 -0.19939525 0.030411404 0.1483833 0.06948291 -0.07656439 -0.02123905
0.08816296 0.05700252 -0.13281706 -0.069102496 0.08417173 0.04528536 -0.12929212 -0.0790779
0.059949063 -0.08287848 -0.17781597 -0.020987047 -0.12453057 0.12150814 0.015654964 -0.090423554
-0.18398076 -0.06767844 0.041889817 0.02563267 0.20655489 0.010081569 -0.0025555922 -0.031091107
0.083629526 0.035751957 -0.19543453 -0.09619514 -0.0022750269 -0.06153271 0.09729562 -0.02716126
-0.12357339 -0.17690875 0.01750826 -0.015508735 0.022017054 0.06154399 -0.17824782 -0.022007972
-0.02176925 -0.050873764 -0.039751783 -0.026475366 0.033519164 -0.1103563 0.107840955 0.15644373
-0.06216941 -0.07380979 0.12475213 -0.013533366 -0.18875813 -0.07061814 -0.01712284 0.09361946
-0.022113556 0.11865784 -0.09071182 -0.014618239 -0.025865765 0.06252005 0.076584645 0.078980595
-0.06677374 0.02660713 0.010325662 0.025876764 0.06270546 0.08094289 -0.13976184 3.7830054e-05
-0.12910701 -0.13269411 -0.14846563 -0.045780834 0.07815977 0.10587654 -0.051204093 -0.053556014
-0.111040674 0.06366507 -0.058247086 0.064623915 0.0053402 -0.014810558 0.0104724 0.07112879
-0.023452453 0.083659485 -0.0676633 -0.09638506 0.027623765 -0.10077807 -0.043096885 0.09534634
-0.12385209 0.020302938 0.09831877 -0.016101835 -0.060879298 0.11251337 -0.04674778 -0.049230445
0.1279649 -0.063770145 -0.1452357 -0.08644998 -0.04099362 -0.0029557194 0.09932159 0.070378445
0.12464471 0.052566197 -0.017775258 -0.049907774 0.057718802 0.004683365 0.06995598 0.05896719
00000000: cec8 2c3d 3a79 023e 9ea4 4b3d 4a36 29bd
00000010: 6f70 f9bd 6318 2bbe 7ee9 bd3c a942 46be
00000020: 2eb4 38bd adb7 9abc 1bb6 98bd 14d3 243e
00000030: 6e5e 03bc b9c6 0f3d 6e9d c8bd 5ca4 e6bc
00000040: 05c7 85bd b4f2 113d 6e16 a73c a95c bb3d
00000050: caa8 31bd 1d8a 40bc 963f 3bbe 11a8 fcbd
00000060: 4148 193e d58d 063b 8555 fa3d 56e2 5f3c
00000070: 484c 533d 9c7f f3bd 5265 35bc c3c4 1cbe
00000080: f0d9 3d3d d88e 02bd 1fa8 91bd 062f 6cbd
00000090: 11f2 aabd 1b26 c23d f0f3 e83b 44b8 edbc
000000a0: f5f0 94bd c287 99be 156d 523d e3b3 8f3d
000000b0: ad3f f63c 665e 013d bcf9 53bd fd34 c33d
000000c0: 8201 cb3d ce02 a43d ff2c 173d 4657 053e
000000d0: c297 74bd 110b 40be 38e5 c7bd d28a 8f3d
000000e0: d788 853c bac0 1ebe 3e05 f5bd 2d9c ef3d
000000f0: 4983 7cbc 39e1 a7bd c25b df3c cfbc 8dbd
00000100: 9b08 f7bd 8087 cabe b34b c2bd ac9f 6f3d
00000110: 411a 85be 0d1e bfbc 8f0e 523e 0669 b33d
00000120: 2360 b53e f0e3 a9bc 486b b6be 1b4c 81be
00000130: ea46 ed3d 7476 e63c c9d1 d9bc e56b ad3d
00000140: a198 b33e 7471 3abd c433 bfbb 62b5 e7be
00000150: dcc3 26be b060 053e 190b 5f3d 7fe2 4bbc
00000160: 5dc9 1f3e 7233 45bd 16d9 4e3e 0b18 283e
00000170: 996f 223e 7d1f 10be 4f51 bcbc 1b05 3c3e
00000180: 783e d3bd 9462 94be 02ef c7be 1b67 bd3d
00000190: b91e b9bb 5479 49be 62de 0bbe a2e3 43be
000001a0: 8207 fcbc b2c4 53bd 5ba2 8cbe 9449 5d3d
000001b0: ba68 6f3e 6787 79be 8d63 e63d c433 8a3d
000001c0: ec96 61be 79e9 42bd 20ec d53d 7d36 0e3e
000001d0: 869d f33d 4554 743d 92eb aa3d 193c f83d
000001e0: 2d03 35be 720e 073e 81c6 783e 0b72 5ebd
000001f0: 4bf1 1ebe 7357 29bd a0bf 873e 3cf2 3dbc
00000200: 608d c03c 17ea c3bc 452e 4cbe 5621 f93c
00000210: cbf1 173e 0e4d 8e3d cacd 9cbd 84fd adbc
00000220: c88e b43d 797b 693d 3201 08be 9c85 8dbd
00000230: 3a62 ac3d 247d 393d 2765 04be 98f3 a1bd
00000240: 268d 753d 31bc a9bd 6415 36be 07ed abbc
00000250: e209 ffbd 42d9 f83d d73e 803c fc2f b9bd
00000260: 7465 3cbe fe9a 8abd a894 2b3d 9bfb d13c
00000270: 2083 533e 2a2d 253c b97b 27bb c7b2 febc
00000280: f545 ab3d a570 123d fd1f 48be f501 c5bd
00000290: 9e18 15bb b909 7cbd ed42 c73d 4a81 debc
000002a0: 0c14 fdbd 9127 35be 7c6d 8f3c 5918 7ebc
000002b0: 1c5d b43c 8d15 7c3d 9986 36be 104a b4bc
000002c0: 6d55 b2bc 0261 50bd c4d2 22bd dee2 d8bc
000002d0: 644b 093d 7c02 e2bd b8db dc3d c932 203e
000002e0: 5aa5 7ebd 9629 97bd 0b7e ff3d 0dbb 5dbc
000002f0: d049 41be 3ea0 90bd 3345 8cbc 8fbb bf3d
00000300: 7d27 b5bc e202 f33d 1ec7 b9bd 5781 6fbc
00000310: 71e4 d3bc 830a 803d 69d8 9c3d 94c0 a13d
00000320: acc0 88bd 32f7 d93c f72c 293c 82fb d33c
00000330: b86b 803d 63c5 a53d ba1d 0fbe b6ab 1e38
00000340: a134 04be f7e0 07be 6007 18be af84 3bbd
00000350: 3b12 a03d cdd5 d83d 62bb 51bd 8d5d 5bbd
00000360: 4b69 e3bd d562 823d 7f94 6ebd 8b59 843d
00000370: d8fc ae3b fca7 72bc 6e94 2b3c f9ab 913d
00000380: 5c1f c0bc aa55 ab3d 0e93 8abd 8865 c5bd
00000390: 3c4b e23c bc64 cebd 5c86 30bd f144 c33d
000003a0: 2aa6 fdbd 5952 a63c 5a5b c93d ffe7 83bc
000003b0: 925c 79bd 696d e63d 9a7a 3fbd dda5 49bd
000003c0: 3b09 033e ec99 82bd abb8 14be b00c b1bd
000003d0: ede8 27bd beb4 41bb 1e69 cb3d 9322 903d
000003e0: ba45 ff3d a74f 573d 6b9d 91bc 186c 4cbd
000003f0: 8d6a 6c3d ea76 993b 1545 8f3d 9587 713d

encoder.message_net.2.0.bias f4 [64]
-0.12047356 -0.08319404 -0.0799439 -0.14445476 -0.028518312 -0.11157718 -0.020208275 0.020182552
-0.12220781 -0.05406912 0.062476523 -0.02453486 -0.009158313 -0.024524631 -0.12993927 -0.05924641
-0.12580433 0.008679535 -0.13854358 -0.096737914 -0.028458502 -0.06519169 -0.05675822 -0.1472369
-0.078448735 -0.0060667135 0.017699402 -0.1589957 -0.10317906 -0.04471625 -0.07800172 -0.11677951
-0.06920465 -0.030009275 -0.13195969 -0.04559498 -0.13137598 0.07860758 -0.15029466 -0.048128348
0.00817739 0.03409309 0.0037503836 0.08241327 -0.06510396 -0.07906909 -0.16736856 -0.15200612
-0.12902291 -0.0024252096 0.02586537 -0.09329307 0.053943597 -0.15393546 -0.15070315 -0.07590404
-0.15445109 -0.10032371 -0.14946958 -0.12275399 -0.1371198 -0.041554347 -0.08722266 0.020712283
00000000: d8ba f6bd a361 aabd a1b9 a3bd f3eb 13be
00000010: 3c9f e9bc 9482 e4bd d38b a5bc e155 a53c
00000020: 1748 fabd 9577 5dbd 62e7 7f3d 55fd c8bc
00000030: c00c 16bc e1e7 c8bc cd0e 05be 5dac 72bd
00000040: dad2 00be 9c34 0e3c 5ede 0dbe 871e c6bd
00000050: ce21 e9bc 3983 85bd 4f7b 68bd 45c5 16be
00000060: bba9 a0bd 48cb c6bb 56fe 903c c5cf 22be
00000070: 8b4f d3bd 6328 37bd 5ebf 9fbd 192a efbd
00000080: 2bbb 8dbd 03d6 f5bc 7120 07be cdc1 3abd
00000090: 6d87 06be 03fd a03d d8e6 19be 3b22 45bd
000000a0: 76fa 053c 32a5 0b3d ffc8 753b 4ac8 a83d
000000b0: 3a55 85bd faee a1bd aa62 2bbe 7ea7 1bbe
000000c0: 951e 04be 44f0 1ebb 9de3 d33c 7010 bfbd
000000d0: f6f3 5c3d 42a1 1dbe ed51 1abe 9473 9bbd
000000e0: 6d28 1ebe 8476 cdbd 8e0e 19be 7266 fbbd
000000f0: 2269 0cbe e434 2abd cba1 b2bd ceac a93c

encoder.message_net.3.0.weight f4 [64, 64]
0.027773246 0.10474704 0.18120387 -0.10259788 0.10138318 -0.0984279 -0.05583675 -0.103234775
-0.041095212 0.11151067 0.097187884 0.06507184 -0.034419235 -0.13718303 0.06446677 -0.11089138
-0.16848527 0.0968102 0.088244796 -0.013792354 -0.11998759 -0.012428931 -0.09253171 -0.15469517
0.020929908 -0.10046684 0.16370076 0.04464204 0.05799678 -0.092403926 -0.20548548 0.2401227
0.0001855372 0.14461006 0.056677878 -0.06580904 -0.13541844 -0.0057583433 -0.15071894 -0.031934287
0.088705145 -0.07520393 -0.066058666 0.13283929 -0.01881645 0.07219773 -0.17740874 -0.032600194
-0.08383861 0.19170146 -0.02057485 -0.15191483 -0.02801444 0.023677059 0.000114911636 0.15412621
0.11016009 -0.12068528 -0.002978534 -0.012999333 0.117746435 0.022580232 -0.10192042 0.048714187
0.10727922 0.007996781 0.021180851 -0.19182956 -0.086742915 -0.017983854 0.046878062 -0.0067467056
0.13580742 0.041602995 -0.14135017 -0.06698012 0.0112436395 0.084565684 -0.17698717 0.05570082
-0.014279406 -0.070857264 -0.14444785 -0.098264866 -0.18022463 -0.0912731 -0.1441987 0.1275935
-0.1439285 -0.06508733 -0.03774885 0.019292707 0.19800529 -0.1152625 -0.067105144 -0.06821259
0.009990648 0.05007695 -0.15494621 -0.048104037 -0.08053621 0.1811915 0.027858023 0.1399938
0.0745296 -0.004173175 0.12535013 0.14084242 0.024238937 -0.062023148 0.0025179724 -0.024773367
0.1131673 0.117514916 0.11230533 -0.04154534 0.1524718 0.011911004 0.10446929 0.10716461
0.014241632 0.071280114 0.14332435 -0.083338946 -0.07480852 0.06482463 0.11751077 -0.09012014
0.15224867 0.17971179 -0.0743239 0.017228372 -0.15081458 -0.15400903 -0.28476903 0.044344094
-0.1919071 -0.32306784 -0.2059529 0.41463807 -0.09359925 0.19810024 -0.012413288 0.113562845
0.099113055 -0.17458442 -0.17983256 -0.10554836 -0.060034618 0.036761623 0.05171981 0.06441177
-0.1993436 -0.012873483 -0.09883341 -0.13564841 0.25223514 -0.046512317 0.15511557 -0.12965135
-0.13725965 -0.19803886 -0.03605804 -0.0451175 0.06782283 -0.06182516 0.13796352 -0.29473948
-0.17193633 0.04571333 -0.14974514 0.054492157 -0.0076307147 0.23575743 0.13313985 0.18233535
0.17281581 -0.07807189 0.1687458 -0.26998407 0.017016405 -0.04382388 0.12259492 -0.16055588
-0.055399336 0.17309782 0.11535865 -0.09561066 -0.11174942 0.04393832 0.4032695 0.07505219
0.03248198 -0.07034559 0.10135402 0.029822536 -0.0207564 -0.0062381364 -0.05790155 0.033660643
0.113734014 -0.027640743 0.079063214 -0.038873885 0.09711328 -0.031014737 -0.083623745 -0.06718421
0.11429956 0.080362566 -0.11280638 0.06719979 -0.0051150774 -0.08433101 0.05079698 -0.057284847
0.0066491575 0.107039675 -0.061042115 -0.025915917 -0.0083285095 0.10338896 0.07843968 -0.039894022
0.056921214 0.05474056 0.03350784 0.11255414 0.017350322 0.019552063 -0.0011925872 0.11130652
-0.05165266 -0.09859124 -0.04510082 0.08801326 -0.06737472 0.1079638 0.048425708 0.093018964
-0.082302876 -0.088006355 0.064810865 0.11407733 -0.05224824 0.031204239 -0.10845426 -0.022266166
0.043392494 0.087857045 0.07039358 -0.06490196 -0.10538312 -0.01641989 -0.08319125 -0.0011682906
00000000: b884 e33c 9e85 d63d 828d 393e d61e d2bd
00000010: fca1 cf3d 9194 c9bd 13b5 64bd c16c d3bd
00000020: 7453 28bd b55f e43d 710a c73d 6344 853d
00000030: 2ffb 0cbd b579 0cbe 2707 843d 051b e3bd
00000040: 6787 2cbe 6d44 c63d b0b9 b43d 53f9 61bc
00000050: 0ebc f5bd b7a2 4bbc 4481 bdbd 6968 1ebe
00000060: 3375 ab3c 8fc1 cdbd 2ca1 273e 92da 363d
00000070: 088e 6d3d 453e bdbd c96a 52be bae2 753e
00000080: c38c 4239 a914 143e 1027 683d e4c6 86bd
00000090: 22ab 0abe 7cb0 bcbb 1156 1abe 87cd 02bd
000000a0: 0bab b53d 8504 9abd c449 87bd 0607 083e
000000b0: f524 9abc 67dc 933d a3aa 35be c887 05bd
000000c0: 94b3 abbd 634d 443e 968c a8bc 908f 1bbe
000000d0: 8a7e e5bc 64f6 c13c b7fc f038 43d3 1d3e
000000e0: 9d9b e13d d829 f7bd 8233 43bb 28fb 54bc
000000f0: 0b25 f13d 2efa b83c a7bb d0bd 8788 473d
00000100: 35b5 db3d ee04 033c 7783 ad3c f86e 44be
00000110: 45a6 b1bd e052 93bc 3603 403d 7813 ddbb
00000120: 1a11 0b3e e767 2a3d 19be 10be e02c 89bd
00000130: 3e37 383c c630 ad3d 203c 35be 8b26 643d
00000140: 2bf4 69bc 9d1d 91bd 23ea 13be 173f c9bd
00000150: ce8c 38be 64ed babd d3a8 13be dfa7 023e
00000160: fe61 13be 824c 85bd 8a9e 1abd bd0b 9e3c
00000170: e6c1 4a3e bf0e ecbd 6c6e 89bd 0bb3 8bbd
00000180: d1af 233c 7d1d 4d3d 38aa 1ebe bd08 45bd
00000190: 2bf0 a4bd 448a 393e 8236 e43c 895a 0f3e
000001a0: faa2 983d 21bf 88bb c95b 003e ff38 103e
000001b0: bc90 c63c fc0b 7ebd 9104 253b 84f1 cabc
000001c0: 42c4 e73d a9ab f03d 5600 e63d 722b 2abd
000001d0: 9121 1c3e 5f26 433c fff3 d53d 1e79 db3d
000001e0: bc55 693c 4ffb 913d 9ec3 123e 9cad aabd
000001f0: 3635 99bd c7c2 843d 7da9 f03d e890 b8bd
00000200: 13e7 1b3e 5e06 383e 2137 98bd 8422 8d3c
00000210: 236f 1abe 8bb4 1dbe 3fcd 91be 27a2 353d
00000220: 4b83 44be 2669 a5be 51e5 52be 714b d43e
00000230: f7b0 bfbd cada 4a3e 1a61 4bbc a393 e83d
00000240: c9fb ca3d 42c6 32be 0726 38be bd29 d8bd
00000250: dce6 75bd 5b93 163d 27d8 533d 51ea 833d
00000260: bb20 4cbe 4deb 52bc 2c69 cabd 6be7 0abe
00000270: f724 813e b383 3ebd 9ed6 1e3e 53c3 04be
00000280: cb8d 0cbe b3ca 4abe 98b1 13bd 21cd 38bd
00000290: b2e6 8a3d 613c 7dbd 4f46 0d3e 18e8 96be
000002a0: 1410 30be e73d 3b3d ca56 19be 2b33 5f3d
000002b0: 130b fabb 656a 713e d055 083e 1eb6 3a3e
000002c0: a1f6 303e 28e4 9fbd b3cb 2c3e 5a3b 8abe
000002d0: fd65 8b3c ab80 33bd 0c13 fb3d c368 24be
000002e0: 6aea 62bd 8e40 313e 2841 ec3d 86cf c3bd
000002f0: e1dc e4bd abf8 333d 5779 ce3e f6b4 993d
00000300: d30b 053d 5911 90bd b292 cf3d 644e f43c
00000310: 5309 aabc 4869 ccbb 2d2a 6dbd bedf 093d
00000320: 61ed e83d d76e e2bc e5eb a13d 393a 1fbd
00000330: 54e3 c63d 9e12 febc ed42 abbd e097 89bd
00000340: e315 ea3d 2195 a43d 0807 e7bd 0ba0 893d
00000350: 619c a7bb bdb5 acbd 7e10 503d 84a3 6abd
00000360: 2de1 d93b 9e37 db3d 4c07 7abd 9e4d d4bc
00000370: 4d74 08bc 97bd d33d fca4 a03d ea67 23bd
00000380: 3826 693d a337 603d 843f 093d c982 e63d
00000390: 4322 8e3c a62b a03c 9650 9cba acf4 e33d
000003a0: bd91 53bd 34ea c9bd a3bb 38bd 4c40 b43d
000003b0: c2fb 89bd 201c dd3d 095a 463d ba80 be3d
000003c0: 698e a8bd ad3c b4bd 8fbb 843d 60a1 e93d
000003d0: 4002 56bd 08a0 ff3c 441d debd 8967 b6bc
000003e0: 54bc 313d 65ee b33d 822a 903d 52eb 84bd
000003f0: 1bd3 d7bd 0183 86bc 2d60 aabd 5421 99ba

encoder.message_net.3.0.bias f4 [64]
-0.08251766 -0.05203475 0.02743574 -0.17257003 -0.13555823 -0.11374144 -0.1131494 -0.10185624
-0.059849717 0.028233752 -0.11297883 -0.016570317 -0.044915084 -0.030013103 -0.14465924 0.061115276
-0.1200731 -0.11790284 -0.07929168 -0.18179357 -0.15867005 -0.13384187 0.033661503 -0.14186738
-0.07534646 -0.02346973 -0.05727434 -0.033712458 -0.08857804 -0.105203554 -0.17953935 0.046393674
-0.10604948 -0.0071399803 -0.09949149 -0.08998038 -0.026260931 -0.10103365 0.0966461 0.1034071
-0.14028566 -0.093999825 -0.115287594 0.07202735 -0.09094464 0.09844431 -0.09704165 -0.059450805
-0.171271 0.16761674 -0.17255738 -0.12704398 0.0840913 -0.16683537 -0.0043641333 -0.13829605
-0.024385072 -0.15637413 -0.11341398 -0.074867494 0.16171679 -0.11440934 -0.095402785 -0.02414614
00000000: 05ff a8bd 6422 55bd ebc0 e03c 33b6 30be
00000010: c7cf 0abe 46f1 e8bd dfba e7bd 019a d0bd
00000020: fa24 75bd 784a e73c 7261 e7bd 79be 87bc
00000030: e1f8 37bd 0ade f5bc 8d21 14be 0354 7a3d
00000040: e3e8 f5bd 0b77 f1bd ad63 a2bd 1828 3abe
00000050: 677a 22be d80d 09be a5e0 093d af45 11be
00000060: 3f4f 9abd 9743 c0bc 8098 6abd 1316 0abd
00000070: 6768 b5bd f674 d7bd 2ad9 37be 4b07 3e3d
00000080: 7830 d9bd 7ff6 e9bb 32c2 cbbd a247 b8bd
00000090: 2a21 d7bc bbea cebd 64ee c53d 1ac7 d33d
000000a0: 0ba7 0fbe fb82 c0bd e71b ecbd 1383 933d
000000b0: 2f41 babd 2c9d c93d c6bd c6bd b082 73bd
000000c0: aa61 2fbe b9a3 2b3e e2b2 30be d117 02be
000000d0: 0f38 ac3d e4d6 2abe 0101 8fbb 7b9d 0dbe
000000e0: 34c3 c7bc 8a20 20be 9745 e8bd 2154 99bd
000000f0: 1699 253e 724f eabd 8962 c3bd 20ce c5bc

encoder.message_net.4.0.weight f4 [64, 64]
-0.04585861 -0.042183395 0.049004026 0.0958659 -0.05777796 -0.04320465 0.037197746 -0.074796975
-0.10086065 -0.010227967 0.06448959 0.06221684 0.0674855 -0.030203868 0.08459034 0.1180935
-0.026000617 0.009443476 -0.03298946 0.04423972 -0.032573834 -0.09036134 -0.111363 -0.015246322
0.020934546 -0.080581464 0.104054615 -0.025807202 0.0033989174 0.01798467 -0.027332967 -0.01169399
0.13888544 -0.08610588 -0.040463362 -0.015743442 0.0023931125 0.10758139 0.012981092 -0.04791443
-0.017731529 -0.12523957 0.0277263 0.12425707 -0.013410618 0.086776525 -0.007710218 0.015967596
0.07815551 -0.06530825 0.122221544 0.07548471 -0.04807436 0.110507675 0.027392004 0.12788394
0.038518712 0.012480341 -0.02486486 0.011791577 -0.02894241 0.015913097 0.08571493 0.02285524
-0.03016238 -0.13557838 0.023057673 -0.10962017 0.020573596 0.06549785 -0.037846006 -0.07261748
0.043014035 -0.008960866 -0.085017234 0.048070524 -0.1171244 0.08682364 -0.10897152 0.03667852
-0.0006183064 0.040785924 -0.19459738 -0.13682108 -0.021376112 0.04528794 -0.054655515 -0.10843406
0.10355977 0.05158933 0.0040726718 -0.058108106 0.001093939 -0.047133345 0.046710074 0.036119267
-0.09482304 0.047169156 -0.15347001 -0.17556909 -0.12657678 -0.13206734 0.032362714 -0.11355498
-0.060347434 -0.15178122 0.07575742 -0.095839806 -0.10542356 0.084527194 0.06728192 -0.045975275
-0.037782107 0.0767857 -0.10554547 0.01744506 0.051132474 -0.025040073 0.0650725 -0.012024287
0.034026496 -0.028541503 -0.08931054 0.07795439 -0.0931782 -0.2011507 -0.042139832 -0.11571875
-0.0030726278 0.04356026 -0.050873592 -0.14072616 0.0017482282 -0.061489403 -0.09096338 -0.061520234
0.0060892487 0.06981788 -0.08761499 -0.080551706 0.12061808 -0.026606498 0.018835284 0.014571163
0.0024284178 -0.04761926 -0.018027585 -0.16638258 -0.08078069 -0.07038053 -0.056265928 0.012343791
0.005298154 -0.04752028 -0.038533956 0.0014369759 0.12953404 0.040617555 0.001999516 0.02985373
-0.0150403185 0.097807825 -0.084665544 -0.092349775 -0.07731267 0.030615248 -0.037862092 0.108140826
0.049155097 0.073760025 0.03723938 -0.058096576 0.055482306 0.12687735 0.11565907 -0.03811971
0.09016927 -0.06555607 0.13069022 0.11832904 -0.06640842 0.0140526695 0.055949498 0.089625575
-0.10268761 0.05116331 -0.06527081 0.07036859 0.09755784 -0.08112161 0.0048488723 0.0576575
-0.2938034 -0.004846536 -0.17972751 0.21324617 -0.3122421 -0.18312408 -0.20799586 0.14396884
0.24709147 -0.09776251 -0.144214 0.049992587 -0.2116382 -0.031587686 -0.21277033 0.103042245
0.031844735 -0.13787672 0.0027528747 -0.12760991 0.022846319 -0.23388605 -0.021390373 0.069142446
-0.25135034 -0.23343337 -0.113673754 -0.1158941 -0.010751027 0.0139026 0.18679255 0.15580605
-0.0244963 -0.38817844 -0.04323114 -0.055496123 0.16050339 -0.35140616 -0.10631607 -0.20985532
-0.31497085 0.16076218 -0.15080594 0.017952498 0.24167903 -0.08140508 -0.20774041 0.091428824
-0.0005902167 -0.21772888 -0.19873004 -0.3430266 -0.4116485 0.10933158 0.21455802 -0.19969293
0.061032742 0.103278935 -0.11186832 -0.03561891 -0.22414497 0.14741756 0.25071838 0.07292002
00000000: 3dd6 3bbd 7fc8 2cbd 72b8 483d 5755 c43d
00000010: 95a8 6cbd 5cf7 30bd aa5c 183d 282f 99bd
00000020: 0790 cebd 3493 27bc 1e13 843d 16d7 7e3d
00000030: d635 8a3d 1a6e f7bc b33d ad3d 01db f13d
00000040: 3fff d4bc cfb8 1a3c f51f 07bd b534 353d
00000050: 246c 05bd 5e0f b9bd 4912 e4bd b6cb 79bc
00000060: ed7e ab3c e507 a5bd 961a d53d a069 d3bc
00000070: 5fc0 5e3b 9654 933c 63e9 dfbc 2698 3fbc
00000080: fc37 0e3e 4858 b0bd e9bc 25bd 64f8 80bc
00000090: c4d5 1c3b a253 dc3d a5ae 543c ec41 44bd
000000a0: b641 91bc cd3e 00be 4422 e33c 7e7a fe3d
000000b0: 35b8 5bbc e4b7 b13d ffa5 fcbb 7ace 823c
000000c0: ff0f a03d 55c0 85bd 4a4f fa3d ba97 9a3d
000000d0: 9fe9 44bd d951 e23d 3265 e03c 02f4 023e
000000e0: ccc5 1d3d 587a 4c3c 64b1 cbbc 7531 413c
000000f0: a218 edbc 2f5c 823c 4f8b af3d ea3a bb3c
00000100: 1817 f7bc 0fd5 0abe 72e3 bc3c 8a80 e0bd
00000110: f589 a83c bd23 863d 6a04 1bbd 79b8 94bd
00000120: 7c2f 303d 99d0 12bc 841d aebd 99e5 443d
00000130: ebde efbd 98d0 b13d 762c dfbd 373c 163d
00000140: d715 22ba 240f 273d 8944 47be d31a 0cbe
00000150: f51c afbc d97f 393d 76de 5fbd ad12 debd
00000160: 2517 d43d 554f 533d 0c74 853b c402 6ebd
00000170: 8062 8f3a e50e 41bd 1053 3f3d ccf1 133d
00000180: 9532 c2bd 7234 413d 3e27 1dbe 62c8 33be
00000190: 589d 01be a93c 07be c48e 043d 838f e8bd
000001a0: df2e 77bd 896c 1bbe b526 9b3d a947 c4bd
000001b0: 4fe8 d7bd 981c ad3d 1acb 893d 9250 3cbd
000001c0: 69c1 1abd d241 9d3d 3928 d8bd f1e8 8e3c
000001d0: 4970 513d d720 cdbc bb44 853d 8401 45bc
000001e0: 5e5f 0b3d dfcf e9bc 72e8 b6bd 8da6 9f3d
000001f0: 36d4 bebd 73fa 4dbe d19a 2cbd f4fd ecbd
00000200: 245e 49bb 3e6c 323d d460 50bd 851a 10be
00000210: ce24 e53a 50dc 7bbd 024b babd a4fc 7bbd
00000220: 5288 c73b adfc 8e3d 7d6f b3bd 4bf8 a4bd
00000230: 9d06 f73d dff5 d9bc 744c 9a3c e3bb 6e3c
00000240: 1726 1f3b 6a0c 43bd 96ae 93bc 3260 2abe
00000250: 5970 a5bd ab23 90bd 1a77 66bd 9d3d 4a3c
00000260: 239c ad3b a0a4 42bd c8d5 1dbd e958 bc3a
00000270: 92a4 043e 985e 263d 500a 033b cf8f f43c
00000280: ab6b 76bc 784f c83d 2165 adbd e121 bdbd
00000290: 1b56 9ebd d4cc fa3c 4815 1bbd f078 dd3d
000002a0: db56 493d 7f0f 973d 5288 183d adf6 6dbd
000002b0: 6a41 633d 23ec 013e aade ec3d 6a23 1cbd
000002c0: abaa b83d 4342 86bd a8d3 053e 7f56 f23d
000002d0: 2301 88bd 2b3d 663c 4d2b 653d 9d8d b73d
000002e0: e24d d2bd 9e90 513d b4ac 85bd 681d 903d
000002f0: 68cc c73d 1623 a6bd 4ae3 9e3b 452a 6c3d
00000300: 666d 96be b1cf 9ebb 7d0a 38be 345d 5a3e
00000310: 32de 9fbe e184 3bbe defc 54be 916c 133e
00000320: 8c05 7d3e b637 c8bd d6ac 13be 07c5 4c3d
00000330: afb7 58be 1762 01bd 77e0 59be d007 d33d
00000340: a06f 023d 8e2f 0dbe 9369 343b 2cac 02be
00000350: 3428 bb3c d37f 6fbe dd3a afbc 8e9a 8d3d
00000360: feb0 80be 2809 6fbe c9cd e8bd e359 edbd
00000370: 1325 30bc bbc7 633c 8c46 3f3e 9f8b 1f3e
00000380: 77ac c8bc 53bf c6be 2313 31bd e74f 63bd
00000390: 005b 243e 82eb b3be 3dbc d9bd 50e4 56be
000003a0: dc43 a1be d79e 243e df6c 1abe 1e11 933c
000003b0: b57a 773e b5b7 a6bd e7b9 54be 093f bb3d
000003c0: c6b8 1aba 52f4 5ebe e37f 4bbe 2fa1 afbe
000003d0: 98c3 d2be 3ce9 df3d 19b5 5b3e 4e7c 4cbe
000003e0: 78fd 793d e883 d33d 381b e5bd 22e5 11bd
000003f0: 4286 65be a1f4 163e 295e 803e 1757 953d

encoder.message_net.4.0.bias f4 [64]
-0.15073732 -0.09840481 -0.086717226 -0.037618566 0.06934957 -0.16833891 -0.09188038 -0.056736026
0.08321225 -0.11302341 -0.11115943 -0.09085144 0.09310218 -0.14345463 -0.14737912 -0.0806749
0.16458803 0.1325056 -0.045460604 -0.010362148 0.071391836 0.03409866 -0.13468 0.0005952815
0.19781204 -0.14152096 -0.041303374 -0.068071924 0.100020885 -0.05168775 -0.12406784 -0.1810243
0.22113325 -0.18754962 0.07908535 0.060166843 -0.13407803 -0.11158143 -0.21879517 -0.16490665
-0.07263301 -0.14061387 -0.051319078 -0.07112944 0.031953633 -0.089718744 -0.08500851 -0.13284868
0.11519399 -0.052888397 0.18630649 -0.12623888 -0.080640905 -0.14394698 -0.041133706 -0.10087472
-0.12288322 -0.02758155 0.040090982 0.216428 -0.1218696 -0.17951424 -0.12560442 -0.116167
00000000: e25a 1abe 7688 c9bd cd98 b1bd ed15 1abd
00000010: 2607 8e3d 0961 2cbe c82b bcbd 0964 68bd
00000020: 2f6b aa3d d178 e7bd 8ea7 e3bd 5210 babd
00000030: 5bac be3d c5e5 12be 8dea 16be e238 a5bd
00000040: c489 283e 8caf 073e e634 3abd 00c6 29bc
00000050: e235 923d 09ab 0b3d 8ee9 09be aa0c 1c3a
00000060: 3d8f 4a3e dfea 10be ba2d 29bd 4b69 8bbd
00000070: c0d7 cc3d 89b6 53bd 4817 febd 6f5e 39be
00000080: c170 623e 020d 40be 80f7 a13d 8271 763d
00000090: c04b 09be ce84 e4bd d70b 60be 4add 28be
000000a0: 9ec0 94bd 15fd 0fbe f433 52bd 50ac 91bd
000000b0: d0e1 023d 76be b7bd f118 aebd 7c09 08be
000000c0: d4ea eb3d 81a1 58bd 21c7 3e3e c444 01be
000000d0: 0f27 a5bd d666 13be d17b 28bd 6897 cebd
000000e0: 33aa fbbd b4f2 e1bc 7136 243d 4d9f 5d3e
000000f0: c596 f9bd 95d2 37be 729e 00be f7e8 edbd
