experiments/gnn_hd64_ld32_nr5_ep500/model.pt (torch, 218065 bytes, 24 tensors)

encoder.input_net.0.weight f4 [64, 7]
00000000: 8b50 d1bd bb0a 02bd 548d 9cbe bb19 b5be
00000010: 409b 27be ff19 babc aa5c 9cbc a81e 423e
00000020: 5c0f 0b3e 4aed bdbe 3964 69be f618 a63e
00000030: 4624 c03d bb53 34bd 1c19 3a3e 5d48 94be
00000040: 2938 a83e 77b9 6f3e 757c ee3d fa76 6a3e
00000050: 0430 a4be aa8e bbbe de95 b7be bbe0 c9be
00000060: fa23 853e c313 92be 61bd 453e 02c2 903c
00000070: b508 d83c a14b 59be 9698 0fbe 8144 8a3e
00000080: 462c 7ebe 8d69 a0be 8cf6 13be 03f9 95bd
00000090: 0fbf 9bbe 929e 7cbe f472 86bd f5aa 1bbe
000000a0: 0f48 ebbb 91bd c0be 173f e5bc c456 24be
000000b0: d27c 15be b64d 95be 3eda 91be b579 8ebe
000000c0: 1cc1 bd3d 67a3 b6be b15a b4bd a725 693c
000000d0: 5a59 8c3d 2ff0 173e 893c 5c3c a0dd 403d
000000e0: a80b a3bc 29b3 873e c644 9dbd 4045 de3d
000000f0: 7b33 8937 e41f 48be 5480 8fbd d519 b8bd
00000100: 1aa9 113e 4e70 833e 404e 90be 0d93 83be
00000110: bbcd 253d 10ef 873d 482c 3f3e 3d9b 703e
00000120: 48fa 0a3e 52b1 1a3e 4ff7 4dbe f5dd 95be
00000130: 9469 8e3e af49 afbe d97a e63c 081f d5bc
00000140: a4a3 413b ce90 38be 9500 a73d bf0f e7bd
00000150: df35 0a3e e0cb c3bd 6529 1d3e dfe5 14be
00000160: b794 33bd 4c35 573d 5715 223e 83c9 b83d
00000170: efa2 e43d 65f8 173e b380 80be f909 603d
00000180: d51c 783d 3ce9 8bbe 5e00 8abd 026f 18bd
00000190: b03a e23d b5eb e53d 8d4c 833d f960 63be
000001a0: cb51 4b3e 1baf 1d3c 10c4 903c 59ec eb3d
000001b0: 8743 483e 7cdf 72bd a41a d93e 8fd7 5fbe
000001c0: 21f2 04be be94 f53d ce7d e1bd c364 c6bd
000001d0: 97eb 4ebe 5f45 60bd 680a 48bd 26c2 07bd
000001e0: cf08 213d 59ff b0bd 6a6f f53c ff54 583e
000001f0: 0b0d 5d3e 4547 673e 57ae 12bb 13dd bbbe
00000200: 6493 11be 7440 fb3d b6f1 abbe 251b 70be
00000210: b841 a83e d4f4 b53e 75fd 823e 9f7a 05be
00000220: 2610 69be d80b 063e d248 9fbe 8731 ecbd
00000230: 3d61 92be 06c8 e03d 1030 64be 1d4b 683d
00000240: a1e2 c83d 925c ca3d e67b 6d3d d71a 36be
00000250: 6cd4 fabd d00b e1bd b8b0 5e3e e418 203e
00000260: a034 52bd 22e8 aabe a300 20be 2da1 363c
00000270: aff8 5e3e c007 23bc e094 423e f247 0d3d
00000280: 8b20 6f3e a792 b2be ef64 ab3d c812 24be
00000290: dc41 af3d d411 333e 2bb3 3d3e e2d8 793e
000002a0: 0c83 aebe cbe4 17be 116c 5ebe 0bc5 1dba
000002b0: 4e23 913e 33f9 10be 449c 453e 2f3b fdbd
000002c0: 31e4 e3bd d98c 91be e251 7d3e 25f4 7abe
000002d0: ded4 c7bc 5bf2 393e 2686 07bd 3392 1dbd
000002e0: afbc 9bbe bb29 b5bd 74c3 1e3e e7e4 b9be
000002f0: cf88 d5ba ad70 55be f3a1 6dbe 463b c5bd
00000300: 8e49 a3be 11c2 243e 9e3f ca3d 9c41 0f3e
00000310: 3057 bd3b 2a21 963d 1786 763e 1467 bbbe
00000320: cbb7 98bd 064e 49bd 8df3 463e a331 283e
00000330: 9946 423d 247e 07be 2cc6 34be 8e30 3d3c
00000340: 31c8 303e 553d 99be a508 a2be e2bf 1ebe
00000350: 9961 4f3d d3bd 3d3e d63f 7d3d b425 a03e
00000360: cc51 96be 2158 73be b759 81be dfd5 3c3e
00000370: f172 bcbe b695 3abe 28cc b63e 8c68 aa3c
00000380: b00a aa3e 8670 093e 7ff9 753e 92ef cabd
00000390: 27ff b3be 68c1 8c3d 3229 82be 329d b43d
000003a0: dadc 0bbe b8f0 91be f9dc bbbe 94fc 273d
000003b0: 4ccf 933d 0f31 973d 9f23 d4bd d4ec 42be
000003c0: b3c9 aabe 151b 7dbe ce7c 7c3c 565a 3cbe
000003d0: 4d67 0ebd 46f1 793e ed4e 71be 9ac1 d0bd
000003e0: fd41 bc3d 3feb 293e 486d 743e ecd4 88be
000003f0: 9ce0 77be d1b7 3d3e 17ed d83c 4bfd 44bd
-0.102204405 -0.031748515 -0.30576575 -0.35371193 -0.16367817 -0.022717474 -0.019087154 0.18957007
0.13580078 -0.370951 -0.22792138 0.3244092 0.093819186 -0.044025164 0.18173641 -0.2896146
0.32855347 0.23410593 0.11644832 0.22896948 -0.32067883 -0.36632282 -0.35856527 -0.39429268
0.2600401 -0.28530702 0.19310524 0.017670635 0.02637134 -0.21220256 -0.1402305 0.2700539
-0.24821576 -0.3133053 -0.14449519 -0.07322886 -0.30419204 -0.24669865 -0.06564894 -0.15201934
-0.007180221 -0.37644628 -0.027984185 -0.16048723 -0.14598396 -0.2916085 -0.28486818 -0.2782723
0.09265348 -0.3567154 -0.088063605 0.014230168 0.0685298 0.14837717 0.013442167 0.047086358
-0.01990302 0.26503876 -0.07679133 0.10853052 1.6355645e-05 -0.19543415 -0.070068985 -0.08989302
0.14224663 0.2567162 -0.281847 -0.25698128 0.040479403 0.066373944 0.18669236 0.23496719
0.13572037 0.15106705 -0.20113872 -0.29270902 0.27814925 -0.34235904 0.02813475 -0.026015773
0.0029547 -0.18023989 0.08154408 -0.112823 0.13497113 -0.095603704 0.15347822 -0.14540814
-0.043842997 0.052541062 0.15828453 0.0902281 0.111638896 0.14840849 -0.2509819 0.05469701
0.06057437 -0.2732638 -0.06738351 -0.03721524 0.1104635 0.11226598 0.06411085 -0.22204961
0.1985542 0.009624268 0.017671615 0.11519689 0.1955701 -0.059295163 0.42403138 -0.21859573
-0.1298299 0.11991261 -0.110103235 -0.096871875 -0.20207058 -0.054753657 -0.04883805 -0.03314414
0.03931504 -0.08642454 0.029960353 0.21126173 0.21587007 0.22585781 -0.0022381747 -0.36692104
-0.14216381 0.12268153 -0.33582848 -0.23447855 0.3286264 0.35538352 0.25583997 -0.13035057
-0.22760066 0.13090456 -0.31110245 -0.11532884 -0.28589812 0.109756514 -0.2228396 0.05671226
0.09808851 0.09880938 0.057979487 -0.17783676 -0.122475475 -0.10988581 0.217471 0.15634495
-0.05131972 -0.33380228 -0.15625243 0.011146826 0.21774553 -0.009950578 0.19002104 0.03449244
0.23352258 -0.34877512 0.08368861 -0.1602279 0.085574836 0.1748727 0.18525378 0.2439914
-0.34084356 -0.14833371 -0.21720912 -0.00060184364 0.28347248 -0.14157562 0.19297892 -0.12364804
-0.111275084 -0.2842777 0.24738267 -0.24507196 -0.024393495 0.18158858 -0.03308692 -0.038469505
-0.30417392 -0.0884585 0.15504247 -0.3630745 -0.0016291382 -0.20843764 -0.2320631 -0.09630446
-0.31892055 0.16089655 0.09875415 0.13989872 0.005778216 0.07330544 0.24074589 -0.3660208
-0.07456931 -0.049146675 0.19428845 0.16425185 0.04743061 -0.13231713 -0.17653722 0.011547221
0.17263867 -0.29929605 -0.3164722 -0.15502885 0.050630186 0.18529443 0.061828457 0.31278765
-0.2935928 -0.23764087 -0.2526376 0.1844096 -0.36806443 -0.18221173 0.35702634 0.020801805
0.3321128 0.1342183 0.24020956 -0.09908976 -0.35155603 0.06872827 -0.25422055 0.08819045
-0.13658467 -0.28503966 -0.36692026 0.04101236 0.07217273 0.07382404 -0.10358357 -0.19035655
-0.3335701 -0.24717362 0.015410615 -0.18393835 -0.034766484 0.24408445 -0.23565264 -0.101931766
0.09192274 0.16593646 0.23869812 -0.26724946 -0.24206775 0.18527152 0.02648024 -0.04809312

encoder.input_net.0.bias f4 [64]
00000000: 2567 513c afa4 6ebe 5fc9 a9be 0e40 593e
00000010: ce4d 8ebe 0456 053d e0f2 54bb 20ab b3bd
00000020: f349 8abe 1175 9e3c 6147 b1be 8409 b7bd
00000030: f598 24be 9c10 033d 22db 8a3c c05e c3bd
00000040: c13c 1bbe 1c77 44be d9db e6bb 35ea b8be
00000050: 9dbc f8bd ff6f 833e 32bf a73d c16c c33d
00000060: d815 a23d f54d 713e aaf2 febc 7642 bb3d
00000070: e15b c2bd c190 36be 26ac 763b 5453 253e
00000080: 4778 adbe 7e4d 79bc bb19 0c3e 5186 adbe
00000090: 11f6 42be 1cad fcbd eaa6 6e3d 4259 b3be
000000a0: e7df 2dbe 6dc5 90be 362e 3bbe 6736 bebe
000000b0: f092 6fbe 77f4 b0be d65e debd 4c79 c03d
000000c0: 82e2 6fbe 99b8 83be 0d11 55bd c890 4ebd
000000d0: 988d 8abe 620e 123e 4f1d adbe f6cf 2ebe
000000e0: 5aed 18be 7448 3d3d 685d 1ebd 674a dcbd
000000f0: 5313 f2bc 7e52 28be 886e 2b3d e860 12be
0.012780939 -0.2330501 -0.33161446 0.21215841 -0.27793735 0.032552734 -0.0032493398 -0.08772874
-0.27009544 0.019342931 -0.3462477 -0.08937362 -0.16073973 0.03199826 0.016950194 -0.095395565
-0.15159895 -0.19186062 -0.007045251 -0.36116186 -0.1214535 0.25671384 0.081907645 0.095422275
0.079143226 0.23564894 -0.03112157 0.09143536 -0.09490181 -0.17828657 0.003763923 0.16145068
-0.33880827 -0.0152162295 0.1368169 -0.33891538 -0.1903918 -0.123377055 0.05826465 -0.35029036
-0.16979943 -0.28275624 -0.18279347 -0.3715088 -0.23395896 -0.34561512 -0.10857932 0.093981355
-0.2342625 -0.25726774 -0.052018214 -0.050431043 -0.27061152 0.14263299 -0.33811423 -0.17071518
-0.14934292 0.046211675 -0.038663298 -0.107563786 -0.02955023 -0.16437718 0.041853458 -0.1429478

encoder.message_net.0.0.weight f4 [64, 64]
00000000: b0ee f4bc 40b8 afbb 6072 b63d 991c 383c
00000010: 2dc0 bdbd 3db9 c2bd a0ff 223d 2f09 763c
00000020: 583b 29bd 8d16 0abe d87b 973c e13a 19be
00000030: b68f a1bd 7a26 acbd 813c 49bc 74a1 9abb
00000040: b60c ccbd 12ea cbbd dbbd 643d b699 e63d
00000050: b404 15be 879e 7cbd 1ebd 31be 84b2 30bd
00000060: 00f3 32bd 5f19 813d 24d6 843c 163f b13d
00000070: 506d fe3d d050 f13d 27ab f23c c0bb 78bc
00000080: e05c c93b e8bf f6bc 0d3c 97bc 2026 3e3c
00000090: 300e 16bc 9227 dc3d b391 2fbd afdc 0abd
000000a0: 4ea7 ffbd 7029 c43d a52e c8bc 1300 a5bd
000000b0: 1697 fabd f06b a53d 61e5 d7bc b6ea cabd
000000c0: 3f65 883d 824a 87bd 189a d4bc f26f bf3d
000000d0: 3daf e13c c012 8fbd b664 92bd 003b e83b
000000e0: e088 a83b 8073 03be e8f2 ffbc a79a d2bd
000000f0: 97ec 3bbd 7f6a 8dbd f025 a1bc 008e ba3d
00000100: 691f 373d f8b3 43bd 20bc 953c 50d6 f3bd
00000110: d09f b5bc 7364 3c3c 60ff 82bd 673f 8e3d
00000120: d5e4 ce3d 4442 1bbe 48e4 7c3d a324 103d
00000130: abee 1dbd f881 23be 3ded 02bd 6aa9 733d
00000140: 50bf 92bd b5b0 a63c 2aab 30bd 4160 80bd
00000150: c02d 5cbc 49af a53c d3b8 34bd 3182 57bd
00000160: 467a a13c e573 85bd b272 993d 5857 55bc
00000170: e12d 23bc 7f14 1b3d 395d 593d 3766 bbbc
00000180: 991c 37bd e2c1 163d 55eb bfbd 1015 40bc
00000190: 8fc6 e5bd 4599 03be 4ca9 a9bd 8eeb 7c3c
000001a0: f3be 80ba b5b4 dabd a748 fbbc 56bc 5dbd
000001b0: 80b7 733b ac66 423d a622 f03c 02c1 93bc
000001c0: 9494 5cbc f57f e23c 3897 8dbc 9e6f 05bd
000001d0: c5b7 b6bd 1fef f0bd 1837 c3bd 112f 583d
000001e0: 1c71 16be bea3 7c3d db4a 923d c6ef 02be
000001f0: c35e f1bd e333 0fbe fca4 3fbd 2b3f b53d
00000200: 4001 c1bd e071 c3bd c8f4 66bd 986c 22bd
00000210: a26a 83bd 7409 9e3d 44d2 463d a02a f43d
00000220: be5d fe3d a02a 5ebd 686b 3d3d a888 9e3d
00000230: c841 5d3d 1a02 bbbd cea4 b3bd 248d 6f3d
00000240: 0040 9e3c 203b f93b aa13 dcbd 66ec fabd
00000250: dc10 34bd a66a e4bd 4a7c be3d 9c81 d0bd
00000260: 08f5 163d a08f 553c e628 ffbd 7c2c fbbd
00000270: fa6f ccbd 005b 293a 2435 4b3d aca2 373d
00000280: e436 f43d a0b4 8bbc c000 243d a247 bd3d
00000290: 40b6 65bb ac63 79bd 58b9 b33d 6874 70bd
000002a0: 92ff 8bbd c495 a6bd 606a c13d 8056 643c
000002b0: 287d dcbd 00e8 8ebb d2ce fbbd 9e44 a6bd
000002c0: 3e3a bebd 00f7 eb3a 20c6 d9bc d48b 03bd
000002d0: 243a 503d 0c13 cb3d e0e6 ddbb 4c8c 3bbd
000002e0: 800d a8bd 301b f6bc d479 b33d f6d4 fc3d
000002f0: 6eee 9fbd 60c1 a0bd 8003 3ebb 2699 b43d
00000300: cb9c 9a3d 201c 87bd e587 71bd b84c 7dbd
00000310: fc44 8a3d e925 d9bd 7911 cc3a fa69 08be
00000320: 3b52 e63d f987 e93c 3e73 9cbd 38c3 c8bd
00000330: ae17 72bd 8624 f0bd f65b 3abe 6083 45bc
00000340: 0482 8abd fc26 ccbb 2bf9 8cbd 2c5b f9bd
00000350: 1430 fa3d dc52 0fbe fa1a 5e3d d964 2b3c
00000360: 8871 1bbe 6d72 ee3c de81 ffbc 8e8e a5bd
00000370: ce53 55be 8cc5 9abb a713 3dbe a7cb 07bd
00000380: f3e6 0abd ecb9 96bd e2ef 1bbe c413 17bd
00000390: d36b 6fbd 1447 b3bc cf59 03bd e407 acbd
000003a0: f99b 96bd d370 b03d 62e8 e9bd 59b2 debd
000003b0: f8de 653d 7b61 183d f2a6 1c3c 871a 1d3d
000003c0: 87f3 16be 9211 16bd 39c8 183d 85bb 10bd
000003d0: 6104 0ebe ffef 2dbe 00b6 01bc d5f5 debd
000003e0: ef31 08be 1007 d73c c23c cfbd a46f 423c
000003f0: d411 993c bcb4 fdbd 6f55 a4bd 2d0e 3fbd
-0.029898971 -0.0053625405 0.08908534 0.011237287 -0.0926517 -0.09507988 0.039794564 0.015016838
-0.04131636 -0.13485165 0.01849167 -0.14963867 -0.07888739 -0.08405776 -0.012282492 -0.0047189537
-0.09963362 -0.09956755 0.055845123 0.11259787 -0.14552575 -0.06167462 -0.17357299 -0.043138996
-0.043688774 0.06303667 0.016215391 0.08654611 0.124231935 0.11782992 0.029622627 -0.015181482
0.0061451048 -0.030120805 -0.018461252 0.011605769 -0.009158656 0.10749735 -0.04286356 -0.033901867
-0.12483083 0.09578216 -0.024436304 -0.08056655 -0.122358486 0.08077228 -0.026354494 -0.09908049
0.06659936 -0.06606008 -0.025952384 0.09347524 0.02754938 -0.06985998 -0.07148115 0.0070871115
0.00514327 -0.12837029 -0.031243756 -0.10283404 -0.045879927 -0.06905078 -0.01967141 0.091091156
0.04470769 -0.047779053 0.018278182 -0.11906111 -0.022170931 0.011498558 -0.06396365 0.06945687
0.1010224 -0.15161997 0.061741143 0.03519119 -0.03855769 -0.15967548 -0.03196453 0.059487738
-0.07165396 0.020347932 -0.043131985 -0.06268359 -0.013438642 0.020225184 -0.044121575 -0.052614395
0.019711625 -0.06516246 0.074925795 -0.013021313 -0.009959669 0.037861343 0.05306742 -0.022875888
-0.044705007 0.036805995 -0.09371058 -0.011723772 -0.11219513 -0.12851436 -0.08284244 0.01543702
-0.0009822532 -0.106789984 -0.030674292 -0.05413469 0.0037188232 0.047461197 0.029313397 -0.01803637
-0.013463158 0.027648905 -0.01728402 -0.03257715 -0.0892177 -0.11764359 -0.09531993 0.05277926
-0.14691585 0.061679594 0.07143184 -0.12786779 -0.117856525 -0.13984637 -0.0467882 0.08849939
-0.094240665 -0.09543204 -0.056385785 -0.039654344 -0.06416823 0.07716647 0.04854037 0.119221926
0.12420224 -0.05423987 0.04624501 0.07740909 0.054017812 -0.0913126 -0.087716684 0.05848421
0.019317627 0.007605925 -0.10745938 -0.12252121 -0.04396139 -0.11153154 0.0930105 -0.10180971
0.036854774 0.013034731 -0.12458973 -0.12264344 -0.09982295 0.00064603984 0.049611226 0.04483287
0.11924532 -0.017053902 0.040039778 0.092421785 -0.0035051256 -0.06088607 0.08775586 -0.058704764
-0.068358555 -0.08134034 0.094441175 0.013936639 -0.10766059 -0.0043611526 -0.12295307 -0.081185564
-0.092884526 0.0018002689 -0.026583731 -0.032115772 0.050836697 0.09915742 -0.006771907 -0.045788094
-0.082057 -0.03004226 0.08763471 0.123453066 -0.07809149 -0.07849383 -0.0028993785 0.08818273
0.07549437 -0.06597161 -0.05896749 -0.061840743 0.06751439 -0.10602934 0.0015569172 -0.13321677
0.11246153 0.02850722 -0.07639168 -0.0980286 -0.059104614 -0.11725716 -0.18199143 -0.012055248
-0.0676308 -0.0062302332 -0.068834625 -0.12175593 0.122162014 -0.13996452 0.054224946 0.010461056
-0.15180027 0.029107297 -0.031189855 -0.08083831 -0.2083275 -0.0047232565 -0.18464528 -0.033153202
-0.033911657 -0.073596805 -0.15228227 -0.036884084 -0.05845244 -0.021884479 -0.03206807 -0.083999425
-0.07353968 0.086152695 -0.11421277 -0.10873861 0.056120843 0.03720234 0.009561287 0.038355377
-0.14741336 -0.03663785 0.037300322 -0.035335083 -0.13868858 -0.16986082 -0.007916927 -0.108867325
-0.13300298 0.026248485 -0.101190105 0.0118674375 0.018685259 -0.12387988 -0.08024108 -0.04664438

encoder.message_net.0.0.bias f4 [64]
00000000: deb7 83bd 8b54 19bc 84be 73bd 7df8 013d
00000010: 7900 03be 0385 0d3d c573 c6bd 5792 553d
00000020: dfc7 bdbb d66f 89bd 76b1 6fbd 98a4 8bbc
00000030: e5dc dfbd 4d84 c5bc 3d1c dd3c 48e5 fbbd
00000040: 4bc0 2f3d d14e a1bb c7b6 47bd 3b78 a3bd
00000050: fd45 12be d33d b03c 65b6 85bc d795 c73c
00000060: 94db 9cbd d448 543c ee16 f3ba 8213 81bd
00000070: 80ae 97bd 197e 0bbe 5339 21bd b372 cabc
00000080: 3153 3f3c b676 7a3b 3675 27bc 0841 c6bd
00000090: 5021 e9bc 992c babc 32aa 083c 7754 7e3c
000000a0: 2911 493d b055 e9bd 0d2e 593c ed49 2fbd
000000b0: 3f84 37bc a3ea c0bc c399 bcbc 40c9 f3bb
000000c0: fd40 42bd 575d dabd 944d 7abd 8e4a 40bd
000000d0: 873d 0cbd 8923 0f3d a160 eeba 2211 f8bd
000000e0: 4264 6e3c 581c c83c eaba 9f3b e8f2 c73d
000000f0: 3004 f13d bc1a d23c 3b5a 1dbd 56da c9bd
-0.06431554 -0.0093585355 -0.05950786 0.031731118 -0.12793149 0.034550678 -0.0969005 0.052141514
-0.0057916488 -0.06710784 -0.05851885 -0.017046258 -0.10930804 -0.024110937 0.026991004 -0.12299591
0.042907994 -0.0049227257 -0.048758294 -0.079819165 -0.14284511 0.021513855 -0.016322324 0.024363441
-0.07659069 0.012956817 -0.0018546262 -0.06302549 -0.0740633 -0.13622321 -0.03936131 -0.024712896
0.011677549 0.003821773 -0.010220816 -0.096803725 -0.028458267 -0.022726344 0.008341359 0.015523068
0.04908863 -0.11393297 0.013255608 -0.04279511 -0.0112009635 -0.023549384 -0.023022538 -0.0074397624
-0.04742526 -0.106623344 -0.06110914 -0.0469461 -0.034238365 0.034946 -0.0018186757 -0.12112643
0.0145502705 0.024427578 0.004874577 0.097631276 0.11768377 0.025647514 -0.03841613 -0.098560974

encoder.message_net.1.0.weight f4 [64, 64]
00000000: b1ce 9fbd 032f d43d f167 0fbd 48d7 bd3d
00000010: 9a10 58bd 7cff a4bd 140b aebd 1cb5 cdbd
00000020: b7d2 95bd eac2 d9bd 7c35 5439 a275 a8bd
00000030: 6bfc 0fbd 6133 8a3d 3264 613d bb61 cd3d
00000040: 7f02 72bd 2bcb 703d 7a72 45bb 28c9 fdbd
00000050: d506 5b3d d14f c33c 0309 813d f771 b9bd
00000060: 4ba8 ffbd e5e3 b13d 2a3d a43d ef0d 2e3d
00000070: c65b 8cbd 8b02 04bd 963e babd 3b56 b9bd
00000080: 2938 e1bd cac6 2cbd f211 c43d 7f91 49bd
00000090: 6245 37bd 7f89 283d 421f 9d3d 9ed1 c8bd
000000a0: 70f5 57bb 6106 943c 55ba e33c ab40 6dbc
000000b0: 093a 7b3d 071a 80bd d4e3 7dbd 8fa0 513d
000000c0: cd26 bc3d 0ee9 df3d 3e64 b43b 01fc cdbd
000000d0: 956d 1c3d ce96 5f3d 0b7d 1ebd a4c7 b93d
000000e0: abd3 443d 185a e53d 6e5b 953b 0d4c e53c
000000f0: 28e4 76bd bea5 1f3c 9d29 783d 3bb8 e03c
00000100: 5cac c23d f8cd c4bd 59ee 093c f29b 973d
00000110: 9001 07bd 9843 703c f167 613d 3377 3fbe
00000120: 937a 14bc 5980 17bd b948 7ebd 1b00 25be
00000130: 5847 83bd dd2f 7f3d c585 67bd 28a4 c6bd
00000140: aa8a e83d 3b1e 8bbd a788 44be 1503 993c
00000150: a880 25be 822f 49bd a5da 0fbd 1641 87bd
00000160: 99b6 2b3d 0a6a c73d 85bc f73d 7445 b9bc
00000170: da79 28bd 518d f33c d088 62be 560a f83d
00000180: edb7 15bd c204 36be f665 aabd dbce 013e
00000190: 7445 223d e371 be3c e9fb 58bc ce69 883d
000001a0: 115a 4cbd 6c07 53bd a1b0 0abe 07c5 503d
000001b0: 7412 51bd 4a99 55be 2c73 203e 37c4 c339
000001c0: 6f71 693e 5e3d 3c3e 2941 193d 94ae c8bd
000001d0: 0dd8 67bd 39be 35bc 8974 423d 8a00 b73d
000001e0: 5a7d e9bc 105f 963b 395e cd3d 588f dc3c
000001f0: 6d05 97bc 19c3 e8bd afc2 b73d 5450 c7bd
00000200: d2d4 9bbb 2cab 883e d2b8 993d ce02 803d
00000210: ad73 ccbc 887a 47bd c079 89be bc47 4d3d
00000220: 573c f9bd d72d eebd a580 e5bc ca14 1bbe
00000230: aa86 2bbd 5474 ffbd 0c0a 11be c041 91bd
00000240: 7dc9 b63d 2289 73bc b8b3 46be 59a3 a3bd
00000250: d76a 153e 1792 a8be a203 95bd d267 33bb
00000260: d0c6 5b3e 90c2 e93b 406a 733d 61d8 82bd
00000270: 9cd8 113d aef4 413a 4b38 83be c4f4 51bd
00000280: ec92 0abe 5a99 81be 2a0b 4fbe f6fa 01be
00000290: 8fe6 20be c90e 373a 1049 b5bd 517c d73d
000002a0: 9df3 cabc 0e5a 1ebd 9efd b43d c667 c23d
000002b0: 1bba 063e 8385 4fbe d42d 4e3e ecb4 0fbe
000002c0: 9803 433d 7daf 113e e286 97bd 017c 9b3d
000002d0: f1d6 fdbc d4b7 3bbe 6530 683e fcd4 fdbc
000002e0: bf8a 903d f9e9 46be c776 0dbd a084 78bd
000002f0: ceaf b3bd 6744 b5bd 7a55 6bbe a57e 00bd
00000300: 7356 a43d 83a5 343e f9c7 d33d 1b95 9fbc
00000310: a988 933d aedd a9bc c4b2 71be 04d5 11be
00000320: 2a51 08be 58c8 88bb 5157 4bbe 5638 9b3d
00000330: 861d 8ebd cabd 14bc 4670 33be d9bb 963d
00000340: ce6b ecbd defc 79bd 6fdf dd3c 134a 02be
00000350: baa7 1abe ef4a 85be b1b0 8ebc 2925 eebd
00000360: a74c 04be b26f 55be b8f3 fbbd 342e 2f3d
00000370: fd2e c93d 86e6 913e 5fa3 3fbe e670 8dbc
00000380: 7030 60bd f611 2dbe 8bf3 a3bd 3cff a1bc
00000390: 9f69 8f3c bd38 37be 8f81 85bd 45c2 e0bd
000003a0: c9c9 9cbe 9786 023d 6a8e 18be 0656 a23d
000003b0: 5baa f43d 838b d3bd 4c9c 253d ad66 25bc
000003c0: 92d0 603e 25f2 273e b7d5 00be eebe d2bd
000003d0: 7c68 04be 6482 cebd e733 7f3d b05f 513c
000003e0: e36a 6b3d e49b 29be 5355 563e 74a1 853d
000003f0: 3f3d bdbd d0c1 efbd ca96 61be b9f2 613d
-0.07803095 0.10360529 -0.035011236 0.09269577 -0.052750207 -0.08056542 -0.08498207 -0.100443095
-0.07315581 -0.1063288 0.0002023782 -0.08225562 -0.035152834 0.06748081 0.055027194 0.10028406
-0.05908441 0.058787506 -0.0030128048 -0.12391883 0.053473312 0.02384177 0.06300547 -0.0905494
-0.12483271 0.086860456 0.080194786 0.042493757 -0.06853442 -0.032228988 -0.090939686 -0.0904965
-0.1099704 -0.042181768 0.09573735 -0.04921102 -0.044743903 0.04114675 0.076719776 -0.09805606
-0.0032952689 0.018069448 0.027798811 -0.01448075 0.061334644 -0.06254964 -0.061984852 0.05117851
0.09187088 0.109331235 0.005505114 -0.100578316 0.038190443 0.054587178 -0.03869347 0.090712816
0.048053425 0.11198825 0.0045580184 0.027990365 -0.06027618 0.009744106 0.06058656 0.027431598
0.09505531 -0.09609598 0.008418643 0.07402791 -0.032960474 0.014664553 0.055030767 -0.18697815
-0.009062427 -0.036987636 -0.062081072 -0.16113321 -0.06410092 0.062301505 -0.056524057 -0.09699279
0.11354573 -0.067928754 -0.19192754 0.018678227 -0.1616236 -0.049117573 -0.035120625 -0.06604211
0.041922186 0.09737022 0.12096504 -0.022616126 -0.04113183 0.02973047 -0.22122502 0.121113464
-0.03655236 -0.17775252 -0.08320229 0.12676565 0.039617017 0.023247665 -0.013243654 0.06660806
-0.04989058 -0.05152075 -0.13543941 0.05096915 -0.05104299 -0.20859256 0.15668935 0.0003733949
0.22797178 0.18382785 0.037415657 -0.09798923 -0.056602526 -0.011092716 0.047474418 0.0893565
-0.028502155 0.004588969 0.10027737 0.02692382 -0.018435204 -0.11365337 0.0897268 -0.09732118
-0.004755595 0.26693094 0.07505955 0.06250535 -0.024957502 -0.04870084 -0.268507 0.05011724
-0.12169712 -0.11629837 -0.028015444 -0.15144649 -0.041876473 -0.1247336 -0.14163989 -0.07092619
0.089251496 -0.014864238 -0.19404495 -0.079901405 0.14591537 -0.32923958 -0.072760835 -0.0027375114
0.2146256 0.0071337894 0.0594275 -0.06388927 0.035606965 0.0007398826 -0.25628886 -0.051258817
-0.13532609 -0.2531231 -0.20219103 -0.1269339 -0.15712951 0.0006983099 -0.08851826 0.10521758
-0.024774367 -0.0386601 0.08837436 0.094924495 0.13156931 -0.20265774 0.2013467 -0.1403386
0.04761085 0.142271 -0.07398774 0.07592011 -0.030986281 -0.18331844 0.22674711 -0.030985348
0.07057714 -0.19425191 -0.034537103 -0.060673356 -0.087737665 -0.08850937 -0.22981825 -0.031370778
0.080243014 0.17641263 0.10340876 -0.019480279 0.072038 -0.020735588 -0.2360335 -0.14241415
-0.13312212 -0.0041742735 -0.19857527 0.075791046 -0.06939225 -0.009078452 -0.17523298 0.07360048
-0.115439996 -0.06103217 0.02708408 -0.1272357 -0.15103045 -0.26033732 -0.017418237 -0.116281815
-0.12919866 -0.2084339 -0.12302345 0.042768672 0.098234154 0.28496188 -0.18714665 -0.017265748
-0.054733694 -0.16901383 -0.080054365 -0.019775026 0.017506419 -0.17892738 -0.06518852 -0.10974554
-0.306227 0.031866636 -0.14898077 0.07926564 0.11946555 -0.10329344 0.04043226 -0.010095281
0.21954563 0.16400965 -0.12581526 -0.10290323 -0.12930483 -0.10083464 0.062305357 0.012779161
0.057474982 -0.16563374 0.20930986 0.06524935 -0.092401974 -0.11706889 -0.22030178 0.05516312

encoder.message_net.1.0.bias f4 [64]
00000000: 3659 8bbd 88e0 f2bb c352 27bc d651 5ebc
00000010: e06e cfbc c04b 4bbd eb89 0abe dfa2 0cbd
00000020: 07b5 fbbc fc7f 75bd f5ae 85bd d402 20bd
00000030: 4e88 88bc 9b19 13bd 3ae5 8bbd a1f7 15bd
00000040: 510c cabc b2e7 edbd f65b cabc a7ad 50bd
00000050: eddd c5bd 9396 bdbc cf06 47bd 10ab 94bd
00000060: b676 4cbd 1934 23bd 24b4 cebc 4bbb 11bd
00000070: 87b3 99bd 3e48 bbbc f9ea 5abd ab01 8abc
00000080: 41b2 35bd 11ba 94bc 5033 a0bd d34d d1bd
00000090: 5af8 69bd c3d2 49bc ce94 07be f75d 13bd
000000a0: b6b6 52bd f684 85bd a0af 34bd 11bb ddbd
000000b0: 9d6e 3dbc 5bd4 51bd c6d2 a0bb b1bc 1cbd
000000c0: 40f3 bebc 1e63 64bd 165b 66bd 0df3 86bb
000000d0: fed4 93bd 0a7e b5bd 24cc e8bc 413b d33c
000000e0: 61e6 ebbd 882a cabd b4c3 cfbd 023a 803d
000000f0: 5f37 9abd 6e47 10be 65c5 36bd ede9 093d
-0.06804125 -0.00741202 -0.010212603 -0.013569316 -0.025321424 -0.049632788 -0.13529174 -0.034335013
-0.030725969 -0.05993651 -0.06527511 -0.039065197 -0.016666558 -0.03591309 -0.06830831 -0.03661311
-0.024664076 -0.11616458 -0.024702054 -0.050946858 -0.096614696 -0.023143088 -0.048590478 -0.0725919
-0.0499179 -0.039844606 -0.025232382 -0.035579007 -0.07504945 -0.022861596 -0.053446744 -0.016846498
-0.04435945 -0.01815513 -0.07822287 -0.10219922 -0.057121612 -0.012318316 -0.13240358 -0.035978284
-0.051443778 -0.06519501 -0.0441128 -0.10826696 -0.011562017 -0.05122791 -0.0049079387 -0.038265888
-0.02330935 -0.055758588 -0.05623921 -0.0041183294 -0.072183594 -0.08861931 -0.028417654 0.02578509
-0.11518551 -0.098713934 -0.10144749 0.06261064 -0.075300924 -0.14089748 -0.044621844 0.033670355

encoder.message_net.2.0.weight f4 [64, 64]
00000000: 70b6 0abd d439 c33d 04a4 523d b0f7 d9bc
00000010: 0277 cfbd f404 dcbd e0c4 643c 7478 a1bd
00000020: f889 90bc 2cb3 21bd 382d 46bd 2875 fa3d
00000030: 7870 413d f200 993d 8012 a03c bcc9 babd
00000040: 641d 7ebd 1061 683d 50a7 27bc 1ca5 a73d
00000050: 9654 8dbd 2889 63bd 84d2 bbbd c282 ccbd
00000060: aef4 a73d 7edb 8f3d dac8 9b3d 0094 d73a
00000070: 9646 9a3d f8a2 1bbd 10bc a73d 9623 e0bd
00000080: 70e9 e2bc 7271 a7bd a249 a1bd 80bc 2b3b
00000090: ec51 49bd 80b3 973c bc10 7c3d 00af ddbc
000000a0: 560a b8bd 26d7 ddbd 60a9 a03b 34cd 483d
000000b0: d80e ac3d c8a2 263d 78a2 80bd b0e9 ac3c
000000c0: 9c8e ce3d b8ce 0ebd 987a 6c3d 46bd 8c3d
000000d0: c836 afbd 0ef5 ccbd f2ae cabd e45e b53d
000000e0: 90df 5ebc 5a33 f7bd dc22 78bd 2262 ea3d
000000f0: a020 2cbd b8f2 abbc a0e5 503d 4c87 b2bd
00000100: a010 1a3d 7514 5fbd af88 1b3d cbdb 5ebd
00000110: 5ef1 19bd f9b5 84bc d968 06be 3f77 adbd
00000120: 79b3 2f3e 1ae1 71bc a9f0 c1bd 76da 90bd
00000130: c07c 063d f784 1e3d 5f3c 56bd a56f 6e3d
00000140: 5dee 0e3d f920 c83b b28d a7bd dd98 07be
00000150: 5bb1 51be 113c a33d f5f2 633c 76be 013c
00000160: 6150 c73c 4e07 52bd a18d 093e df59 903d
00000170: 72c9 1e3d 1334 553d d723 97bd 48db a33d
00000180: 89b7 053d fde5 f7bd 39bf 90bc b8af 973d
00000190: 779c 1a3d 2f29 48bd dccc 84bd cf0d 99bb
000001a0: eff7 2ebd 4f05 123d 71c7 bdbd ebcd cd3b
000001b0: e238 d4bd e36e 053d ba4b 70bd 047e b63d
000001c0: 263e 28bd c254 703d 5c20 84bd 1901 9bbc
000001d0: 0e5a fd3d f859 b73b b140 af3d 5a42 1cbd
000001e0: 7057 a83d 75de 77bd 4ffb 1e3e a803 793c
000001f0: 7dc6 38bd 78ed eabc edfc aa3d 7662 9bbc
00000200: fef8 6d3d a6d7 ae3d 5cae b0bd 4123 003d
00000210: 6b3d 0b3e d27e 5b3d 24e7 94bd d1bc da3c
00000220: 5438 ae3d ec4d 683d b475 69bd aa55 c7bd
00000230: e7ab d33b 2808 3d3d 7753 0cbe fe97 7dbd
00000240: 6c63 263d 80bf efbd d333 ffbd 2bb5 d1bc
00000250: af44 87bd 5880 923c 0135 a43b 7673 c7bc
00000260: 665b d5bd 68d5 7abb 9055 303d bfe9 89bd
00000270: 68cf 6d3d 4f68 52bd f37d 3abc 7b4a cfbd
00000280: 4baf c83d f5b0 c63d fb23 e2bd d5de 9bbb
00000290: 3c15 863d ef0f 99bc 7f16 d63d 30da bb3c
000002a0: 94bd 9dbd 0767 c4bd ce39 0d3d fd05 96bd
000002b0: 85ae d7bb 90cd d23d 71a5 d1bc 0049 e13d
000002c0: 2b01 6dbb 2a83 6dbd 160e 88bd 5240 2fbc
000002d0: bd48 c8bd ff21 74bd 8635 c53d 79df df3d
000002e0: 835f 94bc 5917 ebbd f09e c63c 3a49 3fbd
000002f0: 0895 0dbe a556 85bd b77e 3abd 53e6 9a3d
00000300: 20b3 1cbd 9828 de3d b0b7 dabd c0dc 873c
00000310: 08fb 2ebd 8081 a13d 905b 103d d466 803d
00000320: ae04 cabd 4002 253c 00a4 d0bb f860 753d
00000330: 78ad fc3c fc5d e73d 1080 cabd 60d0 863c
00000340: 0412 e6bd 3e25 e9bd 3044 edbd 78f1 7cbd
00000350: c8ae e03d 4a69 f93d c08f 10bd 30e9 1abd
00000360: b4a1 a0bd 82be a33d 68ec 97bd f2a1 a63d
00000370: 7084 38bc 58c3 fcbc 342d 2d3d 169b b53d
00000380: d88a 5ebd f0fc 893d d0ab 12bd 1e10 87bd
00000390: e850 6b3d 7e82 f1bd e8f5 ecbc 78bc a23d
000003a0: 76e9 dbbd cc9b 173d 3041 a83d 602b 0fbd
000003b0: 30ae 38bd fa46 c43d a089 a5bc 44d1 87bd
000003c0: 747b ea3d 2824 a3bd e6a9 ddbd bcaa 8fbd
000003d0: 68b2 95bd 00e3 0fbd 3e73 ab3d 160d df3d
000003e0: 6867 d93d 80de 8c3d f069 57bc b891 afbd
000003f0: 0a05 973d 88d3 b63c 081a b13d 9e38 b93d
-0.033865392 0.09532514 0.05142595 -0.026607364 -0.10130121 -0.10743132 0.013962954 -0.07884303
-0.017643914 -0.039477512 -0.048382968 0.12229377 0.0472264 0.074708834 0.019540071 -0.09120509
-0.062039748 0.05673319 -0.0102327615 0.08185789 -0.06900899 -0.055550724 -0.09171012 -0.099858776
0.08200966 0.07024287 0.07606669 0.0016447306 0.075329944 -0.037997216 0.08190167 -0.109442875
-0.027699202 -0.08175935 -0.078753725 0.0026204884 -0.049150392 0.01851821 0.061539397 -0.027060986
-0.089863464 -0.10832052 0.0049030036 0.049023822 0.08401269 0.040682584 -0.062809885 0.021107525
0.10085794 -0.03486511 0.057734102 0.068720385 -0.085553706 -0.10007678 -0.098966494 0.088559896
-0.013603106 -0.120703414 -0.06058012 0.114444986 -0.0420233 -0.02098976 0.051000237 -0.08717212
0.03761351 -0.05446287 0.03797215 -0.05440883 -0.0375837 -0.016200053 -0.13125934 -0.0847001
0.17158307 -0.014763141 -0.094697304 -0.07072918 0.032833815 0.038701024 -0.052303668 0.05821194
0.03489529 0.0061074463 -0.08181323 -0.13241906 -0.20477812 0.07970441 0.013912906 0.007918945
0.02433032 -0.051276498 0.13432933 0.070483916 0.038766332 0.052051615 -0.07379883 0.08000809
0.032645736 -0.12104414 -0.017669307 0.074065626 0.037746873 -0.0488674 -0.06484386 -0.0046708356
-0.042716917 0.035649594 -0.09266556 0.006280651 -0.10362412 0.032576453 -0.05866597 0.08910754
-0.041074894 0.05867458 -0.064514846 -0.018921422 0.12370692 0.005595442 0.08557261 -0.038149215
0.082198024 -0.060514886 0.15525554 0.015198626 -0.04511117 -0.028677687 0.08349023 -0.018967848
0.058098786 0.085372254 -0.086270064 0.03128362 0.13597648 0.053587742 -0.07270649 0.026701363
0.085068375 0.056714937 -0.056997016 -0.09733136 0.0064597013 0.046150357 -0.13703714 -0.06191253
0.04062216 -0.117064476 -0.124610566 -0.025599083 -0.06604897 0.017883465 0.0050112014 -0.024347048
-0.104178235 -0.0038274173 0.04305035 -0.06734037 0.058059126 -0.051369008 -0.011382568 -0.10121628
0.097990595 0.097017206 -0.11042019 -0.0047567883 0.06547019 -0.018684356 0.104535095 0.022931188
-0.07702175 -0.095899634 0.034478955 -0.07325361 -0.0065820836 0.10293114 -0.025591584 0.11000252
-0.0036164026 -0.057986416 -0.06643312 -0.0106964875 -0.09779499 -0.059602734 0.096293494 0.10931296
-0.01811195 -0.114790626 0.02424571 -0.046700694 -0.13826382 -0.06510667 -0.045531 0.07563462
-0.038256764 0.108475864 -0.10679567 0.016584754 -0.04271987 0.07886028 0.03524357 0.06269613
-0.09864174 0.010071337 -0.0063672066 0.05990693 0.030844435 0.11297223 -0.09887707 0.016456783
-0.11233905 -0.113840565 -0.11585271 -0.06175372 0.10970837 0.121782854 -0.03529334 -0.03782004
-0.078433424 0.07995321 -0.07418138 0.08136357 -0.011262044 -0.030854866 0.042279437 0.08867471
-0.05433163 0.06737697 -0.035808384 -0.06594871 0.057450205 -0.117924675 -0.028925851 0.07946104
-0.107378885 0.037013814 0.082155585 -0.034953475 -0.045087993 0.0958385 -0.020207226 -0.06631711
0.11449328 -0.07965881 -0.10823421 -0.07014987 -0.07309419 -0.035128593 0.0837159 0.10891168
0.10615426 0.06878376 -0.013147816 -0.085727155 0.07374008 0.022317663 0.08647543 0.09044002

encoder.message_net.2.0.bias f4 [64]
00000000: 248e f7bd a186 b4bc c853 3bbd 1eef e6bd
00000010: ee1a 3ebd 064d c4bd facd e4bc 138f 6ebc
00000020: adb9 4abd 4c65 4fbc 182e 55bc aae3 dcbc
00000030: e4d9 54bd 5b0c edbd 5db6 24bd bc01 3ebd
00000040: eb40 dbbd 414c 8ebc bd9f a5bd 89f9 24bd
00000050: 5f43 c33b baf7 f6bc d9d8 4fbd 425f f9bd
00000060: be5a 4abd 32ca 97bc f0da a9bc de02 09be
00000070: 8c60 1fbd 2039 3ebd 2d12 86bd 49c4 72bd
00000080: 40c8 1cbd 4844 cbbc 7cba c5bd eea8 06bd
00000090: b4a4 70bd dd6d 8fbc e04f e8bd 887e c0bc
000000a0: 2bef e2bc 73e5 52bc 9735 06bd daf9 5abb
000000b0: 883c dbbc d514 2bbd 393e febd 0787 a4bd
000000c0: f094 eebd 99e2 c4bc 0c6d 53bd dc59 43bd
000000d0: a3b0 1fbd 47fb b1bd 7c06 d8bd c73e 95bd
000000e0: eaaa c1bd 462b 3dbd 6f54 05be 7266 fbbd
000000f0: 4be9 acbd 813a d5bc 22b9 8abd dd76 5c3c
-0.12087658 -0.022036852 -0.045734197 -0.11276077 -0.0464124 -0.095850036 -0.027930249 -0.014560479
-0.04949348 -0.012658428 -0.013011478 -0.026964027 -0.05196561 -0.11574622 -0.040212978 -0.046388373
-0.107057415 -0.017370345 -0.08087108 -0.040277038 0.005958959 -0.030147422 -0.05074391 -0.12176372
-0.049402945 -0.018529031 -0.02073428 -0.1338 -0.038910434 -0.046441197 -0.065464355 -0.059269223
-0.03827691 -0.024812832 -0.0965471 -0.032875948 -0.058750823 -0.017508442 -0.1134336 -0.023497835
-0.027701935 -0.012872088 -0.03276595 -0.0033413083 -0.026762262 -0.041767914 -0.12414212 -0.08033567
-0.11649501 -0.024033831 -0.051617667 -0.04769312 -0.038986813 -0.086905055 -0.10548112 -0.072873645
-0.094564274 -0.046183847 -0.1302049 -0.12275399 -0.084429346 -0.026028873 -0.067735925 0.013456074

encoder.message_net.3.0.weight f4 [64, 64]
00000000: cad5 893d 5605 f93d ce3c a33d 460d d0bc
00000010: 4a26 ad3d 973f cdbd 958c bfbd b336 57bd
00000020: 34f2 99bd 8785 4f3d 6fed 923d ec3a 073d
00000030: 0cdd 463d 7bcc 49bd 45b5 c5bc f141 66bd
00000040: 2be8 ebbd fa2b c03d ee21 6a3d cf3d 79bd
00000050: 8fb4 ccbd 79eb 193d b1ab 27bd a485 8ebd
00000060: fbb2 3c3b f4c3 2abd 7110 103d 14e1 dfb8
00000070: c07e af3d 8d21 efbd 35ad cdbd 11fb f13d
00000080: 4285 12bd 7f57 ad3d ee9b bc3d f1cc d3bb
00000090: 14b9 d6bd 0bf4 afbc 591f e0bd 438e 75bd
000000a0: a94a 013d c97a adbd 8b17 4dbd 7e80 cd3d
000000b0: a8e0 a73d bf34 e33d beb4 f8bd d2f5 c53c
000000c0: ac80 f8bd d228 d33d 0b96 05bd fba6 d6bd
000000d0: 32ff e1bc 8e3b 5abb 0433 a8bd 70e9 143d
000000e0: 5d35 dd3d 6042 84bd 42a8 733d a111 04bd
000000f0: d260 953d a14d 883d 3339 48bd 6f08 b53d
00000100: 325f e03d 73b8 913d 4170 833d 37ce 58be
00000110: 2091 31bd 7ab0 9e3b b9b6 c23b 0f4d 39bd
00000120: 8fa0 193e e04a 45bd e5da 1abe cd49 203c
00000130: 333d b83c 0bf0 dd3c 7eba 62be 95c1 9d3d
00000140: 175f 1dbd f4b2 01bd c462 9ebd b57b 36be
00000150: 9a9f 03be 832c aa3c 4198 0cbe 148d 053e
00000160: 6f6b 15be 508e 91bc 07b9 95bd 3298 24bd
00000170: 6aae 1c3e 33fd c8bd 3c68 cabd 0731 16bd
00000180: f750 1c3d 5ba0 a3bc dbf9 e0bd 0c7c 04bc
00000190: 4295 a7bd 6682 123e 9a34 15bd d414 073e
000001a0: 51da b93d 60c1 e73c 36fb d63d cef7 353e
000001b0: d107 543d f155 2cbe 05a3 173e fbbb ff3c
000001c0: eb16 d83d c5be 823d 62c4 fb3d 69b5 09be
000001d0: 6a77 523c 4420 1a3d f717 543e d176 a13d
000001e0: cb44 7b3c e271 6a3e 25b0 673e 34ff 46be
000001f0: 5374 8dbd 55a4 103e 4cb1 b33d 57e6 45bd
00000200: b8f2 ec3d f88a d93d 715a b5bd 1b95 1ebe
00000210: d223 483d 7bbb 13bd 2e5d aabd 3fdf 1cbd
00000220: 1d8e 3abd 3aae cbbd ca58 82bd 0ef7 613e
00000230: 589f 333e cf95 923d 544f 23be 72d9 db3d
00000240: 330c fcbd f8fc 0b3d cb80 abbc b0a0 943c
00000250: e6a8 6fbe 68ac 24be 9e38 6dbe ec20 23bd
00000260: 7151 00bc 7763 03be c8d6 b43d 8ff8 1b3e
00000270: da11 373e ad1d 233d 818d eebc 7380 b0bd
00000280: 1587 0f3e 7c30 5ebe 8db8 73bc b59f 5a3d
00000290: a728 19be f63c 533d c2cd 223e 4bb0 9abd
000002a0: c570 85bd d864 9dbd a47c a0bc 7712 ec3c
000002b0: 2bc2 2fbe b017 9dbd 6b42 2d3e a1f4 a23d
000002c0: 8058 cc3c 0e79 bd3d aa6b bc3d 3264 75bd
000002d0: b3bd a93d edc0 d13d 9e08 8bbc fed0 ecbd
000002e0: dbfe 363c 0fac d23d fd0a 9dbd f846 1fbe
000002f0: da78 15be 57c9 453d 8861 e63d acef 3d3d
00000300: e1b7 6f3b a686 b1bc ae83 ba3d d429 243d
00000310: 9a4f edbc 32ce f6bc 0e78 b5b9 754d b13c
00000320: 0a05 1a3e 0361 0abd 9042 9a3d ac09 70bd
00000330: 4cda a73d 5bdf 02bd 80b6 e9bd 8c03 47bd
00000340: 3cd6 063e 5fce 9c3d c9e6 a4bd 65df 733d
00000350: e0af 0d3d 6332 dcbd 1aac 713d f930 18bd
00000360: efee 7dbc d0e2 573d b2f1 acbd 0ab3 95bd
00000370: 62cd eabc ed84 af3d 3fd0 ab3d bd91 b6bc
00000380: 6594 533d 55ae 563d 170b 783d b20d 043e
00000390: 7f04 1a3d d0b4 de3b b924 0fbd 3635 b93d
000003a0: 5c2c a1bd c760 adbd 75cd 56bd 30cd 8e3d
000003b0: d8e0 67bd 5a95 b63d 928a 283c 6944 063e
000003c0: d270 a7bd 4ac3 dcbd 8a56 d0ba d0c0 dc3d
000003d0: 9dcd b1bd 0b3c 7b3c 7e61 bfbd 2e62 60bd
000003e0: e7f4 bb3d 01e7 ab3d d66c e43c c24c adbd
000003f0: 79a6 f2bd 69b6 f13c 8bd3 a9bd db60 b03b
0.0673023 0.12159221 0.07970582 -0.025396954 0.08454569 -0.100218944 -0.09352986 -0.0525424
-0.075169 0.05066445 0.07174193 0.033015177 0.04855065 -0.049267273 -0.024134288 -0.05621523
-0.11518892 0.09383388 0.057161264 -0.06084996 -0.09995376 0.03757808 -0.040935222 -0.06959084
0.0028793204 -0.04169078 0.03517193 -0.00010675393 0.085690975 -0.11676321 -0.10042802 0.11815465
-0.035771616 0.08463954 0.09209429 -0.00646364 -0.104845196 -0.021478673 -0.10943479 -0.059950124
0.031565342 -0.08470685 -0.05007128 0.100342736 0.08197147 0.11094045 -0.12143849 0.024165068
-0.12133917 0.1031052 -0.032613795 -0.10481068 -0.027587507 -0.0033299658 -0.082128555 0.036355436
0.10801194 -0.064579725 0.059486635 -0.032243375 0.07293858 0.066554315 -0.048882674 0.08839499
0.10955657 0.07115259 0.06417895 -0.21172415 -0.043351293 0.004842815 0.0059421924 -0.045239504
0.15002654 -0.04816711 -0.15122564 0.0097832205 0.02249012 0.027092 -0.22141454 0.077029385
-0.038420763 -0.031664804 -0.07733682 -0.17820628 -0.12853852 0.020773178 -0.13729955 0.13042098
-0.14591764 -0.017768055 -0.07310682 -0.040184207 0.15300909 -0.09813919 -0.098831624 -0.03666785
0.03816315 -0.019973924 -0.10985156 -0.008086216 -0.081827655 0.14307556 -0.036427118 0.13191539
0.09074844 0.02829045 0.104971334 0.17770311 0.051765267 -0.16829659 0.14808281 0.031217566
0.10551246 0.06384043 0.122933164 -0.13448109 0.012845853 0.037628427 0.20712267 0.078839906
0.015336226 0.22895005 0.22625788 -0.1943329 -0.06906953 0.14125188 0.08774051 -0.048315372
0.115697324 0.10622209 -0.08855141 -0.15486567 0.048862286 -0.036067467 -0.08318554 -0.03829884
-0.045545686 -0.099453405 -0.063645914 0.220669 0.17541254 0.0715748 -0.1594823 0.10734834
-0.12307014 0.034176797 -0.020935437 0.018143028 -0.23404273 -0.16081393 -0.23166129 -0.03982632
-0.007831917 -0.12830912 0.08830029 0.15231536 0.17877904 0.039823223 -0.029120209 -0.0861825
0.14016373 -0.21698183 -0.014875543 0.053374965 -0.14956914 0.05157181 0.15898803 -0.075531565
-0.0651565 -0.0768525 -0.019590683 0.028817398 -0.17163913 -0.07670534 0.16919868 0.079568155
0.024944544 0.09251605 0.09200223 -0.059910007 0.082881354 0.10241876 -0.016971882 -0.115632996
0.011169161 0.10286724 -0.076681115 -0.15554416 -0.14596882 0.048287716 0.11249071 0.046371147
0.0036578106 -0.02167065 0.09107147 0.040078953 -0.028968621 -0.030127618 -0.00034612458 0.02164338
0.15040985 -0.033783924 0.07532227 -0.058602974 0.08195934 -0.03195129 -0.11411762 -0.048587367
0.13167661 0.0765655 -0.08051831 0.059539218 0.034591556 -0.10751798 0.05900202 -0.03715608
-0.015498861 0.05270654 -0.08444537 -0.073095396 -0.028662387 0.085702755 0.08389329 -0.02228629
0.051655192 0.05241235 0.06055745 0.1289585 0.037601944 0.006796457 -0.03494713 0.09043352
-0.07869789 -0.084657244 -0.052442033 0.0697273 -0.056610912 0.08915205 0.010286944 0.13112034
-0.08175816 -0.10779436 -0.0015894931 0.107789636 -0.08681796 0.01533414 -0.09344767 -0.05478113
0.09177571 0.0839367 0.027883928 -0.08461906 -0.118481584 0.029505925 -0.08292302 0.00538264

encoder.message_net.3.0.bias f4 [64]
00000000: 340c e2bd c593 8bbc 8e66 88bc ee95 fcbd
00000010: c291 91bd 9013 75bd 5f1a a4bd b04e e6bc
00000020: 5176 91bc e205 a7bc f482 4fbd 822e aebc
00000030: 5c6a 32bd 070e 3cbd 5e77 86bd e06d ddbc
00000040: 7f1c 90bd 9b82 aabd 5937 d7bd 10aa fdbd
00000050: d9d3 01be 321a 9abd 13b3 083c 789f cebd
00000060: 10fa fdbc 2664 1abd 2409 f9bc 60f6 ac3c
00000070: d2be e7bc 8fa3 3dbd 78f0 f6bd 76b4 45bd
00000080: 18a4 5cbd 6552 30bc 595f 32bd 656f e0bc
00000090: 89a6 29bd f432 28bd 5bc6 c53c 4c32 abbc
000000a0: cedc dabd 6058 76bd 18e3 1ebd 58a0 f2bc
000000b0: 12ce 56bd f15e 28bc 0163 e7bc 87d4 ccbd
000000c0: fc2b ddbd 8371 0e3d 9e5e 61bd a2db 65bd
000000d0: 8e61 b4bc d22a d8bd ab63 1ebc 16d7 e2bd
000000e0: 63a9 54bd b066 bcbd b048 eabc 07d4 0abd
000000f0: f2ac e1bc 7c2f 80bd ffa1 90bc a376 a6bc
-0.11037484 -0.017038235 -0.016650464 -0.12333284 -0.07107879 -0.05983311 -0.080128424 -0.028113693
-0.017756613 -0.020388547 -0.050661996 -0.021262411 -0.043558463 -0.045911815 -0.06565736 -0.027029932
-0.07036685 -0.08325692 -0.105086036 -0.123859525 -0.1267847 -0.075245276 0.008343476 -0.1008901
-0.031003028 -0.037693165 -0.030399866 0.021113575 -0.028289232 -0.04629856 -0.120575845 -0.048267804
-0.05386743 -0.010761832 -0.04354796 -0.027396867 -0.041418586 -0.041064218 0.024142435 -0.020898007
-0.106866464 -0.060142875 -0.038790792 -0.029617473 -0.052442618 -0.010276542 -0.02824545 -0.10001474
-0.10799405 0.034776222 -0.055021875 -0.05611766 -0.022019174 -0.10555042 -0.009667317 -0.11076181
-0.051919352 -0.091992736 -0.028599113 -0.03389361 -0.027548287 -0.06259057 -0.01765537 -0.020320242

encoder.message_net.4.0.weight f4 [64, 64]
00000000: a9bf 2ebd 0ef2 25bd c140 643d 6b19 f23d
00000010: ef23 82bd c748 29bc db76 cd3d 818a 90bd
00000020: 1a70 95bd 9fe7 4dbd 77ba 483d ccca 2dbd
00000030: efe2 843d 76ae a13b fd96 733d b309 9a3d
00000040: 96ff c9bc 1941 c6bc 64cc 483d 9a8d d23c
00000050: 359a 443d b8f0 5dbc dbb1 d7bd a997 fd3b
00000060: 8923 4ebd 9593 09bd 8962 963d d4d3 94bd
00000070: 9f3f 703c 60bc 29bd 69bb 47bc 0a5d 85bc
00000080: 5b44 003e 8ed7 b2bd 1123 84bc 85ed 46bc
00000090: 103d 0d3d 8e77 d83d 1047 2b3d 1f2b 1bbd
000000a0: 5dc7 153d 9394 e0bd c873 ee3c a9ed af3d
000000b0: d4aa 33bc 14ea b13d 927b 30bd 40b9 b0ba
000000c0: a005 253b 1fd9 4cbd 2d0e f73d dd1b ae3d
000000d0: a8ac 8bbd 7e4b d13d 2a78 943b da5a cf3d
000000e0: 1f46 d83c 1bdf 113d f113 51bc e3e6 80bd
000000f0: d610 b4bb 13f9 233d 6304 be3d 2302 0a3d
00000100: 95bc 4abd 0f2e 6abd 49c5 003d be77 dbbd
00000110: f3bc b03c 0a9a ef3d 3064 373c 3543 95bd
00000120: 63da a63d 4098 a9bb d5e0 82bd 513d e3bc
00000130: 2f63 18be 856f 023e bf83 efbd d4ed e13b
00000140: 84d8 d4bb 1c52 a93d 028a b4bd bf33 fbbd
00000150: 9487 153c 7f87 9d3c bf46 adbd ea0e 00be
00000160: f76d 903d 8159 2a3d 60d5 b7bb 6dce 99bd
00000170: 237e 4fbd 91fd 47bc d683 d33c 7807 8c3d
00000180: 3636 ddbd 2fe1 6c3d f5bc 00be f30a b5bd
00000190: 1fae dcbd 3d99 48bd 3ae2 723d 544a dfbd
000001a0: 042e b9bd e6fb dcbd 8500 923d 027e e2bd
000001b0: 15b8 00be 9c7a ba3d 4db8 823d e4a4 bcbd
000001c0: 891f 50bd 0b19 8b3d c4c2 f8bd 4055 e93a
000001d0: 2c7b 1d3d 8e06 b23c 2392 9c3d 655f b2bc
000001e0: fdda ca3d fa61 81bd cb53 0bbe 38e7 763d
000001f0: dce7 a9bd 210f 05be 996d 4dbd 3915 03be
00000200: 4768 5dbd 81b6 a53d a183 61bd af54 09be
00000210: c416 7fbb 9918 d6bd d953 dabd ab17 87bc
00000220: a012 3e3d 511e d33d 1f1b 9dbd ae22 a9bd
00000230: c01a e73d 40b3 9cbd 08c8 09bc 576d 3c3c
00000240: 3d1e e7bc a89f d8bb d4d2 d33a eab8 eebd
00000250: c027 1ebd 1b4f e1bd ee7c a4bd d63b 11ba
00000260: 4aab 9abc abe4 f8bd 42c5 62bd e9e7 923c
00000270: 057d 8f3d 6706 413d f9a0 143d b035 843d
00000280: c50a 323d bf65 a73d c846 a5bd 68ab e4bd
00000290: e067 c1bd 94f1 933d 8e74 a3bd 973f da3d
000002a0: b2d3 9d3c 10cf 0f3e ad40 753d f9c3 56bd
000002b0: d1c9 9b3d 07bd c03d 7bf0 253d a9b6 a0b9
000002c0: 0ca5 8c3d f41b d6bd 5c68 873d 1a14 e33d
000002d0: 5db6 9fbd a45f 473c a0b6 8d3d c47d 433d
000002e0: 0c2e 65bd eba9 583d c701 2fbd b30e 663d
000002f0: 5528 db3d e865 5abd 2b40 e1bc 84b5 803c
00000300: 5ebf b9bd f584 d0bd 62ff 8d3c 3c83 e53d
00000310: d220 c9bd 9b02 19bd 66ac d4bd bd08 d33d
00000320: fb6d f33d cd36 cdbb 6bef b4bd 045b b83d
00000330: 3773 8cbd fb86 523c a1ae f1bd 7510 0dbd
00000340: 223d f8bd 9002 8fbd 775f 81bd 2236 2abd
00000350: 5e19 f4bd 9a19 c1bd 1bed f0bd 87c2 7d3d
00000360: c867 83bc fd88 d2bd 533a dd3c b3ad 8cbd
00000370: 11c3 fb3a bb75 bd3d 884e e23d 0838 ccbd
00000380: 0f56 183c d0ac e8bd d823 863d 896f 61bc
00000390: 5dc3 2cbd a06b 8dbd 1256 afbd e1fb babc
000003a0: 3cf4 f3bd e9b1 03be 5a89 eb3c 60a4 b13d
000003b0: 0c27 aa3b 5f80 353d 7f9a 34bc ae10 183d
000003c0: 8a32 5ebd b78b 8fbd 96ca 8fbd d221 00bd
000003d0: 3334 95bd 3965 debd f487 59bd 424f 61bd
000003e0: ad0d d9bd 2e04 cc3c 542b cf3c b3d9 983d
000003f0: 6faf 113d 7e31 ac3c 36eb 413d d6f7 89bd
-0.04266325 -0.040514044 0.055725817 0.11821254 -0.0635451 -0.010332293 0.100324355 -0.070576675
-0.07296772 -0.05026972 0.04900595 -0.04242973 0.06488597 0.0049341274 0.059470166 0.07521381
-0.024658006 -0.024200963 0.049023047 0.025702287 0.047998626 -0.013546161 -0.1053197 0.0077390266
-0.050326858 -0.03358801 0.07343013 -0.072669655 0.014663606 -0.041439414 -0.012190678 -0.016279716
0.12526076 -0.0873252 -0.016130002 -0.01214159 0.034482062 0.10569678 0.041815817 -0.03788292
0.03656708 -0.10965838 0.029107943 0.08590252 -0.010966022 0.08687225 -0.043086596 -0.0013482943
0.0025180355 -0.05001175 0.12063251 0.08501408 -0.06820041 0.10219477 0.0045309262 0.101247504
0.026400624 0.03561316 -0.012761102 -0.06294038 -0.005495171 0.040032458 0.092781805 0.033693444
-0.049496252 -0.05717283 0.031438146 -0.107161984 0.021574473 0.116993025 0.01119332 -0.07288209
0.08147123 -0.0051756203 -0.063905396 -0.027739199 -0.14881586 0.12737854 -0.116950504 0.0068948064
-0.0064955372 0.08267614 -0.088153854 -0.12265729 0.009126563 0.019229649 -0.08460759 -0.1250569
0.07052224 0.041589264 -0.005610153 -0.07510076 -0.050657403 -0.012206451 0.0258197 0.06837362
-0.108013555 0.05783194 -0.12572081 -0.08839979 -0.107753985 -0.048974264 0.059297778 -0.10902849
-0.0904198 -0.10790233 0.07129005 -0.1105919 -0.12570222 0.09105417 0.06382809 -0.09211138
-0.050811324 0.06791886 -0.121465236 0.0017801896 0.038447544 0.021731641 0.07645061 -0.021774003
0.0990505 -0.06317516 -0.13606183 0.0602791 -0.08296177 -0.12994052 -0.05015335 -0.12801065
-0.054054525 0.080914505 -0.05505717 -0.1341121 -0.0038923481 -0.104539104 -0.10660524 -0.016490778
0.04640448 0.10308517 -0.076711886 -0.08258568 0.11284399 -0.07651377 -0.008409508 0.011500678
-0.02821266 -0.0066108294 0.0016160854 -0.11656363 -0.038612127 -0.11001416 -0.08031641 -0.0005540227
-0.018880505 -0.1215299 -0.0553639 0.017932849 0.070062675 0.047125246 0.036286328 0.064555526
0.043467302 0.081737034 -0.08070141 -0.11165506 -0.09443641 0.07223812 -0.079812154 0.1065666
0.019265983 0.14043832 0.059876133 -0.052432988 0.07606853 0.09411054 0.040512543 -0.0003065367
0.06867418 -0.104545504 0.06611702 0.110878184 -0.07798455 0.012168799 0.069195986 0.04772736
-0.055952117 0.05289642 -0.042726304 0.056166362 0.10701052 -0.05331984 -0.027496418 0.015711553
-0.090697035 -0.101816095 0.01733369 0.112066716 -0.09820713 -0.037356 -0.10384445 0.10304401
0.118862115 -0.0062626363 -0.08834728 0.09001735 -0.06857913 0.012849565 -0.11800886 -0.034439523
-0.12121035 -0.06982911 -0.063170366 -0.04155553 -0.11918901 -0.09428711 -0.11763974 0.061953094
-0.016040698 -0.10280035 0.02700535 -0.06869068 0.0019207915 0.09250971 0.11050135 -0.099716246
0.009297862 -0.11361086 0.065498054 -0.013759502 -0.0421785 -0.069052935 -0.085613385 -0.022825183
-0.119118184 -0.12860836 0.028752018 0.0867393 0.005192643 0.044311877 -0.011023163 0.037125282
-0.054247417 -0.0700907 -0.07021062 -0.031282254 -0.07285347 -0.108591504 -0.05310817 -0.055007227
-0.105983116 0.024904337 0.025289215 0.07463398 0.035567697 0.021019693 0.047343455 -0.06736724

encoder.message_net.4.0.bias f4 [64]
00000000: 719f acbd a0ac 5bbd 0bcc 32bd 6f57 b1bd
00000010: c039 7bbc 4c2c e6bd 8b4f fbbc 8f49 6fbc
00000020: 0418 23bc eaae 93bd 1fb3 01bd 368c e4bd
00000030: f660 a9bc 9ea3 cdbd b5a5 eebd 5b52 74bd
00000040: 8eda 19bc 99ed 85bc bdab 80bc 8f81 6fbc
00000050: e303 6abc a409 2abd ec24 7cbd a598 a0bc
00000060: b6e1 63bc f702 91bd 1fdb 74bc 8f4d 46bd
00000070: 0e97 0bbc b401 cfbc 7cfd 9fbd be1b f6bd
00000080: 1e59 6fbc a8f4 e8bd d115 7bbc d22f 3fbd
00000090: 361d a1bd 3117 0dbd 413a d9bd a351 dbbd
000000a0: b862 4cbd fa4e 18bd 41a9 58bd fef7 12bd
000000b0: 679f 87bc aca3 98bd e526 85bc 172c 17bd
000000c0: 5126 48bc b036 36bd 8076 82bc e096 b9bd
000000d0: 85e4 80bd ca74 fbbd 7548 c3bc 84ff 6ebd
000000e0: 7a31 8dbd 41b2 e8bd 2850 fcbb f3eb 9fbc
000000f0: 84be c7bd 6d27 debd 35ae 7ebd b8fc 47bd
-0.084288485 -0.053631425 -0.04365162 -0.08659255 -0.015333593 -0.11238918 -0.030677577 -0.01460494
-0.009954456 -0.072110966 -0.031664964 -0.111595556 -0.020676117 -0.10040973 -0.116527 -0.059648853
-0.009390486 -0.016348647 -0.015706891 -0.0146182915 -0.014283153 -0.0415131 -0.06155865 -0.019604037
-0.013908794 -0.070806436 -0.014944821 -0.04841381 -0.008519901 -0.025269367 -0.0781202 -0.1201701
-0.01460865 -0.113747895 -0.015325026 -0.046676464 -0.078669 -0.034445945 -0.10606814 -0.1070893
-0.049898833 -0.037184693 -0.052895788 -0.035881035 -0.016555501 -0.07453093 -0.016253898 -0.03690728
-0.012216167 -0.044485748 -0.015925646 -0.0906198 -0.06293587 -0.12278135 -0.023838261 -0.058349147
-0.068942025 -0.11362124 -0.007699985 -0.019521689 -0.09753135 -0.108473636 -0.062177856 -0.048824996
