experiments/gnn_hd64_ld32_nr3_ep500_b5_nf5.0/model.pt (torch, 178671 bytes, 18 tensors)

encoder.input_net.0.weight f4 [64, 7]
000000 e4 41 73 bd e1 04 48 be 8e 10 8e be aa 8b 83 be
       -0.05938901 -0.19533111 -0.27747005 -0.25692493
000010 87 c4 0e 3f 7e 9b 04 3f e0 0a 04 be 09 e5 59 3e
       0.55768627 0.5179976 -0.12894773 0.21278776
000020 51 df 90 be 06 47 83 be fb 1b 4f be eb 58 e7 bd
       -0.28295377 -0.25640124 -0.20225517 -0.11296257
000030 88 56 50 bc 5d 6a ec bd 87 2c 3f be f3 b7 18 be
       -0.012715943 -0.11543725 -0.1866933 -0.14913921
000040 ee 56 0f be c9 11 b9 be 3e a0 35 3e a9 7b 11 3e
       -0.13998005 -0.36146381 0.17736909 0.14207329
000050 3e 94 13 bd bb 05 92 3e 95 29 98 be 92 1d c0 be
       -0.036030047 0.28519997 -0.29719225 -0.3752256
000060 62 ba 92 be 15 c4 9e be 98 e8 b8 be 38 f6 0a 3e
       -0.28657824 -0.31008974 -0.36114955 0.13570487
000070 64 d7 a3 be a1 31 e1 bd 7e 88 8d be 41 dc 93 be
       -0.32000268 -0.10995794 -0.27643198 -0.28878978
000080 61 93 d2 3e ce 82 8a be 5c a8 65 3f 22 5a d5 bd
       0.41128066 -0.2705292 0.8971002 -0.10417582
000090 17 bc 28 3f fa b6 9f 3e 34 b0 68 be 7f 0f 1f 3d
       0.65912 0.31194288 -0.22723466 0.038833138
0000a0 bc 2e 7f bd fc 94 71 bd 45 6c b3 3d fe d1 6e be
       -0.06230043 -0.058979973 0.08760885 -0.23322293
0000b0 c1 90 d6 3e ba f8 45 bd 43 43 1b bc 75 3a 68 be
       0.41907313 -0.048332907 -0.009476486 -0.2267855
0000c0 eb 92 86 be 7f 32 68 be dc 09 13 bc c2 93 32 3e
       -0.26283965 -0.22675513 -0.008974519 0.17439178
0000d0 d3 11 56 39 e8 09 9f bd 28 43 18 3e cb 06 e3 bd
       0.0002041527 -0.07765561 0.14869368 -0.1108528
0000e0 ad 77 8c be d0 9b 19 3f 58 91 2c 3f 5c 7f 61 3b
       -0.27435055 0.60003376 0.67409277 0.0034408187
0000f0 ca fa 0d bc e4 aa 4f 3e 86 06 92 be f3 0e 08 be
       -0.00866575 0.20280033 -0.28520602 -0.13286953
000100 c5 a8 19 bd 40 b8 8a bd b4 08 b4 3e 29 48 cd 3e
       -0.037514467 -0.06773424 0.3516289 0.40094116
000110 9d 55 b0 be b5 3e b8 bd 0f 10 c8 3c 35 6a 5e 3e
       -0.34440318 -0.089963354 0.02442172 0.21720202
000120 5e 32 10 3f 1b ad e7 3e ba d1 3d 3a 1a 63 63 3e
       0.56326854 0.45249256 0.00072410295 0.22205773
000130 e9 00 43 be b4 e7 5b be 84 6f fc 3c 2b 5a 4b be
       -0.19043316 -0.21475106 0.030814894 -0.19858615
000140 ab 99 62 3e 95 36 0f 3f f7 77 9b be 74 3d b5 bd
       0.22128932 0.5594266 -0.30364963 -0.08849612
000150 9a 0c 27 3f 7d 0d b1 be 60 66 f2 bc c8 dd f8 bd
       0.65253603 -0.34580603 -0.029589832 -0.121516764
000160 42 cc 85 3e 87 af 3c be 8d f7 dc bc 47 8b ae 3e
       0.261324 -0.18426333 -0.02697351 0.34090635
000170 1e a7 31 be 20 58 5e be 7e 13 9a be f3 d5 84 be
       -0.17348906 -0.21713305 -0.30092996 -0.2594448
000180 5b d6 08 be fa ef 13 3d 39 fd 5f 3e 40 44 54 3e
       -0.1336302 0.03611753 0.2187394 0.2072916
000190 96 d3 a2 be d7 5a 81 3d e5 d5 77 be d4 45 1a 3d
       -0.31802052 0.063161545 -0.24202688 0.03766425
0001a0 ed ac 05 3f ea 99 45 bd c4 12 95 bd d8 8d 54 3d
       0.5221699 -0.048242487 -0.0727897 0.051893085
0001b0 7f a1 a7 bd e5 ac 47 3e f4 d6 97 3e 48 5f 45 be
       -0.081851 0.19499548 0.29656184 -0.19274628
0001c0 b8 a0 b4 bd 9a 81 05 be 17 8a a6 3e 64 4b 14 be
       -0.08819717 -0.1303772 0.3252723 -0.14481884
0001d0 59 01 05 3f 74 70 a7 be 3e 1d 21 be 44 1e 03 3f
       0.5195518 -0.32702982 -0.15733811 0.51218057
0001e0 81 4d 3c be 76 ce 08 3f c8 6c 44 be 33 47 ba be
       -0.1838894 0.53440034 -0.19182122 -0.36382446
0001f0 d8 f8 14 bd a4 8e b4 3e 9d ae a6 3e bf a3 9d be
       -0.03637013 0.35265076 0.32555094 -0.3078899
000200 ce e0 47 3e 72 0f 0b be 73 1e 2a 3e 80 43 3c bc
       0.1951935 -0.1358011 0.16613178 -0.011490703
000210 e0 c2 44 bd 92 ae 9c 3e 8b 1e a1 be 01 5a 78 be
       -0.04803741 0.30601937 -0.31468615 -0.24253084
000220 e1 bc 60 be 12 59 74 be 86 d4 7c bd b5 6f 6a bd
       -0.21947052 -0.23862103 -0.061726116 -0.05723544
000230 df f6 73 3e a4 83 77 be 3a a7 ba be 2d 36 94 3d
       0.23824643 -0.2417131 -0.3645571 0.07236896
000240 e1 3d 25 3e bd ca 83 be 0b eb ac be 2b c7 47 3f
       0.16136886 -0.25740615 -0.33773074 0.7803828
000250 20 af 2d be d9 d9 36 be d7 8c 65 be 65 16 2e be
       -0.16961336 -0.1785654 -0.22417007 -0.1700073
000260 6b db 09 3e 31 c7 b1 be 6a e6 1f be f4 e2 0b 3e
       0.13462608 -0.34722283 -0.1561524 0.13660794
000270 5b 18 3f 3f 2e 31 80 3e 52 ba c0 be 86 0d 87 be
       0.7464654 0.2503752 -0.3764215 -0.26377505
000280 d8 74 ba be c3 22 cc bd 81 27 be be 34 28 17 3f
       -0.3641727 -0.09967568 -0.37139514 0.5904572
000290 a1 64 a9 3d 77 1f a7 3e a3 3d 21 bc 1c 27 6a be
       0.082711466 0.32641193 -0.0098413555 -0.22866482
0002a0 9e 9e af be d8 6c ec 3e 47 01 af 3e b9 c5 ed 3e
       -0.34300703 0.4617679 0.34180662 0.46439913
0002b0 8d 27 d7 3d 7a 87 99 bd 0f e6 2a bd fa c4 be 3e
       0.105055906 -0.07496543 -0.041723307 0.37259656
0002c0 42 ec 8f bd 40 4e 34 3d 4c 39 bf 3c 75 a0 ca 3d
       -0.070274845 0.044019938 0.023342751 0.09893886
0002d0 4e e7 5b 3d 56 1d bb 3e a9 34 21 3e cd 4b df 3e
       0.053687386 0.3654582 0.15742745 0.4361252
0002e0 c6 5f a9 3d 80 de a9 be 15 cd 51 be a0 c5 20 be
       0.082702205 -0.33177567 -0.20488389 -0.15700388
0002f0 02 2d 25 be c8 8c 33 3e b2 a7 0f 3f a5 94 14 be
       -0.1613045 0.17534173 0.5611526 -0.14509828
000300 b9 10 24 be 1b 12 21 be 4a a5 73 be 85 ec 3d 3e
       -0.16022004 -0.15729563 -0.23793522 0.18547256
000310 23 18 bf be 6e 03 78 3e 77 fd d1 3e 32 b7 a5 bd
       -0.37323102 0.24220058 0.4101369 -0.08091582
000320 5b 24 e5 3c 47 b5 d8 3e 03 40 ec 3c 49 e0 85 be
       0.027971437 0.42325804 0.028839117 -0.26147678
000330 64 ac 5b be 48 b6 81 3e c4 0a e8 3e 4a de b2 be
       -0.2145248 0.25334382 0.45320714 -0.34935218
000340 60 32 cc be e8 fe 9d be 19 fe a4 bd 3b ba 60 be
       -0.39882183 -0.3085854 -0.08056278 -0.21946041
000350 f3 ff 17 be 22 63 54 be 14 b2 b3 bd 1f 8b 02 3e
       -0.1484373 -0.20740941 -0.087742 0.12748383
000360 e0 45 55 be 40 9e 97 be 63 1f 92 3e 8b 23 90 bc
       -0.20827436 -0.29612923 0.2853957 -0.017595073
000370 10 5c 82 3e 5d a6 ce 3e 78 31 e0 3d 68 d7 6e 3d
       0.25460863 0.403613 0.109469354 0.058310896
000380 42 e8 13 3e 1b c7 56 3d 39 4c f6 bc 04 31 3c be
       0.14444068 0.052435976 -0.030065643 -0.18378073
000390 81 55 d6 3d d2 32 1b 3d b4 8c 84 be 5e 9c cc bd
       0.10465527 0.037890263 -0.25888598 -0.09990762
0003a0 06 04 27 3f 21 0c b0 be e6 7f 0a 3e fe 33 44 3e
       0.65240514 -0.34384254 0.13525352 0.19160458
0003b0 07 c6 a8 bd de d4 e0 bd e5 c7 83 be 8b fc 58 3d
       -0.08240896 -0.10978101 -0.25738445 0.05297522
0003c0 23 f3 aa 3e 20 48 5a bc ed d0 a0 3e 05 d6 64 3e
       0.33388624 -0.01332286 0.31409398 0.22347267
0003d0 c4 19 60 be 4e d7 92 3e 3f e0 68 3e 6b ad af 3d
       -0.21884829 0.2867989 0.22741793 0.08577999
0003e0 76 d6 8f be f5 69 18 be ed 6f 90 be 72 5b 8b be
       -0.28093308 -0.1488417 -0.28210393 -0.27218205
0003f0 63 3e d3 be 4d e1 8b 3e 5f c3 d8 be c3 1b 23 3e
       -0.41258535 0.27320328 -0.42336556 0.15928559

encoder.input_net.0.bias f4 [64]
000000 55 ff 33 3d 11 24 30 3c 5c 04 57 be 87 e1 c1 3e
       0.043944675 0.010750786 -0.20997757 0.37867376
000010 31 ba 83 3e 17 1b 6e 3d 39 a9 07 3e f3 3d 3c be
       0.2572799 0.058131304 0.13248147 -0.18383007
000020 43 6e 8b 3e af 6e 50 3d 99 54 c1 3c 4d 26 12 be
       0.2723256 0.050886806 0.02359991 -0.14272423
000030 9c 1f f7 3d 3a f6 5c 3e 84 ee 88 bd ef 63 b7 be
       0.12066576 0.21578303 -0.06686118 -0.3581843
000040 c8 5e bb 3d bf ee 42 3e a5 99 3e 3d 32 4f 5e 3d
       0.091489375 0.19036387 0.046533246 0.054274745
000050 8d 7e a1 be af 94 25 3e c4 5a c1 3e 02 fc bf bc
       -0.31541863 0.1617 0.3776456 -0.023435596
000060 b7 bb b4 3e dc f0 13 be 2f 1d f6 3d f4 ad 86 be
       0.35299465 -0.1444735 0.12017285 -0.2630459
000070 b0 db 8d bc 80 1c b8 3e 50 3c 9d be 6f f4 95 3e
       -0.01731667 0.35959244 -0.30710077 0.2928805
000080 26 4c 44 be 39 43 f0 3d 2b bf 96 3e 24 94 50 3d
       -0.19169673 0.11731572 0.29442725 0.050922528
000090 27 e0 d7 3e 9c 61 61 bd 86 d2 d1 3e 2c 20 77 3e
       0.42163202 -0.05502473 0.4098093 0.24133366
0000a0 74 4c dd 3e a2 98 8c 3d 6b 12 be 3d 3a 96 d4 3c
       0.43222392 0.0686505 0.09280857 0.02595054
0000b0 7c 2b 1f 3e f5 a7 27 3e c0 c3 5a bd d3 6e 4b 3e
       0.15543932 0.16372664 -0.053409338 0.19866495
0000c0 7e 05 84 be 0f 79 93 be c8 5c aa be e3 14 c1 bd
       -0.2578544 -0.28803298 -0.3327391 -0.09427812
0000d0 1f 71 86 be 93 b5 c0 be 48 b6 ce 3e 49 be 9f 3b
       -0.2625818 -0.3763853 0.40373445 0.0048749787
0000e0 29 d4 b7 bd b7 41 00 3e 2e 60 42 be 88 a3 a5 3e
       -0.08976013 0.12525068 -0.18982002 0.32351327
0000f0 28 fd af be 2c 42 8f 3e 35 ec 8d be cd 4c c5 3e
       -0.3437283 0.27980173 -0.27719274 0.38535157

encoder.message_net.0.0.weight f4 [64, 64]
000000 8e d9 7d be 65 05 55 3d 98 e0 70 3d 39 5e 4d 3d
       -0.24790022 0.052007098 0.05880794 0.050138686
000010 aa ff af be 77 96 58 bc 3d 9b 78 bd c2 68 89 bd
       -0.34374744 -0.013219467 -0.06069492 -0.06709434
000020 cf 17 36 3d 79 17 9c ba 55 de 03 be 0d 13 0c 3e
       0.0444563 -0.0011908851 -0.12877782 0.13679142
000030 64 b9 e2 3d 48 e0 1f 3d 4c b5 ce 3d 94 28 6f 3d
       0.11070517 0.03903225 0.100931734 0.058388308
000040 44 db c4 bd ee 6f 29 3d 41 6d cc ba 82 10 2d 3d
       -0.09612134 0.04136651 -0.0015596525 0.04225207
000050 e0 54 5e bd f9 b5 af bd f8 cb 6a 3d dc 2d e3 bd
       -0.05428016 -0.085796304 0.057323426 -0.11092731
000060 dc ca 1e 3e d3 63 e6 3d 8b 4a ad 3d 42 20 9d 3e
       0.15507072 0.11249509 0.084614836 0.30688673
000070 56 e8 80 bd fd fb c7 3d cc 4a f4 3d d2 94 b3 3d
       -0.062943146 0.0976486 0.11928329 0.087686196
000080 fc 23 a0 3d d4 23 13 3e 49 c2 01 be d3 ca 95 3c
       0.078193635 0.14369136 -0.1267177 0.01828519
000090 e5 48 a5 3d af 29 6f 3d 8b a2 f5 bd a0 53 36 bd
       0.08070544 0.058389362 -0.11993893 -0.044513345
0000a0 f7 10 b6 3d d8 c1 a0 3d c3 85 b4 3d 17 e9 32 3e
       0.088899545 0.07849473 0.088145755 0.17471729
0000b0 fc e7 94 3d 02 22 4f 3e 7f 02 5e 3d bc cd a5 3b
       0.0727081 0.20227817 0.0542016 0.005059926
0000c0 38 8b a2 3d e3 e8 64 3a 70 e7 d6 3c 55 26 88 be
       0.0793671 0.00087322126 0.026233405 -0.26591745
0000d0 78 4b ff bd b8 a7 d8 3d 61 4e 50 3e 35 b8 ec bc
       -0.124655664 0.10578865 0.20342399 -0.02889643
0000e0 28 3f 7c be 0b 1b 3f 3e fe af 25 be 0a 0b 9f 3e
       -0.24633467 0.1866266 -0.16180417 0.3106311
0000f0 54 7d a5 3d dc 8c 0a 3e 54 b4 37 be 9d fa 59 bc
       0.08080545 0.13530296 -0.17939883 -0.01330438
000100 bb 9d fd bc 79 44 dc bc 7a f9 d3 bd 87 c2 27 be
       -0.030959 -0.026888119 -0.10350318 -0.163828
000110 8c 42 15 be 9e 20 53 3e bb e0 0c be 00 6b b2 3a
       -0.14576167 0.20617911 -0.13757603 0.0013612211
000120 d8 82 99 3c 18 cf a6 bd df 5c d1 3d c0 47 5e bd
       0.018739149 -0.08144969 0.10222792 -0.054267645
000130 00 f6 30 bd 61 17 10 3e cb d7 f3 bc 7c d3 15 bd
       -0.043203354 0.14071418 -0.029765984 -0.03657864
000140 ff 8f d2 3d 5d b3 77 bd 02 b7 ef bd eb b7 bd bc
       0.10281371 -0.06047379 -0.11704828 -0.023158988
000150 80 88 3e bb 6c f1 08 bd 66 e2 15 3c 38 ab e7 3d
       -0.002907306 -0.033433363 0.009148216 0.11311954
000160 c4 3b 1c 3e 4f ab 5a bd d7 0e e6 3c 92 11 5d 3e
       0.15257174 -0.05338603 0.028083248 0.21588734
000170 f2 9e 0d 3e 24 eb 0f 3c 62 ae f9 3d fa 1e 2c 3d
       0.13830164 0.008784089 0.12191464 0.04202173
000180 c0 be 2d 3d 75 5d 92 3c fa 03 56 3c 8a d9 77 3d
       0.04241824 0.01786683 0.0130624715 0.060510196
000190 ef 2d 27 bd f0 bf 78 be 42 25 93 bb eb 39 12 3e
       -0.04081529 -0.24291968 -0.0044905255 0.14279906
0001a0 2a 9e 1c bd 5c f2 2a be 38 82 a1 3d 28 fb ba bc
       -0.038236775 -0.16694015 0.078861654 -0.022824839
0001b0 c3 f9 4f 3c 7e 93 dd 3d f1 02 a0 bc 24 c7 98 bd
       0.012693825 0.108191475 -0.019532653 -0.07459858
0001c0 e0 a3 dd 3c c8 3c 1a 3d 38 29 53 bd 3b 64 07 be
       0.02705568 0.03765562 -0.05155298 -0.13221829
0001d0 8c d6 3b bd cc 22 2c 3d 03 11 b1 3d 53 ab bd bd
       -0.045858905 0.042025372 0.08645823 -0.09261193
0001e0 49 6d e1 bd d0 ec 97 bc 72 d7 80 3d ad e8 3e 3d
       -0.110071726 -0.018545538 0.06291093 0.046608616
0001f0 d2 74 b8 3d 59 d4 e0 bd b0 98 91 be 9f aa 59 bd
       0.09006657 -0.10978002 -0.28436804 -0.053141233
000200 3e 7b 40 3e 76 77 c9 3b e4 83 a9 bd 62 fb ff 3d
       0.18797013 0.006148274 -0.08277109 0.12499119
000210 68 2b 87 bd 22 4c 41 be f9 e2 1e 3e 48 5c 6f bd
       -0.06600076 -0.18876699 0.1551627 -0.058437616
000220 a6 e8 42 3c 0b b1 20 be 93 18 3e bd 8a a8 3d 3c
       0.011896288 -0.15692537 -0.046410155 0.011575827
000230 43 d3 2e 3e 9f 44 8d 3d b9 bf 39 3e 50 bb 91 bc
       0.17072777 0.06897854 0.18139543 -0.017789513
000240 be 73 a1 bc a0 29 09 bd 21 2e 82 3c 3e a0 1f 3d
       -0.01970851 -0.033486962 0.015891137 0.03897118
000250 48 ce fc bc ad 4e 96 3d 99 e3 33 3d 34 14 32 bd
       -0.030860081 0.07339225 0.043918226 -0.0434763
000260 dc 90 b9 bd 4b f5 0b 3d 74 15 a2 bd b3 c0 46 be
       -0.09060833 0.034169476 -0.07914248 -0.19409446
000270 4f 64 c9 bd 4b 01 47 3d dc 88 6f 3d 70 d8 24 bd
       -0.098335855 0.048585217 0.05848013 -0.040245473
000280 d8 f4 f5 bd b7 02 4f bd 35 1b ad bc 74 b5 16 3e
       -0.12009591 -0.0505397 -0.021131137 0.14717656
000290 26 4c b2 3b 0b f3 3a bd 99 29 1c bd e6 c2 4d bd
       0.0054412065 -0.04564194 -0.038125608 -0.050234698
0002a0 d0 fb cd 3d e6 f1 f3 3c e3 7b 25 bc 7f ed c3 bd
       0.10057795 0.029778432 -0.010100338 -0.09566783
0002b0 e4 5e 1f bd ec c9 70 bd df b0 26 3e 1c 90 f1 bd
       -0.038908854 -0.058786318 0.16278408 -0.11795065
0002c0 c2 1f b0 3d 99 07 fd 3d 00 a0 b6 3b 3c 15 25 bc
       0.08599807 0.12354965 0.0055732727 -0.010075863
0002d0 52 66 86 bd 6c b8 23 3d 25 c8 33 bd e6 e7 21 3e
       -0.06562485 0.0399708 -0.043892045 0.15811118
0002e0 48 ce 63 3d 14 d5 03 be f9 7a 66 3d 73 6b ad 3c
       0.055616647 -0.12874252 0.05626962 0.0211694
0002f0 2c 02 fd 3d 34 fc 87 3d b8 fe 0d 3e 82 06 2e bd
       0.1235393 0.06639901 0.13866699 -0.042486675
000300 60 6d ef 3b f4 9d 44 bd 90 4e 7f 3c 9a 73 0a be
       0.0073067397 -0.0480022 0.015582696 -0.13520661
000310 ba e2 73 bd 51 40 f0 bd 30 db 89 bd 30 df 8d bd
       -0.059542395 -0.117310174 -0.0673126 -0.06927335
000320 f2 ca 2a bd 94 fd 2b bd 26 cd 4c bd 38 82 ff bd
       -0.04169745 -0.041989878 -0.050000332 -0.12476009
000330 18 cf a2 3c 0a 95 32 3c f1 9f 66 3d 86 11 ff bd
       0.01987414 0.0108997915 0.056304876 -0.12454514
000340 5c 8c 95 3d ba 64 b7 bd ba f1 a8 bd 00 c0 2e bc
       0.07302162 -0.08954759 -0.08249231 -0.010665894
000350 30 e8 d8 bd 68 44 d6 3c f9 d6 ff bc 64 7a 22 3d
       -0.10591161 0.026155666 -0.031230437 0.039667502
000360 d0 30 39 bc 88 a1 ea bc 7e 4e 0e bd b6 6d 4b bd
       -0.011303142 -0.028641477 -0.034742825 -0.049665175
000370 13 24 61 3d 09 66 7b 3d 0e 3c 82 3d b1 60 d5 bd
       0.054966044 0.061376605 0.06359111 -0.10418833
000380 16 56 8e bd ad b7 91 3d 59 11 0c be 11 91 2c 3d
       -0.06950013 0.071151115 -0.13678493 0.042130534
000390 96 4b d3 3c 00 f7 3b 3b bf 60 f5 3c 86 eb 26 3d
       0.025792878 0.002868116 0.029953359 0.040751956
0003a0 16 e1 e5 bd b4 d3 fe 3d 56 06 d4 3d 4a 55 ac bd
       -0.11224572 0.12442723 0.10352771 -0.08414705
0003b0 f9 84 1c bd 1b 35 d5 3d 05 6a a8 3d 40 8f b1 bc
       -0.03821275 0.1041052 0.082233466 -0.021674752
0003c0 20 9b 6a bc c4 65 33 3d ce 57 ba 3d 48 29 be bd
       -0.014319211 0.043798223 0.09098779 -0.092852175
0003d0 58 ac b1 bc d6 30 af 3d ef ed 03 bd 0f 54 04 be
       -0.021688625 0.085542366 -0.032209333 -0.12922691
0003e0 6a bb da 3d d1 2b 3e bd b8 e3 fe 3c de ba 91 3d
       0.10680278 -0.046428505 0.031114444 0.0711572
0003f0 b4 c4 e9 3d a8 ed fe bd 80 5f c7 3d d8 86 97 3c
       0.11414471 -0.12447673 0.09735012 0.018496916

encoder.message_net.0.0.bias f4 [64]
000000 8d c4 8f 3d 8f 9c 9a bd 39 7a 40 3c b5 a6 98 bd
       0.07019911 -0.075493924 0.01174789 -0.07453672
000010 6e ae ee bd e3 cb 1d 3e f2 82 d5 3d 02 87 e6 3c
       -0.116543636 0.15409808 0.104253665 0.028140549
000020 b7 37 ab bd a5 94 02 3e f7 26 b6 bd 1f f4 41 3e
       -0.08360236 0.12752016 -0.08894151 0.18940781
000030 9b 2a bf 3d 43 d7 a6 bc a3 eb 9b bd 0c 65 1f bd
       0.09334298 -0.020366317 -0.076133035 -0.038914725
000040 6c 8f d8 3d ae dc 13 3e ff 4a ed 3d c1 34 8b bd
       0.105742306 0.14439651 0.1158657 -0.067971714
000050 8b cc 03 3e 6f 4b cd bd 0f 20 2f bb 4d 7f cf bd
       0.12870996 -0.100241534 -0.002672199 -0.101317026
000060 bb 76 9e 3c 63 5a 16 3e 98 a4 c0 3d 02 e4 00 3d
       0.019343724 0.14682917 0.09406394 0.031467445
000070 12 d3 24 3e da 38 b3 3d 98 8f 03 be e8 19 b1 bc
       0.16096142 0.08751078 -0.12847745 -0.021618798
000080 b1 61 ca 3d 07 76 23 3e a5 ac 0b bd 0b c5 8a 3d
       0.098819144 0.15962993 -0.034100194 0.06775864
000090 3e 3a b4 bd 24 49 7d 3d ad 5e 09 3e b5 12 fd 3d
       -0.08800171 0.06183733 0.13415022 0.12357084
0000a0 27 38 26 3d a2 b5 d5 3d ab 2a dc bd 42 d2 10 be
       0.040580895 0.10435034 -0.10750326 -0.14142707
0000b0 48 e6 b3 bc c3 56 94 3c fc 8d c5 3c 44 17 c8 bd
       -0.021960393 0.018107777 0.024115555 -0.097700626
0000c0 86 af 6c bd 51 dc 9f bd c7 47 29 bc fd 88 16 3e
       -0.05778458 -0.07805694 -0.010332054 0.14700694
0000d0 21 dc ae bc 90 ac ee bd c2 93 ff 3b 3a 0f d8 3c
       -0.0213452 -0.116540074 0.0077995965 0.026374448
0000e0 f4 88 3b bd 84 ec 90 3d 5d f4 e3 bd e6 5d 8c 3d
       -0.045784906 0.07076362 -0.11130593 0.06853847
0000f0 00 c5 b3 3c 1a b0 ab bd cb d8 95 3d 35 0f 00 bd
       0.021944523 -0.08383198 0.073167406 -0.031264503

encoder.message_net.1.0.weight f4 [64, 64]
000000 0d 02 6b be 0e 6c 31 bd 35 6a 53 be 3f ab 4c be
       -0.22950001 -0.04331594 -0.20645984 -0.199872
000010 c2 5c c9 bd e6 fb 18 be f9 0d 0b 3e 80 56 84 bc
       -0.09832145 -0.14939842 0.13579549 -0.016154528
000020 bc e8 70 bc a4 f9 60 3e 33 9c b5 bd fe 96 7e bd
       -0.014703926 0.2197023 -0.08867683 -0.062155716
000030 52 3e ca be c8 b0 cc bc bd 49 1d be ed 5e 29 3c
       -0.39500672 -0.02498664 -0.1536016 0.0103375735
000040 1f d5 fa 3d fa 1f 27 be 84 da fd bd af 4d 53 3e
       0.12247681 -0.16320792 -0.12395194 0.20635103
000050 1e bf 76 be 6b a8 51 bd 2a fe 50 3d a3 7a 1c 3d
       -0.24096343 -0.051186007 0.05102364 0.038202893
000060 27 5f e9 bd 25 0c ca 3d 56 68 0d be 21 6e 3d bd
       -0.11395102 0.09865598 -0.13809332 -0.046247605
000070 cd a9 6a 3e a4 07 bb 3e 90 9f f8 bd 35 2f 63 bd
       0.22916336 0.36529267 -0.12139809 -0.055464942
000080 67 45 28 be dc ea 42 3c 8b b7 79 bd 43 c9 43 3e
       -0.16432725 0.011896815 -0.060966056 0.19119744
000090 d3 29 08 3c 51 e8 e1 3c 00 4e 7a bc 62 89 b9 bb
       0.008310753 0.027576597 -0.015277386 -0.0056621293
0000a0 94 67 34 bc e6 66 0a be 11 0e fd 3c 6a ec 71 3c
       -0.011011023 -0.13515815 0.030890496 0.014765838
0000b0 fb 35 42 3c ca df 43 be 3b 60 36 3d a5 28 99 3c
       0.01185369 -0.19128338 0.044525366 0.018696139
0000c0 92 d2 3c be 3e af 35 be db e8 01 3e aa e3 82 be
       -0.18439701 -0.17742631 0.12686484 -0.2556432
0000d0 c7 8e 63 bd a9 04 09 bd f4 c8 19 3d 15 91 bc 3d
       -0.055556085 -0.03345171 0.03754516 0.0920736
0000e0 b2 ef d6 bd 76 71 7c bd 81 b5 92 3e 0e 54 85 3c
       -0.10494937 -0.061631642 0.28654101 0.016275432
0000f0 0d 0d 5a be da bd 46 3e f3 4e 3d be 2d 41 13 bd
       -0.21294041 0.1940836 -0.18487148 -0.03595083
000100 07 43 8c 3e e5 94 bc bc 0f 12 90 bd bb 26 0c 3b
       0.27394888 -0.023020217 -0.070346944 0.002138539
000110 fb c2 09 bd 7c dc 8d bd 33 6d c6 bb 1d 37 c2 bb
       -0.033633213 -0.0692682 -0.006055498 -0.00592698
000120 ec 1a 06 3e b7 c5 b1 3c d7 94 40 3d c8 72 96 3d
       0.13096207 0.021700723 0.047016945 0.073461115
000130 db 16 44 bd a7 94 cf 3d df 75 b2 bc cf c4 b3 3d
       -0.04787336 0.10135775 -0.021784721 0.08777773
000140 5b b7 8c bd 80 21 70 3c 96 d4 9e 3c 2f 1a 21 3d
       -0.0687091 0.0146564245 0.019388478 0.03933161
000150 43 f8 db 3d 95 7a 7c 3d e4 c1 53 3d 52 7c 85 bd
       0.107407115 0.06164034 0.05169858 -0.06517853
000160 8f 56 0b be ec e8 44 bc 8c b9 c5 3d b7 44 b2 ba
       -0.13607238 -0.0120184235 0.09654531 -0.0013600801
000170 b1 d7 d0 bd 07 f5 2c bd eb e3 d9 3d c2 3f 39 be
       -0.1019739 -0.042225864 0.10639175 -0.18090728
000180 2b 4d 26 bc 61 44 89 bd f8 f1 53 3d ae c6 26 3e
       -0.010150234 -0.06702495 0.05174443 0.16286728
000190 3f 9e 16 3e 87 14 88 be 10 58 be bd dd 11 ad 3e
       0.14708804 -0.2657816 -0.0929414 0.3380269
0001a0 61 de 0d 3d 1f 0c 20 bd c1 bd 16 bd af cc 36 be
       0.034635905 -0.03907406 -0.036802057 -0.17851518
0001b0 50 47 c9 3b e5 55 58 bc 33 85 e6 3c 9d 28 35 3e
       0.0061425343 -0.013204073 0.028139686 0.17691274
0001c0 e2 09 8b 3d 81 2f 94 39 97 c3 03 bb c1 d9 3f 3c
       0.06788994 0.00028264153 -0.0020105594 0.011709631
0001d0 57 17 92 3d c5 ca 50 bc 24 43 b9 bc d2 09 9a bd
       0.07133358 -0.0127436565 -0.022615023 -0.07521404
0001e0 27 72 0f be 15 d4 d9 3c b4 6a 99 3b 4c 33 49 be
       -0.1400839 0.026590386 0.0046819095 -0.19648474
0001f0 34 80 81 3e b6 4d 0f bd 90 69 5d be c9 42 9d bc
       0.25293124 -0.03498622 -0.216223 -0.019196885
000200 1e ce 70 3d dd c8 de 3d ab 27 c1 3c 93 cd c4 bd
       0.05879032 0.108781554 0.023578485 -0.09609523
000210 80 c3 81 bd 3f 17 2c 3d c3 81 cd bc 15 14 8b bd
       -0.06336117 0.042014357 -0.02508629 -0.0679094
000220 7c 71 05 be 22 54 84 bd ca 57 55 bd de 01 55 3d
       -0.13031572 -0.064613596 -0.052085675 0.052003734
000230 42 0a 5e 3d 47 f2 95 3d 34 f0 25 bd 8b c3 4a bd
       0.054209 0.07321601 -0.04051228 -0.04950289
000240 9d 2a 7d bd c7 6f 4a 3a 61 d0 ef bd b4 30 47 bd
       -0.061808217 0.00077223446 -0.11709667 -0.04863043
000250 71 c1 17 3d 0d b3 74 3d 2f 76 8f 3d fc d1 2a 3c
       0.037049714 0.05974107 0.070049636 0.010426041
000260 97 8c 11 bd b7 02 03 3d 2d e9 57 bd 63 24 f1 3c
       -0.035534468 0.03198501 -0.052712608 0.029436296
000270 ed b9 9d 3d f3 c7 c3 3d 0a 97 f2 bd 7c 0f 0e be
       0.07701478 0.09559622 -0.11845215 -0.13873094
000280 90 46 41 bd e9 37 00 3e e6 ec 8b bd 5e 05 a3 bc
       -0.047186434 0.12521328 -0.06832294 -0.01990002
000290 df a6 b2 3c b6 9f 69 3d 44 f7 ce bd b2 49 91 3d
       0.021808086 0.057037078 -0.10105756 0.070941344
0002a0 c8 dd a6 bd 51 86 e2 3d 32 fd bc 3d 45 2b 49 bd
       -0.0814777 0.11060775 0.09227981 -0.04911353
0002b0 a1 6a 44 3d f3 8e 80 bc 57 cf c8 bd 87 ee 56 3d
       0.04795325 -0.015693163 -0.09805172 0.05247357
0002c0 32 24 a6 3d bd 7c a8 3d df c1 04 3e 3f 11 85 bd
       0.081123725 0.08226917 0.12964581 -0.0649743
0002d0 d6 60 98 bd b9 e6 05 bd f1 c0 b8 3d c8 9c 9e bd
       -0.07440345 -0.032690737 0.09021176 -0.077447474
0002e0 bb 0f fa bc 24 84 03 3d 97 26 a0 bd 49 c4 73 3d
       -0.030525079 0.03210844 -0.078198604 0.059513364
0002f0 d3 c1 ef 3a 0b 95 9f 3d 81 fe aa 3d 23 9d 78 3d
       0.0018292017 0.077920996 0.08349324 0.060696732
000300 58 a4 1b 3e 0b 3e b4 be 3a c0 0e 3d 76 f1 9e be
       0.15199411 -0.35203585 0.03485129 -0.31043595
000310 03 2a 17 bd ad 29 f7 3d 5a 6c e9 bd 29 0f 72 3c
       -0.0369053 0.12068496 -0.113976195 0.014774122
000320 97 90 25 3e ac 9b b6 bc e2 20 bc 3e 4c 94 60 be
       0.16168438 -0.022291027 0.36743838 -0.21931571
000330 97 59 ea 3c 1d 69 82 be 82 1f 17 be f4 19 14 3e
       0.028607173 -0.2547082 -0.14758113 0.14463025
000340 ff a9 32 bd 77 13 98 3c 0e 86 8c be 19 21 41 be
       -0.043619152 0.018563969 -0.27446026 -0.18860282
000350 27 8a 33 be c5 de 60 bd 6f 73 4a 3e b6 c0 1a 3e
       -0.1753317 -0.05489995 0.19770597 0.15112576
000360 f5 47 c2 3e 44 bf 0f be 78 54 ac 3d 96 71 21 3d
       0.37945524 -0.14037806 0.08414549 0.039414965
000370 8f e5 71 3e bb 38 a4 3e 63 23 28 3d cb aa 8c 3d
       0.23622726 0.32074532 0.041049372 0.06868514
000380 bf d6 ca bb df 75 fe 3e 2a 99 dc 3d b4 a8 c9 3d
       -0.0061901505 0.49699304 0.10771401 0.09846631
000390 70 21 4c 3e 06 59 cf be 68 e1 43 3e 7f b0 01 3f
       0.1993463 -0.40497607 0.19128954 0.50659937
0003a0 30 93 dd bd a9 25 4a 3b d8 9a 80 be e9 83 4a be
       -0.108190894 0.00308452 -0.25118136 -0.19776882
0003b0 e3 a2 da be 11 79 e8 3d 00 e0 0f be 3b 02 90 3e
       -0.42702398 0.113512166 -0.14050293 0.28126702
0003c0 f6 62 50 3e b5 c1 46 be ba 98 02 3e 1c ac 20 3e
       0.2035025 -0.19409831 0.12753573 0.15690655
0003d0 5e f8 4e 3e 13 d2 1d be e5 d7 7a 3e 89 07 ce 3d
       0.20211932 -0.15412168 0.2449642 0.10060031
0003e0 1d 73 b4 bc a0 94 31 3e e0 05 12 bb 44 40 20 3d
       -0.022027547 0.17341852 -0.0022281334 0.03912379
0003f0 0f 1a e9 3d ec b0 d1 3d cd 7b 3b 3b 24 6e 3f bd
       0.113819234 0.10238823 0.0028607727 -0.046735898

encoder.message_net.1.0.bias f4 [64]
000000 0b bb 86 bd bc 46 98 3d 28 e8 0b be 50 dd 9d bd
       -0.06578644 0.074353665 -0.1366278 -0.07708228
000010 a2 65 5b 3d e1 74 ef 3c 26 1b 6b bd 2e d3 91 bd
       0.05356372 0.029230537 -0.057398938 -0.071203575
000020 df fd 38 be 8f 3a a5 3d ec 19 9c bc f2 cc 03 3d
       -0.18065594 0.0806781 -0.01905533 0.032177873
000030 e7 74 0e be 0a ac cd 3c c7 db 08 3c 76 f9 3a bd
       -0.13911782 0.025106449 0.00835318 -0.04564806
000040 ac 23 e5 3c 1c 2c e0 3d 87 ce 1a be 5e d3 08 3e
       0.027971111 0.10945913 -0.15117846 0.1336188
000050 2c 3f ef bd b4 4b 76 bd 7b de 05 3e 77 44 34 3d
       -0.11681971 -0.06013079 0.13073151 0.044010606
000060 f2 ae 37 3d 25 3d 69 bd c2 17 2b 3d b4 1c 6f bd
       0.044844575 -0.056943078 0.041770704 -0.058376983
000070 1b 0f 70 bc 2c c9 07 be 09 bb b9 3d fc 9b 12 bd
       -0.014652039 -0.13260335 0.09068877 -0.03579329
000080 15 22 e4 3d 26 71 f8 bd 4d dd 61 bc 4c ae 1e be
       0.11139313 -0.12130956 -0.013785672 -0.15496176
000090 41 8e c3 3d 82 c0 ec 3c e1 c3 db bd c8 e7 ec bd
       0.09548617 0.028900389 -0.1073072 -0.11567646
0000a0 21 d0 cb 3a 19 df 9b 3d 78 e1 fd 3c 79 89 d4 3d
       0.0015549698 0.07610912 0.030991301 0.10377783
0000b0 57 eb d6 bc bf 69 ea 3b 53 ea 99 3d b2 65 2e be
       -0.026235266 0.007153719 0.07515397 -0.17030981
0000c0 9f ce 12 be 55 46 39 be 3b d6 70 3d f7 b8 16 3d
       -0.14336632 -0.18093236 0.058798056 0.03679749
0000d0 cf 56 ac 3d 2c c9 87 bd 47 62 c3 bd ca d2 79 bd
       0.08414995 -0.06630167 -0.09540229 -0.06099204
0000e0 90 3a 8d bb b0 a4 15 3e 29 37 59 be a4 5d ea 3d
       -0.0043099597 0.14613605 -0.21212448 0.11443642
0000f0 27 a7 1c be 5d 0b f5 3d 18 fe 89 bd c3 55 49 3d
       -0.15298139 0.11965058 -0.06737918 0.049154054

encoder.message_net.2.0.weight f4 [64, 64]
000000 9b c7 d8 bd d7 5a b5 3c e4 d2 e6 bd 63 3e 5e 3d
       -0.10584947 0.022138042 -0.11270693 0.054258715
000010 12 4d a3 bd a3 5e 9e 3d bf b4 9c 3c 64 dc 35 bd
       -0.07973684 0.07732894 0.019129155 -0.044399634
000020 31 25 d5 bd e9 7c 37 3c 8a 5d 82 bd bb 24 86 bd
       -0.10407484 0.0111992145 -0.063654974 -0.065499745
000030 d1 1d 5a 3d 26 4e 60 3d 40 f5 00 be c9 9f 0d bd
       0.05325109 0.05476203 -0.12593555 -0.03457621
000040 83 f8 e3 bd 2b 1a b1 3c 83 0f 2a 3a 9b fb 86 3d
       -0.11131384 0.021618923 0.0006487297 0.06590959
000050 e5 1c f6 bd aa 9a 6c 3c ff c8 78 3d c3 51 ba bd
       -0.1201723 0.014441172 0.06073856 -0.09097626
000060 95 15 bb 3d 8e c3 ed 3d f4 9e a8 3d 30 8f d8 3c
       0.09134976 0.11609565 0.08233443 0.026435465
000070 89 76 9f bd 0c 08 91 bd 48 af bb 3d a0 89 ce 3d
       -0.07786281 -0.07081613 0.091642916 0.10084844
000080 c0 a9 e1 3b 65 16 79 bd f5 96 e1 3d ea 5e b0 bd
       0.006886691 -0.060812373 0.11015121 -0.086118534
000090 59 e6 a4 bd 0e d7 2e bd 82 50 aa bd 68 8d 85 3d
       -0.08051748 -0.04268556 -0.08316137 0.06521112
0000a0 e9 79 e2 bd 22 c6 46 3c 6d 8a 92 bc 35 91 17 be
       -0.11058409 0.0121321995 -0.017888272 -0.14801486
0000b0 4b 40 9a bd f1 3c e6 bc cd e5 90 bb a9 6a 58 3d
       -0.07531794 -0.028105231 -0.0044219256 0.052836094
0000c0 d4 31 fe 3d f9 33 fa bd 1b bd 6f 3d 0f 89 db 3c
       0.12411848 -0.12216944 0.058529954 0.026798753
0000d0 be bf f1 bd fd c0 a7 bc 61 b4 07 be 17 94 45 bd
       -0.1180415 -0.020477766 -0.13252403 -0.048236933
0000e0 9f b6 89 3d 53 7a d9 bd e2 ea d9 bd 59 cd f4 3d
       0.06724285 -0.106190346 -0.106405035 0.119532295
0000f0 43 27 c9 bc 96 02 47 bd 45 98 9f bd b7 7f 08 be
       -0.024554854 -0.04858645 -0.07792715 -0.1332997
000100 35 b4 a9 39 6f c4 b6 bd b2 15 e7 bd cc a2 c1 3d
       0.00032368457 -0.089241855 -0.11283435 0.09454879
000110 78 d5 8a 3d b5 33 7e bc c2 a4 94 3d 6a 79 c2 3d
       0.06778997 -0.015515258 0.072579876 0.09495814
000120 5f ff d0 3d f4 94 a1 bd 13 66 d9 bc ea 4f 20 be
       0.10204958 -0.07889739 -0.02653793 -0.15655485
000130 83 4b 0e be 6c 1b 8c be c2 e6 37 bd 1d 7d 28 bb
       -0.13895993 -0.2736467 -0.044897802 -0.002570934
000140 a9 2d e9 3b 9f ac 53 3b 30 7a 57 bb 19 b0 1d be
       0.007116039 0.0032298935 -0.0032879226 -0.15399207
000150 69 a6 0f be a6 6f 4f bc a1 67 49 3e bb 5c 63 3d
       -0.14028324 -0.012660896 0.19668438 0.055508357
000160 59 50 0b be 92 2a 9d 3d ae db ef bc bf 8a b5 3e
       -0.13604869 0.07674135 -0.029279556 0.35457417
000170 3f f7 ec bc 08 2c c4 3d 15 1d 52 be 8a a3 d5 bd
       -0.02892649 0.09578711 -0.20518906 -0.10431583
000180 e6 e1 04 bd ac f4 7a be 8b e6 d7 3d 06 a3 e3 3d
       -0.032441996 -0.24507397 0.105420195 0.11115079
000190 47 08 1e be 4f d8 15 3e 33 76 5c bd a6 84 d2 3d
       -0.15432845 0.14633296 -0.05382366 0.10279207
0001a0 78 38 a6 3e 89 20 ff 3d ba 5e 00 be 3a 37 89 bd
       0.32464957 0.124573775 -0.12536135 -0.06699987
0001b0 bd 79 04 be 7c 85 81 bd 53 6e 2b 3e c2 42 69 be
       -0.12937064 -0.06324288 0.16741304 -0.22779372
0001c0 3f ad 90 bd a8 c1 9b bd da b0 17 bd a5 6f e7 bc
       -0.07064294 -0.076052964 -0.037033893 -0.028251478
0001d0 02 10 82 bd 04 54 72 bc e1 99 18 be 73 ae 38 3e
       -0.063507095 -0.014790539 -0.1490245 0.18035297
0001e0 23 60 22 3d ad bc 71 bd dd 1f 4c 3e 31 da 09 be
       0.039642464 -0.059017826 0.1993403 -0.1346214
0001f0 13 31 47 3e ca 38 a8 be 65 c7 9f bd 15 cc 1e bd
       0.19452314 -0.32855827 -0.07801703 -0.038768847
000200 3a 78 82 bd b8 ca 2d be bb f1 d6 bc b3 76 9d 3d
       -0.06370588 -0.16971862 -0.026238313 0.07688656
000210 75 4d 7a bd 4c 11 34 bc 24 6b 0a be 7e 9f a2 bd
       -0.061109025 -0.010990452 -0.13517433 -0.07940577
000220 68 b6 b4 3c 46 25 0f bd e8 59 50 bd 57 0e 0a 3e
       0.022059634 -0.034947656 -0.05086699 0.13482033
000230 cf b6 a0 bd 9a 18 0c bd 3c c7 22 be 39 f3 d1 3d
       -0.07847368 -0.03420315 -0.15896314 0.10251469
000240 8a 0c b2 bd da a8 5d bd 7e b8 ba 3d 1c ab ea ba
       -0.08693798 -0.054116108 0.0911722 -0.0017903778
000250 4f bc 31 bc 53 c6 d8 3d 52 0f c4 ba db 7c 0a bd
       -0.010848119 0.10584702 -0.0014958179 -0.033810478
000260 fb 44 38 bd e8 36 a7 bb 5a b3 91 bd 0e 20 9a 3d
       -0.04498766 -0.005102981 -0.07114287 0.07525645
000270 e5 aa ab 3d 54 23 8d 3d ff 1a 83 bd d5 4f a5 3d
       0.08382205 0.06891504 -0.064016335 0.080718674
000280 85 aa e2 3d c5 1c e0 3d 23 84 bb bd 7e ad a4 bd
       0.1106768 0.10942987 -0.091560625 -0.080409035
000290 d9 dc 7d bd 23 3b f3 bc 86 c5 d9 3d 21 f1 b6 bd
       -0.061978195 -0.029691285 0.10633378 -0.089327104
0002a0 84 7e ad 3b 32 17 e8 bb 7b eb 42 bd cc 81 19 be
       0.005294623 -0.007082843 -0.047587853 -0.1499092
0002b0 fd 67 86 bc 7e 82 ee 3c f2 5e 48 3c a9 fa a5 bd
       -0.016407007 0.029114958 0.012229668 -0.0810445
0002c0 61 a9 db 3d e9 88 13 be c7 09 a4 3c 2e cf 85 bc
       0.10725666 -0.14407696 0.020024193 -0.016334143
0002d0 99 73 91 bd a1 f5 10 3d dc 29 95 bd 94 79 10 be
       -0.07102127 0.0353905 -0.07283375 -0.14108878
0002e0 3d 5e a9 3d 93 80 ac bd af 20 fb bd 31 36 dc 3d
       0.08269928 -0.08422961 -0.12262093 0.10752524
0002f0 75 a2 b5 3c 91 c1 4b bd 8f 51 21 3d 11 f0 15 be
       0.022172192 -0.049745146 0.03938442 -0.1464236
000300 5f 4f 80 3d cd 96 30 3d 0b 39 f2 bd 73 0c ea 3d
       0.06265139 0.043112565 -0.11827286 0.11428156
000310 46 8e 05 bd 4e 19 18 be 0d 84 7f bd c8 b3 1c 3e
       -0.032606386 -0.14853403 -0.062381793 0.15302956
000320 a2 f7 37 be 91 ea 19 3d 99 a2 f2 bb bc 25 a3 3d
       -0.17965558 0.037577216 -0.007404637 0.07966182
000330 1a aa 1d 3d e2 98 b2 bd 44 33 11 bd 47 11 48 bd
       0.0384923 -0.08720566 -0.03544928 -0.048844602
000340 9f c2 0b be 13 af 7e 3c 37 89 2b bd 80 ff 54 3c
       -0.13648461 0.015544671 -0.041878905 0.013000369
000350 a6 1c 0d 3d d7 39 de bc 08 16 2d 3d 12 95 1d bd
       0.03445115 -0.02712719 0.04225734 -0.038472243
000360 86 09 a6 bd 11 e0 46 3d a7 8f 80 3e ea 87 95 3e
       -0.08107285 0.04855353 0.25109598 0.29205257
000370 1b 97 b6 3d b8 08 de 3c f3 bd 68 be 32 c8 1a be
       0.0891554 0.027103767 -0.2272871 -0.15115431
000380 84 69 09 3e b4 05 32 be de dd 04 3e 0c 68 4f 3d
       0.13419157 -0.17384988 0.1297526 0.050636336
000390 08 73 b5 3d 6b 97 25 3b 7e 55 f7 bd 51 6a 7b bd
       0.08859831 0.0025267254 -0.12076853 -0.061380688
0003a0 b4 a6 af 3d fa 85 a7 3d 70 74 55 be bd 5f 2f bc
       0.08576718 0.08179851 -0.20845199 -0.010703978
0003b0 24 de df bd 91 b9 b7 3d 03 09 db bc 00 02 de 3b
       -0.10931042 0.08970941 -0.026737696 0.0067751408
0003c0 3b e3 18 bd b5 dc 07 bd 47 12 e3 3c 5c e5 9d 3d
       -0.03732608 -0.033169467 0.027718676 0.077097625
0003d0 9e d6 90 3d b7 2c d6 bc 89 5c ba bd 05 5d 11 bd
       0.07072185 -0.026144369 -0.09099681 -0.0354891
0003e0 1d 2a bf 3d 9e 71 c3 3d 4d f1 3c 3d ba 7b e7 bb
       0.09334204 0.09543155 0.04612856 -0.00706431
0003f0 b6 d0 27 bd e7 49 4d bc ab ab 6b bd 3d 17 e7 3d
       -0.040970527 -0.012529827 -0.057536762 0.11283729

encoder.message_net.2.0.bias f4 [64]
000000 fe 84 92 bd b1 b6 a1 3d 2a 22 ae bd d5 27 da bd
       -0.071542725 0.07896174 -0.0850261 -0.106521286
000010 22 f2 06 bd 00 6a 31 3d bc d0 b8 bc 30 70 cc 3d
       -0.03294576 0.04331398 -0.02256047 0.099823356
000020 af d1 97 bd 0c 5d dd 3c 28 e0 07 3e f5 6a 9b 3c
       -0.07413041 0.027021907 0.13269103 0.0189719
000030 c8 f8 07 bd ba a5 96 bd 45 74 c2 3c d9 90 00 be
       -0.03319624 -0.073558286 0.023737082 -0.12555255
000040 c6 87 a7 3d 81 28 8b 3d 3d 40 39 3d b9 39 38 3d
       0.081801936 0.06794835 0.045227278 0.044976924
000050 d1 0c 94 bd c5 05 74 3d f8 58 ae bd 95 34 df bd
       -0.07229007 0.059575815 -0.08513063 -0.10898701
000060 16 f8 e6 3c d3 ac 0e be 71 28 4b 3d 82 fe eb bc
       0.028194468 -0.13933115 0.049599115 -0.028807882
000070 7f c9 f6 3d 6f a5 3d bd ce 3f 13 be 76 50 09 bd
       0.12050151 -0.046300348 -0.14379808 -0.033524
000080 f6 cd 86 bd d7 7a e9 bd 57 47 c8 bc df 6b e9 bd
       -0.06582253 -0.11400383 -0.02444808 -0.11397528
000090 02 f4 2b bc c4 82 ce bd 66 d7 f8 3c 7e 72 92 bd
       -0.010495188 -0.10083535 0.030376147 -0.07150744
0000a0 74 80 c0 3b 5d 32 d0 3d 7c 9f 7c 3d 76 56 ff bc
       0.005874688 0.10165856 0.061675534 -0.031169157
0000b0 b0 86 f9 bd 59 3e 14 3d 2a 55 cf bd 38 52 55 bd
       -0.12183893 0.03619227 -0.10123666 -0.052080363
0000c0 b6 70 39 bd eb 70 da 3d 34 53 8b 3d 32 97 bd bd
       -0.045273505 0.10666069 0.06802979 -0.09257354
0000d0 3c 23 db 3d 50 4f c3 3c 77 4d ba bc f6 4e f4 bd
       0.1070008 0.02384153 -0.022742016 -0.11929123
0000e0 c1 bd f3 39 4e 01 cb bd 34 83 86 3d 4e e8 98 3c
       0.0004648995 -0.09912358 0.06567994 0.018665459
0000f0 f6 02 48 3d 8a 92 0a 3d 49 c0 40 3d 81 fc 92 3d
       0.04883095 0.033831157 0.047058377 0.071770675

encoder.gru.weight_ih f4 [192, 64]
000000 88 0c 79 3d e0 ad 11 3e 48 57 98 bd fe ca 28 bd
       0.060802966 0.14226484 -0.074385226 -0.041209213
000010 6b 60 e9 bc c7 c7 e3 bd ba 49 eb be ca 4a df 3d
       -0.028488358 -0.11122089 -0.45954686 0.10902937
000020 21 32 e2 bd 92 c8 11 3e c7 43 3f 3d 2b ba 58 3e
       -0.110447176 0.14236668 0.046695497 0.21164767
000030 f9 82 91 bd 06 12 b7 3d 6b d8 27 3e bb c2 bc 3e
       -0.07105059 0.089389846 0.1639115 0.36867318
000040 c5 ea 18 3e ba 59 e3 bc 54 3a 63 be db 06 83 3d
       0.14933307 -0.027752746 -0.22190219 0.06397792
000050 90 19 fd bc 85 2f 09 3e 17 9d 6d 3e 5e 1d 9c 3d
       -0.030895978 0.13397034 0.23204456 0.07622789
000060 4f 8b d1 3d ef 14 a4 3d 64 62 03 3e a5 9b 2f 3e
       0.10231649 0.08011805 0.12830502 0.17149217
000070 53 6c 38 be 39 59 14 3e f0 16 1c bd 78 be 35 3e
       -0.18010072 0.1448716 -0.038107812 0.1774844
000080 54 bd ea bc 70 e5 cf 3d 30 61 61 bd ac 14 a7 bc
       -0.028654732 0.101511836 -0.055024326 -0.0203956
000090 aa 8d b1 bd 93 1c 8a 3d 56 7c 9d 3d 97 f6 68 bd
       -0.086695984 0.06743731 0.07689731 -0.05687579
0000a0 07 f5 52 3c e9 3d b1 3d 90 77 72 bd e4 28 9c bd
       0.012875802 0.086543866 -0.059196055 -0.07624987
0000b0 6e ce 91 3e f9 ec 1d bd 5e 69 ba 3d 96 4f 4f bd
       0.28477806 -0.038556073 0.091021284 -0.05061301
0000c0 56 82 5f 3d 35 2c 1d be 25 ad 8c bd b7 ec e4 bd
       0.054567657 -0.15348895 -0.06868962 -0.11177962
0000d0 c3 cc 58 3c 90 d2 ad 3d 33 e4 25 3e 72 10 5f 3d
       0.013232413 0.08487427 0.16200332 0.054459043
0000e0 74 e8 a2 3e bc cc 2b 3d 5d a5 09 bb 61 fe ae 3e
       0.31817973 0.041943297 -0.0021003105 0.3417845
0000f0 82 1c 8c be 4b e3 6b 3e 77 bf b6 bd 04 15 fe bd
       -0.273655 0.23035924 -0.08923238 -0.12406352
000100 c7 b9 a0 3e 90 d6 5a be 26 8b 08 3e ca 73 ed bd
       0.31391737 -0.21370912 0.13334331 -0.11594351
000110 c6 c8 43 3c c5 50 2d 3e cf a6 22 3e 6c 13 87 3e
       0.011949724 0.16925342 0.15883945 0.26382005
000120 2a b8 04 3e 4a 48 2e 3e 54 a1 1d bd 06 82 7f 3d
       0.12960878 0.17019764 -0.038483933 0.06237986
000130 fb 51 bc 3e da 5d 01 bd 98 c6 61 3e 9d d6 27 be
       0.36781296 -0.031583644 0.22048414 -0.16390462
000140 af de 96 3e 89 49 1a 3e 53 26 96 3e c7 cb 35 3e
       0.2946677 0.15067114 0.29326114 0.17753516
000150 06 eb 82 3d ae b5 d5 bd f2 bd c1 3d be b8 e4 3d
       0.063924834 -0.10435043 0.09460057 0.11168049
000160 d9 65 02 be 42 7a bf 3c 69 df d8 b9 16 e7 c0 3d
       -0.12734164 0.023373727 -0.00041365184 0.09419076
000170 fd a4 05 3e 64 64 69 3e fb b1 51 bc 69 8a 87 3c
       0.1305122 0.22792202 -0.0127987815 0.016545491
000180 18 b3 95 3d dd d6 20 3c 12 b0 7c 3c ad 4b ef 3d
       0.0730955 0.009816852 0.015422838 0.11684356
000190 33 46 65 3e 06 cd 7b 3e 09 62 0e 3d 0b dd f4 bb
       0.2239006 0.24589929 0.034761462 -0.0074726394
0001a0 ff f7 c1 3d 66 0e e7 bd bd 3d 2a bc 63 e1 7b 3e
       0.094711296 -0.11282043 -0.010390696 0.24597697
0001b0 c5 d6 84 3e 3c 23 d7 3e 32 7b 8c 3e 40 d0 2c 3e
       0.25945106 0.4201907 0.2743774 0.16876316
0001c0 7c fa fe 3d eb 30 ac 3d e6 6a 3b 3b 98 79 d0 3c
       0.1245012 0.08407768 0.0028597652 0.025448605
0001d0 3e 48 1a 3e 0f 34 8b 3d 7e e4 96 3d 8f ab e1 bb
       0.1506662 0.06797039 0.073678 -0.0068869065
0001e0 d3 36 56 be 43 ea 80 3e 38 c3 bf 3d 9d 0f c1 bd
       -0.20919351 0.25178728 0.09363407 -0.09426806
0001f0 be ee 23 3c 96 fc 22 be 1c 8c e0 bb e5 5e e6 3c
       0.010005651 -0.15916666 -0.00685264 0.028121421
000200 45 01 86 3e 10 1f 4f 3e 2f 10 38 3e 36 a6 c0 3e
       0.26172844 0.20226693 0.17974924 0.3762681
000210 86 ba a1 3e 9b 89 05 3e 3e 8f 33 bf fe 8e 2c 3e
       0.3158762 0.13040774 -0.70140445 0.16851422
000220 13 ca 1d bd 38 d3 55 3d 0d 62 75 3e 3a 28 7a 3d
       -0.03852279 0.052203387 0.23963185 0.06107352
000230 5c e5 81 bd 3b be c7 3e 9f 77 56 3d 83 c6 9e 3e
       -0.06342575 0.39012322 0.052360173 0.31010827
000240 ef fd af 3e b6 d4 d7 bc 6f 1e d6 bd cb ad 38 3e
       0.34373423 -0.026346546 -0.104550235 0.18035047
000250 7d 6c b6 3e 71 8b 25 3e 33 bc 3e 3e 25 24 74 3e
       0.35629645 0.16166474 0.1862648 0.23841913
000260 78 bd db 3e e0 2f 10 3d eb 38 fa 3d da 3e cf 3e
       0.4291799 0.035201907 0.122178875 0.4047764
000270 c8 a9 66 be 84 4c a9 bd b5 1f 7d 3d 16 1b 8f 3e
       -0.22525704 -0.08266547 0.061797816 0.27950352
000280 fb 84 53 be d3 b6 00 3f 8e 12 33 3e 0d 28 6a 3e
       -0.20656197 0.5027897 0.17487547 0.2286684
000290 9d ef 67 be c3 06 94 be 3c 21 04 3e 31 72 0e 3f
       -0.22649999 -0.2891141 0.12903303 0.5564299
0002a0 d0 83 a4 bd 76 2f 4e 3e 3c 5c 8f 3e 17 4c 1a 3e
       -0.08032954 0.20135292 0.28000057 0.15068088
0002b0 8d d8 6b 3d ac 19 12 3d 92 0a 3b 3e 19 b8 b6 bc
       0.057579566 0.035669014 0.18265751 -0.022304581
0002c0 fd b4 f9 3e ff ae 26 3d 6d c7 00 3e e4 01 ad 3e
       0.48770896 0.040694233 0.12576075 0.33790505
0002d0 6c fe 59 3e ba 35 69 3e ad 3f 24 3e d1 db a9 3e
       0.2128846 0.22774401 0.16039915 0.3317552
0002e0 c7 ee c4 3e 21 38 8d bb 27 1a 19 3d 44 5b ca 3c
       0.38463423 -0.0043096696 0.037378456 0.024701722
0002f0 16 b3 06 be be e9 95 bd 8c 54 ec bd 40 10 fa bd
       -0.13154253 -0.073199734 -0.115395635 -0.12210131
000300 e4 e8 4c 3c 19 03 5e bd 6c e8 0f bc e1 98 8e bd
       0.012506697 -0.054202173 -0.008783441 -0.06962753
000310 bd 9f 73 3e d0 ce 25 bd 74 9c 64 be a9 ce e0 3d
       0.23791404 -0.040480435 -0.22325307 0.10976917
000320 40 89 63 be d5 0b de 3d c8 18 b1 3e a9 5d 68 3c
       -0.22220325 0.108421005 0.3458922 0.014182487
000330 33 a3 41 3c 97 1c 8d be 32 a8 5a 3e 80 2f 1c bd
       0.011818695 -0.27560875 0.21353224 -0.038131237
000340 52 8f 73 3e b9 94 0c bd bd 5c 24 bd f9 0f d3 3d
       0.23785141 -0.03432152 -0.040127505 0.10305781
000350 d5 00 02 be c5 27 fc be 8b ae 3f 3e b6 8b 1f be
       -0.1269563 -0.49249092 0.18718927 -0.15580639
000360 94 4f 75 be ad cb 1b 3d fb 03 ba 3c d8 b5 e2 bd
       -0.23956138 0.038036037 0.022706976 -0.1106984
000370 46 22 3d be da 28 03 bd 25 06 56 bd 6c 7f ec be
       -0.18470106 -0.03202138 -0.052251954 -0.46190965
000380 73 83 50 be ba 7c 90 be 7b 87 6c bd e3 7b 93 bd
       -0.20362644 -0.2822016 -0.05774639 -0.07201364
000390 a3 92 2a 3e d4 78 7d 3d 8d ec a2 be 2f 6f 8d be
       0.166575 0.06188281 -0.318211 -0.2762389
0003a0 da fb 22 be 73 cd 02 be 72 2f 7b bd 24 db 0d 3d
       -0.15916386 -0.12773685 -0.061324544 0.034632817
0003b0 14 ec 40 3d d6 52 08 3d 94 97 16 3d 8c 6a b6 3d
       0.04710014 0.033282124 0.03676565 0.08907041
0003c0 67 0e 65 bd b7 b1 dc bd b0 dc a4 bd 8f db 10 be
       -0.05592194 -0.10776084 -0.08049905 -0.14146255
0003d0 b7 de 42 3c a8 ab 4e be a3 3e 04 3e 98 ad a6 be
       0.01189392 -0.20182669 0.12914519 -0.32554317
0003e0 13 a2 51 be d7 99 8d bc 48 f3 d0 bd 21 fe a9 3d
       -0.20471983 -0.01728527 -0.10202652 0.08300424
0003f0 50 8f af 3d cb c6 6d be 61 b8 df bc a8 41 0c bd
       0.085722566 -0.23220365 -0.027309598 -0.034242302

encoder.gru.weight_hh f4 [192, 64]
000000 96 7c dd bd 9f 22 89 bc ad 29 72 be b1 ca f2 3c
       -0.108147785 -0.016740141 -0.2364871 0.029637666
000010 d8 75 56 3e 3c f4 cb bd ed 1f 3b 3e ca 37 b8 3e
       0.20943391 -0.099586934 0.18273897 0.35980064
000020 1b 75 af 3c 31 c7 29 bd 5e 2a 7d bd d3 f8 72 be
       0.021418145 -0.04144973 -0.061807983 -0.23727731
000030 b9 1a 6a 3d c0 b5 67 3e 20 66 7b 3d 57 3e bb bd
       0.05715439 0.22627926 0.06137669 -0.0914275
000040 54 83 7c be c3 2d e1 3d 36 fc 33 bd cc 24 63 3e
       -0.24659473 0.109950565 -0.0439417 0.22182006
000050 51 2a cb 3b 5c 38 6a 3d 36 11 40 3b ff a3 df bc
       0.006200113 0.057182655 0.0029307134 -0.02729988
000060 0b 94 c0 3c 5f e3 9a 3e 8e 75 85 3e 8a 3a 4e 3d
       0.023508092 0.30251595 0.2606625 0.050348796
000070 ff 8e 5f 3e 7e bd 60 3d ad 80 ba be f9 fd 2b be
       0.21831892 0.054868214 -0.36426297 -0.16796102
000080 17 62 91 3a 21 cd 4d bd e3 b8 8a 3d 79 91 6c 3e
       0.0011091855 -0.050244454 0.067735456 0.23102368
000090 85 0c 04 be 86 cd 67 3e b0 50 32 be 48 60 b3 bd
       -0.12895401 0.22636995 -0.17413592 -0.087585986
0000a0 63 32 64 bc ee 13 61 3c a8 7a 72 bd 6c 6c db 3d
       -0.013928029 0.013737662 -0.059199005 0.10714039
0000b0 5d d1 55 3c 82 2b da bb 22 1a 03 3e 60 e6 19 be
       0.013050404 -0.0066580186 0.12802938 -0.15029287
0000c0 54 31 c4 bd ac c7 b8 bd aa 6c 88 3e d9 d5 04 be
       -0.09579721 -0.090224594 0.26645404 -0.12972201
0000d0 7e 30 22 be 31 4e 3c bd 49 97 27 be 3e 3e 23 be
       -0.15838811 -0.045973007 -0.16366304 -0.15941712
0000e0 db 83 89 bd c3 4a 05 be 35 3b 31 be 85 4d 8e bd
       -0.067146026 -0.130168 -0.17307742 -0.069483794
0000f0 3d f6 64 be 9c e5 5d 3e 95 80 ac bd 9c da 03 3d
       -0.22359557 0.2166962 -0.084229626 0.032190904
000100 a8 9f e2 bd b8 b7 22 3e 2a 41 c2 bd b9 c7 dc 3d
       -0.11065608 0.15890396 -0.09485085 0.107802816
000110 a2 01 f2 bc 8a e3 4e be fc a8 7d 3c 97 27 43 3d
       -0.029541794 -0.20203987 0.015482184 0.047645178
000120 11 5d 49 3d dd 66 8b bb fb 64 ae bd 81 ae 17 be
       0.04916102 -0.0042542056 -0.08515354 -0.14812662
000130 02 fe f3 3d e8 aa ce 3e 6f e2 7a 3e b2 b4 3e be
       0.119136825 0.40364766 0.2450044 -0.18623617
000140 d4 b7 04 bd 32 65 d4 3d 44 a4 92 3e e7 27 f1 3e
       -0.032401875 0.10370864 0.2864095 0.47100756
000150 7e 63 36 be 6a 70 c7 3d 3c 28 14 be d5 83 97 3c
       -0.17811391 0.09738238 -0.14468473 0.01849548
000160 48 24 13 bd 66 6c 25 3e 05 ad b2 3d ab 92 74 be
       -0.035923272 0.16154632 0.08724407 -0.23884074
000170 e2 90 25 bd 7e 53 e7 bd 41 e3 8b be ce 8f 36 3d
       -0.040421374 -0.11295222 -0.27321818 0.044570737
000180 9e c2 84 be 96 17 b1 bd ba 6d fd 3b 33 1b 58 3e
       -0.2592973 -0.08647077 0.0077340277 0.21104126
000190 9f c9 09 be 2f 57 59 3c 70 9c 27 3d 1b d2 8d bd
       -0.13455819 0.013265415 0.040920675 -0.0692484
0001a0 b2 49 80 3c 6e 50 18 3e 5e 68 1c 3e dc e9 3d be
       0.01566014 0.14874431 0.15274188 -0.18546242
0001b0 61 6b 5a 3e 33 31 b2 3d 4c 30 56 3d 3b 0f 2c be
       0.21330024 0.0870079 0.052292153 -0.16802685
0001c0 a4 f0 3f 3d c6 26 37 be e4 16 e4 3c 28 b4 9a 3c
       0.046860352 -0.17885885 0.027842946 0.018884733
0001d0 56 45 d8 3d 34 46 82 bd 47 fd 51 3c 82 b4 73 bd
       0.105601 -0.063610464 0.012816734 -0.059498318
0001e0 e7 8a 2c bd 25 fd de 3c 70 a7 26 3e b4 ea 40 3b
       -0.042124655 0.027220318 0.1627481 0.002943677
0001f0 b5 37 cf bb 6f f5 14 3b 3f b2 58 be cd 12 ee 3d
       -0.0063237795 0.0022729298 -0.21161745 0.1162468
000200 a4 14 cf 3c f7 59 9f bd b6 08 5a be 48 4f 06 3e
       0.025278397 -0.07780831 -0.21292385 0.13116181
000210 16 48 fe bd 6c e2 8d bd e1 c2 ab 3b ae 74 b6 3d
       -0.12416093 -0.06927952 0.0052417372 0.08908974
000220 37 34 0c bd b5 2c bc bd 54 c9 6d bd bc 43 cf 3c
       -0.034229483 -0.09188215 -0.05805333 0.025300853
000230 6f 8b e1 3c 44 1e 13 be c9 e8 47 bd 0a 37 25 3e
       0.027532307 -0.14367014 -0.048805986 0.16134277
000240 4c 91 3b bd fa 2c 7f bc 43 3a d4 bc 03 99 66 3e
       -0.045792863 -0.015574688 -0.025906688 0.22519307
000250 97 bf 7e 3e 05 34 b1 3c ae b3 a9 3d b8 a1 24 3d
       0.24877773 0.02163125 0.08286224 0.04019329
000260 d7 8e 72 bd 4a d2 0e bd 90 c8 ad 3e 84 53 9c 3e
       -0.059218254 -0.034868516 0.3394208 0.30532467
000270 4f 54 03 bc 1d f5 b3 3d ff 26 04 bf f8 58 05 be
       -0.008015706 0.08786986 -0.51622003 -0.1302222
000280 d0 c2 7e be fb ec 4c 3d df 55 bb 3d 80 cf 96 bc
       -0.24879003 0.05003069 0.09147238 -0.01840949
000290 10 c0 7e 3d f4 4b 39 bb 5c 8b 3a 3a 40 ab bb 3d
       0.062194884 -0.0028274031 0.0007116103 0.09163523
0002a0 02 12 29 3e 58 c8 e7 3d 0a 5f f5 bd 54 8c 04 bd
       0.16510776 0.113175094 -0.11981018 -0.03236039
0002b0 dc e0 2f 3e 05 a7 ca bb ed 4b 14 bd d8 e8 17 bd
       0.17175621 -0.006184461 -0.03620522 -0.03708729
0002c0 c3 af 64 3d 80 e5 2c 3e b8 b0 54 be cf e7 ea 3c
       0.055831682 0.16884422 -0.20770538 0.028674988
0002d0 ce 68 e3 bd 5f b8 5a 3d 23 ff 8e be 97 ab 54 bd
       -0.11103974 0.053398486 -0.2792903 -0.051921453
0002e0 3e d9 0d be e7 93 4a bd 66 d7 9e bd cf 85 53 3c
       -0.13852403 -0.049457457 -0.07755928 0.01291032
0002f0 4f 71 4e 3e 2d 2f 8b 3e 91 fa 5e be 8b d0 24 be
       0.20160411 0.2718443 -0.21775271 -0.16095178
000300 c4 1c c8 3d 17 a3 8e bb 49 15 4c be 5d 41 83 3e
       0.097711116 -0.004352938 -0.19929995 0.25635806
000310 3b 99 7e be e2 50 4c be e0 d9 25 bd a0 0d 03 3e
       -0.2486314 -0.1995273 -0.040490985 0.12798166
000320 ec 73 17 be ef 7e 4d be dd 78 ba bc 4a 13 15 3e
       -0.14790314 -0.20067953 -0.02276271 0.1455814
000330 21 da 0e 3e 63 ed 44 3c 31 87 fc 3d e7 87 d0 bd
       0.13950397 0.012019488 0.12330473 -0.10182171
000340 df 5c 8d 3d 23 24 15 3e 0a ae 68 bd 4a 6b 2b 3e
       0.069024794 0.14564566 -0.0568066 0.16740146
000350 eb 22 32 3d bb 68 04 3d 82 0f fe 3d 02 cf a4 bd
       0.04349033 0.03232644 0.12405302 -0.08047296
000360 a6 11 3b bc 60 65 25 3e 27 14 04 3e 21 aa 83 3e
       -0.011417782 0.16151953 0.12898313 0.25715736
000370 a6 02 81 bd 36 fa 1f 3e 20 f6 1b be 6a 6f d3 bd
       -0.06299333 0.15622792 -0.15230608 -0.10323985
000380 c0 28 d5 bb 79 1e 4b bd 18 44 78 bd 4b c5 de 3c
       -0.006505102 -0.049589608 -0.060611814 0.027193686
000390 bd 10 35 3d 5a 50 b7 3c 94 85 17 bb 92 83 34 be
       0.044205416 0.022377182 -0.002312039 -0.17628315
0003a0 e0 71 1f 3e 8f 07 56 3e 12 a2 fe bd 3b 2b 19 3d
       0.15570784 0.20901321 -0.12433256 0.037394743
0003b0 f3 e0 98 3d ad bd 77 bd 9a 29 72 3e 94 6b 74 3d
       0.07464781 -0.060483623 0.23648682 0.059672907
0003c0 bd e7 60 3d 00 0d 65 3d f8 73 81 be f3 21 39 be
       0.054908503 0.0559206 -0.2528379 -0.18079357
0003d0 b7 2c e3 3d 45 52 a1 3d 92 99 a6 bd 3c 9f a4 bd
       0.11092513 0.0787702 -0.0813476 -0.08038184
0003e0 60 dc 3b be c3 70 64 3d 43 92 0c bd ef 02 3d 3d
       -0.18345785 0.0557716 -0.034319174 0.046145376
0003f0 a5 2d 37 3e 8e 46 22 3d 2f 43 1c be ca 5d 50 bc
       0.17888506 0.039618067 -0.15260004 -0.012717674
