experiments/gnn_hd64_ld32_nr3_ep500_b2.0_nf3.0/model.pt (torch, 178671 bytes, 18 tensors)

encoder.input_net.0.weight f4 [64, 7]
-0.09602935 -0.19533111 -0.27747005 -0.25692493 0.032986324 0.907241 -0.12894773 0.13202302
-0.28295377 -0.25640124 -0.20225517 -0.067717955 0.18735288 -0.11543725 -0.1866933 -0.14913921
-0.13998005 -0.36146381 0.17736909 0.14207329 -0.036030047 0.25896004 -0.31604457 -0.40219277
-0.37760663 -0.020844338 -0.24176985 -0.1713613 -0.32000268 -0.28007138 -0.20867212 -0.32030195
0.45641777 -0.2142702 1.0434055 -0.10417582 0.5365034 0.26913297 -0.22723466 0.65741813
-0.048828326 -0.027625814 0.12610817 -0.26053092 0.19933799 0.040541112 0.19023216 0.0053711
-0.25659174 -0.22675513 -0.008974519 0.17439178 0.0002041527 -0.07765561 0.14869368 -0.1108528
-0.28075892 0.5118085 0.42395717 0.062153433 -0.18647146 0.16705537 -0.28520602 -0.18434238
-0.15857588 -0.14959578 0.597247 0.18822157 -0.34440318 -0.1284862 0.03529049 0.032883346
0.27360156 0.588045 0.04021403 0.45880815 -0.19043316 -0.21475106 -0.17117211 -0.20765948
0.7285859 0.32302016 -0.30364963 -0.20146735 0.435258 -0.34580603 0.053322945 -0.11992852
0.077374816 -0.18426333 -0.05881409 0.16058028 -0.12935057 -0.14305933 -0.30092996 -0.2594448
0.17795601 -0.15277602 0.13842878 0.018502733 -0.31802052 0.3371179 -0.24202688 0.033447694
0.47948343 -0.048242487 -0.0727897 0.051893085 -0.081851 0.19499548 0.29656184 -0.19274628
-0.10298027 -0.1303772 0.30619374 -0.14481884 0.60143125 -0.32702982 -0.15733811 0.0935143
-0.11289171 0.5260375 0.026457261 -0.36382446 -0.07019627 0.079817 0.34944004 -0.3078899
0.096028835 -0.10718402 0.3087222 -0.060941234 0.0772863 0.3420327 -0.31468615 -0.24253084
-0.21947052 -0.23862103 -0.08780652 -0.112974025 0.23824643 -0.2417131 -0.3645571 0.07236896
0.16136886 -0.25740615 -0.33773074 0.41394567 -0.16961336 -0.1785654 -0.22417007 -0.1700073
0.13198853 -0.34722283 -0.28799596 0.24719302 0.45559636 0.46185192 -0.37231097 -0.31341168
-0.31113103 -0.09967568 -0.37139514 0.378776 0.0650982 0.7666173 0.06583936 -0.22866482
-0.36516678 0.40864417 0.30162647 0.543031 0.23179133 -0.17149547 0.17954494 0.35549325
-0.070274845 0.044019938 0.023342751 0.09893886 0.053687386 0.8629418 0.06879474 -0.017350603
0.34338757 -0.33177567 -0.20488389 -0.023067128 -0.14790544 0.1451466 0.6212533 -0.14509828
-0.16022004 -0.15729563 -0.23793522 0.1641776 -0.37323102 0.49654213 0.4877851 0.019598708
0.09073346 0.043114923 -0.17606735 -0.3369915 -0.17462589 0.08967951 0.28587997 -0.36963993
-0.38039422 -0.30693373 -0.08056278 -0.21946041 -0.1484373 -0.20740941 -0.087742 0.12748383
-0.20827436 -0.31064805 0.49115497 -0.13999715 -0.080284536 0.2614143 -0.2681303 -0.32277003
0.14444068 0.052435976 -0.030065643 -0.18378073 0.10465527 0.037890263 -0.25888598 -0.12952195
0.53635263 -0.34384254 0.09469398 0.30972522 -0.16404217 -0.14288758 -0.26546103 -0.06578873
0.2836849 -0.22956957 0.55113614 0.12106908 0.028059343 0.124675795 0.13787684 0.06014047
-0.28093308 -0.10988835 -0.28210393 -0.27218205 -0.31210858 0.013972373 -0.35969034 0.34425995
00000000: 09ab c4bd e104 48be 8e10 8ebe aa8b 83be
00000010: ab1c 073d f240 683f e00a 04be 0b31 073e
00000020: 51df 90be 0647 83be fb1b 4fbe b6af 8abd
00000030: 6fd9 3f3e 5d6a ecbd 872c 3fbe f3b7 18be
00000040: ee56 0fbe c911 b9be 3ea0 353e a97b 113e
00000050: 3e94 13bd 6996 843e 98d0 a1be 36ec cdbe
00000060: a855 c1be bfc1 aabc 8492 77be 5679 2fbe
00000070: 64d7 a3be 8465 8fbe 25ae 55be 9efe a3be
00000080: 97af e93e a669 5bbe 508e 853f 225a d5bd
00000090: 4958 093f cccb 893e 34b0 68be 8e4c 283f
000000a0: 3600 48bd 884f e2bc 8022 013e 4f64 85be
000000b0: 421f 4c3e 700e 263d 38cc 423e 0d00 b03b
000000c0: fe5f 83be 7f32 68be dc09 13bc c293 323e
000000d0: d311 5639 e809 9fbd 2843 183e cb06 e3bd
000000e0: a2bf 8fbe e205 033f ea10 d93e 9994 7e3d
000000f0: 60f2 3ebe 9010 2b3e 8606 92be 40c4 3cbe
00000100: b761 22be a32f 19be 2ee5 183f 28bd 403e
00000110: 9d55 b0be e391 03be c38c 103d b0b0 063d
00000120: 8115 8c3e 1e8a 163f 77b7 243d e7e8 ea3e
00000130: e900 43be b4e7 5bbe be47 2fbe b0a4 54be
00000140: 9b84 3a3f e662 a53e f777 9bbe 754d 4ebe
00000150: 23da de3e 7d0d b1be 2969 5a3d 159d f5bd
00000160: b076 9e3d 87af 3cbe 0be7 70bd 286f 243e
00000170: 7a74 04be 257e 12be 7e13 9abe f3d5 84be
00000180: 1a3a 363e 5171 1cbe 46c0 0d3e 0b93 973c
00000190: 96d3 a2be b89a ac3e e5d5 77be 7300 093d
000001a0: da7e f53e ea99 45bd c412 95bd d88d 543d
000001b0: 7fa1 a7bd e5ac 473e f4d6 973e 485f 45be
000001c0: 52e7 d2bd 9a81 05be 6dc5 9c3e 644b 14be
000001d0: 66f7 193f 7470 a7be 3e1d 21be 6d84 bf3d
000001e0: c533 e7bd 65aa 063f e6bc d83c 3347 babe
000001f0: 10c3 8fbd 1877 a33d cee9 b23e bfa3 9dbe
00000200: c4aa c43d 4c83 dbbd d610 9e3e 849d 79bd
00000210: 4848 9e3d e91e af3e 8b1e a1be 015a 78be
00000220: e1bc 60be 1259 74be e8d3 b3bd ed5e e7bd
00000230: dff6 733e a483 77be 3aa7 babe 2d36 943d
00000240: e13d 253e bdca 83be 0beb acbe b0f0 d33e
00000250: 20af 2dbe d9d9 36be d78c 65be 6516 2ebe
00000260: 0028 073e 31c7 b1be 3574 93be 2b20 7d3e
00000270: ed43 e93e db77 ec3e 8b9f bebe 7f77 a0be
00000280: 914c 9fbe c322 ccbd 8127 bebe eeee c13e
00000290: 3552 853d 0841 443f c9d6 863d 1c27 6abe
000002a0: 24f7 babe cf39 d13e c96e 9a3e 1404 0b3f
000002b0: b55a 6d3e 829c 2fbe a1da 373e 3603 b63e
000002c0: 42ec 8fbd 404e 343d 4c39 bf3c 75a0 ca3d
000002d0: 4ee7 5b3d c1e9 5c3f 42e4 8c3d da22 8ebc
000002e0: 7fd0 af3e 80de a9be 15cd 51be 46f7 bcbc
000002f0: 8674 17be 4fa1 143e 750a 1f3f a594 14be
00000300: b910 24be 1b12 21be 4aa5 73be 2c1e 283e
00000310: 2318 bfbe c53a fe3e f8be f93e 788d a03c
00000320: 77d2 b93d 4699 303d 004b 34be 268a acbe
00000330: 21d1 32be e4a9 b73d dc5e 923e 7241 bdbe
00000340: 08c3 c2be 6b26 9dbe 19fe a4bd 3bba 60be
00000350: f3ff 17be 2263 54be 14b2 b3bd 1f8b 023e
00000360: e045 55be 430d 9fbe aa78 fb3e 6a5b 0fbe
00000370: 386c a4bd 18d8 853e 6048 89be 1d42 a5be
00000380: 42e8 133e 1bc7 563d 394c f6bc 0431 3cbe
00000390: 8155 d63d d232 1b3d b48c 84be 67a1 04be
000003a0: 684e 093f 210c b0be ebee c13d 4e94 9e3e
000003b0: acfa 27be 1f51 12be 82ea 87be 3ebc 86bd
000003c0: 263f 913e 4914 6bbe 4217 0d3f 11f3 f73d
000003d0: b5dc e53c 0656 ff3d 962f 0d3e da55 763d
000003e0: 76d6 8fbe 250d e1bd ed6f 90be 725b 8bbe
000003f0: b2cc 9fbe 61ec 643c 5529 b8be d742 b03e

encoder.input_net.0.bias f4 [64]
-0.036034323 -0.046079323 -0.20997757 0.35842147 0.26934603 0.01659138 0.12183218 -0.18383007
0.20995104 0.1254675 -0.15730073 0.10737097 -0.09075552 0.09001916 -0.1313443 -0.3581843
0.05291267 -0.07275559 0.009448415 0.08419681 -0.31541863 -0.19554318 0.22832619 -0.112693064
0.25387323 -0.15370926 -0.013414253 -0.15423259 0.17641851 0.21892585 -0.30710077 0.19965345
-0.19169673 -0.00027401804 0.16603135 -0.1412122 0.2981285 0.06956037 0.13748601 0.16156456
0.22928864 -0.022718893 -0.07448064 -0.09271327 0.14161377 -0.04775992 -0.02279875 0.21240266
-0.2578544 -0.33051005 -0.3327391 -0.13766898 -0.2625818 -0.3763853 0.36066294 -0.052075755
0.24805218 -0.08101069 -0.22098036 0.3203802 -0.3437283 0.21228124 -0.13563631 0.4470022
00000000: ba98 13bd acbd 3cbd 5c04 57be 0583 b73e
00000010: b9e7 893e a5ea 873c 2683 f93d f33d 3cbe
00000020: 68fd 563e 8d7a 003e 7113 21be 50e5 db3d
00000030: 08de b9bd f75b b83d 1f7f 06be ef63 b7be
00000040: f5ba 583d e200 95bd 86cd 1a3c 616f ac3d
00000050: 8d7e a1be 793c 48be 57ce 693e 9fcb e6bd
00000060: acfb 813e f665 1dbe 74c7 5bbc 26ef 1dbe
00000070: 0ea7 343e 192e 603e 503c 9dbe f471 4c3e
00000080: 264c 44be 14aa 8fb9 1f04 2a3e ee99 10be
00000090: 4ca4 983e ab75 8e3d 22c9 0c3e 2e71 253e
000000a0: a4ca 6a3e f91c babc 4e89 98bd 74e0 bdbd
000000b0: 3303 113e e89f 43bd 72c4 babc 1580 593e
000000c0: 7e05 84be 9d38 a9be c85c aabe 19f9 0cbe
000000d0: 1f71 86be 93b5 c0be d0a8 b83e 634d 55bd
000000e0: 6401 7e3e efe8 a5bd ad48 62be e008 a43e
000000f0: 28fd afbe 4160 593e 3fe4 0abe 79dd e43e

encoder.message_net.0.0.weight f4 [64, 64]
-0.19304526 -0.057998855 0.05880794 0.022737253 -0.23564242 0.06276781 -0.1945472 -0.06709434
0.138555 -0.2385971 -0.26595265 -0.2569541 0.0021875075 -0.06056473 0.007281031 0.058388308
-0.05979557 -0.07071663 -0.12062489 -0.06616068 -0.05428016 -0.18301252 0.065030925 -0.18153034
0.16914298 0.007187868 -0.06418644 0.3126458 0.07403741 0.042048227 0.11928329 0.13368832
0.078193635 0.15831079 -0.08243883 0.009932096 0.07560476 -0.21236561 -0.07851981 0.09976684
0.08664512 -0.039351705 0.12933528 -0.103082925 0.09953246 0.25653273 -0.06472529 -0.04852322
0.0793671 -0.018762335 0.026233405 -0.13870549 -0.124655664 0.10578865 0.21300882 -0.1663448
-0.33490375 0.23009098 -0.2610737 0.31257987 0.08080545 0.2023831 -0.07449597 -0.058969524
0.11425375 -0.14688157 -0.10350318 -0.07346916 0.17126471 0.20567028 -0.2547686 0.0013612211
0.036610752 0.038224515 -0.068652265 0.0060688443 0.030042067 -0.028472176 -0.17576222 -0.03657864
0.1750899 -0.09051924 -0.083793506 -0.06930948 -0.002907306 -0.026380884 0.041288614 0.17795879
0.17949791 -0.07958656 -0.06489462 0.16278748 0.14175133 0.004711245 0.12191464 0.0985508
0.04241824 0.009599183 0.011653754 0.077899106 -0.018994387 -0.19020198 0.011076236 0.16001615
0.004736143 -0.21133661 0.11956825 -0.16144624 0.06772675 0.10214163 -0.20492983 -0.00905395
0.02705568 0.03682621 -0.05155298 -0.17641576 -0.045858905 0.042025372 0.09598082 -0.17840873
-0.07814676 -0.0048521636 0.035357438 0.028947217 0.09006657 -0.025084296 -0.2506826 -0.051424228
0.42665738 0.0020122784 -0.08277109 0.12197954 -0.23077792 -0.33023754 0.19022036 -0.058437616
0.15429243 0.056357834 0.21569428 0.30175057 0.19104797 0.04335968 0.14577363 -0.017789513
-0.25617614 -0.040910617 0.032266516 0.05909206 -0.030860081 0.06501482 -0.057235688 -0.15479079
-0.06944926 0.0068782656 -0.07676789 -0.24222934 0.07828382 0.0061050016 0.05848013 -0.058076896
-0.12009591 -0.19141346 0.11079426 0.14415072 -0.022975568 0.07432477 -0.032196376 -0.12674628
0.11492878 0.011671674 -0.100664556 0.047078475 -0.07561949 -0.2976755 0.16251317 0.4058248
0.08599807 0.06536638 0.0055732727 0.32248372 -0.06562485 0.0399708 0.2636407 0.102884084
0.2587181 -0.24911107 0.0010393426 -0.19817223 0.1235393 0.028641297 0.4964478 -0.16389504
0.012729377 -0.059185382 0.015582696 -0.1081561 0.018079812 -0.17634615 -0.07480956 -0.06927335
-0.09287755 0.029797373 -0.04022629 -0.037113156 0.010317672 0.0043631024 0.039820164 -0.12454514
0.09018016 -0.08524743 -0.076579936 -0.018991064 -0.10591161 0.016549595 -0.039258473 0.045344323
-0.049695536 -0.059574727 -0.012807041 -0.12688756 0.0063191922 0.069340594 0.06359111 -0.18767856
-0.06950013 -0.027334249 -0.16746765 0.08602654 0.012807105 0.115985446 -0.003063553 0.008159458
-0.113906 0.0919151 0.107432686 -0.11395571 -0.10748281 0.008233681 0.080077015 -0.01646438
-0.014319211 0.060711063 0.09098779 -0.034233212 -0.021688625 0.085542366 -0.055461444 -0.12904008
0.100413606 -0.12934765 0.039492454 -0.015980927 0.11414471 -0.16171736 0.0829031 0.033695064
00000000: a8ad 45be 3590 6dbd 98e0 703d 7a43 ba3c
00000010: 3f4c 71be 698c 803d 6237 47be c268 89bd
00000020: 5de1 0d3e cc52 74be f22a 88be 7d8f 83be
00000030: 495c 0f3b b912 78bd b795 ee3b 9428 6f3d
00000040: 33ec 74bd e1d3 90bd 2f0a f7bd 407f 87bd
00000050: e054 5ebd a267 3bbe ef2e 853d 17e3 39be
00000060: d133 2d3e 3588 eb3b 2e74 83bd 1c13 a03e
00000070: eda0 973d c33a 2c3d cc4a f43d 97e5 083e
00000080: fc23 a03d 391c 223e b0d5 a8bd 3bba 223c
00000090: abd6 9a3d 5f76 59be ffce a0bd 8f52 cc3d
000000a0: ff72 b13d 412f 21bd 7870 043e 241d d3bd
000000b0: add7 cb3d 4258 833e b18e 84bd 49c0 46bd
000000c0: 388b a23d 78b3 99bc 70e7 d63c d008 0ebe
000000d0: 784b ffbd b8a7 d83d fc1e 5a3e 4b56 2abe
000000e0: 8178 abbe f89c 6b3e 74ab 85be 780a a03e
000000f0: 547d a53d 843d 4f3e 5891 98bd 078a 71bd
00000100: dffd e93d 1f68 16be 7af9 d3bd 0077 96bd
00000110: 0460 2f3e 3b9b 523e 0871 82be 006b b23a
00000120: 28f5 153d 4f91 1c3d 8f99 8cbd 28dd c63b
00000130: c81a f63c 7b3e e9bc 03fb 33be 7cd3 15bd
00000140: c44a 333e 2762 b9bd ee9b abbd 21f2 8dbd
00000150: 8088 3ebb b91c d8bc 401e 293d d43a 363e
00000160: 4dce 373e 47fe a2bd 78e7 84bd c3b1 263e
00000170: 4327 113e ca60 9a3b 62ae f93d 00d5 c93d
00000180: c0be 2d3d e445 1d3c 63ef 3e3c 9189 9f3d
00000190: 1e9a 9bbc 4fc4 42be 1a79 353c 46db 233e
000001a0: a631 9b3b a068 58be 33e0 f43d 2a52 25be
000001b0: 53b4 8a3d a22f d13d 20d9 51be 0557 14bc
000001c0: e0a3 dd3c 14d7 163d 3829 53bd 55a6 34be
000001d0: 8cd6 3bbd cc22 2c3d 9891 c43d c7b0 36be
000001e0: 690b a0bd e6fe 9ebb f6d2 103d b722 ed3c
000001f0: d274 b83d 957d cdbc 7859 80be 36a2 52bd
00000200: d672 da3e 6ee0 033b e483 a9bd 69d0 f93d
00000210: 0c51 6cbe e514 a9be 20c9 423e 485c 6fbd
00000220: d6fe 1d3e 79d7 663d f6de 5c3e 0d7f 9a3e
00000230: 14a2 433e eb99 313d af45 153e 50bb 91bc
00000240: 8529 83be e491 27bd e529 043d 840a 723d
00000250: 48ce fcbc 7d26 853d f86f 6abd 7a81 1ebe
00000260: 6a3b 8ebd 1363 e13b 7c38 9dbd f80a 78be
00000270: 4453 a03d 770c c83b dc88 6f3d 0ae2 6dbd
00000280: d8f4 f5bd e401 44be 1ae8 e23d 3f9c 133e
00000290: 4237 bcbc 9637 983d 59e0 03bd c7c9 01be
000002a0: c85f eb3d 8d3a 3f3c 3829 cebd 5cd5 403d
000002b0: 64de 9abd ec68 98be da69 263e 45c8 cf3e
000002c0: c21f b03d cfde 853d 00a0 b63b 961c a53e
000002d0: 5266 86bd 6cb8 233d eafb 863e e4b4 d23d
000002e0: b376 843e f916 7fbe 8d3a 883a a9ed 4abe
000002f0: 2c02 fd3d 27a1 ea3c 682e fe3e 1ad4 27be
00000300: e08e 503c 5f6c 72bd 904e 7f3c f280 ddbd
00000310: 1d1c 943c 1694 34be c135 99bd 30df 8dbd
00000320: 9636 bebd 9f19 f43c 52c4 24bd f703 18bd
00000330: 740b 293c 5bf8 8e3b 781a 233d 8611 ffbd
00000340: 60b0 b83d 3496 aebd f1d5 9cbd 2693 9bbc
00000350: 30e8 d8bd 0493 873c 7ecd 20bd f8ba 393d
00000360: 8c8d 4bbd a104 74bd a0d4 51bc d0ee 01be
00000370: 3a11 cf3b 7102 8e3d 0e3c 823d cf2e 40be
00000380: 1656 8ebd 13ec dfbc a47c 2bbe af2e b03d
00000390: e4d4 513c c789 ed3d e4c5 48bb 3faf 053c
000003a0: 8d47 e9bd fc3d bc3d ab05 dc3d 9c61 e9bd
000003b0: f31f dcbd 90e6 063c 6bff a33d 4fe0 86bc
000003c0: 209b 6abc 2aac 783d ce57 ba3d 2038 0cbd
000003d0: 58ac b1bc d630 af3d 8a2b 63bd 1523 04be
000003e0: a6a5 cd3d b673 04be d7c2 213d 6fea 82bc
000003f0: b4c4 e93d 3c99 25be 1ac9 a93d d603 0a3d

encoder.message_net.0.0.bias f4 [64]
0.068508826 -0.049292825 0.055235755 -0.09034313 -0.11494521 0.1644854 0.09883008 0.116657495
-0.14986639 0.12364111 -0.10826686 0.13110171 0.13474768 -0.071219884 -0.13667807 -0.055009227
-0.08585817 0.13855329 0.11288427 -0.14536148 0.15719195 -0.116381705 0.00044003697 -0.112687916
-0.17537455 0.15582325 0.14317393 0.010438476 0.05486458 0.14119697 -0.11699659 0.11709777
0.011166101 0.1510366 0.020525182 0.13693503 -0.11851361 0.023740504 0.1739353 0.16763924
-0.0065418235 0.09122059 -0.11683453 -0.13278991 -0.021960393 0.039582007 0.0648813 -0.10967419
-0.11914382 -0.06591817 -0.06324679 0.17828149 0.08801266 -0.14827202 0.05202542 0.09223006
-0.019038983 0.0726169 -0.12359627 -0.058078248 -0.09342352 -0.14020298 0.038541228 -0.0034140567
00000000: 5b4e 8c3d 46e7 49bd e33e 623d d205 b9bd
00000010: 6568 ebbd dc6e 283e 6d67 ca3d 20ea ee3d
00000020: 9376 19be 8d37 fd3d 04bb ddbd 873f 063e
00000030: 4cfb 093e bbdb 91bd 56f5 0bbe 5b51 61bd
00000040: 69d6 afbd eae0 0d3e de2f e73d a4d9 14be
00000050: edf6 203e 8859 eebd c3b4 e639 ecc8 e6bd
00000060: 6395 33be 2190 1f3e 309c 123e 2406 2b3c
00000070: afb9 603d f095 103e e89b efbd f5d0 ef3d
00000080: 06f2 363c 57a9 1a3e 6d24 a83c b238 0c3e
00000090: 43b7 f2bd 727b c23c 181c 323e 9fa9 2b3e
000000a0: cb5c d6bb dcd1 ba3d f146 efbd 14fa 07be
000000b0: 48e6 b3bc be20 223d 7de0 843d dd9c e0bd
000000c0: ad01 f4bd 1b00 87bd 8887 81bd 6c8f 363e
000000d0: fb3f b43d 9fd4 17be 9b18 553d 1de3 bc3d
000000e0: a4f7 9bbc 2bb8 943d 0b20 fdbd 75e3 6dbd
000000f0: d554 bfbd 5f91 0fbe 68dd 1d3d 5ebe 5fbb

encoder.message_net.1.0.weight f4 [64, 64]
0.35749874 0.066756085 0.084331095 -0.1303469 -0.25281322 -0.1487487 0.13067077 0.07965409
0.04846966 -0.062149648 0.19544591 0.083405696 -0.06681452 -0.059733685 -0.3287133 0.183405
-0.2916603 0.087698326 -0.2738896 -0.31377 0.25090596 -0.16480301 0.012220329 0.07241132
-0.06577503 -0.24146402 -0.09551528 -0.043597758 0.07788769 0.022097426 -0.05463919 -0.1197613
0.17602956 -0.015028515 0.3142624 -0.27078664 -0.058677424 -0.097111285 0.018593516 -0.18187487
-0.38465035 0.051060364 -0.1334552 0.057306584 -0.12042689 -0.33528858 0.21310006 0.2763108
-0.26042637 0.029442789 0.0145775415 0.34903377 -0.12885036 -0.03584053 0.22840795 -0.17381524
0.09757145 -0.12072099 0.0013713662 0.23272748 0.049591627 0.038396362 -0.011379721 -0.095386386
0.09129536 -0.2959998 -0.17183949 -0.5793763 -0.15298837 -0.1069321 -0.19739245 -0.10490975
0.11020935 -0.053532198 0.2616717 0.19421759 0.034842294 -0.015489472 -0.2123636 0.12547812
-0.20070504 0.15402958 -0.18066671 -0.55769634 0.2313239 -0.2447949 0.18672904 -0.15443514
0.27797666 -0.34374687 -0.36260766 -0.097498626 0.46027017 0.344116 -0.11952941 0.3005387
-0.1464002 0.5676147 0.27068532 -0.039385017 0.5811448 -0.2798355 0.037849218 0.5464205
-0.14577407 -0.25134858 -0.01026144 -0.09052266 -0.6952931 0.26353076 -0.1931676 0.4703617
-0.04112466 -0.11648706 0.3537242 -0.34013388 0.11447658 -0.5028981 0.40150064 -0.3747759
-0.01166628 -0.018809434 0.163312 -0.2774167 0.20204936 0.414444 -0.39117253 -0.0827315
0.056664083 0.06846337 0.019169994 -0.12894176 -0.09433901 0.06455765 -0.061363332 -0.102380544
-0.11563623 -0.1559902 -0.031271238 -0.026492607 0.08576981 0.04359667 -0.0711422 -0.019807741
-0.13508281 0.07543732 -0.026441116 -0.035541456 0.06888707 0.049728982 0.10266784 -0.075391375
-0.043101996 -0.030710606 -0.030018741 0.058922995 0.09267425 0.08761953 -0.13410655 -0.1232945
-0.11482215 0.13679709 -0.05818069 -0.08372898 0.015749076 -0.013308914 -0.10656537 0.072172634
-0.045053773 0.09421198 0.07199119 0.013437967 -0.0078118746 -0.0384566 -0.12550683 0.051246308
0.035698846 0.060411584 0.08385817 -0.09104929 -0.022567142 -0.09391544 0.11502922 -0.11208219
-0.056453865 0.0017629359 -0.098203674 0.13268653 -0.06575364 0.08045367 0.06342007 -0.0067966254
0.3544812 0.067183085 -0.1049219 -0.12877558 -0.10776148 -0.0265346 0.0075683123 0.06480559
-0.03940558 -0.42634967 0.17429383 0.010778238 -0.04174566 0.0037592333 -0.26395804 -0.1380013
0.05334683 -0.02676978 -0.106289595 0.0018383946 -0.20236999 0.021376355 -0.004626692 0.10742089
-0.06711905 0.42780298 0.037384085 -0.045217637 0.008853088 0.20880914 -0.3529073 -0.23505431
-0.26975188 0.014794384 -0.02529654 0.014630499 0.11038485 -0.09635675 -0.06789284 -0.38495594
-0.038511112 0.44582593 -0.10358874 0.11746274 -0.13193052 -0.26633748 0.16388756 0.080451764
-0.11565216 0.07230952 0.19163156 0.07819547 0.38777143 -0.057981465 0.03605938 0.11521414
0.14372946 -0.10500251 -0.13858132 0.0016741463 0.29671454 -0.21087697 -0.17880395 -0.09006102
00000000: 130a b73e 6ab7 883d c8b5 ac3d a879 05be
00000010: bc70 81be 9451 18be 8fce 053e af21 a33d
00000020: 1f88 463d a190 7ebd f922 483e 9bd0 aa3d
00000030: 0dd6 88bd 4fab 74bd 1c4d a8be 85ce 3b3e
00000040: 8054 95be 2e9b b33d 423b 8cbe 76a6 a0be
00000050: bf76 803e 1fc2 28be c637 483c 634c 943d
00000060: 0fb5 86bd 5842 77be 849d c3bd 9093 32bd
00000070: 9583 9f3d a905 b53c 58cd 5fbd 6a45 f5bd
00000080: 1841 343e 293a 76bc 00e7 a03e 8ca4 8abe
00000090: bd57 70bd 48e2 c6bd 6e51 983c 683d 3abe
000000a0: e4f0 c4be ac24 513d 7ba8 08be 4fba 6a3d
000000b0: 60a2 f6bd f2aa abbe e736 5a3e 9c78 8d3e
000000c0: 9b56 85be 0132 f13c a4d6 6e3c 8eb4 b23e
000000d0: 59f1 03be 85cd 12bd c6e3 693e 9ffc 31be
000000e0: 8ad3 c73d 913c f7bd 6abf b33a 1d50 6e3e
000000f0: 9720 4b3d 8145 1d3d 0272 3abc f059 c3bd
00000100: 10f9 ba3d 498d 97be b1f6 2fbe 0152 14bf
00000110: fca8 1cbe 38ff dabd 3f21 4abe ecda d6bd
00000120: 71b5 e13d 9444 5bbd d5f9 853e fae0 463e
00000130: cbb6 0e3d 8ec7 7dbc d875 59be 567d 003e
00000140: 9f85 4dbe eeb9 1d3e b200 39be 30c5 0ebf
00000150: 2ce0 6c3e 84ab 7abe e635 3f3e 3f24 1ebe
00000160: f552 8e3e 97ff afbe b6a7 b9be 5cad c7bd
00000170: 88a8 eb3e f92f b03e d6cb f4bd 35e0 993e
00000180: efe9 15be 324f 113f 4497 8a3e 2f52 21bd
00000190: e8c5 143f 9946 8fbe c807 1b3d 37e2 0b3f
000001a0: cc45 15be c3b0 80be 991f 28bc f263 b9bd
000001b0: bbfe 31bf 81ed 863e bacd 45be 40d3 f03e
000001c0: 5572 28bd c590 eebd 571b b53e 0726 aebe
000001d0: b272 ea3d eebd 00bf 7e91 cd3e a0e2 bfbe
000001e0: ed23 3fbc 3e16 9abc 433b 273e 9009 8ebe
000001f0: 07e6 4e3e 0132 d43e c447 c8be 226f a9bd
00000200: 9918 683d 8636 8c3d 640a 9d3c 4f09 04be
00000210: d034 c1bd cd36 843d 1e58 7bbd e4ac d1bd
00000220: b0d2 ecbd e5bb 1fbe 4516 00bd 0607 d9bc
00000230: 15a8 af3d 6c92 323d 00b3 91bd d843 a2bc
00000240: 2653 0abe e27e 9a3d 0a9b d8bc eb93 11bd
00000250: aa14 8d3d 9eb0 4b3d 8443 d23d cb66 9abd
00000260: b88b 30bd cf94 fbbc dde9 f5bc 3d59 713d
00000270: ffcb bd3d de71 b33d 3a53 09be d481 fcbd
00000280: e027 ebbd 8914 0c3e e04e 6ebd 197a abbd
00000290: 3504 813c a20d 5abc f23e dabd 3fcf 933d
000002a0: 4e8a 38bd 36f2 c03d 1e70 933d eb2a 5c3c
000002b0: c1fa ffbb ab84 1dbd dd84 00be a6e7 513d
000002c0: f438 123d 2372 773d d5bd ab3d 0d78 babd
000002d0: bade b8bc bd56 c0bd 7194 eb3d 598b e5bd
000002e0: 2b3c 67bd 5012 e73a 021f c9bd fade 073e
000002f0: d8a9 86bd e5c4 a43d 62e2 813d 3ab6 debb
00000300: 8f7e b53e 4997 893d 4be1 d6bd bfdd 03be
00000310: 0db2 dcbd 175f d9bc 9bff f73b cbb8 843d
00000320: bf67 21bd 814a dabe 157a 323e 3597 303c
00000330: 7ffd 2abd 785d 763b 8225 87be 3650 0dbe
00000340: 3582 5a3d 4c4c dbbc 5cae d9bd 49f6 f03a
00000350: 143a 4fbe 771d af3c 819b 97bb 7cff db3d
00000360: b675 89bd fe08 db3e 0e20 193d 2136 39bd
00000370: 8b0c 113c 10d2 553e 44b0 b4be 14b2 70be
00000380: eb1c 8abe 2564 723c b13a cfbc c3b4 6f3c
00000390: 7411 e23d b056 c5bd 670b 8bbd f218 c5be
000003a0: d4bd 1dbd 4c43 e43e 5526 d4bd 4e90 f03d
000003b0: cb18 07be 635d 88be 24d2 273e e5c3 a43d
000003c0: 0adb ecbd 0317 943d 103b 443e f224 a03d
000003d0: fa89 c63e f97d 6dbd 00b3 133d 64f5 eb3d
000003e0: d12d 133e 8e0b d7bd 43e8 0dbe 076f db3a
000003f0: f8ea 973e 22f0 57be 6218 37be e971 b8bd

encoder.message_net.1.0.bias f4 [64]
-0.04134513 -0.07614676 -0.19653122 -0.1880214 0.13966885 0.04473882 -0.19037099 -0.23024556
-0.17473708 0.08967888 -0.06811989 0.07919239 -0.15426502 -0.09239278 0.096350014 -0.030517198
0.028907085 -0.13661712 -0.16609608 -0.17973496 -0.2493364 -0.06505587 0.26222515 0.009949252
0.053671572 -0.029943151 -0.17816652 -0.14495413 -0.15326543 -0.15863699 0.0020295049 0.09789243
-0.020843318 -0.08164436 0.11528366 -0.17602772 0.102279276 0.035700478 -0.039902467 -0.060849924
-0.27738133 -0.01237404 -0.0890926 0.2157497 -0.007091647 -0.14154269 -0.09840332 -0.22055066
-0.32382146 -0.18779306 -0.12432877 -0.14135185 -0.050722156 -0.055814955 -0.091606446 -0.16555414
-0.039728094 -0.09149278 -0.24252225 -0.115014106 -0.055757146 -0.12114446 -0.20699349 0.018485796
00000000: 8359 29bd d5f2 9bbd 7b3f 49be af88 40be
00000010: 5a05 0f3e 0e40 373d 9df0 42be 7ec5 6bbe
00000020: 47ee 32be 90a9 b73d 7182 8bbd 9f2f a23d
00000030: a6f7 1dbe 6d38 bdbd 2853 c53d 34ff f9bc
00000040: 8dce ec3c 5ce5 0bbe 1715 2abe 710c 38be
00000050: 0b52 7fbe 033c 85bd 6042 863e 3002 233c
00000060: b9d6 5b3d 574b f5bc 4971 36be db6e 14be
00000070: 9df1 1cbe bc71 22be 7101 053b d47b c83d
00000080: 9bbf aabc 2935 a7bd d719 ec3d 9c40 34be
00000090: cc77 d13d aa3a 123d c570 23bd c53d 79bd
000000a0: ed04 8ebe 7cbc 4abc 2e76 b6bd 7ded 5c3e
000000b0: 0c61 e8bb 91f0 10be ae87 c9bd 08d8 61be
000000c0: edcb a5be d34c 40be 15a0 febd 8abe 10be
000000d0: 09c2 4fbd 399e 64bd 299c bbbd 0687 29be
000000e0: edb9 22bd 9160 bbbd c157 78be 848c ebbd
000000f0: 9b61 64bd 961a f8bd 1af6 53be 866f 973c

encoder.message_net.2.0.weight f4 [64, 64]
-0.08094569 -0.012026508 -0.053461008 -0.07291268 -0.023098847 0.12724212 0.00045724408 -0.12887168
-0.07555905 -0.13686907 0.060267027 0.034076277 0.025998207 0.03424038 -0.19742987 -0.03357695
-0.08172837 0.0071066422 -0.09446601 0.13937438 -0.05570706 -0.045910474 0.064649545 -0.17475837
0.09075848 0.07408006 0.058519293 0.0347992 -0.0020672774 0.011732417 0.13957073 0.08928541
-0.03086987 -0.08977311 0.17202924 -0.018412512 0.03031715 -0.0824233 -0.047242183 -0.0051671714
-0.08984238 0.010729115 0.036973454 -0.097316846 -0.1791726 -0.09737352 0.047712907 0.017793022
0.19168743 -0.24823205 -0.1472319 -0.06822953 -0.06590904 -0.08303032 -0.07392257 -0.09499773
0.00919036 -0.18574473 -0.16975883 0.15983565 0.0106493905 -0.17050108 -0.3231413 -0.18884377
-0.14060712 -0.1424515 -0.0020698677 0.23306714 0.16785002 0.1269883 0.21407384 -0.27920088
0.17838164 0.00437912 -0.0015347416 0.022110047 -0.034553573 -0.023051562 0.010976254 0.12784514
-0.21769679 -0.04994887 0.030949753 0.030711561 -0.030383134 0.008644388 0.08580244 0.3164177
-0.20921975 -0.044685014 0.32245612 0.4202369 0.07932684 0.09023412 0.030461961 -0.1354691
0.03498163 -0.1705126 0.114249535 -0.025444083 -0.17662191 -0.003138154 0.10556166 -0.11879627
0.3508763 -0.14607066 0.12341928 0.039227407 0.19427158 -0.07019249 0.032322556 -0.3456567
-0.08413291 -0.18762727 0.04531346 0.10292098 -0.35292575 0.07752502 -0.2614519 0.29637808
0.124546155 0.04190322 -0.024503164 -0.08065633 0.34242705 -0.25422913 -0.30924693 -0.12971246
-0.097557746 -0.2134862 0.13283533 -0.05926092 -0.22217044 -0.13906254 0.06078593 0.008427393
0.030486254 -0.090993606 0.09933826 0.17064509 -0.050899327 -0.021138413 -0.30443886 0.35991266
-0.17278096 -0.1088135 0.046377 0.013612026 -0.043271475 0.089634195 0.14187865 -0.15735558
0.15407473 0.18919626 -0.14887218 -0.026025748 0.11335291 0.2615865 -0.050278038 0.23594917
0.16413034 0.21108487 -0.027603278 -0.09537312 -0.12760891 0.032474566 0.14706388 -0.045497928
-0.053977262 0.08262632 0.110446826 -0.20182686 0.032111317 -0.05815714 0.17735054 0.02225937
0.23258361 -0.34706232 -0.015737537 -0.12178443 -0.020835973 -0.22102511 0.08421281 -0.16622773
-0.05120217 -0.16927353 -0.10810432 0.1968953 0.24251306 0.14536123 0.031359136 -0.21543768
0.14642596 0.03886275 -0.17275687 0.013640756 -0.086472705 -0.10546739 -0.017368432 0.27192482
0.087169915 0.10226312 0.067809045 0.15948933 -0.017763752 -0.08844273 0.14918578 -0.02180096
-0.26284158 -0.025585867 -0.14809608 0.2814839 0.14810637 -0.037099093 -0.09236729 -0.14867674
-0.22070761 0.10052089 0.27089202 0.30714852 0.07919256 -0.021862814 -0.15290506 -0.014589802
-0.115758196 -0.279903 -0.12791672 0.03817229 0.06606183 -0.04207879 -0.33102655 0.063689195
0.17779474 0.037987873 -0.14140683 0.034668088 -0.11410192 -0.019555977 0.11664383 -0.16355841
0.040888 -0.19363678 0.017586617 -0.062232286 -0.017589083 -0.10810809 -0.183046 -0.0452915
-0.057130314 0.040423945 -0.22085953 0.1489738 -0.07430296 -0.024814673 -0.24983168 0.1485787
00000000: dbc6 a5bd d50a 45bc eef9 5abd 3e53 95bd
00000010: cb39 bdbc c24b 023e 43ba ef39 f0f6 03be
00000020: b4be 9abd 6827 0cbe 8fda 763d 9193 0b3d
00000030: 31fa d43c a43f 0c3d 0e2b 4abe fc87 09bd
00000040: 3461 a7bd d6de e83b 6577 c1bd 28b8 0e3e
00000050: 162d 64bd 9f0c 3cbd fb66 843d dcf3 32be
00000060: 95df b93d 49b7 973d edb1 6f3d 9b89 0e3d
00000070: 297b 07bb 5339 403c a1eb 0e3e 45db b63d
00000080: cfe2 fcbc f7da b7bd 6f28 303e d6d5 96bc
00000090: ac5b f83c 8ccd a8bd 0581 41bd 6051 a9bb
000000a0: 48ff b7bd 2cc9 2f3c 7a71 173d 0e4e c7bd
000000b0: 0679 37be c56b c7bd 9c6e 433d acc2 913c
000000c0: b649 443e 8b30 7ebe f6c3 16be ecbb 8bbd
000000d0: 52fb 86bd cd0b aabd b764 97bd 2b8e c2bd
000000e0: 2a93 163c de33 3ebe 42d5 2dbe f5ab 233e
000000f0: c87a 2e3c d697 2ebe c772 a5be 4360 41be
00000100: 50fb 0fbe cede 11be 9ea6 07bb 27a9 6e3e
00000110: e0e0 2b3e 3909 023e 2c36 5b3e 6bf3 8ebe
00000120: ada9 363e b97e 8f3b 6229 c9ba 2120 b53c
00000130: 0c88 0dbd a1d6 bcbc bfd5 333c d6e9 023e
00000140: e8eb 5ebe 3097 4cbd 568a fd3c d096 fb3c
00000150: 0de6 f8bc 31a1 0d3c 31b9 af3d 8001 a23e
00000160: b43d 56be a207 37bd f818 a53e 4a29 d73e
00000170: 1c76 a23d abcc b83d 5d8b f93c 69b8 0abe
00000180: e648 0f3d db9a 2ebe a9fb e93d 1c70 d0bc
00000190: 60dc 34be 7da9 4dbb b630 d83d 754b f3bd
000001a0: 0fa6 b33e 8c93 15be 3fc3 fc3d ebac 203d
000001b0: 21ef 463e 15c1 8fbd a864 043d eaf9 b0be
000001c0: e04d acbd 5d21 40be 9b9a 393d 3cc8 d23d
000001d0: afb2 b4be 70c5 9e3d 06dd 85be debe 973e
000001e0: 0e12 ff3d b6a2 2b3d dcba c8bc 252f a5bd
000001f0: 9952 af3e 522a 82be 9d55 9ebe 58d3 04be
00000200: 5bcc c7bd 209c 5abe fc05 083e 94bb 72bd
00000210: a680 63be 6966 0ebe abfa 783d 0c13 0a3c
00000220: 4fbe f93c db5a babd dc71 cb3d 96bd 2e3e
00000230: d07b 50bd 772a adbc 69df 9bbe 7946 b83e
00000240: 7eed 30be 9dd9 debd cff5 3d3d fa04 5f3c
00000250: 6e3d 31bd 2292 b73d a348 113e d221 21be
00000260: c4c5 1d3e aabc 413e f371 18be f333 d5bc
00000270: 9225 e83d aaee 853e 58f0 4dbd a99c 713e
00000280: c911 283e a226 583e 4520 e2bc fb52 c3bd
00000290: e9ab 02be 0d04 053d ea97 163e 095c 3abd
000002a0: 4317 5dbd fd37 a93d f231 e23d b3ab 4ebe
000002b0: 2887 033d 2e36 6ebd 619b 353e 4859 b63c
000002c0: 662a 6e3e 27b2 b1be 02ec 80bc 1e6a f9bd
000002d0: 34b0 aabc 6854 62be c477 ac3d 9a37 2abe
000002e0: 5eb9 51bd 0a56 2dbe cc65 ddbd ec9e 493e
000002f0: 5855 783e 93d9 143e 7072 003d b29b 5cbe
00000300: b0f0 153e 8c2e 1f3d 2de7 30be 7a7d 5f3c
00000310: 9a18 b1bd 49ff d7bd 3e48 8ebc bb39 8b3e
00000320: 2486 b23d 546f d13d 78df 8a3d 2c51 233e
00000330: 4a85 91bc 7621 b5bd 28c4 183e ed97 b2bc
00000340: 2c93 86be 7499 d1bc 80a6 17be a81e 903e
00000350: 32a9 173e 38f5 17bd 102b bdbd b73e 18be
00000360: 2d01 62be e5dd cd3d 5cb2 8a3e 9242 9d3e
00000370: b52f a23d a519 b3bc 2593 1cbe 110a 6fbc
00000380: a212 edbd 724f 8fbe 9afc 02be 8c5a 1c3d
00000390: 6d4b 873d cf5a 2cbd 507c a9be 7b6f 823d
000003a0: d30f 363e 2c99 1b3d f4cc 10be 2000 0e3d
000003b0: 44ae e9bd db33 a0bc f6e2 ee3d db7b 27be
000003c0: 2d7a 273d b848 46be cf11 903c 48e7 7ebd
000003d0: fb16 90bc c667 ddbd 6970 3bbe 9483 39bd
000003e0: 7a01 6abd 9493 253d 0029 62be 968c 183e
000003f0: 262c 98bd 2448 cbbc e0d3 7fbe 0425 183e

encoder.message_net.2.0.bias f4 [64]
-0.24782588 -0.0068962807 -0.24689816 -0.13859846 -0.21448445 -0.008030865 -0.05690935 0.05217138
-0.0899756 -0.06477441 0.077563465 -0.06963081 0.08196849 -0.17317289 -0.086313926 -0.112139076
-0.019191843 0.12073587 0.042710304 0.122465044 -0.20064622 -0.11580624 -0.13122384 -0.24758334
-0.008233768 -0.21612354 0.08639098 0.0071822233 -0.050793525 -0.11114693 -0.25151822 -0.23553424
-0.2226654 -0.2280033 -0.019629026 -0.25626504 -0.02414337 -0.21700403 0.08999863 -0.1956953
-0.19791672 0.0067689135 0.021472502 -0.104941055 -0.17665586 -0.17436002 -0.23444246 -0.1101155
-0.21547458 0.103514224 0.032541968 -0.19527964 -0.03444662 0.03763142 -0.034914646 -0.26603174
-0.03574826 -0.25945738 0.10382102 0.03237816 0.01986052 -0.019828694 0.061705533 -0.03104764
00000000: 11c6 7dbe 32fa e1bb dfd2 7cbe c1ec 0dbe
00000010: d0a1 5bbe e493 03bc c719 69bd a8b1 553d
00000020: 2145 b8bd 72a8 84bd 98d9 9e3d 999a 8ebd
00000030: 18df a73d 3c54 31be 5bc5 b0bd 2ca9 e5bd
00000040: 3638 9dbc 5e44 f73d 00f1 2e3d f4ce fa3d
00000050: 3476 4dbe d22b edbd 8b5f 06be 7d86 7dbe
00000060: ede6 06bc 7d4f 5dbe c1ed b03d db58 eb3b
00000070: df0c 50bd 00a1 e3bd ffc6 80be e32f 71be
00000080: 6602 64be b279 69be 0dcd a0bc 2c35 83be
00000090: 51c8 c5bc 4e36 5ebe 3451 b83d 5964 48be
000000a0: aeaa 4abe c3cd dd3b 1ae7 af3c 56eb d6bd
000000b0: 46e5 34be 6f8b 32be af11 70be 3c84 e1bd
000000c0: 5ea5 5cbe 44ff d33d ba4a 053d 63f7 47be
000000d0: e617 0dbd 6723 1a3d a902 0fbd 5035 88be
000000e0: c46c 12bd 99d7 84be 1da0 d43d f69e 043d
000000f0: 87b2 a23c c96f a2bc f1be 7c3d 9f57 febc

encoder.gru.weight_ih f4 [192, 64]
-0.14233236 0.0434657 -0.16323762 0.10689018 -0.25397697 -0.15464455 0.1095199 0.21586542
0.2742411 0.052200228 0.15975808 -0.085079424 0.018710341 0.010272755 -0.39824834 0.073764294
0.28675726 0.0048164823 -0.34430534 -0.12974857 0.10851942 0.07421289 0.08488042 -0.0012326792
0.15049362 0.18381375 -0.024847727 0.06632374 0.061124574 0.0499942 -0.1894688 -0.016639374
-0.11600827 0.190048 -0.24954614 0.015054744 -0.08130326 0.040757023 0.1640436 0.15585813
0.28002122 0.0044348408 0.12601845 -0.07463969 0.046087883 0.12122022 -0.27412486 0.54562515
0.009226293 0.1854109 0.06293802 -0.15488438 0.31767148 0.092875294 0.0065717576 -0.25913805
0.072653785 -0.049338114 0.023543349 0.16213074 -0.04749011 0.063333705 -0.1941284 -0.19290501
-0.2327922 -0.33478323 0.288798 -0.9171456 0.16212143 0.109059066 -0.22194907 -0.031399705
-0.58600694 -0.2008573 -0.07547495 -0.0345955 -0.010317245 -0.56510943 -0.11766622 0.052988354
0.36676076 0.013568133 0.2768297 -0.16793585 -0.05012217 0.18021777 0.4001277 0.580222
-0.22894193 0.4929621 -0.20499407 0.062206376 -0.51115483 -0.25844693 -0.11097963 0.63393676
0.31912896 0.29768237 0.2592228 0.14393133 0.2864864 0.50576675 -0.110271946 0.39201555
0.22260419 -0.28247955 -0.11408614 0.25684664 -0.369492 0.55092376 0.44365516 -0.1964373
-0.3664538 -0.055145323 -0.34436986 -0.111482024 0.15220116 0.1364657 -0.37929925 0.0082091335
-0.6610077 0.21610655 -0.22961314 -0.37620538 0.012184128 -0.558892 -0.36997107 -0.19301325
-0.11632363 0.020315195 -0.02264651 -0.14552148 -0.14938006 -0.21044295 -0.2393744 -0.09372869
-0.048017096 -0.11400601 -0.002448894 0.13862787 -0.15424193 -0.16464029 0.45854893 0.010321756
-0.21982013 0.37262228 -0.21443115 0.3055392 -0.09368907 0.04975416 0.13920529 -0.6159803
-0.20376979 -0.36077595 0.0167986 0.35756794 -0.038006783 -0.22524819 0.03838816 -0.39538816
0.16841376 0.32315964 0.3476366 0.3847825 -0.3982891 -0.84369093 0.6426367 -0.66486984
-0.4189774 0.18990776 0.120902464 -0.3169104 -0.9680976 -0.58006036 -0.30624625 0.004738767
-0.5450878 0.03173389 0.5150008 -0.078526706 0.16593175 0.24865454 0.028098473 0.44380683
-0.027667686 -0.3908129 0.20374052 -0.022482064 -0.08390708 -0.10072024 -0.08431811 0.04879391
-0.15232784 -0.08419098 -0.0350527 -0.15155722 0.99246 -0.08901602 -0.16195494 0.0060520745
-0.20607437 0.010636719 0.67891055 -0.37499422 -0.044454593 -0.10552408 0.10199629 -0.018226564
0.15011258 0.5482013 0.13695464 0.3580182 0.18603598 -0.17536983 1.0070102 -0.015849562
-0.13672036 -0.044302788 -0.15705746 -0.1546453 -0.2561295 -0.13028878 -0.079110995 0.051615085
-0.075564705 -0.17172506 0.18270157 0.08176601 0.8796029 0.14003119 -0.15179509 -0.016290236
-0.38097763 0.20652194 0.27055162 0.92082226 0.08668865 -0.035404544 0.019828567 -0.18444261
-0.18990459 0.3625196 -0.040453523 -0.32907063 0.14011496 -0.24033862 -0.02793101 -0.41530755
0.018291073 -0.12271988 0.5241612 -0.14356822 0.31202647 0.066353165 -0.041584257 0.008015432
00000000: 93bf 11be 1709 323d c327 27be 3de9 da3d
00000010: 4509 82be 245b 1ebe f84b e03d d30b 5d3e
00000020: 5469 8c3e e8cf 553d 9f97 233e 1f3e aebd
00000030: 6e46 993c 0f4f 283c 35e7 cbbe bc11 973d
00000040: d9d1 923e 95d3 9d3b ca48 b0be cfdc 04be
00000050: 6e3f de3d edfc 973d c9d5 ad3d da91 a1ba
00000060: 001b 1a3e ac39 3c3e 768d cbbc bed4 873d
00000070: c35d 7a3d b8c6 4c3d 1c04 42be 4c4f 88bc
00000080: be95 edbd f19b 423e 0689 7fbe 2ca8 763c
00000090: 5382 a6bd d6f0 263d 0cfb 273e 4699 1f3e
000000a0: f15e 8f3e 2452 913b fb0a 013e b2dc 98bd
000000b0: a6c6 3c3d 4f42 f83d 185a 8cbe 17ae 0b3f
000000c0: e129 173c 5bdc 3d3e a6e5 803d 039a 1ebe
000000d0: d6a5 a23e 6735 be3d e657 d73b bead 84be
000000e0: 82cb 943d c316 4abd fbdd c03c 9a05 263e
000000f0: fd84 42bd 1ab5 813d 98c9 46be e488 45be
00000100: 1461 6ebe b568 abbe 55dd 933e 0eca 6abf
00000110: 2903 263e 5c5a df3d 9e46 63be fa9c 00bd
00000120: 8d04 16bf 89ad 4dbe 9c92 9abd 03b4 0dbd
00000130: a909 29bc 03ab 10bf fdfa f0bd 510a 593d
00000140: 11c8 bb3e e04c 5e3c 9fbc 8d3e 60f7 2bbe
00000150: e84c 4dbd 028b 383e 8add cc3e 6e89 143f
00000160: c16f 6abe 8765 fc3e f7e9 51be 1dcc 7e3d
00000170: 0bdb 02bf 2853 84be 4a49 e3bd ae49 223f
00000180: df64 a33e d369 983e dab8 843e bc62 133e
00000190: 58ae 923e ee79 013f 42d6 e1bd 43b6 c83e
000001a0: 5af2 633e 29a1 90be ffa5 e9bd 6781 833e
000001b0: 0e2e bdbe 5709 0d3f c526 e33e dc26 49be
000001c0: d59f bbbe 10e0 61bd 3f51 b0be b050 e4bd
000001d0: 9fda 1b3e aabd 0b3e 8333 c2be 9a7f 063c
000001e0: cd37 29bf 094b 5d3e b51f 6bbe fe9d c0be
000001f0: f09f 473c 8c13 0fbf d96c bdbe 44a5 45be
00000200: 153b eebd 0d6c a63c 2c85 b9bc 9503 15be
00000210: 16f7 18be 5b7e 57be 901e 75be d4f4 bfbd
00000220: 93ad 44bd fc7b e9bd a07d 20bb 77f4 0d3e
00000230: 99f1 1dbe 7797 28be edc6 ea3e 951c 293c
00000240: 8718 61be 59c8 be3e d793 5bbe a26f 9c3e
00000250: 0ee0 bfbd 05cb 4b3d d58b 0e3e e3b0 1dbf
00000260: 07a9 50be a0b7 b8be 389d 893c 2513 b73e
00000270: 00ad 1bbd 76a7 66be e73c 1d3d 5170 cabe
00000280: a874 2c3e 2e75 a53e 6dfd b13e 3602 c53e
00000290: 8dec cbbe 21fc 57bf d783 243f e934 2abf
000002a0: 3584 d6be 2e77 423e b69b f73d 1442 a2be
000002b0: 3fd5 77bf d67e 14bf 4fcc 9cbe a947 9b3b
000002c0: e08a 0bbf 65fb 013d 18d7 033f 9cd2 a0bd
000002d0: 03ea 293e 4c9f 7e3e c52e e63c a63a e33e
000002e0: 58a7 e2bc a118 c8be 5ba1 503e 4e2c b8bc
000002f0: 7ad7 abbd 6a46 cebd f9ae acbd 1fdc 473d
00000300: d4fb 1bbe 526c acbd 6c93 0fbd d131 1bbe
00000310: dc11 7e3f 084e b6bd 84d7 25be 7b50 c63b
00000320: 2905 53be a245 2e3c 15cd 2d3f 3eff bfbe
00000330: 0516 36bd 021d d8bd 6ee3 d03d e04f 95bc
00000340: 1db7 193e ec56 0c3f d63d 0c3e 294e b73e
00000350: 3780 3e3e 2694 33be b6e5 803f f1d6 81bc
00000360: 6c00 0cbe d776 35bd acd3 20be 565b 1ebe
00000370: 6823 83be 6c6a 05be f204 a2bd 576a 533d
00000380: abc1 9abd b2d8 2fbe 1f16 3b3e f074 a73d
00000390: a82d 613f 5664 0f3e 2c70 1bbe 1a73 85bc
000003a0: 800f c3be 7d7a 533e be85 8a3e 02bb 6b3f
000003b0: d289 b13d 5b04 11bd 856f a23c 86de 3cbe
000003c0: 5976 42be 2b9c b93e 98b2 25bd f27b a8be
000003d0: 4c7a 0f3e 541b 76be 93cf e4bc 31a3 d4be
000003e0: 29d7 953c 8f54 fbbd 6e2f 063f 8c03 13be
000003f0: efc1 9f3e 2be4 873d 4154 2abd 2953 033c

encoder.gru.weight_hh f4 [192, 64]
0.0667133 0.038914066 -0.033690758 -0.10189083 -0.016652176 -0.3654551 0.14011168 0.7982751
0.106604904 -0.34874508 -0.09379329 -0.23066382 -0.07007989 0.37379792 -0.41160288 0.3400873
-0.35496977 0.57142854 0.16073935 0.43274376 -0.573156 -0.0794283 -0.44609773 -0.16330576
-0.12290538 0.41416517 0.13390157 0.016405037 0.20507148 0.06818102 -0.41049856 -0.22555915
0.49988905 -0.54260415 -0.13897622 0.10579171 0.08060868 0.09428554 -0.4039627 -0.81540066
-0.057660956 0.9389795 -0.11436304 0.2803009 -0.016611613 -0.28571802 0.17590673 0.071615875
0.086675696 -0.37147787 0.6966163 0.05711052 0.2197607 -0.10365682 -0.16472793 -0.13777706
0.08599471 -0.2432889 0.32160065 -0.21950306 0.6229498 0.13269176 -0.22234988 -0.051041972
-0.16907653 -0.021488138 -0.07215628 0.03886285 0.45194188 0.12960237 0.22428724 -0.08799906
-0.086837046 -0.20701744 0.0038170926 0.5765335 0.46604455 0.1306259 0.17981371 -0.3275839
-0.14607708 -0.10574004 0.15386319 0.31067604 0.056357916 0.33711314 0.3738498 0.074394844
0.055325307 -0.03908782 0.026106874 -0.07622599 -0.036147118 -0.16257729 0.6902576 -0.12427797
-0.14658593 0.5694778 0.05387024 0.13750094 0.13663837 -0.1169599 0.16438343 -0.015857581
0.3059305 0.12082999 0.38668215 -0.41383743 0.3512953 0.21633013 0.3095604 -0.14192465
0.0350023 -0.17743328 -0.71208054 -0.23577893 -0.1705223 -0.10553516 0.225362 -0.13246179
0.2764373 -0.28965232 -0.016233563 0.17842002 0.25152946 0.23395926 -0.24462703 -0.06345149
0.14963947 -0.36859474 -0.4758723 0.30502585 -0.10031649 0.07789512 -0.25512514 -0.40176845
0.57416075 -0.15907583 -0.061261766 0.30525398 0.041464727 -0.08549291 -0.38406885 -0.0979889
-0.09145908 0.21482652 0.09600352 -0.71010566 0.60730463 -0.37653625 -0.13312805 -0.040613014
-0.21586785 -0.2859841 0.38344064 -0.073216565 -0.19700208 -0.16098586 0.7279089 0.20764266
0.64556026 0.22490926 -0.05352623 -0.355934 -0.23175474 0.08597484 -0.06296566 0.018857243
-0.22590618 -0.37758926 0.04140347 0.20274702 0.4511954 -0.09387395 -0.25561646 -0.079155155
0.07252985 0.21458614 -0.7605554 0.44822237 -0.09420627 -0.20844714 -0.24375159 -0.20494618
0.018560972 0.42449924 -0.15006077 0.17500626 -0.32208043 0.06039652 0.27597156 -0.030832812
-0.044654965 0.15493293 -0.031859174 0.18326765 -0.167159 0.100068346 -0.15388262 -0.12664995
0.35019878 -0.38218698 -0.2947198 0.052254636 -0.010115528 0.18186115 0.016749786 -0.70003766
-0.2452067 -0.02117799 0.008447927 0.12163752 0.23053989 0.057034455 -0.44676375 -0.16300242
-0.73338044 0.1787695 0.22158939 0.3030997 0.2849391 -0.4837668 0.02354787 0.013121264
-0.7170323 0.11757928 -0.52343255 0.003327483 -0.7270537 -0.06377566 -0.23440047 -0.17347245
0.22233823 0.14041856 0.022272186 0.46929136 0.49515027 -0.15450798 0.08439446 -0.44326693
-0.118453115 0.29210088 0.007230086 -0.17172459 0.028498583 0.26273143 -0.39724848 0.019619841
0.11050076 0.27491072 -0.106868155 -0.1300091 -0.15996164 -0.75612354 -0.047682825 0.047454685
00000000: fca0 883d 5b64 1f3d 52ff 09bd 24ac d0bd
00000010: 256a 88bc ee1c bbbe 7079 0f3e c25b 4c3f
00000020: ac53 da3d b78e b2be b216 c0bd 2333 6cbe
00000030: 0c86 8fbd 7162 bf3e 9dbd d2be ec1f ae3e
00000040: 99be b5be 2449 123f db98 243e 9790 dd3e
00000050: 5aba 12bf 4eab a2bd ec66 e4be a039 27be
00000060: d1b5 fbbd 750d d43e 7e1d 093e db63 863c
00000070: 42fe 513e 7ea2 8b3d de2c d2be faf8 66be
00000080: 75f1 ff3e 1be8 0abf c84f 0ebe 53a9 d83d
00000090: 2a16 a53d c718 c13d 33d4 cebe 19be 50bf
000000a0: e52d 6cbd f660 703f 2b37 eabd 9983 8f3e
000000b0: 1415 88bc a249 92be e520 343e 58ab 923d
000000c0: 0783 b13d 5932 bebe 7255 323f b8ec 693d
000000d0: f308 613e 074a d4bd 70ae 28be 6e15 0dbe
000000e0: ff1d b03d ba20 79be d7a8 a43e 69c5 60be
000000f0: a379 1f3f 59e0 073e b0af 63be 6311 51bd
00000100: 6622 2dbe e407 b0bc acc6 93bd a72e 1f3d
00000110: ed64 e73e 7cb6 043e 8eab 653e da38 b4bd
00000120: 9fd7 b1bd 61fc 53be 3028 7a3b b397 133f
00000130: 649d ee3e ccc2 053e 1621 383e 14b9 a7be
00000140: 3b95 15be 3c8e d8bd 508e 1d3e ee10 9f3e
00000150: 8fd7 663d 189a ac3e 3e69 bf3e 535c 983d
00000160: ca9c 623d 8d1a 20bd 15de d53c 5f1c 9cbd
00000170: 000f 14bd a97a 26be b9b4 303f 7385 febd
00000180: 9f1a 16be 4cc9 113f 0aa7 5c3d 0ccd 0c3e
00000190: eeea 0b3e ac88 efbd 2154 283e c2e7 81bc
000001a0: eca2 9c3e b775 f73d 34fb c53e 80e2 d3be
000001b0: fadc b33e a585 5d3e b37e 9e3e b254 11be
000001c0: 925e 0f3d 12b1 35be e94a 36bf 0870 71be
000001d0: 669d 2ebe d122 d8bd 4cc5 663e 10a4 07be
000001e0: 3189 8d3e 4f4d 94be 40fc 84bc bdb3 363e
000001f0: 78c8 803e 0493 6f3e 827f 7abe dbf2 81bd
00000200: 173b 193e 73b8 bcbe 89a5 f3be 592c 9c3e
00000210: bb72 cdbd 7a87 9f3d c39f 82be 98b4 cdbe
00000220: 33fc 123f c6e4 22be 9eed 7abd 404a 9c3e
00000230: ebd6 293d e816 afbd aca4 c4be 68ae c8bd
00000240: e64e bbbd 7cfb 5b3e 7e9d c43d 7cc9 35bf
00000250: 5178 1b3f 5cc9 c0be b852 08be d559 26bd
00000260: 760c 5dbe 826c 92be 5552 c43e 91f2 95bd
00000270: eaba 49be 7ad9 24be 3d58 3a3f 47a0 543e
00000280: 7043 253f 9d4e 663e 523e 5bbd fb3c b6be
00000290: 1d51 6dbe 9413 b03d 24f4 80bd 817a 9a3c
000002a0: f353 67be 6153 c1be af96 293d ea9c 4f3e
000002b0: 1503 e73e fc40 c0bd 29e0 82be 191c a2bd
000002c0: 888a 943d 78bc 5b3e c2b3 42bf 677d e53e
000002d0: 38ef c0bd 2b73 55be 049a 79be 69dd 51be
000002e0: 2e0d 983c f757 d93e 88a9 19be d734 333e
000002f0: bae7 a4be 5762 773d 254c 8d3e 1895 fcbc
00000300: 20e8 36bd bda6 1e3e c47e 02bd 84aa 3b3e
00000310: bb2b 2bbe a2f0 cc3d 6893 1dbe 86b0 01be
00000320: 414d b33e 03ae c3be 83e5 96be f508 563d
00000330: 99bb 25bc cf39 3a3e d936 893c ab35 33bf
00000340: 7717 7bbe 777d adbc 2d69 0a3c 181d f93d
00000350: a612 6c3e f69c 693d 38be e4be 1bea 26be
00000360: d2be 3bbf 5a0f 373e 54e8 623e e22f 9b3e
00000370: 8ae3 913e 48b0 f7be 76e7 c03c 92fa 563c
00000380: 6e8f 37bf 68cd f03d adff 05bf e711 5a3b
00000390: 3120 3abf d09c 82bd ad06 70be c3a2 31be
000003a0: a2ac 633e e2c9 0f3e 2974 b63c f546 f03e
000003b0: 5684 fd3e 5737 1ebe 01d7 ac3d e2f3 e2be
000003c0: 8c97 f2bd 3f8e 953e 5bea ec3b 92d8 2fbe
000003d0: dc75 e93c bc84 863e 2764 cbbe cab9 a03c
000003e0: 394e e23d 19c1 8c3e b1dd dabd 1b21 05be
000003f0: fccc 23be 5091 41bf 114f 43bd d85f 423d

encoder.gru.bias_ih f4 [192]
-0.16164124 0.015661605 -0.18346308 -0.06826719 0.1641937 -0.3365369 0.09022617 0.36152887
-0.0711848 -0.009578925 -0.29426938 0.25289357 0.03625188 0.027320215 -0.25693396 -0.22658186
0.1972933 0.1161589 0.053911354 0.104767345 0.3631448 -0.044687442 -0.10551365 0.11111519
-0.08453574 0.18704087 0.15278183 0.052314673 -0.064637035 -0.14795895 0.48760897 0.2584712
-0.06945728 0.23698826 0.2895628 -0.113599986 0.06460091 0.22452164 0.040562414 0.11297665
-0.23010653 -0.060721047 0.10907511 0.08788339 -0.16014527 0.062218606 -0.120311946 0.03629015
-0.13824938 0.0011758015 0.26021597 0.10172025 0.07919904 0.12085615 -0.11359121 0.04392953
-0.17771603 -0.023904625 0.09935248 0.2979143 0.0018825257 -0.04560059 0.164138 0.16708528
0.3423163 0.22993179 0.18657988 0.1958492 0.24412039 0.1360151 0.04871634 0.0686127
0.10899127 0.27628922 0.31690946 0.10561718 -0.007867825 -0.042313658 0.2413216 0.2637575
0.24447867 0.08337308 0.08615113 0.12984584 -0.06665778 0.29050344 0.15538007 0.22240637
0.20962061 -0.2408904 0.055047013 -0.107760236 0.064230725 0.07334217 -0.082842484 0.3353527
-0.09008305 0.18237652 0.29691562 0.3550516 0.035683975 0.13211939 0.32801306 -0.051505204
0.019205548 -0.08320181 -0.13203338 0.0120061515 0.16006319 0.14557552 0.27251324 0.18254411
0.4381783 0.3067475 -0.012948835 0.14867131 0.19138846 0.19661486 0.3270718 -0.005398607
-0.21334825 0.3148241 0.22367854 0.16843033 0.1143594 0.26029658 0.09977782 0.3204732
0.07551515 -0.11513988 0.20932601 0.21387488 0.055364367 0.10395934 -0.09739859 -0.21084738
0.06363567 0.10331451 0.06894697 0.2239946 -0.07801909 0.0073798914 0.087486066 -0.041412972
0.113227494 -0.18418258 -0.06806251 -0.22343917 0.34905413 -0.090184316 0.03259019 0.08306852
-0.14674637 -0.13579865 -0.22124478 -0.07260445 -0.10939664 -0.15692529 0.45297977 0.17549205
-0.015060185 0.32256618 -0.015487011 0.011408485 0.24054945 -0.04179413 -0.039947957 0.3353011
-0.12069995 -0.12635982 0.0037835487 0.0017658302 0.09326127 0.028176473 0.19174968 0.016443368
-0.24289809 0.1401308 -0.24918276 0.13517845 -0.0834641 0.07630789 0.04703058 0.013368139
0.14996085 0.19937354 -0.23439242 -0.11931471 -0.14751533 0.12654994 0.08177132 0.18997203
00000000: 4885 25be c44c 803c bfdd 3bbe abcf 8bbd
00000010: 6522 283e 914e acbe 80c8 b83d 501a b93e
00000020: 56c9 91bd ecf0 1cbc 7aaa 96be 447b 813e
00000030: da7c 143d a5ce df3c d98c 83be 1305 68be
00000040: 4107 4a3e b8e4 ed3d 27d2 5c3d 4390 d63d
00000050: 1dee b93e 2e0a 37bd 8a17 d8bd 5c90 e33d
00000060: 1321 adbd a487 3f3e d772 1c3e e947 563d
00000070: 6c60 84bd 8d82 17be e2a7 f93e 5656 843e
00000080: 9e3f 8ebd 0dad 723e 9341 943e 1ca7 e8bd
00000090: 7b4d 843d 00e9 653e c624 263d 4d60 e73d
000000a0: 0ca1 6bbe a2b6 78bd c562 df3d 35fc b33d
000000b0: 1ffd 23be f0d8 7e3d 1c66 f6bd fba4 143d
000000c0: 3f91 0dbe 5a1d 9a3a 073b 853e b552 d03d
000000d0: 1b33 a23d 6e83 f73d 82a2 e8bd 73ef 333d
000000e0: 31fb 35be a2d3 c3bc 5079 cb3d 3988 983e
000000f0: 15bf f63a afc7 3abd cb13 283e 6718 2b3e
00000100: 1544 af3e 3d73 6b3e cc0e 3f3e b18c 483e
00000110: b2fa 793e 8b47 0b3e c98a 473d d184 8c3d
00000120: d136 df3d c875 8d3e f541 a23e d24d d83d
00000130: 0de8 00bc 1651 2dbd 021d 773e 390b 873e
00000140: 9e58 7a3e 81bf aa3d 0170 b03d 4ff6 043e
00000150: e083 88bd debc 943e f41b 1f3e 7fbe 633e
00000160: c9a6 563e f9ab 76be fa78 613d 66b1 dcbd
00000170: 668b 833d 6b34 963d 52a9 a9bd 59b3 ab3e
00000180: 767d b8bd e9c0 3a3e 5305 983e 53c9 b53e
00000190: 5c29 123d 4e4a 073e 54f1 a73e 1ff7 52bd
000001a0: f454 9d3c b665 aabd c233 07be 73b5 443c
000001b0: 9be7 233e c011 153e db86 8b3e d8ec 3a3e
000001c0: e858 e03e 020e 9d3e 5a27 54bc 4b3d 183e
000001d0: 56fb 433e 6855 493e f475 a73e cce6 b0bb
000001e0: f777 5abe a030 a13e fd0b 653e 0079 2c3e
000001f0: 4335 ea3d 9845 853e 5058 cc3d 1015 a43e
00000200: b0a7 9a3d 75ce ebbd 8f59 563e 0402 5b3e
00000210: bfc5 623d a2e8 d43d e978 c7bd 60e8 57be
00000220: 6b53 823d 8f96 d33d 1234 8d3d d75e 653e
00000230: 79c8 9fbd 04d3 f13b e52b b33d a6a0 29bd
00000240: d1e3 e73d 5c9a 3cbe 5b64 8bbd 3dcd 64be
00000250: 39b7 b23e 8eb2 b8bd 4b7d 053d d41f aa3d
00000260: ae44 16be cd0e 0bbe fe8d 62be a4b1 94bd
00000270: 580b e0bd 06b1 20be f7ec e73e 30b4 333e
00000280: ffbe 76bc 6527 a53e 3bbd 7dbc a7ea 3a3c
00000290: 9852 763e 5230 2bbd 78a0 23bd 96ac ab3e
000002a0: 8931 f7bd 7864 01be 6af5 773b 6e73 e73a
000002b0: c4ff be3d 59d2 e63c 075a 443e 3eb4 863c
000002c0: 47ba 78be 737e 0f3e c429 7fbe 386c 0a3e
000002d0: 3aef aabd 5047 9c3d 23a3 403d 0a06 5b3c
000002e0: 568f 193e 9428 4c3e 9104 70be 455b f4bd
000002f0: 420e 17be 4f96 013e b977 a73d 0788 423e
