experiments/gnn_hd64_ld32_nr5_ep500_b2.0_nf2.0/model.pt (torch, 213211 bytes, 22 tensors)

encoder.input_net.0.weight f4 [64, 7]
000000 19 5e 24 be 2d 9e 36 be 82 1e 09 3f e4 c4 91 bc
       -0.1605152 -0.17833777 0.53562176 -0.01779408
000010 01 de b2 be 6b 86 37 be 71 e6 88 3e bc a3 8b 3e
       -0.34935 -0.1792237 0.26738313 0.27273357
000020 27 31 3b be 4b 05 f9 bd cc 8f 75 3e 01 a9 b9 be
       -0.18280469 -0.12159213 0.23980635 -0.36261752
000030 b9 f8 d2 3e 58 60 8d be de f3 9a 3e 88 93 92 bd
       0.41205385 -0.27612567 0.3026418 -0.071570456
000040 b3 eb f1 bd 43 19 21 3e 88 cd f9 3d 17 e1 5c 3e
       -0.11812534 0.15732293 0.12197405 0.2157024
000050 55 da ce bd 6c 80 30 be 55 9e da bb 27 4e ff 3d
       -0.10100237 -0.17236489 -0.0066717067 0.12466078
000060 4e de d9 bd 90 95 8d bc b9 53 34 3e 25 1b 77 be
       -0.106381044 -0.017283231 0.17610063 -0.24131449
000070 62 f2 ad bd 7a 7c d7 bd b3 48 e4 bd fd f2 f7 bd
       -0.084934965 -0.10521789 -0.11146679 -0.12106893
000080 5e 75 99 3e 19 8d 98 be 5c 5b 93 bd 0d 8c 31 be
       0.29972357 -0.2979515 -0.0719516 -0.17338581
000090 bb 34 3b be d6 bc 9d 3e fb 71 a7 bd 0d 85 84 3e
       -0.18281834 0.30808133 -0.08176037 0.2588276
0000a0 22 32 b0 be 28 45 3e 3e 7a bc eb bd c6 e4 16 3d
       -0.34413248 0.18581069 -0.115105584 0.03683927
0000b0 c3 63 7f be 0c a6 97 3e fd ff c6 bd 78 67 48 be
       -0.249404 0.2961887 -0.09716795 -0.1957072
0000c0 0b 39 0e 3f 92 48 8c 3e 73 d1 a5 3d 3e 1a a3 be
       0.5555579 0.27399117 0.0809659 -0.3185596
0000d0 cc 2e 31 3e a8 99 97 be 9c 20 a9 bd d4 0d 31 bd
       0.17303008 -0.29609418 -0.08258173 -0.04322608
0000e0 0b c6 c7 3d d9 b9 8e be 89 87 a9 bd 11 7e 7d 3e
       0.097545706 -0.27876166 -0.082778044 0.24755122
0000f0 92 cf 22 be cb 81 02 bb 1f 89 77 be f4 9d cf be
       -0.15899494 -0.0019913788 -0.24173401 -0.40550196
000100 bb 22 ef 3e f4 50 6f 3e 9e e7 80 3d 87 6a 05 3f
       0.46706185 0.23370725 0.062941775 0.5211567
000110 8f e3 15 3f 34 ed e3 3d 99 66 4b 3e ba b5 4d 3e
       0.5855035 0.11129227 0.19863357 0.20088854
000120 c6 2c 69 be 7b 62 0d 3e b8 77 6f be c1 43 61 be
       -0.22770986 0.13807099 -0.23385513 -0.21998502
000130 65 92 07 3d fe 63 a4 be c8 b4 69 3e ac 27 20 3e
       0.033098597 -0.32107538 0.22822869 0.15640134
000140 1a 04 62 3e 32 15 86 be 8d 0e b0 be f3 28 b1 be
       0.22071877 -0.26188046 -0.343861 -0.34601554
000150 ee b2 1a 3c 21 2d 85 3e 05 90 6c 3d 5e df ed bc
       0.009442074 0.26010993 0.057754535 -0.029037174
000160 ee a9 a6 3e 0d 25 90 bb 8a 7e 9f be 16 23 6d 3e
       0.3255152 -0.004398948 -0.3115123 0.23157915
000170 d5 c4 80 be 1d 35 b3 bd b2 5d 31 3c 27 4b 27 be
       -0.2515017 -0.08750365 0.010825561 -0.16337262
000180 bd c7 32 be 82 a1 71 3e 36 b8 bf bc cb 40 9c be
       -0.17459007 0.23596767 -0.023403268 -0.30518183
000190 c6 6b b4 bc 74 b4 a9 3d 08 eb 7f 3e 7f ee 93 3e
       -0.022024047 0.08286372 0.24992001 0.28892896
0001a0 72 9c d5 3e a5 b9 2f be 4d b3 a7 be f5 93 90 be
       0.4172092 -0.17160662 -0.32753983 -0.28237882
0001b0 4e fb cc 3e ca 2f b0 be a5 81 19 3f c0 70 b9 be
       0.4003548 -0.3441146 0.59963447 -0.36218834
0001c0 6c cd 3e 3e 34 99 89 3e 78 b5 57 3d 4d ab 52 be
       0.1863305 0.26874697 0.052663296 -0.20573159
0001d0 59 7e a8 3e 9f a0 49 3e 9b 46 f1 3e 5d 3c 19 be
       0.32908896 0.19690178 0.4712418 -0.14964433
0001e0 35 83 76 3e aa ae b3 3d 5c e8 e9 3e 16 76 9f be
       0.24073489 0.08773549 0.4568509 -0.3114478
0001f0 f2 21 f8 3e 18 6a d1 3e c3 e0 fd 3d cc 6f 74 bc
       0.48463398 0.40901256 0.123963855 -0.014919233
000200 40 ab 03 bc d2 ba 3f 3e ad 19 25 3e 75 e5 2a be
       -0.008036435 0.1872361 0.16123076 -0.16689093
000210 17 c9 c8 3c a0 bc 78 3e a8 da a8 be db 1a 86 3d
       0.02450995 0.24290705 -0.3297932 0.06548091
000220 6a cb 45 be b6 da b1 be 90 6a 78 3e de ff 3a be
       -0.19315878 -0.34737176 0.242594 -0.18261668
000230 09 c1 61 bd af d4 83 3d 26 dc c4 3e 2a ad fc 3e
       -0.055115733 0.064370506 0.3844921 0.49350864
000240 1d e3 a8 3e f5 48 a5 3d 92 e3 d4 bd dd 10 16 3e
       0.32985774 0.08070556 -0.10394968 0.1465487
000250 c1 8f 22 be e4 84 f6 bd e7 ec 80 3e 2c 00 8e 3d
       -0.1587515 -0.120370656 0.25180742 0.069336265
000260 79 e9 b1 3c 69 01 67 3e 75 70 85 be ed 24 fb bd
       0.021717774 0.22559132 -0.2606236 -0.122629024
000270 cc 12 a2 be dc ec 27 3e db 80 44 3d f8 33 a1 3e
       -0.31654966 0.16398948 0.04797445 0.31484962
000280 07 82 d5 3b 7e 20 3d 3c f4 4f 92 3e 3d 6f 9c be
       0.0065157446 0.011543391 0.28576624 -0.30553618
000290 83 f6 89 3c 23 e2 c1 3e b7 85 c1 3e 06 2a d1 3d
       0.016841179 0.3786784 0.3779733 0.102130935
0002a0 f6 d9 68 be 4b 18 2f bd 16 12 71 3e 77 89 a7 be
       -0.22739395 -0.042747777 0.23542055 -0.32722065
0002b0 1b b1 65 3e c2 9f 71 be 6d 7a 6f be 64 3d 72 3e
       0.22430842 -0.23596099 -0.23386545 0.23656231
0002c0 ed 13 e4 3d 18 ca bf be 1c aa 94 be a1 04 50 3e
       0.11136613 -0.37458873 -0.29036033 0.20314266
0002d0 ab 4a 26 be f0 db 0e bd 53 93 8c be bb f6 9b 3c
       -0.16239421 -0.034877717 -0.2745615 0.019038549
0002e0 2d 0d 9f 3e 4a 6f ab 3d 90 04 5c be 21 82 a0 be
       0.3106474 0.08370836 -0.21486115 -0.3134928
0002f0 b6 b4 db bd 3e d3 70 3e f4 d9 38 bd ec 92 e5 bc
       -0.10727827 0.23518082 -0.04512973 -0.02802416
000300 e7 f3 0b 3f ed 07 d4 bd c1 75 03 be 42 64 93 be
       0.5466904 -0.10353074 -0.12837888 -0.28787428
000310 e7 32 a1 3d bc e7 76 3c 28 1e 93 be 38 03 1c 3f
       0.07871037 0.015069898 -0.28733945 0.6094241
000320 31 31 00 bd 5d 3a 91 3e 4f a5 06 be 26 e3 a3 3e
       -0.031296913 0.2836484 -0.13148998 0.32009238
000330 a1 7b 34 be 26 b7 41 be 73 b9 be ba 7a 58 83 3c
       -0.17625286 -0.18917522 -0.0014551118 0.0160334
000340 ab f5 f0 bd 53 fe 9e 3e d0 24 e8 be 75 1e 94 3e
       -0.117656074 0.3105341 -0.45340586 0.28929487
000350 0c 21 1c be 6f ed 6b 3d ea fa 2c be 12 94 7b be
       -0.15246981 0.05759948 -0.16892591 -0.24568203
000360 0b 67 82 be 1d ea d2 bd 0a 48 e0 3d 39 66 9d bd
       -0.2546924 -0.1029856 0.1095124 -0.07685513
000370 0a e2 89 bd e4 34 30 be 40 5d 22 be f4 8b 54 be
       -0.06732567 -0.17207676 -0.15855885 -0.20756513
000380 62 04 80 3b 85 85 f2 3b ec aa 25 3e a1 c9 89 3e
       0.0039067725 0.0074011707 0.16178483 0.26911643
000390 fe 51 37 be 17 dd 27 3f 62 6a bd 3e ae 45 8e 3e
       -0.17902371 0.6557173 0.36995226 0.27787536
0003a0 69 a1 0f be 0d 86 2c 3e db 53 be be 66 38 2d bd
       -0.14026417 0.16848011 -0.37173352 -0.042290114
0003b0 d3 b6 45 3e 6a 9e 41 be 16 95 c5 3d 72 bb be be
       0.19308023 -0.18908086 0.096475765 -0.37252384
0003c0 28 4c 72 be 0c c8 56 3e 84 0b 60 be 99 03 bd be
       -0.23661864 0.2097475 -0.21879393 -0.36916807
0003d0 b3 c2 c5 3e f1 dc 13 3e 39 70 b0 be be e6 83 be
       0.38625106 0.14439751 -0.3446062 -0.2576198
0003e0 8d 11 1a be c6 17 ae 3d 41 22 3f 3e 22 45 da bc
       -0.15045758 0.08500628 0.1866541 -0.026644293
0003f0 a3 45 52 be ab a2 6d be 05 1d 5c 3e e2 e4 76 3e
       -0.20534377 -0.23206584 0.21495445 0.2411075

encoder.input_net.0.bias f4 [64]
000000 f6 0a fe 3d 11 d7 8f 3d 0d 07 a9 be 01 3e 37 be
       0.124044344 0.070234425 -0.33013192 -0.17894746
000010 5b f5 8d 3c d9 c3 78 3d 71 f2 e1 bd 38 f5 8d be
       0.017328909 0.06073365 -0.1103257 -0.2772615
000020 20 4a ad be 89 ab bf 3e c9 b1 2f 3e f2 94 7f 3e
       -0.33845615 0.37435558 0.17157663 0.24959162
000030 dc db af be 9c a4 54 3d f2 7f 29 3c 64 58 28 3e
       -0.34347427 0.051914796 0.010345446 0.16439968
000040 83 13 af bd 69 29 fd bd 46 75 b7 be 61 5a 13 3e
       -0.085486434 -0.12361414 -0.3583166 0.14389946
000050 33 e3 c6 bd d6 0b 84 be cb d3 77 3e e3 8f 0d be
       -0.097113036 -0.2579028 0.24201886 -0.1382442
000060 d1 a3 61 3e 8e f1 74 be 6b 16 48 3e 84 c2 b2 be
       0.22035147 -0.23920271 0.19539802 -0.3491403
000070 ed 3e c0 bd 20 c5 a5 be 5e 7f cd 3e 8d a6 ef ba
       -0.09387002 -0.32376957 0.40136236 -0.0018283889
000080 4b 58 37 bc db 19 8f be c3 41 34 3e 29 63 8f be
       -0.011190484 -0.27949414 0.17603211 -0.2800534
000090 31 22 cd 3d b7 46 85 bd 29 91 1a be 9b 2f 1e be
       0.10016287 -0.065076284 -0.15094437 -0.15447848
0000a0 62 7a d7 bd 58 7e bc 3e 73 3d 87 bd 3a ad 5c 3e
       -0.105213895 0.36815143 -0.066035174 0.21550456
0000b0 de fa 2f 3c 3c 0f 06 3e 12 c6 85 3e cf b6 bf be
       0.010740964 0.13091749 0.26127678 -0.3744416
0000c0 68 50 82 3d 0f 62 b5 be 82 f6 50 3c ee 0c 33 3e
       0.063629925 -0.35426375 0.012754085 0.17485401
0000d0 35 4a 45 3e 6d 66 2c be 24 4b a1 3d d3 76 79 be
       0.19266589 -0.16835947 0.0787566 -0.24361734
0000e0 b4 e8 f2 3d 9f 01 a1 3e 17 d2 c0 be a9 a7 88 3e
       0.11860791 0.3144655 -0.37660286 0.26690415
0000f0 ce 81 bd be 66 39 df 3d cd 38 18 3b e4 9b ce 3d
       -0.37013096 0.1089962 0.0023227215 0.100883275

encoder.message_net.0.0.weight f4 [64, 64]
000000 b4 3b f3 bd 4c c8 85 3d 1e e1 9a bd 00 13 8d 3d
       -0.11876622 0.06532344 -0.07562469 0.068883896
000010 e0 de 97 bd bc a0 ab 3d 68 50 99 bc e8 e5 47 bd
       -0.07415557 0.08380267 -0.018715099 -0.04880324
000020 ea 74 cc bd 24 ef 23 3d 0e 09 a4 bd 6e 25 c0 bd
       -0.09983237 0.040022984 -0.080095395 -0.09382139
000030 58 bf a7 3c 9c ec 6d 3d 1c 4e f8 bd cc 8b 4f bd
       0.020476982 0.058086976 -0.12124273 -0.05067043
000040 a4 ab c1 bd 70 fe c1 3c 20 9f c4 3b 7c 1a 08 3d
       -0.09456566 0.023680896 0.0060004145 0.033228382
000050 36 79 fd bd e0 84 d4 bb 00 7f 17 3d ce ae ef bd
       -0.12376635 -0.0064855665 0.03698635 -0.11703263
000060 f0 36 f7 3d 00 90 6c 3d 22 c9 c1 3d c0 90 e9 3c
       0.12071025 0.057754517 0.09462191 0.028511405
000070 10 e2 8c bd 8c 46 a4 bd 7e 95 ba 3d aa 09 fa 3d
       -0.068790555 -0.08021268 0.091105446 0.122088745
000080 40 9e 9e 3c 06 2b b7 bd f6 df 8b 3d 7e 42 86 bd
       0.019362569 -0.08943753 0.068298265 -0.06555651
000090 da a5 e7 bd 40 c7 8f bb ea 06 d5 bd 30 32 e8 3c
       -0.113109306 -0.004387766 -0.104017094 0.028344244
0000a0 f0 6e e3 bd 70 7f c7 bc b4 40 38 bd fe 75 f9 bd
       -0.11105144 -0.02435276 -0.04498358 -0.12180708
0000b0 f6 4b 9f bd 00 98 45 bb e0 99 10 3c b0 fb 1c 3d
       -0.0777816 -0.0030150414 0.008825749 0.038325965
0000c0 1a bc e4 3d 52 3e da bd 00 d9 70 3c 58 ac a4 3c
       0.1116869 -0.10656418 0.014700174 0.020101711
0000d0 02 7b 86 bd 20 15 36 3c bc 7f b3 bd ac 3f 44 bd
       -0.06566431 0.011113435 -0.08764598 -0.047912285
0000e0 8c 33 05 3d 92 3d 9d bd 18 7b 95 bd 2e 7c c0 3d
       0.032519862 -0.07677759 -0.07298869 0.093986854
0000f0 40 6d e9 bc 98 0f f0 bc 96 d3 ed bd 28 a3 f3 bd
       -0.028494477 -0.02930431 -0.116126224 -0.11896354
000100 bd bc 1b bd 4d 2b 07 be 04 d3 93 bd 70 d3 22 3d
       -0.03802179 -0.13200112 -0.072179824 0.039752424
000110 7c fc 3a 3d 18 c6 5f bd 0d ab d3 bc c4 2a 81 3d
       0.045650944 -0.054632276 -0.0258384 0.06306985
000120 aa 6c c9 3d 2c f9 e2 bd f9 0b 87 bc 52 44 04 be
       0.09835179 -0.11082682 -0.016485201 -0.12916687
000130 ce 8c da bd 0a 11 03 be c7 c3 92 bd 44 96 fc 3d
       -0.106713876 -0.12799469 -0.07166248 0.123333484
000140 65 64 7d bd c4 8d c3 bc 2a 58 95 bd 74 7d b5 bd
       -0.06186332 -0.02387131 -0.072922066 -0.08861819
000150 64 60 c5 bd ff d1 12 bd 6c 60 88 3d 1b d0 c5 3d
       -0.09637526 -0.0358448 0.06659016 0.096588336
000160 0f b2 d0 bd 6c d1 1a 3d 7b aa 48 bd 4a d4 98 3d
       -0.10190212 0.037797377 -0.048990708 0.07462366
000170 30 65 49 3c d5 bc 9c 3d 83 f9 bc bc ae 7e 1a 3b
       0.012292191 0.07653204 -0.023068195 0.0023574042
000180 83 bd b0 3c 42 d4 a3 bd 9c 38 9f 3d 28 fd 84 3d
       0.021574741 -0.07999469 0.07774469 0.06493598
000190 c0 1f a2 bd 3c 36 76 3d 32 ab 93 3d da a3 c9 3d
       -0.07916212 0.060110316 0.07210387 0.09845705
0001a0 6e c4 96 3d 1a 27 a3 3c 5b 66 a9 bb 5c d5 08 be
       0.07361685 0.019916106 -0.0051696724 -0.1336264
0001b0 5e 5d f2 bd 78 fb e7 bd f4 7c b8 3d c2 0c cf bd
       -0.11834215 -0.11327261 0.09008208 -0.10109855
0001c0 c0 8d 14 bd b0 38 08 bd 69 b6 da bd 49 c5 39 3c
       -0.036267996 -0.033257186 -0.10679323 0.01133854
0001d0 46 ab 09 be fc d0 a3 bd d8 09 cc bd 38 64 8a 3d
       -0.13444242 -0.07998845 -0.09962815 0.067573965
0001e0 24 2b 0d 3d ae 7e fe bd 10 21 59 3c 91 4a 94 bd
       0.03446497 -0.12426506 0.013252512 -0.07240785
0001f0 07 38 06 3d ef a1 d4 bd 97 62 15 be e5 9b ca bd
       0.032768276 -0.10382449 -0.1458839 -0.09893016
000200 e4 bf a4 bd b6 9e ff bd d8 bf 81 bd 78 b7 ef 3d
       -0.08044413 -0.124814436 -0.063354194 0.11704916
000210 bc 86 7e bd f0 06 0d bc fe ba db bd 54 d6 ca bd
       -0.06214021 -0.008607611 -0.10729025 -0.09904161
000220 64 f6 19 3d 00 a7 03 bd d2 e8 b7 bd ae 65 fb 3d
       0.037588492 -0.032141685 -0.08979954 0.12275253
000230 58 93 dc bd 58 83 9f bd 44 cc f6 bd f2 ca b1 3d
       -0.10770291 -0.07788724 -0.12050679 0.08681287
000240 90 9f 9a bd f8 f2 be bd 30 56 be 3d a0 fc 70 bc
       -0.075499654 -0.09323686 0.09293783 -0.014708668
000250 58 57 af bc 2c 23 e5 3d 60 20 07 bc 60 c3 99 3b
       -0.021403953 0.11188349 -0.008247465 0.00469248
000260 a0 59 ac bd e4 b1 10 3d c8 9f 73 bd 26 96 d7 3d
       -0.08415532 0.0353259 -0.05947855 0.105266854
000270 fe a8 a7 3d 9c 29 19 3d c4 d5 ae bd 8a 18 ac 3d
       0.081865296 0.037393197 -0.08536866 0.08403118
000280 48 f5 bc 3d a0 d3 a4 3d c0 8b f4 bd 60 ad 30 bd
       0.09226471 0.08048177 -0.11940718 -0.043134093
000290 ec eb 7e bd c0 46 5d bb 5c 0a cf 3d de db c2 bd
       -0.06223671 -0.0033764094 0.10109398 -0.095145926
0002a0 90 28 35 3d 54 06 49 bd 00 ec b5 bd 08 80 e1 bd
       0.044228137 -0.0490783 -0.08882904 -0.11010748
0002b0 d0 24 f6 bc 1e a1 90 3d 20 a8 49 3d 74 66 d1 bd
       -0.03004685 0.07061981 0.049232602 -0.102246195
0002c0 6a 9d 8b 3d 64 ea de bd 9c f9 4d 3d ac 75 21 bd
       0.06817134 -0.1088455 0.050286874 -0.03941886
0002d0 28 95 78 bd 94 6c 80 3d 30 08 3f bd 1a 19 ca bd
       -0.06068912 0.0627071 -0.046638668 -0.09868069
0002e0 ec b7 c9 3d 64 90 34 bd 68 90 f3 bd a2 06 86 3d
       0.098495334 -0.044083014 -0.11892778 0.06544234
0002f0 48 3b 0c 3d 80 79 e7 bc b4 6a 6c 3d be a9 da bd
       0.034236223 -0.028256178 0.057718948 -0.10676907
000300 0c 79 80 bc 8c c7 96 bc 10 10 94 bc c0 d6 ab bd
       -0.01568272 -0.018405698 -0.018074065 -0.0839057
000310 4d 04 30 3c 82 51 11 be bd 3e 00 be d8 ac 90 3c
       0.010743213 -0.14191249 -0.12523933 0.017660543
000320 14 a9 bb bd 75 a8 a8 bc 11 8c 07 bd f3 8e bf 3c
       -0.091631085 -0.02058814 -0.033092562 0.023383593
000330 aa fe 1a 3b 71 e1 05 bc dc f6 f7 bd d7 f7 33 bd
       0.0023650327 -0.008171425 -0.121076316 -0.04393753
000340 2d 39 4c bd 67 99 6a bd 56 4e c9 bd 82 d3 14 bd
       -0.049859215 -0.057275202 -0.098293945 -0.036334522
000350 94 80 ac bd c6 84 63 bd 3f cc 27 3b 5b e3 ff bd
       -0.08422962 -0.055546544 0.0025603918 -0.124945365
000360 7a 22 b1 bd 59 51 91 3d 53 88 6b 3d 5f ec 25 bc
       -0.08649154 0.07095594 0.057503056 -0.010127156
000370 74 d5 b6 3d fa 83 8f 3d c8 c3 a3 bb e5 a6 c8 3c
       0.08927432 0.070075944 -0.004997704 0.024493644
000380 06 8f 18 bd 7e a2 e0 bd 10 c4 b5 3d 80 c5 64 3d
       -0.037245773 -0.10968493 0.088752866 0.055852413
000390 81 ce e5 3c 0a 3a 8b bd b0 1c bf bd 80 fc ab 3a
       0.02805257 -0.067981794 -0.093316436 0.0013121516
0003a0 68 99 11 be bb 0e 1c 3c b0 23 ef bd 84 15 5b bd
       -0.14218676 0.009524996 -0.11676729 -0.053487316
0003b0 35 00 c6 bd b5 33 6b 3c 98 e7 c0 bd 94 e8 6e 3d
       -0.09668008 0.01435559 -0.09419173 0.058327273
0003c0 b6 55 d7 bb 7a 1f fa bd ba f5 36 bd 62 c2 ed 3c
       -0.006571497 -0.12213035 -0.044667937 0.029023353
0003d0 be 6a 9c bc 60 2b a1 3b 17 82 a2 bd 3b 4f 9a bd
       -0.019093867 0.004918501 -0.07934969 -0.07534643
0003e0 69 51 00 3d e2 d5 18 3d 00 58 6a b9 8b 2f a5 3c
       0.03132764 0.03731335 -0.00022348762 0.020164272
0003f0 62 51 ca bd 3d ad 1c 3d 49 04 2c bd f9 18 09 3d
       -0.09878804 0.03825115 -0.041996274 0.03347108

encoder.message_net.0.0.bias f4 [64]
000000 00 b6 17 bd 94 f5 34 3d 4c 52 2e bd 8c 39 15 be
       -0.037038803 0.044179514 -0.042558953 -0.14572734
000010 e3 cf 6f bd 33 43 86 3d 01 81 aa bd 56 55 27 3e
       -0.058547866 0.06555786 -0.08325387 0.16341147
000020 d1 58 7d bd 7c b4 1f 3e 69 08 f2 3d b8 ed 1a 3d
       -0.06185228 0.15596193 0.1181801 0.037824363
000030 08 1f c5 3d da b5 e4 bd 84 51 7c 3d 8e e6 ca bd
       0.09625059 -0.11167498 0.061601177 -0.09907256
000040 50 c3 df bc fe 5f bc 3c 78 06 4e bd 23 25 b5 bc
       -0.027314812 0.022994991 -0.050299138 -0.022112435
000050 8d cd f7 bd c1 9b c9 3c ae c2 88 bd a2 1e a3 bd
       -0.120997526 0.024610402 -0.06677757 -0.07964827
000060 60 2c 0f 3d 36 d8 0a be 6a 9c 0d 3e 79 d0 76 bc
       0.03495443 -0.1355904 0.13829198 -0.015064352
000070 62 89 91 3d f0 d6 17 ba 32 ae cf bd af 63 d3 bd
       0.07106282 -0.0005792221 -0.10140647 -0.103217475
000080 30 a5 7b bd bb 3e e4 bd 1e 90 7f 3b 09 8d c3 bd
       -0.061436832 -0.111447774 0.0038995813 -0.09548385
000090 d5 0b 27 ba d5 0c e3 bd 93 19 4b bd 2c 65 b1 bd
       -0.00063723075 -0.11086432 -0.049584936 -0.08661875
0000a0 a4 53 88 bb 13 c8 2c 3e 99 6a 21 3d 80 a5 52 bd
       -0.0041603614 0.16873197 0.0394083 -0.051427364
0000b0 9a a0 d3 bd 98 7b e5 3d 54 3f 8c bd f0 e3 ef bc
       -0.10333367 0.11205214 -0.068480164 -0.029283494
0000c0 ac 36 0a bd 56 c9 b1 bd 56 63 01 3e f9 8d 52 be
       -0.033743545 -0.0868098 0.1263555 -0.20561971
0000d0 37 7a 4b 3d 5d 85 0e 3e 85 43 42 bd 1a 7b f6 bd
       0.0496771 0.13918062 -0.047427673 -0.120351985
0000e0 8e 5c 47 bd b7 c2 bf bd 71 cb e8 3a 0d 89 45 3d
       -0.04867225 -0.09363311 0.0017760826 0.048226405
0000f0 ab 8b 18 3d dd e5 4b 3d 8d ff fc 3d bb 4e 1a 3e
       0.037242573 0.04977976 0.1235343 0.15069096

encoder.message_net.1.0.weight f4 [64, 64]
000000 27 46 03 ba 5c 7c 4e 3d 09 ef 0d bd f4 ba 7d bd
       -0.0005007707 0.050411567 -0.03465179 -0.06194587
000010 5b cd aa bd da 94 63 bd 60 62 0d 3d b4 a1 11 3d
       -0.0833995 -0.055561878 0.034517646 0.035554603
000020 f1 64 6a 3d f1 66 ee 3c dd 4b f4 bd 2e 5b 8e bc
       0.05722517 0.02910182 -0.11928532 -0.017377462
000030 b0 94 50 be 7f c1 44 bc 87 d4 64 bd 28 b2 0c bc
       -0.2036922 -0.012009024 -0.055866744 -0.008587398
000040 2d 71 46 3d 23 73 d6 3b 7a 3e 0e be 05 10 70 3d
       0.048447777 0.006544487 -0.1389102 0.058609027
000050 5a bb c3 3c 7e 6a 50 bd dc bf 67 3d ed 94 15 bc
       0.023893047 -0.05088281 0.056579456 -0.009129745
000060 80 5b b8 3d f0 6f 0f 3e 5b 26 f4 3c ec ef 06 be
       0.09001827 0.14007545 0.029803446 -0.1317746
000070 5d 84 dd bd 40 e8 ad 3c 73 c2 3a be dc e5 51 3d
       -0.10816262 0.02122891 -0.18238239 0.0512446
000080 72 0b 67 3b 53 ba 4a 3d 49 87 e2 bb f1 33 15 3e
       0.0035254625 0.0494941 -0.0069131 0.14570595
000090 06 24 27 be 77 d1 d4 bd af be 92 3d 9b 59 ef bc
       -0.16322336 -0.10391515 0.07165276 -0.029217532
0000a0 a9 e5 4d 3e 40 96 79 3d 98 2a b1 bb 0b 53 07 be
       0.2010714 0.060934305 -0.005406689 -0.13215272
0000b0 ad 63 7a 3b 01 ad 8d bb bc 73 0d bc 06 4b b9 bb
       0.0038206384 -0.004323602 -0.00863355 -0.0056546954
0000c0 80 56 90 bd bd 91 8c bc 8f 57 7e 3d 3c e9 15 be
       -0.070477486 -0.017159337 0.06209522 -0.14639753
0000d0 33 c9 5c 3d 13 87 c4 bd a5 5c 6c 3d 11 5f 00 be
       0.053902816 -0.09596076 0.05770554 -0.12536265
0000e0 d2 aa 1e bd a2 45 0f bd b3 b3 a5 3d 33 a7 aa bd
       -0.038737126 -0.034978516 0.080909155 -0.08332672
0000f0 ce ed b4 bd 56 3b 2a 3d c5 d3 bb bc 99 cf cf bc
       -0.0883442 0.041560493 -0.022928128 -0.025367545
000100 89 4b 90 3e ca 6e 65 be ad ec 15 be a1 44 05 be
       0.2818263 -0.22405544 -0.14641066 -0.13014461
000110 d1 f4 12 be ff 51 46 3e d8 ab 65 bd 78 d2 81 bd
       -0.14351203 0.19367217 -0.056072086 -0.06338972
000120 74 e0 b9 bd 6c f7 e1 bd 3e 55 cf be 3e 71 85 3d
       -0.09076014 -0.1103352 -0.40494722 0.0651574
000130 6a a4 ba 3c e1 73 85 be 3b 5b 12 be e4 88 12 be
       0.022783477 -0.2606497 -0.14292614 -0.14310032
000140 34 2c 4b be 58 fa 00 3d 02 92 81 3d db 53 66 bd
       -0.19841081 0.031488746 0.06326677 -0.056232315
000150 c5 65 8e 3c 88 3c 7f be 56 4e fc bd cd 6f 98 bd
       0.017382512 -0.24925435 -0.12319629 -0.07443199
000160 22 30 f3 bc 2e 4a 8f 3d 16 a9 78 bc 00 d2 67 3d
       -0.029686037 0.069965705 -0.015177032 0.056596756
000170 9a 7f ca 3d 1b be 1c 3e b8 57 af 3d e6 cb 99 bd
       0.09887619 0.15306894 0.08561653 -0.07509594
000180 fe f8 48 bd 30 dc 03 bc 55 db 87 bd 11 38 37 be
       -0.049065582 -0.008048102 -0.06633631 -0.17892481
000190 51 39 91 3e fd 08 bc 3d 3f 9d 36 3d 7d ac b3 be
       0.2836404 0.09181402 0.044583555 -0.35092536
0001a0 72 e7 2f 3e 17 f2 0e be 3c 07 0e be b3 d2 e7 bc
       0.17178133 -0.13959537 -0.13869947 -0.028298711
0001b0 7d 5a e4 bd a3 dc 94 3e 29 58 6c 3d 53 65 c3 3e
       -0.11150072 0.29074582 0.057701264 0.38163242
0001c0 92 9d e5 3b 34 10 0a 3e 66 34 97 3d 03 86 88 be
       0.0070073092 0.13482744 0.07383041 -0.26664743
0001d0 10 79 97 3e ec f1 5e 3e 44 1e 7d bc 0c 93 ee 3d
       0.2958455 0.21771973 -0.01544911 0.11649141
0001e0 94 c9 14 be 7d 9b cc 3c 46 b0 fb 3d 92 58 b6 be
       -0.14530021 0.024976486 0.12289481 -0.3561445
0001f0 7d 4f c1 bd 2f 90 44 be 31 4a 46 be 7e b7 31 bd
       -0.09438989 -0.19195627 -0.1936424 -0.043387882
000200 a7 6c 1e 3e cf ce e2 bd 76 65 01 3e aa 97 ea bd
       0.15471135 -0.11074602 0.1263636 -0.11454709
000210 d2 62 73 be bb f4 0a bd 1d e1 a3 3c 9f 37 84 3e
       -0.23768166 -0.0339248 0.020004803 0.25823686
000220 ca 92 00 be 60 09 6a be a8 ad 1a be bc 87 97 bd
       -0.12555996 -0.22855139 -0.15105307 -0.07398936
000230 26 8b a7 be f0 d0 b9 3b f1 86 89 3b 0c 84 b2 3c
       -0.3272335 0.0056706592 0.0041969945 0.02179148
000240 66 65 d2 3d 8d 13 a5 bd b2 47 bc bc a4 65 c9 3d
       0.102732465 -0.0806037 -0.022983406 0.098338395
000250 c6 94 a8 3d ab b8 24 be e9 4c 3d bd cf c0 b4 3d
       0.08231501 -0.1608607 -0.046215925 0.08825838
000260 03 eb 05 3e d5 1a c3 3b 40 39 d7 3c 70 b2 5a be
       0.13077931 0.0059541264 0.026272416 -0.21357131
000270 d9 c2 74 bc e7 a5 a6 bd ca 6b 4d be 6a 64 90 bd
       -0.014939033 -0.08137112 -0.2006065 -0.070504025
000280 20 41 a2 bd 17 27 b0 3c 9c d8 91 3d 86 e3 94 3e
       -0.07922578 0.021503014 0.07121393 0.29079837
000290 db ea a0 bc 8e ff 8d bd 6f 44 a4 b9 c3 c1 36 bd
       -0.019643238 -0.06933509 -0.00031331505 -0.04461838
0002a0 1e 27 7e be 0e d5 62 3c 36 f2 47 3d 64 d4 01 be
       -0.2481961 0.0138447415 0.048814975 -0.12678677
0002b0 b4 90 ec 3d 72 83 3e be 98 3a 83 bd 9d 96 f0 bd
       0.115510374 -0.1860483 -0.0640766 -0.11747477
0002c0 e3 07 06 be 56 8c f6 3d 7b 51 e1 3d 59 ea 2e 3e
       -0.13088946 0.12038486 0.11001869 0.17081584
0002d0 37 fb 74 3d 6f e5 50 be a0 47 43 be 5d 21 1a be
       0.05980989 -0.20400022 -0.19070292 -0.1505179
0002e0 29 1f 6f be ac 13 dd bd 77 24 a2 be 19 f2 44 bc
       -0.2335173 -0.10794768 -0.31668445 -0.012020611
0002f0 fc 28 5d be 41 a3 30 bc 0d 9e 04 bd 2f 05 fc bc
       -0.21597666 -0.01078111 -0.03237729 -0.03076419
000300 84 f8 53 3e 53 9a 26 be 4b 3c 93 3d 69 4e b3 be
       0.2070027 -0.16269808 0.07189234 -0.3502076
000310 71 68 9e bd 77 8f 42 be 53 38 72 be c3 2a c5 bc
       -0.07734764 -0.1900004 -0.23654298 -0.024068242
000320 c2 43 09 be 2f 5b ec 3d bc 58 d2 bc c4 25 29 3e
       -0.13404754 0.115408294 -0.025677077 0.16518313
000330 2b 61 09 be f9 a1 a8 be 5b ed 1c be 76 e3 8a 3e
       -0.13415973 -0.32936075 -0.15324919 0.27126664
000340 ea d3 e1 3c c0 d2 0d 3e 83 77 9e 3d 3e eb 2d be
       0.027566869 0.13849926 0.07737639 -0.16984269
000350 01 73 11 3e 8f c7 da bc e3 32 26 3e b8 ce 20 be
       0.14204027 -0.026706485 0.16230349 -0.15703857
000360 3e bd 3f bc 23 61 0a 3e 6b 66 0c 3e 7b 81 8e bd
       -0.011702834 0.13513617 0.13710944 -0.0695829
000370 1d f2 67 3e bd 32 28 3e 85 54 e7 3d f0 d2 5c 3d
       0.22650953 0.16425605 0.11295418 0.053912103
000380 6a 76 26 be c0 82 17 be 05 52 c0 bd db d3 48 3d
       -0.16256109 -0.14795971 -0.09390644 0.049030166
000390 2d 69 cb 3d 89 44 49 3e ee 8a 60 3e 6e 8d d5 be
       0.0993217 0.1965505 0.21927997 -0.41709465
0003a0 3e 75 a9 be 26 b5 ab 3d c6 07 c7 be 43 b5 ce 3d
       -0.3309726 0.08384161 -0.38873118 0.10093167
0003b0 c9 06 82 be a1 83 34 3e 55 9c 63 3e 2f 36 9c 3d
       -0.25395802 0.17628337 0.22227605 0.07627522
0003c0 dd ba 46 be 89 b9 90 be bc ed 61 bd 5c 9a 00 3d
       -0.1940722 -0.28266552 -0.05515836 0.03139721
0003d0 d5 77 0f 3d a0 2c 10 3e 59 89 ca 3e 75 75 44 be
       0.03502639 0.14079523 0.39557913 -0.19185431
0003e0 7e 6f 99 ba c3 35 b2 bd 9e 70 a3 bc c3 e0 2c 3e
       -0.0011706201 -0.087016605 -0.019951161 0.16882615
0003f0 e7 a2 de 3d 2c e0 06 be 11 02 f0 3d 46 33 8e bd
       0.10870915 -0.13171452 0.11719144 -0.069433734

encoder.message_net.1.0.bias f4 [64]
000000 9b b2 2d be 60 df 7d be b3 4e b1 bd 7d e5 78 bd
       -0.16962664 -0.24792242 -0.08657589 -0.060765732
000010 bf e8 02 be c3 15 e7 bd a1 11 da bd 9e 20 aa 3d
       -0.12784098 -0.112834476 -0.10647894 0.083070025
000020 50 7a a5 bd f9 b8 81 3d 51 74 66 bd 53 b2 32 be
       -0.0807997 0.06334109 -0.05626327 -0.17450838
000030 ff ca 23 be 9d f1 4a bd 08 35 c6 bd 8a de 52 bd
       -0.15995406 -0.049546827 -0.09678084 -0.05148176
000040 41 6d 12 3d 62 7a de bd 70 ea 72 bd 9c 77 d3 bd
       0.035748724 -0.108631864 -0.05930561 -0.10325548
000050 23 04 06 be 32 24 1b be 3a 40 05 be b1 c3 4d be
       -0.13087516 -0.15150526 -0.13012782 -0.20094182
000060 ef 84 1b be d4 a0 d7 bd 1c 0f 8f 3d 30 29 27 be
       -0.15187429 -0.105287224 0.06985304 -0.16324306
000070 c4 24 40 bd e5 75 01 be 0e 92 34 bc e4 8e 3e be
       -0.046910062 -0.1264263 -0.01102115 -0.18609196
000080 a4 b7 0a be 2a c1 a5 3c 81 c5 0c 3d 72 aa 09 be
       -0.13546616 0.02023371 0.034368042 -0.13443926
000090 11 7c 88 bd b5 d8 1c be d6 fd 5e bd d0 7e b8 bd
       -0.06664289 -0.15317042 -0.054441296 -0.090085626
0000a0 15 9c 20 be 47 f2 81 bd 96 16 2c bd ef 1b 11 be
       -0.1568454 -0.06345039 -0.042013727 -0.14170812
0000b0 75 90 bf bd b6 72 51 bd 93 a0 14 bd 3c bd 1c be
       -0.09353725 -0.051134787 -0.036285948 -0.15306562
0000c0 2b e2 1d be 16 0c e9 bd 0d 42 15 be 87 41 b0 bd
       -0.15418307 -0.11379258 -0.14575978 -0.08606248
0000d0 60 be 05 3e 82 4d cc bd 8e 7d 2d be e5 70 d0 bd
       0.13060904 -0.09975721 -0.16942427 -0.10177783
0000e0 d1 57 87 bd 2e 44 8b 3d 9a 8d 62 bd 82 3d a6 bd
       -0.066085465 0.068001136 -0.055310823 -0.081172004
0000f0 47 86 ed bd 22 93 50 bb 13 37 30 bd 63 1c b9 bd
       -0.11597877 -0.003182598 -0.043021273 -0.090386175

encoder.message_net.2.0.weight f4 [64, 64]
000000 fe 51 f8 3d 6e 21 26 be 35 96 3a bd 6b 6a c2 ba
       0.12125014 -0.1622369 -0.045553405 -0.001483274
000010 17 e7 97 bc 0f a5 69 3d b8 9e 19 bd 9a 4e 0e be
       -0.01854281 0.057042178 -0.03750488 -0.13897172
000020 08 09 2a be 3a 2b e1 3c 03 0f 64 bd 60 f4 aa bd
       -0.16605008 0.027486432 -0.05567838 -0.08347392
000030 22 d0 57 bc 3e c5 c0 bd 53 c3 1f bd 1f c2 1c be
       -0.013172181 -0.09412621 -0.039004635 -0.15308426
000040 63 30 83 bd 29 89 a8 bd ee cc b3 3d 9c 89 cc bc
       -0.064057134 -0.08229286 0.087793216 -0.024967961
000050 24 3b d6 bd e6 9d 5a 3d 1d f5 0b 3e f0 1e d0 3c
       -0.10460499 0.05337324 0.13667722 0.025405377
000060 b8 6d 2b 3b a3 60 3d 3c 08 b8 0a be 7f c5 61 3d
       0.0026157927 0.0115586845 -0.13546765 0.055119988
000070 7c 9e 97 3d d4 35 b5 bd 6f 12 4d 3d 92 ac 29 bc
       0.07403275 -0.088481575 0.050066408 -0.010356085
000080 d6 c8 c3 3c d9 94 e6 bd 61 59 eb bd d4 ea a7 bd
       0.023899477 -0.11258859 -0.11491657 -0.08199087
000090 96 9d 68 3c 4a 15 1e 3c 07 be cd 3d 4f a8 a3 3d
       0.014197728 0.00964863 0.100460105 0.07991087
0000a0 e2 6b 2e 3d 74 50 0d be 5d 62 28 3d 35 f1 59 bd
       0.042583354 -0.13800222 0.04110943 -0.05320855
0000b0 4a 89 f4 3d 37 68 06 3d e1 0a 0d 3e 81 7b b0 bd
       0.11940248 0.03281423 0.13773681 -0.086173065
0000c0 a4 44 0c 3d 53 d2 e5 bc 11 9c af bc 01 bf 42 3d
       0.03424515 -0.028054392 -0.021436723 0.047545437
0000d0 44 d3 f4 bd e4 15 26 3d 53 78 f0 3d 0e 08 ab 3d
       -0.11954358 0.04054822 0.117417 0.08351146
0000e0 8a 9d 78 bd 16 7f 34 3d dc bd e0 3d 8f 60 60 bd
       -0.060697116 0.04406651 0.10973713 -0.054779585
0000f0 81 62 e0 3d 36 2b f6 bc cb d8 48 bb f9 60 0e 3e
       0.10956288 -0.030049901 -0.0030646797 0.1390418
000100 a5 02 a1 3d 4b 8e 4b bd 22 87 63 be 9e 17 05 bd
       0.078618325 -0.049696248 -0.22219518 -0.032493226
000110 1c 53 9a bc 30 26 fc bc c0 7a b0 3d 1a c5 cd bd
       -0.018838458 -0.030779928 0.08617163 -0.1004736
000120 80 63 ac 3d cb 79 f8 3d 65 ed 9d bb d9 e7 89 bd
       0.084174156 0.12132605 -0.0048195594 -0.067336746
000130 af a6 ae bb df 25 91 bd ce e2 26 bc 3b 27 7c 3d
       -0.005329929 -0.070873015 -0.01018591 0.06156085
000140 68 7e 00 3e cd d9 4d bd c7 f4 c8 bc 53 27 0c be
       0.1254822 -0.05025654 -0.024530781 -0.13686876
000150 15 fd 25 be e8 3e e2 bc b5 13 0c 3e c2 27 bb 3d
       -0.16209824 -0.027617887 0.13679393 0.091384426
000160 26 1d b6 3d 06 7f 1e be 76 40 07 bd 95 c5 a8 bd
       0.088922784 -0.15478143 -0.03302046 -0.08240811
000170 80 d0 84 3d 1b 2e 23 bc 54 b3 29 3c e3 3d ae 3d
       0.06485081 -0.009959723 0.010357697 0.08507898
000180 fc 2b d9 bd 50 e5 a6 bd 59 c4 22 be e7 ea 4a bb
       -0.106040925 -0.08149207 -0.15895213 -0.0030962767
000190 ab 6a 1f bd e8 c3 ba 3d c7 46 14 3e 37 88 8a 3d
       -0.038920086 0.091193974 0.14480124 0.06764262
0001a0 dc f4 25 3d 2f 99 b9 bd f5 0b 47 bc d3 49 fe 3d
       0.04051672 -0.090624206 -0.012148847 0.124164246
0001b0 58 95 04 3c 9a 49 6c bd 95 68 ed 3d 29 fe ac bd
       0.008092247 -0.05768738 0.11592213 -0.08446915
0001c0 26 96 08 3e 07 c9 8b 3c 00 e1 75 bd 2b a0 de 3d
       0.13338527 0.01706363 -0.06002903 0.10870393
0001d0 41 52 79 bd 2f 79 72 bd d7 6b 7d bd d5 c5 30 bd
       -0.06086946 -0.0591976 -0.061870422 -0.043157417
0001e0 10 53 67 bd 82 8a 0a be a0 6f 80 3d e8 47 d7 3d
       -0.0564757 -0.13529399 0.06271291 0.10511762
0001f0 1c 3c d4 3d 20 db 86 bd ea ab 3b be 01 d6 08 3e
       0.103630275 -0.065847635 -0.18327299 0.13362886
000200 6b 4a 78 be 60 0f 29 be bb 40 18 3d 4d 0e e7 3c
       -0.24247138 -0.16509771 0.037171107 0.028205061
000210 bc 62 21 3c 87 72 dc bd 47 75 7d 3e e4 fb 71 be
       0.0098502 -0.10764032 0.24751769 -0.23631245
000220 77 fd 10 be 18 b4 0f 3e de 4c 07 3d 73 eb de 3c
       -0.14159189 0.14033544 0.03303229 0.02721188
000230 fa 1d ac bd 19 e6 23 be 81 5c c0 3d d3 31 a2 3e
       -0.08404155 -0.16005744 0.09392644 0.31678638
000240 f9 0e 39 be 4f 8c 09 3e e3 61 84 3e 90 9b 89 3d
       -0.18072118 0.1343243 0.25855932 0.06719124
000250 82 d5 3b be bf 09 5a be bd 26 6e bd b4 9c 70 3e
       -0.18343166 -0.2129278 -0.058142412 0.23497277
000260 e6 69 01 be c5 6a 52 be 1c f3 06 bf 6e da dc 3c
       -0.12638053 -0.20548542 -0.52714705 0.026959624
000270 69 57 3d be 0d 75 ab bd 00 af 98 3e 01 72 63 3d
       -0.18490376 -0.08371935 0.29821014 0.055528644
000280 d3 ee 77 be 5c 08 8c be cc 3a 26 be 53 b9 1e 3d
       -0.24212198 -0.27350128 -0.16233367 0.038750958
000290 90 c1 cd be 74 f7 d4 be d6 a8 ab bc 88 99 da bd
       -0.4018674 -0.41595042 -0.02095453 -0.10673815
0002a0 50 21 71 3e 52 e7 ef bc 3f db 27 bd 2c 90 28 3e
       0.23547864 -0.029285107 -0.040980574 0.16461247
0002b0 56 b7 d0 3c 88 fd d6 be 77 0a 96 3e a2 ab 09 3e
       0.025478046 -0.41990304 0.2930486 0.13444379
0002c0 b7 f5 3e bd 0c f5 85 3d d7 0d 80 be 91 aa d9 3d
       -0.04662105 0.065408796 -0.2501056 0.10628236
0002d0 e5 ff 25 bf a3 3b 76 3d 2d 54 66 3e ed b4 2b 3e
       -0.6484359 0.060115468 0.22493048 0.16768236
0002e0 a2 f3 4c bd 86 4d b9 bd 3e 6f e7 bd 2e e5 0e be
       -0.050037034 -0.090479895 -0.11300515 -0.13954613
0002f0 d2 3c fd bd 33 6d f1 3d 36 39 a1 3e 60 ca 16 3d
       -0.12365116 0.11788406 0.3148896 0.036814094
000300 bd 2b ae 3e 20 ab 26 be 63 e8 1d 3d 08 a1 c4 be
       0.34017745 -0.16276217 0.0385517 -0.38404107
000310 56 fa 22 be d0 56 4e be e9 b0 b3 3b 3c 6c 70 3e
       -0.15915808 -0.20150304 0.005483736 0.23478788
000320 34 f5 62 3e b6 9f 17 3e 46 50 b9 3c a0 df 4c 3e
       0.2216385 0.14807019 0.022621285 0.20007181
000330 c0 9d 18 be ec 3b 7c be f2 a5 1b be 4c c9 a6 3e
       -0.14903927 -0.24632233 -0.15200022 0.32575452
000340 79 62 4d 3e c1 d4 4c 3e 1c c8 fb 3d ba fb 58 3e
       0.20057096 0.20003034 0.12294027 0.21189776
000350 95 97 80 3e c9 fe 81 3e 68 f5 dd 3e 70 bb 15 bd
       0.25115648 0.25389698 0.43351293 -0.036555707
000360 a7 a3 2b be cd 2e 10 be b4 c3 e8 3b ed 70 08 be
       -0.16761647 -0.14080353 0.0071034078 -0.13324328
000370 c9 da cf 3e 26 e7 75 3e d1 5c 64 3d 62 b8 ab 3e
       0.40596607 0.24013957 0.05575258 0.3353911
000380 4c de de 3d 89 19 d5 be 5e f9 27 3e 81 7a 8e bd
       0.108822435 -0.41621044 0.1640372 -0.069569595
000390 51 ac b2 bd 39 40 05 3f 66 70 ab 3e 6f d8 6f 3d
       -0.08724273 0.5205112 0.3348419 0.058556017
0003a0 e0 92 42 be 0d a8 c3 bd bc 90 2a be 12 67 c4 3e
       -0.19001341 -0.095535375 -0.16656774 0.38359886
0003b0 a5 e5 55 be 2e 35 e4 3d bc 43 25 be 37 a7 18 be
       -0.20888384 0.11142956 -0.1613912 -0.14907537
0003c0 a5 51 97 3a c2 20 c8 3e 01 d6 0f be 7f 8c 9c 3e
       0.0011544718 0.39087492 -0.1404648 0.3057594
0003d0 69 8a 18 3e f4 08 70 bd 02 af 37 3e 57 37 ac be
       0.1489655 -0.05860229 0.17937854 -0.3363597
0003e0 4c 3a dc bd 93 21 b0 bd 7b f5 2f 3d c7 fa 11 3e
       -0.10753307 -0.08600154 0.042958718 0.1425582
0003f0 56 a8 12 3e 74 dd 1e be 95 cb 43 be 4f 48 97 be
       0.14322028 -0.15514165 -0.19120629 -0.29547355

encoder.message_net.2.0.bias f4 [64]
000000 f1 7b 2f be c0 da 39 be 97 c2 88 3c 3b 2e ab 3c
       -0.17137124 -0.18149853 0.01669435 0.020896068
000010 d5 c7 f7 bd f7 b2 10 be c6 a7 22 be c1 4b 3c be
       -0.12098662 -0.1413077 -0.15884313 -0.18388273
000020 53 89 80 be 80 43 e1 3d f4 a8 ef bd 5b 49 63 bd
       -0.2510477 0.10999203 -0.11702147 -0.05548988
000030 e8 e2 cb 3d ba b1 cb bd 94 16 8a bd 91 a8 60 bd
       0.09955388 -0.09946008 -0.06742588 -0.054848257
000040 d5 bc 0d be 45 a0 20 3d ec b3 1e be c7 d3 35 3d
       -0.13841565 0.039215345 -0.15498322 0.04439142
000050 d1 be a4 bd 04 81 e9 bc c0 c0 24 be 5e 2b 2a be
       -0.08044208 -0.028503902 -0.16089153 -0.16618106
000060 c1 24 ec bd f5 dc 2a be 70 e1 03 bd a7 b0 37 be
       -0.11530448 -0.16685851 -0.032197416 -0.17938481
000070 f9 ec 11 3e 10 63 29 be 3b 44 10 bd 2d a2 14 be
       0.14250554 -0.16541696 -0.03522132 -0.1451499
000080 cf c9 e9 bd b8 f3 f2 3d 3b 87 1e 3e 56 76 a0 bd
       -0.11415445 0.11862892 0.15481274 -0.07835071
000090 ec 26 7a bd 74 5e 19 be 8e e7 7f bd 04 6c 41 bd
       -0.061072275 -0.14977437 -0.062476687 -0.047222152
0000a0 2d 37 13 be 45 3c 00 be 90 7d 30 be f7 f2 85 bd
       -0.14376517 -0.12522991 -0.17235398 -0.065404825
0000b0 15 04 04 be 5d a1 d8 bd 24 57 33 be b1 10 70 be
       -0.12892182 -0.105776526 -0.1751371 -0.23443867
0000c0 b4 cc f7 3c 8e 88 74 3d c5 c8 36 be e0 80 1d be
       0.030248977 0.05970054 -0.17850025 -0.15381193
0000d0 51 48 1d 3e 32 95 90 bd 6f b2 12 be 7f 89 4b be
       0.15359618 -0.07059707 -0.1432588 -0.1987667
0000e0 2c a7 fe bd df 78 69 bd 8d 16 e8 bd 06 59 26 be
       -0.12434229 -0.057000037 -0.11332426 -0.16244897
0000f0 65 e1 2b be 38 46 dd bc c1 df 21 be 4e 7c 99 bd
       -0.167852 -0.027011022 -0.15808012 -0.07494412

encoder.message_net.3.0.weight f4 [64, 64]
000000 8a b3 ce 3d 65 d1 69 3d bb a5 57 bd 7b b7 79 3d
       0.10092838 0.05708446 -0.052648287 0.060965996
000010 73 c0 43 3e 0e 73 57 be 89 7f bc bc ba 47 09 3e
       0.19116382 -0.21039984 -0.023010032 0.13406268
000020 ea 83 d2 3e b7 a5 82 be dd cc df bd 05 e7 36 be
       0.41116267 -0.25517055 -0.109277464 -0.17861564
000030 5d ba 21 bd 72 df 0e be 87 e4 e6 3e 98 df 2d be
       -0.03948437 -0.13952425 0.45096228 -0.16979825
000040 b8 d5 c5 be d5 c1 8a be 04 f5 b6 3b ed 07 15 be
       -0.38639617 -0.27101007 0.0055834074 -0.14553805
000050 94 d4 30 3e b3 41 a1 bc cc e1 98 bd 49 6f 91 3e
       0.17268592 -0.019684648 -0.07464942 0.28405216
000060 9c 1b a0 bd ed fa 9a bd 03 85 13 3e 84 b7 8c be
       -0.07817766 -0.075673915 0.14406209 -0.2748376
000070 57 97 2f 3d a1 3d c2 bd f5 1e 2a be bf f7 9c bd
       0.04286894 -0.09484411 -0.16613372 -0.07664441
000080 2c 41 a2 3d de 85 f2 3c 6b 40 c7 3d 9b 7a 29 3e
       0.07922587 0.029604848 0.097290836 0.16550677
000090 34 56 b1 be 95 ab 75 3d 80 9e e3 3d 1a b8 41 3d
       -0.3463608 0.059978087 0.11114216 0.047294714
0000a0 29 b7 76 3e 9c 3a 39 3e c9 56 c2 3c 50 49 bc bd
       0.24093308 0.18088764 0.023723023 -0.09193671
0000b0 97 23 b2 3d 70 a6 55 3e c0 e7 ab 3e 6f 6d 4f 3e
       0.086981945 0.20864272 0.3357525 0.2025659
0000c0 2e ca 55 be 96 9d 4b bc 40 d3 bf 3d 20 17 ef 3d
       -0.20877907 -0.012427708 0.093664646 0.116743326
0000d0 79 56 6a bc a5 03 b6 bc ba 03 4a be 40 f4 fa b9
       -0.014302843 -0.022218535 -0.19727984 -0.00047865696
0000e0 37 98 d8 bd 97 03 90 3e 63 18 40 be 6a de f9 bd
       -0.10575908 0.2812774 -0.18759303 -0.12200625
0000f0 f1 70 e8 3d a3 82 b0 bd e6 1f 70 3d d5 af 15 bd
       0.11349667 -0.08618667 0.05862417 -0.03654464
000100 84 a5 ca bd a3 fe f2 3d 16 4c 9b bc f0 ac c7 3d
       -0.09894851 0.11864974 -0.018957179 0.09749782
000110 5f a5 0d be 80 50 8b bd ec 7f 8c 3d 3a 8f df bd
       -0.13832615 -0.068024635 0.06860337 -0.1091599
000120 5e 8e 6d be 0c 6a 1b be c7 7d 96 be f6 ef 26 bd
       -0.2319884 -0.15177172 -0.29392835 -0.04075619
000130 ce 5c 03 3e c0 d6 40 3e e2 b0 69 be e3 54 49 bd
       0.12828371 0.1883192 -0.22821382 -0.04915322
000140 34 10 ac be f6 eb fc 3c 0d 96 eb bd 1a 21 a5 be
       -0.33606112 0.030874234 -0.11503229 -0.32251817
000150 90 f0 75 3d 6e 8a 61 be 96 a1 49 3e 4d 8c 2d 3d
       0.06004387 -0.22025463 0.19690546 0.04237013
000160 9a 49 87 3e 36 47 14 3e 91 fd ab bd f8 c8 2a 3d
       0.2642334 0.1448029 -0.08397973 0.041695565
000170 67 ca b8 3b 43 89 be 3e 91 12 08 be 98 a9 59 3a
       0.0056393626 0.37214097 -0.13288333 0.00083031645
000180 ee 93 64 be 5e fe bd 3d 02 ba 36 3e d0 b1 a7 be
       -0.22322056 0.09277032 0.17844394 -0.32752848
000190 62 3e 18 3c 0d 66 d5 bc 53 8b a3 bb b0 f5 b7 bc
       0.009292217 -0.026049638 -0.004990974 -0.02245602
0001a0 3a c1 1e 3e ee 75 10 be f8 7e 9d 3d d5 81 df bc
       0.15503398 -0.14107487 0.07690233 -0.027283588
0001b0 d9 6c 7e bd f1 09 ab bc aa 6f 15 3e b0 2f 41 3e
       -0.062115524 -0.020878764 0.14593378 0.18865848
0001c0 49 7c f3 bd 23 44 54 be e5 5f 98 bd 1f 67 5c 3e
       -0.1188894 -0.20729117 -0.074401654 0.21523713
0001d0 ed 1e c5 3c 52 1b 65 3c 07 d7 99 bd 80 55 75 3e
       0.024062598 0.013983564 -0.07511716 0.23958397
0001e0 f8 ec db bd f4 fd 7d bd 83 f4 50 bd 64 a5 bd bd
       -0.107385576 -0.062009767 -0.051014435 -0.092600614
0001f0 18 ea 91 3e 5c c4 2c be c1 40 5d bd 6c e0 8e bd
       0.28498912 -0.1687178 -0.054016832 -0.06976399
000200 46 20 af 3c 7a a2 77 3c 1c e1 ec bd e7 94 d4 3d
       0.021377694 0.015114421 -0.11566374 0.10379963
000210 27 04 bc 3d 74 56 83 bb 4b 52 d5 bb 34 49 eb 3c
       0.091804795 -0.0040081087 -0.006510054 0.02872143
000220 f8 7e 03 bd ec ae ad bb da c2 40 bc 28 12 19 3d
       -0.03210351 -0.0053003933 -0.011765206 0.03737083
000230 9c e9 db bd 67 68 2d be d7 63 78 3d 01 48 8b bd
       -0.10737917 -0.16934358 0.06064209 -0.06800843
000240 18 93 1e bc c3 47 f6 3d 55 f2 ef 3d 56 d3 c9 3c
       -0.009678625 0.12025406 0.11716143 0.024636906
000250 07 0b 3c bd 48 4e 86 bd 5e ba e0 3d 86 ea d5 3c
       -0.045908954 -0.065579 0.10973047 0.026112806
000260 ca ca 96 bd 3e 3d 9a 3d 40 65 14 be 1f 21 47 bd
       -0.07362898 0.07531212 -0.14491749 -0.04861557
000270 5a b9 0c 3e d4 58 8b 3d 87 26 04 3e 04 6a 90 bd
       0.13742581 0.06804052 0.12905322 -0.07051471
000280 b9 4b 57 be 94 23 81 bd 63 88 16 bd f2 3e d1 bd
       -0.2102498 -0.06305614 -0.036751162 -0.10217084
000290 09 b3 40 3d 44 5b 6b bd 17 f1 b9 bc d0 22 2f be
       0.04704574 -0.057460085 -0.022697968 -0.17103124
0002a0 45 58 4f 3d d3 66 94 be 20 12 72 bc 6d 5c c0 3d
       0.05062129 -0.289847 -0.014774829 0.09392629
0002b0 38 ae cd bd ce 2a 95 3d 2b 7b 33 bd 20 e9 0c be
       -0.10042995 0.07283555 -0.043818634 -0.13760805
0002c0 0f f9 d4 3c 4c 81 ca 3d 83 be 44 3b 17 0e 4f 3e
       0.025997667 0.09887943 0.003002078 0.20220219
0002d0 75 8c 06 bd f2 a5 66 bd d5 3a ae 3d f2 45 22 be
       -0.032848794 -0.0563106 0.08507315 -0.15846995
0002e0 18 80 0d be d9 b1 ee 3c 85 c8 45 3e 49 f8 2f bd
       -0.13818395 0.029137539 0.19314773 -0.042961393
0002f0 b9 a8 ad 3d 24 c2 63 be f5 c4 d2 3b de 8b 0f be
       0.08479447 -0.22242028 0.0064321705 -0.14018199
000300 c1 ec 72 3e 83 94 f6 bd 78 e2 af be 47 37 37 be
       0.23723127 -0.12040045 -0.3435247 -0.1789218
000310 8b a3 eb bd ae 34 17 3e a3 f2 f7 3d d0 40 98 3d
       -0.11505803 0.1476619 0.12106826 0.07434237
000320 10 5c a5 3e f9 22 b9 3e cd 19 01 3d 0f d8 04 3c
       0.322968 0.36159495 0.031518746 0.008108153
000330 eb 5b 59 3e 60 82 48 be f2 cd bc be 17 bf fa 3c
       0.2122647 -0.19580984 -0.36875874 0.030608697
000340 0d 97 11 3b 38 99 24 3d 9d 44 0d 3e 89 35 00 3d
       0.0022215277 0.040185183 0.13795705 0.031301055
000350 12 fe 25 3e f0 02 04 3e e1 d2 6f be 16 3a ac bd
       0.16210201 0.12891746 -0.23420288 -0.084095165
000360 9b 5b b0 3e a3 52 f8 bb 0e 62 56 3d b2 34 2b 3d
       0.3444489 -0.0075782104 0.052339606 0.0417983
000370 bf 0b 8a bd 71 d1 e8 3e 41 91 e5 3d e0 f8 a9 3e
       -0.06740522 0.4547229 0.112093456 0.3319769
000380 89 87 4b ba 24 3b 13 3d d8 90 d4 bb 0c 40 84 3e
       -0.0007764032 0.035945073 -0.0064869933 0.25830114
000390 fb 94 3b 3d 2f d6 bd 3e c0 ce 1e 3e 45 56 2b 3e
       0.045796376 0.37077472 0.15508556 0.16732128
0003a0 aa b3 21 3c cb 96 66 3d 33 5d 21 bd 59 a0 1c 3e
       0.009869495 0.05629615 -0.039395522 0.15295543
0003b0 eb 2e 48 bd 85 dc cb bd 0c b8 00 be 87 f3 3d be
       -0.04887287 -0.0995417 -0.12570208 -0.1854993
0003c0 2f b3 98 3e 99 2a 01 3e 8a ff 29 bd a1 65 c6 3d
       0.29824206 0.12613906 -0.041503467 0.09687353
0003d0 34 92 aa bc cc 46 82 bd 14 ed d3 3d 8a 75 1e be
       -0.020821668 -0.0636116 0.103479534 -0.15474525
0003e0 4b 5e 26 3e c3 c7 66 bd 91 11 a7 3d 0d 95 00 be
       0.16246907 -0.05634285 0.081576474 -0.12556858
0003f0 3b 02 fb 3d 9e d9 d9 be 45 45 60 be 7a 5a dc be
       0.12256285 -0.4254884 -0.21901424 -0.43037778

encoder.message_net.3.0.bias f4 [64]
000000 fd 2b 04 bd 9b 08 23 bd 6e e6 5b be ef 36 85 3c
       -0.032268513 -0.03980313 -0.2147462 0.016261546
000010 2a 09 23 bd 8c da 31 be f4 f7 0d be 17 d9 30 be
       -0.03980366 -0.17368525 -0.13864118 -0.17270313
000020 f8 4b 1d be 0e 69 f4 bd 07 72 ed bd c3 1d d3 bd
       -0.15361011 -0.119341 -0.115940146 -0.10308411
000030 b7 f9 33 be d5 ef 8d bd da d3 65 be 7c 0e a5 3d
       -0.17575727 -0.0693051 -0.22444096 0.08059403
000040 14 5f da bd e1 24 47 be 3d cc b0 bd 3e 73 17 be
       -0.10662666 -0.19447662 -0.08632705 -0.14790055
000050 82 41 6a bc 23 cf 82 be 3e 61 72 be 21 a1 9a bd
       -0.014297845 -0.25548658 -0.23669907 -0.07550264
000060 63 35 fe bd 8e 9f f9 bd b1 ab f7 bd 85 53 a3 3d
       -0.124125265 -0.12188636 -0.120932944 0.079749145
000070 5a 3b 5b be ab d5 e1 bd 6d f8 24 be 3a 9c ae bd
       -0.2140936 -0.11027082 -0.16110392 -0.085258916
000080 ab ea e1 bd e8 38 aa bd 46 50 09 be f7 4e 99 bd
       -0.110310875 -0.08311635 -0.13409528 -0.074857645
000090 d8 44 b5 3c 85 50 1f be 77 de ab 3c 95 c5 05 be
       0.022127554 -0.1555806 0.020980103 -0.13063653
0000a0 a5 71 51 bd f9 b8 8d bc 3e f5 db 3d 81 d3 66 bd
       -0.05113377 -0.017300116 0.107401356 -0.05635405
0000b0 3b 36 51 bc d7 37 65 bc d2 ea f3 bd fd ad 9f 3d
       -0.012769277 -0.013990364 -0.11910023 0.077968575
0000c0 eb 32 82 3d ae ad 05 3e ed 77 0b be be a5 9d 3c
       0.06357368 0.13054535 -0.13619967 0.019244071
0000d0 ba 9d 83 3d 9b 32 ce 3c 88 8a 00 be 91 ad 60 bd
       0.06426568 0.025170615 -0.12552845 -0.054853026
0000e0 ab b7 0a 3c 5a ed 9d 3d 7e 96 25 3c 4c 71 84 bd
       0.008466641 0.07711287 0.010106681 -0.06466922
0000f0 7a be d2 3d a4 21 cd bb 5f 3c c9 bd 08 db dc bd
       0.10290237 -0.006260114 -0.09825968 -0.107839644
