models/graph_vae.pt (torch, 35538 bytes, 12 tensors)

encoder.gnn_mean.0.bias f4 [16]
00000000: 0000 0000 0000 0000 0000 0000 0000 0000
00000010: 0000 0000 0000 0000 0000 0000 0000 0000
00000020: 0000 0000 0000 0000 0000 0000 0000 0000
00000030: 0000 0000 0000 0000 0000 0000 0000 0000
0.0 0.0 0.0 0.0 0.0 0.0 0.0 0.0
0.0 0.0 0.0 0.0 0.0 0.0 0.0 0.0

encoder.gnn_mean.0.lin.weight f4 [16, 7]
00000000: 4857 233e ea61 cabe fd28 923e 954a 37be
00000010: 3061 11be dd1f a7be 9e97 42be 18d9 823d
00000020: baad dbbe 0cc4 ebbc f1d1 863c 0772 a7be
00000030: b0fa 013f 7cf6 86be 6752 a93e 4980 db3e
00000040: e3ef bc3d 0655 f83e 8d5a fd3e a37f 9a3c
00000050: af27 e2bd ec00 a93e 885c df3e a4a1 63be
00000060: 611b cdbe 48f2 8cbe a84f fc3e c81d 343e
00000070: aa0c bebe 98ac b13e e738 663e 0c98 bb3e
00000080: f5e1 18be 1db6 b13e 3d48 843e 9158 9f3e
00000090: 7280 e9be e4d2 af3e ce97 c8bd 138a 9b3e
000000a0: 8300 8bbe ccd2 b1bd 08df e63e efb1 af3e
000000b0: 1b10 103e 5536 69be 5fc5 d33d 17c6 173e
000000c0: 0842 adbd c707 8a3d eec7 613e 4cc2 0ebd
000000d0: 2443 3cbe 3990 4f3e 3b92 98be edfb c03e
000000e0: a022 fcbe 152d 3cbe 47b1 cf3e bd24 d3be
000000f0: 69e8 e1bd 7c8a 793d 702c 003f 78a0 18be
00000100: a11f 383e f85d e9be 58dd 53bd 971a 15be
00000110: 9d1c c73e 7f7a b73e 67a6 80bd e364 d23d
00000120: 08ed 1b3e 37a3 343d ae05 2e3e 560b cfbe
00000130: 50fc 643e d3ae 7c3e 6817 9ebd cdf3 993e
00000140: 3daf adbd 3c91 3ebe 5f51 8fbc 4f30 b83e
00000150: db50 d2be dda2 6a3e cada 363d fc7e 14be
00000160: d1ee d93e dd73 633e c63b 4ebe d193 bcbe
00000170: 2a92 d7bd 4721 e7bd ff3b 6b3d 6c57 623e
00000180: 7ddf e23c 3413 473e dcf7 2a3e 3af8 013f
00000190: d0e5 df3e a92d 02bf caf2 a13e 5b07 cd3e
000001a0: f3f7 ef3e a244 e4bd 9bdf ae3e 467a 87be
000001b0: 82e2 85be 15bc a73e e80e 68be a919 a73e
0.15951264 -0.39527828 0.28546897 -0.17899545 -0.1419723 -0.32641497 -0.1900315 0.063890636
-0.4290598 -0.028780006 0.01645753 -0.32704183 0.50773144 -0.26359928 0.3307068 0.4287131
0.09225442 0.48502368 0.49483147 0.01885969 -0.11042725 0.33008516 0.43625283 -0.2222963
-0.4005995 -0.27528596 0.49279523 0.17589486 -0.37119037 0.3470199 0.22482644 0.3663944
-0.14929946 0.34709254 0.25836363 0.31122258 -0.45605808 0.34340584 -0.097945794 0.3037878
-0.27148828 -0.086827844 0.45092034 0.3431544 0.14068644 -0.22774632 0.1034038 0.14821659
-0.0845986 0.06739765 0.22048923 -0.034853265 -0.18384987 0.2026986 -0.29799065 0.37692204
-0.49245167 -0.18376572 0.4056494 -0.41238967 -0.11030657 0.060923085 0.50067806 -0.14904964
0.17980815 -0.45579505 -0.05172476 -0.14560924 0.38889018 0.35835645 -0.06281739 0.10273149
0.15227139 0.044100966 0.16994354 -0.40438336 0.22361875 0.24676065 -0.07719308 0.30068818
-0.0848069 -0.1861009 -0.017494855 0.35974357 -0.41077313 0.2291369 0.044642247 -0.14501566
0.42565015 0.22212167 -0.2013999 -0.36831525 -0.105259255 -0.11285644 0.057430264 0.22103661
0.027694458 0.19440919 0.16696113 0.5076939 0.4373002 -0.5085092 0.31630546 0.40044674
0.46868858 -0.11145903 0.34154972 -0.26460475 -0.26149374 0.32760683 -0.22661936 0.32636765

encoder.gnn_mean.2.bias f4 [16]
00000000: 0000 0000 0000 0000 0000 0000 0000 0000
00000010: 0000 0000 0000 0000 0000 0000 0000 0000
00000020: 0000 0000 0000 0000 0000 0000 0000 0000
00000030: 0000 0000 0000 0000 0000 0000 0000 0000
0.0 0.0 0.0 0.0 0.0 0.0 0.0 0.0
0.0 0.0 0.0 0.0 0.0 0.0 0.0 0.0

encoder.gnn_mean.2.lin.weight f4 [16, 16]
00000000: b472 c8be dde3 813e eede 2fbb 00ba 5bbe
00000010: da28 acbe d518 d7be 03ee 17bd 938e d0bc
00000020: 3ef8 81be 855b 1a3e 4d7d 91be e11d 4dbd
00000030: 25bb a9be eda7 a0bd b545 963e c1fe 7a3b
00000040: 1be7 d93d 2241 c13e 779f d6bd 4fbe ab3e
00000050: 7958 403b 68ab c03e 19c7 a73e bcda afbd
00000060: 10db c238 e115 163e 425d 5c3e f783 67be
00000070: b4ca 7e3d 1ade 033e d38c 80be 09f4 d9be
00000080: 35b8 dfbd 1e3e 583e 4918 93be 28dd 5ebe
00000090: 971b a7be 0a68 d13e 4f23 2cbe 0cba 79be
000000a0: 4019 cebe 263a 7c3e 1d4b c23d 3969 333e
000000b0: 79e4 6a3b c4c8 863e c27f 84be 1263 7f3d
000000c0: 53cd 993e fcf9 873e 378a 933e 7db9 01be
000000d0: 8ac4 003e 718e dabe 63c2 c33e 7218 03be
000000e0: f17b 933e d58d c6be 9108 07be 490d b9be
000000f0: a2dc 45be 80e6 c8be cd5b 4dbd 259a dcbe
00000100: 725c 473d 2aed c93e 41a8 3d3d 32b2 98bd
00000110: 39d4 b93e 16ec 80be d48e 623e 518e 97bd
00000120: 1a1b d9bd 02a4 8fbd 546a 3a3d e9f4 14be
00000130: 8905 abbe 03a9 52be 137d 69bc a37d 7dbe
00000140: a034 843d 6727 92be 8476 6d3e 6152 a4be
00000150: 77a0 493d 108d 25be 2e9b 6ebe dcfc c9bc
00000160: d039 ea3d bb63 f4bc 69f1 c13e f21b ae3d
00000170: d9f0 69bd a61e 9e3e 8fcc dfbc 5546 99be
00000180: 8c83 ff3c 15a6 ce3d 4397 92be 91c0 933e
00000190: 9655 0e3d c23c e7bd e3cc 503e b10d b03b
000001a0: cb39 963e e2fc 17be 3fea afbe bf28 fc3d
000001b0: 84c9 67be 3149 dcbc f39f f7bd c730 51be
000001c0: e8c0 713e 0b4d c1be ba9e cabe 8b56 183e
000001d0: c885 27be 05b3 8f3e bcea 8c3e 1961 b8be
000001e0: 868c f3bd 86b1 9ebe 0292 c43e 5556 b9be
000001f0: 1594 a83e d2db 8cbe 9201 96be e335 5abd
00000200: 47c6 203e 75d9 43bc c2e6 313d 83f4 ce3e
00000210: 7c2b f53d 06bb 143d e362 bebe 3509 31be
00000220: 625f b53d e66f c63e c565 92be a483 96be
00000230: 5c63 94be 2e60 c43e 0f4c babe 2bf3 6f3e
00000240: a264 5c3e 4855 e0bd 907b 39be 656b 10be
00000250: 62b5 7c3e 2d9d e8bd 9e87 87be 9003 62be
00000260: 5a1c 07bd db1e 6fbe 59c6 0c3d 9316 a0be
00000270: cc0a 66be e93e 873d 3170 bcbe 9b08 9bbe
00000280: 71b8 9e3e 9c57 b1be 76a1 21be c2b4 553e
00000290: 1100 9bbe 3083 2d3e 159b a03e fd71 de3d
000002a0: 1981 7abe 2fd7 9fbe 97fc d73e c736 a6be
000002b0: bd71 97bd b118 54be e5d7 1b3e 2dc0 093e
000002c0: f747 8e3e ff11 a2be 4a90 91bd 67ef 64bc
000002d0: 17eb fc3d 2935 a23c bcc2 333e 394f 78be
000002e0: 75bc a1be 15a5 783e 90ac 913e 00e8 793d
000002f0: 88a2 6f3e 200b 36be f6bc c7be a461 ccbe
00000300: 5882 2cbe 2af3 233d f831 e33d 997f 51be
00000310: f0e5 533e dd96 ab3c f245 11bd 1ef6 583e
00000320: fe29 813e 3860 dbbe 0eba 0b3e b49b 843e
00000330: 6c73 b6be cb18 be3e 9ff4 f8bd 7081 75be
00000340: c2ee 05bd bcb7 193e b691 0cbe 69a6 863e
00000350: d837 84bd 8a48 3f3b 36de b7b9 0724 80be
00000360: 7b60 6ebd 7712 6d3d 7648 663e 5f8b 253e
00000370: e56d ad3e ceb9 4abe 7893 d7bc 44c7 f13b
00000380: 1f0d d1be e710 abbe c607 c9be 5841 09be
00000390: 579b a9be 46db cbbe f544 573e 52ec 85bc
000003a0: 5cfe b9be 664a 743e 67b4 c63e 4e68 c33e
000003b0: a0d6 04be ae85 dcbd 8c21 073e 667c 143e
000003c0: 079e 463e 15bc e8bd 4085 dc3e bd82 7d3e
000003d0: 9863 26be b5a0 cf3e dd34 a2be 590b a2bd
000003e0: 24b9 b3be d925 ab3d 92a2 b83e 81a6 b13e
000003f0: 64b7 25bd 2463 cebe b170 d8be 0129 853d
-0.39150012 0.25369158 -0.0026835757 -0.21457672 -0.33624917 -0.42011133 -0.03709222 -0.02545861
-0.25384706 0.15073974 -0.2841591 -0.050077323 -0.33150592 -0.07844529 0.29350057 0.0038298818
0.10639783 0.37745005 -0.10479634 0.3354363 0.0029349609 0.37630773 0.32769087 -0.08586642
9.2914444e-05 0.14656784 0.2151995 -0.22608934 0.06220503 0.12877694 -0.2510744 -0.42568997
-0.109238066 0.21117446 -0.28729466 -0.21764052 -0.32638237 0.40899688 -0.16810344 -0.24387378
-0.4025364 0.24631557 0.09486983 0.17520608 0.0035841747 0.26325047 -0.2587872 0.06235034
0.30039462 0.2655791 0.28816387 -0.12668414 0.12574974 -0.426868 0.38234243 -0.12802294
0.28805497 -0.38780084 -0.13186862 -0.36142948 -0.19322446 -0.39238358 -0.050136376 -0.43086353
0.048672147 0.39438754 0.046303038 -0.07455863 0.36294726 -0.2518012 0.22124797 -0.074001916
-0.10600872 -0.07013704 0.04551156 -0.14546551 -0.3340266 -0.20572285 -0.014251011 -0.24754958
0.0645535 -0.28545687 0.23189741 -0.320941 0.049225297 -0.16167092 -0.23301384 -0.024656706
0.11436808 -0.029832711 0.37879494 0.08501424 -0.057114456 0.30882758 -0.02731922 -0.29936472
0.031190656 0.100902714 -0.2863103 0.28857854 0.03474959 -0.112908855 0.20390658 0.005372726
0.29340968 -0.14842561 -0.34358403 0.12312459 -0.22635466 -0.02689037 -0.12091055 -0.20428763
0.23608744 -0.37754092 -0.39574224 0.14876764 -0.16359627 0.2806627 0.27522838 -0.3601158
-0.11892037 -0.30994815 0.38392645 -0.3619868 0.32925478 -0.2751146 -0.29298073 -0.053274047
0.15700637 -0.011953701 0.04343296 0.40420923 0.119711846 0.036311172 -0.3718482 -0.17288668
0.088560835 0.38757247 -0.2859327 -0.2939731 -0.28982055 0.3835463 -0.36386153 0.23432605
0.21522763 -0.10953766 -0.18113542 -0.14103468 0.24678567 -0.11358104 -0.26470655 -0.22071671
-0.032986023 -0.23351614 0.034368847 -0.31267223 -0.22465056 0.06603796 -0.36804345 -0.30280003
0.31000093 -0.34637153 -0.15784249 0.20869735 -0.30273488 0.16944575 0.31368318 0.10861585
-0.2446331 -0.3121886 0.42184898 -0.32463667 -0.07394741 -0.20712544 0.15219076 0.13452215
0.2778928 -0.31654355 -0.07107599 -0.013973094 0.12349527 0.01980074 0.17554754 -0.24248971
-0.31589094 0.24281724 0.28451967 0.061012268 0.23401845 -0.17777681 -0.39011353 -0.39918244
-0.16846597 0.04002682 0.11093515 -0.20458831 0.20693183 0.02094596 -0.035467096 0.21187636
0.2522735 -0.42846847 0.13645193 0.25900042 -0.35634935 0.3712829 -0.12156033 -0.23975158
-0.0326984 0.15011495 -0.1372746 0.26298836 -0.06455964 0.0029187524 -0.0003507004 -0.25027487
-0.05819748 0.057878938 0.22488579 0.16166447 0.33872905 -0.19797441 -0.026315436 0.0073784906
-0.40830323 -0.33411333 -0.39263743 -0.13403833 -0.33126327 -0.3981573 0.21022399 -0.016348038
-0.36326873 0.23856506 0.3880951 0.38165516 -0.12972498 -0.10767685 0.13196391 0.14500579
0.1939622 -0.11363999 0.43070412 0.24756904 -0.1624893 0.40552297 -0.31680956 -0.07912321
-0.3510219 0.08356828 0.3606153 0.34697345 -0.040458098 -0.40310013 -0.42273477 0.065019615

encoder.gnn_logvar.0.bias f4 [16]
00000000: 0000 0000 0000 0000 0000 0000 0000 0000
00000010: 0000 0000 0000 0000 0000 0000 0000 0000
00000020: 0000 0000 0000 0000 0000 0000 0000 0000
00000030: 0000 0000 0000 0000 0000 0000 0000 0000
0.0 0.0 0.0 0.0 0.0 0.0 0.0 0.0
0.0 0.0 0.0 0.0 0.0 0.0 0.0 0.0

encoder.gnn_logvar.0.lin.weight f4 [16, 7]
00000000: f192 a8be f575 fbbe 0e5b 6dbd cec1 42be
00000010: aa70 393e 8e6c 24be 0ed8 3d3e 79c6 4fbe
00000020: c41e b83d 8b1e cabe f1d2 4a3e 7350 03be
00000030: e4d8 963d 82f1 0cbd d0e3 af3c 218f 593e
00000040: 14b4 bfbe 831e f3be a9a2 d4be 97b9 c53e
00000050: 0474 17be f5c8 1fbe b878 c03d efa9 b63e
00000060: 8145 d6bd 420b 773e f6b6 a2be 4f35 833e
00000070: 54b7 8fbd 9c47 03ba a4a1 8ebe 4188 8dbe
00000080: 9f77 00be 26b1 eebe 49d3 9cbe 72fa ccbd
00000090: 8826 8bbc 3047 ae3e 9aff 7e3e 3e25 5a3e
000000a0: 2043 d5bc c60c b63e 3e19 1dbe 7a4b 983e
000000b0: 1850 813e c788 aebe 171d f33d 5456 8d3e
000000c0: 7bf2 ae3d 06d0 c6be aa02 cd3e d9c5 57be
000000d0: 4c2a f43e 5f8a e13d 1c97 223e e60c 81be
000000e0: 7b67 27be aae6 6d3e ce35 11be c6ce 673d
000000f0: 54b0 82bd 26ad 463e 024b 233e c3fd ccbd
00000100: 5480 ca3e 5c9a 0e3e 01c2 ed3d 8b29 b7be
00000110: ea93 0c3e aa24 63be d154 67be 21b5 df3e
00000120: f247 f2be 33e4 ee3e 274e e73e 6c4f 6abe
00000130: be72 943e 7388 ed3d aee2 c9bc e744 163e
00000140: 53f0 e9be d191 cf3d be7d c5bd de13 ecbe
00000150: bf4a 9ebe c520 9d3e 6415 643b 065d f13e
00000160: bece 143e 363b cf3e f4f3 a83e 7607 9e3e
00000170: 4445 803c aef4 df3e 4689 e8be 6a2e 2dbe
00000180: 94a7 8cbd a0e8 3dbb 7646 73bd c034 aebe
00000190: beee edbe d40e 4c3e 26b4 4e3e 4dbc e3be
000001a0: 97a6 fdbe 47e3 d8be d5a2 e9be d970 a8bd
000001b0: ad40 64be 97de 693e 64ce ccbe a86d d3be
-0.32924607 -0.49113432 -0.057948165 -0.19019243 0.18109384 -0.16057035 0.1853945 -0.20290555
0.08990243 -0.39476427 0.1980703 -0.12823658 0.07365587 -0.034410007 0.021470934 0.21246006
-0.37442076 -0.47484216 -0.4153035 0.38618156 -0.1479035 -0.15604003 0.09398025 0.35676524
-0.104624756 0.24125388 -0.31780213 0.2562661 -0.07017389 -0.0005007924 -0.27857697 -0.27643016
-0.12545632 -0.4661953 -0.30629948 -0.10008706 -0.016986147 0.34038687 0.24902192 0.2130327
-0.026032984 0.3555662 -0.1534166 0.29745084 0.2525642 -0.34088728 0.11870783 0.27604926
0.08542343 -0.38830584 0.40041095 -0.21071567 0.4768852 0.1101272 0.15877956 -0.25205153
-0.16348068 0.23232523 -0.14180681 0.05659368 -0.06381288 0.19401988 0.15946582 -0.10009339
0.39551032 0.13926071 0.11609269 -0.35773882 0.137283 -0.22181955 -0.22590949 0.43692878
-0.47320515 0.46658477 0.45176813 -0.2288186 0.2899379 0.11598291 -0.024644222 0.14674722
-0.45691165 0.10135234 -0.09643124 -0.46108907 -0.30916402 0.30689064 0.003480279 0.47141284
0.14531991 0.40474862 0.3299862 0.30865067 0.015658028 0.43741363 -0.4541723 -0.16912237
-0.068679005 -0.0028977767 -0.05939337 -0.3402462 -0.46471208 0.19927531 0.20185909 -0.444796
-0.4954116 -0.423609 -0.45632043 -0.08224649 -0.22290297 0.22838818 -0.40001214 -0.412946

encoder.gnn_logvar.2.bias f4 [16]
00000000: 0000 0000 0000 0000 0000 0000 0000 0000
00000010: 0000 0000 0000 0000 0000 0000 0000 0000
00000020: 0000 0000 0000 0000 0000 0000 0000 0000
00000030: 0000 0000 0000 0000 0000 0000 0000 0000
0.0 0.0 0.0 0.0 0.0 0.0 0.0 0.0
0.0 0.0 0.0 0.0 0.0 0.0 0.0 0.0

encoder.gnn_logvar.2.lin.weight f4 [16, 16]
00000000: fdb5 193e f0ef aa3e 0599 1f3e 6b64 a3be
00000010: 6856 ac3e 0d19 fc3d f2bf c3be f265 0e3e
00000020: 0630 bebe ba20 70be d78d 0f3e b4c2 943e
00000030: 3c80 863e 763b 55be 3da2 d23e 8c2c 3d3e
00000040: cb6d d13d 9e0a a5bd 8f7b 453e ded4 26be
00000050: 1d12 443e 4d11 afbd 8d07 a6bc 8df1 59be
00000060: f9f3 a0be 3509 0a3e 9d80 22be 321e 9ebe
00000070: a334 8ebe 6d12 753e 3780 bfbe db33 c5be
00000080: 6698 a7be 1e23 e23d 8f5b 503e 12b7 30be
00000090: 7288 a4bb c7f5 cc3e e8c9 ae3c 8df2 983e
000000a0: fc01 a53d 9b5c 9d3d 8b53 1bbe 6c1f c53e
000000b0: deb7 423e 96df 87bc 0378 ec3d f0cb 8f3e
000000c0: 9b0b 3c3e 297c 60be 56a0 91bc 2441 d73e
000000d0: 0af1 883e 2390 fb3c 9c58 89be 616b 773e
000000e0: 9326 db3e 4a28 5dbe 7910 1fbe c185 87be
000000f0: 8028 6c3e 0f3b 22bd 1bcc 8b3e 6123 1dbe
00000100: 40ed 2b3d 2553 a23c 0453 23be 4397 a93e
00000110: 8e13 a93e f26a a93e 3b7b b9be a0a5 8dbe
00000120: 4415 8b3e eba1 c7bd 639f 963e 2548 aabd
00000130: dec4 3c3e e5f8 8c3e 5e5d 59be 6e46 ad3e
00000140: 0070 d0be c9ef 3ebe d0d3 0cbe 0663 b83e
00000150: 037a b6be 9759 8ebe 70d2 90be d82a f43d
00000160: 40a5 f4bd b1cc f63d e52d ad3d e065 adbe
00000170: 9468 72be 0dec 48be b00f c2be d294 8dbe
00000180: a3c3 b23e cb5c 873e 970a 2f3d fdf4 a8be
00000190: 6fab db3e 5343 4bbe 82f1 e83d 0d67 83be
000001a0: a54e be3e 0aba d33e 7a82 b03e 1d07 babd
000001b0: f2b5 23bd 7eeb 913d 6303 bbbe c406 453e
000001c0: f3a5 b2be 82f3 a4bd 1adf 05be dc11 2d3e
000001d0: 158b 8fbd 8f28 96be f98b febc 01df afbe
000001e0: bd76 9bbc 7ca7 773e c3f1 c33e decd dabe
000001f0: ce70 853d 1735 853e c488 dbbe 65a7 7dbd
00000200: b548 ca3e 9cf2 26be 64ab 7e3e 9674 93be
00000210: 186b 0a3e f586 3cbe 01f7 42be 8fdf b83d
00000220: febb 813d fc32 c4bd 44dd bebe 690b 87bd
00000230: b8f6 823e 80d6 b63e 8157 d2be c601 763e
00000240: d017 28be 61ee ac3e 4cc9 e43d 6315 c93e
00000250: c3fc 81be bce5 68be b315 db3d 32bd 9c3e
00000260: 1096 1d3e 15a4 23bd 44c3 f73c ad9a 033e
00000270: eef5 f7bd 38c5 e33d a4b4 03bd 538f 4f3e
00000280: 84c1 6c3e 8515 3e3e ab80 94be 6d17 6fbc
00000290: 5ac5 903e 3e08 14be 71cf c03c 9b88 87bd
000002a0: 4753 d13e ad23 75be ff87 6fbe 33df 98be
000002b0: f7cb db3e 3544 a53d 793e 3fbe e346 b2be
000002c0: b54e 033e 0b4e 223e f80d 2c3e 773d b9be
000002d0: 4235 c73d b5ed 353d 49a4 cf3d e380 013e
000002e0: a400 27bc 494d b13e 43b8 c43e 781a 913e
000002f0: 3174 2fbe cc3a b3be ff42 903e 78aa 09bc
00000300: f909 84be 02dc 613e 68b8 c7bb f76c fdbd
00000310: c1a1 78be c505 3e3e 33bd 693e 59fa c1be
00000320: 5903 72bd b007 573e 0bc9 173c 395f 263e
00000330: 583a eb3d 89e7 b2bd 93a1 3ebe 6ccb 823e
00000340: 3710 c2be 3197 79be c4e6 c4be 77e8 55be
00000350: 79b3 5d3e efb9 3cbe 6374 a73e 68ae fdbd
00000360: 2abd 27bd b36b f63d 87ac 3d3d a9d0 e43b
00000370: 3f95 313d 5302 25be d9a7 913e d55d b6bd
00000380: a453 79bd 2ebb 473e a072 a03e 664a 333e
00000390: 5404 30be 4457 303e 5f71 12bd a629 04be
000003a0: b2ac 0dbe b3c3 a03e 8da9 953e c5ec 2fbe
000003b0: 3f65 febd bf54 8e3d 76a1 bb3e dac7 79be
000003c0: 5c71 7cbd 9138 6a3c f39b c33e d719 98be
000003d0: 8363 c23e ac95 9b3d ed8f cdbe af63 dd3e
000003e0: 0883 ad3e 025b a3be 9114 133e f935 6bbe
000003f0: 44c3 5a3b 6f20 b0be 251b 23bd 8b4d a2bd
0.1501083 0.33386183 0.15585716 -0.3191255 0.33659673 0.123094656 -0.3823238 0.13906077
-0.37146014 -0.23449984 0.14018951 0.29054797 0.2626971 -0.20823464 0.41139403 0.18474025
0.102260195 -0.08058666 0.19285415 -0.1629214 0.19147535 -0.08548222 -0.020267272 -0.2128355
-0.31436136 0.13480075 -0.15869375 -0.30882412 -0.27774534 0.2393281 -0.37402508 -0.38516125
-0.32733458 0.11041854 0.20347427 -0.17257336 -0.0050211484 0.40031263 0.02133651 0.29872552
0.08057019 0.07683679 -0.15168588 0.38500535 0.19015452 -0.016586106 0.11546328 0.2808528
0.18363802 -0.21922363 -0.01777665 0.42041886 0.26746398 0.030708378 -0.26825416 0.24162056
0.42802867 -0.215974 -0.15533628 -0.26469234 0.23062325 -0.039607104 0.27304158 -0.15345527
0.041974306 0.019815037 -0.15949637 0.33123216 0.33022732 0.33089405 -0.3622683 -0.27665424
0.27164662 -0.0974768 0.29418477 -0.08314542 0.18434474 0.2753364 -0.21227023 0.33842796
-0.4071045 -0.18646158 -0.13752675 0.3601305 -0.35639963 -0.27802727 -0.2828555 0.11922234
-0.119455814 0.120507605 0.08456019 -0.33866787 -0.23672706 -0.19621296 -0.37902594 -0.27652603
0.34914884 0.26437983 0.04273471 -0.3299941 0.4290423 -0.19849901 0.11374189 -0.2566456
0.37169376 0.41352874 0.34474546 -0.09083388 -0.03996844 0.07124995 -0.3652602 0.19240862
-0.34892234 -0.08054258 -0.13073388 0.16901344 -0.0700895 -0.2932782 -0.031072604 -0.34349826
-0.018977517 0.24184984 0.38270387 -0.4273519 0.065156564 0.26017067 -0.4287778 -0.061927218
0.39508596 -0.16303486 0.24870068 -0.28799886 0.13517416 -0.18410857 -0.19039537 0.090270154
0.06334685 -0.09580037 -0.37278187 -0.06593973 0.25578856 0.35710526 -0.41082385 0.24024114
-0.16415334 0.3377562 0.11171207 0.3927413 -0.25388154 -0.22743887 0.10697498 0.30613095
0.15389276 -0.039951403 0.030244477 0.12851973 -0.12107454 0.11121601 -0.032154694 0.20269518
0.23120695 0.18562897 -0.29004416 -0.0145929875 0.28275567 -0.14456269 0.023536416 -0.06617852
0.40883848 -0.2393939 -0.23391722 -0.29857787 0.4292905 0.0806965 -0.18676175 -0.34819707
0.12822993 0.15850084 0.16802204 -0.36179706 0.09726955 0.04441615 0.10138757 0.12646823
-0.010193024 0.34629276 0.3842183 0.28340507 -0.17134167 -0.35005796 0.28176114 -0.008402459
-0.2578886 0.22056583 -0.006094981 -0.12374299 -0.24280454 0.18556888 0.2282608 -0.37886313
-0.059085224 0.20999026 0.009264241 0.16247262 0.114857376 -0.08735568 -0.18616323 0.25545824
-0.37902996 -0.24374081 -0.3845731 -0.2088946 0.21650495 -0.18430303 0.32705984 -0.12386781
-0.040951885 0.12032261 0.046307113 0.006982882 0.043355223 -0.16114168 0.2844837 -0.08904616
-0.06087078 0.19504997 0.31337452 0.1750885 -0.17189151 0.17220789 -0.03575265 -0.12906513
-0.1383541 0.31399307 0.2923092 -0.17180164 -0.12421655 0.06949758 0.36646622 -0.24392644
-0.061631545 0.014295713 0.38204917 -0.29707214 0.37966546 0.07596907 -0.4014887 0.43240115
0.3388903 -0.3190537 0.14363314 -0.22969808 0.0033380548 -0.34399745 -0.03982081 -0.079249464

decoder.mlp.0.weight f4 [16, 16]
00000000: 8c6f 9cbd 94ea 50be 7831 b93d 0c08 43be
00000010: 382f 5abe a8db d5bd aed1 49be 980c acbd
00000020: d82e 3ebd ac5a a5bd dcf3 d7bd 029e 43be
00000030: e095 33bc 4689 493e 4cb8 413e 4cd8 78be
00000040: 98a9 10bd 04ee 8dbd 5ca8 413e 8a3e 663e
00000050: 6010 6fbe 1a0b 74be f4c7 59be 5e01 75be
00000060: e004 91bd ec34 183e ba0a 023e c411 543e
00000070: d843 c9bd 1829 0dbe 284f b33d 20c7 6e3e
00000080: 48af 76bd 52a4 20be 1009 1bbd c0d5 70bd
00000090: 0064 90b9 9a73 063e a067 c4bc 2076 04bc
000000a0: 1e88 303e f0cd ae3c 3010 323d 121c 0dbe
000000b0: e0de 56be 3c43 33be 4850 313d 529b 383e
000000c0: d45e b03d 94e7 393e 3a6f 49be fac6 583e
000000d0: 5a43 49be a08e c1bd c08d 80bc a0f1 f0bc
000000e0: 20f7 09bd 2834 ccbd e2f5 2dbe a402 e63d
000000f0: 20d1 7d3e 101d 703d 049f e13d 7650 10be
00000100: 304c 81bd a01f 4bbd 0050 0639 2caf 0abe
00000110: ba54 373e ecf2 0fbe 3400 623e 24bc 55be
00000120: e00f ccbc d4be 6fbe 10ac bbbd c0ea 1bbc
00000130: 10c2 393e ecef 45be eac3 64be 8428 2dbe
00000140: eae6 31be 2c2c 14be 00b9 60be 1079 9bbd
00000150: ec70 7bbe 8c26 843d 00be 1f3c 86f4 663e
00000160: 94d8 95bd 2812 78be b8ce c1bd 00c4 abba
00000170: d0f8 f2bd 0691 0a3e 908a 99bc f838 4d3d
00000180: 9668 1d3e 5079 c13d ac37 a9bd 84c2 133e
00000190: 4036 fb3d 40e3 0cbe 705c ffbd 981e 053e
000001a0: a016 f73d 3e0c 333e 0260 79be 3041 613e
000001b0: 8083 4cbc b442 f1bd 242b 143e feef 56be
000001c0: 5042 873c e6f8 1b3e e20f 42be 8831 473d
000001d0: c094 9a3b 0025 00bc d8d3 ddbd 74dc 6a3e
000001e0: c084 1b3e 8097 d03d 4a90 1f3e 6091 843c
000001f0: e06c 42bc 80b1 3bbe c050 75bd 0caf 453e
00000200: c6c4 313e 1423 343e 4808 4f3d e091 14bd
00000210: 8c0a 48be dc16 6dbe 4a30 623e 6040 1fbc
00000220: 44e0 e7bd 38c8 5cbd eaa6 0a3e ec5d edbd
00000230: 809c 613c fa30 073e a030 11be da14 4c3e
00000240: a8bc 673d 90d9 febd 3829 a63d de06 0dbe
00000250: 40fd 9d3d 5c9d 0fbe 9e5c 13be 00f5 86bc
00000260: b044 f93d a4d8 a4bd a664 103e 7489 8abd
00000270: 46bc 3e3e 5037 7bbe bc8f 9e3d c03f 2c3d
00000280: a08a 0dbe 4030 a7bb 7caf 433e 30ab 0fbe
00000290: 8825 8dbd e8ba a83d 2206 013e bab7 1fbe
000002a0: d0fb e5bd 501a d1bc 88a9 12be 8071 2e3c
000002b0: fcdb e2bd 6eea 37be 10c5 d93c d8ab 193d
000002c0: 7085 203e c065 ce3b ec29 36be 6046 65be
000002d0: aa7c 3a3e 163b 36be e419 65be 9c8d 98bd
000002e0: 400c 583d f080 fb3c b0db 483e d8ab b4bd
000002f0: e455 133e 9c1f efbd 805e 4bbc f6ef 123e
00000300: b278 53be 8047 29bc 4cf0 473e 00c0 b4ba
00000310: 76bf 45be eee6 2ebe 3a0a 2b3e 5495 44be
00000320: 8ee6 123e 3405 84bd 1c2f e53d b448 36be
00000330: 3698 2bbe 14fb 9e3d ded4 783e c8cd e4bd
00000340: 2c4c f13d bea4 663e 2ede 233e c4bc b23d
00000350: b03d 6abe b0b3 abbc 90ec 2ebd a8b0 d73d
00000360: b09c fd3c becc 5dbe 1e8e 69be e8a0 263e
00000370: c436 76be f846 923d 189a 713e f0a5 71bd
00000380: 105e f3bd bc6c 7d3e 22ff 53be dec3 60be
00000390: 9007 c1bd b86e f03d b02e 18be b861 a83d
000003a0: 8681 653e 72bf 443e d0af d2bd 3af7 4ebe
000003b0: 04c6 1cbe 9011 06bd f802 373e 70d4 573d
000003c0: 7e24 1abe 02f6 683e aa8d 053e 7e4d 173e
000003d0: 3a16 6a3e 00a5 e03c 5c2d dc3d a03b 273d
000003e0: 94f7 923d 8412 7cbe c8cf 0f3e 58b1 bb3d
000003f0: 82a9 5dbe 5c48 17be 8434 d53d 6cad d63d
-0.076384634 -0.20401984 0.090426385 -0.19046038 -0.21307075 -0.10442287 -0.19708893 -0.084008396
-0.046431392 -0.08073935 -0.10544559 -0.19103244 -0.010961026 0.19681272 0.1891796 -0.2430126
-0.035317987 -0.069301635 0.1891188 0.22484794 -0.2334609 -0.2383236 -0.21267682 -0.23926303
-0.07081008 0.14863938 0.12699404 0.20709902 -0.09827393 -0.13785207 0.08755332 0.23318148
-0.060225755 -0.15687683 -0.03785044 -0.058797598 -0.00027540326 0.13130036 -0.023975194 -0.008084804
0.17239425 0.021338433 0.04347247 -0.13780239 -0.20983458 -0.17506117 0.043289453 0.18028
0.08611837 0.18154746 -0.19671336 0.21169654 -0.19654599 -0.09451032 -0.015692592 -0.02941209
-0.033682942 -0.099708855 -0.16988328 0.112309724 0.24786806 0.058621466 0.11016658 -0.14093193
-0.0631336 -0.049590707 0.00012809038 -0.13543385 0.17903414 -0.14057511 0.2207039 -0.20872551
-0.024909914 -0.23412639 -0.09163678 -0.009516418 0.18140435 -0.19329804 -0.2234036 -0.16909987
-0.17373243 -0.14469975 -0.21945572 -0.0759145 -0.24554795 0.06452665 0.009749889 0.22554216
-0.073166996 -0.24225676 -0.094632566 -0.0013104677 -0.118638635 0.13531885 -0.01874283 0.050103158
0.15371928 0.09446967 -0.08262572 0.1442967 0.12266207 -0.13758564 -0.12468803 0.12999952
0.12064862 0.17485139 -0.2435303 0.21997523 -0.012482524 -0.11780301 0.14469582 -0.20989987
0.016511112 0.15231666 -0.18951371 0.04863122 0.0047174394 -0.0078213215 -0.108314216 0.22935659
0.15187359 0.10185146 0.15582386 0.016182601 -0.011866778 -0.1832943 -0.059891462 0.19305056
0.1736022 0.17591506 0.050545007 -0.03627193 -0.19535273 -0.23153251 0.22088733 -0.009719938
-0.11322072 -0.05390188 0.13540235 -0.1159018 0.013770223 0.13202277 -0.14178705 0.19929829
0.0565764 -0.124438405 0.081133306 -0.13772151 0.07714319 -0.14024872 -0.143908 -0.016474247
0.12171304 -0.080491334 0.14100894 -0.06764498 0.18626508 -0.24532819 0.07742259 0.042052984
-0.13822412 -0.0051021874 0.1910991 -0.14030147 -0.06891924 0.082387745 0.12599996 -0.1559743
-0.1122967 -0.025525242 -0.14322484 0.010647178 -0.11077115 -0.17960522 0.026583225 0.0375174
0.15675902 0.0062987506 -0.1778943 -0.22390127 0.18211618 -0.17795977 -0.22373158 -0.07448885
0.052746058 0.03070113 0.19615054 -0.08821839 0.14388233 -0.11675951 -0.012412667 0.1434935
-0.2065151 -0.010331988 0.1952526 -0.0013790131 -0.19311318 -0.1708028 0.1670312 -0.19197589
0.14345762 -0.06446305 0.11190626 -0.17801172 -0.16757283 0.07762733 0.24299952 -0.11172062
0.11782107 0.22523782 0.16002724 0.087274104 -0.22875094 -0.020959705 -0.042706072 0.105317414
0.030958503 -0.21660134 -0.2280812 0.16272318 -0.24044329 0.071424425 0.23593938 -0.05899614
-0.118831754 0.2474851 -0.20702794 -0.21949717 -0.094252706 0.11739868 -0.1486156 0.08221763
0.2241269 0.19213656 -0.1028744 -0.20211497 -0.15309912 -0.032731593 0.17872226 0.05269283
-0.15052983 0.22750095 0.13042322 0.14775655 0.22860041 0.027422428 0.10750839 0.040828347
0.07176128 -0.24616438 0.14044106 0.09164685 -0.21646693 -0.14773697 0.10410407 0.10482296

decoder.mlp.0.bias f4 [16]
00000000: 080a 42bd 968f 5d3e 0ab9 3d3e e429 abbd
00000010: 3c91 f3bd e8f4 183e 58e5 3e3e 880a e43d
00000020: a8a3 643d 407b 273e aa60 233e 3806 b23d
00000030: be2f 743e 201d 853d 92af 4a3e c00c c2bc
-0.047372848 0.21636805 0.18527618 -0.083575994 -0.11892936 0.14937174 0.18642175 0.11134821
0.055820137 0.1635561 0.15954843 0.086925924 0.23846337 0.06499696 0.19793537 -0.02368772

decoder.mlp.2.weight f4 [378, 16]
00000000: 8cee 17be 60dc 84bc 74d2 013e 18f6 b73d
00000010: 58e6 08be 28b6 473d f018 a3bc c41e 263e
00000020: be3e 78be c0cd 573d b0c5 bb3d b002 663e
00000030: fe0d 143e 3431 babd c094 4d3d c8a6 fabd
00000040: a855 e63d a468 c4bd 4a71 013e 94f5 c1bd
00000050: 001c 453d 94ba c7bd da21 543e 704d b63c
00000060: 9ebd 72be 40ee f5bd e8f3 b5bd 905a 52bd
00000070: c46e 32be 3851 e33d fca7 77be d009 3cbd
00000080: 24fb 323e 409b d6bb 8050 6bbd 00f1 e53d
00000090: 063e 21be e810 c83d 9820 19be d432 6b3e
000000a0: 6019 903c 4895 a53d 7097 cebc 2c84 d8bd
000000b0: f41d 023e e080 4d3c 7862 313d 209e 4ebc
000000c0: 80d6 233d e409 423e 3e5c 0fbe eab3 77be
000000d0: 306f d83d 3085 093e 6217 373e 2c90 993d
000000e0: 6ca7 343e 62cd 423e 7afe 6a3e b0d0 073d
000000f0: 8c78 63be 94aa 27be e46c 5ebe 8041 4bbb
00000100: 58e3 2c3d 2a6d 67be 085a d9bd 344a 1b3e
00000110: e21b 05be f287 7d3e 6a4b 34be 6afb 403e
00000120: a0ed 173d 34be 36be 003b 8f3d 28c0 1c3d
00000130: 802f 12bb c85d 77be e010 3e3c 988f 163d
00000140: fe87 1ebe a00e 423e ee77 3fbe fc1a ba3d
00000150: 40a6 123d 10bd 5ebd 20d7 993c e46d 133e
00000160: 30e3 c9bd f899 3a3d a811 48be 0054 be3c
00000170: a03b f7bd 4649 3cbe 5007 5e3d 4cf5 d83d
00000180: 462e 11be 805c 2e3d e41a d43d 0068 4c39
00000190: e0ce 38bd 0841 a33d 40b6 9e3c 7eb4 7bbe
000001a0: 9883 20be 14dc ef3d 6831 9bbd 322e 433e
000001b0: 066a 193e c88a ddbd 3c7d a0bd cca2 783e
000001c0: ec0b 1dbe 702f 00bd 60d6 d83d b26b 2c3e
000001d0: 4a0d 7dbe 7ec1 57be 2088 efbc 8406 7e3e
000001e0: e45d 9fbd b89e 24bd c07f efbc 5473 fabd
000001f0: caa4 493e c417 2d3e 6c1c fe3d e8d9 373e
00000200: 8083 55bc 806b 0ebd 106f 61be b8d0 dabd
00000210: ec25 bbbd 80a3 2cbd 4a26 3abe cedb 573e
00000220: 20ae a7bd 9cb1 903d 8064 80bb d8ab edbd
00000230: 1824 8d3d 80cd 1b3e 907d 683e b461 843d
00000240: 38a3 51bd 8041 a6bd 2e7f 6c3e 8061 7c3b
00000250: 20f7 1a3d a88a 293d 14b1 b43d 18f2 503e
00000260: f87d 6dbe 9038 e73c a067 8f3c 00c9 d8ba
00000270: 2810 aebd 1ea5 75be 28c3 34bd 7444 673e
00000280: 623a 50be 705e 143d ecb1 38be 1ad6 38be
00000290: 80ac 47bc 00ce 5ebe 12bf 66be 281e 7b3d
000002a0: 08a9 9f3d 7411 3e3e a4e4 933d 202a 33bd
000002b0: ea7b 60be caa5 77be 4c6f a5bd 8070 bfbd
000002c0: 92e0 48be 3020 393e 00fc f93b 5447 813d
000002d0: c218 2cbe 2814 e6bd 2c68 f23d a85a 5fbd
000002e0: c20e 433e e056 3fbe dc7e 63be c0cd 343e
000002f0: 428c 013e 905e b3bc fcdf 40be e884 e23d
00000300: 3832 38bd 80fb c3bb c845 a4bd ca19 113e
00000310: 0039 c83b 964f 733e 48c8 403e e68b 583e
00000320: 184e b73d dcd3 753e 24c8 cebd 5c4f 5cbe
00000330: 7009 593e c0a3 cd3b d2e2 333e 843f f33d
00000340: f89e 063e 6857 763e 282d 0cbd b8c5 5ebe
00000350: 5c70 5abe 64a0 85bd 0076 bb3c 9a28 5d3e
00000360: 829d 503e b0c7 f13c 0898 37be d8c9 debd
00000370: 74ad 3abe 581d 83bd 0047 51bd fe17 2e3e
00000380: d0a7 e0bc 6aa4 0bbe 6e6c 71be 58da 873d
00000390: 50c3 afbd 1051 13be f8ad 71be d466 babd
000003a0: a2d4 40be 4401 41be 56f3 74be a860 f63d
000003b0: ca7b 4a3e d08b a93d 4238 133e 7cc6 23be
000003c0: 1c47 6bbe b0f5 8cbd d82e 66be 8aeb 683e
000003d0: 404b 333c a899 f43d c2da 30be e016 4c3d
000003e0: c82e 65be 80dc ccbb 0217 273e 8855 7b3e
000003f0: ace0 003e 3a4d 58be aa92 053e 56ae 3bbe
-0.14837092 -0.016218364 0.12677938 0.089824855 -0.13369119 0.048757702 -0.019909352 0.16222674
-0.24242684 0.052686453 0.09168565 0.22461963 0.14458463 -0.09091416 0.050190687 -0.12238842
0.112468064 -0.09590271 0.12640873 -0.094706684 0.048122406 -0.09752384 0.20716038 0.022253722
-0.23705146 -0.12008333 -0.08884412 -0.0513559 -0.17425066 0.110994756 -0.24185175 -0.045907795
0.17478615 -0.006549269 -0.057449818 0.11227608 -0.15746316 0.097688496 -0.1495384 0.22968608
0.017590225 0.08085114 -0.025218695 -0.10572085 0.12706739 0.012542933 0.043306798 -0.012610942
0.039999485 0.18949085 -0.14000031 -0.24189726 0.10568082 0.13429713 0.17880014 0.07498202
0.17641991 0.1902366 0.22948638 0.033158004 -0.22213954 -0.16373664 -0.21721226 -0.0031014383
0.042209 -0.22600237 -0.10612875 0.15165025 -0.12998918 0.2475889 -0.17606893 0.18845907
0.03709185 -0.17845994 0.06993675 0.038269192 -0.0022306144 -0.24156868 0.011600703 0.036758035
-0.15481564 0.18950891 -0.18698093 0.09087178 0.03580308 -0.054379523 0.018779337 0.14397389
-0.09857786 0.045556992 -0.19537985 0.023233414 -0.120719194 -0.18387327 0.054206192 0.10593662
-0.14177808 0.042568684 0.103566915 0.00019493699 -0.045119166 0.07971388 0.019374013 -0.24580571
-0.15675199 0.117118984 -0.07577783 0.19060591 0.14981851 -0.10817486 -0.078363866 0.24280852
-0.15336579 -0.03129524 0.10587764 0.16837958 -0.247121 -0.21069905 -0.029239714 0.24807173
-0.0778158 -0.04019043 -0.02923572 -0.12229028 0.19691768 0.16903597 0.12407765 0.17954218
-0.01303184 -0.03477049 -0.22015023 -0.10684341 -0.091380924 -0.042148113 -0.18178669 0.21079943
-0.081875086 0.07065126 -0.0039182305 -0.11605042 0.0689165 0.15215111 0.22704148 0.06463948
-0.05118105 -0.08117962 0.2309539 0.0038510263 0.037833333 0.041392 0.088228375 0.20404851
-0.23192585 0.028225213 0.017505467 -0.0016539395 -0.08499175 -0.23988768 -0.044131428 0.22584707
-0.20334771 0.036222875 -0.18036622 -0.18050423 -0.012187123 -0.2175827 -0.22533825 0.061308056
0.07795912 0.18561345 0.07221344 -0.043741345 -0.2192227 -0.24184337 -0.08077869 -0.093476295
-0.19616917 0.18078685 0.0076289177 0.06312433 -0.1680632 -0.11234313 0.118362755 -0.054529816
0.19048598 -0.18685484 -0.22216362 0.17656612 0.1265116 -0.021895677 -0.18835443 0.11060506
-0.044969767 -0.005980909 -0.08021122 0.14169994 0.0061103106 0.23760828 0.18826401 0.21147117
0.08950442 0.24006599 -0.100967675 -0.21514648 0.21195006 0.006275624 0.17566994 0.11877349
0.1314658 0.2405678 -0.03422275 -0.21755111 -0.21331924 -0.06524733 0.022883415 0.2159752
0.20372584 0.029514164 -0.17929089 -0.108783424 -0.1823023 -0.06402081 -0.0510931 0.1700134
-0.02742377 -0.13636938 -0.23576519 0.06633443 -0.08582175 -0.14386392 -0.2360152 -0.09101644
-0.18831113 -0.18848139 -0.2392095 0.120301545 0.19773784 0.0827862 0.1437693 -0.15993685
-0.22976345 -0.06882799 -0.22478807 0.22746101 0.010943234 0.1194337 -0.1727095 0.049826503
-0.22381127 -0.0062518716 0.1631737 0.24544346 0.12585706 -0.2112321 0.13044229 -0.18328223

decoder.mlp.2.bias f4 [378]
00000000: 5436 b83d d02d 193d f4c3 78be 70ce d13d
00000010: 5098 82bc 20f2 e23c 8abb 25be 14a6 e93d
00000020: 0602 773e a073 653c 6419 ccbd f8fd 4ebe
00000030: 14f3 febd 7cc2 4ebe f079 303d 0030 58b9
00000040: bc90 94bd b03c 813d 5ebd 26be 4c2e 1bbe
00000050: da63 6ebe 94cd 68be e411 d1bd 80eb dfbb
00000060: 161c 343e b88b 6f3d 7883 54be fc05 0c3e
00000070: 0cde 20be 0cfe 25be 7a3f 42be 88fd da3d
00000080: d02c c1bc f09b 9fbd 7028 753d 066e 6cbe
00000090: d8b7 4e3e c0f1 49be 1251 443e ce67 6b3e
000000a0: 302e 77bd 7414 02be 5806 ed3d 4070 dd3c
000000b0: 0630 39be 3c79 8e3d 7055 cd3d 9a3c 7a3e
000000c0: 8850 3abe 143a cebd 9ecc 0bbe 1a51 1fbe
000000d0: c0da 3bbc f475 4fbe 304d ccbd 48d5 9e3d
000000e0: 683a 203e e0d4 aebc d877 61be 2e91 3dbe
000000f0: 207f b7bd 8842 3b3e 907c d3bc a69a 1dbe
00000100: f00c 3cbe 786a 553e 80d7 a2bb 8017 f83d
00000110: 1035 b63d c686 023e 0055 abba 60ed ec3d
00000120: a42e 893d 60fc 2c3c 0e30 63be 2c5d 533e
00000130: 78db ba3d 1092 2f3d 60de 393d 8439 47be
00000140: b60d 46be b8b1 1cbd 14ad aebd b61b 5cbe
00000150: 6288 493e 30b4 cbbc 6031 3ebe e0e4 393d
00000160: 46a0 113e e078 ba3d 087e 57be 08f0 d2bd
00000170: c4e5 efbd 3c4b 5f3e c8a3 51bd 7aa2 333e
00000180: 3485 26be 5c1b b1bd a6e8 4ebe 58c6 583e
00000190: c09d 723d 0cf5 87bd 207e 08bd 20ab 95bc
000001a0: 5c5d 25be 9825 2cbd b26d 5d3e 18b8 ac3d
000001b0: 50dd 7abe 5c79 7cbe 3480 9abd a076 cdbc
000001c0: 3641 593e e28b 0dbe 482f 39be 1414 cb3d
000001d0: da89 433e c434 c6bd 4481 9a3d fe34 76be
000001e0: 3abf 063e ccca 2d3e 581d d5bd 1873 353d
000001f0: ee99 4abe ca25 6f3e e044 0e3e d00c 0f3e
00000200: 587e 113e e86f 15be e86e 363d 3433 b73d
00000210: a079 f43d 108c 6a3d b89b 3fbd 4eea 15be
00000220: 9e12 4e3e cc54 503e cc03 c5bd dcac b33d
00000230: 9032 ff3c ccc5 833d 74d0 6f3e 5046 b8bd
00000240: da55 373e 0899 073e 6420 643e 00d0 c93a
00000250: 6087 983c 323f 613e c821 0bbd 341d f53d
00000260: 0097 bc3a 844e e33d 2011 ce3d c091 87bb
00000270: dac2 2bbe 70b3 5d3e 68e5 60be 08c9 e7bd
00000280: 1460 99bd 18c0 babd faf9 3ebe 3078 12be
00000290: 307a 1e3e a893 f73d 7491 21be 3a33 6abe
000002a0: 900b d93c e00f 493d 2e77 403e 76af 4c3e
000002b0: b4c5 6d3e 54bd 9b3d 244f 583e 6028 87bd
000002c0: dc32 d23d c8a0 a7bd 40af aabd 02c1 0e3e
000002d0: b687 73be 3460 b2bd e099 d33c 7eb1 78be
000002e0: 3085 26bd b414 a9bd 5488 4bbe 74cf ddbd
000002f0: 7894 403d 0acc 003e d629 25be 94d8 373e
00000300: c83a 173e 5c9e 213e 80b0 9b3c 282a 31be
00000310: e068 d33c 104c 6b3e 1e67 193e 7812 5bbd
00000320: 80a8 28bd 40c2 cd3b 28ac 5cbd 4246 54be
00000330: 5ece 13be b076 e73c 649b c8bd 843d 63be
00000340: c616 33be 8058 ad3d 4461 7f3e e087 42bd
00000350: c02b eb3d 1ca1 6bbe 100b 253e 1200 5cbe
00000360: 642b 05be 68b3 583e 8097 963c 889a 9abd
00000370: 141c b13d 80ea 03bd 1048 6fbd 905d e03c
00000380: 006b 303b 4eb2 783e 3043 243e 0cac b43d
00000390: 145d 1b3e e06a 363e 704b 64be fcab aabd
000003a0: a82f d23d ec7c 33be 2236 153e be03 64be
000003b0: 08be 7c3e 00c9 f6ba 481e 1dbd c4d9 163e
000003c0: d4a3 bcbd ccb2 3fbe 8487 d3bd 10ca ebbc
000003d0: 0015 69be dc68 013e 68da 9e3d 8031 50be
000003e0: 0cc4 e3bd 3a83 303e 8806 64be b08c fa3d
000003f0: 1829 4dbe 3250 293e 98bc 64be 34f4 aebd
0.08994737 0.037397206 -0.242935 0.10244453 -0.015941769 0.027703345 -0.16184822 0.1140863
0.24121866 0.014004618 -0.099657804 -0.20214069 -0.12448707 -0.20191377 0.04308504 -0.00020617247
-0.072541684 0.06310403 -0.16283175 -0.1515438 -0.23280278 -0.22734672 -0.102084905 -0.0068334937
0.17588839 0.058482856 -0.20753276 0.13674158 -0.15709704 -0.16210192 -0.18969527 0.106928885
-0.023580939 -0.077934146 0.059853017 -0.23088846 0.20187318 -0.19721127 0.19171551 0.22988817
-0.060346782 -0.12703115 0.115734756 0.027031064 -0.18084726 0.06956717 0.100260615 0.2443718
-0.18194783 -0.10069671 -0.13652274 -0.15558282 -0.011465728 -0.2025984 -0.0997566 0.07755524
0.1564728 -0.021341741 -0.22018373 -0.18512413 -0.08959794 0.18287098 -0.025816232 -0.15391025
-0.1836431 0.20841396 -0.0049695373 0.12113857 0.088968396 0.12746724 -0.0013071597 0.11568713
0.06698349 0.010558218 -0.221863 0.20641011 0.091238916 0.042863905 0.04537809 -0.19455534
-0.19341168 -0.038255423 -0.08529106 -0.21494946 0.19680932 -0.024866194 -0.18573523 0.045384288
0.14221296 0.09105086 -0.21044171 -0.102996886 -0.11713746 0.21806043 -0.051181585 0.17542449
-0.1626175 -0.086477965 -0.20205936 0.21169412 0.059232473 -0.06638536 -0.033323407 -0.018270075
-0.16148895 -0.04202804 0.21623877 0.084335506 -0.24498487 -0.2465567 -0.07543984 -0.025080979
0.21216282 -0.13822892 -0.18084443 0.09915939 0.19095555 -0.09678033 0.07544187 -0.24043652
0.13158885 0.16971892 -0.104059875 0.044299215 -0.19785282 0.23354259 0.13893461 0.13969731
0.14208353 -0.1459347 0.044539362 0.08945313 0.11937261 0.05726248 -0.046779364 -0.14640161
0.2012429 0.20344847 -0.09619865 0.08773205 0.03115204 0.06434211 0.23419362 -0.08997786
0.17903844 0.1324197 0.22277981 0.0015397072 0.01861924 0.21996763 -0.033967763 0.11968461
0.0014388263 0.1109896 0.1006186 -0.004137248 -0.16773549 0.21650481 -0.21962512 -0.113176405
-0.074890286 -0.0911867 -0.18650046 -0.1430366 0.15476298 0.1208871 -0.15778142 -0.22871104
0.026494771 0.049087405 0.18795463 0.19988808 0.23219949 0.07604471 0.2112394 -0.06599498
0.10263607 -0.081849635 -0.083342075 0.13940814 -0.23782238 -0.087097555 0.02583021 -0.24286458
-0.04065436 -0.08255902 -0.19876224 -0.10830584 0.04701659 0.12577835 -0.1612924 0.17953712
0.14768517 0.15783066 0.01900506 -0.17301238 0.025806844 0.22978234 0.14980742 -0.05348441
-0.04117632 0.00627926 -0.05387512 -0.20729926 -0.14434192 0.028254837 -0.097952634 -0.22191435
-0.17489156 0.08464146 0.24939448 -0.04749286 0.11482954 -0.23010677 0.16117501 -0.21484402
-0.13004833 0.21162188 0.018382788 -0.07549006 0.086479336 -0.03220606 -0.058418334 0.027388364
0.0026919246 0.24286768 0.16041255 0.08821878 0.15172225 0.17814207 -0.22294402 -0.08333585
0.10262996 -0.17528123 0.14571431 -0.22267053 0.24681866 -0.0018828213 -0.038358957 0.14731508
-0.09210935 -0.1872055 -0.10328582 -0.028782874 -0.22761917 0.12637657 0.077565014 -0.20331383
-0.11121377 0.17237559 -0.22268116 0.12233865 -0.20035207 0.16534498 -0.22337568 -0.08542672
