models/graph_vae.pt (torch, 102935 bytes, 56 tensors)

prior.mean f4 [4]
00000000: 0000 0000 0000 0000 0000 0000 0000 0000
0.0 0.0 0.0 0.0

prior.std f4 [4]
00000000: 0000 803f 0000 803f 0000 803f 0000 803f
1.0 1.0 1.0 1.0

decoder.decoder_net.mlp.0.weight f4 [16, 4]
00000000: a359 db3e a2bc 10bf 1b01 ae3d d602 2f3f
00000010: 6ff9 d13e 2cec fd3d 1161 24be 6c1e ca3e
00000020: 2338 cb3d c1ac fdbe 5dde 19bf 6788 f7be
00000030: a805 cbbd cbb8 2d3f 9a77 babe 03f9 3fbf
00000040: 1b85 2fbf 0061 3bbd aec2 ff3d 78fc 8f3e
00000050: 189e 5b3e b4a1 c3be 66d4 fc3d 12e8 b7be
00000060: e7c2 49bf d077 0d3e 6b47 353f b84a 183f
00000070: 9425 ddbe eb1e 073f 1799 f53e 6b9d 48bf
00000080: 0771 813e 736e 1bbf 4f41 37bf 4cff 0cbf
00000090: d998 13be 5551 c83e 9973 d5be 92e9 403f
000000a0: 39a0 133f c565 31bf d989 953e f857 fabe
000000b0: a2c9 1abf 6b9c 36bf 1e16 4ebd 8594 14bf
000000c0: bea7 2ebe a477 0b3f 19d5 58be 944d 8cbe
000000d0: 1672 233f 66d3 84bd 07dc 143f d0da 183f
000000e0: 61a1 043f 2b5e 1b3f f703 3d3f c3cb de3e
000000f0: 58b0 6a3e 8d21 2f3f 850b d4bc 3c9a 293e
0.42841825 -0.5653783 0.084963046 0.683637 0.41010615 0.12398562 -0.16052653 0.39476335
0.099228166 -0.49545863 -0.60104924 -0.48346254 -0.09913188 0.67860097 -0.36419374 -0.74989337
-0.6856248 -0.045746803 0.12488304 0.28122306 0.21447027 -0.38209307 0.12345199 -0.35919243
-0.7881302 0.13815236 0.708121 0.5948901 -0.43192732 0.5278155 0.4796836 -0.783652
0.25281546 -0.6071541 -0.7158403 -0.5507705 -0.14413776 0.3912455 -0.41689757 0.753564
0.57666355 -0.69295913 0.29206732 -0.4889524 -0.6046392 -0.71332425 -0.05031406 -0.5803912
-0.17056176 0.5447943 -0.2117504 -0.27402937 0.63845956 -0.064856336 0.58148235 0.5970888
0.51808745 0.60690564 0.73834175 0.43514833 0.22918832 0.6841057 -0.0258844 0.16562742

decoder.decoder_net.mlp.0.bias f4 [16]
00000000: 9ea4 563f 2e99 623f cdfd 583f 4a17 7f3e
00000010: d854 6d3f 9fd9 5c3f 299e 093e a11d 983e
00000020: 61b4 d93e 7c29 a53e a27f 093f 5270 b33e
00000030: 6415 093f 1fa0 c63e 37f5 333e f616 463f
0.83844936 0.88514984 0.8476227 0.24911228 0.92707586 0.86269563 0.1343924 0.29710105
0.4252043 0.32258213 0.5371038 0.3504663 0.53548265 0.38794038 0.17574011 0.77378786

decoder.decoder_net.mlp.2.weight f4 [378, 16]
00000000: 34db a5be 1d53 80be 44ac c8be b249 cfbe
00000010: e4ca d3be f6f8 e1be 5cf8 bbbe 20bd 6bbe
00000020: 357b a0be e6d9 2cbf 8386 08bf df09 40be
00000030: c8ff 86be 9f5a a2be 718e 1dbf 86a6 a4be
00000040: fe48 b83e 2823 8a3e ccc3 f43e de5e 173e
00000050: 06f9 2d3e 9de0 943d 4b63 ba3e 688e 873e
00000060: 58ce b03d 866a 473e b98e de3e b079 9a3e
00000070: d0e2 0e3f ac4c ce3e 71f1 7d3e 32eb 1d3e
00000080: 0576 53be 6057 25be 88de 1bbe ec81 5dbe
00000090: 595d 70bd 399e 90be 0b4f 193d 81d6 95be
000000a0: d662 50be df93 96be 2c90 26be b58d 1dbe
000000b0: 9e49 05be 2e64 b4bd 0ce7 20be c5b8 7abe
000000c0: c940 bb3d dfe6 193e 1d03 ec3d 1a2e 373d
000000d0: 6efd bd3d 5fe0 bf3e 741e 3a3e 6f5e 3f3e
000000e0: b5e0 563e 5ae6 143e da36 13be 5d35 f3bc
000000f0: ddee 5b3e 7f21 063d 601b 413d 71a1 88bd
00000100: f914 bcbe 78e6 00bf aa1c a8be bae1 8bbe
00000110: 7903 17bf ce3b 23be 53b2 c0be f930 0dbf
00000120: 4629 febe e3b2 abbe c73e b2be 9630 c9be
00000130: a641 20bf 9c9b 0cbf fc69 73be 9202 8cbe
00000140: 97ad 0fbe 74b5 15bf 2375 aebe 196f 80be
00000150: 02d2 cdbe cd6e e4be 0cbd c8be df23 93be
00000160: ce74 49be 4d1c 42be 8c7d f6be 0498 10be
00000170: 93ad c7be 70f0 e6bd c5a9 40be 5e34 03bf
00000180: 5897 19be 543b cebe 83fd b5be 1689 31be
00000190: 39d3 d4be b5f8 b5be ba4a bcbd b665 bcbe
000001a0: c24d fabd f90f 97be 8531 e9bd d2b9 47bd
000001b0: 74e5 0cbe a40f 05be cf7a e23a 3e32 72bc
000001c0: 2f57 eebd e6d0 0abe 60a8 253c 0833 3bbe
000001d0: 220a cdbe 61ba 8cbe 5777 773d 41d6 933d
000001e0: 9293 9ebd 20fe 21be 6c5b b0bc 31ca cabe
000001f0: 86e8 3cbe 4b7f 3cbe 9c7c 69bd 0bdc afbe
00000200: defa 79be 7da6 acbe ccef 5cbe 4f43 10be
00000210: d282 753c 06b1 88bd a4bf 89be 4042 27be
00000220: 0da1 f4bd b7af 0cbe 0348 033e 83e2 81be
00000230: 72f0 48be 9387 0abe 74f5 0abe 1df6 1e3d
00000240: df52 eebe 9e7e 41be 77a5 ffbe 8672 7ebe
00000250: 89dc 83be fa59 b1be 356e 4fbe 347a 86be
00000260: d01d e7be dd3e 99be 6b4b ecbd cdad 48be
00000270: 03ad 0abf 4200 88be ebbe a1be aaf6 69be
00000280: 68f3 0dbe b636 eabe f132 65be eb79 b6be
00000290: 691b e2be 3104 95bd 9963 bbbe ec74 3fbe
000002a0: 8af6 a4be 898f 36be bc9b 49be 5e44 85be
000002b0: 456e 25be c9ca 71be dc93 d8be 18f1 b5be
000002c0: ad19 e2bd ddfb 4cbd 7df7 d5bd 8a70 aabc
000002d0: 59a2 e5be 4fcd e5be 9624 ce3c 4a77 86be
000002e0: f9a1 4abe 900a 80be cdad c43c 62d8 c8be
000002f0: 388d 09be 75ee a7be 3fef cdbd 6e6b 94be
00000300: 1d3b 43be a64a 0bbf 2051 b3be 49fc 32be
00000310: 0db0 82be 15da a3bd 8dbe 47be b287 fcbe
00000320: a779 37be 714b 28be e0f4 b1bd eb5a ebbe
00000330: 4765 35be 8c28 90be 1037 8dbe 5559 e8bd
00000340: 279c 94be 6b52 04be 6475 92be 04d5 c7be
00000350: 893f 99be f94a f0be 252a c7be b8b7 d7be
00000360: bafb dcbe ec32 79be a040 26be be32 17bf
00000370: 8aaa 0dbf f4f6 1dbe 2c20 9abe 8924 c9be
00000380: 4d1b c9be 8bd8 b8be eb0a acbe ebe5 2bbe
00000390: 6d9d dabe 2a71 48be 4e68 04be 6a8f f3be
000003a0: 3fad 00be e20d 17bf 4471 e4bd 77a4 88be
000003b0: 718d 2dbe 841f adbd 8426 4bbe d7df 03bf
000003c0: ed8f 19be 3dcc 01bf 5b90 1cbe 4d49 27be
000003d0: c3f4 92be dee6 b6be 32a5 7ebe 1aa2 b0be
000003e0: 64eb 9ebe 5d7b dfbe b4bd 11be 0fbe 71be
000003f0: e772 5fbe 1d1e babe 3fa4 d7be 7e72 aebe
-0.323938 -0.2506341 -0.39193928 -0.40485913 -0.4136573 -0.44135255 -0.3671292 -0.23021364
-0.31344 -0.67519987 -0.5333025 -0.18753766 -0.2636702 -0.31709763 -0.61545473 -0.32158297
0.3599319 0.26979947 0.4780563 0.14782283 0.16989526 0.07269404 0.3640388 0.26475835
0.08633107 0.19474229 0.43468264 0.30170965 0.5581484 0.4029287 0.24799134 0.15421751
-0.2065049 -0.16146612 -0.15221608 -0.21631593 -0.058682773 -0.28245714 0.037428897 -0.29265216
-0.20350203 -0.29409692 -0.16265935 -0.15386088 -0.13016364 -0.0880817 -0.15713137 -0.24484546
0.09143216 0.15029477 0.11524031 0.0447217 0.092768535 0.3747587 0.1817568 0.18688367
0.20984156 0.14540997 -0.14376393 -0.029688532 0.21477838 0.032746788 0.047145247 -0.066714175
-0.3673475 -0.5035167 -0.3283437 -0.27320653 -0.58989674 -0.15940782 -0.3763605 -0.5515285
-0.49640864 -0.33534917 -0.3481352 -0.3929488 -0.6260017 -0.5492494 -0.23770899 -0.2734571
-0.14031063 -0.5848 -0.34073743 -0.2508476 -0.40199286 -0.44615784 -0.3920673 -0.28738305
-0.19673464 -0.18956108 -0.4814266 -0.1412049 -0.38999614 -0.112763286 -0.18814762 -0.5125178
-0.1499914 -0.4027964 -0.35544977 -0.1733745 -0.415674 -0.3554131 -0.091939405 -0.3679635
-0.122218624 -0.29504374 -0.11386398 -0.048761196 -0.13759404 -0.12994248 0.0017279031 -0.0147824865
-0.11637723 -0.13556251 0.0101109445 -0.18281186 -0.40046793 -0.27485946 0.060416546 0.072186
-0.077429906 -0.15819597 -0.021527968 -0.39607385 -0.18448076 -0.18407933 -0.057003602 -0.34347567
-0.24412104 -0.3372077 -0.2157585 -0.14088176 0.014984803 -0.066743895 -0.26904023 -0.16333866
-0.119447805 -0.13738905 0.12820439 -0.25368127 -0.19622973 -0.1352828 -0.13570195 0.03880893
-0.465476 -0.18895957 -0.49930927 -0.24848375 -0.25754192 -0.3463896 -0.20256884 -0.2626511
-0.45139933 -0.29930773 -0.11537822 -0.1959755 -0.54170245 -0.26562697 -0.3159097 -0.22848001
-0.13862383 -0.45744866 -0.22382714 -0.3563989 -0.44161537 -0.0727619 -0.36599424 -0.18696946
-0.32219344 -0.17828192 -0.19688314 -0.26028723 -0.16155346 -0.23612513 -0.42300308 -0.35535502
-0.110400535 -0.050044883 -0.10447595 -0.020805616 -0.44850424 -0.448832 0.02516393 -0.26262885
-0.1978835 -0.2500806 0.024008656 -0.39227587 -0.13432777 -0.32799116 -0.10055398 -0.28988212
-0.19065519 -0.5441078 -0.3502283 -0.17479052 -0.2552494 -0.0800058 -0.19506283 -0.49322277
-0.179175 -0.16435029 -0.08689284 -0.45967802 -0.17714415 -0.28155935 -0.27581072 -0.11345164
-0.29025385 -0.12922065 -0.28605187 -0.39029706 -0.29931286 -0.469322 -0.3889934 -0.42132354
-0.43160802 -0.24335831 -0.1623559 -0.590618 -0.55338347 -0.15426236 -0.3010267 -0.39285687
-0.3927864 -0.3610271 -0.3360208 -0.16786925 -0.4269823 -0.19574419 -0.12930414 -0.47570354
-0.12566088 -0.5900556 -0.11154416 -0.26687977 -0.16948487 -0.08453277 -0.19838911 -0.5151343
-0.1499631 -0.5070227 -0.15289442 -0.16336556 -0.28702363 -0.35723013 -0.24867705 -0.34498674
-0.31038964 -0.43648806 -0.14232522 -0.23607658 -0.21821176 -0.363511 -0.42117497 -0.34071726

decoder.decoder_net.mlp.2.bias f4 [378]
00000000: 7b5b 2fbe 26d2 9e3d 1c02 cdbc b06e 12bd
00000010: eb83 29be 624c b5be ea88 64be 20f9 3cbe
00000020: ad36 9fbe f3bc bbbe 762b e2be 35a2 b2be
00000030: 27ab c7be e483 39be b08d 82be fef5 f3be
00000040: 95d1 79be f912 69bc 216a cfbe 60d2 6cbd
00000050: 393b a6be a410 9ebe ac54 c1be 3767 40be
00000060: ee4e edbe d304 2f3d 2261 d3be ed88 2fbe
00000070: 3e8d dd3e 0bae bcbd 5c2a b7be ca2e f1be
00000080: 4185 68be 2b2b e4be 870b 86be 5422 cbbe
00000090: c8e2 04bb 4d06 15bd 181b 2ebe d553 aabe
000000a0: 4d25 72be 9a46 d6be 52d4 53be cc28 98be
000000b0: 5575 f1be e04d 1cbd fc72 a8bd 60db 51be
000000c0: a971 e1be 741c b8be 53ef d4be 13b4 b1bd
000000d0: 4818 37be 2bce f5be 0912 e7be a73f e8be
000000e0: d04d 94be f2d3 8cbe 956d 4fbe 3168 4bbe
000000f0: 4e70 c2be 4f59 0abf dfd9 a8be 11a8 8ebe
00000100: 68b2 67be 6f2d 56be 52d9 d3be 2464 77bc
00000110: d121 5ebe a6ae d3be c68f 85bd 398c 74be
00000120: 24ff 99be 8bd4 bdbe 7eb2 7fbe c403 10be
00000130: 44cc c1be 2f31 7abe c844 48be 6261 2d3e
00000140: f22d dabe ed41 6abe c4a8 bfbe e211 82bd
00000150: 65a4 86be c9ef 2bbe 6928 6fbe a8a4 0bbe
00000160: b003 66be 2a3f b1ba 06bf b4be bd3a abbe
00000170: ac09 53bd 118f ccbe 43d7 e6bd b7f1 05be
00000180: 1bad 72be 69b9 bebe 393a 8abe bb4e a33c
00000190: 7206 92be 0ba1 a0bd a54a d4bd 48fa 41be
000001a0: 2673 b03b 9678 febe 621b eebe 4fcd efbc
000001b0: 74dc b9be ea76 cebe 92c2 66bd b118 bdbe
000001c0: f921 f4bd 8c81 03be bdec 8bbe 1dd3 dabd
000001d0: 8c6f cdbe a046 e9be e6f4 3dbe c36e 49be
000001e0: 438b 84bc a724 a1be afcd 74be 5c7c 9cbd
000001f0: 0b88 9fbe 010a b1be b4e8 673d 7e97 b9be
00000200: 891f 1bbe a9eb 63bd 90d7 dabe 340d f9be
00000210: 67a8 66be b0e3 bfbe 3074 afbe 2fcc e4be
00000220: d83f 69bc 51fc d5be 9dda e2be d4ac 99be
00000230: 19d9 95be 0d27 b2be 7142 91bb 29b9 27bd
00000240: 2ee8 c1be 327d 21bc 0cea c2be 7e6e f0bc
00000250: 526f 03be cbef 95be 00e0 87be 3c0c a3be
00000260: d9ad d5be f8d9 1dbe 3b90 6d3c 83fc 6dbe
00000270: 623d 6dbe 8980 97be ce5b 68be 571d fabe
00000280: 63d6 5ebe 543c abbe d45d 81bd 5382 c8be
00000290: 2795 c9be 415f 80be bf04 c1be ce6c 07be
000002a0: ed76 24be 328d e4bb 973d abbd 28f8 59bd
000002b0: 7ed2 89be f968 58be 91b2 bdbd bbd5 43be
000002c0: 5fcd 94bd 429a e2be 2b4b 94be 19d4 81be
000002d0: c7b7 8dbe fa40 44be b41b cfbe 6b0e 60be
000002e0: c767 32be 82a7 58be 6bfc cebe 74b9 d8be
000002f0: bb84 c6be 1ade a6be 319b bcbe a337 06be
00000300: 3f29 a8bd 1e8e e0be a7a8 42be e786 a9bd
00000310: 33a3 90be eb03 cebe 0ab9 51bc 8672 d7be
00000320: 74e2 80be ec7d f73c d3a0 b4be bf90 84be
00000330: bdd1 2e3d a708 68be aca8 c9be e357 cd3c
00000340: 44e9 8dbe 2be4 79bd 4517 11be e745 ddbe
00000350: 72b6 51be 037b 8bbe a483 56be 9442 d9be
00000360: 8adb 213d 5502 89bd dfac 33be 7e89 5fbe
00000370: 548e 28be 55ee 86b9 e4d1 febd 3c56 95bd
00000380: 9a59 0cbd 6d61 2ebd a6b5 1f3e 1542 81be
00000390: 5edc 18be 2287 25bc f521 e6be 2e3a 39be
000003a0: 7acc 2abe 4c46 0fbe acbc 56be 57ac 82be
000003b0: 4ac3 14be fc27 00be d395 ae3c 8b0a 26be
000003c0: 288c b1be 0075 9dbe 7650 51bc f543 2d3c
000003d0: 5ea8 bdbe a2e3 9cbe 81e4 a9be 67ae 14be
000003e0: 78ad 80be a9c4 d9be 9fdc d0be ceb7 1b3c
000003f0: e5bc b1be f289 37be b752 97be ff03 b0be
-0.17124741 0.077549264 -0.02502542 -0.03575009 -0.16554229 -0.35409838 -0.22317854 -0.18454409
-0.31096402 -0.36667594 -0.44173783 -0.3488938 -0.38997766 -0.18116719 -0.25498724 -0.47648615
-0.24396355 -0.014225715 -0.40510657 -0.057817817 -0.32467058 -0.3087207 -0.37759912 -0.18789373
-0.4634928 0.04272921 -0.41285044 -0.17142077 0.43271822 -0.092128836 -0.35774505 -0.4710601
-0.22707082 -0.44564185 -0.2618067 -0.39674628 -0.0020276774 -0.036382962 -0.17002523 -0.33267084
-0.23647042 -0.4185074 -0.20686463 -0.29718626 -0.4715983 -0.038160205 -0.082250565 -0.20493841
-0.44032028 -0.35959208 -0.4158884 -0.086769246 -0.17880356 -0.48008856 -0.45130947 -0.45361063
-0.28965616 -0.2750545 -0.20256646 -0.19863965 -0.37976307 -0.54042524 -0.32978722 -0.278626
-0.2262665 -0.20915769 -0.4137674 -0.015099559 -0.21692587 -0.41344184 -0.06521563 -0.23881616
-0.3007747 -0.3707622 -0.24970433 -0.14063936 -0.37851155 -0.24432825 -0.19557488 0.1693168
-0.42613178 -0.22876711 -0.37433445 -0.06351067 -0.26297298 -0.1679069 -0.23355259 -0.1363703
-0.22462344 -0.0013522853 -0.3530199 -0.3344325 -0.051522896 -0.399529 -0.11271527 -0.13080488
-0.23698847 -0.37250832 -0.26997545 0.019935003 -0.28520542 -0.078432165 -0.103658 -0.18943131
0.0053848205 -0.49701375 -0.46505266 -0.029272703 -0.36301005 -0.403251 -0.0563379 -0.369329
-0.11920542 -0.12842387 -0.27329054 -0.10684798 -0.40124166 -0.45561695 -0.18550453 -0.19671158
-0.016179686 -0.31473276 -0.23906587 -0.07640907 -0.3115848 -0.34577945 0.056618407 -0.36248392
-0.15148748 -0.055644665 -0.42742586 -0.48642886 -0.22525178 -0.374784 -0.34268332 -0.4468703
-0.014236413 -0.41794065 -0.44307414 -0.3001467 -0.29267195 -0.34795418 -0.0044329693 -0.040948067
-0.37872452 -0.009856509 -0.3806919 -0.029349562 -0.12835434 -0.2928451 -0.26538086 -0.31845272
-0.41734198 -0.1541518 0.014499719 -0.23240857 -0.23167947 -0.29590252 -0.2269127 -0.4885051
-0.2176147 -0.33444464 -0.063167244 -0.3916193 -0.39371607 -0.25072673 -0.37698933 -0.132251
-0.16060992 -0.0069748396 -0.08361357 -0.053215176 -0.26918405 -0.21133794 -0.092625745 -0.191245
-0.07265734 -0.44258314 -0.289636 -0.2535713 -0.27679273 -0.19165412 -0.40450823 -0.218805
-0.174224 -0.21157649 -0.40426955 -0.4232899 -0.3877314 -0.32591325 -0.36837152 -0.13107161
-0.08210992 -0.43858427 -0.19009648 -0.08277684 -0.2824951 -0.40237364 -0.012800464 -0.42079562
-0.2517277 0.030211411 -0.3527895 -0.25891683 0.04268049 -0.2265955 -0.393865 0.025066322
-0.2771703 -0.061008614 -0.14169033 -0.43217394 -0.20479754 -0.27242288 -0.20948654 -0.42433608
0.03951601 -0.06689898 -0.17546414 -0.21829793 -0.16460544 -0.00025736043 -0.12442377 -0.072918385
-0.03426514 -0.04257338 0.15596637 -0.2524573 -0.14927813 -0.010103019 -0.44947782 -0.180886
-0.16679564 -0.1399166 -0.2097041 -0.2552211 -0.14527622 -0.12515253 0.021311676 -0.1621496
-0.34677243 -0.30753326 -0.012775531 0.010575284 -0.37042516 -0.3064242 -0.33182147 -0.14519654
-0.25132346 -0.42532852 -0.4079332 0.009504272 -0.34714428 -0.17923716 -0.29555294 -0.3437805

encoder.encoder_net.input_net.0.weight f4 [4, 7]
00000000: d30c ac3e ba91 0ebe ddd9 ae3e 0387 a33e
00000010: a84d a43d b1f7 133d 70e8 cbbd 209a 47be
00000020: c22e 173d 7e8c 97be cfc5 84bd 7b1c a7be
00000030: 6fa1 103c bd61 39be e935 7abe 386f 71be
00000040: 2346 6cbe cdbd f5bc a982 4c3e 3ed3 773e
00000050: 616e 5cbe 4816 6a3e 5dff 8ebe 6d77 febd
00000060: c905 3c3e 6593 a53e dba4 453e e912 48be
0.33603534 -0.13922778 0.34150591 0.31938943 0.08022624 0.03612489 -0.09956443 -0.19492388
0.036909826 -0.29599375 -0.064830415 -0.32638916 0.008827551 -0.1810369 -0.24434628 -0.23577583
-0.2307363 -0.02999773 0.19971718 0.24201676 -0.21526481 0.22860062 -0.27929202 -0.124251224
0.18361582 0.32339016 0.19301169 -0.19538464

encoder.encoder_net.input_net.0.bias f4 [4]
00000000: 543e b5be 49b9 203e 236a 243e 5615 a83e
-0.35399115 0.1569568 0.16056113 0.32828778

encoder.encoder_net.gru.weight_ih_l0 f4 [12, 4]
00000000: 535a 943e bae4 053f 8ed9 b1bd 98e9 11be
00000010: 0016 9ebe 6645 7abe 03d9 68be 1484 14bd
00000020: b71b 93be 5725 073f ff11 503e 827a cdbe
00000030: e89a f9bd 96a8 ef3d e24c abbc 2218 1bbc
00000040: d103 273e 37d7 07bf 99e9 98bc 7101 cb3e
00000050: 3128 04bf 9e18 db3d 0e7a afbe 81c7 11be
00000060: b526 343e cb8d c9bd ad25 ad3c bf6f 933e
00000070: 3b4f 8abe d87e 2b3e 21f9 9e3e 8d6c 013e
00000080: 6266 663e 409f 29be b492 033f 88c5 b4be
00000090: 19a4 663e 1b3d 73be 433e 8cbe 5515 263e
000000a0: 7f9c b93e 1cd5 30be 7367 99be b431 d8be
000000b0: 53b5 383e 7dd3 dbbe d3c6 a5be f633 65be
0.28975162 0.52302134 -0.086840734 -0.14249265 -0.3087616 -0.24440536 -0.22739033 -0.036258772
-0.28732082 0.5279135 0.20319365 -0.4013253 -0.12187749 0.11702077 -0.020910684 -0.009466203
0.1631005 -0.53062767 -0.018666076 0.39649537 -0.5162383 0.10698055 -0.34272808 -0.14236261
0.1759289 -0.09841498 0.02113613 0.28796193 -0.27013573 0.16747606 0.31049445 0.12639065
0.22499993 -0.16564655 0.51395726 -0.35306954 0.22523536 -0.23753779 -0.27391252 0.16219075
0.3625221 -0.17268795 -0.29961738 -0.4222542 0.1803792 -0.4293479 -0.32378253 -0.22383103

encoder.encoder_net.gru.weight_hh_l0 f4 [12, 4]
00000000: 0d04 44be f5da f93e 182c e83e 3f62 093e
00000010: 7890 0bbf 044f ecbe c13b 9abb ad20 49be
00000020: 19e4 663e d630 5bbe 7522 a23e 0bec b2be
00000030: f428 663e 7949 d13e 6433 87bd f276 0e3d
00000040: 773e 41bd d106 b7be a554 84be d597 efbe
00000050: 20cd 83bc b27e 66be fc90 23bf 4075 17bf
00000060: 437d 963e 39ae e03c c7e7 1c3e 90ab 113e
00000070: 87f5 afbe 96ca d33e 3c2e babe 5f61 573e
00000080: 9e99 f8bd c266 bf3c ab87 bd3c dce0 29be
00000090: e351 c33d 4108 063f 420e c4bd 27d2 a5bd
000000a0: 38c0 ea3d c6dd 84bd 3908 e03e 6282 c33e
000000b0: ff6a 003f e6fd 553e 0d31 a5be 6aa7 553d
-0.1914217 0.48799863 0.4534614 0.13416384 -0.54517317 -0.46154034 -0.0047068303 -0.19641371
0.2254795 -0.21405348 0.31666914 -0.34945711 0.2247656 0.40876368 -0.06601599 0.034781404
-0.04717871 -0.35747388 -0.2584583 -0.46795526 -0.016089022 -0.22509268 -0.63893104 -0.59163284
0.29392442 0.027426826 0.15322791 0.14225602 -0.3436701 0.41365498 -0.363634 0.21033238
-0.12138675 0.023364428 0.02313598 -0.16589683 0.09537103 0.52356344 -0.09573032 -0.08096724
0.11462444 -0.064876124 0.43756273 0.38185412 0.50163263 0.20897636 -0.32263985 0.05216161

encoder.encoder_net.gru.bias_ih_l0 f4 [12]
00000000: 45a7 14bd dad2 ee3e 7226 28be 2ef0 9c3e
00000010: 0832 ddbe ed3f c53d ab5b ba3d 4523 01be
00000020: 97c0 85be e6db 53be e6ab 983e 18fa 523d
-0.036292333 0.46645242 -0.16420916 0.30651993 -0.43202233 0.096313335 0.090995155 -0.1261111
-0.26123497 -0.20689353 0.29818648 0.05150804

encoder.encoder_net.gru.bias_hh_l0 f4 [12]
00000000: d4ca ae3d 7228 9a3d ea55 3b3e 52fc fcbe
00000010: a7a4 243e 9418 0fbf 276c 653e 5ea9 27be
00000020: 8977 18bf 9a3e 16be cd5c 323e 051b 893e
0.0853478 0.075272456 0.18294492 -0.49411255 0.16078435 -0.5589688 0.22404538 -0.16373202
-0.59557396 -0.14672318 0.17418213 0.26778427

encoder.encoder_net.conv_layers.0.bias f4 [4]
00000000: 0000 0000 20d7 853d 9ead 1d3d 0000 0000
0.0 0.065351725 0.038495652 0.0

encoder.encoder_net.conv_layers.0.lin.weight f4 [4, 4]
00000000: 4b36 8a3e 5a3d 89bd 6f39 20bf 6c2e 18bf
00000010: cb8b 1e3f c821 293f d146 cbbc 90f2 1ebf
00000020: 5d88 133f 6c60 1a3b 0b7b 1dbf 1b43 2a3d
00000030: 45d2 023f 1ab9 52bf 2d03 a5be 5114 ddbe
0.26994547 -0.06701155 -0.62587637 -0.59445834 0.6193206 0.6606717 -0.024814041 -0.6208887
0.5762995 0.0023556007 -0.61515874 0.041567903 0.51102096 -0.8231369 -0.32228985 -0.43179563

encoder.encoder_net.conv_layers.1.bias f4 [4]
00000000: 0000 0000 0000 0000 ea5d 663d d50a 08bd
0.0 0.0 0.056241907 -0.033213455

encoder.encoder_net.conv_layers.1.lin.weight f4 [4, 4]
00000000: 318a c13e a1c4 5b3f 8534 4b3d e82d 4abf
00000010: b1b0 d13e 4c3f b73e 76fc ae3e 373c b8be
00000020: 3d46 8fbe 089a 543e 81e5 5bbd 28a0 3f3e
00000030: 233b 1e3f fcac 613e ea7f df3e af7f 0b3f
0.37800744 0.85846907 0.049610633 -0.789763 0.40955117 0.3579048 0.34176987 -0.3598344
-0.27983275 0.20761883 -0.05368567 0.18713439 0.61808985 0.22038645 0.43652278 0.54491705

encoder.encoder_net.conv_layers.2.bias f4 [4]
00000000: 9576 45bd 0000 0000 4851 a83d 0000 0000
-0.04820879 0.0 0.08218628 0.0

encoder.encoder_net.conv_layers.2.lin.weight f4 [4, 4]
00000000: fcdf c53d af8f 293e 6343 3e3f 46c6 27be
00000010: d20b d63e 33b3 9e3e f588 0bbf 9c4a 753e
00000020: 4697 4ebf c785 39bf c685 f6be 2484 1b3f
00000030: dce6 eb3e fb03 e23e fe57 fd3c aa17 01be
0.09661862 0.16558717 0.74321574 -0.16384229 0.41805893 0.30996093 -0.54505855 0.23954242
-0.80699575 -0.72469753 -0.48148936 0.60748506 0.4607457 0.44143662 0.030925747 -0.12606683

encoder.encoder_net.output_net.weight f4 [8, 4]
00000000: 1e51 1fbe b57d f9bd cbdc dfbe c759 92be
00000010: fef8 fabe b3ae b53e e7ce d33e 03e1 4a3e
00000020: f5e8 033e 9f41 16bf 8394 703d 3fd2 b3be
00000030: 12e5 7e3e b8a2 a7be bfc2 453d f6de 60be
00000040: d768 743e 505a 013f d2cf b93e 0f51 dc3e
00000050: 18c7 97be 6916 c03e ba84 80be c916 f9be
00000060: a121 273e da90 6d3e c020 e9be af74 d0bd
00000070: 67f3 dc3e 2e2f 5d3d 98fe 2d3e 5984 213e
-0.15558288 -0.1218218 -0.4372314 -0.2858412 -0.4901809 0.35484847 0.4136879 0.19812398
0.12881835 -0.5869388 0.05873538 -0.35121343 0.24892071 -0.32741332 0.048281427 -0.21960053
0.23868118 0.5052843 0.36291367 0.43030593 -0.29644084 0.37517098 -0.25101262 -0.48650196
0.16321422 0.23199788 -0.455328 -0.10178506 0.4315445 0.054000072 0.16991651 0.15773143

encoder.encoder_net.output_net.bias f4 [8]
00000000: 8ab3 8c3a d894 99bd 3b7a 93be b599 e5bd
00000010: e90e 7b3e fd5c 1c3e bb40 943e e06e ef3d
0.0010734659 -0.07499093 -0.28804192 -0.11210958 0.24517407 0.15269847 0.28955635 0.116910696

exp_avg f4 [16, 4]
00000000: 2234 7938 e57e cf38 9715 db39 5071 de39
00000010: 6768 b039 1064 9e39 e10b 8f38 2271 003a
00000020: 8b8e 8639 1fdc 1d39 72fd 5b38 d453 44b8
00000030: 2e79 b0b8 c1f8 68b8 4bb5 a039 5d2b 0d38
00000040: d3c2 42b8 7798 093a 0abb 013a 1a2c 0c3a
00000050: 785b 4438 6d3b c839 4efe ac39 ef82 cdb8
00000060: 2c63 ce39 d37f be39 22a8 9638 a5dc 0d39
00000070: 1714 7837 70ed 5639 b4e9 1238 e8ad 2839
00000080: a2a3 efb7 9624 0239 c97f 6e39 a70c 8cb8
00000090: f85d a639 fe65 6239 992c 473a 5fb2 7b39
000000a0: b944 a338 7ac3 6c39 1ff7 7b37 9b9e c638
000000b0: c714 cb38 ffc3 db39 e728 2e38 8655 4c38
000000c0: f0fb acb8 7c03 fa39 1c70 ad39 0fa0 ac38
000000d0: c3ec 73b9 ba4f 5139 0365 3bb8 f10e 8d39
000000e0: a105 a1b9 fb2b 6c38 cebd 5139 0c90 4e39
000000f0: 5470 ff37 feab 0d3a 46da b739 da0d 6e38
5.941478e-05 9.894165e-05 0.0004178702 0.00042427564 0.00033647122 0.0003021066 6.820984e-05 0.00048996706
0.00025664674 0.00015054688 5.2449708e-05 -4.6808113e-05 -8.4149055e-05 -5.554478e-05 0.00030652652 3.3657405e-05
-4.643465e-05 0.0005248854 0.00049488305 0.0005347148 4.681523e-05 0.00038191248 0.00032995868 -9.79955e-05
0.0003936527 0.0003633486 7.1838745e-05 0.00013529004 1.4786629e-05 0.00020497083 3.5026766e-05 0.00016086514
-2.8567218e-05 0.00012411395 0.00022745052 -6.678077e-05 0.00031732 0.00021591035 0.0007597893 0.00024003674
7.785246e-05 0.00022579535 1.5018303e-05 9.470918e-05 9.6836644e-05 0.00041916964 4.1522926e-05 4.871704e-05
-8.248526e-05 0.00047686312 0.0003308066 8.231412e-05 -0.00023262487 0.00019961494 -4.467835e-05 0.00026904748
-0.00030712507 5.6307745e-05 0.00020002501 0.00019699353 3.0450676e-05 0.0005404352 0.00035067106 5.6756522e-05

exp_avg_sq f4 [16, 4]
00000000: c98a e635 95ea bb35 278b d835 15c6 2d36
00000010: 7503 0436 37e2 ea35 bbcf 8836 f623 0e36
00000020: a3d4 0c36 4a69 0036 e387 d836 ff9f e435
00000030: 2b3b 8c35 739a 5d36 133e 5836 b069 1f36
00000040: 62fa 5736 05c1 b235 1727 0036 acf6 dc35
00000050: 4313 3036 aa1a 2f36 48e9 4d36 3bf1 1036
00000060: a02d 8e36 02bb 4c35 d4f4 de35 2722 e635
00000070: 2105 cb35 db27 c135 ed34 8835 fa8f ed35
00000080: c29e 9635 3079 db35 0ef4 b636 a4c3 a035
00000090: 33fe d335 b9d9 f935 bedb 8536 099c b436
000000a0: 489c 9c35 8c4a bb35 acba 5c35 f597 6b35
000000b0: 4e20 9436 bfa0 6d36 99a3 de35 444e 0e36
000000c0: 110b 2f36 eb9c bf36 705b 8f36 6a26 0136
000000d0: e610 9d35 219e f734 5458 4835 b5d9 9735
000000e0: fd82 9c35 4234 f235 31f6 fd35 0965 8735
000000f0: bd5d b235 746e 2a36 5e90 0f36 91c6 aa35
1.7176727e-06 1.4000858e-06 1.6133753e-06 2.5894308e-06 1.9671545e-06 1.7500196e-06 4.077299e-06 2.118058e-06
2.0985397e-06 1.9134773e-06 6.453121e-06 1.7033889e-06 1.0448033e-06 3.3021468e-06 3.222264e-06 2.3754365e-06
3.2183239e-06 1.331821e-06 1.909624e-06 1.6463068e-06 2.6237255e-06 2.6092553e-06 3.0683168e-06 2.1598087e-06
4.2372412e-06 7.6268054e-07 1.6611543e-06 1.7146275e-06 1.5126171e-06 1.439122e-06 1.0148193e-06 1.7699779e-06
1.1222075e-06 1.6352042e-06 5.4524344e-06 1.1977868e-06 1.5794707e-06 1.8615311e-06 3.9892902e-06 5.382583e-06
1.166839e-06 1.3954282e-06 8.222803e-07 8.776545e-07 4.4145045e-06 3.5409319e-06 1.6587902e-06 2.1205205e-06
2.6083474e-06 5.7105112e-06 4.272377e-06 1.9244858e-06 1.170233e-06 4.612239e-07 7.463434e-07 1.1313738e-06
1.1661028e-06 1.8045614e-06 1.892162e-06 1.0087689e-06 1.3289315e-06 2.5396266e-06 2.1392693e-06 1.2723777e-06

exp_avg f4 [16]
00000000: b98e efba e79f 02bb c9e9 f2ba 9d05 a3ba
00000010: a6f6 fdba 4ca9 06bb 20e8 9aba e6e2 95ba
00000020: 968f 96ba ece0 d2ba bdce a6ba 3681 dfba
00000030: 9aa5 05bb e347 83ba b8c6 81ba 20c0 efba
-0.0018276788 -0.0019931735 -0.0018532808 -0.0012437586 -0.0019375875 -0.0020547686 -0.0011818446 -0.0011435419
-0.0011486884 -0.001608876 -0.0012726408 -0.0017052058 -0.0020392896 -0.0010015931 -0.0009901142 -0.0018291511

exp_avg_sq f4 [16]
00000000: a5e3 cb37 50c2 3138 b25c 1a38 38ad 5537
00000010: 670e 1638 fcc6 5238 e8ed 1b37 3073 1937
00000020: 76d1 8837 8ebc 9837 03bb 2237 acd6 a337
00000030: 0745 2138 46c1 d436 8eb5 0637 695e d737
2.4305491e-05 4.2381056e-05 3.680279e-05 1.273612e-05 3.57762e-05 5.025322e-05 9.294112e-06 9.14633e-06
1.6310001e-05 1.8207615e-05 9.6994945e-06 1.9531079e-05 3.8449678e-05 6.3405923e-06 8.029294e-06 2.567396e-05

exp_avg f4 [378, 16]
00000000: 17a1 a837 0314 5038 1688 9d38 f9aa 4a38
00000010: 6d6b 9b38 0cc4 6d38 62ab f837 9786 4438
00000020: f8cd 5438 bfb2 1c38 c746 ec37 59d2 6738
00000030: 515b 7c38 24c7 c436 18ec 7f37 a3b8 8a38
00000040: dd37 1837 6e77 0db8 d6af 9eb8 5bd2 50b8
00000050: c98c d9b8 2079 28b8 a91f 23b8 816c 5ab8
00000060: f074 63b8 42b0 7db8 475a 6b36 8371 7fb8
00000070: 7f32 9db8 c701 d137 b3f4 05b7 1954 95b8
00000080: daf6 9ab7 f124 c1b7 8c70 f8b7 f6fe c3b7
00000090: 7530 efb7 a905 ceb7 fad3 90b7 acf2 abb7
000000a0: 4325 bdb7 3f84 7fb7 0b86 94b7 2cf7 74b7
000000b0: a301 c0b7 819e 46b7 7b10 0db7 1e05 c2b7
000000c0: 0d5b e0b8 3059 cfb8 3d23 97b8 03cd ea38
000000d0: 7fda f638 ac7a adb8 871c 6d39 dc1c 8c39
000000e0: e2e4 0cb8 7290 86b8 d9fd 24b9 d081 0438
000000f0: 38c4 a538 244a 47b8 2be4 9f38 51a6 e737
00000100: cdc5 9d38 1eb2 9838 dedb 9738 d498 0f38
00000110: 54aa 9238 773e 8e38 496e 0538 80db 1338
00000120: d661 5438 0bd2 2638 1378 5f38 f22f 2e38
00000130: f71d 3138 6ff4 3438 903b 1038 14e6 8038
00000140: 4b65 9138 8be0 3f38 30f4 97b7 ab0a acb8
00000150: f65a 8636 ecd7 e6b6 65cb e636 da2c c1b8
00000160: 8bd3 9eb7 a9dd 0838 3e31 abb6 e4c4 12b8
00000170: 62b2 5eb8 f28f cf37 c4f1 c736 2854 b8b6
00000180: da6d 69b9 5fbd 2ab9 9116 e1b5 7b3b db38
00000190: c24b 17b8 c769 3db8 6bfb 3bb8 56d1 dd38
000001a0: 9260 fcb6 a110 f2b8 dbe2 c2b8 d40e ad38
000001b0: 392e e537 f6df 55b9 fbfc 1fb9 6203 a1b8
000001c0: 7dce 1db8 8480 0e38 04d8 a638 1bad 7038
000001d0: a81f 41b9 a784 d738 639a 23b9 1fb3 50b7
000001e0: 221e 8338 8bbf 92b8 a966 4239 5b4a 05b8
000001f0: 820e 0d37 267f de37 b561 ddb7 94aa a737
00000200: 8f4d 4e38 6d46 1f38 ac71 75b8 6859 6db8
00000210: feb3 e136 d295 b137 2f53 83b7 0bb1 e6b7
00000220: d089 85b8 f052 4db8 528a d6b7 dd8f 87b8
00000230: 60aa abb7 5913 5d38 c9b6 a038 98e3 0938
00000240: a283 3438 970e b237 a0f2 89b6 fc2e 5cb7
00000250: e22c cb38 bc9c 8837 3f30 9e38 5bcb 4b38
00000260: 06a4 87b7 6f9a 3a38 edda 3eb5 ac12 ad37
00000270: 996d 6d37 ec41 1f38 0621 dd37 0bd4 8e37
00000280: 395b e135 3cdc c3b7 b4cb bf38 7c99 0138
00000290: 8737 6b37 0acc 9438 8661 1cb8 eb11 0238
000002a0: a161 8938 f597 3cb8 1d17 9138 1047 9338
000002b0: c238 6937 7814 0bb8 c22a 81b8 196b 2fb8
000002c0: 6f1f 92b8 1e57 33b8 0b1c 2738 2308 9f35
000002d0: d55c d6b6 9ebd 8f37 296c d3b7 ad5d 1f37
000002e0: bcd8 1a38 eeb1 67b8 2191 2fb6 673e 7437
000002f0: af6a 5b37 84ad 91b8 9e62 6ab8 7234 e1b7
00000300: fb14 2038 f606 d437 26e8 c336 a6b3 1f36
00000310: fe38 1938 b4aa ca37 5116 0938 ed29 a737
00000320: a1fe 42b6 d23f 1237 66c9 0137 9260 0f37
00000330: 5c30 b036 369d da37 6441 ad37 6ea6 9537
00000340: 075d c338 3fa4 b838 76aa 8838 700c f837
00000350: d123 a838 f950 8238 af1d 3538 3832 e637
00000360: 3c6e 3538 8834 6b38 fdeb 4738 fe41 f937
00000370: 02ff 3238 cc52 7938 446a 3a38 63ca 9538
00000380: d822 2b38 9d1f e537 1e19 0c38 eaa0 39b7
00000390: 193e 4b38 e9bb 6d38 5d29 9136 bda6 1638
000003a0: c54f 4c37 3910 3937 532e 7438 1176 4838
000003b0: 0f34 0a37 8fcf bb37 e850 8937 a453 7537
000003c0: a905 3438 cb8c 0738 457d a737 78eb 8436
000003d0: 7ef8 5238 c46a a737 f288 0e38 3064 3a37
000003e0: 0099 1737 8eee e337 68c8 4337 dc18 9837
000003f0: acff 6437 16a6 8037 c45b 1337 ca53 c737
2.0102174e-05 4.96097e-05 7.5116914e-05 4.8319784e-05 7.4109856e-05 5.6687786e-05 2.964371e-05 4.6855388e-05
5.0736562e-05 3.735977e-05 2.816635e-05 5.5270593e-05 6.0166527e-05 5.864438e-06 1.5254154e-05 6.614744e-05
9.072913e-06 -3.3728247e-05 -7.566779e-05 -4.9786973e-05 -0.000103735896 -4.0167128e-05 -3.8891714e-05 -5.2076302e-05
-5.4229924e-05 -6.0484053e-05 3.5070277e-06 -6.0902454e-05 -7.495749e-05 2.491557e-05 -7.984391e-06 -7.120538e-05
-1.847318e-05 -2.3024595e-05 -2.9616313e-05 -2.3364537e-05 -2.8513585e-05 -2.455975e-05 -1.7264847e-05 -2.0497791e-05
-2.2547907e-05 -1.5229975e-05 -1.7705393e-05 -1.46010825e-05 -2.2888946e-05 -1.1838624e-05 -8.408092e-06 -2.3128985e-05
-0.00010698112 -9.887142e-05 -7.206805e-05 0.00011196176 0.00011770892 -8.272132e-05 0.00022612709 0.00026724383
-3.3591765e-05 -6.416523e-05 -0.00015734824 3.159215e-05 7.904362e-05 -4.7514346e-05 7.6242104e-05 2.7614793e-05
7.523187e-05 7.281102e-05 7.2411945e-05 3.423619e-05 6.9935486e-05 6.7827226e-05 3.1812382e-05 3.5251956e-05
5.0635856e-05 3.9773102e-05 5.327917e-05 4.1529485e-05 4.2227995e-05 4.314299e-05 3.4387747e-05 6.146371e-05
6.933006e-05 4.574707e-05 -1.8114311e-05 -8.203586e-05 4.0041004e-06 -6.8796708e-06 6.8782124e-06 -9.2113114e-05
-1.8933575e-05 3.2631364e-05 -5.1019297e-06 -3.499248e-05 -5.3095057e-05 2.4743353e-05 5.9588074e-06 -5.4934244e-06
-0.00022261534 -0.0001628301 -1.6770374e-06 0.00010453813 -3.607176e-05 -4.5159624e-05 -4.4818426e-05 0.00010577093
-7.5214275e-06 -0.000115425566 -9.292896e-05 8.252045e-05 2.7320451e-05 -0.00020396695 -0.00015257664 -7.677708e-05
-3.7624024e-05 3.3975128e-05 7.955733e-05 5.7381676e-05 -0.00018417707 0.00010276707 -0.00015602405 -1.2439471e-05
6.2521794e-05 -6.9975e-05 0.00018539526 -3.177892e-05 8.407633e-06 2.652367e-05 -2.6390751e-05 1.9987383e-05
4.918646e-05 3.7974143e-05 -5.8518417e-05 -5.658847e-05 6.7264764e-06 2.116981e-05 -1.5655152e-05 -2.7500579e-05
-6.367604e-05 -4.895305e-05 -2.5575198e-05 -6.464098e-05 -2.0464126e-05 5.2708525e-05 7.663441e-05 3.287531e-05
4.3037937e-05 2.1226047e-05 -4.1111634e-06 -1.3123961e-05 9.6881544e-05 1.6285449e-05 7.5430136e-05 4.858836e-05
-1.6169633e-05 4.4489683e-05 -7.1099095e-07 2.0631902e-05 1.41518185e-05 3.796995e-05 2.636063e-05 1.702646e-05
1.6790356e-06 -2.3348366e-05 9.1455324e-05 3.089894e-05 1.402002e-05 7.095195e-05 -3.7284124e-05 3.1011103e-05
6.550854e-05 -4.4964214e-05 6.918444e-05 7.022743e-05 1.3901097e-05 -3.3159246e-05 -6.1591636e-05 -4.1822994e-05
-6.9676775e-05 -4.275806e-05 3.984202e-05 1.1848791e-06 -6.388504e-06 1.7135226e-05 -2.5203526e-05 9.498949e-06
3.691831e-05 -5.52404e-05 -2.6161508e-06 1.45580625e-05 1.3078256e-05 -6.9464586e-05 -5.5881792e-05 -2.6846512e-05
3.8166512e-05 2.527561e-05 5.8384785e-06 2.3797415e-06 3.653112e-05 2.4159766e-05 3.268413e-05 1.9927475e-05
-2.9056466e-06 8.7171375e-06 7.735891e-06 8.545949e-06 5.2508385e-06 2.6060832e-05 2.0653657e-05 1.7839684e-05
9.315652e-05 8.804397e-05 6.516736e-05 2.9569695e-05 8.0175356e-05 6.2139654e-05 4.3181408e-05 2.7441522e-05
4.3256427e-05 5.607729e-05 4.766508e-05 2.9713843e-05 4.2676e-05 5.9443337e-05 4.4444823e-05 7.142571e-05
4.0802028e-05 2.7313648e-05 3.3401993e-05 -1.1064325e-05 4.8456805e-05 5.668021e-05 4.326152e-06 3.5918074e-05
1.217792e-05 1.1030636e-05 5.8217276e-05 4.7793674e-05 8.237562e-06 2.238879e-05 1.6369348e-05 1.4622612e-05
4.2920616e-05 3.2317632e-05 1.9966285e-05 3.9613187e-06 5.0299328e-05 1.9957668e-05 3.398298e-05 1.1109791e-05
9.035924e-06 2.7171594e-05 1.1669566e-05 1.8131388e-05 1.3649387e-05 1.5336129e-05 8.783249e-06 2.3761666e-05

exp_avg_sq f4 [378, 16]
00000000: 1f0d 8b33 a2fc 9b33 2d56 3534 8434 1433
00000010: e972 0034 9510 b333 5604 7332 ba7e f732
00000020: 3e69 a433 e07f 6132 48f2 1e33 b548 3533
00000030: ceb8 1633 a01b 6c32 2753 1032 e93c 8433
00000040: 05db 1d34 d917 3434 089d 9c34 c280 b833
00000050: 2085 9634 ed5c 2d34 e10b 6433 5cfd b133
00000060: c05a 1f34 d701 8333 100f b333 9d6b f233
00000070: 67f0 cc33 0330 4233 664d 2933 24dd 3234
00000080: 3ea2 8033 9961 8333 01bc 8f33 675a 4d32
00000090: 9dd5 5033 0b92 2033 63dc 0532 f512 ef31
000000a0: b08b 0033 71b8 0c32 20a3 be32 f80e d731
000000b0: 397a 4732 bd4f 9c32 cbd8 2532 2d08 4533
000000c0: 8174 9634 d32b 8a34 b5d9 6734 ebf6 b233
000000d0: 00d5 6834 fbc3 1e34 4a88 be33 5b02 aa33
000000e0: cb64 0f34 1bda e233 a407 0634 e5a3 c933
000000f0: d9c6 b133 36c9 2534 79aa 0e34 6fdd 7d34
00000100: 2b6f a033 6b87 ac33 b46c 0934 ff0c ac32
00000110: f887 c133 3967 9233 3485 1332 f58f 6532
00000120: d431 7733 b93c 4832 0e25 1033 b6f2 c132
00000130: 331b c332 20ef 8e32 497b 1e32 ecbb 8033
00000140: f0c3 9133 bc00 5133 7437 c133 3977 6132
00000150: 26eb ae33 630a 3933 662f 5832 3b92 5c32
00000160: bdd9 3133 1cfe 5332 5e9c c032 1bbf d332
00000170: 6413 6132 38c4 8932 9812 1e32 b9e9 fa32
00000180: 649f 0934 c616 d933 1f38 0934 da86 2933
00000190: 009d 0234 947c b333 0800 4333 5abe 4433
000001a0: c45c a433 bb71 2d33 249a 9e33 9ad7 4a33
000001b0: cd27 2033 2e44 8c33 939b 8433 6a74 c933
000001c0: 617c 1c34 a1ab d333 e018 7e34 3286 5f33
000001d0: 9373 0234 b6eb f333 3dc9 2533 ca8c 6d33
000001e0: e59b 1734 9426 1f33 d407 c433 edf0 9f33
000001f0: b27f 2833 e3fe 6533 4dad 2a33 e98a 9933
00000200: d68d 1034 8966 f333 b03e 1834 41e2 7733
00000210: 76e8 0934 e123 db33 d67a 5033 79a1 8733
00000220: 768a ca33 60bd 3833 c2d0 d233 65ab 8633
00000230: 6480 5033 3e9e 8433 071f 5c33 c4d7 e533
00000240: 57fe 9e33 d602 a233 a3c0 a033 a31d d132
00000250: 7b80 0934 a700 6c33 055c e632 9a88 f132
00000260: 1839 1833 9131 ce32 cfb9 1133 1bc3 f432
00000270: aaeb 0233 68a5 ff32 cd71 c632 24dd a433
00000280: de3d df33 4c51 bb33 f61b 4034 e7b3 e132
00000290: fe6e d233 207e e033 d66f 8232 1670 c732
000002a0: 4401 b933 540a 7232 5bc8 9133 42e0 3033
000002b0: df3d d332 ac52 ea32 dc9b 8532 0250 7533
000002c0: 45c3 b133 1463 c933 0488 e833 576f ba32
000002d0: 5b48 4433 7689 5e33 68a7 4032 4145 6f32
000002e0: 1991 7833 ce58 8732 4163 2e33 b118 7e32
000002f0: 0f12 a432 cd08 f532 defd 8932 2382 8633
00000300: 413d ae33 3b9e aa33 7031 f833 1790 a732
00000310: 7e03 a533 d012 9233 3b8a 4632 3d94 7032
00000320: a454 6c33 029f 5632 a361 3733 bdf4 a532
00000330: a598 ad32 4193 bf32 b643 5032 3c05 7433
00000340: b874 d933 bbef d433 4c70 bb33 82ba 3a32
00000350: 0b76 aa33 f6af 7633 25e1 3132 5194 f731
00000360: 9847 1b33 6d3d 8c32 4aab 1933 ee1f 4e32
00000370: 10df 7f32 26d1 0433 4f6c 6e32 90bb 8733
00000380: be92 7a33 1ccf 7633 dd31 0934 f2d2 8c32
00000390: f57d 6233 3540 9133 6c39 c331 37fa 4032
000003a0: c3fc 8533 e517 a031 1a95 3333 4bb9 b132
000003b0: 2d32 6f32 0a17 6c32 2d31 da31 55e2 1933
000003c0: e037 d832 e81e b532 7e48 8433 d5a4 f231
000003d0: 61b0 0b33 2367 0033 0a51 8331 bb1e c631
000003e0: a19c 0333 a0f5 4731 c332 9832 b3e9 5432
000003f0: fbaa de31 4c94 a431 996a 1a31 9214 6532
6.4750786e-08 7.2637036e-08 1.6888289e-07 3.4506698e-08 1.1962733e-07 8.338353e-08 1.41454475e-08 2.8812213e-08
7.6559886e-08 1.3125799e-08 3.7007595e-08 4.2208473e-08 3.5092675e-08 1.3743289e-08 8.40081e-09 6.1578085e-08
1.4701443e-07 1.6772482e-07 2.917152e-07 8.5915886e-08 2.8036538e-07 1.6145687e-07 5.309619e-08 8.2882906e-08
1.4841044e-07 6.1004975e-08 8.338077e-08 1.1288578e-07 9.543219e-08 4.521281e-08 3.9418772e-08 1.6657992e-07
5.989976e-08 6.117916e-08 6.693154e-08 1.1953126e-08 4.8623054e-08 3.738573e-08 7.791729e-09 6.9579706e-09
2.9929367e-08 8.19101e-09 2.2193092e-08 6.2590253e-09 1.1611115e-08 1.8197051e-08 9.653557e-09 4.5875073e-08
2.8024445e-07 2.573639e-07 2.1592753e-07 8.333685e-08 2.1684173e-07 1.4786194e-07 8.872355e-08 7.91667e-08
1.3354581e-07 1.0563618e-07 1.2482502e-07 9.389604e-08 8.278375e-08 1.5440023e-07 1.3286798e-07 2.3643018e-07
7.470802e-08 8.0340065e-08 1.2798665e-07 2.0029345e-08 9.0119954e-08 6.817431e-08 8.586813e-09 1.3362286e-08
5.7554487e-08 1.1655339e-08 3.3561314e-08 2.257853e-08 2.2713357e-08 1.6639717e-08 9.224842e-09 5.994647e-08
6.7877295e-08 4.8662272e-08 8.99735e-08 1.3123832e-08 8.14528e-08 4.3083116e-08 1.2583632e-08 1.2838934e-08
4.1409056e-08 1.2339594e-08 2.242285e-08 2.4650538e-08 1.3101133e-08 1.6038129e-08 9.201038e-09 2.9210115e-08
1.2817105e-07 1.01089924e-07 1.2779536e-07 3.9471026e-08 1.216431e-07 8.357998e-08 4.5402004e-08 4.580793e-08
7.653719e-08 4.038314e-08 7.3854864e-08 4.722788e-08 3.72891e-08 6.53166e-08 6.175028e-08 9.3809675e-08
1.4573881e-07 9.856672e-08 2.3664643e-07 5.2043283e-08 1.2149239e-07 1.1358445e-07 3.860008e-08 5.530891e-08
1.4119685e-07 3.705516e-08 9.128385e-08 7.4478386e-08 3.9231686e-08 5.3550036e-08 3.9738826e-08 7.149885e-08
1.3462645e-07 1.133422e-07 1.4178909e-07 5.7714946e-08 1.2843688e-07 1.02045085e-07 4.8540493e-08 6.315799e-08
9.431544e-08 4.3013074e-08 9.81686e-08 6.271038e-08 4.8545544e-08 6.175513e-08 5.125096e-08 1.0702891e-07
7.4037125e-08 7.544229e-08 7.485621e-08 2.434428e-08 1.280586e-07 5.4948625e-08 2.681737e-08 2.8118212e-08
3.5442184e-08 2.4004096e-08 3.3929435e-08 2.8494062e-08 3.048232e-08 2.9761125e-08 2.3101984e-08 7.6770704e-08
1.03955e-07 8.722654e-08 1.7891566e-07 2.6275258e-08 9.7990764e-08 1.0453755e-07 1.5184849e-08 2.321762e-08
8.614964e-08 1.4088602e-08 6.788533e-08 4.1182155e-08 2.4591769e-08 2.727878e-08 1.5554114e-08 5.7116274e-08
8.277724e-08 9.377814e-08 1.0828083e-07 2.1703881e-08 4.5700613e-08 5.1813423e-08 1.1213935e-08 1.39273775e-08
5.7873965e-08 1.5756452e-08 4.0602803e-08 1.479036e-08 1.9100325e-08 2.8525756e-08 1.6064345e-08 6.263533e-08
8.1136484e-08 7.945024e-08 1.15573926e-07 1.9506883e-08 7.6840465e-08 6.802077e-08 1.1556547e-08 1.4003544e-08
5.5025012e-08 1.2492594e-08 4.2696808e-08 1.9319822e-08 2.0209265e-08 2.230229e-08 1.2122589e-08 5.6815438e-08
1.0126081e-07 9.915626e-08 8.728293e-08 1.0869032e-08 7.937714e-08 5.7436374e-08 1.0353948e-08 7.2055077e-09
3.6153864e-08 1.6326078e-08 3.5778875e-08 1.1998038e-08 1.4893672e-08 3.0923864e-08 1.387805e-08 6.320545e-08
5.8341122e-08 5.7464703e-08 1.277726e-07 1.6394072e-08 5.2734283e-08 6.763768e-08 5.681775e-09 1.1232763e-08
6.239272e-08 4.6593294e-09 4.1812292e-08 2.0689773e-08 1.392304e-08 1.37422465e-08 6.3502257e-09 3.5828936e-08
2.5171119e-08 2.1085228e-08 6.159915e-08 7.061866e-09 3.2523875e-08 2.9896125e-08 3.821815e-09 5.766052e-09
3.0643267e-08 2.9097933e-09 1.7718213e-08 1.2393161e-08 6.4804886e-09 4.7898876e-09 2.2470543e-09 1.33342315e-08

exp_avg f4 [378]
00000000: 91ec 9938 aac6 a0b8 5e2a f6b7 8447 85b7
00000010: d1d1 a238 78fc 1336 641a 86b8 16e4 b9b4
00000020: 4c63 0338 dd70 3a38 994a e537 dff7 9133
00000030: deb5 f837 2593 ac38 78a1 4d38 ab47 0e38
00000040: ae0e 7637 e0ca 2e38 0272 ce37 9c72 fc37
00000050: d339 ea37 f5cf a237 f46b ff37 fc88 c937
00000060: 5f11 f536 477a c036 7dd1 6537 8dbe 1cb8
00000070: 8e1d 70b9 6b8e 8238 ca59 ff38 84de 9538
00000080: dafc c036 ea81 04b8 d775 edb6 7e6f f9b6
00000090: 2cf4 5536 8613 c737 d28c 9538 735f 8338
000000a0: a4a4 6538 7d03 a337 9cda 9e38 3dbb e437
000000b0: fff0 e237 073b 12b7 2634 cc37 4408 9337
000000c0: c0ba ef37 45b8 de37 f64c 8637 3a61 c936
000000d0: 0b2f 0737 6edc 0739 c0ef ab38 f417 4937
000000e0: 8e95 ee36 1219 7238 f5d1 1f38 02ff 8fb8
000000f0: 9ac4 42b8 c5d6 6738 d736 9b37 2d9d 2637
00000100: 5257 9db7 7748 2a38 5776 8138 323f 9e38
00000110: 251e 2238 fc73 2638 8d7c c636 40a1 1037
00000120: a66c aa37 3b91 2b37 ee79 c937 32c2 6237
00000130: b8a1 2b37 8fb5 7337 0e4d a938 64ec 83b8
00000140: 31fd 9a38 a978 5c37 4b32 87b7 8ac2 2db8
00000150: d5f2 0d37 4ef6 2338 5c02 3f38 f292 81b6
00000160: 97d7 e537 58a8 5037 63be df37 5a21 50b6
00000170: 0a15 8238 18db b237 7e7f b737 6322 0038
00000180: d647 1c38 f9fa 6a37 96cb 98b5 8bfd 5b37
00000190: 0a17 1c37 4ad6 2b37 304a f437 d800 5338
000001a0: ef80 3fb8 96a8 0d38 9363 bb38 665a 22b8
000001b0: b816 d537 3ef2 2f38 73e3 ab38 2dba 7538
000001c0: d53a 9538 e578 4738 9a51 3138 d7cc 0838
000001d0: 6cb8 0737 18df 1d38 24ef 0938 420d 8c37
000001e0: ccb2 8637 8f4f 40b6 539c 9f37 d586 3837
000001f0: 5c4a 2b37 eb29 86b8 7c0f 9a37 4736 4337
00000200: 625c d338 68a5 0538 c865 f5b7 3492 8738
00000210: c9c2 5e37 0e90 be38 1b8e 8438 7f0e f937
00000220: b0f3 6738 3ad1 3138 fcd4 0238 f6e2 ddb6
00000230: 1fcb ba37 5bc9 c137 8828 9537 78b3 1f38
00000240: 53d7 5837 9eab a136 9ad1 8337 9c2b 9c38
00000250: 749b 1638 bb49 9e38 7e45 9e36 bba8 9a38
00000260: 4c30 e3b7 5044 1b38 3e80 7f38 d6ee d837
00000270: 789c a237 f48a 8a38 97f6 8138 deec d637
00000280: b74c 3c38 dd80 3f38 556f f537 4b53 e337
00000290: da98 a537 73d2 bb37 14ba a636 06b5 6737
000002a0: e75b a338 b993 1439 4478 9b38 74cc 07b8
000002b0: 46bf e738 1a2f 6438 2b8e 9238 5a31 31b8
000002c0: 4597 a635 8e28 fc37 1867 5a38 f4cd 1038
000002d0: 5f09 a237 a4d3 1738 0709 0338 e5e0 d037
000002e0: 5bda b837 a056 2837 625d e836 9314 0037
000002f0: 50e0 00b7 0469 8cb8 ab56 a5b7 ef7b dd36
00000300: bf1b c638 4482 0fb8 b7c8 7938 df8c ef38
00000310: f6ea 5938 67b8 0f38 c354 3b38 7cfa e736
00000320: 287e c137 2304 3238 6752 8f37 e9fd 9737
00000330: 4945 2d37 7da0 1a37 95ac f936 63d6 96b7
00000340: 1a19 1538 8315 5d38 62cd e1b8 dc5e 8db8
00000350: 316f ce37 c6af 83b7 11ef 8b37 6b5e 5f38
00000360: 92d3 0438 3b66 c237 46ca 8737 a289 5237
00000370: 16c5 5837 5f52 bf37 39cf 8d36 33c1 1d37
00000380: 7cb6 d434 feec 0f36 aa23 3db7 1774 10b7
00000390: ce8d 95b7 8ab7 c937 7119 b437 5ee0 6438
000003a0: c237 79b7 8fda 8cb5 a82c 0638 1186 2d38
000003b0: ee88 3938 9fbb 9937 b152 8a37 4509 d237
000003c0: 4ffe 5637 26ef 7437 acbb 2837 4252 c9b7
000003d0: d5ad 9ab6 687a 32b8 98d7 ec36 7ba2 3c38
000003e0: f413 5938 c546 0136 caf1 c937 617a 8037
000003f0: 42fd 5036 31f5 9c37 ce31 9737 4bcc 6637
7.3396724e-05 -7.6663986e-05 -2.9345214e-05 -1.5888138e-05 7.763843e-05 2.2051663e-06 -6.3945336e-05 -3.462489e-07
3.132531e-05 4.4450968e-05 2.7333665e-05 6.797176e-08 2.9648592e-05 8.229007e-05 4.902619e-05 3.3922184e-05
1.46661605e-05 4.1673775e-05 2.4610203e-05 3.009411e-05 2.79219e-05 1.9408742e-05 3.0448638e-05 2.4024856e-05
7.3035912e-06 5.736281e-06 1.3698239e-05 -3.7370763e-05 -0.00022899194 6.2254105e-05 0.00012176072 7.1463204e-05
5.7514817e-06 -3.1592244e-05 -7.0768688e-06 -7.4337577e-06 3.18816e-06 2.373174e-05 7.1311035e-05 6.2643456e-05
5.4751188e-05 1.9432739e-05 7.574746e-05 2.7266908e-05 2.7053522e-05 -8.7160215e-06 2.4342979e-05 1.7527615e-05
2.8577982e-05 2.655027e-05 1.6009883e-05 6.0015855e-06 8.05758e-06 0.0001295672 8.198572e-05 1.1986111e-05
7.110363e-06 5.7720645e-05 3.810409e-05 -6.86627e-05 -4.6436304e-05 5.527471e-05 1.8502977e-05 9.930966e-06
-1.875652e-05 4.0598647e-05 6.173242e-05 7.545798e-05 3.8651884e-05 3.9685503e-05 5.9153595e-06 8.620613e-06
2.0316173e-05 1.0226208e-05 2.4017845e-05 1.3515864e-05 1.0230047e-05 1.4526201e-05 8.0729005e-05 -6.290598e-05
7.390453e-05 1.3141115e-05 -1.6116674e-05 -4.1427593e-05 8.460794e-06 3.9091618e-05 4.5540146e-05 -3.8616063e-06
2.739932e-05 1.2436962e-05 2.6672327e-05 -3.1013828e-06 6.202802e-05 2.1321277e-05 2.1874668e-05 3.0549603e-05
3.72602e-05 1.4005921e-05 -1.1384134e-06 1.311245e-05 9.303689e-06 1.0242287e-05 2.9121613e-05 5.0307106e-05
-4.5658027e-05 3.3774028e-05 8.935402e-05 -3.8708e-05 2.5402158e-05 4.1948857e-05 8.196281e-05 5.858594e-05
7.115832e-05 4.755789e-05 4.2276086e-05 3.26157e-05 8.089566e-06 3.763949e-05 3.2886062e-05 1.6695474e-05
1.6057304e-05 -2.8656539e-06 1.9027071e-05 1.0998648e-05 1.0209707e-05 -6.397426e-05 1.8365441e-05 1.1635543e-05
0.00010078472 3.1863718e-05 -2.9253672e-05 6.464534e-05 1.3277583e-05 9.086738e-05 6.32072e-05 2.9689863e-05
5.5301643e-05 4.2394946e-05 3.1192772e-05 -6.612735e-06 2.2267513e-05 2.3101156e-05 1.7781058e-05 3.8075697e-05
1.2924737e-05 4.818153e-06 1.571402e-05 7.4467825e-05 3.5907564e-05 7.5477605e-05 4.716857e-06 7.374721e-05
-2.7082999e-05 3.70185e-05 6.0916173e-05 2.5860423e-05 1.9384766e-05 6.606235e-05 6.19713e-05 2.5621088e-05
4.489414e-05 4.5657962e-05 2.9258119e-05 2.7099295e-05 1.974071e-05 2.2390135e-05 4.968848e-06 1.3810821e-05
7.789564e-05 0.00014169411 7.413377e-05 -3.237692e-05 0.00011050566 5.4403303e-05 6.988303e-05 -4.224605e-05
1.2411989e-06 3.0059626e-05 5.2071264e-05 3.4524084e-05 1.9316269e-05 3.619831e-05 3.124124e-05 2.4900257e-05
2.2036189e-05 1.0033749e-05 6.92501e-06 7.634185e-06 -7.681621e-06 -6.695281e-05 -1.970989e-05 6.600741e-06
9.446544e-05 -3.4215176e-05 5.9553156e-05 0.000114226474 5.1955656e-05 3.4265595e-05 4.4663215e-05 6.9134967e-06
2.3066139e-05 4.244236e-05 1.70853e-05 1.8118839e-05 1.0327735e-05 9.216482e-06 7.4408695e-06 -1.7981225e-05
3.5547746e-05 5.271054e-05 -0.000107670916 -6.741073e-05 2.4608891e-05 -1.5698268e-05 1.6681415e-05 5.3255277e-05
3.1668293e-05 2.3174207e-05 1.6187445e-05 1.25490205e-05 1.2920491e-05 2.2807331e-05 4.2262513e-06 9.402912e-06
3.9620852e-07 2.1446608e-06 -1.1273582e-05 -8.610098e-06 -1.7828217e-05 2.4046534e-05 2.146952e-05 5.4568394e-05
-1.4854539e-05 -1.0494422e-06 3.198968e-05 4.1371273e-05 4.4234963e-05 1.832639e-05 1.6489388e-05 2.5038267e-05
1.2814605e-05 1.4599214e-05 1.0057276e-05 -2.3999371e-05 -4.6097944e-06 -4.2552507e-05 7.0584465e-06 4.4974015e-05
5.1755414e-05 1.9263691e-06 2.4073659e-05 1.5315776e-05 3.114183e-06 1.8710825e-05 1.8023795e-05 1.3756634e-05
