models/graph_vae.pt (torch, 102612 bytes, 56 tensors)

prior.mean f4 [4]
0.0 0.0 0.0 0.0
00000000: 0000 0000 0000 0000 0000 0000 0000 0000

prior.std f4 [4]
1.0 1.0 1.0 1.0
00000000: 0000 803f 0000 803f 0000 803f 0000 803f

decoder.decoder_net.mlp.0.weight f4 [16, 4]
0.6097123 0.51870364 -0.06816526 -0.09905011 0.63631743 0.74974906 0.31275898 0.76902187
0.72631425 -0.08782196 0.744894 -0.28937155 -0.82070833 0.5170081 0.049791697 -0.5595601
-0.04747499 0.16416289 -0.4417439 -0.5272802 -0.4294511 -0.888006 0.469844 0.23298524
-0.4207742 -0.13210672 -0.53385425 0.11561349 -0.8990501 0.4220501 0.056637034 0.54284954
0.3393013 -0.722427 0.81872946 -0.18810768 -0.3548561 0.7487153 0.722593 -0.32238492
0.19743356 0.48947138 -0.38110143 0.62425125 0.5454947 -0.7738174 -0.4417444 -0.7357827
0.43959266 0.20923361 -0.2974236 0.7724195 -0.7013298 -0.7512559 0.69354993 0.704149
0.2543466 0.5942753 -0.6999563 -0.66736823 0.56769556 -0.29426998 -0.37223992 0.24778199
00000000: 1b16 1c3f c3c9 043f 3a9a 8bbd c9da cabd
00000010: b3e5 223f 8eef 3f3f f221 a03e 9ede 443f
00000020: bbef 393f 00dc b3bd 60b1 3e3f 8228 94be
00000030: f119 52bf a55a 043f 61f2 4b3d 553f 0fbf
00000040: 2375 42bd 511a 283e 422c e2be d6fb 06bf
00000050: 04e1 dbbe 5c54 63bf 658f f03e af93 6e3e
00000060: b76f d7be fc46 07be acaa 08bf c4c6 ec3d
00000070: 2628 66bf f316 d83e 3cfc 673d 30f8 0a3f
00000080: e6b8 ad3e faf0 38bf 4198 513f 4d9f 40be
00000090: b3af b5be ceab 3f3f dbfb 383f a30f a5be
000000a0: 062c 4a3e fe9b fa3e ba1f c3be eece 1f3f
000000b0: 8aa5 0b3f e618 46bf 522c e2be 415c 3cbf
000000c0: 4a12 e13e 5641 563e e847 98be 49bd 453f
000000d0: 5a8a 33bf 4f52 40bf 7d8c 313f 1c43 343f
000000e0: b839 823e 6d22 183f 5630 33bf a5d8 2abf
000000f0: 7f54 113f 8eaa 96be 3b96 bebe 90ba 7d3e

decoder.decoder_net.mlp.0.bias f4 [16]
0.29710698 0.28269094 0.0109525705 0.08877695 0.5475874 0.55693907 0.7465545 0.2703982
0.3828939 0.16293877 0.26827645 0.5132082 0.23839508 0.13870823 0.7819883 0.71832216
00000000: 681e 983e debc 903e 6972 333c b1d0 b53d
00000010: b02e 0c3f 8f93 0e3f 321e 3f3f a271 8a3e
00000020: ab0a c43e 6cd9 263e 885b 893e 9d61 033f
00000030: d71d 743e 8809 0e3e 6330 483f f6e3 373f

decoder.decoder_net.mlp.2.weight f4 [378, 16]
-0.3621789 -0.12679835 -0.5262737 -0.3782877 -0.37331793 -0.34260902 -0.11637902 -0.41551018
-0.26758948 -0.55852485 -0.51820385 -0.5050178 -0.16732459 -0.5438034 -0.107185714 -0.32847774
0.07798716 -0.044726137 0.16991116 0.22373348 -0.060661055 0.059386104 0.094847724 0.19107443
0.3376732 -0.011979245 0.23073198 0.26813415 0.06961447 -0.012105685 0.069583945 0.0663742
-0.27531192 -0.27286318 -0.5311241 -0.2116839 -0.27513224 -0.22138086 -0.51334584 -0.4533789
-0.4024222 -0.41352126 -0.56454617 -0.24802192 -0.27566224 -0.49674168 -0.4064966 -0.33693397
-0.424962 -0.29264933 0.13659352 -0.43994722 -0.30358928 -0.27014408 -0.57676136 -0.49622875
0.09031815 -0.5201424 -0.22251126 -0.09624873 -0.3343588 -0.04292163 -0.3428584 -0.44344738
-0.562682 -0.54987985 -0.47711256 -0.41537806 -0.541732 -0.51190066 -0.48014703 -0.4251063
-0.3850485 -0.6007766 -0.28597468 -0.23112908 -0.21703403 -0.17721398 -0.20557362 -0.189981
-0.17389125 -0.3600247 -0.4169834 -0.21247871 -0.2412178 -0.5885718 -0.3579528 -0.51171833
-0.5211025 -0.28793848 -0.37364355 -0.30893365 -0.0780967 -0.11119673 -0.3830146 -0.34447524
-0.4017097 -0.39878857 -0.37835675 -0.20223881 -0.18549022 -0.31273967 -0.3569581 -0.282482
-0.48612565 -0.2579789 -0.3291754 -0.19291651 -0.4339339 -0.4219693 -0.49253383 -0.23551743
-0.33311716 -0.2859605 -0.14221886 -0.069455855 -0.3172382 -0.34563962 -0.24871857 -0.28839862
-0.1596443 -0.43047482 -0.09206639 -0.2082282 -0.31544077 -0.12347145 -0.26187453 -0.025964083
-0.26765752 -0.44100025 -0.108733185 -0.63934606 -0.22917749 -0.39095348 -0.36757025 -0.45981243
-0.23320924 -0.2725562 -0.54107904 -0.44316015 -0.13248396 -0.11830674 -0.08838445 -0.34320453
-0.3157256 -0.19856483 -0.426436 -0.57513607 -0.3011018 -0.32960004 -0.20955288 -0.1482834
-0.17301375 -0.5583432 -0.23178755 -0.5205019 -0.37191495 -0.20503727 -0.083423615 -0.54302734
-0.27457964 -0.3205515 -0.35207918 -0.5787528 -0.23795432 -0.59580255 -0.3945593 -0.54951334
-0.2111771 -0.2937246 -0.49031126 -0.38307318 -0.49071366 -0.2502957 -0.34931177 -0.27026564
-0.28264207 -0.12615563 -0.19903901 -0.342502 -0.45656204 -0.45426738 -0.14938693 -0.14763224
-0.239942 -0.25159752 -0.15736312 -0.1621892 -0.26866886 -0.21886279 -0.37735713 -0.34939465
-0.60205716 -0.40739688 -0.43144754 -0.6675156 -0.32237172 -0.24744366 -0.3225746 -0.56383777
-0.22856161 -0.4642984 -0.32788792 -0.3390882 -0.41782656 -0.20841938 -0.30550492 -0.30517483
-0.1461912 -0.07914689 -0.15324125 -0.40120336 -0.42564833 -0.26341897 -0.24792357 -0.57435095
-0.5443714 -0.23807146 -0.20817879 -0.2626047 -0.58813244 -0.4187403 -0.40905368 -0.5737578
-0.15818977 -0.3968086 -0.46604046 -0.3018423 -0.35540235 -0.2328006 -0.5374215 -0.1747958
-0.38045728 -0.64944136 -0.28884622 -0.5647347 -0.5129637 -0.46262512 -0.22377305 -0.41446903
-0.4703299 -0.23165822 -0.5443245 -0.3315229 -0.13897382 -0.40563565 -0.5103288 -0.47157493
-0.32988593 -0.2761609 -0.6330176 -0.2024719 -0.35080457 -0.17560674 -0.3419401 -0.089416966
00000000: 836f b9be 6dd7 01be e0b9 06bf edae c1be
00000010: 8723 bfbe 736a afbe 2058 eebd c0bd d4be
00000020: 7d01 89be 7cfb 0ebf 02a9 04bf d948 01bf
00000030: 2357 2bbe b336 0bbf 2f84 dbbd 3c2e a8be
00000040: bbb7 9f3d c132 37bd 31fd 2d3e 641a 653e
00000050: ba77 78bd d83e 733d 863f c23d 04a9 433e
00000060: 80e3 ac3e 9844 44bc 0145 6c3e e148 893e
00000070: 0892 8e3d ec56 46bc 0782 8e3d 32ef 873d
00000080: aff5 8cbe b9b4 8bbe c0f7 07bf aac3 58be
00000090: 22de 8cbe aab1 62be a26a 03bf 4721 e8be
000000a0: 480a cebe 0fb9 d3be 1986 10bf 75f9 7dbe
000000b0: 9a23 8dbe ed54 febe 5320 d0be 9c82 acbe
000000c0: 9f94 d9be 22d6 95be 2cdf 0b3e c340 e1be
000000d0: 0e70 9bbe 5350 8abe a2a6 13bf b211 febe
000000e0: b9f8 b83d 0d28 05bf fed9 63be 0e1e c5bd
000000f0: 1431 abbe 97ce 2fbd 238b afbe 890b e3be
00000100: ed0b 10bf edc4 0cbf 1948 f4be 6fac d4be
00000110: f3ae 0abf ec0b 03bf d5d5 f5be 88a7 d9be
00000120: 1425 c5be 7fcc 19bf 466b 92be 1aad 6cbe
00000130: 2b3e 5ebe 9577 35be e481 52be 618a 42be
00000140: 8c10 32be 2855 b8be d97e d5be 0594 59be
00000150: cd01 77be a4ac 16bf 9745 b7be f9ff 02bf
00000160: f966 05bf ac6c 93be 354e bfbe 8d2c 9ebe
00000170: 2af1 9fbd 1cbb e3bd 7d1a c4be 0f5f b0be
00000180: e5ac cdbe 042e ccbe fab7 c1be b117 4fbe
00000190: 26f1 3dbe 6a1f a0be 36c3 b6be 7ba1 90be
000001a0: 76e5 f8be cf15 84be ae89 a8be e88b 45be
000001b0: 962c debe 5c0c d8be 652d fcbe 7b2b 71be
000001c0: 558e aabe 6a69 92be d2a1 11be df3e 8ebd
000001d0: 0c6d a2be adf7 b0be 15b0 7ebe fca8 93be
000001e0: cc79 23be 3267 dcbe 4e8d bcbd c639 55be
000001f0: 7481 a1be 99de fcbd 6b14 86be a1b2 d4bc
00000200: 680a 89be c9ca e1be 81af debd 2fac 23bf
00000210: 81ad 6abe 0e2b c8be 2b32 bcbe 896c ebbe
00000220: 67ce 6ebe 7c8c 8bbe 2884 0abf e3e5 e2be
00000230: e0a9 07be ce4a f2bd e802 b5bd 81b8 afbe
00000240: c9a6 a1be 9454 4bbe d255 dabe 1e3c 13bf
00000250: 042a 9abe 56c1 a8be 0895 56be 9bd7 17be
00000260: 842a 31be 94ef 0ebf b759 6dbe 9d3f 05bf
00000270: a36b bebe 4af5 51be 00da aabd d703 0bbf
00000280: b495 8cbe 541f a4be b943 b4be 2529 14bf
00000290: 4caa 73be 8486 18bf ad03 cabe e8ac 0cbf
000002a0: cf3e 58be 1263 96be 140a fbbe 2b22 c4be
000002b0: d23e fbbe c226 80be fed8 b2be 4260 8abe
000002c0: 76b6 90be f12e 01be e2d0 4bbe 6c5c afbe
000002d0: 80c2 e9be bc95 e8be e3f8 18be e82c 17be
000002e0: 5bb3 75be 64d1 80be cc23 21be ed14 26be
000002f0: f78e 89be 911d 60be f434 c1be dbe3 b2be
00000300: 6b20 1abf 5396 d0be b1e6 dcbe 4de2 2abf
00000310: e80d a5be df61 7dbe 7f28 a5be ac57 10bf
00000320: 0e0c 6abe 85b8 edbe ede0 a7be f89c adbe
00000330: 5ded d5be e46b 55be 246b 9cbe e03f 9cbe
00000340: 25b3 15be c417 a2bd 46eb 1cbe 876a cdbe
00000350: 94ee d9be dade 86be addf 7dbe aa08 13bf
00000360: ed5b 0bbf 01c9 73be d22c 55be 2074 86be
00000370: d98f 16bf 2165 d6be 7c6f d1be cbe1 12bf
00000380: 80fc 21be 7f2a cbbe db9c eebe 138b 9abe
00000390: 4cf7 b5be 4863 6ebe 7594 09bf acfd 32be
000003a0: 4ccb c2be ca41 26bf a7e3 93be 7492 10bf
000003b0: 9751 03bf 33dd ecbe c324 65be 4935 d4be
000003c0: 15cf f0be d037 6dbe da58 0bbf 5fbd a9be
000003d0: 274f 0ebe 7aaf cfbe e9a4 02bf 4572 f1be
000003e0: cfe6 a8be f664 8dbe 710d 22bf cb54 4fbe
000003f0: a89c b3be 41d2 33be c612 afbe 3e20 b7bd

decoder.decoder_net.mlp.2.bias f4 [378]
-0.11430874 0.10715897 -0.47634465 -0.08419322 -0.3334522 -0.43182114 -0.36953112 -0.31104589
-0.13101067 -0.5409991 -0.1654937 -0.46093386 -0.34629157 -0.5510729 -0.10927699 -0.48190686
-0.16313319 -0.29909593 -0.07040017 -0.25722277 -0.27696168 -0.001142314 -0.09698856 -0.29234868
-0.12788272 -0.18603514 -0.23255351 -0.4960805 -0.37860957 -0.3322897 -0.07478573 -0.39430588
-0.1448335 -0.3101347 -0.40107512 -0.3413225 -0.14184558 -0.099539004 -0.025048157 -0.31810138
-0.17637207 -0.22279331 -0.35071802 -0.37118238 -0.10358623 -0.4574953 -0.1278858 -0.14948408
-0.3510777 -0.377075 -0.09053802 0.031489883 -0.1428565 -0.33988234 0.091470174 -0.2112075
-0.18046574 -0.4376662 -0.5030282 -0.14989644 -0.018540736 -0.47049972 -0.3342607 -0.34143957
-0.45007047 -0.22107318 -0.46222794 -0.25220457 -0.34400487 -0.2566979 -0.25190133 -0.23577966
-0.40649867 -0.095095016 -0.30687413 0.02865276 -0.14959167 -0.30366102 -0.44169027 0.3626564
-0.07317517 -0.25878233 -0.16414124 -0.24740969 -0.30908114 -0.4890485 -0.20639999 -0.31601676
-0.40500847 -0.34161755 -0.24269716 -0.48833147 -0.50585717 -0.3446953 -0.04468606 -0.16295151
-0.23367152 -0.03461928 -0.26308918 -0.15791836 -0.26551047 0.019766893 -0.41652915 -0.19736414
-0.40909052 -0.4232524 -0.017212931 -0.47674006 -0.49385154 -0.46193236 -0.4179323 -0.20005916
-0.18414353 -0.087197036 -0.17009601 -0.31173804 -0.117715836 -0.3000311 -0.09893752 -0.07882264
-0.047737736 -0.27138105 -0.07485671 0.009218086 -0.3233022 -0.44376388 -0.17118661 -0.23477115
-0.12616012 -0.17453738 -0.28858548 -0.12388017 -0.5364138 -0.13463345 -0.29910052 -0.3531643
-0.51186943 -0.28965348 -0.4079993 -0.2758528 -0.10270676 -0.41241354 -0.06601332 -0.24979895
-0.052004445 -0.44398478 -0.16360185 -0.43585187 -0.21742651 -0.27569374 -0.39195526 -0.18352617
-0.19719636 -0.034512356 -0.41439378 -0.47233593 -0.025912775 -0.17291293 -0.42303967 -0.3701333
-0.09067563 -0.32496455 -0.28604147 -0.425718 -0.3559779 -0.06950507 0.04459554 -0.083091795
-0.44034716 -0.120794594 -0.16571184 -0.011162326 -0.43645468 -0.4535728 -0.28583363 -0.3904032
-0.41099226 -0.37968293 -0.14881103 -0.24668488 -0.28678462 -0.3189963 -0.10434957 -0.18924762
-0.036581803 -0.1615761 -0.33585292 -0.42833307 -0.23529576 -0.002815832 -0.28274247 -0.11754785
-0.14726597 -0.15461202 -0.428656 -0.41700655 -0.47349235 -0.3212541 -0.16190618 -0.2720204
-0.20716947 -0.45187214 -0.21676034 -0.11098447 -0.3600822 -0.34460413 -0.06171286 -0.040184934
-0.3225391 -0.08971946 -0.27548853 -0.3285262 -0.3436597 -0.22201368 -0.39390787 -0.024556976
-0.31160086 -0.42628422 -0.3321644 -0.2886437 0.010222732 -0.28586265 -0.28637314 -0.3820627
-0.04681859 -0.3479176 -0.05431319 -0.15725248 -0.2391657 -0.1329006 -0.30922565 -0.12217395
-0.30328012 -0.34861958 -0.01306059 -0.07153312 -0.4081012 -0.43244907 -0.29364005 -0.009488583
-0.35949937 -0.39207634 -0.101329446 -0.068960406 -0.14073947 -0.13729684 -0.24059291 -0.3328906
-0.038924582 -0.15093823 -0.05385061 -0.33290404 -0.14007768 -0.4292677 -0.028877057 -0.30483812
00000000: b31a eabd 2976 db3d 72e3 f3be 7f6d acbd
00000010: 3fba aabe a917 ddbe 2f33 bdbe 6841 9fbe
00000020: a927 06be eb7e 0abf 2e77 29be 86ff ebbe
00000030: 214d b1be 1d13 0dbf 9dcc dfbd 7fbc f6be
00000040: 630c 27be 1a23 99be f72d 90bd b4b2 83be
00000050: eccd 8dbe b3b9 95ba f0a1 c6bd baae 95be
00000060: b0f3 02be ff7f 3ebe 8222 6ebe 43fe fdbe
00000070: 1dd9 c1be e021 aabe 4329 99bd 76e2 c9be
00000080: 3c4f 14be fac9 9ebe b859 cdbe d3c1 aebe
00000090: f83f 11be 1bdb cbbd cb31 cdbc 2fde a2be
000000a0: e19a 34be ee23 64be 5091 b3be 9e0b bebe
000000b0: 0425 d4bd d33c eabe 7ff4 02be 5b12 19be
000000c0: 75c0 b3be f90f c1be ff6b b9bd 89fb 003d
000000d0: f948 12be 0f05 aebe b754 bb3d c746 58be
000000e0: 03cc 38be c915 e0be 75c6 00bf 747e 19be
000000f0: bee2 97bc 57e5 f0be 3824 abbe 2bd1 aebe
00000100: a36f e6be 0261 62be 24a9 ecbe f520 81be
00000110: 6821 b0be e86d 83be 36f9 80be 3970 71be
00000120: 9820 d0be 2dc1 c2bd 9b1e 9dbe 31b9 ea3c
00000130: 8f2e 19be 7579 9bbe 3a25 e2be 1aae b93e
00000140: dddc 95bd 1e7f 84be a414 28be f758 7dbe
00000150: e23f 9ebe 9164 fabe 855a 53be f3cc a1be
00000160: 455d cfbe 7fe8 aebe 9b85 78be 9506 fabe
00000170: db7f 01bf e77b b0be bb08 37bd c3dc 26be
00000180: 9647 6fbe f2cc 0dbd a0b3 86be 5ab5 21be
00000190: fdf0 87be 2eee a13c 4f43 d5be d319 4abe
000001a0: 5074 d1be 8ab4 d8be 2202 8dbc 4617 f4be
000001b0: 1cda fcbe 6682 ecbe 39fb d5be 4fdc 4cbe
000001c0: 1f90 3cbe 5c94 b2bd a62d 2ebe 219c 9fbe
000001d0: 0015 f1bd ad9d 99be c19f cabd c46d a1bd
000001e0: a588 43bd 75f2 8abe 7a4e 99bd 7407 173c
000001f0: de87 a5be 0535 e3be 8b4b 2fbe d967 70be
00000200: 1e30 01be edb9 32be 7ac1 93be e3b4 fdbd
00000210: 6a52 09bf 5add 09be b423 99be f3d1 b4be
00000220: e009 03bf 764d 94be 49e5 d0be 943c 8dbe
00000230: ec57 d2bd de27 d3be fe31 87bd 4ccb 7fbe
00000240: 9d02 55bd f951 e3be 3e87 27be fa27 dfbe
00000250: 0ea5 5ebe bb27 8dbe 5cae c8be 49ee 3bbe
00000260: d8ed 49be d45c 0dbd 6c2b d4be 04d6 f1be
00000270: 0747 d4bc 1610 31be a898 d8be 1d82 bdbe
00000280: 25b4 b9bd c161 a6be 0774 92be b6f7 d9be
00000290: bc42 b6be ad58 8ebd d0a9 363d 082c aabd
000002a0: 2f75 e1be 2863 f7bd 5db0 29be 30e2 36bc
000002b0: fd76 dfbe b23a e8be c958 92be eee2 c7be
000002c0: 946d d2be cd65 c2be eb61 18be f69a 7cbe
000002d0: 6fd5 92be 7c53 a3be 3ab5 d5bd 21ca 41be
000002e0: cdd6 15bd 3574 25be eaf4 abbe 794e dbbe
000002f0: 5ff1 70be d289 38bb 9fc3 90be edbc f0bd
00000300: e4cc 16be 9d52 1ebe cd78 dbbe e281 d5be
00000310: 976d f2be 6b7b a4be bcca 25be 4246 8bbe
00000320: 3c24 54be c95b e7be 6cf6 5dbe d34b e3bd
00000330: b25c b8be f46f b0be a0c6 7cbd f598 24bd
00000340: d823 a5be d6be b7bd d50c 8dbe 9634 a8be
00000350: 2af4 afbe 8e57 63be 4bae c9be b62b c9bc
00000360: 268a 9fbe ed41 dabe 7411 aabe 1bc9 93be
00000370: 3f7d 273c 975c 92be 809f 92be b99d c3be
00000380: dac4 3fbd 4122 b2be 8277 5ebd cb06 21be
00000390: dae7 74be 1817 08be d352 9ebe 5636 fabd
000003a0: 8847 9bbe 447e b2be 16fc 55bc f57f 92bd
000003b0: a4f2 d0be f769 ddbe fd57 96be 0076 1bbc
000003c0: 4d10 b8be 3bbe c8be d085 cfbd 1d3b 8dbd
000003d0: 021e 10be 8b97 0cbe fd5d 76be a370 aabe
000003e0: 626f 1fbd 8d8f 1abe 7592 5cbd 6672 aabe
000003f0: 8670 0fbe fac8 dbbe 948f ecbc be13 9cbe

encoder.encoder_net.input_net.0.weight f4 [4, 7]
-0.05051565 0.16422032 0.06800485 0.20129785 0.07817536 0.18304376 0.26168847 0.17580548
0.19643162 -0.010848749 -0.3492585 0.1370204 0.17912455 0.086874165 -0.15577696 0.2590742
0.046140328 -0.054640252 -0.16921248 -0.08777702 -0.10616458 -0.24229768 -0.21666743 0.1446986
-0.2062049 0.13198303 0.17245702 -0.09967095
00000000: 80e9 4ebd 5f29 283e 2046 8b3d 0621 4e3e
00000010: 671a a03d d36f 3b3e 08fc 853e 5a06 343e
00000020: 5f25 493e f4be 31bc 03d2 b2be 134f 0c3e
00000030: 6d6c 373e 15eb b13d ff83 1fbe 60a5 843e
00000040: a4fd 3c3d 75ce 5fbd 0946 2dbe 70c4 b3bd
00000050: d16c d9bd e21c 78be 11de 5dbe df2b 143e
00000060: 6127 53be 8f26 073e 9398 303e 4820 ccbd

encoder.encoder_net.input_net.0.bias f4 [4]
0.027628278 -0.2558163 0.11707886 -0.17534965
00000000: b354 e23c 5bfa 82be 0bc7 ef3d dc8e 33be

encoder.encoder_net.gru.weight_ih_l0 f4 [12, 4]
0.22903374 -0.22304346 -0.23855467 0.5784421 0.14550528 0.40619424 0.33791953 0.45077595
0.23045915 -0.46575567 -0.119516045 0.19249226 0.34126353 0.28826457 0.39869606 -0.21298036
-0.28077173 -0.27026352 -0.46387902 0.01738014 -0.3541683 0.20538853 -0.121825166 -0.5141144
0.25039795 -0.059012517 -0.2739387 -0.13911237 0.18798836 0.31777427 -0.046853792 0.20224024
0.27642888 -0.12565166 0.4527864 -0.49987713 -0.29682565 0.3629645 0.13122019 0.024669748
-0.298711 0.23538788 -0.0332409 0.101133026 -0.18147555 0.49108872 -0.4652936 0.3089785
00000000: d287 6a3e 8165 64be ad47 74be c814 143f
00000010: 56ff 143e b1f8 cf3e ca03 ad3e 1bcc e63e
00000020: 7cfd 6b3e 8777 eebe d4c4 f4bd b11c 453e
00000030: 18ba ae3e 6a97 933e e421 cc3e 8617 5abe
00000040: 50c1 8fbe fb5f 8abe 8d81 edbe cc60 8e3c
00000050: 8c55 b5be 5f51 523e 797f f9bd 009d 03bf
00000060: 2934 803e 1cb7 71bd b141 8cbe 7973 0ebe
00000070: 0580 403e 4fb3 a23e c3e9 3fbd 1118 4f3e
00000080: 1688 8d3e d4aa 00be 9ed3 e73e e5ef ffbe
00000090: 88f9 97be 7cd6 b93e 965e 063e 3618 ca3c
000000a0: a6f0 98be 8509 713e 9c27 08bd d51e cf3d
000000b0: bad4 39be fb6f fb3e f63a eebe 6e32 9e3e

encoder.encoder_net.gru.weight_hh_l0 f4 [12, 4]
-0.18901904 0.10587416 0.06251253 0.39637113 -0.17959267 -0.19334559 -0.13398227 0.12673885
0.10863951 -0.4833154 0.35408252 0.3010785 -0.4528469 2.1929687e-05 0.43333262 0.10785908
-0.2898766 -0.054879416 -0.24430163 -0.31214792 0.11031998 -0.41016045 -0.3822 -0.3130516
-0.1438124 -0.10791499 -0.120126195 0.4547236 -0.46839747 0.23595886 0.2682171 -0.075593315
0.18250562 0.21805583 0.20267789 0.48147857 -0.33145398 0.35842454 -0.27177715 -0.24878429
-0.3256191 0.47127143 0.40954158 -0.15501164 -0.2888192 -0.32994264 -0.31765535 0.3376142
00000000: 358e 41be 8dd4 d83d 9206 803d 28f1 ca3e
00000010: 24e7 37be 63fc 45be a632 09be d4c7 013e
00000020: 647e de3d 1e75 f7be 4e4a b53e f626 9a3e
00000030: 8ddb e7be a5f5 b737 c6dd dd3e 39e5 dc3d
00000040: b56a 94be 3dc9 60bd 352a 7abe dad1 9fbe
00000050: 71ef e13d 8d00 d2be b8af c3be 4d48 a0be
00000060: 8f43 13be 8902 ddbd b904 f6bd 88d1 e83e
00000070: cbd1 efbe 339f 713e c053 893e abd0 9abd
00000080: c1e2 3a3e 074a 5f3e cb8a 4f3e 5c84 f63e
00000090: 56b4 a9be 6c83 b73e 6026 8bbe 4fc1 7ebe
000000a0: 8cb7 a6be 7d4a f13e 6faf d13e 5fbb 1ebe
000000b0: 1ce0 93be 3eee a8be b9a3 a2be c5db ac3e

encoder.encoder_net.gru.bias_ih_l0 f4 [12]
-0.40866512 -0.3511672 -0.17758588 0.10457509 -0.4563361 -0.16688053 -0.34551957 0.28314987
-0.2960047 -0.094861664 -0.43368417 -0.1179246
00000000: 8e3c d1be 30cc b3be 13d9 35be 772b d63d
00000010: e3a4 e9be bbe2 2abe f1e7 b0be 05f9 903e
00000020: ee8d 97be d546 c2bd da0b debe 7482 f1bd

encoder.encoder_net.gru.bias_hh_l0 f4 [12]
0.005708523 -0.2819088 -0.46681163 0.38427097 0.24759375 0.15008129 -0.09163377 0.2684107
-0.013670462 -0.49035463 -0.022872541 -0.32396904
00000000: 900e bb3b 5a56 90be ef01 efbe 2abf c43e
00000010: 3789 7d3e e9ae 193e 7caa bbbd 216d 893e
00000020: 13fa 5fbc c30f fbbe 325f bbbc 45df a5be

encoder.encoder_net.conv_layers.0.bias f4 [4]
-0.04636067 -0.063939966 -0.016725406 0.23327875
00000000: b0e4 3dbd f5f2 82bd b803 89bc a0e0 6e3e

encoder.encoder_net.conv_layers.0.lin.weight f4 [4, 4]
-0.28269562 -0.50074255 0.46736363 0.31297678 0.4490357 -0.48101333 -0.089295395 -0.34101075
0.123572044 -0.8511179 -0.86503243 0.7166842 0.32246125 -0.6512831 -0.25497037 0.78220946
00000000: 7bbd 90be aa30 00bf 494a ef3e 7e3e a03e
00000010: 02e8 e53e 6147 f6be 81e0 b6bd f698 aebe
00000020: 5713 fd3d dde2 59bf c472 5dbf 9e78 373f
00000030: a419 a53e 7dba 26bf 7a8b 82be e13e 483f

encoder.encoder_net.conv_layers.1.bias f4 [4]
-0.022044867 -0.027326103 -0.00902702 0.08904203
00000000: 7097 b4bc feda dfbc 11e6 13bc ab5b b63d

encoder.encoder_net.conv_layers.1.lin.weight f4 [4, 4]
-0.25843713 0.37509257 0.35122058 -0.7911164 -0.52574885 0.7113583 -0.7179224 0.028462188
0.10885767 0.83483934 0.78048044 -0.3948015 0.6535447 -0.5210049 -0.63511866 -0.5255102
00000000: df51 84be 220c c03e 2fd3 b33e 9b86 4abf
00000010: 7a97 06bf 941b 363f c3c9 37bf 8929 e93c
00000020: c5f0 de3d 08b8 553f 91cd 473f 6c23 cabe
00000030: b54e 273f 9460 05bf 2397 22bf d687 06bf

encoder.encoder_net.conv_layers.2.bias f4 [4]
-0.08575123 -0.026023377 -0.022464233 0.12770867
00000000: 579e afbd fa2e d5bc e906 b8bc 10c6 023e

encoder.encoder_net.conv_layers.2.lin.weight f4 [4, 4]
-0.556425 -0.2948192 0.20116107 0.02874616 -0.46380898 -0.588562 0.5260937 -0.7238874
0.7120975 0.49618277 -0.7338084 -0.051869456 -0.72390157 0.6981532 -0.086228214 -0.76849633
00000000: de71 0ebf 8bf2 96be 2bfd 4d3e 117d eb3c
00000010: 5f78 edbe 00ac 16bf 14ae 063f af50 39bf
00000020: 064c 363f ab0b fe3e deda 3bbf 1175 54bd
00000030: 9d51 39bf 2bba 323f 6b98 b0bd 2dbc 44bf

encoder.encoder_net.output_net.weight f4 [8, 4]
0.38587683 -0.051402878 0.18779291 0.018034564 0.06888455 -0.1428357 -0.28178662 -0.07694279
-0.544716 -0.111949794 -0.06645903 0.022004977 0.13510376 -0.19641542 -0.29649118 -0.18697992
0.1557478 0.22399318 0.4330511 0.11381139 -0.49981236 -0.13349561 -0.24203567 -0.13374028
0.0034795336 -0.355148 0.22631915 0.31362644 0.47379053 0.27826658 -0.47334722 -0.38349056
00000000: a691 c53e d38b 52bd c94c 403e 39bd 933c
00000010: 5813 8d3d 8643 12be 5646 90be 2e94 9dbd
00000020: 8272 0bbf ef45 e5bd ac1b 88bd c843 b43c
00000030: a458 0a3e 2021 49be b1cd 97be aa77 3fbe
00000040: 5a7c 1f3e 785e 653e e0b8 dd3e f215 e93d
00000050: 68e7 ffbe 13b3 08be 33d8 77be 36f3 08be
00000060: e308 643b f5d5 b5be 35c0 673e a593 a03e
00000070: ac94 f23e f578 8e3e 915a f2be e058 c4be

encoder.encoder_net.output_net.bias f4 [8]
0.22455455 -0.10710002 -0.27695936 -0.10440426 0.27898037 -0.3365729 0.04123931 0.04889663
00000000: a1f1 653e 4157 dbbd 9ecd 8dbe e7d1 d5bd
00000010: 84d6 8e3e 4853 acbe 8dea 283d d547 483d

exp_avg f4 [16, 4]
-0.0002539329 -0.00012321498 -0.0003335377 0.00011350604 -7.429937e-05 -8.22035e-05 -0.0004936041 -5.4310753e-05
7.4044714e-05 -0.00023911602 -0.00031203296 0.00010453762 0.00055758475 5.029162e-05 -0.00027564683 0.0005336767
0.00044040463 0.0004409025 -0.00036118098 0.0002805892 0.00025268696 0.00012964466 0.000103717684 9.596298e-05
-2.2067392e-05 0.00031250512 -0.00075299595 0.00043958865 0.00040643086 0.0001714919 -0.00016177406 -0.00013062239
2.4527328e-05 -0.00065620046 0.00041254147 0.00043460657 0.00015713797 -4.9304854e-05 -0.0008865785 0.00025326177
7.201146e-05 -0.00022430386 -5.566012e-05 -0.00040314536 0.00015888 0.00029895638 2.6381134e-05 0.00022303198
-0.00018499649 4.398678e-05 -8.991599e-05 -0.00034984914 0.00039357386 2.8436381e-05 -1.1000485e-05 -4.9677405e-05
3.5318495e-05 0.00041368968 -0.00032249634 0.000120990924 0.0003229842 0.00029285887 -0.000574275 0.00027656317
00000000: 4c22 85b9 4533 01b9 acde aeb9 170a ee38
00000010: 2cd1 9bb8 ab64 acb8 3665 01ba bacb 63b8
00000020: 7448 9b38 38bb 7ab9 5b98 a3b9 353b db38
00000030: e12a 123a 37f0 5238 b184 90b9 70e6 0b3a
00000040: 1ce6 e639 ef28 e739 e45c bdb9 0c1c 9339
00000050: 127b 8439 39f1 0739 0283 d938 bc3f c938
00000060: 5d1d b9b7 bad7 a339 b464 45ba 9778 e639
00000070: 3a16 d539 82d2 3339 e5a1 29b9 aef7 08b9
00000080: 09c0 cd37 de04 2cba 614a d839 e8db e339
00000090: 67c5 2439 afcc 4eb8 4769 68ba 38c8 8439
000000a0: dc04 9738 1c33 6bb9 9974 69b8 415d d3b9
000000b0: 0699 2639 3fbd 9c39 0e4d dd37 b1dd 6939
000000c0: 9efb 41b9 727e 3838 4891 bcb8 f56b b7b9
000000d0: 9758 ce39 aa8a ee37 b98e 38b7 b55c 50b8
000000e0: f222 1438 7de4 d839 ba14 a9b9 82bc fd38
000000f0: 3556 a939 da8a 9939 f18a 16ba aeff 9039

exp_avg_sq f4 [16, 4]
3.67151e-06 2.411543e-06 1.1721711e-06 9.186628e-07 1.8807788e-06 2.682499e-06 1.2745386e-06 2.1889484e-06
4.8399447e-06 8.408301e-07 4.4038184e-06 1.3152107e-06 7.8907415e-06 2.0221678e-06 1.0682907e-06 2.605128e-06
3.3597212e-06 2.8052068e-06 6.6635666e-06 5.204531e-06 4.676988e-06 5.4767193e-06 2.6059693e-06 2.0239984e-06
3.822412e-06 1.9196432e-06 4.526127e-06 1.9152787e-06 1.0199519e-05 2.2560894e-06 1.5607851e-06 2.1066999e-06
2.131289e-06 3.5759424e-06 5.2834375e-06 1.8426048e-06 2.9037867e-06 5.5461373e-06 5.1085904e-06 2.109982e-06
1.2183526e-06 3.267823e-06 2.9175867e-06 4.8377824e-06 2.5812287e-06 2.7935046e-06 3.1376865e-06 3.8692656e-06
1.8546823e-06 1.1251226e-06 1.8496261e-06 4.4525623e-06 3.0454535e-06 1.6978298e-06 1.5730112e-06 1.6603601e-06
2.2908825e-06 2.7906044e-06 4.8210018e-06 3.0230321e-06 2.396226e-06 1.513725e-06 3.6159986e-06 1.4638404e-06
00000000: 1064 7636 fed5 2136 7e53 9d35 079a 7635
00000010: 116f fc35 fb04 3436 d010 ab35 d9e5 1236
00000020: cf66 a236 68b5 6135 83c4 9336 4c86 b035
00000030: 7a62 0437 94b4 0736 3062 8f35 c2d3 2e36
00000040: 9277 6136 1641 3c36 9a97 df36 95a2 ae36
00000050: 05ef 9c36 a9c4 b736 36e2 2e36 07d4 0736
00000060: 4542 8036 38d3 0036 23df 9736 3d88 0036
00000070: 9a1e 2b37 5267 1736 2b7c d135 d460 0d36
00000080: 4407 0f36 39fa 6f36 6248 b136 6b4f f735
00000090: adde 4236 f518 ba36 756a ab36 3799 0d36
000000a0: 4786 a335 c64c 5b36 c2cb 4336 3c54 a236
000000b0: 2c39 2d36 0b78 3b36 0b91 5236 bdd4 8136
000000c0: 66ee f835 eb02 9735 ab40 f835 3867 9536
000000d0: 7e60 4c36 fde0 e335 4120 d335 8ad9 de35
000000e0: 10bd 1936 3846 3b36 17c4 a136 4cdf 4a36
000000f0: d9ce 2036 322b cb35 62aa 7236 2c79 c435

exp_avg f4 [16]
-0.0021069432 -0.0015213399 -0.0013963857 -0.0026114716 -0.0035341983 -0.003340813 -0.0033773775 -0.0021947413
-0.0017584586 -0.0024311608 -0.0025153805 -0.0021808927 -0.0017517433 -0.0017050706 -0.0023678655 -0.003154496
00000000: a414 0abb b267 c7ba ee06 b7ba 3925 2bbb
00000010: 029e 67bb 8bf1 5abb fe56 5dbb a6d5 0fbb
00000020: 147c e6ba 1c54 1fbb 15d9 24bb 4fed 0ebb
00000030: c09a e5ba ad7c dfba 312e 1bbb a9bb 4ebb

exp_avg_sq f4 [16]
1.3587821e-05 1.4821925e-05 1.1103826e-05 1.4412511e-05 5.545912e-05 4.131328e-05 5.15819e-05 2.315512e-05
2.5214387e-05 1.897562e-05 1.869533e-05 2.7224218e-05 1.4398309e-05 1.115009e-05 4.3488944e-05 3.473677e-05
00000000: 3ff7 6337 afab 7837 924a 3a37 43cd 7137
00000010: c79c 6838 cc47 2d38 a559 5838 3e3d c237
00000020: 7c83 d337 d52d 9f37 ead3 9c37 905f e437
00000030: 4490 7137 4611 3b37 e667 3638 53b2 1138

exp_avg f4 [378, 16]
2.795486e-06 3.4002715e-06 1.5330113e-06 2.9779037e-06 3.6374288e-06 3.7301515e-06 4.913934e-06 3.5238954e-06
3.0444887e-06 3.364979e-06 3.1622653e-06 3.8898675e-06 3.4525672e-06 2.6042792e-06 5.688552e-06 4.9928926e-06
-0.000102970436 -0.00015365626 6.27599e-05 8.358726e-06 -3.050993e-05 0.00011782774 -5.6914228e-06 -5.1206945e-05
0.00018390405 -9.839975e-05 -6.0004095e-05 0.00017135289 -7.2161765e-06 5.4552907e-05 -0.00013318051 2.7950586e-05
1.1451825e-05 5.3359718e-06 2.5298112e-05 4.1300277e-06 1.7775434e-05 8.580861e-05 3.9303854e-05 1.40690145e-05
7.453167e-05 1.8204179e-05 -8.016674e-06 7.3272204e-05 4.9858245e-06 5.865946e-05 1.3681272e-05 5.5760465e-05
0.00018674208 0.00027088812 0.0004370558 0.00017287843 0.00024116083 0.00068663235 0.00030495165 0.00020012785
0.00075167546 0.00029882873 0.00012387904 0.0005315109 0.00016563565 0.0005201884 0.00031786365 0.00041511265
3.2596033e-06 2.1614835e-05 1.8363971e-05 1.9116951e-05 2.7366801e-05 -1.5969377e-05 8.48145e-06 9.137718e-06
3.9803627e-08 4.18172e-05 -1.4616267e-06 -1.3915701e-05 -1.9568623e-05 -2.2248407e-05 3.2065076e-05 -1.3065886e-05
-2.6717791e-05 -2.7585564e-05 -1.0778795e-05 -4.712201e-05 -2.9344414e-05 -4.0959258e-05 -6.6549976e-05 -7.758843e-05
-4.5645847e-06 -3.512899e-05 -4.3638607e-05 -1.6391232e-06 -4.9603383e-05 -5.6387857e-05 -5.4333355e-05 -3.5805526e-05
-5.9149506e-06 -1.1954346e-06 1.3772731e-05 7.644484e-05 5.7564874e-05 2.1653637e-05 1.674667e-05 1.093803e-05
2.2593427e-05 8.841745e-05 -2.588028e-05 -1.6311948e-05 -5.5975863e-05 6.4357937e-06 6.17621e-05 -6.53153e-05
-7.1386035e-05 -0.00014163481 5.0934417e-05 -3.815791e-05 -2.9728793e-05 5.0311468e-05 2.0621017e-06 -4.0695548e-05
7.901579e-05 -4.025369e-05 -0.00010419024 3.6372818e-05 -9.148965e-05 7.276568e-06 -7.7746736e-05 1.2629193e-05
6.733943e-05 6.891265e-05 4.7662186e-05 1.5211708e-05 7.746566e-05 6.449293e-05 6.930046e-05 2.2786933e-05
7.7695186e-05 4.5221575e-05 3.5830326e-05 8.756162e-05 3.7165137e-05 3.333634e-05 0.00013066815 9.4523006e-05
-1.8533936e-05 1.2945528e-05 -5.0727962e-05 -4.4406725e-06 2.7025937e-05 5.8235095e-05 9.6556134e-05 7.087897e-05
-1.8068578e-05 -4.7727684e-05 4.1372714e-05 4.578776e-05 4.2848817e-05 6.216068e-05 1.8730496e-05 6.376646e-05
8.132662e-06 -9.437311e-06 5.3237723e-05 2.103914e-05 2.4580288e-05 6.140908e-05 1.4490687e-05 -1.9551355e-05
8.476264e-05 4.9631384e-05 -2.8514962e-05 5.4973018e-05 -1.8478799e-05 2.2509153e-05 2.0786452e-05 3.0588715e-05
4.1853462e-05 6.611954e-05 2.1000245e-05 1.5169272e-05 -9.4884894e-07 1.7762023e-06 -1.4781949e-05 1.6070333e-05
5.2986306e-06 5.4330925e-05 7.925832e-06 -2.3318027e-05 6.0577413e-06 2.8648347e-07 1.5398842e-05 -6.643436e-06
2.4438581e-05 4.1974385e-05 3.9319686e-05 3.6608806e-05 4.8150712e-05 0.00010492084 7.277149e-05 4.4624176e-05
8.346141e-05 4.1462954e-05 2.1329364e-05 7.657656e-05 2.6668746e-05 7.935804e-05 5.847995e-05 6.745876e-05
3.16704e-05 3.9524228e-05 3.568269e-05 2.3246086e-05 4.436343e-05 5.940493e-05 5.2952077e-05 2.752158e-05
5.415504e-05 3.5272282e-05 2.2073427e-05 5.4920634e-05 2.470682e-05 4.2951153e-05 6.317848e-05 4.9398983e-05
2.9237268e-05 4.1050032e-05 2.4309127e-05 4.119912e-05 5.107314e-05 6.530407e-05 7.220401e-05 5.2922962e-05
4.6009118e-05 4.185685e-05 3.357023e-05 4.8820475e-05 3.0460995e-05 5.224909e-05 7.146084e-05 5.3266413e-05
9.738978e-06 1.42814815e-05 8.536817e-06 2.5223376e-06 2.3743874e-05 2.6563122e-05 3.1643536e-05 5.2307178e-06
1.5942042e-05 4.0014693e-06 1.2151828e-05 1.40790835e-05 1.5391117e-05 2.297738e-05 3.3419616e-05 2.153875e-05
00000000: 159a 3b36 3830 6436 dec1 cd35 ffd7 4736
00000010: 8d1a 7436 8453 7a36 5fe2 a436 107c 6c36
00000020: eb4f 4c36 e6d1 6136 4e37 5436 b585 8236
00000030: a7b2 6736 2dc5 2e36 4ae0 be36 9f88 a736
00000040: d5f1 d7b8 ca1e 21b9 f79d 8338 743c 0c37
00000050: 93ef ffb7 491a f738 f3f8 beb6 0ac7 56b8
00000060: 5ed6 4039 f75b ceb8 e8ac 7bb8 31ad 3339
00000070: 7c22 f2b6 bdcf 6438 5fa6 0bb9 6d77 ea37
00000080: 3721 4037 a60b b336 4837 d437 ab94 8a36
00000090: 741c 9537 26f4 b338 31da 2438 f509 6c37
000000a0: e34d 9c38 2db5 9837 5a7f 06b7 b7a9 9938
000000b0: e84b a736 1e09 7638 9e88 6537 58e0 6938
000000c0: 32d0 4339 fd05 8e39 a324 e539 b346 3539
000000d0: 1ee0 7c39 1eff 333a ebe1 9f39 69d9 5139
000000e0: 160c 453a 1dac 9c39 87e5 0139 1855 0b3a
000000f0: 7bae 2d39 415d 083a f0a6 a639 7aa3 d939
00000100: 8fbf 5a36 8151 b537 540c 9a37 575d a037
00000110: c291 e537 faf5 85b7 8d4b 0e37 334e 1937
00000120: 8df4 2a33 e064 2f38 1c2d c4b5 7b77 69b7
00000130: 4c27 a4b7 17a2 bab7 9d7d 0638 8e35 5bb7
00000140: 0520 e0b7 8c67 e7b7 92d6 34b7 dfa4 45b8
00000150: a628 f6b7 abcb 2bb8 bf90 8bb8 f9b6 a2b8
00000160: 7c29 99b6 7757 13b8 9908 37b8 d8ff dbb5
00000170: 3a0d 50b8 0082 6cb8 ffe3 63b8 e42d 16b8
00000180: 0a79 c6b6 d272 a0b5 6e11 6737 0351 a038
00000190: d071 7138 d5a4 b537 337b 8c37 7b82 3737
000001a0: 0487 bd37 c26c b938 7a19 d9b7 a4d5 88b7
000001b0: a0c7 6ab8 0cf3 d736 4686 8138 e2f9 88b8
000001c0: 16b5 95b8 ce83 14b9 6aa2 5538 be0b 20b8
000001d0: 1962 f9b7 8705 5338 a362 0a36 83b0 2ab8
000001e0: 47b5 a538 12d6 28b8 b680 dab8 048f 1838
000001f0: 22de bfb8 3e29 f436 f60b a3b8 f9e1 5337
00000200: 9538 8d38 3285 9038 e2e8 4738 ca35 7f37
00000210: 0f75 a238 6140 8738 6755 9138 9126 bf37
00000220: 49f0 a238 4cac 3d38 8548 1638 49a1 b738
00000230: c3e1 1b38 9fd2 0b38 f703 0939 a73a c638
00000240: 5379 9bb7 9f30 5937 bcc4 54b8 1601 95b6
00000250: c2b5 e237 7541 7438 2e7e ca38 dba4 9438
00000260: fa91 97b7 362f 48b8 9d87 2d38 3c0c 4038
00000270: 91b8 3338 435c 8238 6f1f 9d37 5cba 8538
00000280: 8471 0837 f154 1eb7 924b 5f38 367d b037
00000290: c431 ce37 c0c8 8038 071d 7337 3702 a4b7
000002a0: 99c2 b138 4b2b 5038 6a33 efb7 d492 6638
000002b0: eb02 9bb7 0ad2 bc37 915e ae37 624c 0038
000002c0: d08b 2f38 a8a9 8a38 af29 b037 877f 7e37
000002d0: 67b4 7eb5 d965 ee35 fdff 77b7 c7ce 8637
000002e0: e4ca b136 63e1 6338 30f9 0437 159b c3b7
000002f0: 9a43 cb36 fdcd 9934 c32c 8137 aeea deb6
00000300: 7401 cd37 a70d 3038 31eb 2438 688c 1938
00000310: 6ff5 4938 f208 dc38 e59c 9838 d82a 3b38
00000320: 0108 af38 82e8 2d38 76ec b237 ba97 a038
00000330: b2b6 df37 066d a638 5e48 7538 a578 8d38
00000340: d5d5 0438 d1c6 2538 ffa9 1538 9700 c337
00000350: df12 3a38 8f29 7938 dc18 5e38 25de e637
00000360: 8824 6338 53f1 1338 532a b937 955a 6638
00000370: 7e41 cf37 7326 3438 b07e 8438 c131 4f38
00000380: 8e42 f537 232d 2c38 74eb cb37 38cd 2c38
00000390: 5e37 5638 dbf3 8838 3c6c 9738 99f9 5d38
000003a0: eaf9 4038 738f 2f38 c3cd 0c38 96c4 4c38
000003b0: 7d86 ff37 0826 5b38 3fdd 9538 606a 5f38
000003c0: 9864 2337 7f9a 6f37 5a39 0f37 6e45 2936
000003d0: 952d c737 dfd3 de37 fdb8 0438 8683 af36
000003e0: 46bb 8537 5c44 8636 b4df 4b37 3435 6c37
000003f0: 2c1c 8137 8cbf c037 0a2c 0c38 1dae b437

exp_avg_sq f4 [378, 16]
3.5134147e-09 1.6787375e-08 5.3337748e-09 1.7747015e-09 7.837963e-09 2.2110568e-08 1.7516422e-08 7.116316e-09
1.9842822e-08 3.1384124e-09 1.3419926e-09 2.7801372e-08 4.7782036e-09 9.269377e-09 4.1305583e-08 2.6872435e-08
6.8703834e-08 2.0458897e-07 6.4202105e-08 5.8850418e-08 1.00430114e-07 2.0969348e-07 1.884261e-07 1.3086134e-07
1.6140717e-07 8.397104e-08 6.897404e-08 2.2426163e-07 9.3999276e-08 1.6789446e-07 3.8320974e-07 2.1947376e-07
5.828029e-09 2.1584299e-08 4.8376227e-09 1.1100595e-08 2.2527843e-08 2.6136085e-08 5.1043095e-08 1.9954491e-08
1.5169789e-08 1.0730611e-08 4.4183257e-09 4.2170242e-08 7.805393e-09 1.1993556e-08 9.928011e-08 3.9587288e-08
7.464439e-08 1.6347889e-07 1.00677845e-07 4.1197374e-08 1.2218334e-07 2.8996308e-07 1.7506571e-07 7.2750424e-08
2.866659e-07 6.091467e-08 5.3279134e-08 3.2828783e-07 7.741095e-08 2.0867974e-07 4.244013e-07 2.569586e-07
1.0539241e-08 3.3130096e-08 1.1623111e-08 1.1509054e-08 3.9328736e-08 6.392009e-08 7.772318e-08 2.4872493e-08
4.425588e-08 1.14425545e-08 8.008693e-09 1.0733671e-07 1.5449308e-08 3.038421e-08 1.6113785e-07 8.664019e-08
8.226524e-09 2.829313e-08 6.445927e-09 9.623781e-09 2.0357309e-08 2.992149e-08 5.293823e-08 2.2611404e-08
1.7419161e-08 1.0577705e-08 7.938896e-09 4.4495135e-08 1.2888816e-08 1.8366174e-08 9.653285e-08 4.714696e-08
1.2319611e-08 3.6240206e-08 1.1984896e-08 2.0716822e-08 3.4966817e-08 3.8119655e-08 7.686834e-08 4.2048732e-08
2.7799075e-08 1.9834332e-08 1.6149821e-08 6.796757e-08 1.9986429e-08 2.535853e-08 1.5296129e-07 5.322391e-08
1.5569732e-08 4.6105423e-08 2.3196689e-08 2.089282e-08 3.364448e-08 7.459185e-08 8.685103e-08 4.020246e-08
5.9306792e-08 2.0641354e-08 1.3232412e-08 9.387121e-08 2.0087603e-08 4.227901e-08 1.4664397e-07 8.006796e-08
1.6177763e-08 4.726301e-08 2.4446377e-08 1.7381355e-08 4.277349e-08 5.8819026e-08 8.234363e-08 3.52794e-08
5.8546398e-08 2.221257e-08 1.1338867e-08 8.412822e-08 1.7816264e-08 4.309065e-08 2.0731588e-07 6.8453524e-08
1.0839157e-08 4.410003e-08 8.821603e-09 1.5107215e-08 2.6125795e-08 5.713546e-08 9.0337025e-08 4.8810865e-08
2.993696e-08 1.5824995e-08 1.0874025e-08 4.328614e-08 1.7534125e-08 4.030717e-08 1.3585293e-07 5.6218425e-08
1.2126691e-08 4.0604842e-08 1.5781774e-08 8.595801e-09 3.306569e-08 3.4450945e-08 5.1520473e-08 1.8436676e-08
3.666553e-08 1.3873414e-08 5.3241473e-09 6.946099e-08 1.1029004e-08 1.8148286e-08 1.9219392e-07 6.669627e-08
5.452686e-09 2.0677444e-08 6.0978738e-09 7.59663e-09 9.90257e-09 2.0621103e-08 2.938513e-08 2.1186763e-08
1.4180614e-08 9.493111e-09 6.191902e-09 1.9554575e-08 8.704944e-09 1.6316761e-08 4.5050623e-08 1.9340069e-08
3.8514996e-09 1.5296035e-08 5.8981886e-09 4.2960133e-09 1.6894468e-08 4.5539224e-08 4.336813e-08 1.5535383e-08
2.772341e-08 5.1871685e-09 3.355811e-09 4.7290193e-08 7.1793176e-09 2.5658764e-08 8.30588e-08 3.6647474e-08
5.605497e-09 2.0471463e-08 6.6264056e-09 4.774747e-09 1.2814661e-08 1.7778307e-08 2.8592998e-08 1.1639119e-08
1.5101646e-08 8.1342755e-09 3.5433547e-09 2.782773e-08 6.4797967e-09 9.483266e-09 6.327944e-08 2.6472874e-08
4.3757757e-09 2.3006457e-08 3.911526e-09 7.2542705e-09 1.625736e-08 2.2588901e-08 4.840818e-08 1.9752006e-08
1.337922e-08 6.9487913e-09 2.690235e-09 2.7520292e-08 6.720678e-09 1.20433485e-08 1.0360427e-07 3.7969354e-08
2.5334017e-09 1.1850668e-08 3.4437893e-09 2.7726739e-09 9.933461e-09 1.5339568e-08 2.3060212e-08 6.834493e-09
1.1028619e-08 3.6759091e-09 1.0299595e-09 2.7167163e-08 3.5423104e-09 6.9862915e-09 6.263989e-08 2.6991277e-08
00000000: a570 7131 d433 9032 6144 b731 c2e9 f330
00000010: baa7 0632 a7ed bd32 0577 9632 c783 f431
00000020: d472 aa32 89ab 5731 2b71 b830 ddcf ee32
00000030: 862d a431 273f 1f32 f867 3133 1cd5 e632
00000040: 558a 9333 fdac 5b34 7bdf 8933 b8c2 7c33
00000050: 0aac d733 1b28 6134 2c52 4a34 e482 0c34
00000060: 444f 2d34 9153 b433 e11e 9433 91cc 7034
00000070: a6dc c933 7a46 3434 f2bb cd34 7da8 6b34
00000080: e33f c831 6068 b932 2e38 a631 efb4 3e32
00000090: 4083 c132 dc81 e032 7a3a 5b33 6468 ab32
000000a0: b84e 8232 ba59 3832 01d0 9731 ac1e 3533
000000b0: 7b18 0632 380c 4e32 d133 d533 af06 2a33
000000c0: 304c a033 bc88 2f34 3b34 d833 fef0 3033
000000d0: 8031 0334 39ac 9b34 b2f9 3b34 f83a 9c33
000000e0: 10e7 9934 32d0 8233 07d5 6433 893f b034
000000f0: 1f3d a633 7311 6034 45d9 e334 1ff4 8934
00000100: 1210 3532 ed4a 0e33 fcae 4732 5bb9 4532
00000110: 67ea 2833 7144 8933 c5e8 a633 31a7 d532
00000120: db13 3e33 e394 4432 9b96 0932 fb80 e633
00000130: 63b5 8432 cb7f 0233 3c05 2d34 f30e ba33
00000140: a354 0d32 4009 f332 f97a dd31 d655 2532
00000150: 32de ae32 0783 0033 335e 6333 013b c232
00000160: 24a1 9532 3db9 3532 a263 0832 eb1a 3f33
00000170: 9d6d 5d32 a5c3 9d32 7f4d cf33 a17e 4a33
00000180: 39a6 5332 87a6 1b33 21e6 4d32 c6f4 b132
00000190: 6c2e 1633 01b9 2333 d112 a533 1299 3433
000001a0: d0ca ee32 2860 aa32 d5b9 8a32 91f5 9133
000001b0: 9fae ab32 ffd3 d932 ae3d 2434 4f98 6433
000001c0: 34be 8532 7305 4633 0f42 c732 cc77 b332
000001d0: 7f80 1033 4e2f a033 dc82 ba33 12ab 2c33
000001e0: 82b8 7e33 d14e b132 c354 6332 3e96 c933
000001f0: 1b8d ac32 4396 3533 3075 1d34 d4f1 ab33
00000200: 47f7 8a32 3bfe 4a33 27fe d132 014e 9532
00000210: f3b5 3733 34a0 7c33 e4d4 b033 1c86 1733
00000220: 7274 7b33 f5cd be32 ddcc 4232 faa9 b433
00000230: 610a 9932 ac12 3933 8e9a 5e34 b900 9333
00000240: 1e37 3a32 7f68 3d33 d28d 1732 1ec5 8132
00000250: 3b6b e032 1a65 7533 4eff c133 1da4 5133
00000260: 0994 0033 88ef 8732 78d0 3a32 9de9 3933
00000270: f39d 9632 341e 2d33 f8de 1134 d074 7133
00000280: c055 5032 7f65 2e33 7d90 8732 bcac 1332
00000290: 1c04 0e33 37f7 1333 5c47 5d33 ae5e 9e32
000002a0: 2d7a 1d33 ec57 6e32 b2ef b631 952a 9533
000002b0: 137a 3d32 81e4 9b32 dd5d 4e34 aa3a 8f33
000002c0: 555a bb31 2e9e b132 7785 d131 5582 0232
000002d0: f71f 2a32 4922 b132 966a fc32 2ffe b532
000002e0: 009f 7332 2517 2332 8cc0 d431 f7f8 a732
000002f0: c08c 1532 f028 8c32 af7d 4133 4321 a632
00000300: 2656 8431 5664 8332 04a9 ca31 229c 9331
00000310: 541f 9132 e896 4333 c343 3a33 ab72 8532
00000320: 6c24 ee32 d13a b231 0d9c 6631 1e1c 4b33
00000330: f2ad f631 3868 dc32 0f5e b233 5366 1d33
00000340: 799a c031 39d9 af32 7bae e331 1e0f a431
00000350: 7a27 5c32 e9b6 9832 ab9c f532 63f5 4732
00000360: dfb8 8132 ecbe 0b32 5b7f 7331 d309 ef32
00000370: e5a4 de31 d8eb 2232 3de4 8733 7766 e332
00000380: bb59 9631 bc9f c532 2666 8631 3d41 f931
00000390: 50a6 8b32 8509 c232 5be9 4f33 1fab a932
000003a0: 6fda 6532 37c2 ee31 1ddf 3831 c365 ec32
000003b0: b5eb e631 35e7 4e32 0d7d de33 bf13 2333
000003c0: 1318 2e31 ca97 4b32 c8a7 6c31 6589 3e31
000003d0: d3a7 2a32 11c4 8332 f115 c632 d6d4 ea31
000003e0: 6178 3d32 479b 7c31 7a8e 8d30 395d e932
000003f0: fc6c 7331 120c f031 a584 8633 72da e732

exp_avg f4 [378]
6.40354e-06 -5.9441576e-05 7.360173e-05 0.00058774557 3.4775527e-05 -3.5193487e-05 4.1611707e-05 7.313652e-06
0.00014700534 6.0445418e-05 6.276343e-05 4.1348532e-05 0.00010121614 7.881186e-05 8.5899315e-05 3.9533752e-05
5.9421094e-05 5.203788e-05 4.5161847e-05 2.5342551e-05 4.6658548e-05 3.2232463e-05 2.1652948e-05 2.2678678e-05
1.8762676e-05 2.0039071e-05 9.607446e-06 7.390527e-05 0.0005333306 6.42129e-05 -0.00016357467 7.6281256e-05
0.00016136648 1.4820829e-05 5.9575464e-06 0.00011051845 0.00010873241 4.0830062e-05 1.994368e-05 8.5236345e-05
8.930675e-05 6.339477e-05 2.4979327e-05 2.262683e-05 4.1973868e-05 5.3381802e-05 4.5626875e-05 2.5416926e-05
1.6946946e-05 1.2018955e-05 1.6697035e-05 2.1597867e-05 1.0781315e-05 8.5058535e-05 -0.0006503284 1.7404651e-06
-8.713054e-05 7.432983e-05 2.9893865e-05 9.054414e-05 3.249928e-05 4.6406418e-05 2.9579276e-05 2.728872e-05
-0.00011748494 3.7635757e-05 8.227402e-05 4.7833555e-06 6.3075735e-05 2.134378e-05 3.4955516e-05 1.3917964e-05
1.3480707e-05 2.0818874e-05 -5.516941e-06 2.7986298e-05 1.7267374e-05 1.5930336e-05 -2.1364243e-05 -0.00030176467
1.1413002e-05 4.7496094e-05 5.7223338e-06 5.5641805e-05 4.810866e-05 4.689933e-05 -2.4645393e-05 5.21496e-05
3.158716e-05 -2.8595921e-05 2.983635e-05 4.23948e-05 3.4357177e-05 2.5550085e-05 2.042972e-05 1.2146776e-05
1.3363004e-05 2.1862892e-05 5.872058e-06 -8.1684275e-06 1.0771559e-05 1.2680314e-05 0.00012735219 0.0003028888
-3.4196376e-06 1.9978115e-06 -8.659215e-05 4.1264037e-05 5.6089855e-05 -2.437366e-05 -1.1917519e-05 8.9217545e-05
5.174863e-05 9.3768555e-05 3.609593e-05 2.5188432e-05 2.586703e-05 2.8520057e-05 2.9117138e-05 1.1154866e-05
2.515968e-05 2.0097703e-05 2.1883969e-05 1.40821585e-05 1.5279586e-05 7.271492e-05 -2.5845104e-05 2.3051336e-06
1.0008839e-05 -8.3472216e-05 -3.075425e-05 2.0240675e-05 5.794303e-05 2.8257029e-05 3.933563e-05 2.8472015e-05
4.470051e-05 1.2404928e-05 3.2898253e-05 1.8204537e-05 1.6550537e-05 2.6251866e-05 1.4059347e-05 1.761985e-05
1.4437391e-05 1.6973157e-05 6.8502686e-06 7.3430354e-05 -5.1181236e-05 0.0001311522 -3.111533e-05 0.00014125755
6.474901e-05 5.4514676e-05 1.9312718e-06 6.936836e-05 2.5924846e-05 6.2689156e-05 5.5678138e-05 4.4995428e-05
3.93406e-05 4.067059e-05 6.730933e-06 1.857915e-05 1.7401047e-05 1.9787116e-05 2.0986541e-05 5.25979e-06
2.1737016e-05 2.253968e-05 3.2226424e-05 -4.1127878e-05 6.187764e-05 9.171627e-07 3.90471e-05 1.4637413e-05
4.3024e-05 3.125849e-05 3.3376393e-05 6.259471e-05 3.78562e-05 3.289428e-05 1.8748462e-05 5.4173092e-06
2.618528e-05 1.5202521e-05 2.0248102e-05 8.183619e-06 -1.5979946e-05 9.814792e-05 -6.139057e-05 2.4054649e-05
-1.5666043e-05 0.00010405882 6.0098355e-05 5.013871e-05 7.267593e-05 5.745258e-05 4.013236e-05 4.665757e-05
1.3818079e-05 2.6689655e-05 1.9643167e-05 1.4467101e-05 1.9395628e-05 1.29875425e-05 1.3252789e-05 -2.32031e-06
2.6014466e-05 1.8866262e-05 4.211378e-06 1.0978561e-05 6.7106645e-05 1.4770974e-05 8.346241e-05 4.316677e-05
5.2861746e-05 2.8140237e-05 4.022331e-05 1.8947172e-05 2.8394472e-05 2.2252909e-05 9.00888e-06 1.4003266e-05
1.7700062e-05 -2.8860291e-05 1.604599e-05 -1.934514e-05 3.9737526e-05 7.004677e-05 2.7803746e-05 6.373171e-05
1.0041593e-05 3.195302e-05 4.8491303e-05 4.2310465e-05 4.030479e-05 3.4388326e-05 2.09068e-05 2.1356313e-05
1.9528923e-05 1.6618156e-05 -1.0507526e-05 4.6824214e-05 6.0958305e-06 -2.4146007e-05 3.889057e-05 2.4680548e-05
4.7947906e-05 3.9914685e-06 1.7408882e-05 2.8415916e-05 2.5694888e-05 1.4940518e-05 2.7475724e-05 2.546818e-05
00000000: fddd d636 e850 79b8 a15a 9a38 f012 1a3a
00000010: f0db 1138 b89c 13b8 3b88 2e38 cb67 f536
00000020: 7225 1a39 c686 7d38 dc9f 8338 a66d 2d38
00000030: 0044 d438 cc47 a538 d824 b438 0bd1 2538
00000040: ea3a 7938 4043 5a38 2a6c 3d38 b796 d437
00000050: 3cb3 4338 5831 0738 5aa3 b537 173e be37
00000060: 8a64 9d37 9419 a837 ab2f 2137 97fd 9a38
00000070: 36cf 0b3a 0aaa 8638 3e85 2bb9 30f9 9f38
00000080: 7c34 2939 faa6 7837 efe6 c736 24c6 e738
00000090: 4507 e438 f240 2b38 ba4c a737 eac0 b238
000000a0: 324a bb38 cff2 8438 b28a d137 bfce bd37
000000b0: 190d 3038 46e6 5f38 7c5f 3f38 6f36 d537
000000c0: 4a29 8e37 05a5 4937 9c10 8c37 112d b537
000000d0: 65e1 3437 7461 b238 cd7a 2aba ed99 e935
000000e0: dab9 b6b8 86e1 9b38 96c4 fa37 84e2 bd38
000000f0: d64f 0838 83a4 4238 0321 f837 14ea e437
00000100: 3f62 f6b8 16db 1d38 878a ac38 b680 a036
00000110: 8747 8438 6b0b b337 339d 1238 3381 6937
00000120: 322b 6237 31a4 ae37 2a1e b9b6 1ec4 ea37
00000130: 67d9 9037 23a2 8537 5d37 b3b7 2b36 9eb9
00000140: 787a 3f37 8b36 4738 7902 c036 ef60 6938
00000150: 48c8 4938 c6b5 4438 94bd ceb7 35bb 5a38
00000160: 747c 0438 46e1 efb7 1349 fa37 12d1 3138
00000170: bd1a 1038 6454 d637 7d60 ab37 01ca 4b37
00000180: aa31 6037 3466 b737 9808 c536 210b 09b7
00000190: 7eb7 3437 89bd 5437 d889 0539 0ccd 9e39
000001a0: ed7c 65b6 2412 0636 ce98 b5b8 ec12 2d38
000001b0: 0642 6b38 0976 ccb7 5bf1 47b7 4e1a bb38
000001c0: ab0c 5938 9ca5 c438 b665 1738 bf4b d337
000001d0: 06fd d837 5b3e ef37 9440 f437 c925 3b37
000001e0: 000e d337 7d97 a837 7793 b737 6942 6c37
000001f0: a92c 8037 877e 9838 f0cd d8b7 e5b1 1a36
00000200: a3eb 2737 ce0d afb8 20fe 00b8 85ca a937
00000210: db07 7338 8209 ed37 50fc 2438 30d7 ee37
00000220: cf7c 3b38 c31e 5037 3bfc 0938 f2b5 9837
00000230: 02d6 8a37 7437 dc37 70e0 6b37 57ce 9337
00000240: 1f38 7237 9461 8e37 5cdb e536 9ffe 9938
00000250: 6fab 56b8 e785 0939 d581 02b8 891e 1439
00000260: dcc9 8738 b0a6 6438 ff9a 0136 db79 9138
00000270: 2f79 d937 fc77 8338 f287 6938 79b9 3c38
00000280: a601 2538 b795 2a38 46da e136 6cda 9b37
00000290: 77f8 9137 82fc a537 410c b037 417d b036
000002a0: e357 b637 9813 bd37 dc2a 0738 b980 2cb8
000002b0: 4ec4 8138 f132 7635 81c6 2338 3693 7537
000002c0: ab74 3438 8c1b 0338 a1fd 0b38 4745 8338
000002d0: c9c7 1e38 f7f7 0938 0446 9d37 55c6 b536
000002e0: 76a8 db37 550e 7f37 78da a937 604c 0937
000002f0: ac0c 86b7 c3d4 cd38 d0be 80b8 f7c8 c937
00000300: 926a 83b7 273a da38 1e12 7c38 084c 5238
00000310: 9869 9838 3df9 7038 cb53 2838 2fb2 4338
00000320: 33d4 6737 99e3 df37 61c7 a437 bab7 7237
00000330: cbb3 a237 12e5 5937 4c58 5e37 9fb6 1bb6
00000340: a439 da37 fd42 9e37 764f 8d36 8f30 3837
00000350: 9bbb 8c38 dad0 7737 8a08 af38 f70d 3538
00000360: deb7 5d38 b30e ec37 73b5 2838 bef0 9e37
00000370: aa30 ee37 c2ab ba37 d824 1737 92ef 6a37
00000380: 987a 9437 0119 f2b7 809a 8637 5f47 a2b7
00000390: d8ab 2638 13e6 9238 173c e937 b4a7 8538
000003a0: 5078 2837 4b05 0638 2463 4b38 8476 3138
000003b0: f00c 2938 2f3c 1038 0361 af37 5526 b337
000003c0: 0bd2 a337 3867 8b37 7b49 30b7 1e65 4438
000003d0: c98a cc36 288d cab7 6e1e 2338 1309 cf37
000003e0: ac1b 4938 74ee 8536 4a09 9237 b75e ee37
000003f0: 5a8b d737 09a9 7a37 ab7b e637 80a4 d537
