models/graph_vae.pt (torch, 102612 bytes, 56 tensors)

prior.mean f4 [4]
00000000: 0000 0000 0000 0000 0000 0000 0000 0000
0.0 0.0 0.0 0.0

prior.std f4 [4]
00000000: 0000 803f 0000 803f 0000 803f 0000 803f
1.0 1.0 1.0 1.0

decoder.decoder_net.mlp.0.weight f4 [16, 4]
00000000: 49f2 443f 4147 11bf e182 9dbe 5316 ddbe
00000010: c2a6 ff3e 0c7a 21bf 9d62 4abe 4f60 dd3e
00000020: ed50 4c3e 5f1d df3e e891 383f 764b a5be
00000030: cc74 abbe b7a8 3bbf 02ab 833b 8405 af3e
00000040: be68 b63d 9449 00bf 70e8 41bf 308d 113f
00000050: e880 e63d 470f 01bf b034 a13e 7cb9 233f
00000060: 662d d13d ce15 023f 7218 f6be 5a6a 1dbf
00000070: 36e0 edbe 9886 273f d652 64be 5a8e fbbe
00000080: 8e19 3a3e e54d a33e 80cf 0ebd ac37 d83b
00000090: dd7d 26bf 3c55 b73e e3db 1bbf 70df 4dbf
000000a0: c259 22bf 3eb0 8c3e a64e 66bd c5c7 f13c
000000b0: 8f06 10bf 600d 74be 4c6a 3fbf f1d2 0d3f
000000c0: ab24 2ebf 6732 3dbf 73f0 88bc 3af7 54bf
000000d0: ca03 063f c54c 3abf 57d8 233f 72ad 1f3f
000000e0: d75f 0a3f 847e d13e 2dbc 073f feb3 f3be
000000f0: b8e7 88bd a0bc a13e d0e3 273f 2e35 383f
0.769322 -0.5674935 -0.30763915 -0.43181095 0.49931914 -0.63076854 -0.1976418 0.4323754
0.19952746 0.43577096 0.72097635 -0.32284135 -0.33487546 -0.73304313 0.0040181885 0.34183896
0.08906697 -0.5011227 -0.75745296 0.5685606 0.11255056 -0.50413936 0.3148551 0.639549
0.10213737 0.5081452 -0.48065525 -0.61490405 -0.46460122 0.6543975 -0.22297224 -0.49132043
0.18173811 0.31895366 -0.034865856 0.0065984335 -0.650358 0.35807216 -0.60882396 -0.80419064
-0.6341821 0.27478212 -0.05622735 0.029514203 -0.5626001 -0.23833227 -0.7477157 0.55399996
-0.680247 -0.7390503 -0.016716218 -0.8318974 0.5234953 -0.7277339 0.64001983 0.6237403
0.5405249 0.40916836 0.5302151 -0.4759826 -0.06684822 0.31589222 0.6558199 0.71956146

decoder.decoder_net.mlp.0.bias f4 [16]
00000000: af5a d23e 138b e93e b6d8 413f 3483 223f
00000010: 685b 173e 2b97 2b3f 4075 223f a101 693f
00000020: 48e1 773f 9306 d33d d79e 623f 9761 813e
00000030: 4739 cf3e 59ad c33e 119a 253f 5c1b 4b3f
0.4108481 0.45613918 0.757213 0.6348145 0.14780962 0.6702754 0.6346016 0.9101811
0.96828127 0.10303988 0.8852362 0.25269768 0.40473387 0.3821819 0.6468821 0.7933862

decoder.decoder_net.mlp.2.weight f4 [378, 16]
00000000: 1e7d af3e 3cfb 683c 317b a23e ba6e 9b3e
00000010: 11a2 a23d 3703 543e 3364 493e 5108 ab3e
00000020: ef40 f43e 0db8 a03e 73ea 4f3e 52ca 393e
00000030: 0ea3 3d3e d7e4 d03e 4f2e 67bc 6c25 d93e
00000040: 8bf9 a6be 3182 26be e5ba 25be 90ce 08bf
00000050: 110a 87be 18d4 f2be 8857 7cbe 1608 26bf
00000060: 5673 06bf df2c b5be 9f2e 85be a776 36be
00000070: 45af c8be 624c 61be 54e6 3cbe dc26 87be
00000080: 15f9 b7bd 2e6d 06bf 7989 01bf 74a6 ecbe
00000090: cf05 f5bd de65 b5be 6c98 5ebe 9030 05bf
000000a0: 6a23 1ebf 7671 24be 18e9 1dbf 35b4 fdbe
000000b0: b4da febd fc66 5abe d4dd b7be 6462 4cbe
000000c0: 6e17 2dbe 4df9 b4be b7f7 71bd d740 3dbe
000000d0: 01f6 8bbe d544 d5be 49c3 4abe 0194 91be
000000e0: 91f7 0bbf 4708 c0be 7689 9dbe 6714 e5bd
000000f0: 339e 89be c2f7 cfbe 50dd f7be 3e55 76be
00000100: dbc1 213d ac10 e0bb 8b77 043e c7c1 603e
00000110: 82b3 773e c34b f4bd 7397 3d3d d4a3 a5bd
00000120: 6444 d83d 463f 5f3e 0766 c7bd 9e52 c7bd
00000130: 6deb 37bd cce6 c7bd c90c 18bd a4d9 4a3e
00000140: a9e2 f7be 805e 11bf c98d 11be 0e8f 3abe
00000150: 2416 d8be 3dbf 70be 4bd9 28bf 54d9 adbe
00000160: 6050 dcbe 7406 30be 0b91 c3be 15c9 c0be
00000170: 757b 6cbe 944d 03bf 42e3 6cbe 34d9 58be
00000180: 87f0 ebbd 590d b1be 3cb6 99be 4899 47be
00000190: eb1f 96be eea2 55be 98d9 5abe a48d d4be
000001a0: a5d4 aabe d9c6 16be 46ce e4be 6e08 09bf
000001b0: 219d 9bbe 6884 08bf d2de eabe 6a51 eebe
000001c0: 9ec6 b7bd 3653 07bf 630d bdbe c4f9 3cbe
000001d0: 2142 51be 5fa7 8abe 7703 04be 09fc 60be
000001e0: 1ebe c4be 959e 18bd 72c3 b4be a9a5 aabe
000001f0: 585f a2be 7fbb 90be 0dc7 b6be 857b 76be
00000200: be87 61be b34c 73be 72e0 56be 3204 52be
00000210: 37fa 0fbe 0ee1 28be bc17 a7bd 7d1e 89be
00000220: 351b 58be 8795 98be b7ab e7bd 72b5 70be
00000230: 3993 853a 2e21 81bd 209e adbe fa6b 1dbe
00000240: a95a 30be 2e1f 0fbf 5267 efbe 8e24 ecbe
00000250: 0784 37be 1c0a 01bf ad3b 52be 1080 1dbe
00000260: 8d9e e3be ca3f cdbe 6d34 d1be fff6 d2be
00000270: 8074 44be f958 68be 308f 00bf edd0 90be
00000280: 3be7 bfbe 2440 efbe 175b 12be be30 93bd
00000290: 7f5a b7bd b92c 83be 0236 73be 7511 dbbe
000002a0: e2ba cdbd f47f 58be 30bb e4be 61df 81bd
000002b0: c820 94be 7789 c6be 0c3d 8fbe bb24 7ebe
000002c0: 64a1 43be 8078 0dbe 2197 ffbe 019d 8abe
000002d0: dbf5 21be 9d90 f4be 59ee 80be 139d 0cbe
000002e0: 8ebf 13bf 4627 45be 77ac 78be aad7 d7be
000002f0: 5c27 30be c74b 81be 38d8 6dbd c038 21be
00000300: 504d 82bd e822 94be 33cb 21be 4cd6 fbbd
00000310: e43e c3be 46dd 81bd a43f fcbd 00e8 3ebe
00000320: 3c1c e3be db25 89be d048 59be ed58 56bd
00000330: 85c5 11be 12af 35be d0c4 a1be be57 e3bd
00000340: a3ba 80be a17e c8be 9d89 78be f2d4 76be
00000350: 6e05 a1be 6d51 22be a908 ccbe 7df0 99be
00000360: 0f87 10bf f46c 97bd f0ea 75be 65fc 90be
00000370: 0a1e b6be 96fa 8dbe 7279 cfbe 7450 08be
00000380: 2c3b 41be f0ce 3ebe d9f7 04be 1bcf 85be
00000390: 5cb4 2bbe 14c8 cbbe 0221 bbbe 0bcd 3abe
000003a0: 9275 ebbe 679d f1be bb93 e9be 1959 0cbf
000003b0: 58b5 b0be 83e8 12bf 7653 95be 147c 13be
000003c0: 3f4f 4abe ad9d 15bf 44a9 d5be eb95 a6be
000003d0: 9081 dbbe 6c4a acbd c2c8 dfbe e328 a7be
000003e0: 2f2e 21be c5f7 78be 916e 8abe f71c bbbe
000003f0: 7811 8abe 3323 99be 092d 08be 234c f2be
0.34275144 0.014220055 0.31734613 0.30357915 0.07941068 0.20704351 0.19667129 0.33404782
0.4770579 0.3139042 0.20304279 0.18143585 0.18519232 0.4079959 -0.014110162 0.42411363
-0.3261226 -0.16260602 -0.16184576 -0.5344019 -0.26374868 -0.4742744 -0.24642766 -0.6485609
-0.5251974 -0.35385796 -0.26012132 -0.178187 -0.3919622 -0.22001794 -0.18447238 -0.26396835
-0.089830555 -0.52510345 -0.5060039 -0.46220744 -0.119639985 -0.3542928 -0.21737832 -0.52027225
-0.6177279 -0.16058907 -0.616838 -0.4955155 -0.12444058 -0.21328348 -0.3591143 -0.19959408
-0.16903469 -0.3534645 -0.05907413 -0.18481766 -0.27336124 -0.41654077 -0.19801058 -0.2843323
-0.5467463 -0.37506315 -0.30768937 -0.11185532 -0.2687851 -0.40618712 -0.48411036 -0.24055955
0.039491516 -0.006837925 0.12936227 0.2194892 0.2418957 -0.11928513 0.04628701 -0.08087888
0.105599195 0.2180148 -0.09736257 -0.09732555 -0.044902254 -0.09760818 -0.037121568 0.19809586
-0.48415115 -0.5678482 -0.14214243 -0.18218634 -0.42204392 -0.23510452 -0.6595656 -0.3395487
-0.4303007 -0.17189962 -0.38196597 -0.37653413 -0.2309397 -0.5129025 -0.23133567 -0.21176606
-0.11520486 -0.34580496 -0.30021846 -0.19492066 -0.29321226 -0.20862934 -0.21372068 -0.41514313
-0.3336536 -0.14724292 -0.44688624 -0.5352849 -0.30393317 -0.53327036 -0.45873123 -0.4654649
-0.0897343 -0.52861345 -0.36924276 -0.18454653 -0.20435382 -0.2708082 -0.12891947 -0.21971144
-0.38426298 -0.03726061 -0.35305363 -0.33329514 -0.31713367 -0.28268048 -0.3569874 -0.24070556
-0.22024438 -0.23759727 -0.20984057 -0.20509413 -0.14060293 -0.16492102 -0.08158824 -0.26781073
-0.21104129 -0.2980158 -0.11312049 -0.23506716 0.001019097 -0.06305157 -0.33909702 -0.15373221
-0.17222084 -0.5590695 -0.46758515 -0.4612164 -0.17921458 -0.5040605 -0.20530577 -0.15380883
-0.44456902 -0.4008773 -0.4086031 -0.41204068 -0.19185066 -0.2269019 -0.50218487 -0.28284398
-0.37481102 -0.46728623 -0.1429256 -0.07187031 -0.08952808 -0.25620058 -0.23751071 -0.42786756
-0.10045411 -0.2114256 -0.44674063 -0.06341434 -0.2893126 -0.38776752 -0.27976263 -0.24818699
-0.19104534 -0.13815498 -0.4991999 -0.2707291 -0.15816443 -0.4776658 -0.25181845 -0.13731794
-0.57714164 -0.19253263 -0.2428454 -0.42156726 -0.17202514 -0.25253126 -0.05806753 -0.15744305
-0.063624024 -0.2893288 -0.1580017 -0.12296733 -0.3813392 -0.06341033 -0.12316826 -0.18643188
-0.4435748 -0.26786694 -0.21219182 -0.0523309 -0.14235504 -0.17742565 -0.3159547 -0.1110072
-0.25142393 -0.3915911 -0.24271245 -0.2410467 -0.31449455 -0.15851374 -0.39850357 -0.3006629
-0.56456083 -0.07393828 -0.24015403 -0.28317562 -0.35569793 -0.27730244 -0.40522343 -0.1331194
-0.18870229 -0.18633628 -0.12985171 -0.2613457 -0.1676802 -0.39801085 -0.3654862 -0.1824228
-0.45988137 -0.471904 -0.45620522 -0.5482345 -0.34513354 -0.57386035 -0.29165238 -0.14402801
-0.19756792 -0.5844372 -0.41730702 -0.32536253 -0.42872286 -0.08412632 -0.43707854 -0.32648382
-0.15740274 -0.24313267 -0.2703748 -0.36545536 -0.26966453 -0.29909667 -0.1329843 -0.47323713

decoder.decoder_net.mlp.2.bias f4 [378]
00000000: 6513 723e 8997 15be cdda 23be d8e4 e8be
00000010: f54e 04be d7e2 3dbe 2464 93be a349 0dbe
00000020: 10b8 dbbc 99e9 e3be 1a3e 01be db85 d8be
00000030: 9f1e 21be bb69 3fbe a0e2 16be f457 05be
00000040: 5c8e ddbe db70 aabe 43dd bfbd 38fa 6ebd
00000050: 3cdc aebd 2504 3abe 42d7 aabd 3b37 83bd
00000060: cd0d 12be 86b1 15bd 8a59 bfbe 9c84 373e
00000070: 1e25 39be 24a5 45be a8d2 00be a22a b6be
00000080: fd03 25be 7379 a2be 9a9a cbbe e2e4 e2be
00000090: 7aa7 d7bd 43ff bfbd 82c5 9abe 3ca1 a1be
000000a0: 1d65 91be 8be2 94be 85f9 ebbe 7793 8ebe
000000b0: 9a71 72be a61d 433b 6bbf 80be bfca 89be
000000c0: 58da 45bd bf6b cbbe 422a 7abe 0097 97bd
000000d0: 8d66 cabd 9cd3 573e 6817 febe bcd0 02bf
000000e0: 0184 53bd 1c3b abbd 25af 8dbe 7e79 d7be
000000f0: 78db d1be 79c5 af3d e355 42be 0a9b cebe
00000100: 0a5a 9ebd b1d7 a2be 5091 62be 15b9 e0be
00000110: 5535 49be 1b2a 79be 5c17 acbe d5de b53c
00000120: 53e6 cebe ef4f abbe 6760 1abe d446 adbd
00000130: 5388 babd c60d f8bc db89 523e 2363 aebe
00000140: 5e91 92be 3456 8abe 12cb 5fbd 1d7d 47bd
00000150: 682e 54be d729 c7bd 62ad 1abe a906 1abe
00000160: 2620 d9be 87c9 42be c5f5 aebc 156d cebe
00000170: 4add 1ebe 7c73 32bd 38b4 29be bbbb a33c
00000180: 0933 2dbe 811b 61bd faef 36be cce5 a9bd
00000190: 1708 c4be 1cba 31be 3c80 d53e 3e22 c9be
000001a0: 6771 36be d9ae a4be 9834 c8be 2385 eabe
000001b0: a5b8 5abb 39cc c5be 1ede b0be 51b0 0cbe
000001c0: ced1 acbe d7aa 30be 5ab1 c3bd d210 b8be
000001d0: 8616 8abe 0b71 80be 1cc2 45bd 763d 8a3d
000001e0: 7bd5 b3be 90d7 c5be 1313 abbe 475d 94be
000001f0: 06f8 cdbb 35b5 5ebe 8278 06be 63b1 93be
00000200: b431 ddbd 9fb0 4dbe c821 cfbe ee22 d0be
00000210: 2e1d 18be 82a1 1abd 82c6 9ebe a600 c4bd
00000220: 8d06 51be 5828 5abe c388 03bd ff95 c9bd
00000230: 7b32 04be a53e ccbe 07f8 92bd e6c9 b5be
00000240: 3460 0ebe 1604 36bd d0ba e1bd 6f81 343e
00000250: 5b7a f8bd 7b44 bcbe 1f97 21be 187c dbbd
00000260: 3da2 66be 5a8e 09be b47e afbe 1512 37be
00000270: e3b8 ebbd 5abd d0be d057 7abe 5bbf 7ebe
00000280: f63f 62bb 4720 46bd 8512 b5be b2ad 95bd
00000290: f6a3 d1be afa3 9ebe 28b9 12be cd36 f7bc
000002a0: eb32 533e 1ed2 82bd 4998 85be baa6 02bf
000002b0: 07bb 4ebe cf88 95bc 8d3e 79be c4a1 4dbe
000002c0: 643c 81be 9d3c c3be e8ba 86be 81bd 9dbe
000002d0: b7e9 aebe 649d cfbe bf79 b5be a30c 37bd
000002e0: 87d3 5cbe cef7 073d 8efc c4bd f4d2 b0be
000002f0: 8e7e 28bd a0e2 b2be dc8f c1be 31e7 15bc
00000300: 3cff f93d b673 91be 3e62 89bd 6acd b9be
00000310: d735 6fbd 93de adbe aaed ddbd 7d86 0cbc
00000320: 537e bdbe 1234 98bc 84f2 a8be 8c7c b1bd
00000330: ada9 48be 582a a4be ff0a b0be c4f4 db3d
00000340: f13f ba3b 6486 c5bd b7f3 f9be 72ed 95be
00000350: e27e 35be 7eea e7bc 9138 c4be b297 0abd
00000360: 5f89 ebbd c896 89be d710 4bbd 7059 0c3d
00000370: 9840 05bc ad3c 7cbe fc24 29be 8ac2 42be
00000380: acb3 bcbe ea47 983e d974 cdbe a8d9 42be
00000390: 6020 883d e1c0 fabd 136d 31be 3386 82be
000003a0: 890b 85be d8e9 84be ba4c b3be 51c1 9abc
000003b0: 67e3 09be fe27 92be 3f8f b7be aedf a7be
000003c0: dc37 e63c 330a 2e3c 46a7 cc3d 0a81 ae3c
000003d0: a537 88bd 85a1 c0be 4067 b2be 81db d3be
000003e0: 7653 dcbe 3769 f7be 090f 643c 103d bebe
000003f0: b86c 7cbe ab34 87be e187 babe 1ef9 c8be
0.23640211 -0.14608587 -0.16001435 -0.45487094 -0.12920745 -0.18543564 -0.2878734 -0.13797621
-0.026821166 -0.44514158 -0.12621346 -0.42289624 -0.15734337 -0.18692677 -0.14734888 -0.13021833
-0.43272674 -0.33289227 -0.09368374 -0.058344096 -0.085381 -0.18165644 -0.083418384 -0.06407019
-0.14263077 -0.036546253 -0.37373 0.1792168 -0.18080565 -0.19301277 -0.12580359 -0.355794
-0.16114803 -0.31733283 -0.3976639 -0.4431525 -0.105299905 -0.09374859 -0.30228812 -0.31568325
-0.28397456 -0.2907909 -0.46088806 -0.27846882 -0.23676148 0.002977231 -0.2514604 -0.26912495
-0.048303932 -0.3973064 -0.24430183 -0.07401848 -0.09882841 0.21076816 -0.49627233 -0.51099753
-0.05163956 -0.083608836 -0.27672687 -0.4208488 -0.40987754 0.08582587 -0.18978076 -0.4035266
-0.07732017 -0.31805184 -0.22125745 -0.43891206 -0.19649251 -0.24332468 -0.33611572 0.022200981
-0.40410098 -0.33459422 -0.15075837 -0.08460775 -0.09108033 -0.030280005 0.205604 -0.3406001
-0.2862653 -0.27018893 -0.054637022 -0.0487033 -0.20720828 -0.09724777 -0.15105203 -0.15041603
-0.4240734 -0.19022189 -0.021357426 -0.40317598 -0.15514103 -0.043567166 -0.16572654 0.019986978
-0.16914 -0.05495787 -0.17864981 -0.082957834 -0.38287422 -0.17356151 0.41699398 -0.39283937
-0.17816697 -0.32164648 -0.39102626 -0.458047 -0.0033374217 -0.38632372 -0.34544462 -0.13739134
-0.33753818 -0.1725267 -0.095553115 -0.35950333 -0.2697031 -0.25086245 -0.04828082 0.06750004
-0.3512381 -0.38641024 -0.3341299 -0.28977415 -0.00628567 -0.21748812 -0.13131908 -0.28846273
-0.10800496 -0.20086907 -0.4045546 -0.4065165 -0.14854881 -0.037751682 -0.31010824 -0.09570436
-0.20412655 -0.21304452 -0.032112848 -0.098430626 -0.12909882 -0.39891544 -0.07176214 -0.355056
-0.13903886 -0.04443749 -0.1102196 0.176275 -0.121327125 -0.36770996 -0.15780304 -0.107170284
-0.22522826 -0.13433209 -0.34276354 -0.17877991 -0.11509874 -0.40769464 -0.2444756 -0.24877684
-0.0034522987 -0.048370626 -0.35365692 -0.073085204 -0.40945405 -0.30984256 -0.14328444 -0.030177498
0.20624892 -0.06387733 -0.26092747 -0.51035655 -0.20188533 -0.018253712 -0.24340267 -0.2008124
-0.25241387 -0.38132182 -0.26314473 -0.30808643 -0.34162685 -0.40549767 -0.35444447 -0.044689786
-0.21565066 0.03319531 -0.096184835 -0.34535944 -0.041136317 -0.34938526 -0.37805068 -0.009149359
0.12206885 -0.28408593 -0.06708191 -0.3628953 -0.058400955 -0.33958873 -0.108363464 -0.008576986
-0.3701044 -0.018579517 -0.32997525 -0.086663336 -0.19595976 -0.32063556 -0.3438339 0.10740045
0.005683892 -0.096447736 -0.48818752 -0.2928272 -0.17724183 -0.028310057 -0.38324407 -0.033836074
-0.11500811 -0.2687285 -0.049576607 0.03426498 -0.008133076 -0.24632521 -0.16518015 -0.19019523
-0.3685583 0.29742366 -0.4012821 -0.19028342 0.066468 -0.1224382 -0.17326765 -0.2549301
-0.25985363 -0.2595966 -0.35019475 -0.018891009 -0.13465653 -0.28546137 -0.35851476 -0.32787842
0.028102808 0.010622549 0.099928424 0.021301765 -0.06651238 -0.3762323 -0.34844398 -0.41378406
-0.43032426 -0.4832246 0.0139196 -0.37155962 -0.24650848 -0.2640737 -0.36431792 -0.3925256

encoder.encoder_net.input_net.0.weight f4 [4, 7]
00000000: 6764 643e 5a8f 343d eb3a afbe 5170 4cbe
00000010: d14e 24be d046 71bd 4db2 493e 4a70 a3bd
00000020: edeb 783e a6ee 25be 4a28 9bbd 88ad 9abd
00000030: 6fdf 22bd 2ef8 32be b5bb 3cbe bd19 1b3e
00000040: aec8 9bbe 6346 e8bd d8a5 bbbe 3c0e e83d
00000050: 816b 2fbe f903 063f 8ea2 243e 8f65 aa3e
00000060: c76c bdbe 3166 bbbe d2f2 e33d a3ad ea3e
0.22303925 0.044082023 -0.34224638 -0.1996472 -0.16045691 -0.058905423 0.19696923 -0.07980402
0.24308749 -0.16204318 -0.07576044 -0.0755263 -0.039763864 -0.17477486 -0.1843098 0.15146537
-0.30426544 -0.1134155 -0.36649966 0.1133084 -0.17130853 0.5234981 0.16077635 0.33280608
-0.36997053 -0.36601403 0.11130299 0.458356

encoder.encoder_net.input_net.0.bias f4 [4]
00000000: d288 71be 0362 913d 8b40 1ebe bf1c 813e
-0.23587349 0.070987724 -0.15454309 0.25217244

encoder.encoder_net.gru.weight_ih_l0 f4 [12, 4]
00000000: f1a8 023f fad6 d3bd 2c2e 5f3e 8149 0dbf
00000010: b3f4 1fbc 7b84 60be 5012 1ebf cd63 66be
00000020: e2ac 36be d7be d03e 2341 ab3d de89 253e
00000030: 59e3 933e 2bd2 a73e 419d c53c fb95 e93d
00000040: 30dd d73d 3858 c5be 1e61 803e 0081 e3bc
00000050: 0ea6 473e e768 e93e 6c16 223f c92e 903e
00000060: 4df0 173e 8643 a33e 9174 9ebe cb78 7abe
00000070: af5f 823e 7680 c6be 0f8a 493e c0d7 d6bd
00000080: 7d59 ed3d b60f d53e 2943 c1be f803 4b3d
00000090: af2a f9be 1e5f 07bf 40d4 44be 6603 02bf
000000a0: 681d 9b3e 8390 a63c acac d9bd 22d8 4c3e
000000b0: 8506 0a3e 67b3 bcbe 7781 eb3e a565 0d3f
0.51039034 -0.10343738 0.21794957 -0.55190283 -0.009762931 -0.21925537 -0.6174669 -0.22499008
-0.17839387 0.407706 0.08362033 0.16165873 0.2888439 0.32777533 0.024122836 0.1140556
0.10540235 -0.38543868 0.25074095 -0.027771473 0.19496939 0.45587847 0.63315463 0.28160694
0.14837761 0.31887454 -0.30948308 -0.24460141 0.25463626 -0.38769883 0.19681571 -0.1049037
0.11589334 0.4161355 -0.37746552 0.04956433 -0.48665377 -0.5287951 -0.19221592 -0.50786436
0.30295873 0.02033258 -0.10628638 0.20004323 0.1347905 -0.36855623 0.4599721 0.5523322

encoder.encoder_net.gru.weight_hh_l0 f4 [12, 4]
00000000: 186f a13e d56c 8a3e f348 263e 91fc bfbe
00000010: cd32 55bd fd6f eb3c 5a2e c23e d8c5 0ebf
00000020: 95d4 16be ae71 d3be d5c9 e33d a5ef d0bd
00000030: e7b6 283e 1bb8 633e 7f97 d1bb d91f d33d
00000040: 8d25 00be 2daf 89be 7950 f93e 7e03 94be
00000050: c1ab aabe b7bb 503e 2c2e eb3e e434 533e
00000060: 46af 86be e40d 143d b6ab abbe 4d73 cb3e
00000070: bcf1 1fbf cea8 2a3d d398 fb3e 4615 233f
00000080: 513f cdbe aced 903d 23d3 383e 5ee4 babe
00000090: 1b7a b1be b0c3 a2be 459a cebe ce6c bdbe
000000a0: 6d8a 8d3e 8283 c0bd 3812 f0be 03c4 55be
000000b0: 6fcb cebe 781d 6fbd 7120 83be 5fa6 0a3e
0.3153007 0.27036157 0.16238765 -0.3749738 -0.0520504 0.028739924 0.37925988 -0.55770636
-0.14729531 -0.41297668 0.11122481 -0.102019586 0.16476022 0.222382 -0.0063962336 0.10308809
-0.12514324 -0.2689146 0.48694208 -0.28908914 -0.33334163 0.20384108 0.45933664 0.20625645
-0.26305598 0.03614606 -0.33529443 0.39736405 -0.6247823 0.04166489 0.49140033 0.63704336
-0.4008737 0.07076582 0.18049292 -0.36502355 -0.34663472 -0.31789923 -0.40352073 -0.36997074
0.27644673 -0.09400083 -0.468889 -0.20875554 -0.40389583 -0.058377713 -0.25610688 0.13540028

encoder.encoder_net.gru.bias_ih_l0 f4 [12]
00000000: bccf e0be aba7 c43e 7d45 b33e 2793 273f
00000010: 757f 3b3e f2d2 8fbe e609 d43e b99d f63d
00000020: 77a1 18be b23a 783e 165a 46bd 0280 c3bd
-0.4390849 0.3840917 0.35013953 0.6545891 0.1831034 -0.28090626 0.41413802 0.12041802
-0.14905344 0.2424114 -0.048425756 -0.095459

encoder.encoder_net.gru.bias_hh_l0 f4 [12]
00000000: 0cb7 d93e f868 e0bb e39c b1be 84d2 46bd
00000010: 995b 343e c3ae 923e 363b 093f d214 fe3e
00000020: 2828 c3be 85b6 293e bf24 853e 8669 133e
0.42522466 -0.0068484508 -0.34690008 -0.048540607 0.17613067 0.28648958 0.53605974 0.4962526
-0.38116574 0.16573532 0.26004598 0.14395723

encoder.encoder_net.conv_layers.0.bias f4 [4]
00000000: b441 4b3e 2dec 08be 6f1e 6c3e 0000 0000
0.19849283 -0.13371344 0.23058484 0.0

encoder.encoder_net.conv_layers.0.lin.weight f4 [4, 4]
00000000: 76c3 4e3f bc48 0bbf 4c09 113e e452 843f
00000010: f1f8 2c3f 0994 dd3e a9cb 3e3f 79e9 903e
00000020: 06ec 45be 3274 f93e 62d7 d73e f131 0b3e
00000030: 44c5 da3e 0d38 0fbb 1a8a 06bf c2a8 09bf
0.80767 -0.5440786 0.14163703 1.0337796 0.67567354 0.43277004 0.7452951 0.28303126
-0.19328317 0.48721462 0.42156512 0.1359327 0.42728627 -0.0021853477 -0.52554476 -0.5377313

encoder.encoder_net.conv_layers.1.bias f4 [4]
00000000: 7ea3 203e 0000 0000 0000 0000 b05d 0a3e
0.15687367 0.0 0.0 0.13512301

encoder.encoder_net.conv_layers.1.lin.weight f4 [4, 4]
00000000: 3aaa 613e f5b8 133f 6ae5 633f 0a61 7d3f
00000010: 9486 f73e fb3b dbbe f278 8cbd d373 19bf
00000020: 62dd 01bf 569e 7cbe 355b 3fbf bc11 18bf
00000030: 1f68 a2bd 71d4 083f 2eec 6e3e 1f7f 083f
0.22037593 0.577041 0.89021933 0.98976195 0.48344862 -0.428192 -0.06859006 -0.5994236
-0.5072843 -0.24669775 -0.74748546 -0.5940206 -0.07930016 0.5344916 0.23332283 0.5331897

encoder.encoder_net.conv_layers.2.bias f4 [4]
00000000: fce3 fb3d 9212 1cbe d564 473e 9d69 1d3e
0.12299344 -0.15241459 0.19472058 0.1537232

encoder.encoder_net.conv_layers.2.lin.weight f4 [4, 4]
00000000: 20a3 dabe 5c1f 0abf 50b5 01bf e352 a93e
00000010: 7cc8 b0be 1656 073f 1ead 06be e83b a03e
00000020: 6280 9c3e acaf 67bd 5782 613f d91f 14be
00000030: 4f04 88be ab3a c0be a295 0cbf 69c7 0d3f
-0.4270258 -0.539541 -0.50667286 0.3307105 -0.34527957 0.5286573 -0.13151976 0.31295705
0.30566698 -0.056564018 0.8808951 -0.14465274 -0.26565787 -0.3754476 -0.5491582 0.553824

encoder.encoder_net.output_net.weight f4 [8, 4]
00000000: 6671 b2be 60cc 8b3d 56ab 69be 9590 2cbd
00000010: 5c17 36be ef22 f33e 4f4d 083f 08bb e63e
00000020: e241 803b f738 d23e a3ad 6b3e 5d72 bfbe
00000030: 4020 373f 4672 eabe 49b7 1dbf 2b37 573e
00000040: 39a0 023c fa46 4cbe 154b b83e ebdf c0be
00000050: 53df c03e e729 07be dcde 32be 8819 4b3e
00000060: 4b47 f1be f5bd c0be 74f0 073f 0ebf b23d
00000070: 8886 e8be d19c d93c 7f9a 93bd 2fed 383e
-0.3485214 0.06826091 -0.22819266 -0.04213007 -0.17782348 0.4748759 0.53242964 0.4506457
0.003914104 0.41059086 0.23015456 -0.3739194 0.71533585 -0.4579031 -0.61607796 0.21017139
0.00797277 -0.1994895 0.35994783 -0.37670836 0.37670383 -0.13199578 -0.17467827 0.19833958
-0.47124705 -0.37644926 0.5310128 0.08727847 -0.4541514 0.026564034 -0.07207202 0.18059228

encoder.encoder_net.output_net.bias f4 [8]
00000000: bd10 d3bc 39c3 89be c4e3 863e 3536 603d
00000010: 28fa 003e f176 87bc 53f3 a1be 1c80 52be
-0.025764817 -0.26906756 0.26345646 0.054739196 0.12595427 -0.016536208 -0.31630954 -0.20556682

exp_avg f4 [16, 4]
00000000: d3e5 80b9 cd1e 9ab9 e897 1c39 753e 8bb8
00000010: fcd6 42b9 8608 0bb9 173a b738 2cc1 ea38
00000020: 36b5 43b8 626b 2e38 69a3 c0b8 c8af 84b9
00000030: 44af 2538 a248 39b9 b05f 38b9 2912 2bb9
00000040: 08be 8cb8 5d44 95b9 6889 8039 35c5 bdb9
00000050: 78b7 cd38 c919 99b9 604f c6b9 f0a4 aeb8
00000060: 95cf 5eb9 965c 11ba 9d8e 2bb9 31eb 83b9
00000070: c2ee a1b9 b488 eeb9 34ea 56b8 8569 32ba
00000080: 0377 79b6 12f4 c5b9 cc52 82b9 057c c4b9
00000090: ea66 3b39 383b c9b9 2ade fcb8 53a1 2739
000000a0: 699a 82b9 74b2 8db8 de14 9738 e9a4 58b9
000000b0: e496 9038 17d1 0ab9 e706 fc38 ca72 d7b9
000000c0: 0526 3a39 7891 0bb9 d711 cab9 aa30 30b8
000000d0: e401 6e39 6712 adb9 ef61 b0b9 868a 62b9
000000e0: 76c3 b9b9 02f8 c9b8 9559 fb37 87ff 8db9
000000f0: a671 5db9 d4fe 06b9 3419 ffb7 c0f5 3139
-0.00024585295 -0.00029396117 0.00014933909 -6.63967e-05 -0.0001858137 -0.00013259248 8.73694e-05 0.000111939706
-4.666039e-05 4.158484e-05 -9.185711e-05 -0.0002530797 3.9502294e-05 -0.00017670033 -0.00017583254 -0.00016314596
-6.711116e-05 -0.0002847043 0.00024516438 -0.0003619582 9.8093355e-05 -0.00029201646 -0.00037824642 -8.3276886e-05
-0.000212489 -0.00055451074 -0.00016360958 -0.00025161498 -0.000308862 -0.0004549675 -5.1239695e-05 -0.0006805885
-3.7173165e-06 -0.00037756615 -0.0002485722 -0.00037476435 0.00017872048 -0.0003838183 -0.00012057678 0.00015986459
-0.00024910577 -6.7566434e-05 7.204128e-05 -0.00020660799 6.894561e-05 -0.00013238598 0.00012017582 -0.0004109352
0.00017752506 -0.00013310264 -0.00038541734 -4.2006992e-05 0.00022698153 -0.00033010842 -0.00033642302 -0.00021604644
-0.0003543158 -9.630622e-05 2.9963247e-05 -0.00027083998 -0.0002111854 -0.00012874167 -3.0410105e-05 0.00016971584

exp_avg_sq f4 [16, 4]
00000000: 4557 a636 2807 1a36 3b3c 8b35 ded1 9435
00000010: 5a99 9136 9fd4 8f36 aa05 b435 7d07 3036
00000020: 5132 0336 cca3 b635 adf1 ab36 917c 8a35
00000030: 2373 b835 8a28 ac36 a413 4036 6b3f 2936
00000040: 1771 5035 a206 a135 ecf3 bf35 937a c835
00000050: 4982 0636 ad5b 1b36 8698 6036 72f4 f935
00000060: a125 0136 1ed2 c335 8c01 9035 49fd 0336
00000070: 07cb c235 3688 ca35 4028 b235 e297 a835
00000080: 6b72 6536 087d 0336 24ee 8236 17d5 0236
00000090: ccc8 5c35 d4af 0e35 697d 2935 c9d5 a935
000000a0: 859a 0436 60eb f235 3cb4 2036 be12 e835
000000b0: b0c8 6835 58aa 4035 9450 a235 97fe c035
000000c0: c162 9235 2b10 1436 2962 9e35 9053 e335
000000d0: c22b 1f36 f335 0636 49ea 7036 50d7 f235
000000e0: a8a6 4c36 537a 9235 5e3d 5d36 a50b 8835
000000f0: 6ad7 ec35 e32f cd35 5e31 b236 b373 2136
4.957345e-06 2.2951954e-06 1.0373836e-06 1.1087939e-06 4.339189e-06 4.2864845e-06 1.3412694e-06 2.6230402e-06
1.954981e-06 1.3607728e-06 5.124332e-06 1.0318055e-06 1.3742577e-06 5.130719e-06 2.8621662e-06 2.5219877e-06
7.7650606e-07 1.1997365e-06 1.43016e-06 1.4936835e-06 2.0043392e-06 2.3150162e-06 3.3467381e-06 1.8623089e-06
1.92444e-06 1.4589784e-06 1.0729286e-06 1.9667953e-06 1.4513215e-06 1.5089815e-06 1.3273748e-06 1.2561179e-06
3.419026e-06 1.95933e-06 3.902025e-06 1.9495544e-06 8.2248584e-07 5.3154986e-07 6.31399e-07 1.2653701e-06
1.9759475e-06 1.8098908e-06 2.3946768e-06 1.7290802e-06 8.6718774e-07 7.1773457e-07 1.2093392e-06 1.437921e-06
1.0906589e-06 2.206313e-06 1.1800486e-06 1.6937138e-06 2.3718317e-06 1.9998959e-06 3.5899159e-06 1.8093069e-06
3.0495376e-06 1.0913449e-06 3.2967287e-06 1.0136179e-06 1.7646064e-06 1.5287627e-06 5.3105605e-06 2.4058215e-06

exp_avg f4 [16]
00000000: eecc e6ba 8583 21bb f123 03bb 7010 1cbb
00000010: 418d c4ba 3dee 1ebb f3f0 3ebb c5c2 42bb
00000020: caf5 4ebb 8fb0 d4ba c7eb 45bb dc15 dbba
00000030: cc2c b3ba 9ee5 a6ba 169d 26bb 7e6c 19bb
-0.0017608681 -0.0024645042 -0.0020010436 -0.0023813508 -0.001499571 -0.0024250888 -0.0029135316 -0.0029718142
-0.0031579607 -0.0016226935 -0.0030200349 -0.0016714889 -0.0013669967 -0.0012733226 -0.002542322 -0.0023410614

exp_avg_sq f4 [16]
00000000: fd31 6837 fcba c837 0bb2 c837 8f0f fb37
00000010: 2ee7 c336 3b4d ce37 7181 9b37 0c37 ca37
00000020: f4e7 5b38 f12b 8636 3c34 0c38 786e db36
00000030: 184a 3037 0943 8437 0f9b aa37 442c e137
1.3839916e-05 2.392893e-05 2.3924766e-05 2.9928777e-05 5.8383657e-06 2.4593077e-05 1.8537716e-05 2.410591e-05
5.2429692e-05 3.9986267e-06 3.3427248e-05 6.539569e-06 1.0507669e-05 1.5766842e-05 2.0337784e-05 2.6842703e-05

exp_avg f4 [378, 16]
00000000: e8fd e5b8 d296 b9b8 e344 1cb9 30ba ddb8
00000010: 2aa6 b8b7 f73d 04b9 2fd6 aab8 a41c eeb8
00000020: 84cf 3cb9 287c a336 6219 0bb9 3ddd 4eb8
00000030: 4291 c3b8 c0c9 ebb8 7dbe 16b9 91db 3cb9
00000040: 41f3 c538 fc5a b738 cd83 1b39 231e bd38
00000050: 5ba3 5338 71ba f338 1f09 d238 974a 0739
00000060: 423c 2239 fbbd 4738 f290 ff38 0e34 6938
00000070: 3f2f a438 0ab1 e238 b273 0e39 be02 2639
00000080: 6e08 b038 4606 5c38 d882 b138 3ef6 6c38
00000090: bfd3 b537 e188 7d38 c3fb 9f38 d94c b838
000000a0: a637 c338 df70 3c38 0ee9 9638 9f23 b737
000000b0: a66c ae38 a82e 7c38 e2b5 ac38 6078 9b38
000000c0: 5a11 ae38 9ed6 9838 5a30 d338 3f28 d238
000000d0: ea81 6438 59c8 cd38 b424 ca38 6ba8 0c39
000000e0: 8d23 1039 b2d2 6f38 541a 0e39 eea1 9e38
000000f0: 75ea a938 3e05 9b38 67a3 af38 5258 1139
00000100: 125a 0d39 88ef 2b39 07dc 01b8 1cbe 6039
00000110: ff4b 2539 47d3 6939 373c c6b8 b2cb e3b8
00000120: fbe7 d437 7904 a9b8 2c92 5f37 2998 d238
00000130: f15c 1b38 942c 1339 7a5a b4b8 990a 2439
00000140: f61e 7338 b613 6c38 9602 2039 19a2 d038
00000150: c99f 0738 4383 e538 1e44 b438 36f1 1c39
00000160: b59f 1339 e9e5 7d38 39fd 1f39 d80c 7038
00000170: cb13 d438 25a0 bb38 a612 fb38 67c8 3139
00000180: 9eff 2438 b040 0236 7b68 6038 1ae4 1e37
00000190: a267 0ab8 51d4 6137 7e88 4438 2367 5138
000001a0: 1ff1 6638 d78a 9337 b69e 1b38 01f9 8eb7
000001b0: 3e31 9238 577e 6137 0d6b 8638 36c4 1838
000001c0: 62e2 29b9 e891 bdb8 2df5 52b7 001c 4536
000001d0: c63e 54b8 3a8c 55b7 5b18 19b8 f70d 8638
000001e0: a2f0 50b7 1504 1138 515f dc38 ccfb 3c36
000001f0: 3ca1 22b8 10ca 2eb8 6d70 8ab8 44fa 3338
00000200: 9684 1738 9266 7037 8947 2b38 cfb1 8b38
00000210: 6bb1 0c37 e1b6 6738 d1cc 3938 e152 8438
00000220: 3c0e c038 6887 f0b4 3ddc a338 4aec 6e38
00000230: 8646 d538 4d97 e236 fe76 4938 9796 8138
00000240: 9bc8 01b8 78f9 01b8 cd8f a7b7 1d4d aeb7
00000250: f72d 4cb8 268f 91b7 9d06 55b8 9d12 5fb8
00000260: 4e15 10b7 f0af 98b8 d15f b4b7 b046 dbb7
00000270: 4901 12b8 6ca5 96b7 c270 80b7 22c6 7d37
00000280: f747 edb8 1963 d7b8 f435 ebb8 d8aa 24b9
00000290: e135 66b8 1bcb 16b9 5834 a7b7 c0a1 67b8
000002a0: 6ac1 a3b8 7748 34b8 fd94 deb8 6213 c0b8
000002b0: f525 23b9 dd29 29b9 0006 dbb8 8a2d fbb8
000002c0: dbfd 93b8 c0a9 81b8 4ecd eab7 e821 86b8
000002d0: b917 89b8 3b1d 83b8 a3fc f0b7 798d 5db8
000002e0: bfb7 ccb7 1c96 89b8 4253 45b8 5c79 47b8
000002f0: af4c c1b8 f51b 67b8 fc32 a8b6 0401 37b8
00000300: 8edc 8fb7 dfa9 9d37 ec15 0738 97c4 cfb5
00000310: 99c4 41b8 e659 9d37 2095 82b8 bd46 52b8
00000320: 0f39 64b6 e0ed 9bb8 0f5c f2b7 f602 84b8
00000330: 0a52 c7b7 109d 2038 01e4 fa37 0422 6a37
00000340: dd9b 0ab7 fd2a e137 37f9 5e38 c430 2638
00000350: cff8 ca37 960a 5538 bf49 eb35 49dd 4938
00000360: ecf2 7638 520b 5db7 de5a 9838 1441 1d38
00000370: 5bc6 e8b6 14b2 0038 2d73 fb37 178e b438
00000380: 47c7 4d38 0834 3138 62ec 9938 5836 3e38
00000390: f14a e037 a329 6938 c147 5c38 f7b3 9438
000003a0: 6a70 a438 8732 c837 90c0 8a38 1c08 f437
000003b0: c1ce 2c38 2a1f 3e38 fa2a 8a38 283f a138
000003c0: c17d 2238 9e02 0a38 1b9e 7338 8511 2f38
000003d0: a518 bf37 dee0 3438 45ea 4d38 3ab6 8b38
000003e0: c499 8638 8bc4 0138 99d7 7e38 76b7 f537
000003f0: e80c 3738 d44a 1838 d3e3 5938 d7a1 6e38
-0.00010966865 -8.84958e-05 -0.00014902982 -0.00010572781 -2.2011885e-05 -0.00012611585 -8.1461265e-05 -0.00011354059
-0.00018006383 4.8722322e-06 -0.00013265529 -4.932027e-05 -9.325381e-05 -0.00011243252 -0.00014376077 -0.00018010872
9.4390016e-05 8.743067e-05 0.00014831052 9.017836e-05 5.0458457e-05 0.0001162187 0.00010015279 0.0001290239
0.00015471972 4.762223e-05 0.00012186346 5.560001e-05 7.82893e-05 0.00010809496 0.00013585275 0.00015832015
8.393904e-05 5.245793e-05 8.464389e-05 5.6496116e-05 2.1675483e-05 6.044738e-05 7.628605e-05 8.788118e-05
9.30869e-05 4.4927812e-05 7.195967e-05 2.1831887e-05 8.317204e-05 6.0124934e-05 8.2354774e-05 7.4133975e-05
8.3001985e-05 7.2879004e-05 0.0001007027 0.00010021077 5.4480428e-05 9.8124794e-05 9.638947e-05 0.00013414181
0.00013746154 5.7178266e-05 0.00013551983 7.564189e-05 8.102219e-05 7.3919524e-05 8.375086e-05 0.0001386118
0.00013480362 0.00016397063 -3.0960913e-05 0.00021433126 0.00015763937 0.00022299319 -9.4525916e-05 -0.00010862145
2.5380394e-05 -8.059381e-05 1.3325869e-05 0.00010041922 3.704144e-05 0.00014035619 -8.5999214e-05 0.00015644207
5.796455e-05 5.6285142e-05 0.00015259752 9.948406e-05 3.233532e-05 0.0001094402 8.595757e-05 0.00014967177
0.00014078508 6.053402e-05 0.00015257754 5.723242e-05 0.000101126345 8.946684e-05 0.00011972086 0.00016954691
3.933871e-05 1.9409163e-06 5.3503067e-05 9.470643e-06 -3.299828e-05 1.3460479e-05 4.685716e-05 4.9925537e-05
5.5060835e-05 1.7588418e-05 3.710269e-05 -1.704367e-05 6.9709946e-05 1.3440461e-05 6.409558e-05 3.642236e-05
-0.0001620143 -9.0393994e-05 -1.257406e-05 2.9371586e-06 -5.06032e-05 -1.2728438e-05 -3.6500725e-05 6.392219e-05
-1.2453793e-05 3.4574496e-05 0.000105081715 2.8160748e-06 -3.877397e-05 -4.1673018e-05 -6.601294e-05 4.2910004e-05
3.6124686e-05 1.4328996e-05 4.08362e-05 6.661156e-05 8.385959e-06 5.524501e-05 4.4298187e-05 6.309688e-05
9.157925e-05 -4.4802005e-07 7.813468e-05 5.6963683e-05 0.000101697675 6.7529386e-06 4.8032955e-05 6.179249e-05
-3.0942825e-05 -3.0988333e-05 -1.9974914e-05 -2.0778325e-05 -4.86802e-05 -1.7352006e-05 -5.0789316e-05 -5.3184678e-05
-8.588029e-06 -7.280696e-05 -2.150229e-05 -2.613975e-05 -3.481031e-05 -1.7958424e-05 -1.5311296e-05 1.51261065e-05
-0.00011314445 -0.00010270457 -0.00011215723 -0.00015703903 -5.4886452e-05 -0.00014380777 -1.9932326e-05 -5.5225333e-05
-7.808472e-05 -4.2982832e-05 -0.00010613536 -9.158884e-05 -0.00015559031 -0.00016132691 -0.00010443851 -0.00011977095
-7.0567905e-05 -6.182818e-05 -2.7990576e-05 -6.3959335e-05 -6.537088e-05 -6.2520114e-05 -2.8727873e-05 -5.2822263e-05
-2.4404259e-05 -6.560629e-05 -4.7046e-05 -4.7558322e-05 -9.2172406e-05 -5.510073e-05 -5.0127255e-06 -4.3631546e-05
-1.7149632e-05 1.879496e-05 3.2206925e-05 -1.5479917e-06 -4.619788e-05 1.875772e-05 -6.22666e-05 -5.013378e-05
-3.400786e-06 -7.4352836e-05 -2.8891516e-05 -6.294802e-05 -2.3760851e-05 3.829325e-05 2.9908495e-05 1.3955407e-05
-8.261731e-06 2.6842108e-05 5.3161024e-05 3.96229e-05 2.4196137e-05 5.0793016e-05 1.7530327e-06 4.8128222e-05
5.887721e-05 -1.3175262e-05 7.26485e-05 3.7492326e-05 -6.9372304e-06 3.0683426e-05 2.9975165e-05 8.609535e-05
4.90614e-05 4.2248546e-05 7.339638e-05 4.535014e-05 2.6737778e-05 5.5590306e-05 5.2518913e-05 7.090711e-05
7.841068e-05 2.3865387e-05 6.61622e-05 2.9090843e-05 4.120055e-05 4.5328554e-05 6.588358e-05 7.688842e-05
3.8740927e-05 3.29042e-05 5.8082962e-05 4.1739568e-05 2.278045e-05 4.3124768e-05 4.909399e-05 6.661979e-05
6.418259e-05 3.093904e-05 6.075911e-05 2.9291707e-05 4.364262e-05 3.6309313e-05 5.194901e-05 5.6894347e-05

exp_avg_sq f4 [378, 16]
00000000: 407a 2934 76c8 1434 7e3b 8634 61b0 7034
00000010: 304b 8133 954d 7734 0db6 0134 af42 8e34
00000020: f1cd 8834 de08 4833 da48 8c34 b534 ad33
00000030: 6c0d 4e34 2997 4934 c5aa 4534 6c8c a034
00000040: 7e52 8c33 b1e8 6133 2634 2434 6607 8733
00000050: 0e83 6832 70e6 d033 4d71 3533 b454 ce33
00000060: 69de 0634 6ca9 2332 288a c833 acda 9532
00000070: 20fc 4233 db64 d233 9ae8 f333 bdcf 4234
00000080: d5a5 5a33 acd4 1633 13fb 4033 c70f 4d33
00000090: b7da 4532 86fa 5233 f3a9 c432 896b 3a33
000000a0: daea 4933 c716 f331 96e0 3733 b073 4e32
000000b0: af3a 4233 84f4 4433 378e 1f33 4047 6433
000000c0: a806 5a33 4a65 2833 1e4e c733 34bb 8733
000000d0: 63f1 8b32 9989 8633 c2be 4133 c198 e533
000000e0: 721a b833 7e14 ac32 347c ce33 57c2 d632
000000f0: 8a6c 9633 80a6 5933 8bba 8933 a5e4 f033
00000100: bedf 7334 f867 6d34 6b41 ba34 61c5 a534
00000110: cf7f fa33 45da b434 a8fd 6434 f78d db34
00000120: 15b4 8934 4feb 2434 d44a ba34 3159 1b34
00000130: 241a ce34 385f c234 63b4 8e34 5e49 da34
00000140: 74d9 0233 fb6f c932 c514 3934 93e6 8333
00000150: 54a0 cc31 18b3 a833 9349 0633 02c3 ed33
00000160: fe26 d633 9b39 4732 c03a fd33 17e5 6332
00000170: 3865 8f33 8da0 8733 da34 d033 8799 4e34
00000180: 31af 5133 b4da f732 8869 8533 a9d1 1f33
00000190: 4936 2032 47c8 3233 5560 0033 012d 7a33
000001a0: 3b7c 7333 c751 3a32 8f81 4f33 b197 4932
000001b0: 9c7c 2e33 1a58 2933 7b74 4f33 1f3c 7633
000001c0: 3449 8033 c34c 2733 6dff a433 5c55 7a33
000001d0: 5c73 a032 6de5 7133 c730 8533 fdba ec33
000001e0: e1ea 9633 32d5 2e33 aa32 b333 c3ce fa32
000001f0: 3d67 9d33 a07d 7933 79ae 8633 eb25 b933
00000200: eb7d 9d33 cd3e 9533 b4e4 d333 bcb4 c433
00000210: 3ec7 1e33 8c65 e433 3445 6733 9901 df33
00000220: d8ba a633 fea0 1f33 100e cc33 e8a2 2233
00000230: f21d b733 d0c2 ec33 8ab4 9433 0592 1d34
00000240: 31ee ae32 c8a1 4e32 27dd 1433 8439 9d32
00000250: b582 e131 8f52 9732 be1b 8432 265d 1033
00000260: 7ca0 dc32 ace4 1632 f5a1 e732 c6c5 1632
00000270: 2c50 cf32 ffdc 8032 8d57 db32 637f 0133
00000280: cc81 1433 eee0 0233 f07f 9b33 8a19 3d33
00000290: db67 9632 c940 5933 02a0 0333 9e24 8d33
000002a0: b2ea 6733 ae34 aa32 d7c6 7e33 bc0a c832
000002b0: 337a 2f33 aa0f 5033 c45b 6233 a550 b933
000002c0: f5a9 e632 7b34 9632 fd73 4d33 fbc4 f132
000002d0: f830 2632 0bf9 eb32 3a7e b332 2e86 4133
000002e0: 4bae 1433 181f 4c32 4184 2433 4630 5332
000002f0: 62f4 1b33 b99b d032 f185 1633 4447 4833
00000300: d85d fa32 7a6e da32 e5f3 5933 6706 2b33
00000310: 43e7 5b32 fdaf 3d33 de93 b932 6214 4133
00000320: 66f9 2033 1370 7932 11ca 4533 2d94 9f32
00000330: 8ab4 1633 2858 3933 953e 1d33 d410 9533
00000340: 4808 8f32 064a 6a32 1ad4 4833 f74d dd32
00000350: d658 8731 7f4f 1a33 cf9d 2532 d786 0133
00000360: 17f2 fa32 4d23 c831 8445 1e33 1eb0 e431
00000370: 5906 be32 4428 0e33 ee41 e432 d7ed 9633
00000380: 8f20 9932 2d72 3432 c8dd 6033 1eb2 7632
00000390: ed1d 4b31 a220 ca32 9ec1 3e32 95f6 0033
000003a0: 33df 0d33 0758 9131 f228 fc32 df3b 9831
000003b0: 9c17 5e32 0ce2 ca32 72d5 1133 0a09 8333
000003c0: b57d a832 47c7 3832 7d5f 0f33 6209 8f32
000003d0: 6d56 f630 2530 d032 67bc 2032 c130 d932
000003e0: 14ae e732 5cea 4631 dd52 e432 58f9 6131
000003f0: 53fe 6a32 1b01 c832 c862 c932 9097 3f33
1.5783826e-07 1.3856501e-07 2.500273e-07 2.2415908e-07 6.020707e-08 2.3031892e-07 1.2080291e-07 2.649808e-07
2.5481816e-07 4.6574193e-08 2.6130039e-07 8.0655276e-08 1.9190128e-07 1.8774575e-07 1.840918e-07 2.9904493e-07
6.534263e-08 5.2598526e-08 1.5292662e-07 6.287773e-08 1.3533976e-08 9.727671e-08 4.2245393e-08 9.60803e-08
1.2560635e-07 9.526371e-09 9.338356e-08 1.7445323e-08 4.539845e-08 9.7972325e-08 1.1357879e-07 1.8143233e-07
5.0907904e-08 3.511802e-08 4.4931834e-08 4.774463e-08 1.1516639e-08 4.9122285e-08 2.2894687e-08 4.3404302e-08
4.7012556e-08 7.0748203e-09 4.2812268e-08 1.2017082e-08 4.5222517e-08 4.5857192e-08 3.7149416e-08 5.315019e-08
5.0763134e-08 3.920767e-08 9.280869e-08 6.3204794e-08 1.62915e-08 6.26489e-08 4.5109807e-08 1.0691429e-07
8.572978e-08 2.0032754e-08 9.615215e-08 2.5001254e-08 7.0046625e-08 5.067568e-08 6.4134916e-08 1.1217461e-07
2.2712535e-07 2.2110169e-07 3.4692798e-07 3.0877257e-07 1.16647804e-07 3.3686425e-07 2.1326434e-07 4.0895222e-07
2.5649265e-07 1.5359295e-07 3.4699644e-07 1.4467948e-07 3.838951e-07 3.6204597e-07 2.658081e-07 4.0659046e-07
3.0465756e-08 2.3450403e-08 1.7237024e-07 6.142104e-08 5.9554086e-09 7.8556866e-08 3.126622e-08 1.1071644e-07
9.972244e-08 1.15964225e-08 1.1791917e-07 1.3265228e-08 6.677368e-08 6.3156314e-08 9.6953684e-08 1.9241098e-07
4.882094e-08 2.885404e-08 6.212491e-08 3.7210757e-08 9.325569e-09 4.1626006e-08 2.9889936e-08 5.824859e-08
5.6690833e-08 1.0845219e-08 4.8313776e-08 1.17342305e-08 4.0625864e-08 3.9428507e-08 4.830188e-08 5.7331018e-08
5.97378e-08 3.8952532e-08 7.683307e-08 5.8285295e-08 1.867891e-08 5.6320847e-08 6.202168e-08 1.1023619e-07
7.0276435e-08 4.0706432e-08 8.344553e-08 2.9197855e-08 7.329661e-08 5.8089086e-08 6.2715976e-08 8.621631e-08
7.3337866e-08 6.9497766e-08 9.867054e-08 9.1598366e-08 3.696845e-08 1.06355486e-07 5.384682e-08 1.0384537e-07
7.763964e-08 3.7166494e-08 9.502048e-08 3.7866727e-08 8.5270486e-08 1.10250426e-07 6.924627e-08 1.4674886e-07
2.0364583e-08 1.2027563e-08 3.4660072e-08 1.830336e-08 6.5632215e-09 1.7616257e-08 1.5379438e-08 3.361233e-08
2.568435e-08 8.783143e-09 2.6965589e-08 8.776118e-09 2.413443e-08 1.5001659e-08 2.5534769e-08 3.015101e-08
3.4576985e-08 3.0472556e-08 7.241022e-08 4.402822e-08 1.7509526e-08 5.058317e-08 3.064634e-08 6.572485e-08
5.3997333e-08 1.981456e-08 5.9319827e-08 2.3287946e-08 4.0856502e-08 4.844302e-08 5.2703186e-08 8.629403e-08
2.6852812e-08 1.7486164e-08 4.7835773e-08 2.8145669e-08 9.673606e-09 2.7470852e-08 2.0895744e-08 4.505835e-08
3.4617454e-08 1.1881433e-08 3.830451e-08 1.2292793e-08 3.6311015e-08 2.4285201e-08 3.5046416e-08 4.6630944e-08
2.9146506e-08 2.5428779e-08 5.074607e-08 3.9819863e-08 1.2800061e-08 4.4165052e-08 2.1604077e-08 4.4954852e-08
3.747973e-08 1.451919e-08 4.6051415e-08 1.8577419e-08 3.5088796e-08 4.3153847e-08 3.661133e-08 6.941414e-08
1.6651157e-08 1.3637424e-08 4.6759034e-08 2.576324e-08 3.9391166e-09 3.592822e-08 9.640146e-09 3.015779e-08
2.921392e-08 5.8247793e-09 3.6850466e-08 6.6556956e-09 2.2121798e-08 3.3098573e-08 2.6572675e-08 7.028182e-08
1.782635e-08 1.05033395e-08 5.2355773e-08 1.4359584e-08 2.9557399e-09 2.3530735e-08 1.1103479e-08 3.0026587e-08
3.303212e-08 4.230063e-09 2.935528e-08 4.430589e-09 1.2927469e-08 2.361869e-08 3.395457e-08 6.101807e-08
1.9614939e-08 1.075552e-08 3.3381628e-08 1.6651658e-08 1.7923419e-09 2.423628e-08 9.3560635e-09 2.5284296e-08
2.6971101e-08 2.894601e-09 2.6580375e-08 3.2883545e-09 1.3678419e-08 2.3283567e-08 2.34444e-08 4.46085e-08

exp_avg f4 [378]
00000000: b9cd 3db9 7690 1d39 0646 c938 0679 1239
00000010: 0f5f be38 896c 1939 b869 6d38 00a8 05b7
00000020: b7e8 ba38 2abe 48b7 f8b2 efb8 4dee 1db8
00000030: fea4 58b6 8ff3 6a38 d272 a238 bf2b 8938
00000040: 05bf 8b35 2d9c 6438 871b 5738 cc44 6438
00000050: b038 2438 af28 e337 89b9 0638 4a03 d437
00000060: 1a80 7537 26fe a037 2e67 c936 6ee1 8ab9
00000070: 042d 9d38 8a56 e438 844f 6138 356c 5138
00000080: 4f25 4e39 71a3 6e38 8a6c b638 8b66 d536
00000090: 5157 36b9 47e7 b138 9c76 cc38 07e5 9138
000000a0: 6ecb a738 a291 0a38 98ac 4238 9b6d 9038
000000b0: a199 6b38 be6b 9638 98f8 6538 1d55 1038
000000c0: 1195 d437 357d c137 8d46 4737 6f4f 9f37
000000d0: 82be 8637 af42 aab9 36c5 e138 8c7e c838
000000e0: aa2a 5eb6 7b3b 0138 d108 9f37 b183 9d38
000000f0: dd25 9ab7 5eb8 ab37 5dcf 5f37 c59b 9eb6
00000100: 0e9e 7fb7 2832 15b8 1aed 5a38 d325 cfb6
00000110: 4fd6 a1b5 7006 dc37 a15c 1a37 4d53 7d36
00000120: 397b 0838 4325 9337 d437 8c37 034b 8f37
00000130: 2624 6537 5e3d c636 0bf1 b4b9 a35e 3639
00000140: 8185 e4b8 dd1c 9738 c2ed 0438 0a9d 3538
00000150: 7694 3bb7 26ce cd38 7b29 fe35 ed83 0338
00000160: 0b7e 4b38 84d1 f637 f02b 5d38 34de 1937
00000170: 24f4 c438 1b6c 6638 a81b 5d36 e809 ac38
00000180: e945 8a36 ae16 d237 4a4a 8537 a430 a337
00000190: b732 3637 084a 2137 a1d6 bab9 bc7f 1b38
000001a0: 97dd f136 4a45 5bb6 7130 1bb8 6468 2d38
000001b0: 119e 9838 bd1a 6438 af64 1e38 3dcc 9b38
000001c0: 9d3e 3b38 de32 6338 cab9 8538 5827 fc36
000001d0: 9b1b 3738 7ff7 a937 3198 8c38 a535 7537
000001e0: db0a eb37 69fa 0237 2415 5b37 ac9a 8637
000001f0: df88 5337 f01c bcb8 de41 8bb9 269d 2639
00000200: 9220 f7b8 7987 15b7 3ff1 5539 1f2a a038
00000210: 7dd8 8a38 4f96 7f38 b7db 6238 2c03 8238
00000220: 3790 3038 6ec4 b338 66b3 0138 604f 7537
00000230: 3ed5 5538 abb0 1138 2542 bb37 5ee4 3b36
00000240: e799 5c37 bbb1 0936 8162 5437 f663 e4b9
00000250: 4e05 c839 d191 6eb9 f293 2a39 4047 2838
00000260: c725 9938 89a6 d538 5006 8438 ea7f b836
00000270: 2eb4 9338 fb7c b037 e329 b438 16fc 5938
00000280: 4f75 6438 36e6 6e36 ada5 8d38 8114 0438
00000290: 9944 0437 0b7b 4a37 7a73 7837 88d5 b4b5
000002a0: 38d1 c238 29b9 54b7 ac94 c3b8 649a e938
000002b0: db25 a337 860b 9138 d5d0 5137 d8dd 8338
000002c0: 98c5 6037 6d49 3938 c3b2 a938 5995 5c38
000002d0: 55d6 3638 9b3b 1e38 eebf 2a38 ca35 ee37
000002e0: b4ae 0a38 9310 ac37 c406 b637 6b38 2037
000002f0: f6f5 8239 d90e 45b8 ba74 73b9 4faf b8b7
00000300: 20e7 98b5 5e0b 9fb8 fcaf d638 4da9 9937
00000310: 26a9 7e38 666b 0838 91a1 4f38 61f8 c737
00000320: 01ae b037 1c6f c637 a02c e037 770e 91b6
00000330: 5091 9d37 7d61 b037 48f5 f436 9f2b c9b8
00000340: 7dad ccb7 3e76 63b9 30c1 6038 afe7 5538
00000350: a932 74b8 68a6 ba38 e44b 39b8 618f 6138
00000360: 6e07 d937 2442 0438 7efc 4e38 4e54 5d38
00000370: 83a1 0538 179e 2137 7ddc 5837 e10a a937
00000380: de5b 3237 6d91 3739 443d 3eb8 52cf c337
00000390: 959b c2b8 76d0 74b7 aa11 de36 8046 1438
000003a0: e5d0 0837 62b9 8a38 ed2e 3a38 013a 2938
000003b0: 6c37 1b38 ebaf 1c38 a90c d937 a573 5137
000003c0: c226 a637 5d4e 0b37 ae9a b838 e91f d036
000003d0: 84e6 ab38 d96b bf38 9609 24b5 2600 1637
000003e0: 226c ff37 d7f7 8f38 acad 2238 1668 1938
000003f0: 28ba 5f38 4a79 0f38 009a d637 e0a6 a237
-0.00018101082 0.00015026503 9.59747e-05 0.0001396873 9.077612e-05 0.0001463165 5.660366e-05 -7.966533e-06
8.912518e-05 -1.1965205e-05 -0.000114297436 -3.765365e-05 -3.2282546e-06 5.601678e-05 7.746149e-05 6.5408174e-05
1.0411901e-06 5.4504886e-05 5.128563e-05 5.4423508e-05 3.915344e-05 2.7079454e-05 3.2120883e-05 2.5273901e-05
1.4632964e-05 1.9191833e-05 6.0022785e-06 -0.0002648937 7.494728e-05 0.00010888006 5.3718235e-05 4.993026e-05
0.0001965959 5.689584e-05 8.698653e-05 6.3598322e-06 -0.000173894 8.4830965e-05 9.749571e-05 6.9567985e-05
8.001072e-05 3.3037395e-05 4.6413945e-05 6.886871e-05 5.6171444e-05 7.172626e-05 5.4829376e-05 3.4411543e-05
2.5341784e-05 2.3065697e-05 1.1877751e-05 1.8991266e-05 1.6062757e-05 -0.0003247461 0.000107655695 9.560314e-05
-3.3105412e-06 3.0811392e-05 1.8958382e-05 7.510873e-05 -1.8375862e-05 2.0470641e-05 1.3340116e-05 -4.726901e-06
-1.5235984e-05 -3.557108e-05 5.219607e-05 -6.173484e-06 -1.2057807e-06 2.6229041e-05 9.200682e-06 3.7748425e-06
3.2539687e-05 1.7541117e-05 1.6715298e-05 1.7081858e-05 1.365788e-05 5.908004e-06 -0.00034511866 0.00017392127
-0.00010896754 7.205617e-05 3.169268e-05 4.3300017e-05 -1.1180635e-05 9.81356e-05 1.8936547e-06 3.13557e-05
4.851636e-05 2.9423049e-05 5.2731426e-05 9.171246e-06 9.391483e-05 5.4936954e-05 3.2947664e-06 8.203444e-05
4.120859e-06 2.5044512e-05 1.5889429e-05 1.9453764e-05 1.0859853e-05 9.613585e-06 -0.00035636596 3.707384e-05
7.208156e-06 -3.2673875e-06 -3.6999994e-05 4.1343636e-05 7.277367e-05 5.4384338e-05 3.7763904e-05 7.429018e-05
4.4642587e-05 5.416839e-05 6.37654e-05 7.5147655e-06 4.365631e-05 2.026162e-05 6.704068e-05 1.4615628e-05
2.8019238e-05 7.806907e-06 1.3058339e-05 1.604607e-05 1.2608448e-05 -8.9699286e-05 -0.0002656122 0.00015889536
-0.000117839445 -8.912634e-06 0.00020403134 7.63724e-05 6.620677e-05 6.0936723e-05 5.4087224e-05 6.199474e-05
4.209598e-05 8.571973e-05 3.0923075e-05 1.4621619e-05 5.0981755e-05 3.473523e-05 2.2322938e-05 2.7998099e-06
1.3148855e-05 2.0518044e-06 1.2659119e-05 -0.00043562026 0.00038150925 -0.0002275177 0.00016267577 4.0120678e-05
7.302645e-05 0.00010187651 6.295426e-05 5.4985185e-06 7.043067e-05 2.1039034e-05 8.590871e-05 5.1971605e-05
5.4468688e-05 3.5598764e-06 6.7542634e-05 3.149035e-05 7.883785e-06 1.2068786e-05 1.4808838e-05 -1.3473191e-06
9.289611e-05 -1.2679296e-05 -9.326017e-05 0.00011139063 1.9448742e-05 6.916285e-05 1.2505993e-05 6.2878884e-05
1.3397446e-05 4.417582e-05 8.091845e-05 5.259118e-05 4.3591794e-05 3.7725647e-05 4.0709907e-05 2.8396858e-05
3.306447e-05 2.0511716e-05 2.1699241e-05 9.549879e-06 0.00024978787 -4.6982288e-05 -0.0002321777 -2.2016144e-05
-1.1392149e-06 -7.583828e-05 0.00010237095 1.8317858e-05 6.071585e-05 3.252495e-05 4.9503116e-05 2.3838309e-05
2.1061862e-05 2.3655179e-05 2.6723661e-05 -4.3230207e-06 1.8783525e-05 2.1026231e-05 7.300321e-06 -9.592552e-05
-2.4399482e-05 -0.00021692456 5.358568e-05 5.099893e-05 -5.8221314e-05 8.900167e-05 -4.4178116e-05 5.3777712e-05
2.5871876e-05 3.153285e-05 4.934938e-05 5.276902e-05 3.186009e-05 9.633156e-06 1.292594e-05 2.0151436e-05
1.0631016e-05 0.00017506415 -4.5356588e-05 2.3342353e-05 -9.27962e-05 -1.4592069e-05 6.618172e-06 3.5351608e-05
8.154869e-06 6.614883e-05 4.438956e-05 4.034676e-05 3.7006495e-05 3.7357135e-05 2.5874311e-05 1.2484296e-05
1.980679e-05 8.303291e-06 8.802615e-05 6.202598e-06 8.196852e-05 9.127678e-05 -6.110871e-07 8.940731e-06
3.0448722e-05 6.864935e-05 3.8785554e-05 3.657498e-05 5.3340715e-05 3.4206816e-05 2.55825e-05 1.9389612e-05
