models/graph_vae.pt (torch, 102612 bytes, 56 tensors)

prior.mean f4 [4]
0	0x00000000	0.0
1	0x00000000	0.0
2	0x00000000	0.0
3	0x00000000	0.0

prior.std f4 [4]
0	0x3f800000	1.0
1	0x3f800000	1.0
2	0x3f800000	1.0
3	0x3f800000	1.0

decoder.decoder_net.mlp.0.weight f4 [16, 4]
0	0xbf11dd21	-0.5697804
1	0xbf3b0ce5	-0.7306655
2	0xbf562fff	-0.83666986
3	0xbec1a1f0	-0.3781886
4	0x3f3e0c00	0.7423706
5	0x3f468f84	0.7756274
6	0x3eea488d	0.45758477
7	0xbf3822d9	-0.71928173
8	0xbeda4dc8	-0.42637467
9	0xbf34bee5	-0.7060378
10	0x3e2300c0	0.15918255
11	0x3f1f24bf	0.62165445
12	0xbf0a09a8	-0.53920984
13	0x3f1dfa43	0.61709994
14	0xbe363cb0	-0.17796588
15	0x3dedf8f7	0.11619752
16	0xbe14b7b2	-0.14523199
17	0x3f206e97	0.62668747
18	0xbf01f546	-0.5076488
19	0x3ed4a982	0.41535574
20	0xbeb8cfa0	-0.36095905
21	0x3f42b099	0.76050717
22	0x3f1fe606	0.6246036
23	0x3ea33836	0.31878823
24	0xbe73fa0b	-0.23825853
25	0x3f1f704d	0.6228073
26	0xbec2b07b	-0.3802527
27	0x3e884976	0.26618546
28	0xbee6bc32	-0.45065457
29	0x3f2bc18c	0.67092204
30	0xbd76976b	-0.060202997
31	0xbee7106e	-0.45129722
32	0xbeb4aa75	-0.35286298
33	0xbefca2fe	-0.49343103
34	0x3f247410	0.642396
35	0x3f56f89b	0.8397309
36	0xbf0da43a	-0.55328715
37	0x3ea34931	0.31891778
38	0x3f1b297d	0.6061018
39	0xbeff345b	-0.49844632
40	0xbb8cfa73	-0.004302317
41	0xbe9a9acb	-0.30196223
42	0x3d98cbb3	0.074607275
43	0x3f44fcb8	0.7694812
44	0xbdf213e0	-0.11820197
45	0xbecbdf15	-0.39818636
46	0xbf041e81	-0.51609045
47	0xbf449187	-0.7678456
48	0x3f65af91	0.8972102
49	0xbf008280	-0.5019913
50	0x3e228479	0.15870847
51	0x3d980591	0.07422937
52	0x3f6df82d	0.9295681
53	0xbf13dee1	-0.5776196
54	0x3eb3cef7	0.3511884
55	0xbecbc0fb	-0.3979567
56	0xbd00f8c6	-0.03148725
57	0x3e23874a	0.15969577
58	0x3dda39f7	0.10655587
59	0x3e0e1749	0.1387607
60	0x3ea3c06c	0.31982744
61	0xbf39f63a	-0.72641337
62	0x3f39b50e	0.7254189
63	0xbf535c97	-0.82563156

decoder.decoder_net.mlp.0.bias f4 [16]
0	0x3e6551ca	0.22394481
1	0x3e8aa6a3	0.2708026
2	0x3e3d587e	0.18490788
3	0x3f37565b	0.71616143
4	0x3f6ab645	0.9168437
5	0x3e2a4401	0.16627504
6	0x3f4a1a91	0.7894679
7	0x3db2706c	0.08712849
8	0x3ecab7b4	0.3959328
9	0x3e1ca4ba	0.15297213
10	0x3f3c7cf2	0.7362815
11	0x3f1bfa22	0.6092855
12	0x3ed362ac	0.41286218
13	0x3ec85a04	0.39131176
14	0x3f56ddab	0.8393199
15	0x3e20adcb	0.15691297

decoder.decoder_net.mlp.2.weight f4 [378, 16]
0	0xbd657c6f	-0.056026872
1	0xbcf1db7f	-0.02952361
2	0x3cc079b0	0.023495525
3	0xbe384679	-0.17995633
4	0x3b94a259	0.004535955
5	0xbcd4d04c	-0.02597823
6	0x3df67cf0	0.12035549
7	0xbe6e18c5	-0.23251636
8	0x3d965f4d	0.07342396
9	0x3e247307	0.16059504
10	0xbe5c2f61	-0.21502449
11	0xbcd6080d	-0.026126886
12	0x3b954925	0.0045558386
13	0xbdc74596	-0.09730069
14	0xbe6a2368	-0.22865069
15	0xbd878c1e	-0.06618522
16	0xbf230d48	-0.6369214
17	0xbeb8ef3e	-0.36120027
18	0xbf255bb8	-0.64593077
19	0xbd85a757	-0.06526058
20	0xbe8471c3	-0.25868043
21	0xbef9b464	-0.4877044
22	0xbe0df597	-0.13863216
23	0xbeb5905f	-0.3546171
24	0xbf013bad	-0.50481683
25	0xbefd2857	-0.4944484
26	0xbec3f7cd	-0.38274994
27	0xbeedf981	-0.4647942
28	0xbe99c744	-0.3003484
29	0xbeaada99	-0.33369902
30	0xbdcada87	-0.09904962
31	0xbf22954a	-0.6350905
32	0x3d982dc6	0.074306056
33	0x3d10e8aa	0.035378136
34	0xbe09f687	-0.13472949
35	0x3d65d09e	0.056107156
36	0xbd12fc7c	-0.03588532
37	0x3cc492d0	0.023995787
38	0xbd3679a0	-0.044549584
39	0xbc7eb399	-0.015545749
40	0x3d9bf078	0.07614225
41	0xbd42220c	-0.04739575
42	0x3cef8bfa	0.02924155
43	0xbd7fed60	-0.062482238
44	0xbddacfe5	-0.10684184
45	0x3cee2fb1	0.029075475
46	0x3c4621d8	0.01209303
47	0x3cae8c08	0.021307006
48	0xbe0618b5	-0.13095362
49	0xbecb2939	-0.39679888
50	0xbe43aae5	-0.1910816
51	0xbe6c3bb3	-0.23069648
52	0xbba407ca	-0.0050058113
53	0xbe150267	-0.14551698
54	0xbe80386b	-0.25043043
55	0xbe631de9	-0.22179379
56	0xbca60974	-0.02026818
57	0x3c97ce11	0.018530877
58	0xbec68e6d	-0.38780537
59	0xbd9fbf7d	-0.07800195
60	0xbd9688b7	-0.07350295
61	0xbee86052	-0.45385987
62	0xbeab0acc	-0.33406675
63	0xbed7d6bb	-0.42156014
64	0x3e8c3089	0.2738078
65	0x3f007bf4	0.5018914
66	0x3ee7d491	0.45279363
67	0x3ef21c53	0.47287235
68	0x3e07aef1	0.13250329
69	0x3ea65c22	0.32492167
70	0x3e2c0a4c	0.16800803
71	0x3f010d86	0.5041126
72	0x3ea6b313	0.32558498
73	0x3e5dbefa	0.21654883
74	0x3e8d81de	0.27638143
75	0x3ebab273	0.3646427
76	0x3ebed7ce	0.3727402
77	0x3eab5aac	0.33467615
78	0x3ee391df	0.44447228
79	0x3df1ab59	0.1180026
80	0xbd0ba9ed	-0.0340976
81	0xbe8a10ca	-0.26965934
82	0xbda119f9	-0.07866282
83	0xbdcf1575	-0.101115145
84	0xbe6883a3	-0.22706465
85	0xbe54eee7	-0.20794259
86	0xbd0f2718	-0.034949392
87	0xbe1a0e24	-0.15044457
88	0xbe920c63	-0.28525075
89	0xbe689497	-0.22712933
90	0xbe1dec95	-0.1542228
91	0xbef54429	-0.47903565
92	0xbe32c505	-0.1745797
93	0xbde83d22	-0.11339785
94	0xbde8965f	-0.11356806
95	0xbd52b3c7	-0.05144098
96	0xbe9dbe5e	-0.308093
97	0xbeb9beeb	-0.3627847
98	0xbeddb011	-0.4329839
99	0xbe939a73	-0.28828773
100	0xbe13d126	-0.14435253
101	0xbdf0198c	-0.11723623
102	0xbe45c910	-0.1931498
103	0xbec7eb34	-0.39046633
104	0xbe1c7da2	-0.152823
105	0xbed24b4b	-0.4107307
106	0xbed5eb89	-0.41781262
107	0xbe6c64a4	-0.23085266
108	0xbeb6d1a5	-0.3570682
109	0xbea7b9f7	-0.32759067
110	0xbee3d333	-0.4449707
111	0xbf1ea0d9	-0.61964184
112	0xbe786a08	-0.24259198
113	0xbe683f89	-0.22680487
114	0xbec956f1	-0.39324144
115	0xbe832df1	-0.25620988
116	0xbeba05e4	-0.3633262
117	0x3c012d79	0.007884377
118	0xbe0ea639	-0.13930596
119	0xbccafe61	-0.0247795
120	0xbe529a49	-0.20566668
121	0xbe9a7bd9	-0.30172613
122	0xbe8017e6	-0.25018233
123	0xbe0a7e31	-0.135247
124	0xbe726119	-0.23669852
125	0xbe0a76dc	-0.13521904
126	0xbe4a9a56	-0.19785437
127	0xbed7f140	-0.42176247
128	0xbe744aa4	-0.23856598
129	0xbebfd5b3	-0.37467727
130	0xbe43e341	-0.19129659
131	0xbd54bef3	-0.051939916
132	0xbe82f8f2	-0.25580555
133	0xbe3deeb6	-0.18548092
134	0xbecc2ddf	-0.39878747
135	0xbd6787e9	-0.0565261
136	0xbed1e1c0	-0.40992546
137	0xbdd89a81	-0.10576344
138	0xbf0b1b96	-0.5433897
139	0xbf180b96	-0.5939268
140	0xbe6277ca	-0.22116008
141	0xbe2a2695	-0.1661628
142	0xbee34357	-0.44387314
143	0xbe9b5d2c	-0.30344522
144	0xbe1db1ae	-0.1539981
145	0xbebbdaba	-0.36690313
146	0xbebd2d4d	-0.36948624
147	0xbe8212aa	-0.25404865
148	0xbe35b5a9	-0.17745079
149	0x3d40f19f	0.047105428
150	0xbe97ca10	-0.2964635
151	0xbde7aff5	-0.11312858
152	0xbec89a59	-0.39180258
153	0xbe9b44a2	-0.303258
154	0xbdbab07b	-0.09115692
155	0xbf06bb4c	-0.5262954
156	0xbf052f49	-0.52025276
157	0xbda1318a	-0.07870777
158	0xbeb2cf78	-0.3492391
159	0xbe25f6a4	-0.16207367
160	0xbeaf5f4a	-0.34252387
161	0xbf0670aa	-0.5251566
162	0xbeefc758	-0.46831775
163	0xbe981040	-0.29699898
164	0xbf031093	-0.51197165
165	0xbe7c729e	-0.24653098
166	0xbded9080	-0.11599827
167	0xbeacc339	-0.33742693
168	0xbeeda54d	-0.46415177
169	0xbebfa98f	-0.3743405
170	0xbe57d46d	-0.21077128
171	0xbe7210ce	-0.23639223
172	0xbf2202f9	-0.63285786
173	0xbe88e0a8	-0.267339
174	0xbe62e76f	-0.22158597
175	0xbef3c071	-0.4760776
176	0xbe8b7215	-0.27235475
177	0xbe094654	-0.13405734
178	0xbf0fd187	-0.5617909
179	0xbed5c4a1	-0.41751578
180	0xbe660e5d	-0.22466417
181	0xbe855ca3	-0.2604724
182	0xbe83ee6e	-0.25767845
183	0xbe7d47a6	-0.24734363
184	0xbef7d9db	-0.48408398
185	0xbe048d84	-0.12944609
186	0xbdea88c9	-0.11451871
187	0xbeb36638	-0.35038924
188	0xbe9c1e17	-0.30491707
189	0xbf1f2b41	-0.62175375
190	0xbee9a199	-0.45631102
191	0xbecaf742	-0.39641768
192	0xbdf50b85	-0.11965088
193	0xbefdc178	-0.49561667
194	0xbef56d07	-0.47934744
195	0xbee3d9ec	-0.445022
196	0xbe7d7920	-0.24753237
197	0xbe6c3c76	-0.23069939
198	0xbec15b7e	-0.37765115
199	0xbc4c11fa	-0.012455458
200	0xbea40eac	-0.32042444
201	0xbe868ee9	-0.26280907
202	0xbda7827f	-0.08179187
203	0xbf168c44	-0.5880778
204	0xbf088b11	-0.533372
205	0xbe81bac3	-0.253378
206	0xbd6fb9db	-0.058526855
207	0xbe61b626	-0.2204214
208	0xbe662915	-0.22476609
209	0xbe6c4e5b	-0.23076765
210	0xbe3fdef3	-0.18737392
211	0xbef59ec4	-0.4797269
212	0xbe25b400	-0.16181946
213	0xbe895bbd	-0.26827803
214	0xbec714a4	-0.38882935
215	0xbde48da2	-0.11159827
216	0xbf05df3c	-0.52293754
217	0xbed3aa7a	-0.41341
218	0xbe98dc2b	-0.29855475
219	0xbe5f1328	-0.21784651
220	0xbf1d5219	-0.61453396
221	0xbf20ef04	-0.6286471
222	0xbe6afddd	-0.22948404
223	0xbf09c4d1	-0.53815943
224	0xbe8df69d	-0.27727214
225	0xbe2b432c	-0.16724843
226	0xbefaee31	-0.4900985
227	0xbcdb9c17	-0.026807828
228	0xbee9abbf	-0.45638844
229	0xbed8a2ab	-0.42311606
230	0xbeb499da	-0.3527363
231	0xbf04bc6e	-0.5185002
232	0xbed94531	-0.424356
233	0xbefcf6e7	-0.49407122
234	0xbece2f2a	-0.40270358
235	0xbed259c7	-0.4108412
236	0xbf15ac69	-0.584662
237	0xbe225960	-0.15854406
238	0xbe226f38	-0.15862739
239	0xbea3528a	-0.3189891
240	0xbeb38e2a	-0.350694
241	0xbe180298	-0.1484474
242	0xbec2e4a7	-0.38065073
243	0xbe3db1dd	-0.1852488
244	0xbe3a0b7c	-0.18168443
245	0xbe865053	-0.26233158
246	0xbe484172	-0.19556215
247	0xbe05c58f	-0.13063644
248	0xbeee2dc2	-0.46519285
249	0xbebc2619	-0.36747816
250	0xbed72227	-0.42018244
251	0xbe35a42c	-0.17738408
252	0xbea52f82	-0.32262808
253	0xbee05c6f	-0.4382052
254	0xbe2f2334	-0.17103273
255	0xbe891771	-0.26775697

decoder.decoder_net.mlp.2.bias f4 [378]
0	0xbe937e20	-0.28807163
1	0xbee04d97	-0.43809196
2	0xbd4798e8	-0.048729807
3	0x3cbe9c31	0.023267837
4	0x3f0e11dc	0.55496
5	0xbe573f11	-0.21020152
6	0xbf08c8c8	-0.5343137
7	0xbdb12b7e	-0.086508736
8	0xbece4540	-0.4028721
9	0xbeef6a57	-0.46760818
10	0xbef514a2	-0.47867304
11	0xbec88261	-0.3916197
12	0xbeef31f3	-0.46717796
13	0xbe61e666	-0.22060546
14	0xbf024bd2	-0.5089694
15	0xbe9ce162	-0.30640703
16	0xbe983099	-0.29724577
17	0xbe79f4cc	-0.24409789
18	0xbd231031	-0.039810363
19	0xbef2fc95	-0.4745833
20	0xbec4b1ca	-0.38416892
21	0xbe0212e6	-0.12702522
22	0xbcb87b62	-0.022519771
23	0xbea546bc	-0.3228053
24	0xbe69fbdc	-0.22849983
25	0xbe7b72dc	-0.24555534
26	0xbe29c47a	-0.16578856
27	0xbf0e8ff4	-0.55688405
28	0xbed713d4	-0.42007315
29	0x3ec953b8	0.39321685
30	0xbe120778	-0.14260662
31	0x3dc5c655	0.096569695
32	0xbe68b008	-0.227234
33	0xbec98321	-0.39357856
34	0xbeb40858	-0.35162616
35	0xbd6689c2	-0.05628372
36	0xbe72870f	-0.23684333
37	0xbe1fd703	-0.15609364
38	0xbec70640	-0.38871956
39	0xbe143414	-0.14472991
40	0xbddeda6d	-0.10881505
41	0xbeebf061	-0.46081832
42	0xbefc1994	-0.49238265
43	0xbdd3a92c	-0.10335001
44	0xbe72f3a6	-0.23725757
45	0xbee2bad0	-0.44283152
46	0xbeb46f85	-0.35241333
47	0xbeefb814	-0.46820128
48	0x3c29fb35	0.010374834
49	0xbee2f72e	-0.44329208
50	0xbe162ddd	-0.14665933
51	0xbedd2955	-0.43195596
52	0xbe530c3c	-0.20610136
53	0xbe82a314	-0.25515044
54	0xbe0207b6	-0.12698254
55	0x3e99fef1	0.30077317
56	0x3d699f80	0.057036877
57	0x3e8ae695	0.27129045
58	0x3c50c51c	0.012742307
59	0xbe77fac9	-0.2421676
60	0xbe5e6ce4	-0.21721226
61	0xbedad751	-0.42742398
62	0xbdd9db28	-0.10637504
63	0xbe4a428a	-0.19751945
64	0xbdf587f5	-0.11988822
65	0xbeadf50f	-0.33976027
66	0xbcb088eb	-0.021549663
67	0xbe27db3f	-0.1639223
68	0xbe8a7c06	-0.27047747
69	0xbee6ac7a	-0.45053464
70	0xbe99e5de	-0.30058187
71	0xbe369312	-0.1782954
72	0xbec996e1	-0.39372924
73	0xbe12af8e	-0.14324781
74	0xbea78fca	-0.3272689
75	0xbe87bc31	-0.26510766
76	0x3c709c03	0.014685634
77	0xbeae6a52	-0.3406549
78	0xbe820e2c	-0.25401437
79	0xbe09508d	-0.13409634
80	0x3e8a6f60	0.27038097
81	0xbe8eb200	-0.27870178
82	0x3e43eacb	0.19132535
83	0xbec55e5a	-0.38548547
84	0xbe0ca574	-0.1373499
85	0xbea23350	-0.31679773
86	0xbee166f9	-0.44023874
87	0xbed4f88e	-0.41595882
88	0xbdb59901	-0.08867074
89	0xbea9ade1	-0.33140472
90	0xbe90d11b	-0.28284535
91	0xbdb8c934	-0.090227515
92	0x3bfb029c	0.007660223
93	0xbe214036	-0.15747151
94	0xbe9ecd21	-0.31015876
95	0xbe842f35	-0.25817266
96	0xbec78ff5	-0.38977018
97	0x3c7ac331	0.015305326
98	0xbec43c69	-0.3832734
99	0xbd4bec2e	-0.049785785
100	0xbcfa855e	-0.030581173
101	0x3cd2984b	0.025707385
102	0x3d540bc6	0.05176904
103	0xbebf89e4	-0.3740989
104	0x3c5b9550	0.013402298
105	0xbeb8bce5	-0.36081615
106	0xbecfc43e	-0.40579408
107	0xbecb4056	-0.39697522
108	0xbebf15eb	-0.3732141
109	0xbe97e45c	-0.29666412
110	0xbe16260f	-0.14662956
111	0xbe9f6bca	-0.31136924
112	0xbec35760	-0.381526
113	0xbe63d795	-0.22250207
114	0xbec6fdc4	-0.38865483
115	0xbec8619a	-0.39136964
116	0xbe9a158a	-0.30094558
117	0xbc8628a6	-0.016376805
118	0xbe48fc06	-0.1962739
119	0xbebf2361	-0.3733168
120	0xbea5b0bc	-0.323614
121	0xbe9eee4c	-0.3104118
122	0xbeb7c6fb	-0.35893998
123	0xbebdf440	-0.3710041
124	0xbe5a5b3a	-0.21323863
125	0xbef4653d	-0.4773349
126	0xbef168d5	-0.47150293
127	0xbeaced2f	-0.33774707
128	0xbee33913	-0.44379482
129	0xbe8636c4	-0.26213658
130	0xbe768c01	-0.24076845
131	0xbed34b00	-0.41268158
132	0xbeadac4a	-0.3392051
133	0xbef09f0e	-0.4699635
134	0xbeaf3e62	-0.34227282
135	0xbe51efcc	-0.20501631
136	0xbe83aee1	-0.2571936
137	0xbe99f2f6	-0.30068177
138	0xbead5f97	-0.33861992
139	0xbdc87106	-0.097871825
140	0xbd9d1fd5	-0.07672087
141	0xbec89e9a	-0.39183503
142	0xbe7af12e	-0.24506065
143	0xbd74cf1a	-0.05976782
144	0xbea0243c	-0.31277645
145	0xbe897671	-0.26848176
146	0xbeac80a7	-0.33691904
147	0x3d5960e8	0.053070933
148	0xbeb6d46f	-0.3570895
149	0xbd8298ab	-0.06376775
150	0xbe2d8775	-0.16946204
151	0xbe9d7333	-0.30751953
152	0xbde05f36	-0.1095566
153	0xbec69664	-0.38786614
154	0xbdfc0db2	-0.123073
155	0xbee4886b	-0.4463533
156	0xbe8148de	-0.25250906
157	0xbe2fc19c	-0.171637
158	0xbd890eba	-0.06692262
159	0xbe81b326	-0.25331992
160	0xbe92c458	-0.28665423
161	0x3ce28add	0.027654106
162	0xbec1d2fd	-0.37856284
163	0xbed22069	-0.41040352
164	0xbd91c7bc	-0.071181744
165	0xbdf4b512	-0.11948599
166	0xbecb22b6	-0.3967492
167	0xbea036c4	-0.31291783
168	0xbe60f311	-0.21967722
169	0x3d4b1645	0.049581785
170	0xbe2411c8	-0.16022408
171	0xbec5f3c6	-0.38662547
172	0xbeecce1a	-0.46250993
173	0xbe208572	-0.15675905
174	0xbdf47cfb	-0.11937901
175	0xbed00d79	-0.4063528
176	0xbea0c3d6	-0.3139941
177	0xbeacb357	-0.33730575
178	0xbe2e8f99	-0.17046966
179	0xbdb5c1ae	-0.08874832
180	0xbe9c2f19	-0.30504683
181	0xbe738f1a	-0.23785058
182	0xbd852313	-0.065008305
183	0xbebc5cfb	-0.36789688
184	0xbec75828	-0.38934445
185	0xbd93215c	-0.07184097
186	0xbe8af583	-0.27140436
187	0xbe75ddf3	-0.24010448
188	0xbe8d2a12	-0.2757116
189	0xbdc95f8f	-0.098326795
190	0xbd8866fd	-0.066602685
191	0xbef6c83c	-0.48199642
192	0xbd3d8a31	-0.046274368
193	0xbdff162a	-0.12455399
194	0xbe882dbe	-0.265974
195	0xbdddc36d	-0.1082829
196	0xbd1b6f81	-0.037948135
197	0xbe38f386	-0.18061647
198	0xbd792359	-0.060824726
199	0xbe94cd34	-0.29062808
200	0xbea07d4e	-0.313456
201	0xbe2e5202	-0.17023471
202	0xbd46cb09	-0.048533473
203	0xbea5fffe	-0.3242187
204	0xbe9ea8ef	-0.3098826
205	0xbb0eaec1	-0.0021771642
206	0xbca7e8b4	-0.020496704
207	0xbec93ba6	-0.3930332
208	0xbda18d1a	-0.07888241
209	0xbec68e56	-0.3878047
210	0xbe8d899a	-0.27644044
211	0xbe21c222	-0.15796712
212	0xbdd1aeee	-0.10238443
213	0xbecfebfa	-0.40609723
214	0xbeb3dddc	-0.35130203
215	0xbe5cb1a3	-0.21552138
216	0xbee787bd	-0.45220748
217	0xbe8082a4	-0.2509967
218	0xbe9ca98b	-0.305981
219	0xbeab8f57	-0.33507797
220	0xbd10d366	-0.035357855
221	0xbe54b05f	-0.20770405
222	0xbe967e29	-0.29393128
223	0xbd90aa87	-0.070637755
224	0xbe48edb8	-0.19621933
225	0xbe569cf5	-0.20958312
226	0x3d1e4bf4	0.038646653
227	0xbea62082	-0.32446676
228	0xbe12f1ca	-0.14350048
229	0xbeab36c2	-0.33440214
230	0xbec89581	-0.39176562
231	0xbe99047f	-0.29886243
232	0xbec450f8	-0.38343024
233	0xbeb521c3	-0.3537732
234	0xbe1e5d98	-0.1546539
235	0xbea9de5e	-0.33177465
236	0xbe19a110	-0.15002847
237	0xbee3bdfa	-0.44480878
238	0xbd0b9d45	-0.03408553
239	0xbe742e29	-0.23845734
240	0xbe7bb650	-0.24581265
241	0x3ce2bdac	0.027678333
242	0x3d5a4b01	0.053294186
243	0x3e10bdd3	0.14134912
244	0xbececab7	-0.40389034
245	0xbefdb535	-0.49552312
246	0xbdeec340	-0.11658335
247	0xbdfe2724	-0.12409809
248	0xbd123658	-0.035696357
249	0xbeaf72ba	-0.34267217
250	0xbec4f600	-0.38468933
251	0xbeb795f0	-0.3585658
252	0xbeb64055	-0.35595956
253	0xbe8785f7	-0.26469395
254	0xbe77d5f6	-0.24202713
255	0xbe03a6f0	-0.1285665

encoder.encoder_net.input_net.0.weight f4 [4, 7]
0	0xbe91f31b	-0.28505787
1	0xbe4daa8e	-0.20084593
2	0xbe878052	-0.26465088
3	0xbe8d9aa3	-0.2765704
4	0xbe79db39	-0.24400033
5	0x3eded023	0.4351817
6	0x3e6c3737	0.23067938
7	0xbe1f0411	-0.15528895
8	0xbdae400c	-0.0850831
9	0xbc5d9f99	-0.013526821
10	0xbe1ffa37	-0.15622793
11	0x3e0f9004	0.14019781
12	0x3d037870	0.03209728
13	0xbcff41ad	-0.031159246
14	0xbd45dcb8	-0.048306197
15	0xbea4d262	-0.3219176
16	0x3ed92214	0.42408812
17	0x3e9d784d	0.30755845
18	0x3ea977ab	0.33099112
19	0xbebfe9ad	-0.37482968
20	0x3cd61448	0.026132718
21	0xbe937757	-0.28801987
22	0xbe194ce4	-0.14970738
23	0x3e64596a	0.22299734
24	0xbcc17abb	-0.023618093
25	0xbea2bc8f	-0.31784484
26	0x3e4f9a54	0.20273715
27	0xbdb252b7	-0.08707183

encoder.encoder_net.input_net.0.bias f4 [4]
0	0xbc176c9d	-0.009242204
1	0x3e8bd4f5	0.2731091
2	0xbd739cde	-0.059475772
3	0xbe7cd608	-0.24691021

encoder.encoder_net.gru.weight_ih_l0 f4 [12, 4]
0	0xbf22b11a	-0.63551486
1	0xbdc66eaf	-0.0968908
2	0x3e67c6df	0.22634457
3	0xbf0ae052	-0.54248536
4	0xbe529ed5	-0.20568402
5	0x3d191bc1	0.037379984
6	0xbf038978	-0.51381636
7	0xbe81ec9a	-0.25375825
8	0x3ee3b253	0.44471988
9	0x3e886953	0.26642856
10	0xbaa6600c	-0.0012693419
11	0xbe938ff0	-0.28820753
12	0x3dff26e7	0.12458592
13	0xbc37377a	-0.01118266
14	0xbcb46cb0	-0.022024482
15	0x3d936979	0.07197852
16	0x3e18cc5e	0.1492171
17	0x3ea18533	0.31546935
18	0xbe676cee	-0.22600147
19	0xbf0d3c52	-0.55170166
20	0xbe2351ba	-0.15949145
21	0xbd4eb123	-0.0504619
22	0x3ccc4004	0.024932869
23	0xbef7cfcd	-0.48400727
24	0xbe4f0f32	-0.2022064
25	0xbdc89233	-0.0979351
26	0xbbb74595	-0.0055930116
27	0x3ef35e1e	0.47532743
28	0xbdb257c7	-0.087081484
29	0x3df9676d	0.1217793
30	0x3e5822c4	0.21107012
31	0x3ecfa3b3	0.4055458
32	0x3f16c488	0.5889363
33	0x3ed2da3e	0.4118213
34	0xbe73d506	-0.2381173
35	0xbe2827a2	-0.16421369
36	0xbe899f00	-0.2687912
37	0x3ecc36b0	0.39885473
38	0xbd864a05	-0.06557087
39	0x3dd8a7b4	0.10578862
40	0x3c12cd22	0.00896004
41	0xbe2c6eb8	-0.16839111
42	0x3f3ba880	0.73303986
43	0x3ec7bbab	0.39010367
44	0x3e062424	0.13099724
45	0xbf033f35	-0.5126832
46	0xbc8fd756	-0.017558735
47	0xbf17cd6a	-0.5929781

encoder.encoder_net.gru.weight_hh_l0 f4 [12, 4]
0	0x3d421e6a	0.047392286
1	0x3e8b37e0	0.27191067
2	0xbe6ac8bf	-0.22928141
3	0x3eb8b3cc	0.36074674
4	0xbe9c485d	-0.3052396
5	0xbe695e02	-0.22789767
6	0xbe89f435	-0.26944128
7	0x3d40c0a2	0.04705871
8	0x3d99c9be	0.075091824
9	0xbe825ec5	-0.25462928
10	0xbd3226bd	-0.043493975
11	0x3e8fb60f	0.28068587
12	0x3e8ebe42	0.2787953
13	0xbe478017	-0.19482456
14	0x3e2f4b26	0.1711851
15	0xbe7d028c	-0.24708003
16	0x3e7e82ca	0.2485458
17	0x3dba0a0d	0.09083948
18	0x3e8656ed	0.26238194
19	0x3ebec8f1	0.3726268
20	0xbe62144a	-0.22078052
21	0x3e999f83	0.3000451
22	0xbee16712	-0.4402395
23	0xbed4767d	-0.4149665
24	0x3ef49bd8	0.4777515
25	0x3e04d025	0.12970026
26	0xbd469a85	-0.048487205
27	0x3e9ddafc	0.30831134
28	0x3f0277dc	0.5096414
29	0xbdf7f865	-0.12107924
30	0xbd7ec481	-0.06219912
31	0x3f01ccc2	0.5070306
32	0xbe84d89b	-0.25946507
33	0x3d5bc80d	0.05365758
34	0xbd520b05	-0.05128004
35	0xbe1649f0	-0.14676642
36	0x3e14bc0a	0.14524856
37	0x3e484387	0.1955701
38	0x3e91c02e	0.28466934
39	0x3dd30519	0.10303707
40	0x3eb293f5	0.34878507
41	0xbebe137e	-0.37124246
42	0x3ec965f7	0.39335606
43	0xbe9633c0	-0.29336357
44	0xbe88bafe	-0.26705164
45	0xbd94620d	-0.07245264
46	0x3ecf3d8b	0.4047664
47	0xbd903cb8	-0.07042831

encoder.encoder_net.gru.bias_ih_l0 f4 [12]
0	0x3ee8e536	0.45487374
1	0xbcdd5e97	-0.027022643
2	0x3ebc4483	0.3677102
3	0x3e5b0640	0.21389103
4	0xbee4fac9	-0.44722584
5	0x3ece05d3	0.4023882
6	0x3ee949a6	0.45564002
7	0xbe1e11b1	-0.15436436
8	0x3ea86e16	0.3289649
9	0x3d8effcc	0.06982383
10	0xbe7a28d3	-0.24429636
11	0xbd9be0c9	-0.07611234

encoder.encoder_net.gru.bias_hh_l0 f4 [12]
0	0x3caafb75	0.020871857
1	0xbeed052b	-0.46293005
2	0xbd45aa97	-0.04825839
3	0xbca9d31b	-0.020730546
4	0xbeec3a97	-0.4613845
5	0x3ee0479f	0.43804643
6	0x3d163688	0.0366731
7	0x3d33cda5	0.04389729
8	0xbdca6ee5	-0.09884433
9	0x3d971155	0.07376353
10	0x3eea37cb	0.45745692
11	0x3e7335a6	0.23750934

encoder.encoder_net.conv_layers.0.bias f4 [4]
0	0x3ee3ef2c	0.4451841
1	0x3e9c9fa2	0.3059054
2	0x00000000	0.0
3	0x3e0d1870	0.13778853

encoder.encoder_net.conv_layers.0.lin.weight f4 [4, 4]
0	0x3d36300e	0.044479422
1	0xb948ea98	-0.0001916088
2	0x3f867f01	1.0507509
3	0xbe9e4019	-0.30908278
4	0x3e997409	0.2997134
5	0xbd7c9f28	-0.06167522
6	0x3f0836d9	0.5320869
7	0x3f5bc99a	0.85854495
8	0xbe346421	-0.17616321
9	0xbee992dc	-0.45619857
10	0xbefe68e2	-0.49689394
11	0x3d3b123b	0.045671683
12	0x3f712f3a	0.94212687
13	0x3f33f1f3	0.7029106
14	0xbd98ca81	-0.074604996
15	0x3f20c050	0.62793446

encoder.encoder_net.conv_layers.1.bias f4 [4]
0	0x39372034	0.00017464237
1	0x3c83daf1	0.01609561
2	0x3e7d2d2c	0.24724263
3	0x3e58d691	0.211756

encoder.encoder_net.conv_layers.1.lin.weight f4 [4, 4]
0	0x3f04f718	0.51939535
1	0x3eccbe0e	0.3998875
2	0xbf255932	-0.64589226
3	0xba9ca889	-0.0011952083
4	0x3eec309c	0.46130836
5	0x3dc2c053	0.09509339
6	0x3d975761	0.07389713
7	0xbda22a3e	-0.07918213
8	0x3e69c1ed	0.22827883
9	0x3ed8a7a0	0.42315388
10	0xbe77916e	-0.24176571
11	0xbf0d8c08	-0.55291796
12	0x3f061075	0.5236886
13	0xbef9fe0e	-0.4882664
14	0x3d414c4b	0.0471919
15	0xbefec732	-0.4976135

encoder.encoder_net.conv_layers.2.bias f4 [4]
0	0xbe345c6f	-0.17613386
1	0xbab924ff	-0.0014125406
2	0x3e50353d	0.20332809
3	0x00000000	0.0

encoder.encoder_net.conv_layers.2.lin.weight f4 [4, 4]
0	0x3debc6b8	0.11512512
1	0xbe3ddca8	-0.18541205
2	0xbd894ecb	-0.06704482
3	0xbf35fe39	-0.7109104
4	0x3e9fd9b3	0.3122078
5	0x3e6f5cd5	0.23375256
6	0xbf14fda2	-0.5819951
7	0x3de4e53f	0.11176538
8	0x3f763a5b	0.96182793
9	0xbeee00db	-0.46485028
10	0x3e2709e8	0.16312373
11	0x3e35698f	0.17716049
12	0xbe8eaf76	-0.2786824
13	0xbee49a38	-0.4464891
14	0xbdc6f93b	-0.09715506
15	0x3f1109b7	0.5665545

encoder.encoder_net.output_net.weight f4 [8, 4]
0	0xbe985f89	-0.29760388
1	0x3e01e1eb	0.12683837
2	0x3ee5ab37	0.4485719
3	0xbdfd1d93	-0.123591565
4	0xbec4929c	-0.38393104
5	0xbee13287	-0.43983862
6	0xbef41c8e	-0.47678035
7	0xbe880d81	-0.26572803
8	0x3c96f394	0.018426694
9	0x3e2f0163	0.17090373
10	0xbe8e927a	-0.27846128
11	0xbef3753e	-0.47550386
12	0x3e843b10	0.2582631
13	0xbe28dd71	-0.16490723
14	0xbeba2832	-0.36358792
15	0xbf1277ad	-0.5721386
16	0xbf0d1929	-0.55116516
17	0xbe42b750	-0.1901524
18	0xbed22b52	-0.41048676
19	0xbe28d449	-0.1648723
20	0x3ec8027d	0.39064398
21	0x3e5d40d6	0.21606764
22	0xbe77b821	-0.24191333
23	0x3e1eeb12	0.1551936
24	0xbde17323	-0.11008289
25	0xbd9cdf1b	-0.076597415
26	0xbe91ffc0	-0.28515434
27	0xbe597b12	-0.21238354
28	0x3eea5bef	0.45773265
29	0x3d4a5db9	0.049405787
30	0x3ef32933	0.4749237
31	0xbe7e8c27	-0.24858151

encoder.encoder_net.output_net.bias f4 [8]
0	0xbdc60c43	-0.096703075
1	0x3e76bdf9	0.24095906
2	0x3caf71bb	0.021416536
3	0x3d11c312	0.035586424
4	0x3e6882b8	0.22706115
5	0xbcbf07f5	-0.023319224
6	0x3dba524f	0.0909773
7	0xbe71eebd	-0.23626228

exp_avg f4 [16, 4]
0	0x3985cd51	0.0002552071
1	0x38e4c1c7	0.00010907981
2	0x39bed5c5	0.00036398895
3	0xb8dfcf77	-0.00010672112
4	0xb9a8b9d4	-0.0003218191
5	0xb91a79d0	-0.00014731963
6	0x398da79a	0.0002701849
7	0xb953284b	-0.00020137538
8	0x390f3fa3	0.00013661249
9	0x39529291	0.00020081761
10	0xb77e949f	-1.5174183e-05
11	0xb8d7ad8f	-0.00010284327
12	0xb9ee7619	-0.00045482887
13	0x395e1f66	0.00021183267
14	0x399bd212	0.00029720418
15	0x38587dc8	5.1615556e-05
16	0xba1980ed	-0.0005855698
17	0x39dbccf4	0.00041923637
18	0x3917afe9	0.00014466014
19	0x39299777	0.00016173521
20	0xb917943a	-0.00014455701
21	0xb88d8bb4	-6.749426e-05
22	0xb84dd059	-4.9069848e-05
23	0xb8a8ecc5	-8.054966e-05
24	0xb9d91bf9	-0.00041410307
25	0x39fd3201	0.00048293176
26	0x394cf05a	0.00019544494
27	0xb885cc01	-6.379933e-05
28	0x39725df7	0.00023113923
29	0xb8531505	-5.0325896e-05
30	0x396c9648	0.00022562698
31	0x39552f98	0.00020330993
32	0xb78990b2	-1.6399052e-05
33	0x38be446b	9.07265e-05
34	0x38f5cc79	0.000117205964
35	0x3930ac58	0.00016848871
36	0x3990c988	0.00027615973
37	0x396c504d	0.00022536628
38	0xb911d11c	-0.00013906177
39	0x38e7a8f6	0.0001104641
40	0xba284c1d	-0.0006420033
41	0xb9d62e1c	-0.00040851615
42	0x3a2dfb5c	0.0006636882
43	0x37d6f713	2.562584e-05
44	0xb94d79fd	-0.00019595768
45	0xb9c4de78	-0.00037549785
46	0x39bdef3d	0.00036227136
47	0xba1468cf	-0.00056613697
48	0xba02dd30	-0.0004992066
49	0xb8aa59a0	-8.122926e-05
50	0x39cf019a	0.0003948331
51	0xba1ea52d	-0.0006051835
52	0xb976195b	-0.00023469834
53	0xb8dfc4ab	-0.00010670101
54	0x398caf03	0.00026833275
55	0xb9d6ae0d	-0.0004094694
56	0xb9bd4387	-0.000360992
57	0xb97fd80a	-0.00024399176
58	0x3a1fe2c7	0.0006099161
59	0xb9eb8068	-0.00044918363
60	0x3954be54	0.00020288798
61	0xb8c25cb5	-9.267909e-05
62	0xb97628f1	-0.0002347564
63	0x3944ff8a	0.00018787212

exp_avg_sq f4 [16, 4]
0	0x362f94b4	2.6163589e-06
1	0x360a7eba	2.0637367e-06
2	0x360aacf2	2.066427e-06
3	0x35571345	8.012178e-07
4	0x3632536c	2.6572625e-06
5	0x366ee477	3.5597748e-06
6	0x35d3b93f	1.5774639e-06
7	0x35a1cebc	1.2055602e-06
8	0x35dddede	1.6530646e-06
9	0x36252d77	2.461338e-06
10	0x3547c2e2	7.441687e-07
11	0x35b21f4c	1.3271142e-06
12	0x36882e03	4.0584723e-06
13	0x365e7823	3.3150507e-06
14	0x35f73e08	1.8420988e-06
15	0x358d6390	1.0534295e-06
16	0x367d60d0	3.775629e-06
17	0x3664c689	3.409021e-06
18	0x360fa3e0	2.1404048e-06
19	0x35c41fe3	1.4612418e-06
20	0x3612ff00	2.1904125e-06
21	0x368388a5	3.9200117e-06
22	0x3602f908	1.9516465e-06
23	0x3541e552	7.223181e-07
24	0x362eef48	2.60673e-06
25	0x363094d6	2.6312678e-06
26	0x35d85c6a	1.612015e-06
27	0x3584d190	9.895757e-07
28	0x3648c333	2.9915943e-06
29	0x369f3caa	4.7456315e-06
30	0x353237aa	6.639117e-07
31	0x3554f6ff	7.933558e-07
32	0x36467b98	2.957624e-06
33	0x35a2c744	1.2127934e-06
34	0x362335f4	2.4320298e-06
35	0x361162ce	2.1664196e-06
36	0x36d607f2	6.378622e-06
37	0x361d4f7d	2.3441091e-06
38	0x36650c72	3.4130903e-06
39	0x3586cc98	1.0043323e-06
40	0x36a31d3d	4.8611823e-06
41	0x35f9ec32	1.8620688e-06
42	0x3668dd5b	3.469954e-06
43	0x366a0ec4	3.4877312e-06
44	0x368885a9	4.068676e-06
45	0x360cb794	2.0968482e-06
46	0x365012c5	3.100534e-06
47	0x365a584c	3.2535927e-06
48	0x36b2ecea	5.332394e-06
49	0x35df2c70	1.6627728e-06
50	0x35d351ac	1.5744495e-06
51	0x3589dba9	1.0271225e-06
52	0x36a1b8c4	4.8196835e-06
53	0x35d7e78c	1.6086137e-06
54	0x35ecab23	1.7633178e-06
55	0x3595e980	1.1169323e-06
56	0x367b5855	3.745333e-06
57	0x36243fca	2.4475034e-06
58	0x36442b86	2.923161e-06
59	0x35d079c7	1.553265e-06
60	0x359565dc	1.113101e-06
61	0x35e4bda5	1.7042518e-06
62	0x35fdf0b4	1.8920023e-06
63	0x35b33641	1.3352329e-06

exp_avg f4 [16]
0	0xbad11fa6	-0.0015954867
1	0xbac93668	-0.0015351297
2	0xbad19ef7	-0.001599281
3	0xbaff2e02	-0.0019468667
4	0xbb0d3f34	-0.0021552565
5	0xba9d6689	-0.0012008707
6	0xbb00f8df	-0.0019679589
7	0xbaac93c5	-0.0013166597
8	0xbac4abca	-0.001500481
9	0xba45ff75	-0.00075530197
10	0xbb2de671	-0.002653506
11	0xbb301f1c	-0.0026874011
12	0xbb17a542	-0.0023139273
13	0xbb098fdb	-0.0020990286
14	0xbb02ded0	-0.0019969232
15	0xbaaf70e9	-0.001338509

exp_avg_sq f4 [16]
0	0x373af91e	1.1144466e-05
1	0x3780143a	1.5268208e-05
2	0x37192de0	9.130192e-06
3	0x380deb4c	3.3836157e-05
4	0x38375c40	4.3716514e-05
5	0x37556e50	1.27214735e-05
6	0x37f3fbcc	2.908511e-05
7	0x3720f0f0	9.592841e-06
8	0x37a657e1	1.9829664e-05
9	0x37958bcc	1.7827282e-05
10	0x38674d28	5.514655e-05
11	0x383968c2	4.4205e-05
12	0x37a17fd8	1.9252228e-05
13	0x37a06ffc	1.9125633e-05
14	0x3859b086	5.1901232e-05
15	0x372956ac	1.0093365e-05

exp_avg f4 [378, 16]
0	0xb8abd4f4	-8.193581e-05
1	0x391f44f9	0.00015189116
2	0xb8cd43e9	-9.787811e-05
3	0xb848551a	-4.7762973e-05
4	0x38d168c4	9.985411e-05
5	0xb826e7b1	-3.9793264e-05
6	0x3860ee16	5.3627497e-05
7	0xb899e234	-7.337742e-05
8	0xb8e550a5	-0.00010934592
9	0xb8e6b1d6	-0.00011000379
10	0x36602e98	3.3405722e-06
11	0xb532dbc1	-6.662995e-07
12	0x38a97af3	8.081449e-05
13	0x389c92e3	7.4660195e-05
14	0x37bb99d1	2.2363763e-05
15	0xb822cea2	-3.881625e-05
16	0x38871c44	6.4425665e-05
17	0x38de83e3	0.00010610351
18	0x382410e4	3.9116378e-05
19	0x391967e8	0.00014629925
20	0x395b0059	0.00020885597
21	0x3893c019	7.045287e-05
22	0x3938c6d9	0.00017621684
23	0x38800336	6.104114e-05
24	0x388659f3	6.406372e-05
25	0x384eb7f9	4.9285565e-05
26	0x39030209	0.00012493892
27	0x38c50604	9.3948125e-05
28	0x38c139b6	9.213707e-05
29	0x38af6371	8.363173e-05
30	0x3914c572	0.00014187934
31	0x384e959f	4.9253573e-05
32	0x3798949b	1.8189012e-05
33	0xb7e2d619	-2.7040996e-05
34	0x3709a621	8.204516e-06
35	0x38163d8e	3.5820114e-05
36	0xb722c0c1	-9.7008315e-06
37	0x38314b2e	4.2270105e-05
38	0x36c0f90b	5.7510383e-06
39	0x3791b0b0	1.7367624e-05
40	0x37fd88d6	3.022367e-05
41	0x3808c825	3.2611326e-05
42	0xb728957c	-1.0048385e-05
43	0xb70e94bc	-8.4984895e-06
44	0xb8898f09	-6.5593114e-05
45	0xb8991ca7	-7.3009454e-05
46	0x37354ed4	1.0806794e-05
47	0xb81eb391	-3.783737e-05
48	0x3832f155	4.2663265e-05
49	0x3790f66f	1.7280892e-05
50	0x37b9783e	2.210971e-05
51	0x3833bccc	4.2852756e-05
52	0x38416fad	4.6118792e-05
53	0x378729f0	1.6112783e-05
54	0x382d5cc3	4.1332805e-05
55	0x37c8a9b5	2.3920884e-05
56	0x37d423b3	2.5288993e-05
57	0x37cc0f39	2.4325784e-05
58	0x3807875a	3.2312564e-05
59	0x38404b41	4.5846453e-05
60	0x37ac8857	2.0567486e-05
61	0x379ba890	1.8555933e-05
62	0x381c88ac	3.7320584e-05
63	0x378a0607	1.6453689e-05
64	0xb8a43c8d	-7.831408e-05
65	0xb84d81d5	-4.8996724e-05
66	0xb85ba984	-5.2371543e-05
67	0xb8c62134	-9.44756e-05
68	0xb90b2834	-0.0001327105
69	0xb8241911	-3.9123992e-05
70	0xb8e7db51	-0.00011055789
71	0xb80ad2fd	-3.3098262e-05
72	0xb8822a10	-6.206718e-05
73	0xb82b1a11	-4.0793853e-05
74	0xb8c6845d	-9.46603e-05
75	0xb8c21597	-9.254662e-05
76	0xb8502a07	-4.9630205e-05
77	0xb843cfde	-4.6685214e-05
78	0xb8c15154	-9.218106e-05
79	0xb852b50a	-5.0236507e-05
80	0x3716d8b5	8.991153e-06
81	0xb9441061	-0.00018698118
82	0x38de778c	0.00010608052
83	0xb7044109	-7.882955e-06
84	0x38f8f06c	0.000118703436
85	0xb912e4e9	-0.0001400892
86	0x3884fd7b	6.341465e-05
87	0xb8bb0f04	-8.919652e-05
88	0x38aa358e	8.116207e-05
89	0xb930f935	-0.00016877505
90	0x39360851	0.0001735997
91	0xb80bdb55	-3.334445e-05
92	0x37843ceb	1.5763993e-05
93	0xb875467e	-5.8478203e-05
94	0x372dd604	1.0361433e-05
95	0xb90b031e	-0.00013257234
96	0x38cde325	9.817471e-05
97	0x3861bb84	5.3818818e-05
98	0x38721453	5.7716225e-05
99	0x39037421	0.00012536395
100	0x393f5eb6	0.00018250462
101	0x38668852	5.496323e-05
102	0x391f92fc	0.00015218178
103	0x381e4df2	3.7742728e-05
104	0x389bf5d6	7.4367665e-05
105	0x37e84076	2.7686572e-05
106	0x38ff7f49	0.00012183056
107	0x38ce708d	9.84381e-05
108	0x38658e91	5.473063e-05
109	0x382a07e8	4.053852e-05
110	0x38eea196	0.00011378822
111	0x37e4e439	2.7285992e-05
112	0x38bcfef7	9.0120295e-05
113	0xb848c8d2	-4.7870744e-05
114	0xb8b6b2a5	-8.7117114e-05
115	0xb83d9110	-4.519621e-05
116	0xb886a7f1	-6.4208994e-05
117	0xb8b6a2f6	-8.70879e-05
118	0xb8613d38	-5.3701195e-05
119	0xb77f3510	-1.5211539e-05
120	0xb8fd0bb5	-0.00012066161
121	0xb794578b	-1.768374e-05
122	0xb8e9fd08	-0.000111574365
123	0x39121fd1	0.00013935498
124	0xb88a556f	-6.596266e-05
125	0xb7d1cd25	-2.501027e-05
126	0xb837dea4	-4.383795e-05
127	0xb794680b	-1.7691424e-05
128	0xb69d1081	-4.680886e-06
129	0x384bcc54	4.8589267e-05
130	0xb8fdbf15	-0.00012099572
131	0x37507357	1.2424621e-05
132	0x37b44d0c	2.149355e-05
133	0xb79ca8ca	-1.8675248e-05
134	0x37b08383	2.1042075e-05
135	0x38279b9b	3.996082e-05
136	0xb9226463	-0.00015486921
137	0x37fa21f9	2.9818142e-05
138	0xb8c7567e	-9.50517e-05
139	0x37db7558	2.6161477e-05
140	0xb73fe294	-1.14372415e-05
141	0xb76501a1	-1.3649843e-05
142	0xb65468ac	-3.1651389e-06
143	0xb69a0e65	-4.5912334e-06
144	0x37189d40	9.096519e-06
145	0xb8b39b45	-8.564306e-05
146	0x3736a890	1.0887292e-05
147	0xb85b9236	-5.234984e-05
148	0xb8a1c695	-7.714067e-05
149	0xb81f1419	-3.792727e-05
150	0xb8904ab1	-6.8803674e-05
151	0xb8492f09	-4.796594e-05
152	0x37afa10e	2.0936623e-05
153	0xb7a12568	-1.9210114e-05
154	0x3805d424	3.1907242e-05
155	0xb6ed562b	-7.0731817e-06
156	0x379258d5	1.7445922e-05
157	0x376a4f50	1.3965953e-05
158	0xb714fd4c	-8.880463e-06
159	0xb7290bf9	-1.0075973e-05
160	0x385c7aac	5.2566334e-05
161	0x381116f5	3.4592074e-05
162	0xb6ad21cc	-5.1597362e-06
163	0x382830fc	4.009994e-05
164	0x384eeb65	4.9333456e-05
165	0x34cecab2	3.851797e-07
166	0x383af61b	4.457506e-05
167	0x37d3f745	2.5268304e-05
168	0xb7819f35	-1.5452135e-05
169	0x37f64394	2.9356954e-05
170	0x37218c26	9.628979e-06
171	0x388833d7	6.494641e-05
172	0x377a4f41	1.4919614e-05
173	0x379d9d07	1.878898e-05
174	0x38260951	3.958616e-05
175	0x37cae57e	2.4187142e-05
176	0x3821748f	3.8493945e-05
177	0xb826fefc	-3.9814957e-05
178	0x3801a080	3.0905474e-05
179	0x38cfdd7f	9.911786e-05
180	0x38e878a8	0.00011085096
181	0x381788c8	3.6128593e-05
182	0x38d0e258	9.960373e-05
183	0x3823cdda	3.9053943e-05
184	0x37e9112e	2.7783764e-05
185	0x3808861a	3.254982e-05
186	0x38395bbe	4.419288e-05
187	0x37f8db4d	2.9666024e-05
188	0xb83a0b2e	-4.4356268e-05
189	0xb88e207d	-6.777139e-05
190	0x382b25fc	4.0804953e-05
191	0xb8358f28	-4.3287087e-05
192	0x383bc25b	4.4765282e-05
193	0xb6e04c6b	-6.6846164e-06
194	0x37d38983	2.5217194e-05
195	0x381c7f29	3.7311725e-05
196	0x384ab900	4.8332848e-05
197	0x36ec3b1d	7.04023e-06
198	0x3824af6d	3.9264025e-05
199	0x374d0840	1.2220873e-05
200	0x38172a6d	3.6040718e-05
201	0x378f8655	1.7109482e-05
202	0x38580f23	5.151251e-05
203	0x38364f53	4.3466058e-05
204	0x37a3f602	1.954567e-05
205	0x375a0fb3	1.2997468e-05
206	0x38260e77	3.9590956e-05
207	0x3735e02c	1.0840635e-05
208	0x38997dfb	7.319074e-05
209	0x37dfc489	2.667519e-05
210	0x382adee6	4.073875e-05
211	0x38b91cc5	8.826846e-05
212	0x38e64007	0.00010979181
213	0x3823ccac	3.9052844e-05
214	0x38c58419	9.418297e-05
215	0x38106133	3.44228e-05
216	0x3855e010	5.099183e-05
217	0x3823c229	3.9043054e-05
218	0x38abe34f	8.196255e-05
219	0x38923e3a	6.973413e-05
220	0x3821a24e	3.853655e-05
221	0x37fb1772	2.993245e-05
222	0x38abce0e	8.192296e-05
223	0x37f24903	2.8882647e-05
224	0x37a12988	1.9212035e-05
225	0x3837cd2c	4.382168e-05
226	0x36c788e9	5.9466006e-06
227	0x37fab2a9	2.9885518e-05
228	0x381ba525	3.7108683e-05
229	0x37b4f2ed	2.1570793e-05
230	0x38090b16	3.267367e-05
231	0x379df8d4	1.8831728e-05
232	0x373957fa	1.1047343e-05
233	0x37c72bbe	2.3743018e-05
234	0x37a6d43d	1.9887573e-05
235	0x38191e23	3.650611e-05
236	0x38089782	3.256603e-05
237	0x38202a76	3.8186517e-05
238	0x38153055	3.556938e-05
239	0x3804ad4a	3.163264e-05
240	0x381c00e6	3.7194135e-05
241	0x38771493	5.890855e-05
242	0x36fbce14	7.5043736e-06
243	0x385bc1cf	5.2394167e-05
244	0x3882e993	6.24239e-05
245	0x380116aa	3.0777104e-05
246	0x386998c6	5.569381e-05
247	0x38027583	3.1103857e-05
248	0x372af12d	1.0188943e-05
249	0x381de00b	3.7640373e-05
250	0x37da2fc1	2.6009862e-05
251	0x384932e7	4.796954e-05
252	0x380c6dec	3.3480974e-05
253	0x3820e15d	3.835686e-05
254	0x38635165	5.4196822e-05
255	0x37f7d709	2.9544828e-05

exp_avg_sq f4 [378, 16]
0	0x33928a4e	6.823812e-08
1	0x33cdeb92	9.5889064e-08
2	0x33471468	4.6351857e-08
3	0x340f3405	1.3336837e-07
4	0x3426125d	1.5466635e-07
5	0x339fe16e	7.44502e-08
6	0x3406eced	1.2565916e-07
7	0x330d855d	3.2950414e-08
8	0x33d6d634	1.0004115e-07
9	0x33729de7	5.6488627e-08
10	0x33bfe811	8.936343e-08
11	0x33c0cef5	8.978342e-08
12	0x33886d29	6.3528496e-08
13	0x33beae86	8.87931e-08
14	0x33bc50b5	8.769113e-08
15	0x33b074e6	8.2169024e-08
16	0x32b6f7c1	2.1300254e-08
17	0x33b0795e	8.217715e-08
18	0x3215f7dc	8.729298e-09
19	0x34c8120d	3.7266037e-07
20	0x3503fd3b	4.91698e-07
21	0x33efc30b	1.1164783e-07
22	0x34c99408	3.7546874e-07
23	0x32ec6af0	2.7522645e-08
24	0x33b1993c	8.270078e-08
25	0x33857a89	6.215584e-08
26	0x3405edd4	1.2473112e-07
27	0x33889b60	6.361256e-08
28	0x330553ff	3.104287e-08
29	0x332be5e1	4.0023114e-08
30	0x34874e5a	2.5202718e-07
31	0x329c2f3b	1.8182268e-08
32	0x32947981	1.7284721e-08
33	0x3293538d	1.7151047e-08
34	0x3219348c	8.91772e-09
35	0x33298b33	3.947498e-08
36	0x33397582	4.3180542e-08
37	0x32accb7e	2.0115973e-08
38	0x33175ebc	3.5243588e-08
39	0x3221a19e	9.408181e-09
40	0x32c5d9b7	2.3032824e-08
41	0x32950834	1.7349613e-08
42	0x32b081c0	2.05481e-08
43	0x32a155c1	1.8781863e-08
44	0x329762a4	1.762357e-08
45	0x32cb21e0	2.3647715e-08
46	0x329e4c42	1.8428299e-08
47	0x329eb098	1.8473926e-08
48	0x319bd898	4.5357176e-09
49	0x31a4a2ab	4.7915214e-09
50	0x30bed90c	1.3886008e-09
51	0x3303603c	3.058834e-08
52	0x33328296	4.1562622e-08
53	0x31ce6f10	6.0080154e-09
54	0x33089e07	3.1808693e-08
55	0x30d7b488	1.5694619e-09
56	0x31efa6ef	6.9747936e-09
57	0x31678bd9	3.3694418e-09
58	0x321966bb	8.92913e-09
59	0x32014d24	7.526328e-09
60	0x31770491	3.5945826e-09
61	0x31af5f99	5.1040385e-09
62	0x328ffe39	1.6762998e-08
63	0x3129dd1b	2.471842e-09
64	0x331bbf73	3.6262872e-08
65	0x3331cc30	4.139673e-08
66	0x32973ddf	1.760685e-08
67	0x341b2c49	1.4451611e-07
68	0x3454746d	1.9786394e-07
69	0x3334eec1	4.212666e-08
70	0x3417d600	1.4140824e-07
71	0x32474413	1.1598803e-08
72	0x33aaa23d	7.945753e-08
73	0x330fe31d	3.350134e-08
74	0x33ed76e7	1.1057801e-07
75	0x339da639	7.341118e-08
76	0x3321d09a	3.7675456e-08
77	0x3361cf15	5.2575235e-08
78	0x34107116	1.3452185e-07
79	0x3321f6ea	3.77103e-08
80	0x333c8b5f	4.389892e-08
81	0x3380db6d	6.000378e-08
82	0x32e90a9d	2.7129596e-08
83	0x34049ef3	1.2351283e-07
84	0x344ba652	1.8966355e-07
85	0x335967f9	5.0618812e-08
86	0x340ce015	1.3120037e-07
87	0x32c46332	2.2862512e-08
88	0x33a445c3	7.649535e-08
89	0x332e3316	4.0558994e-08
90	0x33d2fc24	9.824751e-08
91	0x338564ea	6.211651e-08
92	0x33350a83	4.2151907e-08
93	0x337415e4	5.6830586e-08
94	0x33cafa3b	9.451875e-08
95	0x33336c42	4.1775145e-08
96	0x3316e5a3	3.513345e-08
97	0x338aba72	6.46004e-08
98	0x32772f98	1.4388114e-08
99	0x348a4db2	2.5761034e-07
100	0x34c29724	3.6245285e-07
101	0x33a611da	7.7332245e-08
102	0x348ee08f	2.661295e-07
103	0x32af3b34	2.0399604e-08
104	0x33ab50f3	7.9775326e-08
105	0x333ce9fe	4.3984976e-08
106	0x33f7a1d6	1.15312716e-07
107	0x3398fe42	7.124301e-08
108	0x32c793d6	2.3233877e-08
109	0x33086249	3.1754357e-08
110	0x344e2b48	1.920099e-07
111	0x329fcd9a	1.8603533e-08
112	0x3316f99f	3.5151626e-08
113	0x33a357dd	7.606261e-08
114	0x3291af6a	1.695999e-08
115	0x347e88ed	2.3705407e-07
116	0x34a34789	3.0413165e-07
117	0x33b048b7	8.2088654e-08
118	0x347b0669	2.3378529e-07
119	0x32b73cf1	2.1331717e-08
120	0x33b69851	8.5027416e-08
121	0x335b38cc	5.1041567e-08
122	0x33e2d212	1.0562157e-07
123	0x33a1458a	7.509796e-08
124	0x3330a85d	4.113132e-08
125	0x338236e6	6.063583e-08
126	0x3446fe41	1.8532684e-07
127	0x33299a6b	3.948882e-08
128	0x3283c490	1.5339793e-08
129	0x33144f2d	3.4530945e-08
130	0x320f5f60	8.345381e-09
131	0x33f549d1	1.1422129e-07
132	0x34109c10	1.346782e-07
133	0x33297bbd	3.9460918e-08
134	0x33e88e83	1.08292646e-07
135	0x32437e99	1.1379279e-08
136	0x331ab8f5	3.6024137e-08
137	0x32e6be68	2.686211e-08
138	0x332e34a3	4.0560405e-08
139	0x3308271e	3.1700544e-08
140	0x3299eac9	1.7918312e-08
141	0x32e1928e	2.6260093e-08
142	0x33a9e2d9	7.910939e-08
143	0x32a4acb0	1.9170642e-08
144	0x3285ca61	1.5575269e-08
145	0x3310209e	3.3557278e-08
146	0x32231463	9.492484e-09
147	0x33fb810f	1.1711574e-07
148	0x342712d0	1.5559931e-07
149	0x3330ffc7	4.121082e-08
150	0x33fb6341	1.17061525e-07
151	0x3229ec9e	9.890895e-09
152	0x335260bd	4.8982418e-08
153	0x32ce3eb6	2.4010074e-08
154	0x3382798b	6.075705e-08
155	0x3301122b	3.0051677e-08
156	0x329ea298	1.846756e-08
157	0x32e6c396	2.6864466e-08
158	0x33c900b6	9.359921e-08
159	0x32a03191	1.8648992e-08
160	0x324488e3	1.1439826e-08
161	0x327ce987	1.47214285e-08
162	0x31b7c3d1	5.3482627e-09
163	0x33a1e18a	7.538172e-08
164	0x33cdd771	9.585245e-08
165	0x32b79f20	2.1376366e-08
166	0x339d14b6	7.3146495e-08
167	0x319fe85b	4.653925e-09
168	0x32f68ffe	2.870365e-08
169	0x327a3e47	1.45660755e-08
170	0x331853aa	3.546635e-08
171	0x32c891c2	2.3349347e-08
172	0x3209d4c1	8.022824e-09
173	0x323ba11f	1.0921467e-08
174	0x3379a3b0	5.8123703e-08
175	0x32020ffe	7.570632e-09
176	0x3282c622	1.5224092e-08
177	0x331d9a50	3.6694757e-08
178	0x31d0254d	6.0578373e-09
179	0x34131621	1.3698492e-07
180	0x343c5580	1.7539969e-07
181	0x33379c79	4.275032e-08
182	0x3411b6c6	1.357067e-07
183	0x32337e1e	1.0447847e-08
184	0x3329ce50	3.953602e-08
185	0x32e20c73	2.6315524e-08
186	0x33577034	5.0160637e-08
187	0x3309ee07	3.2114283e-08
188	0x32405550	1.1195269e-08
189	0x3287dfdd	1.581787e-08
190	0x33d38a5e	9.850622e-08
191	0x32426cf0	1.1317056e-08
192	0x3222db9a	9.479573e-09
193	0x3280214b	1.4916301e-08
194	0x31c66df6	5.7750595e-09
195	0x338ade98	6.466615e-08
196	0x33a8943c	7.850073e-08
197	0x32b62a89	2.1206931e-08
198	0x3382e86e	6.0958754e-08
199	0x319ed9d2	4.6231685e-09
200	0x330c3c46	3.265111e-08
201	0x32709328	1.4003298e-08
202	0x331b2b60	3.61282e-08
203	0x32868920	1.566201e-08
204	0x322ed6fa	1.0177013e-08
205	0x32710bc0	1.4030718e-08
206	0x3361070e	5.239331e-08
207	0x323abede	1.0870023e-08
208	0x329f963f	1.857836e-08
209	0x32d1b1a5	2.4411586e-08
210	0x31d2361b	6.1179555e-09
211	0x3409d899	1.2837917e-07
212	0x3431bad5	1.6552379e-07
213	0x330dc5dd	3.3009076e-08
214	0x34061582	1.2487547e-07
215	0x3218dc6e	8.897684e-09
216	0x331841f0	3.5450228e-08
217	0x32b575e3	2.1124782e-08
218	0x3351c9d7	4.8845177e-08
219	0x331422b8	3.4490512e-08
220	0x320b2b75	8.100746e-09
221	0x323cd025	1.0990367e-08
222	0x33bc7881	8.776352e-08
223	0x3203665b	7.6484765e-09
224	0x31eb94b0	6.856304e-09
225	0x32a07380	1.8678975e-08
226	0x3139b47b	2.7023634e-09
227	0x3365ba47	5.3487636e-08
228	0x33949f47	6.9207594e-08
229	0x3274138a	1.4207112e-08
230	0x335f6590	5.2013604e-08
231	0x3149e40b	2.9378977e-09
232	0x329f50d2	1.8546789e-08
233	0x3233f3a1	1.0474566e-08
234	0x32d6dc65	2.5013103e-08
235	0x32987f82	1.7753113e-08
236	0x3214ff75	8.672818e-09
237	0x32663390	1.3399486e-08
238	0x33420bf0	4.5180002e-08
239	0x32170895	8.791308e-09
240	0x3224779e	9.573254e-09
241	0x32fe949d	2.9637073e-08
242	0x31374d7f	2.6674056e-09
243	0x33dc3679	1.0254457e-07
244	0x3409c72d	1.2831579e-07
245	0x32f73e79	2.8782994e-08
246	0x33d8c246	1.0093622e-07
247	0x320c9ca2	8.184687e-09
248	0x32b713e8	2.1313056e-08
249	0x329c8961	1.8223263e-08
250	0x32efd0d8	2.7918233e-08
251	0x32dce52b	2.5715584e-08
252	0x32142a54	8.624358e-09
253	0x326785b5	1.3476371e-08
254	0x338e75e0	6.6338316e-08
255	0x321d09a9	9.140799e-09

exp_avg f4 [378]
0	0x37ac82c0	2.0564883e-05
1	0x392a590e	0.00016245639
2	0x3542edf0	7.2616876e-07
3	0x38479aad	4.758935e-05
4	0xb8ebb346	-0.000112390655
5	0x37910488	1.7287457e-05
6	0x390c4fc9	0.00013381163
7	0xb6af3827	-5.2219434e-06
8	0x36d31edc	6.2918825e-06
9	0x359ca31a	1.1670375e-06
10	0x38722193	5.7728565e-05
11	0x382c272d	4.104448e-05
12	0x3853e751	5.052175e-05
13	0x38ccc186	9.7635246e-05
14	0x383bb9df	4.475738e-05
15	0x38892e26	6.541265e-05
16	0x37c6139b	2.3612569e-05
17	0x38bdc21a	9.0483765e-05
18	0x38101175	3.4348534e-05
19	0x383a75d4	4.445559e-05
20	0x37fec8fa	3.0372747e-05
21	0x3828b748	4.0225015e-05
22	0x38375469	4.3709213e-05
23	0x37aecb91	2.083721e-05
24	0x378fc02f	1.713642e-05
25	0x378916a9	1.6342225e-05
26	0x3741f900	1.1561671e-05
27	0x38bb2168	8.923077e-05
28	0x38be2b8a	9.068016e-05
29	0xb8c3dfde	-9.340023e-05
30	0x36a1d897	4.8233883e-06
31	0xb7318140	-1.05801155e-05
32	0x3858eb3c	5.1717492e-05
33	0xb81f9c33	-3.8054026e-05
34	0x38bd55e7	9.028223e-05
35	0xb718cc55	-9.107481e-06
36	0x37cc97be	2.4389356e-05
37	0x3842e09c	4.6462388e-05
38	0x38c1e04c	9.244736e-05
39	0x389b489c	7.4045005e-05
40	0x38e7c315	0.00011051275
41	0x3877094a	5.889804e-05
42	0x380f1f60	3.4123077e-05
43	0x3800376a	3.0569186e-05
44	0x37de9357	2.6533073e-05
45	0x37ea93ba	2.7963764e-05
46	0x37f8e3cc	2.966998e-05
47	0x37e547ad	2.7332304e-05
48	0x37609c25	1.3387796e-05
49	0x3617cabf	2.2618767e-06
50	0x378fe298	1.7152444e-05
51	0x3775649d	1.4626564e-05
52	0x37835a1a	1.5658374e-05
53	0x379866f9	1.8167762e-05
54	0x37c618e4	2.361503e-05
55	0xb7c92bca	-2.3981458e-05
56	0x376e40c3	1.4200984e-05
57	0x36ad4b94	5.1646e-06
58	0x3806efc9	3.2171407e-05
59	0x3692ea79	4.3784353e-06
60	0x3695be11	4.4626727e-06
61	0x37bbffbf	2.2411228e-05
62	0x36f9a524	7.440003e-06
63	0x3846bdd7	4.738368e-05
64	0x37c35cdc	2.3289052e-05
65	0xb6bb3b98	-5.579972e-06
66	0x3819e882	3.6694582e-05
67	0x382b7d1c	4.0886094e-05
68	0x3873345b	5.7984475e-05
69	0x3833d458	4.2874686e-05
70	0x37cedf1c	2.4661007e-05
71	0x3785bb68	1.5942103e-05
72	0x38319517	4.233894e-05
73	0xb70c90d5	-8.378372e-06
74	0x3709b895	8.208813e-06
75	0xb78ec161	-1.7017768e-05
76	0x3742a57a	1.1601829e-05
77	0x37036fea	7.8342655e-06
78	0x38d737c4	0.00010262386
79	0x386d2b76	5.654568e-05
80	0x37e41c09	2.7192773e-05
81	0x348027a1	2.3870692e-07
82	0xb82808de	-4.006258e-05
83	0xb6f54275	-7.3093056e-06
84	0xb7bcfda9	-2.2529466e-05
85	0x388e2ec5	6.779799e-05
86	0xb88d76e3	-6.745548e-05
87	0x37963fb3	1.7911056e-05
88	0x37eb0d6d	2.8020435e-05
89	0x385fb39d	5.333462e-05
90	0x384807f8	4.7691137e-05
91	0x37973880	1.8026913e-05
92	0x37741c8a	1.4550178e-05
93	0x38986d45	7.268278e-05
94	0x37dd8f59	2.6412004e-05
95	0xb4f6929d	-4.5927746e-07
96	0xb5223359	-6.0424424e-07
97	0x37c1dc4b	2.3109975e-05
98	0xb48b9c1d	-2.6004355e-07
99	0x37ef87d9	2.855428e-05
100	0x37c1bd68	2.3095592e-05
101	0x375dfba1	1.3231213e-05
102	0xb788c89d	-1.6305881e-05
103	0x38d01876	9.922769e-05
104	0x381d99df	3.757502e-05
105	0x37f6916b	2.93932e-05
106	0xb71bc030	-9.283467e-06
107	0x3664f673	3.41181e-06
108	0x38df54df	0.00010649277
109	0x385bfcc4	5.2449075e-05
110	0x3815bfb0	3.570289e-05
111	0x389fd1bd	7.6207776e-05
112	0x38ae7713	8.319146e-05
113	0x38831f6f	6.252422e-05
114	0x37119815	8.678083e-06
115	0x38f8871e	0.00011850729
116	0x38436ee5	4.65949e-05
117	0x38828cb6	6.2250925e-05
118	0x37cd5d84	2.4481451e-05
119	0x383e0884	4.530746e-05
120	0x37f5f7aa	2.9321604e-05
121	0x3735886a	1.0820202e-05
122	0x37ca4f50	2.411721e-05
123	0x3772e187	1.4476834e-05
124	0x3706d434	8.03643e-06
125	0xb65f3822	-3.3262263e-06
126	0x39357180	0.00017303787
127	0x38f9f4a7	0.00011918815
128	0xb7953d69	-1.779078e-05
129	0xb5a8f00d	-1.2586839e-06
130	0x38b2fc9f	8.534756e-05
131	0x384f4d45	4.942461e-05
132	0xb62f3297	-2.610648e-06
133	0x38937163	7.030626e-05
134	0x3844e92f	4.694721e-05
135	0x38d24364	0.00010026133
136	0x38462daa	4.7249407e-05
137	0x38272df4	3.98587e-05
138	0x3841eef8	4.6237343e-05
139	0x38678e07	5.5206965e-05
140	0x3773b9eb	1.4527216e-05
141	0x380f645e	3.418733e-05
142	0x377bc0d6	1.5005664e-05
143	0x3738d5bc	1.1017019e-05
144	0x37a7978b	1.9978519e-05
145	0x3733ea57	1.0723793e-05
146	0x36f401db	7.2719827e-06
147	0xb66fdfbf	-3.5744013e-06
148	0x382f5241	4.1799856e-05
149	0x36021369	1.9382808e-06
150	0x38397392	4.421507e-05
151	0xb7b007df	-2.09845e-05
152	0x36bfae2f	5.712521e-06
153	0x38952b02	7.1128845e-05
154	0x37eebe3d	2.8460398e-05
155	0x381d4e08	3.750439e-05
156	0x37b4a82c	2.1535983e-05
157	0x38417ba1	4.6129924e-05
158	0x38747382	5.828171e-05
159	0x38020918	3.1002884e-05
160	0x373740a4	1.09227e-05
161	0x36fc1efc	7.5137923e-06
162	0x37c70776	2.3726123e-05
163	0x3798f5e5	1.8234316e-05
164	0x37a965e4	2.0193816e-05
165	0x370b6dad	8.3105815e-06
166	0x3780773f	1.5314317e-05
167	0x3763b8d3	1.3573287e-05
168	0xb733048d	-1.0670291e-05
169	0xb8376714	-4.37266e-05
170	0x37704692	1.4321546e-05
171	0x37a449c3	1.9584671e-05
172	0xb8052784	-3.1746473e-05
173	0xb53259cd	-6.6440845e-07
174	0x374f5a6f	1.2359217e-05
175	0x385449ff	5.0613653e-05
176	0x3844c0e8	4.69097e-05
177	0x381c4ff1	3.726775e-05
178	0x38a6a4f9	7.9462254e-05
179	0x383341d5	4.2738237e-05
180	0x380f1881	3.4116678e-05
181	0x383021cf	4.1993157e-05
182	0x37e03245	2.672629e-05
183	0x35961b9a	1.1183904e-06
184	0x36e756b2	6.894429e-06
185	0x373b527d	1.1165274e-05
186	0x3722e69c	9.709645e-06
187	0x37437661	1.1650468e-05
188	0x37ad990f	2.069448e-05
189	0xb8072ea0	-3.222993e-05
190	0xb79cc6c0	-1.86892e-05
191	0xb748a1b0	-1.1958575e-05
192	0x380e3c6c	3.391171e-05
193	0x38604cba	5.347722e-05
194	0x369ad5ef	4.614463e-06
195	0x38a915a5	8.0625796e-05
196	0x3888148e	6.488814e-05
197	0x380b243f	3.317394e-05
198	0x388c9bba	6.7047265e-05
199	0x3847016a	4.7446614e-05
200	0x3755ba10	1.273911e-05
201	0x37d3724c	2.5206384e-05
202	0x374ad92a	1.2090701e-05
203	0x371b8433	9.2695e-06
204	0x37b9aa79	2.2133101e-05
205	0x37ab63d7	2.043128e-05
206	0x36b9c63a	5.5365063e-06
207	0xb71f8323	-9.507671e-06
208	0x38040c19	3.148252e-05
209	0x37150c15	8.883905e-06
210	0x3778f34a	1.4838597e-05
211	0x36cf758d	6.1827654e-06
212	0x37a3bee7	1.952001e-05
213	0x37dad086	2.6084726e-05
214	0x37a49f8d	1.962462e-05
215	0x385089db	4.9719452e-05
216	0x382f8dd7	4.185535e-05
217	0x381443ed	3.534921e-05
218	0x354f2d26	7.717921e-07
219	0x380f28ff	3.4132037e-05
220	0x37b4b55d	2.1542126e-05
221	0x375ed924	1.3282788e-05
222	0x377592e9	1.4637343e-05
223	0x36fd1776	7.542719e-06
224	0x36e8f826	6.943027e-06
225	0xb81bd98c	-3.7157486e-05
226	0x38979e01	7.2296716e-05
227	0xb842edd5	-4.6474703e-05
228	0x38220dc9	3.863665e-05
229	0xb658567b	-3.2236846e-06
230	0xb7d5e3f4	-2.5497728e-05
231	0x378a756e	1.6505564e-05
232	0x3881f98c	6.197681e-05
233	0x37de4cef	2.6500287e-05
234	0x38160a50	3.577239e-05
235	0x37e940eb	2.7805994e-05
236	0x3822822e	3.874505e-05
237	0x37bae8f6	2.2281409e-05
238	0x36ae65c5	5.1974516e-06
239	0x3780d8fd	1.5359832e-05
240	0x37b56bd9	2.1627102e-05
241	0x3797e955	1.8109256e-05
242	0x38522b29	5.0108098e-05
243	0xb743fc11	-1.16815945e-05
244	0x366f3d7b	3.5649562e-06
245	0x378891af	1.6280303e-05
246	0x367cfb32	3.769714e-06
247	0xb60fbc12	-2.1418132e-06
248	0x37b24b21	2.1254238e-05
249	0x3818e8b3	3.6456342e-05
250	0x38084268	3.2486772e-05
251	0x37db16fb	2.6117536e-05
252	0x37d77b2e	2.5687357e-05
253	0x37b02246	2.0996795e-05
254	0x37822a3a	1.5516871e-05
255	0x37f41791	2.909804e-05
