models/vgae_mutag.pt (torch, 219298 bytes, 23 tensors)

encoder.input_net.0.weight f4 [64, 7]
000000 18 89 54 3e f8 be b0 bd 95 bf 8d 3e 70 fb 66 3e
       0.20755422 -0.086301744 0.27685228 0.22556853
000010 79 72 f0 3d 6e 09 19 3e 86 6f 97 bd 1c fd 63 be
       0.11740584 0.14945003 -0.07394318 -0.22264522
000020 6a e3 89 3e 93 e4 4f be 78 64 4f be ea c6 bd 3d
       0.26931316 -0.20302038 -0.2025317 0.092664555
000030 fe 63 a4 be b1 a6 bd 3d 00 4b d4 3d 6f 90 0b be
       -0.32107538 0.092603095 0.103658676 -0.13629316
000040 4a 3e 19 be 8d 0e b0 be f3 28 b1 be 0c d4 10 be
       -0.14965168 -0.343861 -0.34601554 -0.1414339
000050 ac d1 92 bd 05 90 6c 3d 5e df ed bc e2 94 03 3f
       -0.07168898 0.057754535 -0.029037174 0.5139905
000060 0d 25 90 bb 8a 7e 9f be c7 88 a9 3e 16 4b 5e be
       -0.004398948 -0.3115123 0.33112165 -0.2170833
000070 e6 1d ea bd c7 fb 46 3e 83 b5 4f be c2 fa 87 bd
       -0.11431484 0.19431983 -0.20284085 -0.06639625
000080 74 ea 29 be d3 3a 85 bd cb 40 9c be a5 e1 d1 bd
       -0.16593343 -0.065053605 -0.30518183 -0.102481164
000090 d5 bc 1d 3f dd 1d ac bd 88 9b 04 3f 22 e5 90 3e
       0.6161626 -0.084041335 0.5179982 0.28299814
0000a0 da 60 fc bc 4d b3 a7 be f5 93 90 be a6 ab 16 bc
       -0.030807901 -0.32753983 -0.28237882 -0.009196198
0000b0 ca 2f b0 be 09 d5 d1 3e c0 70 b9 be 98 c8 b1 3e
       -0.3441146 0.40982845 -0.36218834 0.34723353
0000c0 b3 81 c8 3e 3a 9c 17 3e 4d ab 52 be d3 07 1b 3e
       0.39161453 0.1480569 -0.20573159 0.15139703
0000d0 05 38 b1 3e 8c 40 3d 3e 5d 3c 19 be ff e2 ba 3e
       0.34613052 0.18481654 -0.14964433 0.3650131
0000e0 71 e9 5b 3c 5d 9b 2b bd 16 76 9f be 8e d3 b7 3e
       0.013422356 -0.041896213 -0.3114478 0.3590359
0000f0 a7 8a 9f ba 28 77 5b bd 67 8f 2e bd 40 ab 03 bc
       -0.0012172059 -0.053580433 -0.042617228 -0.008036435
000100 d2 ba 3f 3e ad 19 25 3e 75 e5 2a be 17 c9 c8 3c
       0.1872361 0.16123076 -0.16689093 0.02450995
000110 db 63 7c 3e a8 da a8 be 32 1f e4 3d 6a cb 45 be
       0.24647467 -0.3297932 0.111387625 -0.19315878
000120 b6 da b1 be 9c 8a e9 bc de ff 3a be 09 c1 61 bd
       -0.34737176 -0.028508477 -0.18261668 -0.055115733
000130 af d4 83 3d 14 93 49 3e a6 19 b0 3d cc 25 7c 3d
       0.064370506 0.19685012 0.08598642 0.061559483
000140 1f c4 c6 3d 92 e3 d4 bd 1e b5 ec 3d c1 8f 22 be
       0.09705376 -0.10394968 0.11557983 -0.1587515
000150 7c 4f 50 be 71 ae c4 3e c4 e7 11 3e 38 41 30 3b
       -0.20342821 0.38414338 0.14248568 0.0026894342
000160 fb 58 28 3e d5 f1 40 be b7 0a 89 3d 58 41 63 be
       0.16440193 -0.18842252 0.06691497 -0.22192895
000170 98 a0 80 3d 08 28 67 be c9 f8 cf 3d 86 25 93 3d
       0.06280631 -0.22573864 0.10154874 0.071848914
000180 7e 20 3d 3c ac 9f a7 3e 3d 6f 9c be df f2 80 bc
       0.011543391 0.32739007 -0.30553618 -0.01574081
000190 93 12 ab 3e db 7c 7c 3d ad 64 08 3e 54 0e 3b be
       0.33412609 0.06164251 0.13319655 -0.18267184
0001a0 0c c2 3c bd e9 21 d4 3d 77 89 a7 be d2 bc e8 3e
       -0.046083495 0.1035803 -0.32722065 0.45456558
0001b0 1a 13 5a be 26 ac 3b be 78 ef 2c 3e ed 13 e4 3d
       -0.21296349 -0.18327388 0.16888225 0.11136613
0001c0 18 ca bf be 1c aa 94 be 5c 88 d4 3e 7d e8 bf bd
       -0.37458873 -0.29036033 0.41510284 -0.093705155
0001d0 bb 20 68 3d 53 93 8c be 46 1c fc 3d af 1d dc 3d
       0.05667184 -0.2745615 0.1231008 0.10747849
0001e0 0c 2d a2 bb c0 1f 57 be 21 82 a0 be 74 d8 9f 3d
       -0.0049492177 -0.21008205 -0.3134928 0.07804957
0001f0 67 33 3c 3e f4 d9 38 bd aa 4b 16 be a6 37 1a 3f
       0.18378983 -0.04512973 -0.14677301 0.6024116
000200 7c ae 1a be 49 fc 10 be 42 64 93 be 2d 1b 03 3e
       -0.15105623 -0.14158739 -0.28787428 0.12803335
000210 c1 f7 3a 3e 28 1e 93 be ee 90 b0 3e 31 31 00 bd
       0.18258573 -0.28733945 0.34485573 -0.031296913
000220 56 fb 65 3e 4f a5 06 be 05 f8 ba 3e a1 7b 34 be
       0.22459158 -0.13148998 0.3651735 -0.17625286
000230 26 b7 41 be 73 b9 be ba a6 89 98 bc ab f5 f0 bd
       -0.18917522 -0.0014551118 -0.018620323 -0.117656074
000240 1f 85 09 3e ee 45 b1 be bc fa 05 3e 7d de 8c be
       0.13429688 -0.34623665 0.13083929 -0.27513495
000250 9f 7c 39 3e 13 f6 f7 bd 3f 49 95 be 02 6a fd 3d
       0.18113945 -0.12107482 -0.29157445 0.12373735
000260 3a 52 f4 bd cb 31 20 be a4 8e 82 3a 06 01 03 bd
       -0.11929746 -0.15643995 0.0009960723 -0.031983398
000270 e4 34 30 be 40 5d 22 be f4 8b 54 be 22 61 08 3e
       -0.17207676 -0.15855885 -0.20756513 0.13318303
000280 e7 58 c9 3d 58 99 ce 3e 41 fb f4 bd f1 35 a8 be
       0.0983141 0.40351367 -0.119619854 -0.32853654
000290 56 d8 db 3e 84 8e 4d bc 94 e4 c9 3a 0c 63 bb bd
       0.4293849 -0.012546185 0.0015403205 -0.09149751
0002a0 a6 d0 f3 3d db 53 be be 53 b9 0b be 94 71 b8 3e
       0.11905031 -0.37173352 -0.13644914 0.36024153
0002b0 6a 9e 41 be c2 6f 45 be 72 bb be be bf 96 3a be
       -0.18908086 -0.19280913 -0.37252384 -0.18221568
0002c0 f8 aa b3 3e 58 36 98 be 99 03 bd be eb 14 a4 3d
       0.35091376 -0.2972896 -0.36916807 0.08011802
0002d0 05 30 34 3d 39 70 b0 be be e6 83 be 8d 11 1a be
       0.043991107 -0.3446062 -0.2576198 -0.15045758
0002e0 58 aa dd 3d 2b 91 7c 3e 96 25 96 3d 7a ca 23 be
       0.10823506 0.24664752 0.07331388 -0.15995207
0002f0 ab a2 6d be 07 13 4f 3e 27 2d 00 3e 20 76 28 bd
       -0.23206584 0.20222102 0.12517224 -0.041128278
000300 77 b7 3a bc fe d1 ab bb 1e 2a 2e be a4 4c 27 3e
       -0.0113962805 -0.005243539 -0.17008254 0.1633783
000310 50 e9 98 3e 7a 81 33 3e b2 1c c0 be cd 53 1d 3e
       0.29865503 0.1752986 -0.37521893 0.15363999
000320 94 c6 90 3e 6b 0e 26 3d 09 9b 23 be f2 dc 31 be
       0.28276503 0.040541094 -0.1597711 -0.1736944
000330 74 70 6d be 6f 19 00 be 68 48 2a 3d 2d 9b 75 be
       -0.23187429 -0.12509702 0.04157296 -0.23984976
000340 db 8f b1 3e 46 d8 65 be a0 8c 94 be 83 76 74 be
       0.34680066 -0.22445783 -0.29013538 -0.23873334
000350 36 d7 b7 be 45 0a 8e be 29 68 d2 bd 90 c3 82 bc
       -0.3590638 -0.2774221 -0.10273773 -0.015962392
000360 a1 80 aa bd 49 51 4f be be 32 72 be 34 07 a3 3e
       -0.08325315 -0.20245852 -0.23652169 0.31841433
000370 e6 0f c0 be f9 dc 64 3d 7a ad 8f be 8a a2 e6 bd
       -0.3751213 0.0558748 -0.2806204 -0.112614706
000380 5c e3 94 be 08 10 8a be 12 ea b6 be ef a6 f2 3c
       -0.2907971 -0.26965356 -0.35725456 0.029620616
000390 ea 7e 9b 3e 3c 59 b9 be ba 1d 3e be 2d 23 d0 be
       0.30370265 -0.36200893 -0.18566027 -0.40651837
0003a0 d3 eb 15 3e 94 33 cf be 99 9f 49 3e 83 2c 63 3e
       0.14640741 -0.40469038 0.19689788 0.22184949
0003b0 6e 27 2f 3d 43 cd 9d 3d 82 c8 16 be 44 6d c3 bd
       0.042762212 0.07705166 -0.14724925 -0.09542325
0003c0 9e 40 90 3d a5 62 57 3e 0a 9f 22 be d2 fd 62 3e
       0.07043575 0.21033724 -0.15880981 0.22167137
0003d0 32 05 2a 3e 5e 25 af 3e 27 8b da 3c 26 25 7d 3e
       0.16603544 0.34208196 0.026677681 0.24721202
0003e0 c5 13 b6 3e 93 4c c6 bd 3f eb a1 bd 22 89 9d be
       0.35561958 -0.09682574 -0.07906198 -0.30768687
0003f0 06 4a 94 be a6 29 3d 3f 84 c8 b0 be 0f 24 a0 3d
       -0.28962725 0.73891675 -0.3452798 0.07819378

encoder.input_net.0.bias f4 [64]
000000 c6 7e 91 3d b1 b8 8c be 0d 0f 84 3d bb 5d d5 bd
       0.07104258 -0.27484658 0.06448183 -0.10418268
000010 f4 94 8f 3d 18 24 7a 3c dd 8d ad bd a2 a3 bb be
       0.070108324 0.0152673945 -0.08474324 -0.3664828
000020 e2 07 75 bc e0 fd 81 be b7 3f 91 be 88 61 53 be
       -0.014955493 -0.25389004 -0.28368923 -0.20642674
000030 3b 45 3e 3e 76 b3 bb be d5 f3 15 be 84 ca 57 be
       0.18581097 -0.36660355 -0.14643796 -0.21073347
000040 0b d9 4b 3e 97 22 4c be 56 2c 10 3e a2 9b bf be
       0.19907014 -0.1993507 0.14079413 -0.37423426
000050 b0 6a 13 be 60 38 0b 3e e5 2e b5 be 8b ac 86 3e
       -0.14396167 0.13595724 -0.3538734 0.26303515
000060 1a 1c 88 3d 79 8e 37 3e 39 b5 f6 3d 6a fc 5c be
       0.06645985 0.17925443 0.12046284 -0.21580663
000070 89 f7 9f be 69 fe 32 3e f6 d6 67 3e cf 6c ad 3d
       -0.31243542 0.17479862 0.22640595 0.08468019
000080 03 3b a9 be ae 96 cb 3e 56 4c 84 be 09 a2 bb be
       -0.33052835 0.39763397 -0.2583949 -0.3664706
000090 1b 6a 96 3e 85 08 a1 be f9 a2 a1 bc 45 7b af be
       0.29377827 -0.31451812 -0.019731032 -0.34273735
0000a0 ea e5 26 be fa 02 99 be 21 93 bc be 85 d9 7d be
       -0.16298643 -0.29885083 -0.36831 -0.24790008
0000b0 6a bf 07 3e 52 ed c2 3c dc 57 83 3e 8a 8c cf 3e
       0.13256612 0.023794804 0.2565297 0.4053691
0000c0 fe f9 a4 be ec 36 09 3e 58 d4 25 3e 7c 62 3e bd
       -0.3222198 0.13399857 0.16194284 -0.04648064
0000d0 aa e1 be bd a1 da 40 3c 11 68 85 be 3e 2b 2e 3e
       -0.09320386 0.011770875 -0.2605596 0.17008683
0000e0 8b 18 9e be 8b 3f 82 be dd 5c fc 3d 56 ba 4c be
       -0.308781 -0.25439104 0.123224 -0.19992957
0000f0 57 f4 2c be aa c7 b3 be 29 2c b8 be d1 47 63 3c
       -0.16890083 -0.3511327 -0.35971192 0.013872103

encoder.message_net.0.0.weight f4 [64, 64]
000000 e9 82 22 bd be 8b 9b bd cf 24 06 3e c1 8c ca bd
       -0.039675627 -0.07595013 0.13099979 -0.09890128
000010 bc 69 f4 3d fa d2 49 3e 2a db d4 bd 40 b7 ec bd
       0.1193423 0.19709387 -0.10393365 -0.1155839
000020 c4 4f 9d bd 40 06 6e 3b 6c 1a de bd 9c 6d 13 bd
       -0.0768123 0.0036319643 -0.10844883 -0.035993204
000030 2e e6 12 3e 48 7e 7f bd 4e d5 ea bd 38 b4 0b be
       0.14345619 -0.06237629 -0.11466466 -0.13642967
000040 a2 df 50 be d2 3d 80 bc a1 20 7a 3e 64 60 c5 bd
       -0.20397809 -0.015654478 0.2442651 -0.09637526
000050 13 7d ca bd c3 0b 96 3e 62 d0 dd 3d d8 e1 d2 3b
       -0.09887137 0.29305848 0.108307615 0.006435614
000060 d4 98 cc 3d 4a f3 4b 3e 37 25 7a be 30 65 49 3c
       0.09990087 0.19917026 -0.24428259 0.012292191
000070 ca f3 43 3e 65 6f 81 3d d9 90 aa 3d c3 87 3f be
       0.19135967 0.06320075 0.08328409 -0.18704133
000080 8d 32 93 bd 56 51 85 3e 71 b2 e8 3d 16 f4 11 be
       -0.07187376 0.26038617 0.1136216 -0.14253268
000090 4f 18 a3 3e 32 ab 93 3d 1d e2 33 3e 4a 6d 95 3d
       0.31854483 0.07210387 0.17566724 0.07296236
0000a0 6b 0f 88 b9 12 68 a0 3b c6 7e ee bd 22 ef c7 bd
       -0.0002595143 0.0048952186 -0.11645274 -0.09762408
0000b0 74 6c b0 be 8c 7e aa 3d aa 91 92 be 33 d6 b1 be
       -0.34457743 0.08324918 -0.28626758 -0.34733734
0000c0 b0 38 08 bd bc 33 92 be c2 a0 7c 3e 44 2d e1 be
       -0.033257186 -0.28555095 0.24670699 -0.43979847
0000d0 d3 3d 51 3c 8a d7 23 3e c6 d2 48 3e a2 e4 19 3e
       0.012771088 0.1600019 0.19611654 0.15028623
0000e0 cc 97 75 bd b1 1e bd bd 3d ce b0 3d 43 d9 3b 3e
       -0.059959218 -0.092343695 0.08633087 0.18344598
0000f0 bb 12 98 be a2 93 fe bd 04 8a bd bd 14 85 a3 3d
       -0.2970179 -0.124305025 -0.0925484 0.07984367
000100 b6 9e ff bd d8 bf 81 bd 78 b7 ef 3d bc 86 7e bd
       -0.124814436 -0.063354194 0.11704916 -0.06214021
000110 f0 06 0d bc fe ba db bd 54 d6 ca bd 64 f6 19 3d
       -0.008607611 -0.10729025 -0.09904161 0.037588492
000120 00 a7 03 bd d2 e8 b7 bd ae 65 fb 3d 58 93 dc bd
       -0.032141685 -0.08979954 0.12275253 -0.10770291
000130 58 83 9f bd 44 cc f6 bd f2 ca b1 3d 90 9f 9a bd
       -0.07788724 -0.12050679 0.08681287 -0.075499654
000140 f8 f2 be bd 30 56 be 3d a0 fc 70 bc 58 57 af bc
       -0.09323686 0.09293783 -0.014708668 -0.021403953
000150 2c 23 e5 3d 60 20 07 bc 60 c3 99 3b a0 59 ac bd
       0.11188349 -0.008247465 0.00469248 -0.08415532
000160 e4 b1 10 3d c8 9f 73 bd 26 96 d7 3d fe a8 a7 3d
       0.0353259 -0.05947855 0.105266854 0.081865296
000170 9c 29 19 3d c4 d5 ae bd 8a 18 ac 3d 48 f5 bc 3d
       0.037393197 -0.08536866 0.08403118 0.09226471
000180 a0 d3 a4 3d c0 8b f4 bd 60 ad 30 bd ec eb 7e bd
       0.08048177 -0.11940718 -0.043134093 -0.06223671
000190 c0 46 5d bb 5c 0a cf 3d de db c2 bd 90 28 35 3d
       -0.0033764094 0.10109398 -0.095145926 0.044228137
0001a0 54 06 49 bd 00 ec b5 bd 08 80 e1 bd d0 24 f6 bc
       -0.0490783 -0.08882904 -0.11010748 -0.03004685
0001b0 1e a1 90 3d 20 a8 49 3d 74 66 d1 bd 6a 9d 8b 3d
       0.07061981 0.049232602 -0.102246195 0.06817134
0001c0 64 ea de bd 9c f9 4d 3d ac 75 21 bd 28 95 78 bd
       -0.1088455 0.050286874 -0.03941886 -0.06068912
0001d0 94 6c 80 3d 30 08 3f bd 1a 19 ca bd ec b7 c9 3d
       0.0627071 -0.046638668 -0.09868069 0.098495334
0001e0 64 90 34 bd 68 90 f3 bd a2 06 86 3d 48 3b 0c 3d
       -0.044083014 -0.11892778 0.06544234 0.034236223
0001f0 80 79 e7 bc b4 6a 6c 3d be a9 da bd 9c d7 14 3d
       -0.028256178 0.057718948 -0.10676907 0.036338434
000200 30 27 60 3d 34 6f b0 bd 88 8a 42 be 55 54 29 3d
       0.054724872 -0.0861496 -0.18998158 0.04134019
000210 a3 a3 ed bc 96 05 0a bd 82 58 0d 3c 5a 00 7d be
       -0.029008692 -0.033696733 0.008627059 -0.24707165
000220 93 f8 12 bc 16 70 e8 bb 90 bd af 3d 01 90 9a bc
       -0.0089703975 -0.00709344 0.08581078 -0.018867495
000230 07 a8 d8 bc 86 42 94 bd 88 da 3d 3d 20 57 e1 3c
       -0.02644731 -0.07239251 0.046350986 0.027507365
000240 be bd b7 3d b6 a0 20 be 33 e7 27 bd 00 c8 f6 bc
       0.08971737 -0.15686306 -0.040991973 -0.030124664
000250 24 ec 48 bd 50 a0 30 bd f2 00 c0 bd 45 19 2d 3d
       -0.049053326 -0.043121636 -0.0937518 0.042260427
000260 2b 33 13 3e dd 5d 4e 3e f9 1c 8e 3d c6 dc e2 3d
       0.14374988 0.20152994 0.0693912 0.110772654
000270 b8 31 81 3d 92 e3 06 3d e0 30 57 3b 13 be 95 3d
       0.06308311 0.03293187 0.0032835528 0.073116444
000280 8f 17 d0 bd 4f 49 8d 3d 90 0f 59 3d fa 98 19 3e
       -0.101607434 0.06898748 0.052993357 0.14999762
000290 0c b2 0c be b0 1c bf bd f0 9c 1f 3e db f4 da bd
       -0.13739794 -0.093316436 0.1558721 -0.10691234
0002a0 0f dc 3a 3d 0c 95 f2 bd 20 ab 8a bb c8 41 26 bd
       0.04562002 -0.11844835 -0.0042318255 -0.040590078
0002b0 1e fa 1f 3e 6e 88 99 be 8f 0d 41 3d c6 3f d1 3d
       0.15622756 -0.299869 0.04713207 0.10217242
0002c0 7a 1f fa bd d8 87 9a 3d c5 ee 19 bd 91 e5 06 3e
       -0.12213035 0.075454414 -0.037581224 0.1317351
0002d0 1c 87 52 bc f7 09 bb be 1a 1b 32 bc 31 91 c4 3d
       -0.012849595 -0.3653104 -0.010870719 0.095980056
0002e0 e6 d0 bd 3d 6b 1a 89 3b 8f d8 c6 3c c4 fe 04 be
       0.0926836 0.0041840575 0.024273185 -0.1298781
0002f0 98 96 8b 3e 90 d3 f1 bc da ba c2 3d 66 87 b7 bd
       0.2726333 -0.029519826 0.09508295 -0.08961372
000300 7c 08 4f 3d da fe 9a bd 2e 04 1b be 11 65 58 3c
       0.0505452 -0.0756814 -0.15138313 0.01320769
000310 a3 0d 1c 3d c1 b7 88 bc b4 b9 72 bd 9e c6 e9 3c
       0.038098942 -0.016689183 -0.05925913 0.02853709
000320 1e ea 1f bb 1b ef d5 bd d8 41 9d bc 97 37 bf bd
       -0.002440102 -0.104459964 -0.019196436 -0.09336775
000330 05 0e 07 be 4e 05 e1 bd 48 71 64 3d 13 4b 00 be
       -0.13188942 -0.1098734 0.055772096 -0.12528639
000340 ec d5 2c 3a 75 7c f5 bd 7c 53 0a be 28 29 71 bd
       0.0006593156 -0.11986629 -0.1350841 -0.05887714
000350 79 e4 e7 3d 8f 0d ac 3c 58 29 72 bd 8d d5 77 3d
       0.113228746 0.021002559 -0.05912146 0.060506392
000360 bc be eb bc 7a dd 84 3d 58 a5 06 3c ae a7 ee bd
       -0.028777473 0.06487556 0.008218132 -0.11653076
000370 01 ac a5 3c c6 64 d6 bc b0 0b 74 bd 38 a6 3b 3d
       0.02022362 -0.0261711 -0.05958146 0.045812815
000380 d7 0e 93 bc 78 03 78 bd c6 1a ac bc e8 0e 43 bd
       -0.017951412 -0.060550183 -0.02100886 -0.047621638
000390 4c 22 a7 bc 3c 79 bf bd a6 e3 0a be 80 95 bc 3c
       -0.020402096 -0.093492955 -0.13563403 0.023020506
0003a0 26 60 f9 bc b4 70 27 3c 54 36 9e 3d 80 d4 d1 bd
       -0.030441355 0.010219742 0.07725206 -0.10245609
0003b0 e2 de 7d bd 4c cb d6 3d 80 0a 6d 3d e3 4d 93 3d
       -0.061980136 0.104879946 0.05787134 0.0719259
0003c0 00 41 2d bd 6e 39 b5 bd 90 d0 0d 3c 77 67 c2 bd
       -0.042298317 -0.088488445 0.008655682 -0.094923906
0003d0 8b 29 3d bc d6 77 b7 bd d8 cf ac 3d 38 0b 13 bd
       -0.011545549 -0.08958404 0.084380805 -0.03589937
0003e0 8a 94 e5 3d d8 9d bb bd 02 f6 75 bd b4 2a 17 bd
       0.11209972 -0.09160966 -0.060049064 -0.03690596
0003f0 df 13 4b 3c 22 51 92 bd be 32 e3 3d ce ec 22 3d
       0.012394874 -0.07144381 0.11093663 0.039776616

encoder.message_net.0.0.bias f4 [64]
000000 5f c0 58 3e 0c 00 29 bd f1 cd 21 3d f4 fc 15 be
       0.21167134 -0.04125981 0.03950304 -0.14647275
000010 92 9e c7 bd 5d 9b 19 3e 91 f0 16 3c c7 e4 47 3d
       -0.09747042 0.15000673 0.009212629 0.048802163
000020 b6 6c 5f 3d cd 3b 18 bd 38 73 86 3c 14 db d8 bd
       0.054547034 -0.037166405 0.016412362 -0.10588661
000030 13 00 c8 bc 17 fe 03 be 52 a6 70 3d d3 7d 65 3d
       -0.024414098 -0.12889896 0.058752365 0.0560282
000040 ef 4f 33 3e ca f3 fb bd 85 ce 3c 3e d3 69 91 3e
       0.17510961 -0.123023584 0.18438156 0.2840105
000050 0f 75 a4 bb 67 5e 24 3e 7c a0 ae bd 57 b4 54 3e
       -0.0050188373 0.16051637 -0.08526704 0.20771919
000060 1a a3 3b 3d ac 87 99 bc 4c d0 cb bd e4 97 a2 bd
       0.045809843 -0.018741451 -0.09951839 -0.07939127
000070 f0 45 2b 3d e1 88 f7 bd ce d7 49 bd 33 4e 42 3e
       0.041814744 -0.120866545 -0.049278073 0.18975143
000080 ab fb a5 3c a9 7b d9 bd 49 2a 47 3e 12 6b a5 bd
       0.020261606 -0.106192894 0.19449724 -0.08077063
000090 2c fb 6d 3d 86 1c 9f 3d d7 17 b0 bd d2 3e 90 3d
       0.058100864 0.07769112 -0.08598297 0.07043232
0000a0 94 4e 86 3c 79 bb fc bb 22 b1 ad bd c1 da 8a bc
       0.01639489 -0.007712778 -0.08481051 -0.016950013
0000b0 63 96 37 bd 04 19 b3 bb cf 6a a9 bd a2 0d 3d bd
       -0.044821154 -0.0054656286 -0.08272325 -0.04615558
0000c0 0c 1b 8d bc ad f6 7a 3e 85 45 20 be 26 dc 32 3c
       -0.017224811 0.24508162 -0.1565152 0.010916745
0000d0 9d 05 cc 3b 4b 13 4b 3d ac d4 cb bd 7d 77 79 bc
       0.006226255 0.049578946 -0.09952673 -0.015226242
0000e0 16 09 0b bd 3c f4 d0 3d b0 49 92 3d 3c 3d ed bd
       -0.033944212 0.10202834 0.07142961 -0.11583945
0000f0 4a 81 cb 3b 9f 99 e4 bd d3 44 75 bd 12 b1 28 3e
       0.006210481 -0.111621134 -0.05988009 0.16473797

encoder.message_net.1.0.weight f4 [64, 64]
000000 ae f7 91 bd 3d 80 af bd b8 82 df 3c f6 dc 9f bc
       -0.07127319 -0.085693814 0.027284011 -0.019514542
000010 60 98 16 3d 38 99 15 bd 46 44 71 3d 4d 98 bc 3d
       0.03676641 -0.036523074 0.058903 0.092087366
000020 fe eb b7 bb 75 77 a2 bd ff 0a f2 3d db 9c fc 3d
       -0.0056128493 -0.07932941 0.118185036 0.12334605
000030 61 b1 34 be 8c 98 85 3d 7b ca 25 be 48 52 bd bd
       -0.1764579 0.06523237 -0.16190521 -0.092442095
000040 33 2b c7 3d 30 04 ed 3d 29 85 a6 3d 3b 5b 30 3d
       0.097250365 0.11573064 0.08130867 0.043055754
000050 dc 04 dc bd 6e 4f 12 bd b2 9a fe bc 21 cd f8 bd
       -0.10743114 -0.03572028 -0.031079624 -0.121485
000060 38 e7 a5 bd 7d ce 32 be 7e bb c5 3d 72 5a d5 bb
       -0.08100742 -0.17461582 0.09654902 -0.006511026
000070 cc ea 1c 3d 76 4f 92 3d 38 25 34 3c 57 17 71 3c
       0.038309857 0.07144062 0.010995202 0.014715037
000080 be 54 c1 3d a0 7f f1 bd 2c 1e c5 bd 32 a6 f4 3d
       0.094399914 -0.11791921 -0.096248955 0.11945762
000090 45 d8 ec 3d 9c 45 52 bd 13 fb 77 bd 1a ad 36 3e
       0.11564688 -0.051335916 -0.060542177 0.1783947
0000a0 3b 5d 45 bd 0c 9c b1 3d 26 f8 07 3e d4 11 08 bd
       -0.048184615 0.08672342 0.13278255 -0.033220127
0000b0 cf d9 cf 3c 0c 89 9f 3c 3b 2e 75 bd e6 24 86 3c
       0.025372414 0.019474529 -0.059858542 0.016375016
0000c0 49 a2 46 3d 2f de fc bc 48 bf be 3c 3a f6 56 3d
       0.04849461 -0.030867664 0.02328457 0.052480914
0000d0 9a df aa 3d 06 16 9f bc 04 04 d1 3c 0f 19 19 be
       0.0834343 -0.019419681 0.02551461 -0.14950965
0000e0 cc f0 a1 3d 47 91 ed 3d d2 be c7 bd 6b 45 05 bd
       0.079072565 0.11599975 -0.09753193 -0.032536905
0000f0 8b 4a 0c be 7d f3 de bd d5 19 38 bd 91 a9 4e 3d
       -0.13700311 -0.108862855 -0.04494651 0.05045468
000100 96 57 fd bd 1d a9 12 bd 82 49 1c 3b 58 47 56 3d
       -0.12370221 -0.03580581 0.0023847525 0.052314132
000110 ca 98 09 bd 87 30 cb bb 1e 1d 4d bd 0d 99 9d bd
       -0.033592977 -0.0062008533 -0.050076596 -0.07695208
000120 90 2f 1f be dd dd 92 bd 19 c2 32 3d b5 42 85 bc
       -0.15545487 -0.07171223 0.043642137 -0.01626716
000130 fd 43 4a bc 6f 20 eb 3d 6e e2 38 be 62 5e 23 3e
       -0.012345311 0.114807956 -0.18055126 0.15953973
000140 9b 16 80 3c 63 4a 0d bd 63 73 06 be 87 0e 8d 3d
       0.01563578 -0.03449477 -0.13129954 0.068875365
000150 40 4c 28 be 33 33 b2 3c 76 8f 75 3d 57 4b e2 b9
       -0.16435337 0.02175293 0.059951268 -0.00043162212
000160 de 0e c3 bd a1 d3 49 bd 16 0e 83 bd 36 e8 56 3d
       -0.0952432 -0.04927409 -0.06399171 0.052467547
000170 09 1e e6 bd ab 73 34 be 4f 5b 9e bd 74 15 b5 bd
       -0.112361975 -0.17622249 -0.077322595 -0.088419825
000180 df e7 64 3d dd 8e 6b bd d3 cb cc 3b 9f e8 ac bd
       0.055885192 -0.057509292 0.0062498837 -0.084428065
000190 c7 94 ae 3b 78 d5 77 bd 96 1b 3d bd f1 bd dd bd
       0.0053277942 -0.060506314 -0.046168886 -0.10827244
0001a0 0f 62 13 bc ce cd ca bc a2 a3 77 bd 04 db ad bc
       -0.008995547 -0.024756338 -0.060458787 -0.021222599
0001b0 e4 70 41 be 48 f5 37 3e bf 01 6f bd db 5e 5f 3d
       -0.1889072 0.17964661 -0.058351275 0.05453382
0001c0 17 88 95 3d 93 47 07 3e ee 14 5d 3d b8 15 04 3e
       0.07301348 0.13210897 0.05397504 0.1289891
0001d0 5a 71 21 bd d7 1f a4 3c f1 8c b9 bd 8b a6 7e be
       -0.03941474 0.020034714 -0.090600856 -0.24868219
0001e0 b0 a5 e5 bd 07 3e cf 3d c5 1b 7e bd 00 f4 69 be
       -0.11213243 0.10119253 -0.0620382 -0.22846985
0001f0 76 2f cd 39 10 a6 1a be 2e b7 7e bd b9 74 84 39
       0.00039136008 -0.1510241 -0.062186413 0.00025263967
000200 63 bc 34 3d 57 a9 b6 bd a9 50 43 3d 46 49 7f 3e
       0.044124972 -0.08919018 0.047684345 0.24930295
000210 ec c6 30 3d 52 b2 35 be 66 4e 8b 3e 56 22 58 be
       0.043158457 -0.17743805 0.2720825 -0.21106848
000220 a7 d7 82 bd 55 9c d6 bc 8e e9 68 be 11 f7 e0 bd
       -0.06388789 -0.026197592 -0.22745344 -0.10984624
000230 c6 c2 a0 bd 74 ea 1b be 28 01 53 3d be 03 27 3e
       -0.0784965 -0.15226156 0.051514775 0.16310021
000240 53 cc 0d 3e cb 7a 34 3e 75 3c e8 3d d2 4e 66 3d
       0.13847475 0.17624967 0.11339656 0.056227513
000250 bf 1c 7c be 15 6e 15 3c 16 ca 2b 3e 08 ea 31 be
       -0.24620341 0.009120484 0.16776308 -0.17374432
000260 0f ad 3f 3e f0 11 34 bc 70 c6 7b bc f2 58 a9 bd
       0.1871836 -0.010990605 -0.015367135 -0.08268918
000270 32 f9 d1 3d 52 00 7f be 6f 0d fa 3c e4 fe 1c bb
       0.10252608 -0.24902466 0.030523984 -0.0023955638
000280 3a d6 9b bb 7f 04 cb be 09 6a dd bc 30 a3 e4 bd
       -0.0047557624 -0.39651868 -0.0270281 -0.11163938
000290 60 fd 93 3c 81 98 a5 be 7f 3c cb bd 9d 72 ea bd
       0.018065155 -0.32342914 -0.09923648 -0.11447642
0002a0 ed 5c 2d be ba 7e e8 be 27 64 51 3d 49 87 03 be
       -0.1692998 -0.45409185 0.051120903 -0.12844576
0002b0 3b 51 2f be 8b df f0 3d 2e e4 09 3e 6d 60 bc 3b
       -0.1712083 0.117613874 0.1346595 0.0057487995
0002c0 89 74 ef 3d 36 f7 4d 3c 00 05 f6 bd 40 44 08 bd
       0.11692149 0.012571147 -0.120126724 -0.033268213
0002d0 34 db 80 3e 95 52 72 3e 1e 56 35 be f0 b9 01 3e
       0.2516724 0.23664315 -0.17708632 0.12668586
0002e0 e9 11 4e be 32 3d 8f 3e 83 13 e3 bc 7f 74 1c be
       -0.2012402 0.27976376 -0.027719265 -0.15278815
0002f0 37 ba 5a bd 6b e3 8e 3c f8 5a 84 bd 11 10 20 be
       -0.053400245 0.017442426 -0.064626634 -0.15631129
000300 d3 ce 62 be a5 1c 62 be ea 69 e8 3a 1d 87 6c 3e
       -0.2214921 -0.2208124 0.001773176 0.23098417
000310 7f 3d 11 be 1e ca d4 3e 0b f0 95 3e 92 24 a2 bc
       -0.14183615 0.41560453 0.292847 -0.019792829
000320 69 d9 db 3d c9 f0 d8 3d 34 46 d6 bd 94 25 12 3e
       0.10734827 0.10592801 -0.10462609 0.14272147
000330 4b 75 9a 3e b2 87 2c 3d bb cb cc 3d 71 1c 0e 3e
       0.30167612 0.042121597 0.09999796 0.13878037
000340 8d f3 98 bc f8 b8 37 bd e4 81 7e 3e 0c f3 f8 3c
       -0.018670822 -0.044854134 0.24854237 0.030389331
000350 6d 26 9b 3c 19 97 bb ba 9d 93 27 3c 5d 0b 95 be
       0.018939221 -0.0014311998 0.010228065 -0.29110232
000360 cf 80 10 be 9e 73 df bc 27 24 93 bd b2 3d 5a bd
       -0.14111637 -0.02727681 -0.0718463 -0.053281493
000370 59 74 89 3d ae b1 9e be cd 6e 38 3d 93 4b b3 3d
       0.06711645 -0.30994934 0.045027543 0.08754649
000380 20 ea 87 be 3d 54 21 3e b2 76 71 be 5c af 14 be
       -0.2654581 0.1575479 -0.23580435 -0.1452002
000390 cd 75 e0 3e 3f dc bc be 69 07 a8 bc 3e 80 75 be
       0.43839875 -0.36886784 -0.020511346 -0.23974702
0003a0 37 8f 3f be 07 14 50 be 82 ca e0 3d 3c bc e0 bd
       -0.18706976 -0.2032014 0.10976125 -0.10973403
0003b0 1b 42 0e be d2 7e a1 bd fb 57 67 3e 12 45 28 3d
       -0.13892405 -0.07885517 0.22592156 0.041081496
0003c0 5d c8 25 bb 21 12 a4 3e d3 e5 91 3d 7a 9a eb 3c
       -0.0025296428 0.3204508 0.071239136 0.028760184
0003d0 d6 84 60 3e 85 12 52 3e 42 2f 8a be 2f 39 1d 3e
       0.21925673 0.20514877 -0.2698918 0.15353845
0003e0 52 0c b1 3d bf fc 6c 3e e3 fd 7d 3a b1 97 7e be
       0.08644928 0.2314329 0.0009689016 -0.24862553
0003f0 77 8a d6 bd 44 4e 6c be f2 e5 55 be 15 d6 4f 3e
       -0.10475629 -0.23076731 -0.20888498 0.2029651

encoder.message_net.1.0.bias f4 [64]
000000 cc 6a 1a be 9c 94 10 be 39 5a d1 bd 13 bb 07 be
       -0.15079802 -0.1411919 -0.10222287 -0.13254957
000010 2a 9a d2 bd 6d e0 71 bd ec a3 6f be bc 08 05 be
       -0.10283311 -0.05905192 -0.23402375 -0.12991613
000020 fa dd f9 bb 48 c4 f2 bd fe fe 47 be d0 77 ad bd
       -0.0076253386 -0.11853844 -0.19530866 -0.08470118
000030 9d d2 42 be 95 92 36 be 81 40 1d be 85 f5 f4 bd
       -0.19025655 -0.17829354 -0.15356638 -0.11960892
000040 65 5c 6e bd 29 b3 a8 3d fc 87 10 be 17 f7 0e be
       -0.058193583 0.08237297 -0.14114374 -0.13961445
000050 f0 c1 c5 bd e5 3a d0 3d 17 26 86 bd de 79 1b be
       -0.09656131 0.10167483 -0.06550234 -0.15183207
000060 4d ff 00 be cd 22 43 be ea a7 54 bd 29 3f f4 3c
       -0.1259739 -0.19056244 -0.051917948 0.029815273
000070 3c 8c 36 be 71 9e 5d bd c1 a7 ce bd f3 6f a0 bc
       -0.17826933 -0.05410618 -0.1009059 -0.019584632
000080 7d 7c af bd d0 04 25 bd c3 d7 94 bc fa 7a 32 be
       -0.08568666 -0.040287793 -0.01816929 -0.17429724
000090 e8 cc ec 3c f6 a0 22 3e 84 c6 c0 bd 5d 07 98 bd
       0.0289063 0.15881714 -0.09412864 -0.074232794
0000a0 c1 cf 1a be 6c 9e f5 bd 10 d6 b9 bc c1 6c 81 bd
       -0.15118314 -0.11993107 -0.02268508 -0.06319571
0000b0 5d cf 11 3e 2b 48 40 3d 43 20 2c be 87 49 c6 bd
       0.14239259 0.046943825 -0.16809182 -0.09681993
0000c0 6b 81 c2 bd ca d1 ee bd 3d c4 03 bb bf d2 ee bd
       -0.09497341 -0.11661108 -0.002010598 -0.116612904
0000d0 2a 3d 02 be 79 a0 cb bc db cb 29 bd 2e 5c 01 be
       -0.12718645 -0.024856793 -0.041454177 -0.1263282
0000e0 27 98 01 be 4e 0a 0e bd bb 4f c3 3c 82 b6 21 be
       -0.12655698 -0.034677796 0.02384173 -0.15792277
0000f0 37 0e 0d be 18 ea 31 3e 8f 71 7a 3d d9 34 e5 bd
       -0.13774954 0.17374456 0.061143454 -0.111917205

encoder.message_net.2.0.weight f4 [64, 64]
000000 cb c8 60 be 22 fb 70 be 22 53 b0 be 40 78 18 be
       -0.21951596 -0.235333 -0.34438425 -0.14889622
000010 e5 21 a9 3d 39 23 32 3e ad 5b 32 bd b3 e6 89 3d
       0.08258418 0.17396249 -0.04354446 0.067334555
000020 21 ca b9 3e 2c 2c de bd 0d af 07 be 37 91 08 be
       0.36287025 -0.10848269 -0.1325037 -0.13336645
000030 9e a7 9b 3d db f9 00 3d 84 34 44 bd 5d 30 f6 3d
       0.0760033 0.03148828 -0.047901645 0.12020943
000040 b2 9f 53 be 16 6b 29 3d 6c 08 8e bd 91 42 49 be
       -0.20666388 0.04136189 -0.069352 -0.196543
000050 e8 4e 8f bd a2 0e 11 be 61 72 02 3e 59 86 f0 3d
       -0.06997472 -0.14165738 0.12738945 0.11744375
000060 2e b6 14 3c 53 8c 04 bd 49 7f 17 be cb 68 45 bd
       0.009076638 -0.032360386 -0.14794649 -0.04819564
000070 43 db bb bd 24 a4 c8 bc a8 75 32 be cf 54 4b 3d
       -0.0917268 -0.02449233 -0.17427695 0.049641427
000080 14 d9 45 3d f4 ba a4 bd be c8 af bd 35 02 21 3d
       0.048302725 -0.08043471 -0.085832104 0.039308745
000090 49 33 67 3e f7 54 9f 3d 8a 0d 19 bc 63 2b ff bc
       0.22578157 0.07779878 -0.009341607 -0.031148618
0000a0 82 eb 02 be c7 f7 a5 3d a2 26 84 3d 76 61 a7 bd
       -0.12785152 0.081039004 0.06452681 -0.08172886
0000b0 a4 fb 0e bd 32 8b d6 3c 38 e8 87 bd db f4 f9 3d
       -0.034907952 0.02618942 -0.06636089 0.122049056
0000c0 34 74 0e be be 22 f3 bc 55 d1 0c 3e 93 ce 29 3e
       -0.13911515 -0.029679652 0.13751729 0.16582708
0000d0 4d ca 0a be bf 9e 3f bd 31 47 7f bd 75 69 b7 3d
       -0.13553734 -0.04678225 -0.062323753 0.08955661
0000e0 d0 59 1f be 05 f6 8e 3d dd 0c 06 3e 0a 00 2e 3e
       -0.15561604 0.06980518 0.13090844 0.16992202
0000f0 1c b3 e2 bd 85 ad 49 be 6f 35 72 3e ab 9f bb 3d
       -0.11069319 -0.19695099 0.23653196 0.091613136
000100 ed 1c 52 3e 84 10 83 3d 54 b1 08 3e 01 e9 ba 3e
       0.20518847 0.063996345 0.13348895 0.36505893
000110 1f 61 d0 bd f2 3d 5b be 1d c9 4c be 3f ff 46 3d
       -0.101747744 -0.21410349 -0.19998594 0.048583265
000120 cc 19 e1 bd 01 13 21 3e 13 be 8e 3d a9 84 a3 3e
       -0.109912485 0.15729906 0.069698475 0.3193715
000130 7a e3 2c be 3e 50 64 bd a3 d9 be bd ef 66 56 be
       -0.1688365 -0.055740587 -0.09318855 -0.20937704
000140 99 87 62 be 2e c8 45 3d f5 fe 11 be fe 29 5a 3e
       -0.22122039 0.04828661 -0.14257415 0.21305081
000150 89 b8 04 3d 2d 07 d2 bb 3c 44 04 bd cd 55 5b ba
       0.03240255 -0.006409547 -0.032291636 -0.00083669723
000160 6e 35 83 be 7c a6 b1 bd fa 9b bf 3d 79 c3 f8 bc
       -0.256267 -0.086743325 0.09355922 -0.030366646
000170 68 00 40 bd 7d 5e 0d 3d 1f bb ee 3e ae 86 b6 3d
       -0.046875387 0.03451394 0.46627137 0.08912407
000180 e8 7f 93 be c9 5f aa be 52 78 52 3d 86 41 86 be
       -0.28808522 -0.33276203 0.051384278 -0.26221865
000190 fa be d1 bd ba 4f 2c 3c 7a 9e 9d 3e 5d 2a 2f 3e
       -0.10241504 0.010517055 0.3078497 0.17106004
0001a0 0b e4 09 bd 71 60 4f be 5b 81 45 3e 45 1b c9 3c
       -0.033664744 -0.20251633 0.19287626 0.024549136
0001b0 7e ae 95 bd 58 cb 03 3e b1 bb 14 be 8f 70 26 bc
       -0.07308672 0.12870538 -0.14524724 -0.010158672
0001c0 15 b4 93 3d 11 44 90 bd 41 5f 96 3e 90 e7 c6 be
       0.07212082 -0.07044233 0.29369548 -0.38848543
0001d0 9e 76 da 3c 9a b7 ec bd 62 ce c4 3d a4 32 c0 be
       0.02666789 -0.11558457 0.09609677 -0.37538636
0001e0 93 7e 96 be a9 74 5d be ee 9d ae 3c ac 12 f3 bd
       -0.29393443 -0.21626534 0.021315541 -0.11868796
0001f0 53 39 2d be c8 76 fb 3d 2e e8 7c bd b8 8d d8 bd
       -0.16916399 0.12278515 -0.06174486 -0.10573906
000200 8d 89 80 3d b2 a8 1e 3c 77 7b bc 3e 5c 70 62 bd
       0.06276236 0.009683775 0.36812946 -0.055282936
000210 13 da 64 3e ce 01 89 3d dd b0 30 3d 2e 5d be be
       0.22348814 0.06689797 0.04313742 -0.37180465
000220 e4 b7 d8 3e d3 49 3a be 9c a4 99 be 98 ed fc bd
       0.42327797 -0.18192224 -0.300084 -0.12350005
000230 b4 c2 2b be 62 f9 88 be 30 ae 0e be 77 bd 69 be
       -0.16773492 -0.26752764 -0.13933635 -0.22826181
000240 05 8a 0a be e0 2c e5 be f5 6f 87 3e 58 e6 98 3d
       -0.13529213 -0.447608 0.26452604 0.074658096
000250 87 28 00 bf ef ba a1 3d db 19 ca 3e 62 d4 ed 3e
       -0.5006184 0.07896983 0.3947285 0.46451098
000260 35 00 67 3e a2 1b 2e 3e d6 e3 c7 3d 58 3e 84 3e
       0.22558673 0.17002729 0.09760253 0.25828815
000270 0a f0 cd 3e 97 9a 34 3c a9 95 e6 3d d5 56 53 3e
       0.40222198 0.011023185 0.11259014 0.20638593
000280 87 98 da 3d 10 79 5d bd bf 01 11 bc df 47 de bc
       0.106736235 -0.054070532 -0.008850514 -0.02713388
000290 61 64 06 bd 81 d3 68 be f7 2d 8f 3e 26 55 ad bb
       -0.032810573 -0.22736932 0.27964756 -0.0052896915
0002a0 e7 da 55 bd 88 3d 9d bb b3 6d d6 3e be 98 d8 bd
       -0.052210715 -0.004798595 0.4188057 -0.10576008
0002b0 af 82 5f bd b1 f4 49 3e 47 f2 78 be 31 96 4c 3d
       -0.05456799 0.19722249 -0.24311171 0.04994792
0002c0 dd bb 9b 3e 8d 21 98 3d d8 25 03 be df 02 46 3d
       0.30416766 0.07428274 -0.12807405 0.04834258
0002d0 6c c1 27 3e 7d 0e 13 bd 34 14 80 3d 86 d7 91 be
       0.16382378 -0.03590249 0.062538534 -0.28484744
0002e0 57 fb 90 3c d4 1e 18 3e 07 81 0a bd 54 c3 77 be
       0.017697973 0.1485551 -0.033814456 -0.24195606
0002f0 18 a7 6d 3d 5d 9d af bd 28 94 49 be e6 27 0c bc
       0.05802068 -0.085749365 -0.19685423 -0.008554434
000300 ea d3 9d bd 72 0d 28 be 31 f9 e7 bd 8b 41 a3 3d
       -0.07706435 -0.16411379 -0.11326826 0.07971486
000310 f9 bb f3 bc 42 b1 b7 3d 3f 0f 61 bb 23 dc ab bd
       -0.029752718 0.08969356 -0.0034341363 -0.08391597
000320 2a fd 80 3c b8 b6 f6 3c 65 29 b1 3d ea f0 ad 3d
       0.015745718 0.030116424 0.086504735 0.08493216
000330 15 4f 9b bc 4b c6 e1 3d 07 49 a6 3d a4 8c e5 bd
       -0.018958608 0.110241495 0.081193976 -0.11208466
000340 9d d1 63 bd 34 af b9 3d 80 7c c6 bd b2 b4 00 bc
       -0.055619825 0.090666205 -0.09691715 -0.007855581
000350 39 5c d5 bd e7 95 7e bd dc e1 e1 3d a7 25 e8 bd
       -0.10417981 -0.062154677 0.110294074 -0.113353066
000360 73 6e d0 bd 4e a8 91 3d f1 fc 12 bd 32 e1 de bd
       -0.101773165 0.0711218 -0.035885755 -0.10882796
000370 b5 d3 27 bd b5 e6 8a bd af dc 4a bc ed 01 2c bd
       -0.040973384 -0.06782285 -0.012381717 -0.041994024
000380 0a 38 6d 3b 53 9b d6 bd 81 38 07 bd aa d7 45 be
       0.0036196732 -0.104788445 -0.03301287 -0.1932055
000390 4d f1 2e bd 44 74 a7 3c 7d 7c ee bc ce b4 73 3d
       -0.04271059 0.020441182 -0.029112095 0.0594986
0003a0 70 57 1f 3c 52 6b 1f be b1 48 20 3c fe 74 c6 bd
       0.009725437 -0.15568283 0.009782956 -0.09690283
0003b0 56 c3 4c bd 0c 53 a7 bd 94 e2 01 be 62 32 46 3c
       -0.049990974 -0.08170137 -0.12684089 0.012096973
0003c0 c7 6a e1 bc 39 73 1f 3d 0a 38 0a be c0 8a d9 3d
       -0.027516736 0.038928244 -0.1349794 0.106221676
0003d0 c9 2e a5 bc 56 11 73 3d 96 d0 c5 3d 4f b1 13 be
       -0.02016391 0.059342705 0.09658925 -0.14423107
0003e0 53 07 fa 3d 02 3e b4 3d 69 f2 7d bd 2d 1d 26 be
       0.12208428 0.088008896 -0.06199876 -0.16222067
0003f0 19 7b 88 bd 91 66 2e 3d a6 8b 8f 3c 4f cd 08 3d
       -0.06664104 0.042578284 0.017522644 0.033398923

encoder.message_net.2.0.bias f4 [64]
000000 3b 5b fb bd 51 46 01 3e 2c 12 1f bd 0a fc a6 bd
       -0.1227326 0.1262448 -0.03883569 -0.081535414
000010 2b 08 5c be 1d 19 e3 bd 50 f3 7a bd 1b 5e 0e 3d
       -0.21487491 -0.11088774 -0.061267197 0.034757715
000020 55 78 89 be 12 8a aa bd 14 d9 19 be 1b 61 21 be
       -0.2684962 -0.08327116 -0.15024215 -0.15759699
000030 79 2f 57 be f8 30 4f bd fa c7 1a be a0 10 6b bc
       -0.21014203 -0.05058381 -0.15115348 -0.014347225
000040 e7 9f 32 be 0e aa 3f bd 22 5c 56 bd a3 c6 a9 bd
       -0.1744381 -0.046793036 -0.05233396 -0.0828984
000050 47 0d 6a be 95 1a 03 be bc 43 f2 bc a1 52 a4 3d
       -0.22856627 -0.12803109 -0.029573314 0.08023573
000060 5a 7d 3f be 76 17 7c bd 15 17 50 be 06 80 4c bd
       -0.18700162 -0.06154581 -0.20321305 -0.04992678
000070 3e 2e 59 be 62 57 cb bd d3 ce 5a be 5e 66 ad bd
       -0.21209046 -0.09928776 -0.2136796 -0.084667906
000080 e5 06 18 be b9 cf c2 bd a1 2e 1c 3e 59 6c 02 be
       -0.1484638 -0.09512276 0.15252163 -0.12736644
000090 72 ff ae bd 82 73 7e be e8 e8 51 be a7 0b 66 3d
       -0.08544816 -0.2484875 -0.20499003 0.056163456
0000a0 f3 e1 6b 3d 4a ed a2 bd 92 9c 8c 3d 5c fc 8d 3c
       0.05758853 -0.079554155 0.06865801 0.017332248
0000b0 c9 2e 47 bd fe 27 8f bb 2d 2a 63 bd e3 8c 2c be
       -0.048628602 -0.004368781 -0.055460144 -0.16850619
0000c0 9d 3b 61 be 7d f7 3a be 76 29 29 be 77 6e 1a be
       -0.21995397 -0.18258472 -0.16519722 -0.15081201
0000d0 a7 2f 34 be b9 d1 c4 bd b7 ec e3 bb 00 03 21 bd
       -0.17596303 -0.09610314 -0.006955709 -0.0393095
0000e0 dd 37 58 3d a1 59 ed bd 05 bc 1f be 3a 28 cc bd
       0.05278765 -0.11589361 -0.15599068 -0.0996861
0000f0 61 56 86 bd bb 45 f1 bd d1 81 72 be 79 61 c4 bd
       -0.06559444 -0.11780878 -0.23682334 -0.09588904

encoder.message_net.3.0.weight f4 [64, 64]
000000 6f d5 89 3e 87 72 99 3c cc b3 06 3f fd e8 2b be
       0.2692065 0.018731369 0.526181 -0.16788097
000010 e9 fb 95 3e d0 ba ba 3d 02 61 b9 bb d7 ae 12 bd
       0.29293755 0.09117663 -0.005657316 -0.03581127
000020 1b 4c d3 3d 07 f3 8a 3e 42 48 7c be dd 39 a2 3e
       0.1031725 0.2713854 -0.24636939 0.3168477
000030 96 f5 41 3e dc 7f 93 bd 89 c9 ce bd 01 7c 00 be
       0.1894134 -0.072021216 -0.100970335 -0.12547304
000040 ec e2 37 3e 23 08 68 be 73 60 d4 be d6 e9 c4 bc
       0.17957658 -0.22659354 -0.41479835 -0.024037283
000050 bc b7 89 3d 6f d8 07 be 71 12 2d 3d 68 b0 ce 3e
       0.06724498 -0.13266157 0.042253915 0.40368962
000060 4b e6 e8 be f6 1e 35 be ac 39 0f bd a1 df 34 3e
       -0.454882 -0.17687592 -0.03496711 0.17663433
000070 7e 8f 6b 3c 9e 24 c3 bd 5a 7f ad be cb 7f bc be
       0.014377473 -0.095284685 -0.33886224 -0.36816248
000080 97 0b 49 be 1b c6 da 3c 40 93 15 be ae bd c7 bc
       -0.19633327 0.026705792 -0.14606953 -0.024382439
000090 dc 35 49 3e 17 4f a0 be 27 80 38 3d 41 50 62 3d
       0.19649452 -0.3131034 0.04504409 0.055252317
0000a0 25 44 25 3e 5d 61 14 3e af 14 ba bc 5b 95 90 be
       0.16139276 0.14490266 -0.02271494 -0.2823895
0000b0 99 7f f2 3d 8e ba 88 3e 40 a8 90 3e 25 b6 eb 3d
       0.118407436 0.2670483 0.28253365 0.11509351
0000c0 41 81 a0 bd b5 c7 10 be 03 58 dc bd 97 47 12 3f
       -0.07837153 -0.14138682 -0.107589744 0.5714049
0000d0 b7 8a c1 bd 9a ff d4 be ac 3f 11 3e 4c 40 99 3e
       -0.09450286 -0.4160126 0.14184445 0.29931867
0000e0 8b 03 a0 3d 46 46 03 3e 6f ba c0 bd ef 6d 5f 3e
       0.07813176 0.12819776 -0.094105594 0.2181928
0000f0 c3 aa 0c 3d 42 d8 52 bd f1 bc 03 bd 7a ab 98 3e
       0.03434254 -0.05147577 -0.03216261 0.29818326
000100 87 19 e6 3d d8 a3 41 be 72 10 9a 3d bf 78 e8 3c
       0.11235338 -0.18910158 0.07522668 0.028377889
000110 f7 3e bd 3d b2 55 0c bd aa 85 dc 3c 8a b7 52 3d
       0.09240525 -0.034261413 0.026919205 0.051444568
000120 4b 79 20 bd 0e 9e 0e bd 0b 40 88 3c 4e bb 2f 3d
       -0.039178174 -0.0348187 0.0166321 0.042903237
000130 d7 ab 29 be d9 aa 95 bc cc fd 91 bd 7b 92 56 3d
       -0.16569458 -0.018269943 -0.07128486 0.05238579
000140 d4 80 14 3d 5d 8c 1c 3d 71 09 8d bd 54 55 0f 3e
       0.036255673 0.0382198 -0.068865664 0.13997394
000150 79 8b a5 3c 53 10 22 3d 9d 2b aa bc 81 cf 60 bd
       0.020208107 0.03956635 -0.02077275 -0.05488539
000160 4a fc 02 3e 0b d0 96 3d fa 90 db bd fe 04 d4 3d
       0.12791553 0.073639 -0.107210115 0.10352515
000170 3f a2 a6 3c 8d e5 6f 3d 6f 11 99 bd cd fa c0 bc
       0.020341037 0.058568526 -0.07474028 -0.023557091
000180 e1 31 e9 3d 2a 9e 09 bd 94 6d 67 be 7a 9d 1a 3e
       0.11386467 -0.033598103 -0.22600394 0.15099135
000190 5e 6b 8d bd 7c 26 d1 bd 9c 43 13 bc 55 ab 00 3e
       -0.06905244 -0.102124184 -0.008988287 0.12565358
0001a0 e1 a2 4e be 2a 33 e4 3d 8b d6 2d 3e a3 36 69 bd
       -0.20179321 0.11142571 0.16976373 -0.05693687
0001b0 3a b2 07 3e d4 9e 24 be 05 ef bd bd b0 c9 6d bd
       0.13251582 -0.16076213 -0.09274105 -0.058053672
0001c0 fc 30 ef 3d f5 b4 a9 3d 1c fe 7b 3d 99 9a 94 3d
       0.11679265 0.08286468 0.061521634 0.0725605
0001d0 9d 25 9e bd 7d 3c 69 39 ab f8 c6 bd 3a 24 20 be
       -0.07722018 0.00022243145 -0.097153984 -0.1563882
0001e0 fe 4a 1a 3d 1f 37 3c 3e 9e ab 8f bc d0 87 16 3d
       0.037669174 0.18380402 -0.017537888 0.036750615
0001f0 43 db 14 bd ba 05 36 bd 05 c6 f6 bd 9a 0d 08 bd
       -0.036341917 -0.044439055 -0.12049488 -0.033216096
000200 ae a1 a9 bd 81 0b 6f be 93 74 4d 3d 9b 4e 86 bc
       -0.08282791 -0.23344232 0.050160002 -0.016394904
000210 6f 25 7b 3d 66 61 87 3d fc bb 8d 3d 3b 08 c6 3d
       0.061314996 0.06610374 0.06920621 0.096695386
000220 72 7c fb 3d 32 9f 01 3d 3b 14 8a 3d 9c 61 03 3e
       0.122795954 0.03164596 0.0674214 0.12830204
000230 7e fd 1c be 4c 76 3b 3d 56 22 c2 bd 4f ad e7 3d
       -0.15331075 0.045767114 -0.09479205 0.11312353
000240 ea 1a 9a 3c c0 0c 22 be 3c f5 08 3d f0 7d d2 3d
       0.018811662 -0.15825176 0.033437 0.10277927
000250 81 1a 71 bd 22 2e 86 bd b3 c8 c7 3d 36 d8 0e 3e
       -0.058863167 -0.06551768 0.09755077 0.13949665
000260 41 21 3e 3c 4b 32 73 3d 78 3f b0 3d 25 fb 1d 3d
       0.011604608 0.059374135 0.08605856 0.03856959
000270 cc 72 51 3d 00 ce 21 3e f3 b9 85 3d 72 db 84 bd
       0.05113487 0.15801239 0.065296076 -0.06487168
000280 0a f1 c6 3d 0d 24 df bd 7e c4 d1 bd e7 c8 15 be
       0.09713943 -0.10895548 -0.10242556 -0.1462742
000290 99 08 fe 3c f0 78 b1 3c 7e cb 52 39 04 d5 25 3d
       0.031009959 0.021664113 0.00020102967 0.04048635
0002a0 ce 23 f1 3d 99 ae 76 bb cc f6 9c 3c 8c ab 8d bd
       0.11774407 -0.003764069 0.01916065 -0.069174856
0002b0 8b 4c 4b be a7 a8 bd bb d4 9b 97 bc fe 40 3c 3c
       -0.19853418 -0.005787927 -0.018506922 0.011490105
0002c0 af b9 66 3b 46 31 6d 3d 4e 77 a7 bc 73 05 bd 3c
       0.003520589 0.05790832 -0.020442631 0.023073887
0002d0 72 e1 bb bc 1b eb 5e 3d 50 ca 70 be f1 a1 ae bd
       -0.02293465 0.054423433 -0.23514676 -0.085269816
0002e0 27 44 f0 bd 2f 30 f3 3d 54 99 99 3d 17 7e c3 3d
       -0.11731749 0.11874425 0.07499948 0.09545534
0002f0 fb d6 b1 bc 2c 94 f6 bd b7 f7 4e be 11 4d 1a bd
       -0.021708956 -0.1203998 -0.20211683 -0.037671153
000300 bc cf 31 3e 99 8d 7f 3d ad f3 00 3f 0c ca c8 be
       0.173644 0.062390897 0.5037182 -0.3921665
000310 9d 53 e8 3d 75 3c 6e be 8c a0 35 3e 74 b0 93 be
       0.11344073 -0.2326525 0.17737025 -0.2884556
000320 c2 d9 27 3e 22 2e c2 3e 66 69 39 be c6 32 87 3e
       0.16391662 0.37925822 -0.18106613 0.26405925
000330 dd 01 c2 bd b9 36 db bd 48 3d 70 bd f8 77 0b bd
       -0.09473012 -0.10703797 -0.058652192 -0.034049958
000340 81 5e 46 3e 2c 34 a2 be 9e 4d cd be 7f bf 76 3d
       0.19371988 -0.3168043 -0.4009828 0.06024122
000350 69 4b 9b bd a2 50 b4 3d 0a 9f 2f 3b e4 7a 1d 3e
       -0.07582743 0.08804442 0.0026797676 0.1537891
000360 7b 0c b3 be fa e8 d3 3b fe 0c 7b be af 04 86 bd
       -0.3497046 0.006466982 -0.24516675 -0.06543862
000370 be f5 01 3e 22 81 84 bc 5c be d4 be cb 12 9c be
       0.126914 -0.016174857 -0.41551483 -0.30483088
000380 55 45 b2 be 52 68 04 be ec 66 95 bd 79 58 0e be
       -0.3481852 -0.1293042 -0.072950214 -0.13900937
000390 bd de f6 bd cd eb a1 be 0a 05 c1 3d 16 22 15 3e
       -0.12054203 -0.31625214 0.09424789 0.14563784
0003a0 bc f5 9d 3e fc 3a fd bd 0c 5b 93 3d 96 48 16 be
       0.30851543 -0.12364766 0.071951 -0.14676127
0003b0 c8 c8 3a be 78 8d 52 3e 5d 95 a8 3d 65 84 fa bd
       -0.18240654 0.20561779 0.08231614 -0.122322835
0003c0 8c 4a 67 be e7 25 f9 bd ae c3 93 be 2b b7 ec 3d
       -0.22587031 -0.121654324 -0.2886023 0.11558374
0003d0 48 f8 7c bd 74 1f c0 be e8 80 bd bc d3 14 f9 3d
       -0.061760217 -0.37523997 -0.023132756 0.12162175
0003e0 74 81 a5 3e 5a fe 00 3e 92 e8 96 be f6 cc eb bd
       0.32325327 0.12597027 -0.29474312 -0.115137026
0003f0 27 82 a6 3e 42 5a ca 3d cd c4 84 3e 76 2f bb 3e
       0.32521173 0.098804966 0.25931397 0.36559647

encoder.message_net.3.0.bias f4 [64]
000000 e8 13 37 be 91 e0 33 be 88 e1 76 be 5f 2e 32 be
       -0.17878687 -0.17566134 -0.24109471 -0.17400502
000010 5c 47 3d be 16 e2 23 be 40 ac 45 3b 93 6d 95 be
       -0.18484253 -0.16004214 0.0030162483 -0.2918516
000020 62 ba 42 be 53 03 3f bd 7d 09 d1 bd 31 dd 70 be
       -0.19016412 -0.04663403 -0.10206888 -0.23521878
000030 86 53 96 bd 9f 41 c4 bd 7c e5 d9 3d 2b 5f 3e 3c
       -0.073401496 -0.09582829 0.10639474 0.0116193695
000040 d5 6c eb 3d b9 c5 41 be 60 ad f3 bb 8c a6 de bc
       0.114953674 -0.18923081 -0.0074364394 -0.027179025
000050 98 1c 36 be 95 25 20 be df 62 19 bd 6f f3 43 be
       -0.17784345 -0.15639336 -0.037447806 -0.19135831
000060 5d 83 d2 3d 88 17 a7 bd 1d d3 00 3e f4 66 ec bd
       0.10278962 -0.08158785 0.12580533 -0.11543074
000070 75 2f de 3d 9b e6 c5 bc 39 23 b0 3d e7 59 6d be
       0.108488955 -0.024157813 0.08600468 -0.23178826
000080 e5 7f 34 be 64 8e 40 be 09 8b 82 be a5 00 25 bd
       -0.17626913 -0.18804318 -0.254967 -0.040283818
000090 16 06 2c be 06 9e 11 bd fc df 6b be c4 96 3d bb
       -0.16799197 -0.035551094 -0.23034662 -0.0028928975
0000a0 e8 2a 14 be 77 59 72 be 05 7c 48 bd 86 7a 10 be
       -0.14469492 -0.2366694 -0.0489464 -0.14109239
0000b0 a3 e3 e9 bd 77 bd da bd aa 19 1c 3e 0a 5a 9b 3c
       -0.114203714 -0.10680669 0.15244165 0.018963832
0000c0 ec 1d 16 be 06 80 28 be 4a fd 01 be 45 39 23 be
       -0.14659852 -0.16455087 -0.12694278 -0.15939815
0000d0 9f 21 ea 3d dd fc de 3c 74 f1 44 be a8 88 dd bd
       0.11432194 0.027220184 -0.19232732 -0.10817081
0000e0 45 03 13 3e b7 08 5b 3e 72 f1 0c 3e fc f7 aa bd
       0.14356716 0.21390043 0.13763979 -0.083480805
0000f0 23 2d 26 be 55 3d 2b be 77 b6 a0 bd 7c 5e 28 3e
       -0.16228156 -0.16722615 -0.078473024 0.16442293
